Maize-Runner/results/TestRightExit6/EscapeMaze/EscapeMaze-1999970.onnx (onnx, 172175 bytes, 9 tensors)

action_model._continuous_distribution.log_sigma f4 [1, 2]
00000000: 4c45 06be 14f5 00be
-0.13112372 -0.1259349

action_model._continuous_distribution.mu.bias f4 [2]
00000000: cb2d 163c 1c15 bebb
0.009166191 -0.0058008563

action_model._continuous_distribution.mu.weight f4 [2, 128]
00000000: e7ed d33b 98fb 0dbc 7bfc 203c 2845 ad3b
00000010: e59f 4ebd e492 d739 e51c 8c3b 6aaa e3bc
00000020: 0384 1a3d 9d57 34bc ced3 0f3a c756 843a
00000030: 220e f93c f3bf b13a 4981 823a 8729 7f3a
00000040: 453b 093a cbdb 3fbb 4108 d13a 614f 2d3c
00000050: 89c1 02b9 bca2 a539 83a2 eeba 74aa 47bb
00000060: b357 11ba ecd0 98bb d0b8 8aba c7cc 003b
00000070: 0fb8 27bc 517b 18bb 1dbd 3f3b 5260 1e3c
00000080: 976f 023c 7b1e c7bb 46f5 0b3c 9869 0d3c
00000090: 727c 2d3b ca40 12bd f050 383b 4db8 173b
000000a0: afbb 033b be9a 9f39 af59 5e3a be88 883a
000000b0: 1631 87ba cf1f e93a 10e6 ae3a da66 723b
000000c0: 4edc 513c e338 60bb be25 98bb e14a b83b
000000d0: 175d c7ba 9e55 d13b 0e1d 4ebb 21c8 a83b
000000e0: 8861 163c 94ff fb3c c10e 083c 7a07 5b3d
000000f0: 7658 823a ceaa 593b 999f 65ba d5a8 f7bb
00000100: 8369 123c a432 37bb f310 193b 5d45 97ba
00000110: e73e ac39 d797 75ba 8a42 32bb 33fb efbb
00000120: b289 9fbc 5e59 203a b834 03bb 0df5 fd39
00000130: 59c5 9b3b 3e71 f63b af77 293c 4839 9b3b
00000140: 7949 2d39 8769 d83a 7650 84bc 98b1 303b
00000150: 9c80 c3ba c3bb 1b3b 9542 063c 76d5 2f3b
00000160: 1d1c b2bc bee0 453c 998b b939 6603 853b
00000170: 0b87 36bb e00b fabb 08ec a03b c3d9 803b
00000180: 28ea 0abd 8ebf 6b39 eab0 673b 9702 393b
00000190: 13c2 803c d550 123b e76c fbba 94bb 46b8
000001a0: 6a02 83ba 2a5b d53a 6cc4 b9ba 19df 043c
000001b0: 3b4d 3d3b 984e 9738 a1a5 f2bb d071 343c
000001c0: 6b3c 743b f046 31ba b5df 9fbb 51d7 efba
000001d0: 20a7 24bb 4009 43ba 2e67 1fba 7a01 183b
000001e0: 9477 1eba 6f10 3538 b98f 623a e5b6 b2ba
000001f0: 1be3 13bc 7b66 683a 8e18 a43b 8dbb 96b9
00000200: 30fd 68bc 1e4d b43b d989 6dbc 8446 153b
00000210: 12c2 b63c 4700 cbbb a4a6 4e3c 5067 443c
00000220: c55b 8d3d 7adf 5d3c 8079 2fbb f206 51ba
00000230: d2e6 01bc de48 9ebb 55d0 443a 0d94 e03a
00000240: 24f2 1bbc cfca 493c a45b 43bb 65bb 913c
00000250: a043 24bb 5d87 ca3a 0546 2239 7926 c838
00000260: 74bd 25bb 7c09 473c bd9d 873c 3004 2ebc
00000270: d3db ae3b e9ca 8bba 023d 10bc a07c 87bb
00000280: 6c4f 133b 93b6 283b 065b 8bba 0eb1 cebc
00000290: b1cf 97b7 b488 083c 3ac2 13bb 182a 043c
000002a0: bac2 fdbb 1608 6cbb 2808 caba d944 313b
000002b0: 66ed 293b b3c0 38b8 95fa 063c 6988 89bb
000002c0: 2d37 41bb 82ea 5e39 31fd 2d3a 2947 9fbb
000002d0: 95b1 653b 0750 b8ba 3ce3 b13a ab02 50bc
000002e0: db93 67bc 7111 0dbd 8067 bebb 4d37 4dbc
000002f0: 6a63 68ba 389a c33b ae9a 303a 12d8 043b
00000300: 315a 2e3c 2910 d3bc 5df7 19bc 8ae5 21bc
00000310: 65d9 953a afa5 9b3a 284a 91b9 f8f5 f0ba
00000320: dd23 c03c 10d7 88bb 03d5 fbba 1c73 82ba
00000330: ebe8 23bc 5e0d 763c ea29 02bc d72d 4fbc
00000340: a92f eb3a dfdd 15bc 5703 c73b c595 073c
00000350: b930 94ba e354 1cbb fa41 9dbc 6b31 02bb
00000360: 26b8 6fbc c28b b0bc 4c30 353c 1985 2a3c
00000370: 2c3b 15bc cd7d 51bb c386 003a 97bb c83b
00000380: 9f15 2fbc 8078 3fbb 196f 1239 6b46 3abc
00000390: 2a97 be3b 76e9 ca3a 5e51 97ba d95c 873a
000003a0: 94e6 f439 9623 fabb a9ef 5d3c bd6b 14bc
000003b0: 0e7d 4abc 9e37 f438 490d f93b b277 11bc
000003c0: b612 b9bc 61b7 df3a d26a 1ebb ca64 2e3c
000003d0: 472a bcb9 dfd9 a0bb 07a1 1a3b 89d8 283c
000003e0: ffb0 4b3b de49 cd3a 13fe 8c3b 1dbe 0b3b
000003f0: 96d1 e23b 1332 87ba 6e52 3d3c 2788 a5ba
0.006467569 -0.008665942 0.009825821 0.005287785 -0.050445456 0.00041117438 0.0042759054 -0.02779122
0.037723552 -0.011007217 0.00054865784 0.0010096662 0.030402247 0.0013561234 0.0009956743 0.0009733666
0.0005234967 -0.0029275294 0.0015947894 0.010578007 -0.00012469864 0.000315925 -0.0018206391 -0.0030466588
-0.0005544379 -0.0046635773 -0.0010583643 0.0019653307 -0.010236754 -0.0023266862 0.0029257007 0.009666519
0.007961175 -0.0060766316 0.008542364 0.008631133 0.002647188 -0.03570632 0.0028124414 0.0023150623
0.0020100882 0.00030442135 0.0008481992 0.0010416729 -0.0010314311 0.0017785969 0.001334371 0.0036987574
0.012808872 -0.0034213595 -0.004643171 0.0056241606 -0.0015210238 0.00638838 -0.0031450423 0.0051508103
0.009178527 0.030761518 0.008304299 0.053473927 0.0009944576 0.003321338 -0.00087594386 -0.007557968
0.008936289 -0.0027953768 0.002335605 -0.0011541058 0.00032853262 -0.0009368634 -0.0027200305 -0.0073236465
-0.019474838 0.00061168324 -0.0020020436 0.00048438497 0.0047537503 0.0075208237 0.010343476 0.004737053
0.00016525936 0.0016510942 -0.016151648 0.0026961323 -0.0014915648 0.0023763038 0.008194585 0.0026830113
-0.021741921 0.0120775085 0.00035389958 0.004059243 -0.0027851488 -0.00763081 0.0049109496 0.003932209
-0.033914715 0.00022482706 0.0035353252 0.0028230303 0.015717542 0.0022326012 -0.0019182236 -4.7381574e-05
-0.0009995226 0.0016277779 -0.0014172918 0.008109831 0.0028885144 7.21488e-05 -0.0074049984 0.011013463
0.0037267457 -0.00067625847 -0.004878963 -0.0018298422 -0.0025124028 -0.0007440038 -0.00060807436 0.002319424
-0.000604504 4.3169068e-05 0.0008642632 -0.0013634829 -0.009026314 0.00088653684 0.00500781 -0.00028749966
-0.014220521 0.005502357 -0.0144981975 0.0022777626 0.022309337 -0.0061951014 0.012612972 0.011987522
0.06902269 0.0135420505 -0.00267753 -0.0007973752 -0.007928567 -0.004830464 0.00075078505 0.0017133966
-0.00951818 0.01231642 -0.002980926 0.017789552 -0.0025064722 0.0015451718 0.00015475608 9.543909e-05
-0.0025289925 0.012148257 0.016554708 -0.010621116 0.0053362637 -0.001066533 -0.008803608 -0.0041347295
0.002247776 0.0025743588 -0.0010631985 -0.02523091 -1.8097317e-05 0.008333374 -0.0022546188 0.008066677
-0.0077441605 -0.0036015562 -0.0015413808 0.0027049093 0.0025928854 -4.4048484e-05 0.008238454 -0.0041971696
-0.002948235 0.00021258931 0.0006637155 -0.004860778 0.0035048474 -0.0014061936 0.001357175 -0.012695949
-0.014134373 -0.03444046 -0.005810678 -0.012525392 -0.00088649115 0.005969312 0.0006736916 0.002027039
0.0106416205 -0.025764542 -0.009397355 -0.0098813865 0.0011432586 0.0011874939 -0.00027711806 -0.0018383851
0.023454601 -0.004176028 -0.0019213263 -0.0009952518 -0.010004262 0.015017835 -0.007944563 -0.012645206
0.0017943281 -0.0091471365 0.006073396 0.008275454 -0.0011306024 -0.0023854307 -0.0191965 -0.0019865881
-0.014631307 -0.021551017 0.011058878 0.0104077095 -0.009108346 -0.0031965852 0.00049028936 0.006125878
-0.010686307 -0.002921611 0.00013965032 -0.011369328 0.00581636 0.0015480954 -0.0011544635 0.0010327353
0.000467111 -0.0076336367 0.013545909 -0.00905889 -0.012358917 0.00011645186 0.0076004607 -0.008878635
-0.02259193 0.0017068201 -0.0024172557 0.010644147 -0.00035889653 -0.0049087848 0.0023594515 0.010305532
0.003108084 0.0015662273 0.004302749 0.0021323033 0.0069219572 -0.0010314606 0.011555297 -0.0012629078

network_body._body_endoder.seq_layers.0.bias f4 [128]
00000000: 28b0 1fbc 6707 aa3b 23da 7439 b866 a4bc
00000010: b810 24bc 5fd1 393d c08d eabc 154a 27bc
00000020: ed4a 19bc 38cf c53b 5aee 743c 616a ab3c
00000030: bb90 093d 909c 903c 3ab5 a63b c897 e23b
00000040: 16e5 263b f37e 753c b5c2 a2bb b63e 92bc
00000050: d497 b7bc 3ca5 b6ba eb48 043d cf5a c03a
00000060: 636d aebc 8141 b0bb 09ed 74bd 4ec0 afbc
00000070: bd20 4d3c 6ac8 d23c 0187 e73c 0011 42bc
00000080: 1e27 25bc 33d6 1abc 72dc 0f3d 21c5 b23c
00000090: 3603 c7bc 8cdb f3bc 1649 59ba 0a1e 11bc
000000a0: 8dfd 02bc 0128 0abd 5511 4f3d a3b0 213c
000000b0: be25 a13c 324e 2cbd 8e9b a33c af04 39bb
000000c0: 39fe 173d ebdb d43c f741 553c f646 853c
000000d0: b5fb bf3c 55f5 6ebd b3b1 a73c 810e 6ebd
000000e0: add6 0b3d f3b1 65bb 3792 80bc b94a 3d3b
000000f0: 9506 563a 58dd b33b 352a d03b 2605 a13b
00000100: ecf8 54bd 5c7e 013c 35e2 d4bb 6346 b8bc
00000110: 15ae 243d dffc f03c 7ea4 b3bc 050a f53c
00000120: ef4f 813c aa28 393c d389 163d c64b 1cbd
00000130: a955 033a af25 37bd 4a82 b43c d8c0 42b7
00000140: cfc0 c5bc 06a2 ccbb 0e5e 19be e60f be3c
00000150: e4f2 003d 558a 9f39 29d2 2bbd 98bd d93c
00000160: fef9 16bd 545a 153d 1839 d33c 6db7 dfbc
00000170: 4854 00be ded0 9e3c af54 f43c d025 ee3b
00000180: 604e 13bd 4778 92bc e5dd 2e3c 9ca8 2b3b
00000190: 4a79 4fbb d026 11bb f816 243c 2c6f da3a
000001a0: 0aee fa3c 6415 963c 793f 6f3a 6b2c 353d
000001b0: a329 a83c a276 773c 296b 1ebd 9ee5 2d3c
000001c0: 04cf 663b 1ce1 dabc 0b9c 243d 5db0 08bc
000001d0: dd6c e5bb c3c2 273d f91e abbb 658d 0abc
000001e0: 7942 cc3c fc90 c63c 60ae e6bc 33e2 14bb
000001f0: 2f14 483b 9239 babc 0905 5cbc ecbe 84ba
-0.009746589 0.0051888707 0.00023350916 -0.020068511 -0.010013752 0.045365687 -0.028632045 -0.010210534
-0.009356243 0.0060366653 0.014949406 0.020924749 0.03358529 0.01765278 0.005087522 0.0069150664
0.0025466136 0.01498388 -0.0049670585 -0.017852169 -0.022411264 -0.0013934742 0.032296102 0.00146755
-0.021292394 -0.0053789024 -0.059796367 -0.021454003 0.012520012 0.02573033 0.028262617 -0.011844873
-0.010080127 -0.009450483 0.035122342 0.021822514 -0.024293523 -0.029767774 -0.0008288784 -0.0088572595
-0.0079950215 -0.033729557 0.05055364 0.009868774 0.019671317 -0.04206676 0.019971635 -0.0028231551
0.03710768 0.025983771 0.0130162155 0.016269188 0.023435453 -0.058339436 0.020470476 -0.0581193
0.034140278 -0.0035048693 -0.01569472 0.002888365 0.0008164433 0.0054890327 0.0063526877 0.004913944
-0.051995203 0.007903662 -0.0064966925 -0.0224945 0.04020508 0.029417453 -0.021929022 0.029912004
0.015785186 0.011301199 0.036752533 -0.0381582 0.0005010018 -0.044713672 0.022034783 -1.1608201e-05
-0.02413979 -0.0062449006 -0.14977285 0.02320094 0.03148164 0.0003042991 -0.04194847 0.026579663
-0.036859505 0.036463097 0.02578406 -0.027309144 -0.12532151 0.019386705 0.029825537 0.007267691
-0.035963416 -0.017879618 0.010673021 0.0026193028 -0.0031657987 -0.0022148378 0.010015242 0.0016665212
0.030631084 0.018320747 0.00091265846 0.044231813 0.020527666 0.015103968 -0.038676415 0.010613827
0.0035218606 -0.026718669 0.040187877 -0.0083428295 -0.007001503 0.040957224 -0.005222198 -0.008456563
0.02493404 0.024239056 -0.02815932 -0.0022717833 0.0030529608 -0.02273253 -0.013428935 -0.00101277

network_body._body_endoder.seq_layers.0.weight f4 [128, 71]
00000000: f94e 3f3d 19be 9abd 021d 74bb 346b 02be
00000010: db15 15be 69df 2c3e 5b5b 513c ac99 073d
00000020: 78db bebc bd56 85bc c334 f53e 637a a93d
00000030: 3b4b 03be c18a 6cbe 1b6c e5bc 39f7 093c
00000040: 9f99 44be 95d3 2b3b 33c2 1cbd 95e7 363e
00000050: a1a2 a5bd c7bb 093e 000e 16bc 2b48 71bd
00000060: 76c9 01be 0646 0a3e 1b9a 9cbd a124 223c
00000070: 8343 d8bd 7c7a 0d3e 6871 363e 7fee e6bd
00000080: 953a 173d 77ea 2d3d 31e1 3ebe e8c8 8f3e
00000090: 5f0f 0cbd 4b05 183d b4a1 edbd 69d1 f83d
000000a0: 180a 303e 4a7c 003b 77b5 70bd 9a28 bebd
000000b0: a2bb 633e b539 ba3e 9468 bebd 4816 45bd
000000c0: 2b63 14be ec55 403e 02ed 7e3d f592 643e
000000d0: c1c6 1dbe 748c f93d b45b 153e 9c3f 523d
000000e0: c16f efbd 501e de3c 0efe 19bd 4d98 943e
000000f0: 1b1f a13e 9c5e 5abe 9115 8a3d 771b 90bc
00000100: 7637 ec3d 5ff3 3abd ee24 17bd 8d53 a23d
00000110: 7447 f7bc 5e7d 78be a2f9 403e d370 983e
00000120: aded 6bbd 4082 37be 1f71 9a3d 0a01 743d
00000130: 34c5 82bd 6919 11be 3863 8abd d06f a73d
00000140: a8a9 9cbd 4137 9fbc 1ba2 cf3d 9779 4cbd
00000150: 395a 13be 4bc7 f33d 513f 5d3e e4f1 c3be
00000160: 80a1 013e 271f 2cbc 173e 9ebd 9a5d a73c
00000170: dee3 173c ac4d 38be 6bb2 c53c 171a bb3d
00000180: fcdd f63d 0ced 39be 9901 04be bd70 8b3c
00000190: 9529 5d3c 06d1 45be f912 483e 62c7 173e
000001a0: 2779 bebd 1298 04be d51d bf3e fefd d8bd
000001b0: f548 aebd e07b 13be 21f3 88bd 7bb6 a23d
000001c0: 5a9a a63d 3fbe 253e bbbd 813e 39b1 8e3c
000001d0: a159 a23e 4399 b93d dc4c 83bd f958 843c
000001e0: ce67 5cbd 1a47 02be cdae 3fbc 7848 b13d
000001f0: e17f 643e 98c5 763e 5c80 76bc 7b45 eeba
00000200: 9dd1 dfbd 975b 04bd 3c3a ef3d bde2 653d
00000210: f13f 1bbc 01b0 323e 36ba 1c3e d8c5 6e3d
00000220: 0877 d9bc 4413 e1bd 5971 d33d b809 bb3d
00000230: b373 083e c1ea b23d 9363 5a3d d324 00bd
00000240: 8aa5 1abe e23b 8f3e 0168 a2bc 7294 31be
00000250: e7bd 72be f348 04be 2820 62bd 83ee 053e
00000260: 2e3e 2abe aee4 853e b716 c4bd 0d56 46be
00000270: 044a d53d f158 a53e aedf 01be 042b 8bbc
00000280: 65e9 913d a4f1 9b3d 7535 8ebe 0ce9 dcbc
00000290: 9416 69bd 74cc b8bd 48c7 91be 3566 4e3e
000002a0: c29c d33d 7085 bb3e f0e2 08be aaea 1cbe
000002b0: 2298 2dbd 5b50 bfbd 9076 dabd 573b a63e
000002c0: 3a35 90bc 84a5 983e d271 9ebe 4082 21be
000002d0: 5455 aa3d d359 763d 98bc c43e 6873 dcbd
000002e0: f6ec 4bbd daae b43d 3e71 eb3d d19a 973e
000002f0: 0f47 49bd 180a 203d 09a1 1f3d 1716 3dbe
00000300: ff58 ba3d 8b9f 633d 819b 653e 5d19 d53d
00000310: 67ff 913d 6951 203d 3908 19be b8a9 1fbd
00000320: 3746 91bd 6b3a 753e 0246 5b3e c05e 84bd
00000330: 1fbe 51be 881d c83d 339e a03d c138 e13c
00000340: ce2f e6bc 1c1f 253d 7451 b93d dd42 583d
00000350: 7efb 133e 7c76 1dbe 4b64 10be 357e 59bd
00000360: dc6a 40be 4ac4 1f3e 2a79 eebd ece4 00be
00000370: cdc5 533c a007 303e eaec 2abe 231a abbd
00000380: 70d0 02be 096d cfbc b916 4bbd 6e2b e6bd
00000390: 5442 02be 1da3 f6bb daf3 cebd 7e2e d53c
000003a0: 14d4 993e cc97 4cbe a6b0 e83d e7cf 333e
000003b0: 176f 2fbd 4692 6cbe 7207 aebc df5f 493e
000003c0: eabf 9fbd 923e 563d 104a a9bd f70b c73c
000003d0: fd3e e13c 62f8 4abd 1e73 2bbd ea1a a4bd
000003e0: 9140 f33b 9ace 6c3d 4060 55bb b268 8b3e
000003f0: 5b8a 36bd 9def 86bd 82c0 923b e2db aabd
0.046706174 -0.075557895 -0.0037248735 -0.12736207 -0.14559118 0.16882099 0.0127781285 0.033105537
-0.02329801 -0.016276712 0.47891816 0.082752965 -0.12821667 -0.23099805 -0.02800565 0.008420759
-0.19199227 0.0026218642 -0.03827114 0.17861779 -0.080876596 0.13450538 -0.009158611 -0.058906715
-0.12674507 0.13503274 -0.07646581 0.009896428 -0.10559752 0.13816255 0.17816699 -0.11275958
0.036921103 0.04245993 -0.18640591 0.28082967 -0.034194347 0.037114423 -0.11603108 0.12149317
0.1719135 0.0019605332 -0.05876681 -0.09285088 0.22239545 0.36372152 -0.092972904 -0.048116952
-0.14490955 0.18782777 0.062237747 0.22321685 -0.1540785 0.121849924 0.14585763 0.051330194
-0.11691237 0.027114064 -0.0375958 0.29022446 0.31469044 -0.21325153 0.06742395 -0.017591221
0.11534016 -0.045642253 -0.036900453 0.07926092 -0.030185439 -0.24266574 0.18845227 0.29773578
-0.057599712 -0.1792078 0.075411074 0.059571303 -0.0638527 -0.1416985 -0.06757206 0.081756234
-0.07649547 -0.019435527 0.10138341 -0.049920645 -0.14389886 0.119032465 0.21606185 -0.38270485
0.12659264 -0.010505474 -0.077266864 0.020430375 0.009270636 -0.1799838 0.024132928 0.091358356
0.12054059 -0.18156832 -0.12891234 0.017021531 0.013498683 -0.19318017 0.19538487 0.14822152
-0.09300452 -0.12948635 0.37327448 -0.1059532 -0.08510009 -0.14402723 -0.06686998 0.07944962
0.08134909 0.16185854 0.25340065 0.01741849 0.31709006 0.090624355 -0.06411144 0.016155707
-0.053809933 -0.12722436 -0.011699391 0.086564004 0.22314407 0.24098814 -0.015045252 -0.0018178666
-0.109286524 -0.03231391 0.11681029 0.056124438 -0.009475694 0.17449953 0.15305409 0.058294147
-0.026546016 -0.10990003 0.10324354 0.09132713 0.13325386 0.08736182 0.053317618 -0.03128512
-0.1510221 0.27975374 -0.019824984 -0.17341784 -0.23705254 -0.12918453 -0.055206448 0.13079266
-0.16625282 0.2615103 -0.09574645 -0.19368763 0.10414508 0.3229442 -0.12682983 -0.016988285
0.071245946 0.07614449 -0.2777516 -0.026966594 -0.056906298 -0.09023371 -0.28472352 0.20156176
0.103326336 0.36625242 -0.1336782 -0.15323892 -0.042381413 -0.093414985 -0.10667145 0.32467148
-0.017603505 0.29813778 -0.30946213 -0.15772343 0.08317056 0.060144257 0.38425136 -0.107641995
-0.04978653 0.08822413 0.114962086 0.29610303 -0.049140032 0.039072126 0.038971934 -0.18465458
0.09099006 0.055572074 0.22422601 0.10405228 0.07128792 0.03914014 -0.14944543 -0.038980216
-0.070934705 0.23948066 0.21413425 -0.06463385 -0.20482682 0.09771258 0.07842674 0.027492883
-0.028098967 0.04031287 0.09048739 0.05279814 0.14451405 -0.1537723 -0.14100759 -0.053098876
-0.18790764 0.15602222 -0.11644204 -0.12587327 0.012925577 0.17190409 -0.16691938 -0.083545946
-0.12774825 -0.025320547 -0.049582217 -0.11238752 -0.12720615 -0.007526769 -0.10105105 0.026023146
0.30044615 -0.19979781 0.11361818 0.17559777 -0.042830553 -0.23102674 -0.021243785 0.19665478
-0.078002766 0.052305765 -0.082660794 0.024297697 0.027495855 -0.049553283 -0.04185783 -0.08012946
0.0074234684 0.057814218 -0.003255859 0.27228314 -0.04456554 -0.06588671 0.004478515 -0.083427206

network_body._body_endoder.seq_layers.2.bias f4 [128]
00000000: e2a7 52bc ec8f 573c a5a1 1b3c 60ce a5bc
00000010: 540d 3d3c 2ce2 5fbd ff43 8a3c f082 b0bc
00000020: dbbc 1c3c f140 a43c 4e05 3f3c 3aa9 25bc
00000030: 9cc0 df3c 72ab 11bd 4d36 2c3c fcff ccbc
00000040: 86af 12bc dd14 8d3c a6c3 14bc 6ba2 4bbc
00000050: 88ea a5bc 6ae9 1a3a 1b9a 4c3a 77db 4f3c
00000060: ee92 efbc e972 a6bc 6601 abbc 881c 8dbb
00000070: 902c 6f3b f31e dcbc aa34 5a3b c8bc f2bc
00000080: 974d 9bbc d8f5 1fbc 4c18 26bc cf4d 2cbb
00000090: c10d fdbb 4e46 32ba f9f0 8dbc 2046 32bc
000000a0: 0a28 23ba 2522 c4bb 6227 ccbb dbfa a4bc
000000b0: 64ae 463b 1b2f 82bc 9338 383c 5742 2a3c
000000c0: 9353 3cbc d797 a839 1528 82b9 daf2 e9bb
000000d0: 7e3c c839 aa30 a5bc ab47 23bc 648a a4bc
000000e0: 9cfa 9c3b 873f 39bd ba8c 693c 4574 8cbc
000000f0: cd8d 613c 8848 243c ef98 a2bc acc1 fbb7
00000100: 6ba8 b23a 39e2 01bc 45ae 33bc 2e1c afbc
00000110: d6fc 7dbc b636 82bc 6560 6e3c 9e12 fb3b
00000120: 221d e33a 6502 47bc 9579 edbb 7e44 08bc
00000130: 64cb 253b 8c74 a0bc 6ecd a3bb c3ac dbb9
00000140: 2145 b1bc 3555 753c 18a3 47bb 8aaf 30bc
00000150: f819 38bc 7594 c7bc 0068 10bc f52f febc
00000160: 4af6 433c 328c 3e3c 7dc4 d6bc 562a 58bc
00000170: 0d1d c13c 7b51 4dbd e934 0fbc 7058 863b
00000180: f392 b5bc 871d af3c 557b 98ba efa0 e6bb
00000190: 5534 03bc 6c0a 91ba da66 f9bc 9d88 1dbd
000001a0: 4f6f abbb 602b 143d 8639 36bb e125 98bc
000001b0: 433c 69bc 10d7 b2bc 87fb 50bc c298 673c
000001c0: 9bf6 17bc 41fd c8bc 2080 e6bc 593a 66bc
000001d0: 03e8 7739 273e 613c e107 b5bb 1cea ca3b
000001e0: 2074 cbbc 7295 76bc 87b5 d1bb 4faf 8a3a
000001f0: 36a0 4aba 5047 d1bb 72c9 e9ba 68dc 0b3c
-0.012857409 0.013156872 0.009498988 -0.020240009 0.011538822 -0.054659054 0.016878126 -0.02154681
0.009566511 0.020050498 0.01165898 -0.010111148 0.027313523 -0.035563894 0.010510993 -0.025024407
-0.008952981 0.017221862 -0.009079849 -0.01242886 -0.020253435 0.0005909415 0.0007804946 0.012686602
-0.029244866 -0.020318465 -0.02087469 -0.0043063797 0.0036495067 -0.026870226 0.003329555 -0.029631034
-0.018957896 -0.009763204 -0.010137629 -0.0026291495 -0.007722587 -0.00068006373 -0.017326819 -0.010880977
-0.0006223923 -0.0059855157 -0.0062302807 -0.020139148 0.0030316347 -0.015891602 0.011243957 0.010391793
-0.011494535 0.00032156587 -0.00024825396 -0.007139546 0.00038192043 -0.020164806 -0.009965817 -0.020085521
0.004790617 -0.0452266 0.014254743 -0.017145285 0.013766718 0.010027058 -0.019848315 -3.0011717e-05
0.0013630515 -0.007927471 -0.010966842 -0.021375742 -0.015502175 -0.015895229 0.014549349 0.0076621315
0.0017327408 -0.012146567 -0.0072471597 -0.008317111 0.0025298232 -0.019586824 -0.0049988544 -0.00041899653
-0.021639409 0.014973928 -0.0030462202 -0.010784039 -0.01123666 -0.024362782 -0.008813858 -0.031028727
0.011960575 0.011630105 -0.02621674 -0.013193687 0.023573423 -0.050126534 -0.008740642 0.004099898
-0.022164797 0.021376384 -0.0011633435 -0.0070382277 -0.008008082 -0.0011065728 -0.030444551 -0.038460363
-0.005231775 0.036174178 -0.0027805283 -0.01857275 -0.014235559 -0.021831065 -0.012755281 0.014135541
-0.009275104 -0.024534823 -0.028137267 -0.014051997 0.00023642187 0.013747728 -0.005524621 0.006192459
-0.024835646 -0.015050279 -0.0063998136 0.001058081 -0.0007729562 -0.006386675 -0.0017836525 0.008536436

network_body._body_endoder.seq_layers.2.weight f4 [128, 128]
00000000: bf4f aa3d 4c9b 1cbd babd 3d3e 7abf 2c3c
00000010: b2d1 38bd 00d3 483d 95df 003e 1073 ecbd
00000020: d8bd 213d 942d c83d 1f59 1b3d afbb a43e
00000030: df57 03bb f447 813c 3ba7 1d3e c1ed ddbd
00000040: d526 153d e321 a8bd dd93 35be a59f 92bb
00000050: 3a2a e6bc bfa6 20bd bd14 193e 9f53 103e
00000060: 05c5 dc3d d037 873d 543e a4bd 17dd f4bd
00000070: 7b23 2a3e 6d44 b4bd 178e 093e 985d 543e
00000080: 0b63 053e 0bde 19bd 38fd f0bd 47c8 4a3d
00000090: e5d8 103d e648 04be cb3f 9a3b b9c2 1e3d
000000a0: c7a8 2bbd a8f6 0dbd 934d 233c be14 dabd
000000b0: 617e 09bd aab2 9eba e6c9 aebd 630f 9abd
000000c0: 2dd5 853c 8606 1cbd e4bf 783e 711b b8bd
000000d0: 955c 3b3e ab7f c5bd 7998 d4bd 15c3 e1bd
000000e0: 59b0 1a3c 245f 87bd 6679 42bd 3f46 863e
000000f0: 4034 4f3d 4f16 9c3d 35a6 90bd e3af efb9
00000100: 32c4 13be f170 64bd f7ee 4c3d 7e3a 4cbd
00000110: 7717 7cbd 2e82 61bd 3669 c93c a341 403e
00000120: 0994 2a3d d7b2 44be f00b bc3d f17f 093e
00000130: d764 19be 58c5 88bd 2636 cd3d 3b0d 303d
00000140: 85d4 90bd 97d8 15be 1f1c 183b 946c 3e39
00000150: 498a a03d 750d f8bd 20b3 00be 150d b13d
00000160: 5fd1 bf3d 5baf ea3c 6a7e 283e 9504 e83d
00000170: f03c 9cbd a724 e03c ee5d cfbd 32ca fcbd
00000180: 2e4a 463e 4ad3 0b3e 70c5 a3bd fd10 6e3e
00000190: 6b54 9e3d ba1a 6fbc 73b4 b03c 824e acbd
000001a0: e274 0fbe a863 853b f565 5a3c 7dda 803b
000001b0: 9b8c 4f3d 9009 363d 797d 9c3d e1d2 99bd
000001c0: a745 12bd f8f4 9dbb 8ba8 033e 3779 b93c
000001d0: 8fc6 92bd 51dc d83d 5072 c23d f9b8 763d
000001e0: 1979 cdbd 2b79 233e ba98 4a3d ad5a f23c
000001f0: 20e2 873d 1bc8 b23d 23db ae3c 120e 6ebe
00000200: c070 213e f6a7 103a 6d0b 15bd fb53 023e
00000210: 0b54 123e 4f1f 103d cb57 243d 46d3 0c3e
00000220: 6b8d 09bd 3cd7 63bd 749c f1bd a3ef c63d
00000230: 0c8d bf3c 683f f93c 75cc e33d 7d86 3f3d
00000240: a29e a53c 9d43 823d e834 023d 263c 18be
00000250: 8f58 aebc 90b9 10be a45c 61bd 48e4 133e
00000260: ae3a 4c3d 6f5a 18be 61b0 8bbd c0fa b53d
00000270: a705 1b3d 32e2 fcba a277 0f3e e246 053e
00000280: c155 34be cbb7 7f3b b561 abbc afd8 2c3e
00000290: 8543 a93d d6f5 ebbc a544 2cbd 0cfa afbd
000002a0: da50 31bd 5db9 4fbe fda4 b0bc fad4 cf3d
000002b0: 008f 6a3c d760 6dbb 86a6 963c da3a cabc
000002c0: a372 273d 0249 09be e98c e73d 570b 373e
000002d0: a7eb cb3d 339e ee3d fd6a 8fbd 85fc cabd
000002e0: 372a 2cbe 5902 1ebd 73ac c8bc eb87 fc3a
000002f0: b729 143e f48f 83bd 9d83 9e3d 52cc a3bd
00000300: 3a00 89bd b62a 003d 4811 973c b3c1 873d
00000310: cdb2 debd 2a6b 1dbe f349 1e3d 5c4c acbd
00000320: c676 723d dd99 0f3d d638 9abd e5ff c63d
00000330: bc34 b83d e647 923d 11b8 b43c 6b7f f23d
00000340: fca2 c5bd 0e94 003e 98be 933d 038f 323d
00000350: 6919 853d 5688 e0bb 62ac 973d a755 9abd
00000360: 0e9f 5dbd 6fa9 a5bd dae5 7dbd a89a 973d
00000370: 8984 9bbc c574 3f3d de7f 45bd b557 9b3d
00000380: 5715 17bd ccfd fdbd 733a 11be 492c 2d3e
00000390: eabc 1bbe fda8 e4bb 4a52 89bc 0bcc 32bd
000003a0: 1086 05be ab25 abbd e845 48be 560d 143d
000003b0: 2853 9d3d 5df3 e53b 1142 ac3c 703f 07be
000003c0: 0258 83bd 0cac 3abd 1b8a 99bb 9d0e 5fbd
000003d0: 1900 13be b52b 873c daf1 683d 7d52 82bd
000003e0: e117 a03c 8a61 81bd f81d 9d3c ed9a da3d
000003f0: a098 85bc 026d b6bd 6810 563d 828b f2bd
0.083159916 -0.03823404 0.18529406 0.010543698 -0.045121856 0.04902935 0.1258529 -0.11545384
0.03948769 0.09774318 0.03792679 0.3217444 -0.002004139 0.01578138 0.15395825 -0.108363636
0.036413986 -0.082095884 -0.17732187 -0.0044745975 -0.028096307 -0.03922152 0.14949317 0.14094399
0.10779766 0.06602442 -0.08019701 -0.11956232 0.16615097 -0.08802114 0.13433109 0.20738828
0.13026063 -0.037565272 -0.11767048 0.049507406 0.035363097 -0.12918434 0.0047073117 0.03875992
-0.041909005 -0.034659058 0.009967226 -0.106484875 -0.03356779 -0.0012107689 -0.08534603 -0.07522466
0.016337002 -0.03809216 0.2429195 -0.08989609 0.18297036 -0.09643491 -0.10380644 -0.11023537
0.009441459 -0.066099435 -0.047479056 0.2622547 0.05058694 0.076214425 -0.070629515 -0.00045716678
-0.14430311 -0.05577177 0.050032582 -0.04986047 -0.061545815 -0.05505579 0.024586301 0.18775038
0.041645084 -0.19208847 0.091819644 0.13427712 -0.14979874 -0.06678265 0.100200936 0.042981368
-0.07071785 -0.14633404 0.002321012 0.0001816026 0.07838876 -0.12111942 -0.12568331 0.08645073
0.09366106 0.02864807 0.16454473 0.11328999 -0.076288104 0.027361227 -0.101253375 -0.12343253
0.19364235 0.13654819 -0.079966426 0.23248668 0.07730945 -0.014593774 0.02157042 -0.08413412
-0.14009431 0.004070718 0.0133299725 0.003932296 0.0506712 0.044442713 0.076411195 -0.07510925
-0.035710957 -0.0048204623 0.12857263 0.022640808 -0.07166778 0.10588897 0.0949446 0.060234997
-0.10032863 0.1596419 0.049462058 0.029584253 0.06634927 0.08729573 0.021344727 -0.23247555
0.15765667 0.0005518192 -0.03638785 0.12727349 0.14289872 0.03518611 0.04012279 0.1375247
-0.033582132 -0.055625185 -0.11797419 0.09713676 0.023382686 0.030425742 0.111229815 0.046759117
0.020217244 0.063605525 0.031788737 -0.14866695 -0.021282462 -0.14133286 -0.05501999 0.14442551
0.04986065 -0.14878248 -0.06820751 0.088857174 0.037847187 -0.0019293486 0.1401048 0.13015321
-0.17610838 0.0039019461 -0.020920614 0.16879533 0.082648315 -0.028803747 -0.042057652 -0.085926145
-0.043289997 -0.20285554 -0.021563048 0.10148044 0.01431632 -0.003622105 0.018389951 -0.024686266
0.04088081 -0.13406757 0.11306173 0.1787542 0.099570565 0.11651268 -0.07002828 -0.099114455
-0.16812979 -0.038576458 -0.024496293 0.0019266581 0.14469038 -0.06423941 0.07739947 -0.079979554
-0.06689496 0.031290732 0.018440858 0.06628742 -0.10873947 -0.15372911 0.038644742 -0.08413002
0.059195302 0.035058845 -0.07530372 0.09716777 0.08994433 0.0714262 0.022060426 0.11840709
-0.096502274 0.12556478 0.07214087 0.043593418 0.06498987 -0.00685219 0.07405926 -0.07535868
-0.054106764 -0.080889575 -0.06198678 0.07402545 -0.018984096 0.04674222 -0.048217647 0.07585088
-0.036885586 -0.124019235 -0.14182453 0.16911425 -0.15208784 -0.006978153 -0.016762871 -0.04365162
-0.13039422 -0.08356794 -0.19557917 0.03614553 0.076818764 0.0070175366 0.021027597 -0.13207793
-0.064132705 -0.045574233 -0.004685653 -0.054457296 -0.14355506 0.016500333 0.056871273 -0.0636339
0.019542636 -0.06317432 0.01917933 0.10674081 -0.016308129 -0.0890751 0.05226174 -0.11843015

network_body._body_endoder.seq_layers.4.bias f4 [128]
00000000: a168 2bbb 385c 0cbc 6855 90bc 4150 beba
00000010: 5918 e33b 178f b5bb 118d 40bc bc8f 55ba
00000020: 8790 dbbc 0fb1 84bd 3607 a43b 2aff 313c
00000030: 6ca6 64bb 9f79 9a3b 58e7 363b c93d fdbc
00000040: 0839 8e3a cd3d 983c 4d43 b13b ef3f 2cbc
00000050: bb83 d93c 6043 d9bc 3f2a 4ebc 4ea5 b0bc
00000060: 9388 b0bc d365 77bc 900c b1bc c760 81bc
00000070: 8239 d6bb e4e9 b4bc 01d1 76bc 18ce 76bc
00000080: b219 84bc 9780 cebc ddd2 bfbc 4673 963b
00000090: f6f6 f73a 58e6 7bbb 19cb 84bb 6956 60bc
000000a0: d1fe dd3c fbd3 adbc a1db 11bc 0094 d13b
000000b0: 2b60 cbbc e642 0ebc 6d65 f4bb 46ba 14bc
000000c0: 7fba 64bb 9bd0 5dbc 6529 7e3a 69f2 01bd
000000d0: a6c4 cebb 2ada 99bc 608d a4bb c039 e5bc
000000e0: ffc2 b3bc c65e 093b 2353 06bd 9966 4d3c
000000f0: 2855 babc 813c dabc 392b b0bb 808b 80bc
00000100: 3f7f 343c 10f0 68bb 5212 513c 5c9f 4dbc
00000110: e9b4 8dbb 7efd 4cbc d28d dbbc 328c a2bc
00000120: 7333 97bb 93d0 3bbc 6a76 b13c 90fe 5e3c
00000130: 57b4 683b 3599 cebc 74df c9bc fead dabc
00000140: bebe 96bc 79e5 5dbc db5b 3fbc 7fd6 c3bb
00000150: f69e bd3b a206 cc3b a1ca 983b 0c7b 6cb9
00000160: b87a 34bb 9d89 a03c 3c58 8b3c 37f1 a2bb
00000170: 99a5 60bc 0ca3 11bc 6eba d0bb 6486 88bc
00000180: 02eb 6abc ffb8 70bc 1689 29bc f326 9f3c
00000190: c93b 65bb 12b1 babc 4a0b e9bc b819 b4bc
000001a0: ac4f 92bc 0663 19bc dafc 5ebc 9efc 363c
000001b0: ee8d c9bb ff51 a7bc c19a febc 2a39 7bbb
000001c0: bf97 8cba 946c 18bd e6fc a3bc fde3 3abc
000001d0: aa81 93bc 760d bdbb 378f 52bc c4a8 d7bb
000001e0: ae0b b4bc 9980 2fbc ee9f 80bc 2d33 4c3b
000001f0: 75da 52bc 20ef c1bc 177d 7cbc 3822 31bc
-0.0026154893 -0.008566909 -0.01761885 -0.0014519767 0.0069303927 -0.0055407393 -0.011752383 -0.0008146723
-0.026802314 -0.06479084 0.0050057424 0.0108640585 -0.0034889234 0.0047142054 0.0027908888 -0.03091325
0.0010850737 0.018584156 0.005409634 -0.01051329 0.026552072 -0.026521385 -0.012583314 -0.021563198
-0.021549499 -0.01509996 -0.021612436 -0.015793217 -0.006537617 -0.022084184 -0.015064479 -0.015063785
-0.016125534 -0.0252078 -0.023415977 0.0045913784 0.0018918205 -0.0038436856 -0.0040525314 -0.013692477
0.027099045 -0.021219244 -0.008902461 0.006395817 -0.02482613 -0.008682942 -0.00745838 -0.009077614
-0.00349012 -0.013538505 0.00096954993 -0.03172532 -0.0063100634 -0.018780787 -0.005021736 -0.027981639
-0.021943567 0.002096103 -0.03279413 0.012536668 -0.022745684 -0.026640179 -0.0053762463 -0.015691519
0.011016666 -0.003554348 0.012760716 -0.012550201 -0.0043245447 -0.012511609 -0.026801024 -0.019842241
-0.0046142875 -0.011463302 0.02166291 0.013610497 0.0035507882 -0.02521954 -0.024642684 -0.026694294
-0.0184015 -0.01354348 -0.011679615 -0.0059764977 0.005786772 0.0062263766 0.004662827 -0.00022552552
-0.0027538966 0.01959687 0.017009847 -0.0049726027 -0.013711357 -0.008888971 -0.0063698804 -0.016665645
-0.014338257 -0.014692544 -0.010347625 0.019427752 -0.0034978262 -0.022789512 -0.028447766 -0.02198492
-0.017860256 -0.009361988 -0.013610089 0.011168627 -0.0061509525 -0.020424841 -0.031079652 -0.0038333633
-0.0010726376 -0.037212923 -0.020018052 -0.011406896 -0.018006165 -0.005769427 -0.012851528 -0.0065813977
-0.021978226 -0.010711812 -0.01570126 0.0031158433 -0.012869467 -0.023673594 -0.015410683 -0.010811381

network_body._body_endoder.seq_layers.4.weight f4 [128, 128]
00000000: 8862 cabd 3d48 223c 3e47 313d f232 4a3d
00000010: a452 f33c 4d92 13bd 13b9 51bd 1a46 a93d
00000020: 7227 d73d 8d11 8cbc ae58 d73d 319d 433e
00000030: ee3a 953c 0990 08be b77c 72bd 5e31 14be
00000040: 8ac3 653c 5557 b7bc 886e 793d 688a 223e
00000050: 8d47 3dbe 7902 b83d c7e3 28be 190d 363a
00000060: 2bd9 2b3e 7349 cb3d 4eb4 42bd e211 bbbc
00000070: cb9b 9ebd a989 c7bd e0e5 2ebd 5c89 723d
00000080: 090b 8dbd c4a1 48bd 84af 903d b474 9dbd
00000090: 0547 02bd da0f c43d 6477 133e 1fbc c7bd
000000a0: eea3 883d 18d4 0f3d cd94 1dbc b683 d4bd
000000b0: 38f4 873b 90fd 3abe d889 a0bc 3db3 483d
000000c0: 4fd1 d03c 538d bcbd 47c2 163e b689 1b3d
000000d0: a2f1 7d3d 1c83 9a3d 2165 cbbd b962 cfbd
000000e0: eb33 383e c928 5dbb c505 dfbc 1b95 093c
000000f0: 36d1 f5bd a5db f03d be0f 0bbe 444a ccbd
00000100: b8df 103d 41d6 1b3e 781a a73d 6b7c 013e
00000110: 5005 dbbc b4ed c7bd 1e7b 743d ee2e c6bc
00000120: 07cd 00bd 22d9 993d c00c 97bc 20f8 dfbd
00000130: 033b 383c 3232 e93d 4619 183e 1337 54bd
00000140: 5f41 013e 4f6d 843d 3169 1cbe cca6 b63d
00000150: 846a a9bd e066 8ebd f0b9 04bd 96bb 77bd
00000160: 8afd 283d 9463 0abe b103 11bd 6a9e 1f3d
00000170: ebd8 443c c893 07bd a37a 873c 4555 fbbd
00000180: 7a66 27bd 9aca 163e 2272 96bd b52c 8abb
00000190: 5f03 8ebb 209a 6abd 8be1 ae3d 7dd2 333d
000001a0: c4c3 e33d bf46 4c3e ed1e c3bc a541 dabd
000001b0: bde6 20bd cba2 9e3d 8fe3 b7bc cfe3 c8bb
000001c0: 867a bb3d 9a0c 0fbd 8bd9 51bd 9b01 16bd
000001d0: b06b 0bbc 6645 643d 0042 0bbd 1582 5c3c
000001e0: f4f8 efbc 7f1e b83d 09d2 083e 4049 2cbc
000001f0: 8634 c5bc 9d89 803e 52f6 dbbd 8cdb de3d
00000200: bb3a 01be 687e 04be 09b6 6a3d 298c 8cbd
00000210: 5366 f8bc 0c25 d3bc 42a3 453d 5d41 35bd
00000220: 2121 97bc f3cb 22be 25d0 08bc 9128 e23d
00000230: 5688 d03b b9a8 acbb ff27 83bd 7638 d5bc
00000240: 255a f5bd 4659 01be c645 91bd c2ce 863d
00000250: 669d c83c 1ccb fb3d fc8d 99bd 8109 113e
00000260: 3569 c43c f535 dbbd c792 36be d012 04bd
00000270: 3b3f acbd 6f28 1e3e 697a 813d ac13 593b
00000280: 2f3c 9cbd 17ba 783d 00bb d6bd a4d5 9bbc
00000290: 4e73 84bd db17 4cbd cb3d d839 c5e1 8c3c
000002a0: d177 1dbd 4e79 d4bd 60a7 913b fbd8 7d3e
000002b0: e9e4 b83d 3332 0dbd 9781 8dbd f5e1 bcbc
000002c0: 7a2c b23d d08a 9d3d 4f31 19be 2141 abbd
000002d0: d9ef d03d d8c5 3ebd 1799 96bd 75fe 593d
000002e0: 8e39 92bd 51a3 68bc 34ab f7bd c952 1d3d
000002f0: eb3e dd3d 570e ee3c dab4 d4bd ac6f 393d
00000300: a70c d83d 5f10 fc3c 7403 f1bd 672f 37bd
00000310: f344 b2bc b444 41bd c151 b43d b172 233d
00000320: 186d ee3d 263f 213c ba17 043e 39a7 323d
00000330: 17c3 7a3d 58d9 54be 4ac9 173d afd9 d4bd
00000340: 054f 0abd 3b78 babd ee27 1e3c a88c 71bd
00000350: 40e3 a53b 9d35 063e 27d6 523a 6972 ae3c
00000360: e29d 863d 10d7 c53d 5fcd 21bc 6653 6bbc
00000370: b82c a13d c31a 383d c188 62bc 5a80 b6bd
00000380: 8e74 e93d 7b09 5f3d c860 03be ac0f 3b3a
00000390: a447 18bc 0efe 87bd 96e7 34bd 78a3 6a3d
000003a0: f91d 0c3e 6765 ec3d 72f9 a73c 0067 963d
000003b0: 99d9 18be e888 c03c cf23 d83d 05c8 ce3d
000003c0: 2ec7 073e a213 a23d bce1 733d e2bc be3c
000003d0: be06 9e3d ae51 013e 3aa6 f93c 298e 51bd
000003e0: 9e8a 92bd ec30 383d 6517 a6bd 8853 b1bc
000003f0: 1e37 2ebd 5342 433d 2427 7abe bbde 2d3e
-0.098820746 0.009904918 0.043280832 0.04936499 0.029702492 -0.036028195 -0.05120189 0.08265324
0.105055705 -0.017098213 0.10514961 0.19102933 0.018216576 -0.13336195 -0.05920097 -0.14471957
0.014023671 -0.02238051 0.060896426 0.1587311 -0.18484326 0.089848466 -0.1649314 0.0006944701
0.16782062 0.09926119 -0.047535233 -0.022835676 -0.07744559 -0.097430535 -0.042699695 0.059213027
-0.068868704 -0.048982397 0.07064727 -0.07688275 -0.03180601 0.09573336 0.14401013 -0.09752678
0.06671892 0.035114378 -0.009617996 -0.10376684 0.004148986 -0.18260789 -0.019596979 0.04899906
0.025490431 -0.09206643 0.14722548 0.03797313 0.061998017 0.075445384 -0.09931398 -0.10126252
0.17988555 -0.0033746234 -0.02722443 0.008397366 -0.120027944 0.11760644 -0.13580224 -0.099751025
0.035369605 0.1521845 0.081593454 0.12645118 -0.026735932 -0.09762135 0.059687726 -0.0241923
-0.03144553 0.07512118 -0.018438697 -0.10935998 0.011244538 0.11386527 0.14853391 -0.051810335
0.12622593 0.064661615 -0.15274502 0.08918533 -0.08272269 -0.069532156 -0.032403886 -0.06048163
0.04125742 -0.13514549 -0.03540391 0.038969435 0.012014608 -0.03309992 0.01653797 -0.12272123
-0.040869214 0.14725724 -0.07345988 -0.0042167553 -0.004333898 -0.05727589 0.08539113 0.04390191
0.11121324 0.19948862 -0.023818457 -0.10657052 -0.03928255 0.07745894 -0.022447376 -0.0061306725
0.09154229 -0.034924127 -0.051232856 -0.036622625 -0.008509561 0.055730246 -0.03399849 0.013458748
-0.029293515 0.08990192 0.13361372 -0.010515511 -0.024072897 0.2510499 -0.10740341 0.10881719
-0.1262006 -0.12938845 0.05730251 -0.06862671 -0.03032223 -0.025774501 0.048251398 -0.04425179
-0.018448414 -0.15898113 -0.008350407 0.11042894 0.0063639088 -0.0052691367 -0.06404113 -0.0260279
-0.11980084 -0.12631711 -0.07093386 0.06582405 0.024489116 0.122945994 -0.074977845 0.14163782
0.023975948 -0.10703651 -0.17829429 -0.032244503 -0.08410498 0.15445112 0.06322176 0.0033123298
-0.076286666 0.060724344 -0.10484886 -0.01902277 -0.06467305 -0.049827438 0.0004124477 0.017197499
-0.038444344 -0.103746995 0.0044450015 0.24789803 0.09028036 -0.0344717 -0.06909483 -0.023056963
0.086998895 0.07692492 -0.14960216 -0.08362032 0.10201997 -0.046575397 -0.07353418 0.053221185
-0.07139884 -0.014199094 -0.12093201 0.03840903 0.10803016 0.029059572 -0.10386057 0.045272514
0.10549288 0.030769525 -0.11768237 -0.04472294 -0.021761393 -0.04718466 0.08804656 0.0399043
0.11641902 0.009841716 0.12899676 0.043616507 0.06122121 -0.20786035 0.0370572 -0.10393082
-0.033766765 -0.091049634 0.009653075 -0.05897203 0.0050624907 0.1310639 0.00080427754 0.02129479
0.065730825 0.096601605 -0.009875624 -0.014363145 0.078698575 0.044947397 -0.01382655 -0.089112
0.11399184 0.0544524 -0.12829888 0.0007135819 -0.009294424 -0.06640254 -0.04416617 0.057284802
0.13683309 0.115427785 0.020504687 0.073438644 -0.14926757 0.023502782 0.10553705 0.100967444
0.13259575 0.07913901 0.05954145 0.023283426 0.0771613 0.12628815 0.03047477 -0.051160965
-0.071553454 0.04496853 -0.08109931 -0.021646276 -0.042533033 0.047670674 -0.24428993 0.16979496
