Maize-Runner/results/MazeRunnerRewards/EscapeMaze/EscapeMaze-2186389.onnx (onnx, 177807 bytes, 9 tensors)

action_model._continuous_distribution.log_sigma f4 [1, 2]
-0.18274714 -0.14185609
00000000: 1122 3bbe b942 11be

action_model._continuous_distribution.mu.bias f4 [2]
0.028705094 -0.0031215183
00000000: f226 eb3c 6392 4cbb

action_model._continuous_distribution.mu.weight f4 [2, 128]
0.0038482703 0.12499561 -0.00035120745 -0.0018044496 0.0049271593 0.0002529543 -0.005088155 -0.019666014
0.0017862327 0.00079200644 -0.025527747 0.0017058293 0.012178396 0.00020254406 0.02013567 0.035952736
-0.05463733 -0.0015485003 0.0049933023 -0.004789685 0.05082216 0.0020844985 0.019785484 0.0016156273
0.0060993214 0.0009276224 -0.0042465827 0.022071 -0.0032189141 -0.0060844114 -0.037697006 0.0067699496
-0.0008910348 0.0025888807 0.0038211981 0.00072811625 -0.002912887 -0.004112553 0.0027322765 -0.0031784733
0.0064858245 0.0017400252 -0.027485192 0.0029037045 0.0005354122 0.07958855 0.0027015356 0.00022606475
-0.0017912133 0.0027872515 0.026232798 -0.0045775073 0.00020712546 -0.005661453 0.0020395073 0.008822121
-0.00054943765 -0.0014189119 -0.0049502794 -0.0017630392 -0.0025346642 -0.044921987 0.024349315 -0.0024919678
0.0035981175 -0.0015619114 -0.0003745224 0.0055856053 -0.0050185146 -0.0017670643 -0.0018943587 0.0045343935
0.018929448 -0.0066859378 -0.0065865912 -0.054607112 0.013989334 0.012927116 -0.051876273 -0.0006995852
-0.006480896 4.9813923e-05 -0.00013166659 0.0443857 -0.0050961357 0.00093075435 -0.055657476 0.110191606
0.0075072157 0.036051933 0.08192174 -0.087566555 0.0009965032 -0.0043314584 0.06400526 -0.0030847015
-0.0073647415 -0.0058082575 0.041180763 0.0045222477 -0.000546065 0.005152811 0.00022982057 -0.022532031
-0.03866233 0.0003967057 5.551683e-05 0.004543385 -0.001132924 0.015097066 -8.0356074e-07 0.0031689368
-0.0011196722 -0.00040577786 -0.011584565 -0.0024237467 -0.005063364 0.001511834 0.020449016 0.010755211
0.0059488 0.00072957814 -0.0011103626 -0.0033865774 -0.004730256 -0.0081279185 0.0015107787 -9.575944e-05
-0.0073206644 -0.020045925 -0.001296293 0.0039430917 0.0016387528 0.083505034 0.014048658 0.012102776
-0.004783356 0.006341965 -0.009974325 0.012097905 0.01160239 -0.0010862146 0.016433438 0.019814808
-0.028743634 0.0021073974 -0.0066159563 0.0043624872 -0.061148904 -0.009524883 -0.00071603997 0.0022464038
0.0365694 0.0020911836 -0.06675756 0.0010034763 0.0029834255 0.0074716066 -0.031396743 -0.007877853
-0.003885725 0.00063659763 -0.003663769 0.0020062742 -0.004275164 -0.00063639885 0.01231932 -0.0005313583
0.0008574496 0.08879851 -0.07971212 -0.0018302918 -0.012167807 0.026283188 0.0025651187 0.003540422
-0.0891731 -0.008191769 -0.010200721 -0.0016347448 -0.0013334634 -0.027909644 -0.004055637 -0.002681347
-0.0021055266 0.0053241565 0.021502504 0.0036672552 0.020237371 -0.0005607444 0.05882879 -0.003273669
0.016733553 -0.01973331 0.0043355357 0.033280388 -0.013429553 0.0041116434 0.0042686737 0.007830825
-0.03474007 0.00333774 -0.0043061175 -0.0051549696 -0.024986403 -0.004795495 -0.054732185 -0.0111132385
-0.016287085 -0.003223986 0.0021107462 -0.004653086 -0.00046294142 0.004745223 0.04242053 -0.03140744
0.090177 -0.0019539956 0.078620076 -0.017992783 -0.0006641858 -0.0065348665 -0.00480223 0.0007772497
0.0006855463 0.017747693 -0.08368622 -0.0038595437 0.0039660675 0.0047830176 0.0022483957 0.13461192
-0.01008867 0.0064760214 0.0053437385 0.0072462116 0.00014472433 -0.0008148873 0.0013123935 -0.0027083952
-0.0017849238 0.0021869496 0.012174151 0.001986472 0.0028628202 0.0042884555 0.024387691 -0.0069347937
0.0014077252 -0.006695853 -0.010253848 0.004018072 0.0041897963 0.051903844 0.010110013 0.009148314
00000000: 4333 7c3b b3fd ff3d 4422 b8b9 4883 ecba
00000010: 0274 a13b f49e 8439 8aba a6bb 9f1a a1bc
00000020: 0620 ea3a a79e 4f3a 911f d1bc 2296 df3a
00000030: e587 473c 0262 5439 90f3 a43c 2d43 133d
00000040: 65cb 5fbd 0cf7 caba db9e a33b caf2 9cbb
00000050: e62a 503d 159c 083b 2b15 a23c 75c3 d33a
00000060: d1dc c73b af2b 733a eb26 8bbb 3ece b43c
00000070: 6bf4 52bb be5f c7bb 2d68 1abd 74d6 dd3b
00000080: 5594 69ba 36aa 293b 116d 7a3b 0edf 3e3a
00000090: 22e6 3ebb 98c2 86bb fe0f 333b ef4d 50bb
000000a0: 0a87 d43b 8f11 e43a a028 e1bc 144c 3e3b
000000b0: e85a 0c3a 52ff a23d 3f0c 313b cb0b 6d39
000000c0: 25c7 eaba 52aa 363b 2ae6 d63c eafe 95bb
000000d0: d12f 5939 b683 b9bb 41a9 053b a88a 103c
000000e0: 2308 10ba c8fa b9ba f435 a2bb c715 e7ba
000000f0: 9c1c 26bb 1e00 38bd 3778 c73c 4850 23bb
00000100: 65ce 6b3b 0db9 ccba 8c5b c4b9 7407 b73b
00000110: 5a72 a4bb d79c e7ba 214c f8ba 4095 943b
00000120: ee11 9b3c b615 dbbb 55d4 d7bb b5ab 5fbd
00000130: 8533 653c 41cc 533c 377c 54bd 5e64 37ba
00000140: b25d d4bb 4bef 5038 fb0f 0ab9 c8cd 353d
00000150: 7cfd a6bb defd 733a 18f9 63bd 23ac e13d
00000160: 17ff f53b 31ab 133d 96c6 a73d 1856 b3bd
00000170: 199d 823a e8ee 8dbb 3115 833d b428 4abb
00000180: ee53 f1bb 3253 bebb 29ad 283d 5d2f 943b
00000190: cd25 0fba e9d8 a83b fdfb 7039 1895 b8bc
000001a0: 645c 1ebd f0fc cf39 beda 6838 ade0 943b
000001b0: 9f7e 94ba af59 773c 46b4 57b5 f0ad 4f3b
000001c0: f7c1 92ba 95be d4b9 30cd 3dbc b9d7 1ebb
000001d0: 93ea a5bb bb28 c63a b284 a73c a036 303c
000001e0: 27ee c23b 2941 3f3a 9689 91ba 57f1 5dbb
000001f0: 4300 9bbb f62a 05bc 5205 c63a 75d2 c8b8
00000200: 2fe2 efbb 5a37 a4bc 60e8 a9ba 0d35 813b
00000210: 6bcb d63a b004 ab3d 582c 663c b94a 463c
00000220: b3bd 9cbb 42d0 cf3b 5a6b 23bc 4b36 463c
00000230: f317 3e3c 505f 8eba 6b9f 863c aa52 a23c
00000240: c577 ebbc 431c 0a3b aaca d8bb 32f3 8e3b
00000250: 4677 7abd 410e 1cbc a1b4 3bba 6738 133b
00000260: ccc9 153d 3d0c 093b 30b8 88bd 1487 833a
00000270: 9385 433b 61d4 f43b df99 00bd 1c12 01bc
00000280: a6a7 7ebb 58e1 263a d81b 70bb b27b 033b
00000290: ad16 8cbb 01d4 26ba f9d6 493c da4a 0bba
000002a0: 78c6 603a fedb b53d 1c40 a3bd 67e6 efba
000002b0: 7b5b 47bc d74f d73c 8d1b 283b 6d06 683b
000002c0: 63a0 b6bd c536 06bc ed20 27bc ef44 d6ba
000002d0: 9bc7 aeba c4a2 e4bc 26e5 84bb 8ab9 2fbb
000002e0: e0fc 09bb 4376 ae3b 0526 b03c 5556 703b
000002f0: d8c8 a53c ebfe 12ba 75f6 703d 0d8b 56bb
00000300: ce14 893c c0a7 a1bc 1c11 8e3b 0451 083d
00000310: a107 5cbc f7ba 863b 3be0 8b3b dc4c 003c
00000320: 9b4b 0ebd fcbd 5a3b 551a 8dbb 05eb a8bb
00000330: 49b0 ccbc 8723 9dbb db2e 60bd 4d14 36bc
00000340: 7e6c 85bc 8249 53bb 7254 0a3b ea78 98bb
00000350: f2b6 f2b9 d17d 9b3b 26c1 2d3d 16a5 00bd
00000360: b8ae b83d 9b0e 00bb 9003 a13d 9a65 93bc
00000370: c11c 2eba 6f22 d6bb 065c 9dbb 58c0 4b3a
00000380: 3cb6 333a 9c63 913c ae63 abbd 66f0 7cbb
00000390: c9f5 813b dcba 9c3b d259 133b b5d7 093e
000003a0: f34a 25bc ce34 d43b 871a af3b a171 ed3b
000003b0: 24c1 1739 299e 55ba 9e04 ac3a 557f 31bb
000003c0: 1bf4 e9ba ed52 0f3b 1776 473c 782f 023b
000003d0: 279e 3b3b 2c86 8c3b b2c8 c73c 443d e3bb
000003e0: 6b83 b83a e368 dbbb c1ff 27bc 08aa 833b
000003f0: 8f4a 893b 2099 543d 78a4 253c cfe2 153c

network_body._body_endoder.seq_layers.0.bias f4 [128]
0.006160689 -0.004198042 -0.022729177 0.09718684 -0.09133354 -0.08732918 -0.04008847 -0.041334227
-0.009336327 -0.015470499 -0.011122052 0.02713818 -0.016172027 0.0522336 0.016126685 0.06475323
-0.0611182 -0.004252989 -0.1170106 -0.03405374 -0.094870895 -0.008512971 -0.026875895 0.028216872
-0.007901419 0.0110009005 -0.083555594 -0.033485316 0.056368418 0.025568346 -0.05692922 -0.08651032
-0.062411845 -0.019716501 -0.0008264112 0.032068655 0.04231203 0.060829226 -0.087776326 -0.047464747
-0.003827772 -0.010590728 0.03828877 0.004139138 -0.004931889 0.017699195 -0.049425192 0.008625069
-0.07711702 0.003859171 0.054254103 -0.04876597 -0.007882633 0.11844927 -0.012338259 -0.038350597
0.012181056 0.047592063 0.05091562 0.0010724782 -0.041828062 -0.030520119 -0.0138538815 -0.060064632
0.029762363 -0.045787968 -0.09139914 -0.028292682 0.006214212 -0.050763477 -0.06686814 -0.06695329
-0.0468914 0.016116567 0.033414327 0.050261363 -0.0059052072 -0.0068587405 -0.0020956364 0.017128063
0.010492857 0.0148043595 -0.034618646 -0.026054975 -0.008898539 0.071233705 -0.105493546 -0.14839509
0.07672509 -0.06224727 0.009074261 0.015528808 -0.008362245 -0.031049967 -0.08429252 -0.012616593
-0.051717035 0.035758927 -0.033833 -0.06684207 0.03435764 -0.061511457 -0.029666966 -0.064247996
0.043322723 -0.051286835 0.030204635 -0.03599451 0.021878734 0.034302775 0.002386132 0.04476416
0.04182898 0.007414758 0.004496541 0.06664998 0.0004831466 -0.0053789653 -0.037606537 -0.06956965
0.083376944 -0.078836285 0.018048165 0.03692855 -0.02330652 0.076869026 -0.040522568 0.0047271783
00000000: 9bdf c93b bb8f 89bb 8a32 babc e509 c73d
00000010: 140d bbbd a4d9 b2bd cf33 24bd 144e 29bd
00000020: 65f7 18bc fa77 7dbc 4439 36bc e350 de3c
00000030: 337b 84bc e6f2 553d 1c1c 843c 579d 843d
00000040: 1457 7abd a85c 8bbb 41a3 efbd ef7b 0bbd
00000050: ac4b c2bd fd79 0bbc d62a dcbc 1227 e73c
00000060: f474 01bc 1f3d 343c 321f abbd e627 09bd
00000070: 92e2 663d b574 d13c 9d2e 69bd 532c b1bd
00000080: 90a3 7fbd 8084 a1bc 84a3 58ba 6c5a 033d
00000090: 614f 2d3d 1128 793d 13c4 b3bd 656a 42bd
000000a0: 5cdb 7abb bc84 2dbc afd4 1c3d 9ba1 873b
000000b0: af9b a1bb e7fd 903c 1272 4abd 2950 0d3c
000000c0: 87ef 9dbd 25ea 7c3b 8d39 5e3d d3be 47bd
000000d0: 2926 01bc 8895 f23d 6926 4abc 8415 1dbd
000000e0: 0d93 473c e5ef 423d e68c 503d 6692 8c3a
000000f0: e753 2bbd 5405 fabc 64fb 62bc 5506 76bd
00000100: 33d0 f33c 2a8c 3bbd 792f bbbd 0ec6 e7bc
00000110: 97a0 cb3b 5ded 4fbd 2af2 88bd ce1e 89bd
00000120: 3211 40bd e406 843c 76dd 083d dcde 4d3d
00000130: 7880 c1bb 49bf e0bb f256 09bb 2750 8c3c
00000140: 3bea 2b3c fc8d 723c 48cc 0dbd 3e71 d5bc
00000150: 2dcb 11bc fae2 913d 000d d8bd e2f4 17be
00000160: 0b22 9d3d fef6 7ebd 36ac 143c 8b6c 7e3c
00000170: cc01 09bc 805c febc 8fa1 acbd d4b5 4ebc
00000180: 3ed5 53bd f477 123d 7994 0abd 7fe4 88bd
00000190: 99ba 0c3d 70f3 7bbd 2308 f3bc 7494 83bd
000001a0: 2b73 313d 2512 52bd b66f f73c fb6e 13bd
000001b0: 083b b33c 1181 0c3d a760 1c3b a05a 373d
000001c0: dd54 2b3d 80f7 f23b b857 933b c97f 883d
000001d0: d74e fd39 0842 b0bb 5009 1abd 887a 8ebd
000001e0: 88c1 aa3d eb74 a1bd bfd9 933c 6442 173d
000001f0: 51ed bebc 826d 9d3d fefa 25bd 72e6 9a3b

network_body._body_endoder.seq_layers.0.weight f4 [128, 82]
-0.029672654 0.04919597 0.1618972 -0.2012159 0.16324617 0.02820987 0.032041162 0.041916125
0.03194257 -0.30780387 0.074116424 -0.05182689 -0.1067091 0.16459481 -0.15196706 -0.32634565
-0.23018762 0.034183722 0.043294676 -0.012895329 0.048137993 -0.16551949 -0.103183776 0.11387546
-0.10083566 0.20688048 0.07773324 -0.1612883 0.16903032 -0.1969525 -0.01085915 0.12551609
-0.21116291 0.15394814 -0.10859516 0.009622237 -0.23116903 0.0142683815 0.13579778 -0.084200606
-0.4157039 0.024792736 -0.13795976 0.033058565 -0.30197272 0.06900761 0.14897175 0.12372491
0.15933624 0.25427127 0.015221813 -0.16501833 -0.114618786 -0.09375499 -0.031639062 0.13843094
-0.061042327 0.14066401 0.13947886 -0.08381798 0.057560675 0.22724704 -0.19962795 0.048781298
0.037798192 -0.17504978 -0.038346604 0.094689004 0.021802908 -0.042930942 -0.08137941 -0.2628588
-0.28811538 -0.014575821 0.037887093 -0.22965316 -0.041497767 -0.2745908 0.010995993 -0.04184726
-0.10940443 0.16366151 -0.033994947 -0.016540356 -0.05542955 0.05969408 -0.31435788 0.0604631
-0.19263521 -0.12678698 0.191126 0.24435219 -0.13950126 -0.124891214 -0.029102385 -0.010562282
0.19364122 0.029174814 -0.1716591 0.24291378 -0.10952048 -0.07160139 0.07136066 0.047928434
-0.20139371 0.00023669997 0.09190979 0.038646143 -0.106725134 -0.014731451 0.16716182 -0.04428938
-0.23122405 -0.08671366 -0.0034129305 -0.0020180903 0.2777446 -0.029826188 -0.05537018 0.23367606
0.0032254213 0.07658606 0.08333978 -0.21814737 -0.0051708263 -0.024643898 -0.019279491 0.23905785
0.043436226 0.061386663 -0.27056292 0.22938867 -0.0007794209 -0.15039667 0.11297392 -0.11614322
-0.28370282 0.010736041 0.17183098 0.03654206 -0.06037124 0.019522201 -0.1797087 -0.0472881
0.0030201504 -0.029482003 -0.18760276 -0.1216684 -0.38221046 0.08829467 0.090626195 0.042628728
-0.13766088 -0.056765 -0.14393036 0.020796282 -0.056181826 -0.13455625 0.032005765 -0.001257133
0.04260161 -0.007678272 -0.3038786 0.36621484 0.0033630203 -0.035896055 -0.17353241 0.022259176
-0.037307583 0.027088981 0.21686953 0.030175082 0.11302026 -0.24612243 -0.08785228 -0.17927004
0.24620011 0.020268641 -0.17063181 0.20357087 0.28609422 0.18687592 0.30586863 -0.1858158
-0.0049319714 -0.20183958 0.009592069 0.059620526 0.016916795 -0.38943744 -0.013298524 -0.03996807
0.29901275 -0.039880615 -0.028008925 -0.20944016 0.392095 0.053398397 -0.092333555 -0.026396204
0.011732364 0.039556377 -0.050809324 -0.15138485 -0.040513564 0.16454618 0.24673586 0.05179628
0.08197508 -0.10435533 0.04880726 0.060480095 0.15969726 0.005765191 -0.11214131 -0.18147554
0.09032404 -0.0215307 0.19266357 -0.058217652 0.46536678 0.12253599 0.30080083 0.12342438
0.23140186 -0.0025888523 0.27013573 -0.35617757 -0.29163668 -0.18652262 -0.036815576 0.04068867
0.04684561 -0.21349198 0.199327 -0.0549381 0.15392552 0.03006919 -0.047916844 -0.26479873
0.011728337 -0.018293336 0.062823914 -0.014283448 0.0518447 -0.33017102 0.13428845 0.23149869
0.14158188 -0.08885143 0.13182348 0.053551603 0.043798078 -0.022560801 -0.16127047 0.0099953925
00000000: 1114 f3bc b781 493d 61c8 253e 8a0b 4ebe
00000010: 012a 273e 6318 e73c 983d 033d 3eb0 2b3d
00000020: 36d6 023d 7898 9dbe 5aca 973d 6f48 54bd
00000030: 4d8a dabd 8b8b 283e 419d 1bbe c716 a7be
00000040: 4eb6 6bbe 3b04 0c3d c255 313d ee46 53bc
00000050: 582c 453d f17d 29be 0452 d3bd 8a37 e93d
00000060: ed82 cebd 7ad8 533e 9b32 9f3d c328 25be
00000070: 4916 2d3e ebad 49be 94ea 31bc 4a87 003e
00000080: 173b 58be 95a4 1d3e 2467 debd 96a6 1d3c
00000090: 93b7 6cbe eec5 693c 930e 0b3e 5e71 acbd
000000a0: 24d7 d4be 231a cb3c 5345 0dbe 6b68 073d
000000b0: 2b9c 9abe dd53 8d3d 0d8c 183e 7c63 fd3d
000000c0: 0a29 233e d82f 823e e964 793c 91fa 28be
000000d0: 41bd eabd 9e02 c0bd f697 01bd d7c0 0d3e
000000e0: 8507 7abd 3a0a 103e 8cd3 0e3e c3a8 abbd
000000f0: bec4 6b3d 73b3 683e 456b 4cbe e6ce 473d
00000100: 47d2 1a3d 4040 33be 5411 1dbd 4fec c13d
00000110: 039c b23c 5bd8 2fbd 40aa a6bd 6e95 86be
00000120: dc83 93be 6dcf 6ebc 7f2f 1b3d 332a 6bbe
00000130: 90f9 29bd 2a97 8cbe 8a28 343c 0868 2bbd
00000140: 6e0f e0bd e296 273e 493e 0bbd a47f 87bc
00000150: 190a 63bd c881 743d 84f3 a0be 28a8 773d
00000160: 2a42 45be 72d4 01be 89b6 433e 7637 7a3e
00000170: 6bd9 0ebe f7c6 ffbd 2068 eebc 6c0d 2dbc
00000180: e249 463e 0500 ef3c 67c7 2fbe 64be 783e
00000190: 464c e0bd c0a3 92bd 8a25 923d 9b50 443d
000001a0: 273a 4ebe aa32 7839 333b bc3d 6b4b 1e3d
000001b0: b592 dabd 2f5c 71bc 782c 2b3e c868 35bd
000001c0: ffc5 6cbe ee96 b1bd 79ab 5fbb f041 04bb
000001d0: 8a34 8e3e 0d56 f4bc d8cb 62bd c748 6f3e
000001e0: 9761 533b 27d9 9c3d 0cae aa3d 0662 5fbe
000001f0: 0970 a9bb 00e2 c9bc 06f0 9dbc 95cb 743e
00000200: 2fea 313d 9570 7b3d 3987 8abe dde4 6a3e
00000210: 0d52 4cba 9601 1abe df5e e73d 7fdc edbd
00000220: 7f41 91be 38e6 2f3c 76f4 2f3e 21ad 153d
00000230: d547 77bd 06ed 9f3c 8f05 38be 2bb1 41bd
00000240: b7ed 453b 3e84 f1bc f01a 40be 482d f9bd
00000250: 17b1 c3be d6d3 b43d 3a9a b93d 769b 2e3d
00000260: f9f6 0cbe 6b82 68bd 7b62 13be f75c aa3c
00000270: ea1e 66bd 1dc9 09be 7a18 033d 62c6 a4ba
00000280: 077f 2e3d 049a fbbb fa95 9bbe 8380 bb3e
00000290: 1e66 5c3b be07 13bd 7bb2 31be e058 b63c
000002a0: d6cf 18bd b6e9 dd3c 0c13 5e3e bc31 f73c
000002b0: 2b77 e73d 8507 7cbe e5eb b3bd 9192 37be
000002c0: e21b 7c3e 6c0a a63c 1bba 2ebe e274 503e
000002d0: f17a 923e 675c 3f3e d09a 9c3e 7f46 3ebe
000002e0: 609c a1bb 09af 4ebe 0e28 1d3c a734 743d
000002f0: 1795 8a3c 5864 c7be 0de2 59bc 8fb5 23bd
00000300: 3318 993e db59 23bd f972 e5bc 7b77 56be
00000310: adc0 c83e 47b8 5a3d 6019 bdbd da3c d8bc
00000320: 1a39 403c de05 223d 701d 50bd a104 1bbe
00000330: 8df1 25bd cb7e 283e 53a8 7c3e 5628 543d
00000340: 8de2 a73d 3fb8 d5bd 1fea 473d fab9 773d
00000350: ae87 233e ede9 bc3b 58aa e5bd b9d4 39be
00000360: cffb b83d 2761 b0bc 9949 453e a275 6ebd
00000370: 8e44 ee3e 26f4 fa3d 9102 9a3e ecc5 fc3d
00000380: 9cf4 6c3e bca9 29bb 3b4f 8a3e e85c b6be
00000390: 6751 95be c9ff 3ebe eecb 16bd 2aa9 263d
000003a0: 2fe1 3f3d a49d 5abe 611c 4c3e c606 61bd
000003b0: a79e 1d3e a953 f63c 7444 44bd b393 87be
000003c0: 3628 403c e8db 95bc d3a9 803d 2005 6abc
000003d0: 1c5b 543d 2d0c a9be e982 093e fe0d 6d3e
000003e0: d7fa 103e bdf7 b5bd bcfc 063e ed58 5b3d
000003f0: 9d65 333d 6ed1 b8bc 1624 25be b7c3 233c

network_body._body_endoder.seq_layers.2.bias f4 [128]
-0.07224864 -0.016371062 -0.023334073 -0.0069650346 -0.0017722939 -0.050551094 -0.077247694 -0.048984054
-0.05965725 -0.06616613 0.011901235 -0.05462372 -0.04131402 -0.00059945084 0.010209137 -0.0047995434
-0.04026178 -0.023294205 0.013900124 -0.007050914 0.07260057 -0.0038523676 0.06506628 0.03515371
-0.09099554 -0.012264355 0.034292795 -0.020502413 -0.03142625 -0.0133427195 -0.022731682 -0.043816507
-0.025974184 -0.027181745 -0.01458181 -0.01939655 -0.019029079 -0.042043146 0.056633066 -0.02621023
-0.04988132 -0.057478294 0.008949731 -0.012039065 -0.037608385 -0.04657276 0.021612985 0.0046821455
0.059530277 0.0032531694 -0.063638136 -0.026823638 -0.012562828 -0.0052190977 0.0029739249 -0.04043456
-0.0100327935 0.010784792 -0.03352425 -0.06804746 0.0019691687 -0.01812065 -0.031132113 0.008296337
0.0043830797 -0.05512414 -0.030538192 0.055566266 -0.042327493 -0.020190507 -0.042007197 -0.020985885
0.02770591 -0.053234585 0.035866927 -0.041889418 0.039767414 0.028204517 -0.035862673 -0.08798724
-0.04701831 0.029390553 -0.09173291 -0.02040643 -0.016303467 -0.019211022 0.01259564 -0.010238915
-0.01572138 -0.041075207 -0.09673782 -0.034227237 0.0035944453 -0.04891325 -0.08403239 -0.038523383
-0.03802047 -0.030059263 -0.040307477 0.036291275 -0.07046404 -0.029942483 0.011486094 -0.01585449
-0.07268176 0.021668633 -0.037253086 0.018852826 -0.05029695 0.012823805 -0.011443791 -0.07549912
-0.0020988022 -0.06780403 -0.04922529 -0.009431261 0.062056273 -0.011285752 -0.053099785 0.012442465
0.008523501 -0.022219865 -0.010610282 -0.01594285 -0.0032078945 0.009322914 0.0055355453 -0.042748716
00000000: 18f7 93bd 9b1c 86bc 1927 bfbc f23a e4bb
00000010: 514c e8ba aa0e 4fbd 0a34 9ebd 81a3 48bd
00000020: 295b 74bd 1c82 87bd 66fd 423c 1fbd 5fbd
00000030: e438 29bd 7724 1dba 3944 273c 7d45 9dbb
00000040: 89e9 24bd 7dd3 bebc 58bd 633c 5b0b e7bb
00000050: 9caf 943d 0178 7cbb 7841 853d 56fd 0f3d
00000060: df5b babd 6ff0 48bc 9a76 0c3d adf4 a7bc
00000070: d0b8 00bd 6c9b 5abc cb37 babc f078 33bd
00000080: d0c7 d4bc 40ac debc 8be8 6ebc 83e5 9ebc
00000090: dfe2 9bbc 6f35 2cbd 13f8 673d d6b6 d6bc
000000a0: 5b50 4cbd 5c6e 6bbd e4a1 123c 803f 45bc
000000b0: 400b 1abd 14c3 3ebd b70d b13c af6c 993b
000000c0: 05d6 733d 2033 553b b654 82bd 3fbd dbbc
000000d0: 52d4 4dbc f704 abbb 2ee6 423b b69e 25bd
000000e0: 9660 24bc b2b2 303c b950 09bd 775c 8bbd
000000f0: 2b0d 013b c271 94bc c608 ffbc 5ced 073c
00000100: f09f 8f3b dac9 61bd 3b2b fabc 7499 633d
00000110: 985f 2dbd 9066 a5bc bd0f 2cbd 97ea abbc
00000120: 81f7 e23c 820c 5abd 33e9 123d 3d94 2bbd
00000130: 28e3 223d 290d e73c bde4 12bd a732 b4bd
00000140: 4596 40bd 75c4 f03c 77de bbbd 632b a7bc
00000150: d98e 85bc 6f60 9dbc f15d 4e3c 1fc1 27bc
00000160: 20ca 80bc 7a3e 28bd 7a1e c6bd dc31 0cbd
00000170: c990 6b3b 4359 48bd 2c19 acbd b2ca 1dbd
00000180: 5abb 1bbd d83e f6bc 7419 25bd 29a6 143d
00000190: 734f 90bd f049 f5bc 2c30 3c3c 47e1 81bc
000001a0: 2dda 94bd 6b82 b13c b196 18bd 3e71 9a3c
000001b0: 2d04 4ebd f01a 523c bd7e 3bbc 489f 9abd
000001c0: 0f8c 09bb d7dc 8abd 75a0 49bd 9385 1abc
000001d0: b82e 7e3d e0e7 38bc 297f 59bd 7bdb 4b3c
000001e0: 28a6 0b3c 6f06 b6bc c0d6 2dbc 949a 82bc
000001f0: 8a3b 52bb 23bf 183c 8563 b53b 4719 2fbd

network_body._body_endoder.seq_layers.2.weight f4 [128, 128]
0.030839026 0.024885703 0.11994254 -0.16647942 -0.013287773 0.07539646 -0.05557835 0.030495074
0.16129212 -0.007415166 0.07178982 -0.1782277 -0.18971375 0.050339345 -0.037108313 -0.12085643
-0.066333786 0.037440456 -0.17265603 0.15149887 0.0326562 0.022708137 -0.04775606 0.18865687
0.18650271 0.2701573 -0.12616871 0.08649821 -0.043906596 -0.021621114 -0.065437905 -0.2237482
-0.11804657 0.03882621 0.33371264 0.11093715 -0.050862297 0.25825396 0.021035992 -0.0055905213
-0.102854885 0.047217544 0.046570178 0.09798584 -0.023443896 0.14276436 0.029384874 0.070822455
-0.005153027 -0.025185995 0.07445825 -0.1601755 0.07271993 -0.01062658 0.03008382 0.080812
0.02044483 0.010653999 0.21773218 0.29020482 0.14080653 0.070672095 0.024949042 0.059343074
-0.0157036 0.17927742 -0.0044396697 0.0059352447 -0.033979673 0.08453825 0.033900756 0.06269272
0.018337047 -0.18136019 0.19745517 -0.06556789 -0.0142180165 -0.008894135 0.039766967 -0.038427107
-0.24872576 0.23851025 0.010484856 -0.038974643 0.061386824 0.047928 -0.06539513 0.075947896
0.26674056 0.034649216 -0.2101152 0.018845152 0.1468773 0.08147104 0.062339503 0.14510569
0.17608142 -0.05049102 0.005238226 -0.14277786 0.16288254 -0.008301105 0.1148335 0.08857216
0.0490462 0.03410466 0.2145873 0.21749015 -0.012162405 0.104776934 0.056486543 0.1443779
0.24091332 -0.15569519 0.0028644016 0.065049395 -0.1973383 -0.043213956 -0.10739548 -0.06482091
0.2440389 -0.09608195 -0.13481623 0.123758614 0.17429803 0.12286272 -0.07770111 0.21083824
-0.020199426 0.015201868 -0.08795737 -0.05788387 0.1040384 0.07744821 -0.008197651 -0.18764663
-0.03434267 -0.066345476 -0.014778112 -0.0065278197 -0.13567944 -0.27587983 0.090975456 -0.09791274
-0.008319663 -0.09359226 -0.08980517 0.0858514 0.112213396 0.15798642 0.03031665 -0.15942968
-0.24327497 -0.0017103609 -0.07732835 0.03634682 -0.021721948 -0.07366418 0.18186048 0.19946773
0.037478685 0.058953244 -0.19863461 0.10634388 -0.017961914 -0.10286592 0.030513704 0.10376013
-0.03852577 -0.020136256 -0.17203923 -0.020202223 0.21190974 0.07539101 -0.002735468 0.025489248
0.08231412 0.21312559 -0.121927984 -0.28598067 -0.16507912 0.0796727 -0.06076993 0.0056800046
-0.09636772 0.08019801 -0.067915834 0.078114554 0.109933935 0.018645527 -0.15322594 -0.0055893525
-0.13539019 -0.15060252 -0.00708072 -0.0062387595 0.017379275 0.04848324 0.06328144 0.042825844
-0.24930471 0.0735999 -0.17352739 -0.016992804 0.13984804 0.048611734 -0.19062984 0.10411764
-0.15512188 -0.011158414 0.18716928 0.009583582 -0.10592628 -0.078905396 -0.004856006 -0.080834575
0.100917056 -0.026468147 -0.11552886 0.13599455 -0.13049684 0.021707078 -0.07252625 -0.006093837
0.13126063 -0.09260574 -0.083248444 0.06179738 -0.027876655 -0.10753963 0.11202236 0.0859403
-0.16234592 0.057464447 0.08876291 -0.1101557 0.100701936 -0.21028166 -0.13070275 0.04455677
-0.14804171 -0.1304989 -0.100544676 -0.15191421 0.012834505 0.25863793 -0.16671588 0.17869154
0.1418291 0.08218988 0.13850057 -0.27089772 0.10564923 -0.11992668 0.16902941 -0.05092349
00000000: 20a2 fc3c 1add cb3c 6fa4 f53d 9579 2abe
00000010: f6b4 59bc 7669 9a3d 20a6 63bd ced0 f93c
00000020: c329 253e ecfa f2bb 8b06 933d 5281 36be
00000030: 5244 42be a130 4e3d e3fe 17bd 9383 f7bd
00000040: 02da 87bd 2a5b 193d becc 30be 8522 1b3e
00000050: 82c2 053d 6a06 ba3c dc9b 43bd 442f 413e
00000060: 91fa 3e3e 0f52 8a3e 5f32 01be f925 b13d
00000070: 67d7 33bd c31e b1bc 4f04 86bd 401e 65be
00000080: 66c2 f1bd 3b08 1f3d 62dc aa3e 0433 e33d
00000090: fc54 50bd dd39 843e ac53 ac3c b130 b7bb
000000a0: 95a5 d2bd 2f67 413d 5fc0 3e3d cdac c83d
000000b0: 6a0d c0bc d230 123e 8cb8 f03c 5d0b 913d
000000c0: b9da a8bb dc52 cebc 917d 983d 0c05 24be
000000d0: 30ee 943d 1b1b 2ebc 5872 f63c c380 a53d
000000e0: eb7b a73c 1c8e 2e3c 2ff5 5e3e ba95 943e
000000f0: 962f 103e 88bc 903d ef61 cc3c b911 733d
00000100: d6a4 80bc 8094 373e a67a 91bb 717c c23b
00000110: 452e 0bbd 6422 ad3d 85db 0a3d 0a65 803d
00000120: 9337 963c 7cb6 39be b031 4a3e 7548 86bd
00000130: aff2 68bc b5b8 11bc b0e2 223d be65 1dbd
00000140: f7b1 7ebe 083c 743e acc8 2b3c e0a3 1fbd
00000150: c070 7b3d 2750 443d e2ed 85bd 928a 9b3d
00000160: 3892 883e 56ec 0d3d 7028 57be 2661 9a3c
00000170: 0167 163e 4ada a63d b557 7f3d 9696 143e
00000180: b04e 343e accf 4ebd 6da5 ab3b 5c34 12be
00000190: aeca 263e 5c01 08bc d32d eb3d 5265 b53d
000001a0: abe4 483d 54b1 0b3d c6bc 5b3e bdb5 5e3e
000001b0: d344 47bc 4a95 d63d 6f5e 673d cdd7 133e
000001c0: fbb1 763e 8f6e 1fbe afb8 3b3b 9e38 853d
000001d0: 0d13 4abe 1e01 31bd 29f2 dbbd d3c0 84bd
000001e0: 55e5 793e 9dc6 c4bd 440d 0abe 2875 fd3d
000001f0: 2f7b 323e 739f fb3d c221 9fbd fbe5 573e
00000200: 4479 a5bc 4111 793c fe22 b4bd a317 6dbd
00000210: 1612 d53d 2b9d 9e3d 714f 06bc 7026 40be
00000220: e6aa 0cbd 23e0 87bd e51f 72bc 52e7 d5bb
00000230: 8def 0abe 1f40 8dbe 5751 ba3d 7a86 c8bd
00000240: 324f 08bc 4cad bfbd c6eb b7bd dcd2 af3d
00000250: 23d0 e53d 31c7 213e a05a f83c 8941 23be
00000260: 131d 79be 302e e0ba 535e 9ebd 67e0 143d
00000270: 3af2 b1bc 3fdd 96bd a239 3a3e 4541 4c3e
00000280: 4083 193d f578 713d df66 4bbe d2ca d93d
00000290: dd24 93bc 5eab d2bd e0f7 f93c 3180 d43d
000002a0: 33cd 1dbd caf4 a4bc 0d2b 30be 227f a5bc
000002b0: defe 583e 9a66 9a3d 8a45 33bb d4ce d03c
000002c0: 4e94 a83d 983d 5a3e 61b5 f9bd 0f6c 92be
000002d0: 800a 29be 712b a33d e4e9 78bd 551f ba3b
000002e0: 705c c5bd db3e a43d 7517 8bbd 86fa 9f3d
000002f0: 0b25 e13d 81be 983c 43e7 1cbe e326 b7bb
00000300: baa3 0abe 8c37 1abe 6205 e8bb 826e ccbb
00000310: fb5e 8e3c 5d96 463d b399 813d 276a 2f3d
00000320: bc49 7fbe 8bbb 963d 2ab1 31be 7e34 8bbc
00000330: 5334 0f3e 191d 473d 7834 43be a13b d53d
00000340: 45d8 1ebe c8d1 36bc 4ea9 3f3e 7504 1d3c
00000350: e1ef d8bd 2799 a1bd 211f 9fbb 998c a5bd
00000360: 9aad ce3d bad3 d8bc 659a ecbd 2842 0b3e
00000370: f7a0 05be 0bd3 b13c a488 94bd cfae c7bb
00000380: 3069 063e 14a8 bdbd 297e aabd 401f 7d3d
00000390: 955d e4bc bd3d dcbd fb6b e53d 7801 b03d
000003a0: 023e 26be d75f 6b3d 54c9 b53d 5099 e1bd
000003b0: d13c ce3d 1354 57be f1d6 05be 2981 363d
000003c0: 3f98 17be 81a1 05be 5eea cdbd 668f 1bbe
000003d0: d147 523c 316c 843e 91b7 2abe eafa 363e
000003e0: a63b 113e 2b53 a83d 18d3 0d3e 1bb3 8abe
000003f0: a05e d83d 1f9c f5bd 0c16 2d3e 2695 50bd

network_body._body_endoder.seq_layers.4.bias f4 [128]
-0.034876876 0.041947942 0.008946768 0.026099756 0.0014690247 -0.021102656 -0.015242845 -0.05217484
-0.019800557 -0.041827556 -0.07639549 -0.005487434 -0.05518395 -0.0057850685 -0.01565643 -0.03244834
-0.04958159 -0.0016807758 -0.022736287 -0.040121745 -0.0086065885 -0.01375804 -0.010020488 -0.027349632
-0.042796176 -0.023350373 -0.039699048 -0.02330296 -0.048458718 -0.008385208 -0.049429856 -0.023562526
-0.012726674 -0.0073818606 -0.023346525 -0.038738016 -0.0014055665 -0.0046679047 -0.021554332 -0.0013426922
-0.056848034 -0.019372301 -0.028621588 0.0027691745 -0.016067374 -0.0052990164 -0.019223578 -0.0075029465
-0.07831619 -0.039816312 -0.017572055 -0.014280171 0.03230255 -0.028793111 -0.0099677285 -0.050935715
-0.016655793 -0.014796597 -0.04100379 -0.018828008 -0.04236147 -0.02492536 -0.02673159 0.028964773
-0.043108568 -0.009722458 -0.008223599 -0.048786122 0.021706756 -0.03084606 -0.013322848 -0.018686183
0.0062119225 -0.038160067 0.016423522 -0.044482842 -0.009169186 -0.022077475 -0.041430302 -0.030935172
-0.019418757 -0.018705139 -0.023582503 -0.013598726 0.036922067 -0.008380607 -0.053704508 0.021620173
-0.03714253 -0.05558331 -0.0011690394 -0.050411742 -0.02152521 -0.007302476 0.014552812 0.0032976507
0.03131351 -0.06053695 -0.0023707314 0.011996376 -0.013003269 0.018993733 -0.05017526 -0.0048994776
-0.060892344 -0.023322873 -0.0119527625 0.0005403724 -0.023436679 0.0075092586 -0.010975039 -0.012272259
-0.04476958 -0.031459235 -0.0112646585 -0.023712257 -0.04478024 0.009080087 -0.04292616 -0.009136255
0.018243894 -0.0065184203 -0.008018483 -0.050062004 -0.023451848 -0.048476186 -0.04007714 0.017974382
00000000: 0edb 0ebd 9bd1 2b3d 7795 123c 28cf d53c
00000010: 4a8c c03a 7adf acbc 20bd 79bc 49b5 55bd
00000020: c734 a2bc 5f53 2bbd 3d75 9cbd efcf b3bb
00000030: 9108 62bd ac90 bdbb ea41 80bc 8de8 04bd
00000040: 1116 4bbd 7a4d dcba 7341 babc b356 24bd
00000050: a602 0dbc 6769 61bc f92c 24bc 560c e0bc
00000060: 0b4b 2fbd 4849 bfbc 789b 22bd d9e5 bebc
00000070: a67c 46bd 1d62 09bc f676 4abd 3306 c1bc
00000080: 8a83 50bc 89e3 f1bb 3641 bfbc c1ab 1ebd
00000090: fc3a b8ba 39f5 98bb b692 b0bc 46fd afba
000000a0: 7cd9 68bd a9b2 9ebc d277 eabc 0a7b 353b
000000b0: ba9f 83bc 5fa3 adbb c47a 9dbc 47db f5bb
000000c0: 3d64 a0bd 6e16 23bd 45f3 8fbc 61f7 69bc
000000d0: ae4f 043d 88df ebbc af4f 23bc f8a1 50bd
000000e0: bb71 88bc 6d6d 72bc 97f3 27bd 323d 9abc
000000f0: 3983 2dbd 4530 ccbc 35fc dabc 8847 ed3c
00000100: 9c92 30bd f24a 1fbc 46bc 06bc f5d3 47bd
00000110: 5ed2 b13c e0b0 fcbc 1348 5abc c413 99bc
00000120: 628d cb3b bb4d 1cbd 9f8a 863c a433 36bd
00000130: 5b3a 16bc d2db b4bc d2b2 29bd c26b fdbc
00000140: 1614 9fbc 853b 99bc 1830 c1bc 31cd 5ebc
00000150: 983b 173d d04e 09bc 42f9 5bbd ca1c b13c
00000160: c422 18bd 53ab 63bd 743a 99ba 8b7c 4ebd
00000170: a355 b0bc 9c49 efbb eb6e 6e3c 661d 583b
00000180: 9842 003d 98f5 77bd 465e 1bbb 738c 443c
00000190: aa0b 55bc bf98 9b3c 9384 4dbd cc8b a0bb
000001a0: 406a 79bd 9c0f bfbc 85d5 43bc c7a7 0d3a
000001b0: 47fe bfbc 3a10 f63b a6d0 33bc 9611 49bc
000001c0: 4f60 37bd 66db 00bd 678f 38bc 3540 c2bc
000001d0: 7c6b 37bd a5c4 143c 57d3 2fbd 3bb0 15bc
000001e0: 3874 953c 7998 d5bb f55f 03bc d10d 4dbd
000001f0: 171e c0bc f78e 46bd ed27 24bd 033f 933c

network_body._body_endoder.seq_layers.4.weight f4 [128, 128]
0.011347422 -0.07021526 -0.07265367 0.094291806 -0.036989044 -0.06735319 -0.046174437 -0.06661116
0.01116124 -0.111299805 0.08650971 0.20190752 0.012887718 0.12002112 0.07701761 -0.07633019
-0.058138225 0.07242885 0.021435097 0.068191975 0.02260267 -0.119282894 -0.045517482 -0.16097884
-0.09995611 0.1189461 0.17127076 0.0040586405 -0.062151186 0.051543657 0.007848473 0.049413122
0.04699818 0.0580012 0.08118782 0.058348652 -0.067522936 -0.08439227 0.054071285 -0.03552559
0.06797693 -0.082664214 0.0882537 -0.1423711 0.11734734 0.16657938 -0.011539323 0.10859178
0.0064852447 -0.015419198 -0.003791743 0.04412205 -0.01931309 -0.059534255 0.03133507 0.04343387
0.0984742 -0.058466546 -0.066643 0.040716056 0.0010972004 -0.11224429 -0.2127117 -0.0026780544
0.08144536 0.012292247 0.08580592 0.075713545 -0.06449677 0.04103164 -0.0055977083 -0.057785112
-0.11479894 -0.055853657 -0.105584115 -0.028751645 0.037538495 -0.15015659 -0.0058161565 0.05510412
-0.04727157 0.06246315 -0.089798376 -0.13194658 0.12922303 -0.011839623 -0.050114058 0.02346557
-0.022014143 -0.115932345 0.069397435 -0.06498323 0.054530714 -0.04797546 -0.021898933 0.038170993
0.14381266 -0.026961295 0.018104672 -0.035358418 0.12335199 0.12882268 0.026980521 -0.023788707
-0.14409143 -0.0031147397 -0.070727594 -0.10086516 -0.13236961 -0.039527956 0.032775 -0.055473838
0.004626055 -0.027854787 0.023202112 0.11541034 -0.022139845 0.10150693 -0.03504353 0.04876096
0.1166677 -0.05685726 0.02652467 0.01263737 -0.11186341 0.03580878 -0.027670702 -0.027069625
-0.11212456 0.114166126 -0.1297619 0.079326555 -0.041566726 -0.020637108 -0.14481933 -0.31607383
-0.06652635 -0.07631173 -0.14301603 -0.14802584 0.11123165 -0.017408622 -0.13869493 -0.12697451
0.09798047 -0.23872219 0.015444532 0.0012077712 -0.14024025 0.12899858 0.013789978 -0.1909064
-0.077548884 -0.15707734 -0.019839415 0.05211883 -0.108023666 0.17380579 0.024002975 -0.02631477
0.021076137 0.066234924 -0.043915585 0.051610183 -0.13212006 -0.16750376 -0.061689936 -0.10958824
-0.11641594 -0.0603314 -0.11069245 -0.04334787 0.037191276 0.00065825094 -0.3240232 0.13156532
0.11526046 0.23271938 -0.19032311 -0.10992592 0.051668704 0.046114128 0.118320286 -0.010163165
0.052147903 0.05236547 -0.18672588 -0.12449126 -0.10128327 -0.011671928 -0.08051237 -0.06908
-0.111529775 -0.1711057 0.13584359 -0.21799727 -0.13318987 0.063536406 0.026155759 -0.09977957
-0.08334234 -0.032591406 0.031077612 -0.19636202 -0.04608692 0.06577685 0.04947267 0.024131458
-0.11352117 -0.0501606 -0.05093149 -0.23955366 -0.09186055 -0.043869097 0.08271671 0.027284697
-0.019250616 0.14008166 -0.11739205 -0.050436553 0.033534765 -0.033534177 -0.15124516 -0.020512642
0.15569597 -0.17974596 0.055916537 0.07513738 -0.00082802406 0.11570818 -0.1687464 -0.067401975
0.114095286 0.038594984 0.13871649 0.040080965 -0.07713902 -0.15163705 -0.21018857 -0.1911141
-0.17481893 -0.057390604 -0.08271409 -0.21721992 -0.06240259 -0.04480698 0.0895619 -0.0060453685
-0.13051437 -0.05031248 0.05039308 -0.13052095 -0.050243966 0.004658599 -0.18973778 0.018510614
00000000: 8aea 393c 05cd 8fbd 73cb 94bd 101c c13d
00000010: d381 17bd 78f0 89bd 6821 3dbd 6f6b 88bd
00000020: a2dd 363c 27f1 e3bd 012c b13d d8c0 4e3e
00000030: 0227 533c a2cd f53d 69bb 9d3d 0153 9cbd
00000040: 5922 6ebd 9455 943d a898 af3c 3ca8 8b3d
00000050: 3c29 b93c 974a f4bd 8a70 3abd a3d7 24be
00000060: cab5 ccbd 039a f33d 9a61 2f3e 58fe 843b
00000070: 3e92 7ebd 711f 533d e296 003c 6a65 4a3d
00000080: 2a81 403d ab92 6d3d cd45 a63d fffe 6e3d
00000090: 7749 8abd dbd5 acbd da79 5d3d 4883 11bd
000000a0: 7d37 8b3d db4b a9bd 5bbe b43d bbc9 11be
000000b0: cd53 f03d c993 2a3e 6e0f 3dbc 5e65 de3d
000000c0: 2d82 d43b cea0 7cbc e47e 78bb 53b9 343d
000000d0: 7c36 9ebc 31da 73bd 3459 003d b7e7 313d
000000e0: d7ac c93d 9e7a 6fbd 207c 88bd e1c5 263d
000000f0: f0cf 8f3a 56e0 e5bd 19d1 59be 4c82 2fbb
00000100: d3cc a63d 6c65 493c 04bb af3d b40f 9b3d
00000110: e216 84bd cb10 283d fb6c b7bb 15b0 6cbd
00000120: b51b ebbd cec6 64bd 7c3c d8bd 9288 ebbc
00000130: f7c1 193d a6c2 19be 7595 bebb dcb4 613d
00000140: d59f 41bd 5cd9 7f3d 36e8 b7bd 011d 07be
00000150: 0b53 043e fafa 41bc 6644 4dbd de3a c03c
00000160: 0157 b4bc f06d edbd 3e20 8e3d ed15 85bd
00000170: 995b 5f3d ea81 44bd 6465 b3bc 3059 1c3d
00000180: a043 133e efdd dcbc 4050 943c fdd3 10bd
00000190: f89f fc3d 18ea 033e 4106 dd3c 89e0 c2bc
000001a0: b48c 13be a920 4cbb a1d9 90bd 6592 cebd
000001b0: e68b 07be 11e8 21bd 143f 063d 8938 63bd
000001c0: 2996 973b b92f e4bc 5b12 be3c 425c ec3d
000001d0: 9f5e b5bc dee2 cf3d ce89 0fbd 93b9 473d
000001e0: 7aef ee3d 29e3 68bd 444a d93c f90c 4f3c
000001f0: a518 e5bd 3aac 123d abad e2bc 1ec1 ddbc
00000200: 90a1 e5bd eecf e93d 4ee0 04be f675 a23d
00000210: df41 2abd 270f a9bc 854b 14be 6ed4 a1be
00000220: f83e 88bd 5349 9cbd cb72 12be 1694 17be
00000230: 6bcd e33d 879c 8ebc 0b06 0ebe 9b05 02be
00000240: fca9 c83d 9773 74be 100b 7d3c 144e 9e3a
00000250: 249b 0fbe 3418 043e 5cef 613c f87c 43be
00000260: f3d1 9ebd e2d8 20be 4586 a2bc 8e7a 553d
00000270: 833b ddbd 25fa 313e e3a1 c43c 1392 d7bc
00000280: dda7 ac3c 2da6 873d d4e0 33bd 3365 533d
00000290: 7b4a 07be 1b86 2bbe 96ae 7cbd cd6f e0bd
000002a0: 7b6b eebd 0f1e 77bd b9b2 e2bd 898d 31bd
000002b0: e155 183d 798e 2c3a 5ee6 a5be 0fb9 063e
000002c0: ad0d ec3d fd4d 6e3e 10e4 42be d720 e1bd
000002d0: 90a2 533d 2be2 3c3d e851 f23d 6783 26bc
000002e0: 0a99 553d 2d7d 563d 1235 3fbe 46f5 febd
000002f0: 9a6d cfbd 9d3b 3fbc abe3 a4bd d179 8dbd
00000300: b969 e4bd 5536 2fbe 951a 0b3e ad3a 5fbe
00000310: ed62 08be 601f 823d 9a44 d63c 3b59 ccbd
00000320: 64af aabd 917e 05bd 7a96 fe3c 2013 49be
00000330: a3c5 3cbd 03b6 863d dba3 4a3d 56af c53c
00000340: ca7d e8bd 3475 4dbd 8a9d 50bd 8e4d 75be
00000350: 6221 bcbd 15b0 33bd 6167 a93d 2884 df3c
00000360: 78b3 9dbc 9171 0f3e 3e6b f0bd 8f96 4ebd
00000370: c05b 093d 225b 09bd 03e0 1abe 210a a8bc
00000380: c46e 1f3e 530f 38be bd08 653d a0e1 993d
00000390: c10f 59ba 69f8 ec3d dbcb 2cbe 0c0a 8abd
000003a0: caaa e93d c615 1e3d b20b 0e3e f02b 243d
000003b0: 10fb 9dbd be46 1bbe ac3b 57be 6ab3 43be
000003c0: bc03 33be 6912 6bbd 0166 a9bd e66e 5ebe
000003d0: dc99 7fbd 8687 37bd 3b6c b73d 3a18 c6bb
000003e0: 8fa5 05be 7614 4ebd f968 4e3d 49a7 05be
000003f0: 9ecc 4dbd 29a7 983b 9f4a 42be 92a3 973c
