Maize-Runner/results/NewMovement/EscapeMaze/checkpoint.pt (torch, 407399 bytes, 15 tensors)

network_body._body_endoder.seq_layers.0.weight f4 [128, 126]
0.0035030139 -0.09315542 0.07109608 -0.15922269 0.08585204 0.13368426 0.15165128 -0.14420907
0.1317083 0.05534282 -0.10408884 0.012974354 -0.09813623 -0.10710643 -0.16297649 -0.07503774
-0.029965505 0.02656594 -0.02907729 -0.058632478 -0.0072148624 -0.065403536 -0.059460767 -0.021983905
-0.008191651 0.049440216 0.030969666 0.15895216 0.09210714 -0.13013782 -0.11324229 -0.005658098
0.0542422 -0.09017017 -0.01615946 -0.017241413 0.0043665553 -0.08544384 0.15271847 -0.226115
0.06043428 0.1103672 -0.10701411 0.24391249 -0.058789346 -0.10550536 -0.030256655 -0.08158187
-0.02347275 -0.12509628 0.062470194 0.0497662 0.0045932597 0.040023573 0.16700053 0.10026525
0.06348149 0.1209519 -0.06345166 -0.19972701 -0.13573873 0.053320352 -0.05525566 0.024373585
-0.061477866 -0.0969925 0.12583622 -0.14276084 0.09669307 -0.08327375 0.010879344 -0.117197715
-0.21002589 0.05084691 0.017670631 -0.079661235 0.11717627 0.08063819 0.008985475 0.114579044
-0.029591698 0.09309024 0.115623705 -0.18553609 0.19154721 -0.028896939 0.16536093 0.110978745
-0.041479204 -0.0412171 0.06004654 -0.0012959014 -0.0449931 -0.0025436112 -0.010983803 0.037256975
-0.02317487 -0.035403445 0.033990405 0.10133901 -0.12305909 0.05301224 0.05051397 0.046027157
-0.023217665 -0.06734169 0.031314757 0.026149232 0.12220231 0.08442629 -0.006508208 0.033735454
0.15799043 0.10078211 0.06003986 0.12909517 -0.032411423 -0.12795995 -0.03691275 -0.098076105
-0.052600898 -0.20449388 0.12507996 0.042583242 0.071783595 0.11637511 -0.013985932 -0.046628095
0.15120931 -0.068783805 0.09300406 -0.1710089 0.07787773 -0.028193574 -0.16156702 0.017942712
-0.13575186 -0.15849544 0.05840338 -0.0444222 -0.0073744394 -0.046190318 -0.009553723 -0.12850803
-0.05861411 0.017058648 -0.08836485 -0.056689188 0.14712298 -0.0010020885 0.064100035 0.056332782
0.084891416 -0.12924266 0.022683578 -0.16758414 -0.11649015 0.03338921 0.043065477 0.024208987
0.13692938 -0.11996812 -0.10444556 -0.147034 -0.08046723 -0.13946772 0.023458969 0.046522144
0.062273532 -0.08718882 0.060304563 -0.063405804 -0.047404908 0.026322104 0.14581592 -0.040495604
0.026819224 0.19042976 -0.08329201 -0.14523876 -0.096319444 -0.073327065 -0.0055246674 0.035012454
0.1232109 0.08018207 -0.16808641 0.046313256 0.1687069 -0.05124259 -0.1538307 -0.05469783
-0.014804246 -0.029372478 0.04754631 0.007347301 -0.019513099 -0.03795701 0.14865321 -0.18202755
0.08498151 0.021333998 0.055704083 -0.00012809745 0.10970028 -0.1242018 0.029255297 0.062367324
0.1246457 -0.0030681936 -0.04816419 0.06833427 -0.16852026 -0.122272976 -0.013852048 -0.06751642
-0.21734573 -0.044523492 -0.045354463 0.024850715 -0.16962576 0.041820038 -0.009596401 0.016158413
0.10168003 0.087610155 -0.02087096 -0.015490668 -0.04277675 -0.050998054 0.1167496 -0.058737326
0.046087828 0.14803538 -0.05502168 -0.019000703 -0.01267427 -0.025493767 0.030187415 0.07417002
-0.03523977 -0.03392868 0.0959689 -0.010783038 0.10899634 0.054013588 0.062444985 0.0026816088
-0.018102964 -0.0938768 0.05316512 -0.035731245 -0.057772096 -0.008378355 0.20304708 -0.09387486
00000000: d292 653b 45c8 bebd d29a 913d 460b 23be
00000010: 32d3 af3d 87e4 083e 794a 1b3e 8bab 13be
00000020: 8ade 063e 27af 623d 882c d5bd 6392 543c
00000030: a6fb c8bd 9e5a dbbd 4fe3 26be 63ad 99bd
00000040: 387a f5bc d0a0 d93c 7f33 eebc 9c28 70bd
00000050: a76a ecbb 4af2 85bd 228d 73bd 9717 b4bc
00000060: 4636 06bc d381 4a3d 19b4 fd3c 5bc4 223e
00000070: aba2 bc3d d942 05be 93eb e7bd 9167 b9bb
00000080: 122d 5e3d 23ab b8bd d860 84bc dd3d 8dbc
00000090: 5215 8f3b 2efd aebd 3b62 1c3e b18a 67be
000000a0: f089 773d 3308 e23d 372a dbbd 32c4 793e
000000b0: 19cd 70bd 3213 d8bd cedc f7bc 6514 a7bd
000000c0: ed49 c0bc 3d19 00be bfe0 7f3d a5d7 4b3d
000000d0: 0e83 963b c2ef 233d 3002 2b3e de57 cd3d
000000e0: 9502 823d a1b5 f73d f2f2 81bd 3d85 4cbe
000000f0: 18ff 0abe 7166 5a3d c253 62bd 1dab c73c
00000100: 37d0 7bbd 01a4 c6bd 36db 003e e62f 12be
00000110: 0407 c63d 6e8b aabd 473f 323c 5b05 f0bd
00000120: 0711 57be d944 503d 00c2 903c 6e25 a3bd
00000130: 1dfa ef3d a325 a53d d037 133c 6ba8 ea3d
00000140: 4a6a f2bc 19a6 be3d 1fcc ec3d 2cfd 3dbe
00000150: f424 443e 46b9 ecbc 6054 293e d348 e33d
00000160: 19e6 29bd 43d3 28bd 5cf3 753d 3cdb a9ba
00000170: af4a 38bd b7b2 26bb 69f5 33bc c59a 183d
00000180: 3ad9 bdbc 3403 11bd 8639 0b3d d48a cf3d
00000190: 6706 fcbd 5d23 593d bde7 4e3d f986 3c3d
000001a0: f932 bebc 71ea 89bd e743 003d ea36 d63c
000001b0: 3445 fa3d b1e7 ac3d ce42 d5bb 302e 0a3d
000001c0: 3ec8 213e da66 ce3d 5bec 753d 8631 043e
000001d0: d7c1 04bd ef07 03be d331 17bd 20dc c8bd
000001e0: 0a74 57bd d866 51be f614 003e c46b 2e3d
000001f0: 4703 933d 1356 ee3d 4025 65bc 1afd 3ebd
00000200: 9dd6 1a3e 86de 8cbd ea78 be3d f51c 2fbe
00000210: 5c7e 9f3d 36f6 e6bc d371 25be 98fc 923c
00000220: 8902 0bbe a14c 22be 6238 6f3d 0ef4 35bd
00000230: 48a5 f1bb 0f32 3dbd 3887 1cbc 9c97 03be
00000240: 5915 70bd 94be 8b3c a1f8 b4bd ec32 68bd
00000250: 68a7 163e 8358 83ba e146 833d 34bd 663d
00000260: 8ddb ad3d 3058 04be e9d2 b93c 2d9b 2bbe
00000270: 6392 eebd 20c3 083d 6d65 303d ed51 c63c
00000280: 3737 0c3e d8b1 f5bd 8ee7 d5bd 1590 16be
00000290: 01cc a4bd a0d0 0ebe 062d c03c 018e 3e3d
000002a0: 8812 7f3d 0d90 b2bd eb01 773d e7da 81bd
000002b0: a62b 42bd 74a1 d73c c550 153e b8de 25bd
000002c0: fdb3 db3c 0500 433e 0095 aabd 78b9 14be
000002d0: 2143 c5bd 802c 96bd 4508 b5bb 3869 0f3d
000002e0: ff55 fc3d 7f36 a43d d81e 2cbe f8b2 3d3d
000002f0: 80c1 2c3e c0e3 51bd cc85 1dbe d50a 60bd
00000300: 828d 72bc 8d9e f0bc ebbf 423d a1c1 f03b
00000310: efd9 9fbc cf78 1bbd 8c38 183e 6e65 3abe
00000320: c90a ae3d a3c4 ae3c f729 643d e651 06b9
00000330: 8aaa e03d 835d febd cea8 ef3c e174 7f3d
00000340: 3f46 ff3d bf13 49bb d047 45bd d6f2 8b3d
00000350: 9390 2cbe 416a fabd b3f3 62bc 0c46 8abd
00000360: e18f 5ebe 445e 36bd 9ac5 39bd ba93 cb3c
00000370: 60b2 2dbe 7d4b 2b3d 393a 1dbc a65e 843c
00000380: 9f3d d03d f46c b33d 93f9 aabc 92cc 7dbc
00000390: ac36 2fbd 56e3 50bd 6a1a ef3d 8d96 70bd
000003a0: 97c6 3c3d 9696 173e 6a5e 61bd 5da7 9bbc
000003b0: bea7 4fbc 4ed8 d0bc 994b f73c 74e6 973d
000003c0: 9457 10bd cdf8 0abd 588b c43d 57ab 30bc
000003d0: 7939 df3d 5a3d 5d3d 50c6 7f3d eebd 2f3b
000003e0: ab4c 94bc 7b42 c0bd abc3 593d ed5a 12bd
000003f0: 6fa2 6cbd 5e45 09bc 93eb 4f3e 7641 c0bd

network_body._body_endoder.seq_layers.0.bias f4 [128]
0.0 0.0 0.0 0.0 0.0 0.0 0.0 0.0
0.0 0.0 0.0 0.0 0.0 0.0 0.0 0.0
0.0 0.0 0.0 0.0 0.0 0.0 0.0 0.0
0.0 0.0 0.0 0.0 0.0 0.0 0.0 0.0
0.0 0.0 0.0 0.0 0.0 0.0 0.0 0.0
0.0 0.0 0.0 0.0 0.0 0.0 0.0 0.0
0.0 0.0 0.0 0.0 0.0 0.0 0.0 0.0
0.0 0.0 0.0 0.0 0.0 0.0 0.0 0.0
0.0 0.0 0.0 0.0 0.0 0.0 0.0 0.0
0.0 0.0 0.0 0.0 0.0 0.0 0.0 0.0
0.0 0.0 0.0 0.0 0.0 0.0 0.0 0.0
0.0 0.0 0.0 0.0 0.0 0.0 0.0 0.0
0.0 0.0 0.0 0.0 0.0 0.0 0.0 0.0
0.0 0.0 0.0 0.0 0.0 0.0 0.0 0.0
0.0 0.0 0.0 0.0 0.0 0.0 0.0 0.0
0.0 0.0 0.0 0.0 0.0 0.0 0.0 0.0
00000000: 0000 0000 0000 0000 0000 0000 0000 0000
00000010: 0000 0000 0000 0000 0000 0000 0000 0000
00000020: 0000 0000 0000 0000 0000 0000 0000 0000
00000030: 0000 0000 0000 0000 0000 0000 0000 0000
00000040: 0000 0000 0000 0000 0000 0000 0000 0000
00000050: 0000 0000 0000 0000 0000 0000 0000 0000
00000060: 0000 0000 0000 0000 0000 0000 0000 0000
00000070: 0000 0000 0000 0000 0000 0000 0000 0000
00000080: 0000 0000 0000 0000 0000 0000 0000 0000
00000090: 0000 0000 0000 0000 0000 0000 0000 0000
000000a0: 0000 0000 0000 0000 0000 0000 0000 0000
000000b0: 0000 0000 0000 0000 0000 0000 0000 0000
000000c0: 0000 0000 0000 0000 0000 0000 0000 0000
000000d0: 0000 0000 0000 0000 0000 0000 0000 0000
000000e0: 0000 0000 0000 0000 0000 0000 0000 0000
000000f0: 0000 0000 0000 0000 0000 0000 0000 0000
00000100: 0000 0000 0000 0000 0000 0000 0000 0000
00000110: 0000 0000 0000 0000 0000 0000 0000 0000
00000120: 0000 0000 0000 0000 0000 0000 0000 0000
00000130: 0000 0000 0000 0000 0000 0000 0000 0000
00000140: 0000 0000 0000 0000 0000 0000 0000 0000
00000150: 0000 0000 0000 0000 0000 0000 0000 0000
00000160: 0000 0000 0000 0000 0000 0000 0000 0000
00000170: 0000 0000 0000 0000 0000 0000 0000 0000
00000180: 0000 0000 0000 0000 0000 0000 0000 0000
00000190: 0000 0000 0000 0000 0000 0000 0000 0000
000001a0: 0000 0000 0000 0000 0000 0000 0000 0000
000001b0: 0000 0000 0000 0000 0000 0000 0000 0000
000001c0: 0000 0000 0000 0000 0000 0000 0000 0000
000001d0: 0000 0000 0000 0000 0000 0000 0000 0000
000001e0: 0000 0000 0000 0000 0000 0000 0000 0000
000001f0: 0000 0000 0000 0000 0000 0000 0000 0000

network_body._body_endoder.seq_layers.2.weight f4 [128, 128]
-0.07664954 0.1382324 0.0976288 -0.048623223 -0.09690502 -0.07198596 -0.02329766 -0.011926497
-0.026915371 -0.08713743 -0.012757765 0.008352889 0.114801414 -0.1284753 0.0550285 0.060676597
0.04212946 0.042251732 0.12686601 0.089876086 -0.06141109 -0.09382142 0.24503349 0.002659965
-0.085455365 -0.03560378 0.015394926 0.08322687 0.031023357 0.08946452 0.011863073 0.07034332
-0.03521858 -0.15537353 -0.01891832 -0.057359163 -0.055195734 0.06552043 0.043318145 0.048774946
0.026361236 0.033332452 0.023720011 -0.023902528 -0.1144078 0.072480306 0.12173725 -0.08345232
-0.041035075 0.037132464 -0.044294205 0.015705664 -0.044786822 0.050861984 0.02720922 -0.23828548
0.16169144 0.023009608 -0.08078478 -0.02156292 0.06287381 0.036192916 0.02166074 -0.03678187
0.014071088 -0.11913945 -0.10344012 -0.090032555 -0.03784373 0.044005577 -0.10908346 -0.086075656
0.066055454 -0.16237198 -0.124865115 -0.044587802 0.04897816 0.022321966 -0.10388378 0.051798232
0.0546989 0.007128963 0.10442163 -0.15316604 0.0071617533 0.034358475 0.09961415 -0.10303502
0.055183817 0.033070125 0.17089264 -0.09709343 -0.05970831 -0.030647963 0.13895807 0.101564355
-0.045434527 -0.0464949 -0.104117274 -0.021571392 0.004890145 -0.025575195 -0.074785195 -0.058441672
0.1096941 -0.15565374 -0.066887565 0.021621712 -0.005232355 -0.0530397 -0.012485173 -0.19179793
-0.19293487 -0.014928443 -0.00033243178 -0.045151222 0.04373661 -0.017417273 -0.14488669 0.035198823
-0.09594825 -0.0664052 0.13660432 -0.07204748 0.11912447 -0.15210226 0.0001082908 0.12906073
0.070841305 -0.10807639 -0.027391968 -0.025869321 0.025032857 -0.12630232 0.030830882 0.010595898
-0.006384162 0.09906291 0.1204468 0.038397618 0.0013616025 0.0053001945 0.07212269 0.032910295
-0.17635441 0.05482144 -0.25470516 0.022303777 -0.1371519 0.09144797 -0.21144378 0.0022048473
-0.008457895 0.11047743 0.01797806 -0.108343385 0.036167853 -0.011027037 0.15985636 -0.041861605
0.011315696 -0.08283575 0.038195245 -0.07933484 -0.042598274 -0.026278595 0.18903384 0.072997764
-0.06692344 -0.041546147 -0.16896506 0.008154827 -0.15045404 -0.050764702 -0.18381317 0.0050319773
-0.12593895 -0.02833142 -0.0020799383 0.022597369 0.11713213 -0.024076998 0.027026942 0.047603495
-0.039705243 0.037080817 0.092232846 0.066984326 -0.0620536 -0.10224884 -0.119309336 -0.06074249
0.05758139 0.02006383 -0.09654079 -0.07696685 0.016137708 0.010017414 -0.28669629 0.05242965
0.115685135 -0.04847488 0.07180207 0.023456072 0.00989608 -0.06991011 -0.014720977 0.04577263
0.007252347 0.032877788 -0.13664706 0.085892476 0.11245377 0.119375944 -0.046252258 0.030610418
0.12574801 0.0093192775 0.038635854 -0.049039032 -0.12541685 0.05296716 0.055345792 0.114239715
-0.06645411 0.094589256 -0.06561985 -0.03359244 0.073085606 -0.043011323 0.0458179 -0.07091879
-0.00808835 -0.07760085 0.027247708 -0.0683411 0.082174756 -0.05971981 -0.022213275 -0.09076791
0.121407986 0.0038986907 0.06194977 -0.012388086 -0.09995642 -0.067741014 -0.052254315 -0.063205644
0.14080372 0.005772962 -0.06639102 -0.07353208 -0.1541803 0.0359934 0.025870288 0.09041834
00000000: 6ffa 9cbd cb8c 0d3e 9cf1 c73d 2529 47bd
00000010: 2476 c6bd 606d 93bd bcda bebc 5b67 43bc
00000020: a07d dcbc 1c75 b2bd f205 51bc 8eda 083c
00000030: 011d eb3d 078f 03be 9065 613d 0688 783d
00000040: f18f 2c3d 2710 2d3d 2ae9 013e f410 b83d
00000050: 328a 7bbd 7225 c0bd 0fea 7a3e cf52 2e3b
00000060: 3903 afbd 45d5 11bd 003b 7c3c d972 aa3d
00000070: b224 fe3c 2d39 b73d 565d 423c 2910 903d
00000080: 5c41 10bd 3d1a 1fbe 98fa 9abc 71f1 6abd
00000090: ec14 62bd 932f 863d 5e6e 313d 3dc8 473d
000000a0: 85f3 d73c 9c87 083d 7850 c23c 3ccf c3bc
000000b0: a34e eabd 8e70 943d 6151 f93d 0de9 aabd
000000c0: 6514 28bd 3618 183d d76d 35bd 2aa9 803c
000000d0: 6372 37bd a854 503d dfe5 de3c 1c01 74be
000000e0: 7192 253e a57e bc3c 7e72 a5bd b9a4 b0bc
000000f0: fcc3 803d 063f 143d dd71 b13c 96a8 16bd
00000100: 6c8a 663c 62ff f3bd 6ad8 d3bd fd62 b8bd
00000110: 0702 1bbd 313f 343d 2667 dfbd 6f48 b0bd
00000120: 1548 873d d744 26be 48b9 ffbd b3a1 36bd
00000130: 539d 483d 8edc b63c 05c1 d4bd 622a 543d
00000140: f40b 603d 139a e93b 02db d53d 8fd7 1cbe
00000150: 24ad ea3b 79bb 0c3d 8102 cc3d 0604 d3bd
00000160: 6d08 623d 8a74 073d 7bfe 2e3e ecd8 c6bd
00000170: b390 74bd 7011 fbbc 064b 0e3e f900 d03d
00000180: 8e19 3abd 7071 3ebd 703b d5bd 7db6 b0bc
00000190: 823d a03b 1283 d1bc fb28 99bd 8960 6fbd
000001a0: 4da7 e03d b263 1fbe 59fc 88bd 0420 b13c
000001b0: 2d74 abbb 2840 59bd 9c8e 4cbc ad66 44be
000001c0: b890 45be 6e96 74bc 3d4a aeb9 7df0 38bd
000001d0: 2925 333d abae 8ebc 2d5d 14be a42c 103d
000001e0: 8480 c4bd 73ff 87bd 01e2 0b3e a18d 93bd
000001f0: 88f7 f33d b2c0 1bbe 2e1a e338 7f28 043e
00000200: 3f15 913d 2857 ddbd 1f65 e0bc e6eb d3bc
00000210: b511 cd3c 6555 01be 0c91 fc3c 6b9a 2d3c
00000220: 3c32 d1bb 7fe1 ca3d d0ac f63d d246 1d3d
00000230: cc77 b23a 41ad ad3b 10b5 933d f2cc 063d
00000240: 4096 34be 728c 603d b768 82be 69b6 b63c
00000250: 8c71 0cbe 1349 bb3d b884 58be 337f 103b
00000260: fc92 0abc fe41 e23d b946 933c 23e3 ddbd
00000270: be24 143d bfaa 34bc 63b1 233e 1377 2bbd
00000280: 7865 393c caa5 a9bd 9e72 1c3d 4e7a a2bd
00000290: 877b 2ebd 3546 d7bc 1692 413e da7f 953d
000002a0: 280f 89bd 4b2c 2abd 2d05 2dbe d39b 053c
000002b0: a010 1abe a6ee 4fbd 8539 3cbe 49e3 a43b
000002c0: 24f6 00be 4b17 e8bc 934f 08bb 1e1e b93c
000002d0: f8e2 ef3d 203d c5bc 9b67 dd3c e2fb 423d
000002e0: f7a1 22bd 0ee2 173d 93e4 bc3d 142f 893d
000002f0: ea2b 7ebd d767 d1bd 7458 f4bd 1ecd 78bd
00000300: 77da 6b3d e75c a43c 2db7 c5bd cca0 9dbd
00000310: 3a33 843c 1420 243c dbc9 92be 79c0 563d
00000320: 54ec ec3d 998d 46bd f70c 933d f326 c03c
00000330: 2b23 223c 082d 8fbd 4130 71bc 157c 3b3d
00000340: 19a5 ed3b dcaa 063d 35ed 0bbe 65e8 af3d
00000350: 2a4e e63d 607b f43d 0273 3dbd b3c2 fa3c
00000360: 16c4 003e e2af 183c a140 1e3d 27dd 48bd
00000370: 466d 00be 18f4 583d 45b2 623d 83f6 e93d
00000380: 1819 88bd 03b8 c13d b363 86bd 3a98 09bd
00000390: e8ad 953d a42c 30bd 8dab 3b3d df3d 91bd
000003a0: 0085 04bc 32ed 9ebd 9636 df3c 6bf6 8bbd
000003b0: 3d4b a83d c29c 74bd 9df8 b5bc 87e4 b9bd
000003c0: c0a4 f83d 2d81 7f3b 0bbf 7d3d 66f7 4abc
000003d0: f4b5 ccbd cdbb 8abd 9f08 56bd f671 81bd
000003e0: da2e 103e 1d2b bd3b 04f8 87bd fd97 96bd
000003f0: 71e1 1dbe d16d 133d eded d33c 402d b93d

network_body._body_endoder.seq_layers.2.bias f4 [128]
0.0 0.0 0.0 0.0 0.0 0.0 0.0 0.0
0.0 0.0 0.0 0.0 0.0 0.0 0.0 0.0
0.0 0.0 0.0 0.0 0.0 0.0 0.0 0.0
0.0 0.0 0.0 0.0 0.0 0.0 0.0 0.0
0.0 0.0 0.0 0.0 0.0 0.0 0.0 0.0
0.0 0.0 0.0 0.0 0.0 0.0 0.0 0.0
0.0 0.0 0.0 0.0 0.0 0.0 0.0 0.0
0.0 0.0 0.0 0.0 0.0 0.0 0.0 0.0
0.0 0.0 0.0 0.0 0.0 0.0 0.0 0.0
0.0 0.0 0.0 0.0 0.0 0.0 0.0 0.0
0.0 0.0 0.0 0.0 0.0 0.0 0.0 0.0
0.0 0.0 0.0 0.0 0.0 0.0 0.0 0.0
0.0 0.0 0.0 0.0 0.0 0.0 0.0 0.0
0.0 0.0 0.0 0.0 0.0 0.0 0.0 0.0
0.0 0.0 0.0 0.0 0.0 0.0 0.0 0.0
0.0 0.0 0.0 0.0 0.0 0.0 0.0 0.0
00000000: 0000 0000 0000 0000 0000 0000 0000 0000
00000010: 0000 0000 0000 0000 0000 0000 0000 0000
00000020: 0000 0000 0000 0000 0000 0000 0000 0000
00000030: 0000 0000 0000 0000 0000 0000 0000 0000
00000040: 0000 0000 0000 0000 0000 0000 0000 0000
00000050: 0000 0000 0000 0000 0000 0000 0000 0000
00000060: 0000 0000 0000 0000 0000 0000 0000 0000
00000070: 0000 0000 0000 0000 0000 0000 0000 0000
00000080: 0000 0000 0000 0000 0000 0000 0000 0000
00000090: 0000 0000 0000 0000 0000 0000 0000 0000
000000a0: 0000 0000 0000 0000 0000 0000 0000 0000
000000b0: 0000 0000 0000 0000 0000 0000 0000 0000
000000c0: 0000 0000 0000 0000 0000 0000 0000 0000
000000d0: 0000 0000 0000 0000 0000 0000 0000 0000
000000e0: 0000 0000 0000 0000 0000 0000 0000 0000
000000f0: 0000 0000 0000 0000 0000 0000 0000 0000
00000100: 0000 0000 0000 0000 0000 0000 0000 0000
00000110: 0000 0000 0000 0000 0000 0000 0000 0000
00000120: 0000 0000 0000 0000 0000 0000 0000 0000
00000130: 0000 0000 0000 0000 0000 0000 0000 0000
00000140: 0000 0000 0000 0000 0000 0000 0000 0000
00000150: 0000 0000 0000 0000 0000 0000 0000 0000
00000160: 0000 0000 0000 0000 0000 0000 0000 0000
00000170: 0000 0000 0000 0000 0000 0000 0000 0000
00000180: 0000 0000 0000 0000 0000 0000 0000 0000
00000190: 0000 0000 0000 0000 0000 0000 0000 0000
000001a0: 0000 0000 0000 0000 0000 0000 0000 0000
000001b0: 0000 0000 0000 0000 0000 0000 0000 0000
000001c0: 0000 0000 0000 0000 0000 0000 0000 0000
000001d0: 0000 0000 0000 0000 0000 0000 0000 0000
000001e0: 0000 0000 0000 0000 0000 0000 0000 0000
000001f0: 0000 0000 0000 0000 0000 0000 0000 0000

network_body._body_endoder.seq_layers.4.weight f4 [128, 128]
0.058781378 0.059868496 -0.03584603 -0.11447102 -0.03161549 0.011990393 0.0055286614 -0.02625796
-0.063819475 0.2286847 0.028189538 0.18427004 -0.0055780676 -0.09749086 -0.014451841 -0.07877078
0.12956445 0.12011578 0.06597288 -0.04495314 -0.009265885 0.009147315 0.029770413 0.20072462
0.064082 0.017683871 0.058083236 0.029822811 0.016814295 0.06569036 -0.069336414 0.10952345
0.07546387 -0.001906364 -0.03773228 0.016862048 0.04745055 -0.1030444 -0.1303841 -0.13720901
-0.020963345 0.14876314 0.014342172 -0.077935226 0.0771836 0.13007724 -0.0959699 -0.10492157
0.016343832 0.033348273 0.24272275 0.10773581 -0.018156357 0.06459509 -0.0025252318 -0.04066506
-0.092806 0.13013653 0.032295927 0.03822806 -0.015455347 0.055724032 -0.014049059 -0.013240284
0.19686052 0.17914787 0.0772462 0.039037876 0.18889661 0.052012134 -0.0063715307 0.16995558
-0.10733468 -0.012698545 -0.1014813 0.049671344 -0.05030775 0.03141908 0.055573016 0.15168592
-0.063486904 0.060544122 -0.1120563 -0.027977845 0.089281246 -0.0004161648 0.039289497 0.019026091
-0.015812641 0.0984691 0.024815748 -0.021774648 0.1910076 0.048322663 -0.1746897 -0.05129551
0.10185335 0.10247566 0.046664726 -0.12695666 -0.12801799 0.009552023 0.103267744 -0.045529664
0.06644197 -0.0999859 -0.055955824 -0.13326985 0.020983933 -0.05924429 0.09188631 0.07126402
-0.018495098 -0.052095734 -0.06285065 -0.09346051 0.120922975 0.016029404 0.003004333 -0.08744064
-0.035838798 0.080677986 -0.07017649 -0.01314321 0.12340963 -0.048493084 -0.07221236 0.02358408
0.0088736685 -0.06873172 0.086452276 0.0983921 0.066482805 0.01242718 -0.07360596 -0.06301135
-0.01345316 0.13462734 0.023258287 0.036227085 0.03205418 -0.19390637 -0.19696309 -0.017499432
0.091562755 -0.021818388 0.058817685 -0.05898129 -0.019804623 -0.03881518 -0.014286699 0.103736036
0.14092596 0.019349435 0.0046849516 0.0903508 0.034015134 -0.0801307 -0.006178344 -0.023762913
-0.14112341 0.10196826 -0.08235387 -0.015083595 -0.022310251 0.047931954 0.031786695 0.014765617
-0.030005192 0.07291497 -0.008472696 -0.08654271 0.110286154 0.17876746 0.01423604 0.1431857
0.101556346 -0.015480533 -0.09596995 0.050594445 0.088616475 -0.17648521 -0.0048786723 0.04925504
0.016034454 0.13036439 -0.10171383 0.032419596 0.00030172968 -0.093799666 -0.050981686 0.12638673
0.02488595 0.12991413 0.071019 -0.048112545 0.0060520587 -0.052408047 -0.09311882 0.07162054
0.042814646 -0.08566195 0.049612354 0.048196513 0.027624363 0.10377632 -0.05965582 0.1146879
-0.0109177185 0.024420468 -0.03205989 -0.0843598 0.022321364 0.03886618 -0.05666484 0.06577182
0.0887675 0.06981149 0.1595324 -0.059580956 0.18135837 0.048788104 -0.17360853 0.06860027
0.05571319 0.015187966 0.013700858 -0.11202204 0.033920933 0.018417181 -0.02768678 -0.13787736
0.13887534 0.11565235 0.035921685 -0.05312199 -0.12296422 0.07357325 -0.06861293 0.0014510201
0.030370748 -0.23689744 0.060824666 -0.12141497 -0.08164583 0.13014366 -0.17145391 0.044668756
0.02742273 0.1477892 -0.066530414 0.08991174 0.03988881 0.03807419 0.14366814 -0.09935616
00000000: bec4 703d ab38 753d 49d3 12bd c86f eabd
00000010: 3e7f 01bd 5a73 443c c629 b53b ef1a d7bc
00000020: c9b3 82bd 522c 6a3e bfed e63c 49b1 3c3e
00000030: 39c8 b6bb 4aa9 c7bd 6ac7 6cbc 9352 a1bd
00000040: 8bac 043e 43ff f53d ca1c 873d c920 38bd
00000050: f0cf 17bc 9fde 153c 15e1 f33c c18a 4d3e
00000060: 6c3d 833d c4dd 903c b0e8 6d3d f84e f43c
00000070: 22be 893c ab88 863d 4000 8ebd d54d e03d
00000080: cd8c 9a3d f6de f9ba 2a8d 1abd 4722 8a3c
00000090: 825b 423d f108 d3bd 6983 05be 8580 0cbe
000000a0: 52bb abbc 5d55 183e 6efb 6a3c 819c 9fbd
000000b0: 6f12 9e3d f832 053e de8b c4bd 1fe1 d6bd
000000c0: 80e3 853c 3398 083d 508c 783e 98a4 dc3d
000000d0: a4bc 94bc 6e4a 843d 5c7e 25bb 6890 26bd
000000e0: 1211 bebd 8342 053e bc48 043d 0795 1c3d
000000f0: 6c38 7dbc e23e 643d 062e 66bc c7ed 58bc
00000100: ce95 493e 8a72 373e 4133 9e3d 2ee6 1f3d
00000110: 1d6e 413e ad0a 553d 46c8 d0bb d608 2e3e
00000120: 49d2 dbbd 8f0d 50bc 6ed5 cfbd 2e74 4b3d
00000130: 800f 4ebd 4bb1 003d 88a0 633d 8e53 1b3e
00000140: 6c05 82bd 1dfd 773d c67d e5bd cb31 e5bc
00000150: 16d9 b63d b230 dab9 06ee 203d 9bdc 9b3c
00000160: 8389 81bc 2baa c93d 654a cb3c bf60 b2bc
00000170: 7f97 433e fced 453d dbe1 32be 3e1b 52bd
00000180: 7d98 d03d c2de d13d 8323 3f3d ed00 02be
00000190: 2617 03be 1780 1c3c 0a7e d33d 507d 3abd
000001a0: ba12 883d 68c5 ccbd ef31 65bd e477 08be
000001b0: 7fe6 ab3c 24aa 72bd e42e bc3d dff2 913d
000001c0: 0883 97bc 5662 55bd d7b7 80bd 3968 bfbd
000001d0: 77a6 f73d 1950 833c 58e4 443b 1414 b3bd
000001e0: b4cb 12bd 803a a53d b1b8 8fbd 9e56 57bc
000001f0: 30be fc3d afa0 46bd 13e4 93bd 6733 c13c
00000200: dd62 113c 37c3 8cbd e40d b13d cc81 c93d
00000210: 2328 883d 5f9b 4b3c b9be 96bd 180c 81bd
00000220: a56a 5cbc c0db 093e 2a88 be3c da62 143d
00000230: 3e4b 033d 648f 46be b1b0 49be f85a 8fbc
00000240: 4185 bb3d 7abc b2bc d0ea 703d 5d96 71bd
00000250: 4e3d a2bc abfc 1ebd c212 6abc 8f73 d43d
00000260: e54e 103e b582 9e3c 3984 993b d709 b93d
00000270: 7453 0b3d 901b a4bd b573 cabb 71aa c2bc
00000280: a882 10be bcd4 d03d 25a9 a8bd 2f21 77bc
00000290: fdc3 b6bc 4c54 443d c432 023d 7deb 713c
000002a0: 73cd f5bc 7254 953d 10d1 0abc 4e3d b1bd
000002b0: b5dd e13d d10e 373e 483e 693c 469f 123e
000002c0: c6fc cf3d 10a2 7dbc e58b c4bd 1f3c 4f3d
000002d0: 8e7c b53d 8ab8 34be 45dd 9fbb a7bf 493d
000002e0: b05a 833c 3e7e 053e 574f d0bd 69ca 043d
000002f0: 7931 9e39 0a1a c0bd 2cd2 50bd 866b 013e
00000300: 9fdd cb3c 3608 053e 6972 913d a911 45bd
00000310: 5950 c63b d2a9 56bd 14b5 bebd caad 923d
00000320: 695e 2f3d 886f afbd 5336 4b3d b569 453d
00000330: 7d4c e23c ae88 d43d a959 74bd 7de1 ea3d
00000340: 3be0 32bc 6f0d c83c 3b51 03bd d5c4 acbd
00000350: 4bdb b63c 2532 1f3d 6419 68bd 60b3 863d
00000360: bccb b53d 54f9 8e3d 765c 233e 290b 74bd
00000370: 02b6 393e 09d6 473d 6fc6 31be 4c7e 8c3d
00000380: 8433 643d f2d6 783c 9079 603c d06b e5bd
00000390: adf0 0a3d a1df 963c 63cf e2bc b92f 0dbe
000003a0: 5635 0e3e 24db ec3d 9e22 133d 7296 59bd
000003b0: aad4 fbbd 92ad 963d f084 8cbd 2830 be3a
000003c0: 13cc f83c 3e95 72be 4923 793d 69a8 f8bd
000003d0: ee35 a7bd 6144 053e 9d91 2fbe 96f6 363d
000003e0: a2a5 e03c 0d56 173e 1941 88bd a523 b83d
000003f0: 7362 233d aff3 1b3d be1d 133e 3e7b cbbd

network_body._body_endoder.seq_layers.4.bias f4 [128]
0.0 0.0 0.0 0.0 0.0 0.0 0.0 0.0
0.0 0.0 0.0 0.0 0.0 0.0 0.0 0.0
0.0 0.0 0.0 0.0 0.0 0.0 0.0 0.0
0.0 0.0 0.0 0.0 0.0 0.0 0.0 0.0
0.0 0.0 0.0 0.0 0.0 0.0 0.0 0.0
0.0 0.0 0.0 0.0 0.0 0.0 0.0 0.0
0.0 0.0 0.0 0.0 0.0 0.0 0.0 0.0
0.0 0.0 0.0 0.0 0.0 0.0 0.0 0.0
0.0 0.0 0.0 0.0 0.0 0.0 0.0 0.0
0.0 0.0 0.0 0.0 0.0 0.0 0.0 0.0
0.0 0.0 0.0 0.0 0.0 0.0 0.0 0.0
0.0 0.0 0.0 0.0 0.0 0.0 0.0 0.0
0.0 0.0 0.0 0.0 0.0 0.0 0.0 0.0
0.0 0.0 0.0 0.0 0.0 0.0 0.0 0.0
0.0 0.0 0.0 0.0 0.0 0.0 0.0 0.0
0.0 0.0 0.0 0.0 0.0 0.0 0.0 0.0
00000000: 0000 0000 0000 0000 0000 0000 0000 0000
00000010: 0000 0000 0000 0000 0000 0000 0000 0000
00000020: 0000 0000 0000 0000 0000 0000 0000 0000
00000030: 0000 0000 0000 0000 0000 0000 0000 0000
00000040: 0000 0000 0000 0000 0000 0000 0000 0000
00000050: 0000 0000 0000 0000 0000 0000 0000 0000
00000060: 0000 0000 0000 0000 0000 0000 0000 0000
00000070: 0000 0000 0000 0000 0000 0000 0000 0000
00000080: 0000 0000 0000 0000 0000 0000 0000 0000
00000090: 0000 0000 0000 0000 0000 0000 0000 0000
000000a0: 0000 0000 0000 0000 0000 0000 0000 0000
000000b0: 0000 0000 0000 0000 0000 0000 0000 0000
000000c0: 0000 0000 0000 0000 0000 0000 0000 0000
000000d0: 0000 0000 0000 0000 0000 0000 0000 0000
000000e0: 0000 0000 0000 0000 0000 0000 0000 0000
000000f0: 0000 0000 0000 0000 0000 0000 0000 0000
00000100: 0000 0000 0000 0000 0000 0000 0000 0000
00000110: 0000 0000 0000 0000 0000 0000 0000 0000
00000120: 0000 0000 0000 0000 0000 0000 0000 0000
00000130: 0000 0000 0000 0000 0000 0000 0000 0000
00000140: 0000 0000 0000 0000 0000 0000 0000 0000
00000150: 0000 0000 0000 0000 0000 0000 0000 0000
00000160: 0000 0000 0000 0000 0000 0000 0000 0000
00000170: 0000 0000 0000 0000 0000 0000 0000 0000
00000180: 0000 0000 0000 0000 0000 0000 0000 0000
00000190: 0000 0000 0000 0000 0000 0000 0000 0000
000001a0: 0000 0000 0000 0000 0000 0000 0000 0000
000001b0: 0000 0000 0000 0000 0000 0000 0000 0000
000001c0: 0000 0000 0000 0000 0000 0000 0000 0000
000001d0: 0000 0000 0000 0000 0000 0000 0000 0000
000001e0: 0000 0000 0000 0000 0000 0000 0000 0000
000001f0: 0000 0000 0000 0000 0000 0000 0000 0000

action_model._discrete_distribution.branches.0.weight f4 [4, 128]
0.00039054235 0.020545922 0.006851715 0.008627684 -0.0013621694 0.0072564827 -0.011948992 0.008895776
-0.010824188 -0.017390138 -0.0021597184 0.017603196 -0.0013848875 -0.0038533644 -0.004045596 -0.0023104388
0.002394242 0.0073419036 -0.009426239 0.018672315 -0.020666774 0.014817193 0.004914263 -0.0053576184
-0.010945907 0.005142979 -0.0010548611 0.015563779 0.004809449 0.021574115 -0.0041096974 0.00483271
0.009571267 -0.0063856132 -0.008108567 -0.005680462 0.001793377 0.0012489419 -0.006062084 0.0020936492
0.0050671035 0.010083124 -0.011536158 0.016585879 0.004602435 0.014122652 0.0026861557 -0.0054125413
-0.00538134 -0.0043913336 0.00798097 -0.015318418 -0.006196532 -0.003940409 0.0036336363 -0.0058804317
0.014083489 -0.012876905 -0.00308962 -0.009707387 0.009954668 -0.0035732598 -0.0045868126 -0.00059600355
-0.0038260028 0.011245917 0.0038261097 0.0044392007 -0.009827193 -0.0012168038 -0.012151049 -0.00035576316
0.009410391 -0.019923192 0.009985133 0.008036509 0.0026564046 0.0068319472 -0.020642031 -0.00084155536
-0.008656672 -0.009424245 0.0050935773 -0.0068587735 -0.004289993 0.016937459 -0.0031143215 0.002505382
0.0066962764 0.0044887788 0.0030691458 -0.0029510173 0.007872624 -0.0077353544 -0.006741377 -0.007706504
0.013165394 0.003954861 -0.0024601084 0.0008792332 0.001654605 -0.0070119486 -0.001161585 -0.006073384
0.0034249106 -0.011168055 0.0017514101 -0.003311523 -0.008428696 0.0029995786 -0.0043790406 0.003765827
0.012676114 0.013308185 0.0013320291 -0.004282153 -0.00897509 -0.017361354 0.0022357374 -0.019894244
0.0007578438 0.009499735 0.013032175 0.017182125 0.007913815 0.004132768 -0.00784534 0.0019221514
-0.0023350823 0.002032969 0.0062306016 0.0069049313 -0.0015772133 0.0001359372 0.012796916 -0.0046161427
0.008099031 -0.00043896082 -0.0012564858 0.006224278 0.014858057 -0.009255202 0.0026220558 -0.006340198
0.006611239 0.007496934 -0.019007044 -0.014228569 -0.011283785 0.008585474 -0.017783068 0.0018920454
0.00076911674 -0.002492646 -0.0003110085 -0.01853109 0.011334336 0.0002700371 -0.012613937 -0.0015414442
0.017477488 -0.008472229 -0.015718523 -0.009377629 0.0015373122 -0.034900706 0.014100048 0.00581018
-0.011657721 0.005025088 0.004719212 -0.005232425 0.0027571297 0.0012856969 -0.007390675 0.0039251647
0.010516458 0.014197461 -0.0064630397 0.0020003289 -0.0017101414 0.005030284 0.001390587 -0.002112924
-0.02904593 0.012713037 0.011841447 -0.006989362 0.008225967 0.003283046 0.014819778 0.0083272355
-0.002903437 -0.0022028245 -0.0018003425 -0.010762597 0.012605234 0.008050175 0.0058438 -0.008112027
-0.009585209 0.0042106286 -0.014429785 -0.004705987 0.009988776 0.010119497 -0.0019445453 -0.00029988433
-0.0032176964 -0.0013823513 0.0023863034 -0.010233649 0.006346029 -0.00384272 0.004400211 -0.0020224105
-0.000111748865 0.0014833692 0.0054481793 -0.004411119 0.006168065 -0.013629724 0.0054869126 0.019266183
0.009617898 0.003262611 -0.0020191718 -0.0049220202 0.00068473053 -0.005286952 -0.0021301382 -0.0066969204
0.0034183506 -0.0071966513 0.010949927 -0.005516923 -0.008932835 0.00548455 0.009768303 0.0025120415
-0.001805014 0.005191059 0.004605689 0.014878184 0.00057398254 0.011831581 0.022063931 0.004897741
0.0011040451 -0.00031121873 0.0005012522 0.010798732 0.0070054503 -0.004135053 -0.0014288544 -0.003028319
00000000: b5c1 cc39 ec4f a83c 5a84 e03b 215b 0d3c
00000010: d28a b2ba cac7 ed3b b4c5 43bc 97bf 113c
00000020: ef57 31bc c375 8ebc 108a 0dbb 9434 903c
00000030: 1d85 b5ba ba88 7cbb eb90 84bb bb6a 17bb
00000040: b7e8 1c3b 5a94 f03b 8370 1abc aff6 983c
00000050: 5e4d a9bc d0c3 723c d307 a13b f68e afbb
00000060: 7656 33bc 6f86 a83b 4443 8aba 38ff 7e3c
00000070: 9598 9d3b 33bc b03c a4aa 86bb b65b 9e3b
00000080: ced0 1c3c 683e d1bb ccd9 04bc 2b23 babb
00000090: bf0f eb3a 89b3 a33a 72a4 c6bb 9b35 093b
000000a0: f209 a63b b033 253c 2702 3dbc 1cdf 873c
000000b0: 06d0 963b b262 673c 370a 303b b05b b1bb
000000c0: f455 b0bb 2de5 8fbb 9dc2 023c 1afa 7abc
000000d0: 470c cbbb 8c1e 81bb 4d22 6e3b a3b0 c0bb
000000e0: 6fbe 663c a7f9 52bc 397b 4abb bb0b 1fbc
000000f0: e718 233c 5a2d 6abb f94c 96bb 1f3d 1cba
00000100: adbd 7abb cb40 383c 78bf 7a3b b776 913b
00000110: 3c02 21bc 297d 9fba 3215 47bc b985 bab9
00000120: 0a2e 1a3c f635 a3bc af98 233c 90ab 033c
00000130: 1317 2e3b 87de df3b 7a19 a9bc d39b 5cba
00000140: b7d4 0dbc 2668 1abc 06e8 a63b 90bf e0bb
00000150: 1293 8cbb 6dc0 8a3c a519 4cbb 5631 243b
00000160: 706c db3b 9b16 933b b923 493b db65 41bb
00000170: 2efc 003c db78 fdbb c5e6 dcbb d786 fcbb
00000180: aab3 573c c797 813b c539 21bb 577c 663a
00000190: 55df d83a 7dc4 e5bb 5340 98ba 3d03 c7bb
000001a0: 7774 603b 38fa 36bc 928f e53a 2306 59bb
000001b0: 8318 0abc 9494 443b 0e7e 8fbb 18cc 763b
000001c0: 7aaf 4f3c 930a 5a3c 7b97 ae3a 4e51 8cbb
000001d0: 420c 13bc 6639 8ebc 7385 123b 41f9 a2bc
000001e0: 09aa 463a c7a4 1b3c e784 553c 87c1 8c3c
000001f0: f2a8 013c 2c6c 873b be89 00bc b3f0 fb3a
00000200: 2e08 19bb 8f3b 053b 132a cc3b c342 e23b
00000210: 7fba ceba 5d8a 0e39 28aa 513c 0343 97bb
00000220: ccb1 043c 5324 e6b9 abb0 a4ba 07f5 cb3b
00000230: 356f 733c 21a3 17bc ccd6 2b3b 70c1 cfbb
00000240: 18a3 d83b d7a8 f53b a9b4 9bbc f21e 69bc
00000250: a0df 38bc 17aa 0c3c ccad 91bc 82fe f73a
00000260: 8d9e 493a a95b 23bb db0e a3b9 83ce 97bc
00000270: a7b3 393c c493 8d39 b0aa 4ebc 490a caba
00000280: f32c 8f3c 1bcf 0abc 22c4 80bc a0a4 19bc
00000290: a37f c93a 0bf4 0ebd e303 673c 5363 be3b
000002a0: 0700 3fbc 7ea9 a43b 9fa3 9a3b c374 abbb
000002b0: f6b0 343b d484 a83a 7a2d f2bb ab9e 803b
000002c0: 394d 2c3c 789c 683c e8c7 d3bb f317 033b
000002d0: d326 e0ba 15d5 a43b 5b44 b63a fb78 0abb
000002e0: bbf1 edbc 584a 503c a102 423c 0507 e5bb
000002f0: 35c6 063c 5f28 573b a7ce 723c f56e 083c
00000300: 9747 3ebb 435d 10bb 78f9 ebba 9b55 30bc
00000310: 2f86 4e3c e2e4 033c 597d bf3b 4fe8 04bc
00000320: 480b 1dbc 50f9 893b e86a 6cbc ae34 9abb
00000330: f7a7 233c 3fcc 253c 1de0 feba cb39 9db9
00000340: fddf 52bb 0330 b5ba 8763 1c3b 09ab 27bc
00000350: 5af2 cf3b 25d6 7bbb a52f 903b 6b8a 04bb
00000360: b75a eab8 9c6d c23a a486 b23b 268b 90bb
00000370: 7b1d ca3b 354f 5fbc 8fcb b33b 1dd4 9d3c
00000380: 6394 1d3c 88d1 553b 1554 04bb e648 a1bb
00000390: 7d7f 333a 2b3e adbb ca99 0bbb d771 dbbb
000003a0: 6806 603b e3d1 ebbb 5367 333c 4ec7 b4bb
000003b0: 075b 12bc bdb7 b33b 3b0b 203c 10a1 243b
000003c0: 3896 ecba c219 aa3b 52eb 963b a0c3 733c
000003d0: 5177 163a 3fd9 413c 6bbf b43c 3b7d a03b
000003e0: 9bb5 903a 122b a3b9 7766 033a 2aed 303c
000003f0: fa8d e53b 577f 87bb 6648 bbba c376 46bb

action_model._discrete_distribution.branches.0.bias f4 [4]
0.0 0.0 0.0 0.0
00000000: 0000 0000 0000 0000 0000 0000 0000 0000

network_body._body_endoder.seq_layers.0.weight f4 [128, 126]
0.11007141 0.228218 0.08007293 -0.080301456 -0.08009177 -0.03917969 0.029308278 0.04102702
0.14129621 -0.06749899 -0.16231027 0.021809401 -0.054338355 0.108353294 -0.15821445 -0.06427721
0.048124995 -0.026363455 0.15136503 -0.0050039436 0.08173893 -0.06213571 -0.005068614 -0.14819658
0.08239 -0.17025119 0.04534294 -0.08282644 -0.088328704 0.098617256 -0.06926078 -0.04439059
-0.009685573 0.07869541 0.19790003 0.08041017 -0.1391561 0.092051394 -0.10017927 0.045247268
-0.07353755 -0.053597312 0.21638247 -0.028860206 0.060488492 -0.09023661 -0.16549191 0.09272853
-0.06672297 -0.08056288 -0.16684626 -0.10380537 -0.10016527 -0.055890337 -0.14077576 -0.04018431
0.04024886 0.016302425 0.022769287 -0.1478967 0.12096491 -0.13600038 -0.07981605 -0.18155415
-0.028090347 -0.12006483 -0.02414895 -0.06076918 0.08784123 -0.01388903 -0.09965961 0.032209847
-0.1115933 -0.08939612 -0.08405571 0.0110394 -0.087613 0.12220533 -0.040810756 -0.065537125
-0.042525686 0.06650164 -0.06246083 0.19548571 0.10018826 0.15617524 0.040983625 -0.068790704
-0.0026739028 0.04016079 -0.08513662 -0.01096459 -0.1320327 -0.0321746 -0.0492153 -0.019621758
0.05893913 -0.03444177 -0.053250477 0.24790122 -0.05813992 -0.040157616 0.085073255 0.104882404
-0.05474036 0.06126299 0.0049491576 -0.14506309 -0.11279099 0.16035034 -0.1438388 0.04835415
-0.026536835 0.08706621 0.0135902725 -0.065967694 0.054689802 -0.12385774 -0.019363753 -0.084325366
-0.008274442 -0.1343793 0.025283448 0.058941115 -0.028081683 -0.018193517 0.072590746 0.12724388
0.045370273 -0.0824453 -0.0101925945 0.06006409 0.015384608 -0.21002127 0.10392462 0.09619664
0.20012748 0.06019197 0.07916985 -0.009113797 0.07322324 0.12000544 -0.021108223 -0.14623232
0.051773112 0.03806919 0.050829027 -0.08320402 -0.09958356 -0.0123279095 0.0890595 0.046746407
-0.12693019 0.11812248 0.12533401 0.01742521 0.18514827 -0.038022276 0.08645792 -0.047877677
0.22303583 0.049770657 0.14421742 0.010192143 0.20608822 -0.10811412 -0.039620474 -0.03492205
0.06915644 -0.056842282 0.040865537 -0.13699804 0.081921466 -0.21847616 0.10585363 0.056878336
-0.009403352 0.060845196 -0.108523995 0.025216915 -0.012805766 0.10878147 0.0885064 0.04290402
-0.0871094 0.28154758 -0.19199932 0.075975224 -0.041223865 -0.010753711 -0.10283874 0.22735335
-0.13171864 0.16568427 -0.019331917 -0.057060458 -0.013135007 0.07151466 -0.07266014 0.008260755
0.051216938 -0.059428934 -0.07750968 -0.038241763 -0.041736457 -0.105364114 0.19811238 -0.06606847
0.10341826 -0.1138049 -0.034004673 0.080219135 0.122674175 -0.042466797 0.08273149 0.08660921
0.035888948 -0.08599841 0.007731781 0.0708574 0.039273735 -0.09883318 -0.012314181 -0.1129394
0.048689008 -0.032137267 -0.043924708 0.07623818 0.09211489 0.10422912 0.030301241 -0.042467233
-0.07515534 0.019973168 0.114991054 -0.04969129 -0.09363316 0.16841114 -0.043292068 0.054658663
0.06922569 0.0041120336 -0.01176385 -0.119997084 -0.15467352 -0.14103176 -0.13191801 -0.2666265
-0.19117019 0.017264623 0.12949423 -0.005013985 0.05704908 -0.1744935 -0.0029031911 -0.025968468
00000000: 1f6d e13d fbb1 693e 47fd a33d 1775 a4bd
00000010: 2707 a4bd e27a 20bd ea17 f03c f30b 283d
00000020: f4af 103e e93c 8abd aa34 26be a1a9 b23c
00000030: e591 5ebd 55e8 dd3d f802 22be c5a3 83bd
00000040: b71e 453d 2cf8 d7bc 6fff 1a3e 1ff8 a3bb
00000050: bd66 a73d 0482 7ebd 9e16 a6bb d8c0 17be
00000060: 17bc a83d 5456 2ebe 85b9 393d e9a0 a9bd
00000070: aee5 b4bd d8f7 c93d 99d8 8dbd e8d2 35bd
00000080: 3db0 1ebc 0f2b a13d 4ea6 4a3e 16ae a43d
00000090: f07e 0ebe 7185 bc3d ca2a cdbd 3355 393d
000000a0: db9a 96bd db88 5bbd 5e93 5d3e 3d6c ecbc
000000b0: c8c2 773d f9cd b8bd b676 29be 75e8 bd3d
000000c0: 0da6 88bd 27fe a4bd bfd9 2abe e997 d4bd
000000d0: 7323 cdbd 44ed 64bd 8527 10be 4e98 24bd
000000e0: fddb 243d aa8c 853c a886 ba3c 3c72 17be
000000f0: 73bc f73d af43 0bbe 9976 a3bd 55e9 39be
00000100: ba1d e6bc 8de4 f5bd 05d4 c5bc 1be9 78bd
00000110: 1ae6 b33d d08e 63bc 561a ccbd 79ee 033d
00000120: 078b e4bd 5015 b7bd 6625 acbd 99de 343c
00000130: 726e b3bd ca46 fa3d 2e29 27bd 5438 86bd
00000140: 6a2f 2ebd 0332 883d edd6 7fbd 682d 483e
00000150: 812f cd3d 67ec 1f3e 72de 273d 24e2 8cbd
00000160: a53c 2fbb a47f 243d 1c5c aebd d3a4 33bc
00000170: 9533 07be 83c9 03bd fb95 49bd cfbd a0bc
00000180: 286a 713d d012 0dbd 2c1d 5abd d1d9 7d3e
00000190: 2024 6ebd 507c 24bd e33a ae3d 96cc d63d
000001a0: 6d37 60bd e7ee 7a3d 8b2c a23b 6b8b 14be
000001b0: f6fe e6bd e132 243e 7a4a 13be 000f 463d
000001c0: c763 d9bc c54f b23d bca9 5e3c 121a 87bd
000001d0: 6a02 603d 20a9 fdbd bca0 9ebc c7b2 acbd
000001e0: 8691 07bc ba9a 09be 3c1f cf3c 3d6c 713d
000001f0: 8f0b e6bc 920a 95bc 75aa 943d 384c 023e
00000200: 2ed6 393d 15d9 a8bd d7fe 26bc c305 763d
00000210: b90f 7c3c d10f 57be 6ed6 d43d be02 c53d
00000220: 38ee 4c3e db8b 763d cd23 a23d 0952 15bc
00000230: 11f6 953d 6ac5 f53d 27eb acbc edbd 15be
00000240: 0b10 543d 70ee 1b3d 1932 503d df66 aabd
00000250: 77f2 cbbd 00fb 49bc d464 b63d 2979 3f3d
00000260: fdf9 01be 33ea f13d 8f57 003e 50bf 8e3c
00000270: 8297 3d3e 3fbd 1bbd da10 b13d 621b 44bd
00000280: 8163 643e 51dc 4b3d bbad 133e f2fc 263c
00000290: ca08 533e f06a ddbd 1449 22bd 6c0a 0fbd
000002a0: e4a1 8d3d 74d3 68bd 9f62 273d 3749 0cbe
000002b0: 71c6 a73d 37b8 5fbe cac9 d83d 42f9 683d
000002c0: 8410 1abc d038 793d d441 debd b493 ce3c
000002d0: 47cf 51bc d2c8 de3d d842 b53d 20bc 2f3d
000002e0: 6a66 b2bd 0127 903e 789b 44be e698 9b3d
000002f0: 5bda 28bd 5530 30bc 1e9d d2bd 51cf 683e
00000300: 40e1 06be 23a9 293e f85d 9ebc 3ab8 69bd
00000310: 3634 57bc 4776 923d d7ce 94bd 1e58 073c
00000320: dac8 513d c16b 73bd 65bd 9ebd 65a3 1cbd
00000330: d9f3 2abd 24c9 d7bd f9dd 4a3e e84e 87bd
00000340: f4cc d33d 8b12 e9bd 7c48 0bbd ee49 a43d
00000350: 993c fb3d aaf1 2dbd 216f a93d 2b60 b13d
00000360: 4a00 133d ef1f b0bd e15a fd3b af1d 913d
00000370: 7fdd 203d 0d69 cabd 6bc1 49bc c64c e7bd
00000380: 206e 473d 5ea2 03bd 65ea 33bd c322 9c3d
00000390: bba6 bc3d 1476 d53d 4f3a f83c 1ff2 2dbd
000003a0: 0beb 99bd c59e a33c 6e80 eb3d 1889 4bbd
000003b0: bec2 bfbd f873 2c3e 0653 31bd c3e1 5f3d
000003c0: 33c6 8d3d 3dbe 863b 2abd 40bc 08c1 f5bd
000003d0: bc62 1ebe a16a 10be 8415 07be 4583 88be
000003e0: 1ec2 43be 8a6e 8d3c 239a 043e 5b4c a4bb
000003f0: 4cac 693d 6dae 32be 7743 3ebb d3bb d4bc

network_body._body_endoder.seq_layers.0.bias f4 [128]
0.0 0.0 0.0 0.0 0.0 0.0 0.0 0.0
0.0 0.0 0.0 0.0 0.0 0.0 0.0 0.0
0.0 0.0 0.0 0.0 0.0 0.0 0.0 0.0
0.0 0.0 0.0 0.0 0.0 0.0 0.0 0.0
0.0 0.0 0.0 0.0 0.0 0.0 0.0 0.0
0.0 0.0 0.0 0.0 0.0 0.0 0.0 0.0
0.0 0.0 0.0 0.0 0.0 0.0 0.0 0.0
0.0 0.0 0.0 0.0 0.0 0.0 0.0 0.0
0.0 0.0 0.0 0.0 0.0 0.0 0.0 0.0
0.0 0.0 0.0 0.0 0.0 0.0 0.0 0.0
0.0 0.0 0.0 0.0 0.0 0.0 0.0 0.0
0.0 0.0 0.0 0.0 0.0 0.0 0.0 0.0
0.0 0.0 0.0 0.0 0.0 0.0 0.0 0.0
0.0 0.0 0.0 0.0 0.0 0.0 0.0 0.0
0.0 0.0 0.0 0.0 0.0 0.0 0.0 0.0
0.0 0.0 0.0 0.0 0.0 0.0 0.0 0.0
00000000: 0000 0000 0000 0000 0000 0000 0000 0000
00000010: 0000 0000 0000 0000 0000 0000 0000 0000
00000020: 0000 0000 0000 0000 0000 0000 0000 0000
00000030: 0000 0000 0000 0000 0000 0000 0000 0000
00000040: 0000 0000 0000 0000 0000 0000 0000 0000
00000050: 0000 0000 0000 0000 0000 0000 0000 0000
00000060: 0000 0000 0000 0000 0000 0000 0000 0000
00000070: 0000 0000 0000 0000 0000 0000 0000 0000
00000080: 0000 0000 0000 0000 0000 0000 0000 0000
00000090: 0000 0000 0000 0000 0000 0000 0000 0000
000000a0: 0000 0000 0000 0000 0000 0000 0000 0000
000000b0: 0000 0000 0000 0000 0000 0000 0000 0000
000000c0: 0000 0000 0000 0000 0000 0000 0000 0000
000000d0: 0000 0000 0000 0000 0000 0000 0000 0000
000000e0: 0000 0000 0000 0000 0000 0000 0000 0000
000000f0: 0000 0000 0000 0000 0000 0000 0000 0000
00000100: 0000 0000 0000 0000 0000 0000 0000 0000
00000110: 0000 0000 0000 0000 0000 0000 0000 0000
00000120: 0000 0000 0000 0000 0000 0000 0000 0000
00000130: 0000 0000 0000 0000 0000 0000 0000 0000
00000140: 0000 0000 0000 0000 0000 0000 0000 0000
00000150: 0000 0000 0000 0000 0000 0000 0000 0000
00000160: 0000 0000 0000 0000 0000 0000 0000 0000
00000170: 0000 0000 0000 0000 0000 0000 0000 0000
00000180: 0000 0000 0000 0000 0000 0000 0000 0000
00000190: 0000 0000 0000 0000 0000 0000 0000 0000
000001a0: 0000 0000 0000 0000 0000 0000 0000 0000
000001b0: 0000 0000 0000 0000 0000 0000 0000 0000
000001c0: 0000 0000 0000 0000 0000 0000 0000 0000
000001d0: 0000 0000 0000 0000 0000 0000 0000 0000
000001e0: 0000 0000 0000 0000 0000 0000 0000 0000
000001f0: 0000 0000 0000 0000 0000 0000 0000 0000

network_body._body_endoder.seq_layers.2.weight f4 [128, 128]
0.032793168 -0.06004806 -0.15844744 -0.030173155 0.047674686 -0.004152398 0.021641808 0.1463152
0.11957674 -0.11863464 0.13547586 -0.078485906 -0.016593903 -0.0926376 0.12623829 -0.066487476
-0.05478614 0.09986223 0.15564226 0.04023427 0.07751797 -0.00033337707 0.042390037 0.27165225
0.033076603 0.0577918 -0.030942714 -0.013631924 -0.055181835 0.036255594 0.013697733 -0.024320662
-0.019450394 -0.094416276 -0.019605828 0.0037832805 0.07565642 0.00477033 0.05919727 0.057773367
-0.17750151 0.052587435 0.03333995 -0.013464846 -0.065788135 0.12087724 -0.12514617 0.09454107
-0.06665642 0.041868456 0.08056921 -0.037329737 0.024197964 0.07197962 0.097071484 -0.11736997
0.016873682 -0.021629378 0.061161302 -0.010080922 0.138876 -0.047231823 -0.11300218 -0.10428867
-0.018378515 -0.01700674 0.0061354637 0.031298064 0.0286798 0.03883053 0.0859532 -0.08658324
-0.20038345 0.15647133 -0.016777018 -0.11554732 -0.054391433 0.027557766 -0.026599081 -0.087365456
-0.10855975 -0.031767946 0.11479454 0.13023193 -0.019760778 0.119914755 0.043240342 -0.11744985
-0.013878458 0.031738266 -0.069749855 0.017323995 0.0063442453 -0.030631443 0.10102856 -0.082542546
-0.028138256 0.019387152 -0.01366621 0.0790146 -0.007149877 0.17728968 -0.039974663 -0.052452236
-0.02475427 0.02185927 0.03668378 -0.049435824 0.113547884 -0.057061568 -0.008523764 -0.014268596
0.053298302 -0.06442925 -0.060845986 0.03840787 -0.12833492 0.05968235 -0.027170656 -0.033407245
0.06582321 0.0048756 -0.06306311 0.03232824 0.10124144 0.027083876 0.014457435 -0.03405511
-0.073146716 -0.10278567 0.056344245 -0.017522529 -0.14796542 -0.06640551 0.018165747 0.035392597
0.018530507 -0.0751499 -0.037549555 -0.04992027 -0.0823379 -0.008989773 -0.08814225 0.0041509257
-0.17191413 0.045896497 0.14053437 0.04889626 -0.03634588 0.007463776 0.010688461 -0.07214828
-0.021396916 0.15924066 -0.06500482 -0.02958199 0.12615068 -0.04923432 -0.027391572 -0.0058365087
0.032227118 -0.054782927 -0.004092609 -0.13083795 0.041498218 -0.043750815 -0.10751216 -0.12832746
-0.004293013 -0.020134766 -0.07052056 0.038799416 0.06424245 -0.13129525 0.1515056 -0.07102858
-0.124013945 -0.034193963 -0.11101994 0.12031524 -0.020164132 0.07658403 0.10027509 -0.051065363
0.12971678 0.13598144 0.13491097 0.063215174 -0.03118139 -0.0667381 0.13155144 -0.10770361
-0.0006644112 -0.16758119 -0.01393097 -0.0014457006 -0.008649778 -0.13584565 -0.023416676 -0.014547328
0.21446775 -0.041924577 -0.0313976 -0.024396606 0.046822265 0.08678151 0.009786188 -0.13259727
0.008051681 -0.14197911 0.059912626 -0.06947448 -0.1865826 -0.0065844827 -0.041418288 -0.09564025
0.06509418 0.10706277 -0.06267912 0.21166943 0.11134017 -0.008469291 0.08585043 0.05281798
-0.02634698 -0.053953834 0.0065387306 -0.1522075 -0.0020352467 -0.012310083 -0.046189114 -0.016052684
0.0031739995 0.07664867 0.0134800235 0.15470488 0.037552647 0.08434046 -0.088726826 -0.010949598
0.006916262 0.04797998 -0.012379085 0.07537657 0.09389297 0.0038796724 0.032519 0.10094529
0.090777546 -0.06287926 0.096053034 -0.133336 0.03968565 0.054064486 0.024318283 0.028795533
00000000: 2152 063d f4f4 75bd 0c40 22be b12d f7bc
00000010: 8846 433d d710 88bb 294a b13c a7d3 153e
00000020: a6e4 f43d b8f6 f2bd 2fba 0a3e 38bd a0bd
00000030: f0ef 87bc c8b8 bdbd 9c44 013e 962a 88bd
00000040: 6e67 60bd 9284 cc3d af60 1f3e b1cc 243d
00000050: bec1 9e3d 1dc9 aeb9 2da1 2d3d 0116 8b3e
00000060: 557b 073d 18b7 6c3d 937b fdbc 6f58 5fbc
00000070: 5906 62bd bf80 143d 756c 603c 203c c7bc
00000080: 6f56 9fbc 525d c1bd 679c a0bc eaf0 773b
00000090: c1f1 9a3d 6e50 9c3b d678 723d c4a3 6c3d
000000a0: f5c2 35be ec65 573d 798f 083d a89b 5cbc
000000b0: eebb 86bd 7d8e f73d 5126 00be c09e c13d
000000c0: 2983 88bd 427e 2b3d 7801 a53d 11e7 18bd
000000d0: cf3a c63c 0d6a 933d 6acd c63d ab5f f0bd
000000e0: ad3a 8a3c 1830 b1bc 4684 7a3d 742a 25bc
000000f0: 8335 0e3e 2876 41bd b06d e7bd 4c95 d5bd
00000100: 8a8e 96bc b851 8bbc 000c c93b 6632 003d
00000110: e6f1 ea3c c30c 1f3d 3b08 b03d 8e52 b1bd
00000120: 5231 4dbe 053a 203e f56f 89bc 13a4 ecbd
00000130: 8dc9 5ebd d3c0 e13c 51e6 d9bc a9ec b2bd
00000140: 9354 debd 1b1f 02bd 6619 eb3d 855b 053e
00000150: 5be1 a1bc de95 f53d c91c 313d 8c89 f0bd
00000160: 7962 63bc fcff 013d 03d9 8ebd 0deb 8d3c
00000170: 63e3 cf3b cbee fabc 10e8 ce3d 110c a9bd
00000180: 3382 e6bc ced1 9e3c 3de8 5fbc 68d2 a13d
00000190: 8449 eabb 6d8b 353e 79bc 23bd 28d8 56bd
000001a0: 78c9 cabc 3612 b33c bb41 163d 387d 4abd
000001b0: cb8b e83d 64b9 69bd 42a7 0bbc d4c6 69bc
000001c0: 524f 5a3d 7cf3 83bd a439 79bd 9251 1d3d
000001d0: 3b6a 03be 7b75 743d ff94 debc 09d6 08bd
000001e0: 52ce 863d 7fc3 9f3b 3b27 81bd 9e6a 043d
000001f0: ac57 cf3d 01df dd3c e1de 6c3c 5f7d 0bbd
00000200: f2cd 95bd 4b81 d2bd 39c9 663d 688b 8fbc
00000210: 3f84 17be 9dff 87bd 55d0 943c d4f7 103d
00000220: 4acd 973c 31e8 99bd 90cd 19bd 3279 4cbd
00000230: c6a0 a8bd d749 13bc ed83 b4bd 7d04 883b
00000240: 420a 30be f7fd 3b3d 3ee8 0f3e 7247 483d
00000250: 6bdf 14bd b192 f43b a81e 2f3c 7ac2 93bd
00000260: 9648 afbc fc0f 233e 3f21 85bd ee55 f2bc
00000270: a52d 013e eda9 49bd 4a64 e0bc 2f40 bfbb
00000280: 9500 043d 1064 60bd 4b1b 86bb 62fa 05be
00000290: 09fa 293d 0e34 33bd 562f dcbd 4668 03be
000002a0: 67ac 8cbb aaf1 a4bc 156d 90bd 23ec 1e3d
000002b0: 8c91 833d 4372 06be 4924 1b3e 6f77 91bd
000002c0: 06fb fdbd f80e 0cbd 6c5e e3bd d667 f63d
000002d0: 402f a5bc 17d8 9c3d 075d cd3d ea29 51bd
000002e0: 7ad4 043e b83e 0b3e 1a26 0a3e f576 813d
000002f0: 1d70 ffbc fcad 88bd 6cb5 063e b693 dcbd
00000300: e22b 2eba 679a 2bbe b93e 64bc aa7d bdba
00000310: ccb7 0dbc 1f1b 0bbe 54d4 bfbc eb57 6ebc
00000320: 6f9d 5b3e 1bb9 2bbd c59a 00bd 64db c7bc
00000330: b4c8 3f3d 81ba b13d 3f56 203c 94c7 07be
00000340: 33eb 033c f962 11be f166 753d a348 8ebd
00000350: 820f 3fbe a5c2 d7bb 39a6 29bd 09df c3bd
00000360: 1950 853d ba43 db3d e95d 80bd dfbf 583e
00000370: 5106 e43d c8c2 0abc 5ad2 af3d ab57 583d
00000380: 9fd5 d7bc b2fe 5cbd d942 d63b 48dc 1bbe
00000390: c661 05bb 3bb0 49bc cc30 3dbd eb80 83bc
000003a0: e002 503b faf9 9c3d 51db 5c3c f56a 1e3e
000003b0: ced0 193d b1ba ac3d 69b6 b5bd f165 33bc
000003c0: d0a1 e23b a886 443d a5d1 4abc 085f 9a3d
000003d0: f54a c03d 1a42 7e3b a532 053d 67bc ce3d
000003e0: 94e9 b93d d7c6 80bd 74b7 c43d 3b89 08be
000003f0: 6c8d 223d b972 5d3d 2337 c73c 9ce4 eb3c

network_body._body_endoder.seq_layers.2.bias f4 [128]
0.0 0.0 0.0 0.0 0.0 0.0 0.0 0.0
0.0 0.0 0.0 0.0 0.0 0.0 0.0 0.0
0.0 0.0 0.0 0.0 0.0 0.0 0.0 0.0
0.0 0.0 0.0 0.0 0.0 0.0 0.0 0.0
0.0 0.0 0.0 0.0 0.0 0.0 0.0 0.0
0.0 0.0 0.0 0.0 0.0 0.0 0.0 0.0
0.0 0.0 0.0 0.0 0.0 0.0 0.0 0.0
0.0 0.0 0.0 0.0 0.0 0.0 0.0 0.0
0.0 0.0 0.0 0.0 0.0 0.0 0.0 0.0
0.0 0.0 0.0 0.0 0.0 0.0 0.0 0.0
0.0 0.0 0.0 0.0 0.0 0.0 0.0 0.0
0.0 0.0 0.0 0.0 0.0 0.0 0.0 0.0
0.0 0.0 0.0 0.0 0.0 0.0 0.0 0.0
0.0 0.0 0.0 0.0 0.0 0.0 0.0 0.0
0.0 0.0 0.0 0.0 0.0 0.0 0.0 0.0
0.0 0.0 0.0 0.0 0.0 0.0 0.0 0.0
00000000: 0000 0000 0000 0000 0000 0000 0000 0000
00000010: 0000 0000 0000 0000 0000 0000 0000 0000
00000020: 0000 0000 0000 0000 0000 0000 0000 0000
00000030: 0000 0000 0000 0000 0000 0000 0000 0000
00000040: 0000 0000 0000 0000 0000 0000 0000 0000
00000050: 0000 0000 0000 0000 0000 0000 0000 0000
00000060: 0000 0000 0000 0000 0000 0000 0000 0000
00000070: 0000 0000 0000 0000 0000 0000 0000 0000
00000080: 0000 0000 0000 0000 0000 0000 0000 0000
00000090: 0000 0000 0000 0000 0000 0000 0000 0000
000000a0: 0000 0000 0000 0000 0000 0000 0000 0000
000000b0: 0000 0000 0000 0000 0000 0000 0000 0000
000000c0: 0000 0000 0000 0000 0000 0000 0000 0000
000000d0: 0000 0000 0000 0000 0000 0000 0000 0000
000000e0: 0000 0000 0000 0000 0000 0000 0000 0000
000000f0: 0000 0000 0000 0000 0000 0000 0000 0000
00000100: 0000 0000 0000 0000 0000 0000 0000 0000
00000110: 0000 0000 0000 0000 0000 0000 0000 0000
00000120: 0000 0000 0000 0000 0000 0000 0000 0000
00000130: 0000 0000 0000 0000 0000 0000 0000 0000
00000140: 0000 0000 0000 0000 0000 0000 0000 0000
00000150: 0000 0000 0000 0000 0000 0000 0000 0000
00000160: 0000 0000 0000 0000 0000 0000 0000 0000
00000170: 0000 0000 0000 0000 0000 0000 0000 0000
00000180: 0000 0000 0000 0000 0000 0000 0000 0000
00000190: 0000 0000 0000 0000 0000 0000 0000 0000
000001a0: 0000 0000 0000 0000 0000 0000 0000 0000
000001b0: 0000 0000 0000 0000 0000 0000 0000 0000
000001c0: 0000 0000 0000 0000 0000 0000 0000 0000
000001d0: 0000 0000 0000 0000 0000 0000 0000 0000
000001e0: 0000 0000 0000 0000 0000 0000 0000 0000
000001f0: 0000 0000 0000 0000 0000 0000 0000 0000
