Maize-Runner/Assets/Prefabs/_scapeMaze.onnx (onnx, 90932 bytes, 7 tensors)

action_model._continuous_distribution.log_sigma f4 [1, 2]
000000 24 44 e5 bc 27 6f 58 bd
       -0.027986594 -0.052840378

action_model._continuous_distribution.mu.bias f4 [2]
000000 aa 18 92 bc 24 c1 9b 3b
       -0.017834026 0.0047532488

action_model._continuous_distribution.mu.weight f4 [2, 128]
000000 13 78 1b 3b 3e f0 6c 3d 3f bf 13 bc 1e 15 1c bb
       0.0023722693 0.0578463 -0.009017765 -0.0023816298
000010 d9 50 38 3d 46 ef cb bb 0f 7d 11 3d eb 32 d3 bc
       0.044998977 -0.006223592 0.035519656 -0.025781116
000020 00 9f 86 3c 42 48 2b 3c af 88 23 3c c8 05 06 3d
       0.016433239 0.010454239 0.009981318 0.032720357
000030 96 dc 48 3d e8 c9 60 3d 3e c9 d4 3c 7f 50 da 3b
       0.049038492 0.054880053 0.025974866 0.006662428
000040 e5 ee 53 bc b4 eb 1a 3d 07 77 6d bc 69 46 40 3d
       -0.012935375 0.03782244 -0.01449371 0.04694215
000050 64 1e c0 bc 00 82 12 bd c3 18 29 3c 51 1a 85 3d
       -0.023451991 -0.03576851 0.010320845 0.0649916
000060 6a 05 00 3c 85 00 8d bc 0b aa 2d 3c 6e af 00 bc
       0.007813791 -0.017212162 0.010599623 -0.007854326
000070 c5 71 30 3d 99 be c9 3c 6f 85 37 bd 04 2e 02 bd
       0.04307725 0.024627017 -0.044804987 -0.031782165
000080 94 f5 17 bc 64 3b 24 3d f3 b0 72 3c 90 96 1f bc
       -0.009274859 0.0400957 0.014812696 -0.009740487
000090 9e 0f 30 3c eb 3f 88 bb e5 14 0a 3d 24 2f f6 3c
       0.010745911 -0.0041580102 0.033711333 0.030051775
0000a0 0e 7d 17 3c 62 8c 60 bc 1c 83 ca 3c 6c 86 41 3d
       0.009246124 -0.013705345 0.024720721 0.047247335
0000b0 15 88 70 3b 07 48 61 bc 51 98 01 bd f5 05 ab 3b
       0.0036702205 -0.013750083 -0.0316394 0.005219216
0000c0 77 81 b8 3c dc 37 ba bc 0a 22 16 3d 05 f7 d9 3c
       0.022522671 -0.022731714 0.036653556 0.026607046
0000d0 64 62 35 3d 2b 08 b7 3c 42 40 88 bd 68 f5 90 3c
       0.044283286 0.022342762 -0.06652881 0.017695144
0000e0 80 3c 29 3c af 7d 38 3c c2 85 0d 3b ac 32 ba bc
       0.010329366 0.011260434 0.0021594618 -0.02272924
0000f0 4c aa 42 3d f4 ea 54 3c f2 b9 2f ba 67 f7 8f 3b
       0.04752569 0.01299547 -0.0006703428 0.0043935063
000100 63 d7 4d bc 12 0d bd 3c fe ac 63 3b e3 85 09 bb
       -0.012563559 0.023077521 0.0034740563 -0.0020984344
000110 0e 89 54 3d e6 ea 5d bc d1 81 2d 3d 6e 5a ac 3b
       0.051888518 -0.013544774 0.04236013 0.0052598035
000120 42 77 03 bd 13 0b 35 3c f3 65 7d 3b 35 c2 a3 bb
       -0.032096155 0.011050004 0.0038665503 -0.0049975165
000130 69 29 70 bc e5 26 f2 3a 90 ad 69 bc f5 d9 68 3c
       -0.01465831 0.0018474726 -0.014262572 0.014212121
000140 05 90 bf 3c 75 0c 39 bc 76 e8 ce 3c 84 9a 1c 3d
       0.023384104 -0.011294474 0.02525733 0.038233295
000150 41 ef 41 3d 83 01 7d 3c 5a c8 12 bc 5c ee ab bc
       0.04734731 0.015442255 -0.0089589 -0.020987682
000160 13 f4 41 3b 52 57 41 3d 7a 52 8e 3b 97 b3 1d 3c
       0.0029594942 0.047202416 0.004343328 0.009625337
000170 b5 0b 5f 3c 5f 12 97 ba 92 13 01 3d bc f9 87 3c
       0.013613631 -0.0011525861 0.031512804 0.016598575
000180 bc e0 ce bb dc 51 0f 3b 01 12 b4 3c bd 29 6e ba
       -0.0063134115 0.002186886 0.021981241 -0.0009085199
000190 4b 00 1e 3d 3f 38 d1 3b 0e 4a c9 bb 3a e2 b7 bc
       0.0385745 0.006384879 -0.006142861 -0.02244674
0001a0 38 fb a4 3b 11 b1 81 3d e8 cb 85 3b 27 d8 13 3c
       0.0050348304 0.06332601 0.0040831454 0.009023703
0001b0 a4 20 aa 3c e4 35 d3 bc 7e 58 00 bd 37 5f 82 3c
       0.020767517 -0.025782533 -0.031334393 0.015914543
0001c0 68 56 a4 3a d1 f7 65 bc 78 1c 0c 3d 7e bf 5a bc
       0.0012537958 -0.014036135 0.034206837 -0.013351319
0001d0 b8 d0 76 3d 45 1c ec 3b f8 9a 79 3d 32 17 63 3b
       0.060257643 0.0072055184 0.060938805 0.0034651277
0001e0 8e a2 94 bc f0 7e 40 3c 25 d0 6c bc d4 2f b5 3a
       -0.018143918 0.011749014 -0.014453922 0.0013823458
0001f0 82 0a 7c 3c 91 5a 56 bb b7 ec 99 3c a4 87 30 3c
       0.015383365 -0.003270779 0.018789632 0.010774527
000200 f0 b5 90 3d e3 da 88 bc 6f 2a bf 3d 7f be 10 bc
       0.07065952 -0.016705936 0.093342654 -0.00883448
000210 0b 3e 32 3d 16 1f 8f 3c f0 6f b4 3d a2 40 6a bd
       0.0435162 0.017470878 0.08810413 -0.057190545
000220 82 3f a4 3a 21 fd 03 bc ac cb 56 3d 0d e7 db bb
       0.0012531134 -0.008055956 0.05244033 -0.006710893
000230 08 8d bd 3c 56 2a 74 bb 05 07 4e bb c3 3a 25 bd
       0.023138538 -0.003725668 -0.003143729 -0.040339243
000240 d2 0c 43 3c c1 b7 61 bc 33 f4 b1 bc 8d df a3 bc
       0.011904912 -0.0137767205 -0.021722889 -0.020004058
000250 15 29 d7 bb 5c ac 71 bb 29 40 71 3a a8 66 d3 ba
       -0.0065661767 -0.0036876416 0.0009202981 -0.0016128616
000260 77 ba 86 3c be 02 af 3c 39 17 1f 3d ec c8 84 3c
       0.016446335 0.021363612 0.038840506 0.016209088
000270 0d a0 a9 3d dd 69 59 3c 50 4e e8 3c 22 1d 83 3d
       0.082824804 0.013269869 0.028357655 0.06402041
000280 d7 fc 5a bd 40 29 e1 3c 85 67 f3 bb 1d 02 ce bc
       -0.053463783 0.02748549 -0.007428112 -0.025147492
000290 53 16 4b bc 96 dc 6f 3b f4 ab 81 3c 29 ee e6 bb
       -0.012395459 0.0036599985 0.015829064 -0.007047434
0002a0 86 2d d5 3c be de b8 3c 10 01 26 bc 50 c4 36 3d
       0.026022684 0.02256715 -0.010132089 0.044620812
0002b0 f3 65 2a 3c 4d 1f 6e 3b 1d 81 08 3c 6b ee e1 b7
       0.010400283 0.0036334575 0.008331564 -2.6933112e-05
0002c0 9d fe 11 bc 6e ac 80 3d 99 45 3c b8 29 89 27 3c
       -0.008910802 0.06282888 -4.488751e-05 0.010225573
0002d0 0d d1 8b 3c 19 53 27 bd df 31 7a bc a4 bb 87 3d
       0.017067457 -0.040850732 -0.015270679 0.066275865
0002e0 7d 9b b4 3d 30 eb e1 b9 51 29 38 3d e4 00 b7 3b
       0.088187195 -0.00043090573 0.044961277 0.005584823
0002f0 fd d4 76 bd 28 e1 30 3d 00 3b 8d 3d 18 9d 04 3d
       -0.060261715 0.043183476 0.06896019 0.03237638
000300 4e 5d 97 3d 54 ff 9d 3c d5 d4 31 bb b2 45 0a 3c
       0.07390843 0.019286789 -0.0027134914 0.008439468
000310 aa 37 cf bc eb dd 2a 3c a8 39 5a 3c 48 3d ee 3c
       -0.025295097 0.010428886 0.01331941 0.029081956
000320 bc a8 27 bc 2c 66 cc bc 96 79 da 3c 80 89 cd 3c
       -0.0102331005 -0.024951063 0.026669305 0.02508998
000330 09 c4 68 3b 4a 7a 7e bc ba 98 6e 3b 4d 9f 07 bd
       0.0035517237 -0.015532086 0.003640695 -0.033110905
000340 5d eb 8d b9 f9 e3 05 3b f4 f5 17 3b cb 97 a3 3b
       -0.00027068975 0.0020430072 0.002318737 0.0049924604
000350 e3 43 7b 3d 54 72 e4 3b b7 47 96 3b 0e c0 57 bc
       0.06134404 0.006971637 0.004586186 -0.013168348
000360 9a 66 39 bb 37 fa 4a 3c de 07 ad 3c 54 2c 98 bc
       -0.0028289915 0.012388757 0.021121915 -0.018575825
000370 21 73 16 3d 43 1f 57 bc e2 11 97 3d db 31 ae 3c
       0.03673089 -0.013130012 0.07376458 0.021264007
000380 f5 2a 59 3d 83 68 c2 bb f8 8b 89 3b d0 d8 3f 3d
       0.053019483 -0.005932869 0.004197594 0.046837628
000390 c7 18 ac 3d 6a 9f b1 3c 7e 98 ce 3c b8 5d fc bc
       0.084031634 0.02168246 0.025219198 -0.030806407
0003a0 a3 21 bb ba f0 57 2d 3d 65 a5 ac bb 79 3b 81 bb
       -0.0014276992 0.04232019 -0.00526874 -0.0039438573
0003b0 78 b8 d2 3d 87 bf bb 3b 86 7e a4 3a e4 83 88 3d
       0.10289091 0.005729619 0.0012549914 0.06665781
0003c0 8a 96 16 bd ce b8 1b 3d 01 84 b0 bc dc ba 97 bb
       -0.03676466 0.03801804 -0.02154732 -0.0046304297
0003d0 6a e0 95 bd dc 82 04 bd 65 8e 0b 3d f3 fe 7d bd
       -0.07318194 -0.03235136 0.034071345 -0.062010717
0003e0 28 f6 a9 bc e6 ba 26 bc 7d 37 87 bc 66 47 aa 3c
       -0.02074726 -0.010176396 -0.016505951 0.020785999
0003f0 bc 69 73 3d f8 4c ce bc 05 e8 81 bc c2 fd c8 bc
       0.059427008 -0.025183186 -0.015857706 -0.024535064

network_body._body_endoder.seq_layers.0.bias f4 [128]
000000 f3 8d d7 bb a4 95 58 3a f5 04 f6 bb e5 bd e7 bb
       -0.006578201 0.0008262044 -0.007507915 -0.0070721977
000010 ee 99 44 bc 08 a9 3a bc 07 40 9a bb cd 03 1a 3d
       -0.01199959 -0.011392839 -0.0047073397 0.03760128
000020 1b f3 d4 bb 62 5a bd 3c 39 23 36 b9 f2 61 4e bc
       -0.006498707 0.023114387 -0.00017369994 -0.012596594
000030 08 1e f1 b9 36 e8 4d 3b 3c 60 e4 ba b3 e9 9f 3c
       -0.00045989477 0.0031418926 -0.00174237 0.019520616
000040 83 58 ac 3c 1e 16 8e 3c 4b fa ca 3c 19 e2 ff bb
       0.0210383 0.01734453 0.024777552 -0.0078089354
000050 4b 57 03 bb 53 71 d6 bb e3 62 9b bc 4b 83 1c 3c
       -0.0020041044 -0.006544271 -0.018968051 0.009552787
000060 4f c5 a3 3a 3b 65 03 3d ea cc 45 3d c2 dd 96 3c
       0.0012494716 0.032078963 0.048291124 0.01841629
000070 c7 d5 03 3b f0 8d 33 bc 79 f5 20 bc a6 21 bf b9
       0.0020116435 -0.0109591335 -0.00982415 -0.0003645543
000080 86 e5 cb bc bf e3 c5 3c f6 a9 79 3c 72 d6 93 3c
       -0.024889719 0.02415645 0.015238276 0.018046591
000090 1b 6e 85 bb c0 7a a4 ba 63 bd 97 bc 9a 58 07 3c
       -0.0040719635 -0.0012548789 -0.018522924 0.00826087
0000a0 72 46 93 3c bf c4 18 bc cc 3a fa ba eb c5 03 bc
       0.017977927 -0.009324252 -0.0019091009 -0.008042793
0000b0 28 1d a0 3c ee a8 f4 bb d7 42 81 3d 42 9e 00 bb
       0.019545153 -0.007466427 0.06311577 -0.001962558
0000c0 43 3f 78 3c 06 fb 0a bc 43 c2 16 bc af 22 67 3d
       0.0151518015 -0.0084827 -0.009201589 0.05642956
0000d0 2e f0 2b 3d 19 5a 42 3c 4f 2f 5e 3c 9f 41 e4 3c
       0.0419771 0.011862301 0.013561084 0.027863322
0000e0 b8 28 a2 3c c0 8d 83 bb db 1a 27 bd ef 10 45 bc
       0.019794807 -0.0040147007 -0.040797096 -0.012027963
0000f0 a5 e8 0a 3b df f8 9b bc b8 18 b8 3b e1 02 ed 3b
       0.0021195796 -0.01903957 0.005618181 0.007233009
000100 c5 51 36 3c 0e 44 21 3a ba 49 ed 3a 9f ef df 3b
       0.011127894 0.00061518035 0.0018103637 0.006833985
000110 5d 21 36 bc 18 ab 7e bc d8 60 80 bc 1b ba 1b bb
       -0.011116353 -0.015543722 -0.015671179 -0.002376205
000120 b4 e2 e0 ba af 6e 11 bc 5e ae b1 3b 92 ea 27 39
       -0.0017157407 -0.008876487 0.0054223975 0.00016013745
000130 09 b2 b5 3c 25 fa 34 bc 55 e6 88 3c ba 02 9f bc
       0.02217962 -0.011045967 0.016711393 -0.01941048
000140 51 ec 0b 3d ac a2 98 3c 27 74 b1 39 b9 43 bf bb
       0.034160916 0.018632255 0.0003384661 -0.0058369306
000150 38 33 93 ba b3 db ca 39 d9 40 56 bb dd 59 dd bc
       -0.0011230474 0.0003869213 -0.003269246 -0.02702039
000160 10 09 21 bd 56 3b c0 39 be ac d9 3c e7 e5 d8 bc
       -0.039315283 0.00036665302 0.026571628 -0.026476813
000170 aa 35 89 3d e5 8d 29 bc 20 25 e6 3b 65 14 bc 3c
       0.06699689 -0.010348772 0.0070234686 0.022958944
000180 37 f6 70 3c 05 d2 a8 bc 62 c0 74 bc 5a 64 ed bb
       0.01470714 -0.020607958 -0.014938446 -0.007244629
000190 b0 be 3e 3c 29 cb f6 3c 9e 5a a0 3c df da 7b 3c
       0.011642143 0.030126171 0.01957446 0.015372007
0001a0 78 b6 84 bc c3 5f 1a 3a 2d 7f b8 3c 01 1c 94 bc
       -0.01620029 0.00058889034 0.02252158 -0.01807976
0001b0 a8 20 30 3d 46 24 66 bc bb ec 08 3d f5 54 7c 3d
       0.042999893 -0.014046734 0.03342889 0.06160446
0001c0 70 4e 21 bd d8 0e 18 bc fe 3d 83 3c 1c 29 d6 3b
       -0.039381444 -0.009280883 0.016020771 0.0065356623
0001d0 61 05 42 bc 91 e6 e1 bb ba cc 54 3d 10 09 36 3b
       -0.011842103 -0.0068939407 0.051953055 0.0027776398
0001e0 82 df 3e bc e3 e4 4d bc 36 be 65 bc 72 83 7b 3b
       -0.011649968 -0.012566778 -0.014022401 0.0038377908
0001f0 92 95 10 bb 49 13 02 3c 49 66 5c 39 a5 6e a9 3c
       -0.0022061807 0.007939168 0.00021018939 0.020682642

network_body._body_endoder.seq_layers.0.weight f4 [128, 42]
000000 18 20 6d 3c 3c 8c 62 3b 50 b5 87 be 8a 0c 5a be
       0.014472984 0.003456845 -0.26505518 -0.21293846
000010 0e d1 83 be f6 e8 7f be a0 17 b4 3c ed 47 05 3d
       -0.25745434 -0.24991211 0.021983922 0.032539297
000020 69 49 f7 bd 6b 30 e8 3c ab 20 df 3d ec d9 03 bd
       -0.12074549 0.0283434 0.10894903 -0.03219025
000030 2f 53 52 3d fc 84 1e be 6c 95 22 be 74 11 bd bd
       0.05134886 -0.15480417 -0.15877312 -0.092318445
000040 c1 61 58 be ed d4 95 3d d9 08 2d 3e 96 a4 3c 3e
       -0.2113104 0.07316003 0.16897906 0.1842216
000050 d3 98 65 3e 66 18 8d bd 8c 6e 2c 3d 58 17 23 be
       0.22421579 -0.06889419 0.042097613 -0.15926874
000060 6d 9e 75 3e be a0 2e be 93 68 3a 3e f6 8b 20 3e
       0.23986216 -0.17053506 0.18203954 0.15678391
000070 65 46 33 3d bb 5a 60 be 05 87 2c 3e 8a 4e 2a 3e
       0.043768305 -0.21909611 0.16848381 0.16631523
000080 3e c2 07 be 3f cf 14 3e 62 25 02 bc 13 e0 6d be
       -0.13257691 0.14532183 -0.007943483 -0.23230009
000090 a7 48 7d be 32 e5 ae 3e 7d 10 6c 3e 0f ef 15 bd
       -0.24734746 0.34159237 0.23053165 -0.036604937
0000a0 3f c9 88 3d c9 43 21 bd 25 a9 29 3e 59 85 63 3d
       0.0667901 -0.039371286 0.1656843 0.055547092
0000b0 8f d5 d2 bd 45 fe 27 3d fe 3f 12 be ed d9 4e bd
       -0.10294639 0.041013975 -0.14282224 -0.0505008
0000c0 02 99 b8 ba 5a 95 e5 3d 42 cc 16 3e e9 66 1b be
       -0.0014083686 0.11210127 0.14726356 -0.15175976
0000d0 c7 40 07 be 35 f7 63 3e 29 01 a0 3e d3 d4 03 3e
       -0.13208304 0.22262271 0.31250885 0.12874155
0000e0 49 7b 7d bc 38 e0 1d 3e 41 26 95 3d 70 6f 5e be
       -0.015471288 0.15417564 0.07282687 -0.21722198
0000f0 00 e6 1b be d9 55 5b 3d bf 6f 28 bd 23 89 cf be
       -0.15224457 0.053548668 -0.041122194 -0.40534315
000100 66 8f 42 3e 48 5c 9b bd ce ef aa be bf 1a 9d bd
       0.19000015 -0.075859606 -0.3338608 -0.07671117
000110 87 ac 55 3c 29 7f 9c 3e 29 bf ee 3d 04 8e 92 be
       0.013041622 0.30565766 0.11657555 -0.28623974
000120 02 ad 32 3e cb 10 0c 3c 32 f6 18 3e f0 9e b9 be
       0.1744881 0.008548926 0.14937666 -0.36254072
000130 3d 63 82 3d ae 98 f2 3d fb ae 23 be f4 63 47 be
       0.063665845 0.118455276 -0.15984719 -0.19471723
000140 57 f1 2b 3d d3 eb 86 3d 7f d0 d9 3d 82 38 ab bd
       0.041978206 0.06587949 0.106354706 -0.083603874
000150 94 50 6e be 80 22 e7 bd a5 d0 04 3c 17 17 03 be
       -0.23272926 -0.11285877 0.008106385 -0.12801777
000160 61 d0 09 3e 22 8e 7f be 46 da 3c be 8a 68 39 bd
       0.13458396 -0.24956563 -0.1844264 -0.04526571
000170 7f fa 9f bd 46 32 cd 3d 10 23 0b be c0 c3 18 3d
       -0.0781145 0.100193545 -0.13587594 0.037296057
000180 e2 fb 05 3e f2 fb e1 3d 6d c0 51 3e 70 f9 ab bd
       0.13084367 0.11034383 0.20483561 -0.08397186
000190 39 4f 50 3d 96 60 2d 3e 3a f7 db bd 95 00 89 3d
       0.050856803 0.16931376 -0.10740514 0.06689564
0001a0 6a e6 90 be fe a2 97 bd 00 4f 57 bd 23 b7 96 3d
       -0.28300792 -0.07404135 -0.052565575 0.07359149
0001b0 07 55 35 be da fe 75 3e d5 f6 59 3e eb 0b 74 be
       -0.17708217 0.24023 0.21285565 -0.23832671
0001c0 98 fc 08 be 6f c6 13 3d f4 e4 6a be 32 ea 14 3d
       -0.13377607 0.036077913 -0.22938901 0.03635616
0001d0 75 31 0c bd fc ab 12 be 29 de 9f bd eb 38 17 3e
       -0.034226853 -0.1432342 -0.078060456 0.14767806
0001e0 ed a9 0e be d2 ce 4e 3c 5b d5 78 3d 76 67 02 be
       -0.13932009 0.012622552 0.060750347 -0.1273478
0001f0 96 3d 88 3b c6 fa 96 be 13 43 aa 3d a0 26 ba bd
       0.0041577322 -0.294882 0.08313575 -0.090893984
000200 77 c6 21 3e 86 4b ae 3b 4d 90 c1 bc e1 1a df bd
       0.15798365 0.0053190617 -0.023628378 -0.108937986
000210 f2 b2 bd bd 22 1f ca 3d 65 6f ae bd dc 6b 36 bd
       -0.09262647 0.09869219 -0.085173406 -0.044536456
000220 a1 b5 be 3d ff f0 92 bd 2c f3 5b 3e 32 d6 9a 3c
       0.09311987 -0.071748726 0.21479481 0.018900964
000230 2e 02 00 3e c3 d2 82 bd 4c 90 cf 3d 12 1c 9d bc
       0.12500831 -0.06387856 0.10134944 -0.019178424
000240 41 d5 bc ba 6b f6 b4 3e a2 f2 e9 3c 08 c2 43 3d
       -0.0014406816 0.35344252 0.02855808 0.047792464
000250 5c 89 4d bd 83 41 65 be b1 e0 0d 3e 57 e0 40 bd
       -0.050179824 -0.22388272 0.13855244 -0.047088947
000260 24 cc 92 3d b9 53 a3 bd 8f 0a 6e bd 89 f7 5f be
       0.07167843 -0.07974953 -0.05811554 -0.21871771
000270 5d b6 bd 3d e2 fa 73 be ae c5 a0 be 9e dd 0a 3e
       0.09263299 -0.23826173 -0.31400818 0.13561103
000280 eb 97 a4 3c e6 d5 85 bd d7 4c bc bd 10 68 ee bd
       0.020091971 -0.065349385 -0.091943435 -0.11640942
000290 a4 44 55 bd 26 59 b8 3e eb a3 64 be 4f 9c 98 3d
       -0.052067414 0.36005515 -0.22328155 0.074516885
0002a0 8f e0 7f bd 5f 07 25 bc 8b 9e 0d be 00 13 1d 3e
       -0.062470015 -0.010072558 -0.1383001 0.15339279
0002b0 b4 49 c9 3d 57 a8 3c bc 00 d5 f5 3d 9d 53 d9 3c
       0.09828511 -0.011514745 0.12003517 0.026529128
0002c0 0d 65 46 3e 88 6c 87 3d f2 be d2 3c ae 3e f1 3c
       0.19374485 0.066124976 0.025725815 0.029448833
0002d0 0d 74 83 3e 94 ed 96 bd 1c 96 07 3d 8e 11 43 be
       0.25674477 -0.07369533 0.03310214 -0.19049665
0002e0 86 76 b5 3d 4b 5b 56 3e a3 73 38 be 9d 1b 96 bd
       0.08860497 0.20933263 -0.18012862 -0.073294856
0002f0 86 f3 1d be 46 ca eb bd 99 b7 35 be ee ea ac 3d
       -0.15424928 -0.1151319 -0.17745818 0.08443247
000300 fb f8 86 bd ac 19 50 bd 0e 27 33 be 62 28 97 3c
       -0.06590458 -0.050805733 -0.17495367 0.018451873
000310 77 1b 60 bd 8f f7 16 be 3b 9e 7f 3e 77 b9 e0 3d
       -0.054713693 -0.14742874 0.24962704 0.109728746
000320 61 28 cc b9 09 dd 52 3d cb 3f 64 3e a9 11 b1 3d
       -0.00038939997 0.051480327 0.2228996 0.086459465
000330 e7 c3 8e 3d 83 c2 3b be cc 8c ba 3d b1 6a a4 be
       0.06970959 -0.18335919 0.09108886 -0.3211265
000340 be 13 17 3d 16 5c a4 bd 63 88 7f be f1 e4 a9 bd
       0.036884062 -0.080253765 -0.24954371 -0.0829562
000350 a7 f9 6b bd 86 12 5a bd 92 03 21 be 32 8e ee 3d
       -0.057611134 -0.05324032 -0.15724018 0.11648215
000360 02 aa 2f be 99 85 a6 3c 51 ca 9e be 72 d6 46 3e
       -0.17154697 0.020327376 -0.3101373 0.19417742
000370 b3 23 0f be 08 f9 42 3e c9 d4 d6 bd 2f e5 37 be
       -0.13978462 0.1904031 -0.10489804 -0.1795852
000380 a7 fa f6 3d bb 71 59 3e 3e 00 3b 3e e0 78 99 3d
       0.12059527 0.21234791 0.18261811 0.07493758
000390 3b f6 24 3e 57 5a 1b 3e 62 20 03 3e c1 34 a2 3d
       0.16109554 0.1517118 0.12805322 0.07920218
0003a0 fd 35 9b 3e 4e 50 89 3d 35 1b 3c 3c 48 d4 b3 3d
       0.30314627 0.0670477 0.011481096 0.08780724
0003b0 2c b7 41 be 6e 89 29 3d 9f d5 14 3d 1d 43 18 3b
       -0.18917531 0.04139083 0.036336537 0.0023233362
0003c0 e3 2e ac bd 6e 3e 08 be 25 b9 48 bd c4 a8 2b be
       -0.084073804 -0.13305065 -0.049004693 -0.16763598
0003d0 ec 6d 04 3d a6 39 d9 3c c4 54 0c be 20 9b a9 3b
       0.032331392 0.026516747 -0.1370421 0.005175963
0003e0 1f c7 29 bd 26 f7 76 be 07 22 b7 be 8f f6 e9 bd
       -0.041449662 -0.24117717 -0.35768148 -0.114239804
0003f0 6e a8 34 3d 5b 43 40 be 1c be a6 bb 09 6d 08 be
       0.04410594 -0.18775694 -0.005088581 -0.13322844

network_body._body_endoder.seq_layers.2.bias f4 [128]
000000 2c ed c3 3c bb e2 24 bc eb a3 2f 3d e0 33 aa 3b
       0.023916803 -0.010063822 0.042880934 0.0051941723
000010 4b a6 43 3b a9 21 fe 3b 5a 1b ec 3c a7 c8 e8 3c
       0.0029853757 0.0077554774 0.028821636 0.028415991
000020 e4 a9 80 bc 15 3e e0 bb 3c e7 18 3c ff ab c5 bc
       -0.01570601 -0.0068433383 0.009332474 -0.024129866
000030 d1 22 74 bc bc fa 92 bc 38 a0 b2 b9 af 09 e7 bb
       -0.014900879 -0.017941825 -0.00034070178 -0.007050715
000040 de 23 55 3c 55 6e c0 bc ca fd e2 3b 7a a6 99 bc
       0.01300904 -0.02349011 0.0069272267 -0.01875614
000050 e7 93 bb 3c a3 5b d9 3c 8e af 7c bc 31 c8 f3 bb
       0.022897674 0.026532954 -0.015422715 -0.007439636
000060 44 f5 1d 3b 5d d8 23 3c 3f 73 40 bb 2e 2a e2 3b
       0.0024102489 0.0100003155 -0.0029365567 0.006902001
000070 45 bf 48 3d 29 19 8f bc 7e 47 0e 3d fd b2 52 3d
       0.049010534 -0.017468052 0.03473615 0.051440228
000080 ef 85 e0 3c 6c 03 68 bc 9a a0 83 bc 1f 3f 3f ba
       0.027407615 -0.014160972 -0.016067792 -0.00072954776
000090 e5 b6 78 bc 8f 31 9c bb 98 f2 39 bc cc 75 45 bc
       -0.015180324 -0.00476665 -0.011349343 -0.012052011
0000a0 86 01 2f 3b de 5b f2 3a 1e 42 47 bc 94 49 0d 3c
       0.002670379 0.0018490513 -0.01216176 0.008623499
0000b0 a7 76 a8 bb f6 e0 95 3c 87 67 96 b7 ef 6f 8f bc
       -0.0051410976 0.018295746 -1.7929602e-05 -0.017509429
0000c0 b7 a8 1a bb 71 7f 8a 3c a4 d4 4c bc e1 79 3b bc
       -0.0023599097 0.016906472 -0.012501869 -0.011442632
0000d0 aa 7f 16 bc 57 2a f5 bb 0e d8 a4 3c 04 b2 f3 3b
       -0.009185711 -0.007481854 0.020122554 0.0074369926
0000e0 53 6a 32 3d 11 d4 9e bc 93 08 7a 3c 83 83 b3 3c
       0.04355843 -0.01938823 0.015260833 0.021913296
0000f0 e6 33 4e 3b 41 f9 84 3c 49 f0 16 3d 4c 5e 76 3b
       0.003146404 0.016232135 0.036850248 0.0037592826
000100 17 68 3f 3d dd b6 7e bc 62 72 1e bc a4 02 5a 39
       0.046730127 -0.015546528 -0.009670826 0.00020791084
000110 66 6a 87 bc 8c 72 7b 3c 1e a4 04 bc 75 52 28 3b
       -0.016530227 0.015347134 -0.008095769 0.0025683914
000120 2f ee 2d 3c 1c 7b 0e bc 30 76 7b 3b fc 2d 83 3c
       0.010615869 -0.008696344 0.0038370006 0.016013138
000130 0d ad d0 3a b3 25 79 bc 6a f8 80 3c 65 4d 3b bc
       0.0015920714 -0.015206742 0.015743453 -0.0114320265
000140 0e ad a8 bc 61 f6 fd 3b ec af 79 bc a3 41 a6 bb
       -0.020590331 0.007750318 -0.015239697 -0.0050737425
000150 93 7a 8f 3b 24 0b 45 bc 58 7e c7 3c 2b 6c ba 3c
       0.0043786257 -0.012026582 0.024352238 0.022756657
000160 42 45 c8 b8 96 f5 ad bb 29 b7 29 3b 15 2a a7 bc
       -9.5496434e-05 -0.005308817 0.0025896525 -0.020405808
000170 f6 18 18 3d 5a 14 a3 3b 99 a9 ca 3c 33 d2 8b ba
       0.03713318 0.0049767913 0.024739074 -0.0010667503
000180 e8 81 c4 3b bd 84 0d bc 59 81 8f bc 9d 8b f7 3c
       0.0059969313 -0.008637604 -0.017517732 0.03021794
000190 3b 04 aa 3c eb e1 f3 3a a9 d9 74 3b 2d 63 54 3b
       0.02075397 0.0018606758 0.003736118 0.0032407746
0001a0 a0 e4 8a bc 2e d1 76 3b 44 2e 51 bc 71 2f 78 bc
       -0.01695472 0.0037661302 -0.012767378 -0.01514803
0001b0 a6 ab 34 3d 36 cb db 3a ef 89 cd 3c ae 0c c5 3c
       0.04410901 0.0016768936 0.025090186 0.024053898
0001c0 c6 bc 38 3b 2d ea e2 3b 7a fb 6f bb cb 2c 8d 3c
       0.002818869 0.0069248886 -0.0036618398 0.017233273
0001d0 68 55 5f 3b 5f 73 22 bd 13 2d 42 bb 59 19 c7 bb
       0.0034078006 -0.039660808 -0.0029628917 -0.0060760197
0001e0 a7 89 f5 3b 20 fa 13 bc 72 33 7e 3b 7d 1c c2 3b
       0.007493216 -0.009031802 0.0038787988 0.005923806
0001f0 7b 45 56 3b a8 1f 9f 3a bf e4 32 bc d3 db 63 bc
       0.0032695222 0.0012140172 -0.010918795 -0.013907391

network_body._body_endoder.seq_layers.2.weight f4 [128, 128]
000000 af b1 89 bd d8 05 53 bb 0e cf 76 bc 49 37 94 3d
       -0.067233436 -0.0032199528 -0.015064014 0.07237107
000010 c8 f5 b2 3c d5 b0 cd 3c 50 06 dc 3d 32 80 d1 3d
       0.021845713 0.025108734 0.107433915 0.102295294
000020 2c 85 13 bc 41 98 8d 3d e6 c0 95 be 1a ca 5f 3d
       -0.009003919 0.06913806 -0.29248732 0.0546361
000030 29 66 31 bd aa cc ee 3d 93 10 81 be a4 16 39 3d
       -0.04331032 0.1166013 -0.25207958 0.045187607
000040 43 58 88 3d 5a e0 f4 3d b8 9d e2 bb c8 91 36 3d
       0.066574596 0.11956854 -0.006915774 0.04457262
000050 85 0b 14 bc 1f 5f 32 bd d0 c1 bc bc 51 e7 de 3c
       -0.00903595 -0.043547746 -0.023041636 0.02720991
000060 99 d5 1d 3e 06 ac ec 3d 33 c8 67 3d 7f ba 64 3d
       0.15413512 0.11556248 0.05658741 0.05584192
000070 c3 c4 2d bd 39 2f cd 3d c6 02 76 bd d2 7e c0 bd
       -0.042423975 0.10018773 -0.06006124 -0.09399189
000080 c1 84 e4 bd db 62 5f 3a cf 00 06 bc 66 21 22 be
       -0.11158133 0.00085215055 -0.008178904 -0.15833053
000090 98 d4 b5 bd 41 6a 25 bd 3f da 13 bd 4d fb 37 be
       -0.0887844 -0.040384535 -0.036096808 -0.17966957
0000a0 f1 15 f3 3d f6 c9 bd bd 73 4a 4f 3d 76 25 44 be
       0.11869419 -0.092670366 0.05060811 -0.19154915
0000b0 68 b0 a5 bd da 2d d0 3d 14 a1 b9 3d d5 a9 24 bd
       -0.080902874 0.101649955 0.09063926 -0.040201027
0000c0 3b 8e 9f bd 9a dc bf 3d 9f af 1f be 1b 64 bb bd
       -0.077908 0.09368248 -0.15594338 -0.09149953
0000d0 52 06 ad bc de 87 89 bc 8e 9c 01 be b6 de d0 bb
       -0.021121178 -0.01678842 -0.12657377 -0.0063742055
0000e0 2f 7d b8 3c 43 d3 0a be 12 04 99 bc b3 74 8b be
       0.02252063 -0.13557152 -0.018678699 -0.27237472
0000f0 0b 94 05 3d d5 3b 59 bd 89 6d f8 3c 41 77 0d be
       0.032611888 -0.053035576 0.030325668 -0.13815023
000100 61 aa 10 bd de d4 4f 3d 35 53 1e be 4f 9b b6 3c
       -0.035318736 0.050740115 -0.15461428 0.022290854
000110 a2 3e 9e 3d 80 6c 92 3d da 37 12 bd 2f 67 04 be
       0.0772679 0.07149601 -0.035697795 -0.12929986
000120 9e 40 2f 3d aa 43 c3 bd 1a 24 84 3c a9 21 8d 3d
       0.042786233 -0.0953439 0.016130496 0.06891186
000130 28 ef 8c bd 79 fa 9e bc 05 0e 03 bd 5d 04 99 bd
       -0.06881553 -0.019406544 -0.031995792 -0.07471535
000140 11 fe b1 bc 1f 3e f6 bd 3c 58 d5 3c a8 ea 0b bd
       -0.021727594 -0.120235674 0.02604305 -0.034159333
000150 ef ca 2a 3d 1a 6f 85 3d 63 23 17 3d 88 d0 e8 3b
       0.04169744 0.065153316 0.03689898 0.007104937
000160 e3 fa cf bd f3 e0 de 3c 82 d0 67 bd 71 38 45 bd
       -0.10155275 0.027206874 -0.056595333 -0.04814953
000170 2b d6 c7 3d 79 27 8f bd 40 ee ab 3d 29 19 ce 3d
       0.09757646 -0.06989951 0.08395052 0.10063393
000180 e8 92 c8 3d 60 c7 9e 3d 1a a1 02 be 29 ba ee bd
       0.09793645 0.077528715 -0.12756768 -0.11656601
000190 cd ec c6 bd 22 fb 28 3d be 37 f0 3c 8c a4 4c 3d
       -0.09713135 0.041255124 0.029323455 0.04996161
0001a0 13 55 b3 3c 4c 7f 5c 3d 63 e9 a4 bd 71 61 70 3d
       0.021891152 0.053832337 -0.080523275 0.058686677
0001b0 30 53 d0 bd 41 a9 03 be 29 ee 4c 3e ec bb 63 bd
       -0.10172117 -0.12857534 0.20012726 -0.05559914
0001c0 ca 47 b5 bd 2c c2 bf 3c 17 35 79 3d 8b c2 bf bd
       -0.08851583 0.023408018 0.060841646 -0.09363278
0001d0 13 0f f3 3d ad a1 64 bd 46 e6 53 3e c7 08 db bd
       0.118681096 -0.05581825 0.20693311 -0.106950335
0001e0 35 d6 21 be 94 f5 20 be 32 12 06 be 02 b4 14 be
       -0.1580437 -0.1571868 -0.13092878 -0.14521793
0001f0 8d 2d 81 3c f1 cb c0 bb 9e b1 ad bd f4 d4 1f 3e
       0.01576879 -0.0058836867 -0.084811434 0.15608579
000200 86 bc dd bb d3 4f af 3d a1 67 0e be c9 b1 ca 3c
       -0.0067668585 0.08560147 -0.13906719 0.024742978
000210 ea 45 90 3d 2d fe 40 bd 7f 85 4c be 59 80 1e 3d
       0.07044585 -0.0471174 -0.199728 0.03869662
000220 85 47 2f bd 9f f1 af 3d 5c 39 63 3e 18 be d6 3c
       -0.042792816 0.085910074 0.2218985 0.02621369
000230 b4 6c c8 bc f7 d5 21 3e 88 80 a8 bd 76 c6 12 bd
       -0.024465896 0.15804277 -0.082276404 -0.0358338
000240 5a 23 0d bd 89 f0 1b bd 29 ff 3f bd 43 c1 65 be
       -0.034457542 -0.03807119 -0.0468742 -0.22437005
000250 87 ab f2 3d 8f 77 43 3c 52 22 eb bd 9c f8 16 bd
       0.118491225 0.01193036 -0.114811555 -0.036858186
000260 8d 7c 00 3e 6f 32 51 bd 76 41 c7 bc c2 82 fa 3d
       0.12547512 -0.051073488 -0.024323206 0.12231971
000270 0f 52 83 ba d4 a7 f5 bd d2 a5 f3 3d a7 7b 2c 3d
       -0.0010018962 -0.11994901 0.11896862 0.04211011
000280 c1 39 0c 3d 67 31 d9 3c c1 69 af 3d 93 8b df bd
       0.034234766 0.026512815 0.08565093 -0.109152935
000290 4b c0 9f 3d 16 13 12 3e ee 50 83 3e fc d2 7f bd
       0.07800349 0.14265093 0.25647682 -0.06245707
0002a0 99 98 dd bd e8 20 29 be 81 7d a8 bd 3f 9c af bb
       -0.10820121 -0.16516459 -0.08227063 -0.005359202
0002b0 fc 53 e4 bd c6 c8 ee 3d 5c 93 bb bd 11 e1 d8 3c
       -0.11148831 0.11659388 -0.09158966 0.026474508
0002c0 5c 98 10 3d 53 de 87 3c ef f4 1f bd 1a 0e 4b 3e
       0.03530155 0.016585505 -0.039051946 0.19829598
0002d0 89 dd 0c 3d 54 a9 c1 3d 85 85 83 bd d1 4d 8c bc
       0.03439096 0.09456125 -0.06421951 -0.01712695
0002e0 b8 ed 16 bd 4b ce 41 3e ed 1a bf 3d 4c 56 ed bd
       -0.0368478 0.18926351 0.093313076 -0.115887254
0002f0 a7 5c cc bc d9 84 e4 bd d1 c9 58 3c e2 2f 5e bd
       -0.024946524 -0.11158151 0.0132317105 -0.054244883
000300 76 74 28 bd 63 8e e4 bb 9f 76 9d bc 44 29 38 bd
       -0.04112669 -0.0069749816 -0.019221602 -0.04496123
000310 11 97 15 be 09 d9 4a bd f6 02 15 3d cc a2 31 3c
       -0.14608409 -0.049523387 0.036379777 0.010842036
000320 9b d4 36 bd 3d cb 4d bd af cc 8f 3c 65 4b ae 3d
       -0.04463635 -0.05024265 0.017553655 0.08510474
000330 ec b8 0e 3e 9a ae 11 3d af c4 51 be 58 23 e0 3d
       0.1393773 0.035566904 -0.20485185 0.10944241
000340 59 93 9a bd fc 4a 25 be 2b ba fc 3d c0 c9 09 be
       -0.075476356 -0.16141886 0.12340196 -0.13455868
000350 9e 13 63 3b db b7 92 bd 89 40 50 3d 20 37 9c bd
       0.0034649144 -0.07163974 0.050842796 -0.07627702
000360 6b 85 d0 3d 7e ff d4 3c 6a d2 76 bd e8 b5 2b 3b
       0.101816975 0.026000734 -0.06025926 0.0026200954
000370 6a 64 22 3e 48 0f c1 bc 1a 3f 72 3e 99 3a b0 bd
       0.15858617 -0.023566857 0.23656884 -0.086049266
000380 8e 27 9f 3d cd 4d 9a bb 49 c4 ab bd 1b 73 be 3c
       0.07771216 -0.0047089816 -0.08387048 0.023248246
000390 81 5e b5 3d 0a 60 44 bd 70 33 58 3d 01 8d 5e bd
       0.08855916 -0.047943152 0.05278343 -0.05433369
0003a0 4e 4b b7 bd 4b 2b d3 3d 2b 97 0a be 4d 37 01 bd
       -0.0894991 0.10310992 -0.13534229 -0.03154688
0003b0 b6 a8 96 bc 9b e0 dd 3c 09 3d a8 bc 33 59 ae bd
       -0.018390995 0.02708464 -0.020536916 -0.08513107
0003c0 16 97 f3 3d 2c 26 0d be 89 aa 9e 3d 12 b3 9b bd
       0.11894052 -0.13784093 0.07747371 -0.07602514
0003d0 2d bb de 3d 6c 62 4d 3d d4 d3 bf bc 1f eb ae bd
       0.10875545 0.05014269 -0.023416437 -0.085409395
0003e0 9b 25 0e be 3c e1 a6 3c 25 b0 83 bd cd c2 96 3c
       -0.13881533 0.020371072 -0.06430081 0.018403435
0003f0 85 dd e7 3c 4b 23 f0 3d e4 81 51 bc 8e a0 75 bd
       0.02830387 0.117254816 -0.012787316 -0.05996757
