Maize-Runner/results/MazeRunnerRewards2/EscapeMaze.onnx (onnx, 200372 bytes, 9 tensors)

action_model._continuous_distribution.log_sigma f4 [1, 2]
00000000: 8bed a6be ebf5 86be
-0.32603106 -0.26359496

action_model._continuous_distribution.mu.bias f4 [2]
00000000: bbe6 00b9 e35a 133c
-0.00012292985 0.008993837

action_model._continuous_distribution.mu.weight f4 [2, 128]
00000000: 54f5 9fbb 1a7e 823a 741d efb9 500c 9b3c
00000010: 1ee4 1a3c 2f41 e5b9 faa0 9e3b f548 01bd
00000020: 5625 f7b9 f896 c93b adf7 bcbb 84dc baba
00000030: 4715 a93d 88f6 b8bd ba87 0a3b 2076 8bbc
00000040: 96dc b03b 3c44 3cbd 6460 f8bb 44ed ea3a
00000050: ca39 893b 86ef 68bb 11c7 adbd e542 6abd
00000060: 47d5 a3ba ebff 223a aa76 8c3b d8b7 9839
00000070: 9ea0 b63c 87a5 573b 7770 533b da3f 853a
00000080: 5f26 a4bb 0783 1f3c d78a b73d a9b5 113b
00000090: dff4 1f3b 1bbb 953c 8275 323b 1cbe b5bb
000000a0: 048c 3c3b ac7e d33b 94b7 d43a a381 2fba
000000b0: b23e 823b bdff 623b 2fe0 653b 15dd 2a3c
000000c0: 3eda 023b b817 3538 d04e 1abe fb1e 90bb
000000d0: e4f4 823b fc7e 0abe ad20 a8bb 5eab 54ba
000000e0: 7798 e53a 85f4 113b e1d2 803a a516 adbd
000000f0: 7116 84bb 62d7 c739 f9b8 953b 39c6 4ebb
00000100: 6201 e23b 01b2 393d 6c9a ed3a 5944 32bb
00000110: 3bbf 7cbb c89f b03b 5cff 78bb 8041 2b3b
00000120: c142 a9ba f0c7 35bb 9a2d e9ba c6a6 193d
00000130: 98c6 653d 5f56 903d 0ee3 79bc 0114 5cbb
00000140: 499f 20bb 653f c13d 95a6 e43b 6a82 55bb
00000150: 1d77 6c39 cbe1 893c 6c1a 6f3a 6ffb 433b
00000160: aae3 1a3b 3a69 96bb 99bd 9cb9 91cf 8d3b
00000170: 8403 4ebb a4d3 84bd ee25 a7ba 883c 9dba
00000180: 47c2 0e3b b4e5 c3bb 6b53 adba eb89 e43b
00000190: b78b 0dbb ed08 db3b 501e 6dbb 9cc0 79bd
000001a0: b2c1 5bbc cb61 553c 8fe4 04bd c75c 6cbd
000001b0: 658e cebb 040e 3b39 330b 9ab9 549a 813b
000001c0: dbbc 633b 3733 983a e8d4 973b 6185 193d
000001d0: 852f 89bd 8c68 803d 9702 683a a68e 413d
000001e0: f546 89bd 8889 f93c f52b 3a3b 04dc a0bd
000001f0: 33f9 a03b 707a 1cbe 258e 9e3a d83e 11be
00000200: b94b 1b3b 38cc 90ba c5a2 103c e06f 0e3c
00000210: cb81 1e3c 679f d2ba 4092 323a d80e 77bd
00000220: 7731 bb38 ee80 343b 4590 0ebc ecbc d839
00000230: b632 a1bd db99 273c 34c9 d5ba b4e2 84bd
00000240: 3c69 9b3a 999b 6c3d 4723 c3bb d59b c33a
00000250: b80e 093c 0ff7 22bb f7c8 07bd 04d9 a23d
00000260: 6340 b43b 6a5a 263b e0a4 253b d4ec d6bb
00000270: 6832 003d ce75 2d3c 09f4 51bb 9ff4 9b3a
00000280: 5c40 1dbb a381 063c 8d4e d23b 5ffc debb
00000290: 5af6 48ba 55c2 3b3c a434 4a3b f05e 25bc
000002a0: 4434 b6ba 7858 e839 ad06 793b ddd3 d83a
000002b0: bfc1 1039 48c3 8cbb 72ed cd3b 471f 05bd
000002c0: e60a 4cbb ebed 253a c07c 043c 9271 f3b9
000002d0: 5ad9 943a a523 ddbc c393 b8bb 17b4 9d39
000002e0: 67a6 dabb 968b 31bb 057b bebb 4777 06be
000002f0: c604 c0bb 0b2d 72ba 4a8a d13a b975 b2bb
00000300: b74a bd3a deb8 683d 613a 773a 6f29 813d
00000310: 342c c7bb b26d fdba abbe 68bb c4bd a73a
00000320: cbae 7a3b 8f61 0db9 3ebc 32bd 415a 853d
00000330: 47f9 0abc 7a8e adb9 b753 00bd d189 173b
00000340: d29b bcba fabd 92bd 5c71 853d 2427 a43b
00000350: 1ef1 eaba 4677 863d 9a95 1fbb d717 96bb
00000360: 5511 27b9 cc06 983b 3746 603b c06f e43b
00000370: ecd3 80bb acac 6fbd 26c8 c83b da06 16bb
00000380: 467c 023b bfd2 77ba 7ef2 c93a 0b46 07bd
00000390: be80 52bb 8668 1bbb 6b69 3e3a 34a9 833d
000003a0: 5b17 823d f3e1 8c3d 3566 13bd 2182 0f3e
000003b0: a429 44bc dec5 6ebb c0a1 093a a232 d238
000003c0: 7271 083b 8c4b 74bb 303f 923b e339 38bc
000003d0: e288 973b a674 413d f7b5 9fb9 70a5 89bd
000003e0: 5ae8 a9bd aca5 c739 245f d43b 6b7a 2bbd
000003f0: 85d8 a33b 5121 be3b 3a4e 983a dd4e 7f3d
-0.0048815403 0.0009955794 -0.00045607577 0.01892677 0.009453801 -0.0004372685 0.0048409672 -0.031563718
-0.0004713933 0.00615203 -0.00576683 -0.0014256393 0.082560115 -0.09031397 0.0021138028 -0.0170241
0.0053973896 -0.04596351 -0.00757985 0.0017923494 0.004187797 -0.0035543158 -0.084852345 -0.0571927
-0.0012499475 0.00062179443 0.004286607 0.00029128673 0.022293385 0.0032905058 0.003226308 0.0010166124
-0.005009457 0.009735829 0.089620285 0.0022233522 0.002440743 0.018277695 0.0027230685 -0.0055463444
0.002876998 0.0064543094 0.0016229027 -0.00066950376 0.003974759 0.0034637295 0.003507625 0.010428687
0.0019966508 4.3175853e-05 -0.15069127 -0.0043982244 0.0039964784 -0.13525003 -0.0051308484 -0.0008112694
0.0017516752 0.002227099 0.0009828472 -0.08451585 -0.0040309955 0.0003811671 0.0045691696 -0.0031551255
0.0068971375 0.045335773 0.0018127686 -0.0027201383 -0.003856613 0.005390141 -0.0037994003 0.002613157
-0.0012913571 -0.002773758 -0.001779008 0.037512563 0.056097597 0.07047724 -0.015251888 -0.003358126
-0.0024509004 0.0943592 0.006977866 -0.0032578954 0.00022551087 0.0168313 0.00091210636 0.0029904505
0.0023634234 -0.0045901807 -0.000298959 0.0043277224 -0.00314352 -0.0648568 -0.0012752393 -0.0011996189
0.0021783279 -0.0059783105 -0.0013223713 0.006974449 -0.002159817 0.0066844136 -0.0036181398 -0.060974702
-0.01341288 0.013023804 -0.032444533 -0.057705667 -0.006303596 0.00017838931 -0.00029381513 0.003955165
0.0034750018 0.0011611943 0.0046335347 0.037480716 -0.06698517 0.06269941 0.00088504836 0.04725518
-0.06702987 0.030461088 0.0028407548 -0.07854465 0.0049125194 -0.15281081 0.0012096806 -0.14184129
0.0023696257 -0.001104719 0.00882787 0.008693665 0.0096745 -0.0016069234 0.0006811954 -0.06031689
8.9260684e-05 0.0027542668 -0.008701389 0.00041339488 -0.078710005 0.010229553 -0.0016310574 -0.06488553
0.0011856924 0.057765577 -0.005955133 0.0014923761 0.008365326 -0.0024866497 -0.03315064 0.07951549
0.0055008396 0.002538348 0.0025275275 -0.006558994 0.03129807 0.010587169 -0.0032036325 0.0011898464
-0.002399466 0.008209619 0.0064180554 -0.0068049873 -0.0007666104 0.011459907 0.003085413 -0.010093436
-0.0013901074 0.00044316403 0.0037998364 0.0016542632 0.00013805086 -0.0042957403 0.006284409 -0.03250053
-0.0031134426 0.0006329703 0.008086383 -0.00046433188 0.001135628 -0.026994536 -0.005632849 0.0003007955
-0.0066726687 -0.0027091256 -0.005813005 -0.13131438 -0.005859944 -0.00092382793 0.0015986648 -0.0054461625
0.0014441822 0.056816928 0.00094310014 0.06306731 -0.0060782675 -0.001933506 -0.0035514038 0.0012797643
0.0038251157 -0.00013483151 -0.043636553 0.06511355 -0.008482284 -0.00033103285 -0.031329837 0.0023122916
-0.00143897 -0.071651414 0.06515762 0.0050095487 -0.0017924642 0.06565718 -0.0024350644 -0.0045804786
-0.00015932818 0.004639482 0.0034221539 0.0069713295 -0.003931513 -0.058514282 0.006127375 -0.0022892267
0.0019910499 -0.0009453706 0.0015407351 -0.033025783 -0.0032120193 -0.0023713424 0.00072636333 0.06428757
0.06352111 0.06879034 -0.035986144 0.14014484 -0.0119728185 -0.0036433856 0.0005250238 0.000100230114
0.0020819572 -0.0037276475 0.004463099 -0.01124427 0.004624472 0.047230385 -0.00030462418 -0.06721008
-0.08296271 0.00038079673 0.006481068 -0.041864794 0.0050001764 0.0058023115 0.0011619993 0.06233107

network_body._body_endoder.seq_layers.0.bias f4 [128]
00000000: 01d8 4bbd 76e6 393b fa13 afbd 8791 c3bb
00000010: e18a 01bb e448 2abd ddd7 7c3d 3eaa 70bd
00000020: 9619 cbbc 6abe 253d c990 b2bc c090 21bd
00000030: afab 98ba 3122 623c 7583 f5bb 80de 31bc
00000040: 23da 103d 6fe5 2b3c 45f8 6bbd 9ce2 d0ba
00000050: 58a3 523c 55a2 27bd bcf3 953c dcf4 90bc
00000060: a5ba 23be 06fe 873d 6c1b 9e3c 7bf8 68bd
00000070: af28 863d 292f 03bd 459d c6bc 54dd 27bc
00000080: f5d5 a8bb e3d1 2f3d 73b2 05bb 025c 2cbc
00000090: 2d46 a63c e1cb 0fbc f6b5 dd3b ab83 9c3b
000000a0: 736c 1abc 3666 81bd 05ee 50bd cd04 c9bb
000000b0: 74e6 1abc b0e8 35bc b2e2 d5bc a53c f73c
000000c0: 0058 03bc 6eee 8fbd 81c1 87bd 006b 72bd
000000d0: 6170 3dbd d9eb b0bc e7e9 69bc fb9e 063c
000000e0: c9f8 1d3c 9858 4b3d 277f 66bd 24da ddbb
000000f0: c4be ab3c 3bdf 813c 2b99 95b9 b8f4 353d
00000100: 479e 003d 7bd1 e83c ede1 6cbc fd0d a9bc
00000110: fcfa 0abd 1c02 84bc dd04 33bd 1e24 41bd
00000120: b4f5 d4bc 9bc4 20bc c1a2 40bd 1d46 093d
00000130: 9f2e 083d 7e6e 5cbd edd7 b33c 1d7c 083d
00000140: 1ba5 12bd 2860 b7bd 2c23 d8bc 5d2f ad3a
00000150: 6bb7 c63c 0596 1bbd 8de9 72bd 3a02 fcba
00000160: a197 fe3c 432a 31bd 65e4 81bd 511c ef3c
00000170: b233 8339 3447 eb3b 51a1 19bd 6852 b3bc
00000180: 1a91 abbc 3a11 843c 2665 ed3c d247 6bbd
00000190: 2e80 363c 8131 ea3c 8e3a abbc c670 28bd
000001a0: 891d 643b 735f 06bc a631 47bb 18d8 ca3c
000001b0: 6878 c0bc 21f3 2bbd 74e9 66bc 7ffd f2bd
000001c0: d3d4 abbc 068a eebc a815 bbbc f8e2 0c3d
000001d0: 345c 0c3c 02ef 9b3c 2bec 91bd 1215 80bd
000001e0: 62c9 a03c faa1 8bbc afbf 9fbc 666a 95bd
000001f0: cf38 093d c277 77bc d865 ea3c ae60 55bd
-0.049766544 0.0028366125 -0.08548732 -0.005968276 -0.0019766616 -0.04157342 0.0617293 -0.058756106
-0.024792474 0.040464796 -0.021797555 -0.039444685 -0.0011647845 0.013802097 -0.0074924775 -0.010856271
0.03536428 0.010491713 -0.057609815 -0.0015936675 0.012856327 -0.040926296 0.018304698 -0.017694883
-0.15989168 0.06640248 0.019300185 -0.056877594 0.065507285 -0.032027397 -0.024244914 -0.01024564
-0.005152459 0.042924773 -0.0020400553 -0.010519983 0.020297134 -0.008776636 0.006766076 0.004776438
-0.00942527 -0.06318323 -0.051008243 -0.0061346055 -0.009454358 -0.01110284 -0.026109073 0.030180285
-0.008016586 -0.07027899 -0.06628705 -0.059184074 -0.04624975 -0.021596836 -0.014276958 0.008216615
0.009641835 0.049645036 -0.056273606 -0.006770389 0.020964988 0.015853515 -0.00028533614 0.044422835
0.031400945 0.0284202 -0.014458162 -0.020636553 -0.033930764 -0.016114287 -0.04370581 -0.047153585
-0.025996067 -0.009812499 -0.047030214 0.03351413 0.033247586 -0.05381631 0.021953547 0.03332149
-0.035801988 -0.08953887 -0.026383959 0.0013212968 0.024257382 -0.037984867 -0.059304763 -0.0019226738
0.031078162 -0.043253195 -0.06342391 0.029188307 0.00025024783 0.007180119 -0.03750736 -0.02188988
-0.020943213 0.016121496 0.028978895 -0.05744154 0.011138959 0.028588058 -0.020901944 -0.041123174
0.0034807643 -0.008201468 -0.0030394583 0.024761245 -0.023494914 -0.041979913 -0.0140937455 -0.11864757
-0.020975506 -0.02911855 -0.022837475 0.03439614 0.008566905 0.019034866 -0.071251236 -0.06254019
0.019627277 -0.01704501 -0.019500582 -0.072956845 0.033501443 -0.015104236 0.028613016 -0.052094154

network_body._body_endoder.seq_layers.0.weight f4 [128, 126]
00000000: 7590 0abe f848 2b3d 56f5 823c 8c89 933d
00000010: fbce d0bd 885f 4cbe f012 783d f41b 46be
00000020: c0ac 9fbe 5018 bcbd f37e c3bd 9580 35be
00000030: 9c7e cdbc 8220 51be 911d 31be bd3b ef3c
00000040: dbd8 29be a659 453e d49e 0abe ad74 96be
00000050: 1f24 b4be de70 803d 20e5 a5bd da81 4fbd
00000060: e0cf acbd d2a1 4d3e 9fa3 2abe 247a 48be
00000070: d933 e63d 1ffe 4cbe 0b36 b5be be1a 3abd
00000080: ccb2 61bd ae20 873d f4a5 f1bd a2f2 2ebe
00000090: c0fb e6bc 3032 4f3e 015d 4c3d 272b 923b
000000a0: 756f a43d cb06 6fbd f42d 463e d414 173e
000000b0: 85e8 903c 7919 283e 5ece 91bd 29e7 e2bd
000000c0: 5595 0dbe c6af 02be c134 0c3e d19c 8ebe
000000d0: 6b65 413e 220f 5bbe 5e97 123e 9e1a e23d
000000e0: 1232 b0bc ddbc cdbd 2993 e6bd b0ca 42bd
000000f0: 80a8 d23d c42c 0bbe 547e 243e adc1 42bd
00000100: ef93 cdbc 12ac 3fbe 3330 ec3c e806 2bbe
00000110: b8a1 f5bd 13ed 033d 51e2 93be e8a5 77be
00000120: 4d0e 4ebe 2260 a5bd f39f afbd ce41 05be
00000130: d179 33be 84c7 91be d2bf 3fbe 35d5 0c3d
00000140: 1b9c 32be 0dcf 0c3e 716a 123d 03f1 bc3a
00000150: ffc3 20bd c68d 213c 089c 893e c3e2 b93b
00000160: 59cb 4fbe f55c d1bc 3369 fa3c 35f0 1bbe
00000170: f26e 8c3c 6dbe 4dbc 707f 75bc 38f3 f7bd
00000180: 6aa7 38be d91c 0dbe 0820 453d ac59 de3d
00000190: ec23 7abc 1221 0f3d b45a 5d3e 8392 0fbe
000001a0: f652 a1bd c5a4 993d d7a2 9f3d e3cc 0f3d
000001b0: c8e4 9b3e 6a5b 93bd 8865 49bd 5eba f53e
000001c0: 7f35 633e 4a5c 5f3d abf7 95bd a024 6bbd
000001d0: 0519 31bd 8e40 06be 163b 893e 56b1 f9bd
000001e0: 2137 3b3d 9d59 dd3d 5a88 63be ed38 c8bd
000001f0: 973f 40be 8fa6 9abd a876 483e 463c 493d
00000200: 4ec2 04bd 5acf f3bc a56c 1a3d f2a7 1d3e
00000210: 5518 eebd d7ca efbd 44f7 4f3d c228 c43c
00000220: 56b3 aabd 6e15 5fbd 69b8 973d 539e a53c
00000230: d8c1 abbb 48e7 2dbe fc1b 95bc 9c9c dfbd
00000240: ff21 a3bd 95c5 04be e5bb a43d 3890 293d
00000250: 16df 773c 33ed 1d3d 5c36 303e 7e3e 43be
00000260: c9a9 e5bd c02a 84bd ceac f6bb 46f7 29be
00000270: d80e 823d f86a fb3c fec3 81bc c4db 0cbc
00000280: 35f8 08be a9ee 1bbd 3b61 473e 77a5 1dbe
00000290: 3294 cabe 6344 efbd 7b9a 2ebe c41d dbba
000002a0: 0201 523d 1a4b b8bd 140d 21be f12f a3bd
000002b0: d753 383e ba54 843d 5bdb d0be b4c5 5abe
000002c0: 234d 833d 1834 c23d 8d86 693d cc6e 6f3c
000002d0: 2f5b 96bd bbb7 e43d 1666 063d 5ba0 6cbd
000002e0: 35ea 9abe 6c05 03be 075f f03d 76ca 3cba
000002f0: 206d 12bd da2a 4abe 5af6 3dbe 1cf7 6fbe
00000300: b3a4 58be 5e3f 07be fe83 a6bd 05e4 2d3c
00000310: d450 c7bc e08a dc3d a715 173e 7a0d a73d
00000320: 1c4b 0ebe 5b42 86bd f51c 813e 1fbe c8be
00000330: 258b 653e 1d39 b1bc b83a 1a3d 25ef abbd
00000340: 73e6 20be 9fc6 acbe 5bfd 413e f00e e3bd
00000350: a926 22be 0339 bdbd a7f6 38bd f980 4ebe
00000360: 26ed d9bc 5d29 0c3e e07e 28be cbd1 7fbd
00000370: 17b0 043c 92ee fabd 0603 96bd c101 a43c
00000380: 9164 63be 340c bfbe 196e 3c3d 2473 bcbd
00000390: ab16 80bd 3eb0 8bbc 7d3f d3bd 6893 0abe
000003a0: 3d46 883d 0a21 f5bc 2b1b 8c3d 42de 0ebd
000003b0: 349a 14be 2242 c4bd a5db abbd 4a04 18be
000003c0: ac86 963e f734 393e 74c3 31be c407 013e
000003d0: 52fe 65bd 580a 823d ad58 643e d7bc ee3d
000003e0: ee8e d4be ef47 513e a8fa 0a3e 6417 cb3e
000003f0: ab20 e73d f33f cabd 4051 0bbd 72a4 dcbd
-0.13531668 0.041817635 0.015986126 0.07203969 -0.101957284 -0.19958317 0.060564935 -0.19346601
-0.31186485 -0.09184325 -0.09545698 -0.17724831 -0.025084786 -0.20422557 -0.17296435 0.02920329
-0.1658663 0.1927248 -0.1353715 -0.29385892 -0.35183808 0.06271528 -0.08100343 -0.050660945
-0.084380865 0.20081261 -0.16663979 -0.19577843 0.11240358 -0.20018815 -0.35392794 -0.04543566
-0.055102155 0.0659803 -0.11799231 -0.17084745 -0.028196216 0.20233989 0.049893383 0.0044607106
0.08029071 -0.058356088 0.19353467 0.14754039 0.017688999 0.16415967 -0.071194395 -0.110792466
-0.13826497 -0.12762365 0.13691999 -0.27854016 0.18886344 -0.21392491 0.14315554 0.11040233
-0.02150825 -0.100457884 -0.11258537 -0.04755658 0.10286045 -0.13591295 0.16063815 -0.047547985
-0.025094954 -0.18717983 0.028831577 -0.16701853 -0.11993736 0.032208513 -0.28883603 -0.24184382
-0.20122643 -0.080749765 -0.0857543 -0.13013384 -0.17526938 -0.2847253 -0.18725517 0.034383018
-0.17442362 0.13750859 0.03574604 0.0014415089 -0.039249416 0.009860462 0.26876855 0.005672784
-0.20292415 -0.02555702 0.030567741 -0.1522835 0.017142747 -0.012557608 -0.014983997 -0.12106937
-0.18032613 -0.13780536 0.04812625 0.10856947 -0.0152673535 0.034943648 0.21616632 -0.14020734
-0.07877152 0.075021304 0.07794731 0.035107505 0.30447984 -0.0719517 -0.049169093 0.4799375
0.22188376 0.054531373 -0.073226295 -0.057407975 -0.04323675 -0.13110563 0.26802891 -0.12192027
0.045706872 0.10808108 -0.22219983 -0.09776483 -0.18774258 -0.075513 0.19576514 0.049129747
-0.032411866 -0.029761959 0.037701268 0.15396097 -0.11625735 -0.117086105 0.05077292 0.023945216
-0.08334987 -0.054463796 0.0740822 0.020217096 -0.005241614 -0.16982758 -0.01820182 -0.10918543
-0.079654686 -0.12965997 0.080436505 0.041397303 0.015128871 0.03855629 0.17208236 -0.19066808
-0.112140246 -0.064534664 -0.007527924 -0.16598234 0.063504875 0.030690655 -0.015840527 -0.008597318
-0.13375933 -0.0380694 0.19470684 -0.15395151 -0.3956619 -0.116829656 -0.17051117 -0.0016717245
0.051270492 -0.089986995 -0.15727645 -0.079681285 0.18000732 0.06461473 -0.40792355 -0.2136448
0.06411197 0.09482592 0.057013083 0.014613818 -0.07341611 0.11167856 0.0328122 -0.057770114
-0.3025681 -0.12795037 0.11736875 -0.00072018 -0.0357486 -0.19742909 -0.18551007 -0.23434108
-0.21156578 -0.13207766 -0.08130644 0.010613446 -0.024330534 0.10768676 0.14754353 0.08156867
-0.1389584 -0.06555625 0.25217405 -0.3920755 0.2241636 -0.021633679 0.037653655 -0.083952226
-0.1571291 -0.33745286 0.18944304 -0.110868335 -0.1583506 -0.0923939 -0.0451571 -0.20166387
-0.026602339 0.13687654 -0.16454649 -0.062455934 0.008098624 -0.12252535 -0.073247954 0.020020368
-0.22206332 -0.37313998 0.046003435 -0.09201649 -0.062543236 -0.017051812 -0.10314844 -0.13532794
0.06654022 -0.02992298 0.068411194 -0.03487993 -0.14511949 -0.09582926 -0.08391503 -0.14845386
0.2939962 0.1808661 -0.17359716 0.12600619 -0.056150742 0.06349629 0.22299452 0.11657112
-0.41515297 0.20437597 0.1357218 0.39666283 0.11285528 -0.098754786 -0.034013033 -0.10773553

network_body._body_endoder.seq_layers.2.bias f4 [128]
00000000: fd47 8bbd e2ea 90bc 140e 3fbd dc1b fabc
00000010: d55d 6cbd 6675 d4bc 2d24 84bd 3352 c43c
00000020: d22e 66bd 03b5 c2bd fc49 0dbd 98eb e0bd
00000030: 86b2 68bc f7a6 9ebd 967c f8bc 1700 193d
00000040: 35fd 49bb cae6 76bd c278 a23c b0bc e2bc
00000050: 1252 57bd e95c a3bc 3388 4abb 0aeb 96bd
00000060: c296 66bd a15b cb3c 2004 05bd a687 35bb
00000070: ffda 0ab8 6ff4 77bd a1c6 183d 5f17 19bd
00000080: 4e12 47bc 031c 63bd 28be 89bd d649 47bc
00000090: d9a3 24bd 4b4e 8dbd f98d 2fbe 5346 4dbd
000000a0: f2b2 b1bd 577d 063d 1747 cabc 3d69 f1bc
000000b0: c615 1bbd b006 9cbd 3106 35bc cac2 ebbc
000000c0: fb4d 7abc 03e9 debd 6f6a eabb 1807 26bc
000000d0: 4832 80bc c832 653c c2a4 62bd c3b3 77bd
000000e0: 0719 7bbd 3149 17bd 7e9e 1abc ca48 94bd
000000f0: 57a1 f8bc 78cd e1bc 9d39 24bc 15c2 84bc
00000100: 7514 6abd fbf0 a0bc f643 bebc 5ce1 b6bd
00000110: 4feb 82bd 60c3 80bd b3b5 74bc b5da 0cbd
00000120: 09da a3bc 430e 38bc 7a24 03be 6b93 49bd
00000130: 6380 4bbd 5be6 8dbd e4a8 b0bc 607f 12bd
00000140: 24f9 513c 8001 0cbd 1591 b4bd faa4 ddbc
00000150: 344e cfbd 51d4 1fbd 54d8 28bc 7116 a2bc
00000160: b369 16bd ae58 1abd 379a 9fbd 17c0 9cbd
00000170: 94d7 5cbc 2f1c 06bd 6063 adbd b457 b4bd
00000180: b5ed 85bd 0688 a8bd d16b 33bd adba 26bd
00000190: ddb3 0cbd 8691 efbc d828 92bc 3371 723c
000001a0: 0826 d9bc 7481 f9bd c771 c7bb c268 d23c
000001b0: eb2e 30bd 942e 7cbd 6357 64bc d7a2 b8bd
000001c0: 9e88 a8bc 2891 733c 7ed5 debd 85b1 c1bc
000001d0: 8c5e 81bd 4423 65bd 9652 52bd c781 73bd
000001e0: 030d 933c bd86 61bd fe5f 33bd 67da b1bd
000001f0: ec44 e6bc 40f6 65bd 2131 bdbd c0cb 843c
-0.0680084 -0.017690126 -0.046644285 -0.030530863 -0.057706673 -0.025934886 -0.064522125 0.023964977
-0.056196995 -0.095071815 -0.034494385 -0.10982436 -0.01420272 -0.0774669 -0.030332845 0.0373536
-0.003082109 -0.06027869 0.019832972 -0.027677864 -0.052568503 -0.019941764 -0.0030903935 -0.07369049
-0.056296118 0.024823966 -0.032474637 -0.002769926 -3.310572e-05 -0.060535844 0.037298802 -0.037375804
-0.01215036 -0.055446636 -0.067257226 -0.0121636 -0.04019532 -0.06899699 -0.17144002 -0.050115895
-0.08676709 0.032834377 -0.024692101 -0.029469127 -0.03786256 -0.07618463 -0.011048839 -0.028779406
-0.015277381 -0.10884287 -0.007153801 -0.010133527 -0.015648976 0.013989158 -0.055332907 -0.06047417
-0.061303165 -0.036935035 -0.009437202 -0.07240446 -0.03035037 -0.027563795 -0.010023502 -0.016205827
-0.057148416 -0.019646158 -0.023225766 -0.08929703 -0.06392538 -0.06287265 -0.014935899 -0.034388263
-0.020001428 -0.011233869 -0.12806883 -0.049212854 -0.049682986 -0.069287024 -0.021564908 -0.035766006
0.012815747 -0.034181118 -0.08816735 -0.027056206 -0.10122338 -0.03902084 -0.010305483 -0.019786092
-0.036721896 -0.037682228 -0.07793086 -0.07653826 -0.013479132 -0.03274172 -0.0846622 -0.088057905
-0.0653948 -0.082290694 -0.043803994 -0.04070537 -0.03435122 -0.029244196 -0.017841741 0.014797497
-0.026507393 -0.12182894 -0.0060865614 0.025684718 -0.043013494 -0.061567858 -0.01393685 -0.09015434
-0.020572957 0.014866151 -0.10880564 -0.023644218 -0.063168615 -0.055941835 -0.05134829 -0.059449937
0.01795054 -0.055060137 -0.043792717 -0.08684235 -0.028109036 -0.056143045 -0.09237886 0.016210437

network_body._body_endoder.seq_layers.2.weight f4 [128, 128]
00000000: 842f 483d 9285 453e 9954 77bd f983 bf3e
00000010: ef86 6d3e d25c 6ebe 2072 f73d 15cf 27be
00000020: 4cc2 40bd 432e 293e 76c8 1cbc b100 933d
00000030: 9b37 a0bd 591a 293c 9019 933d 58eb efba
00000040: 6d15 2c3e d329 0e3e dd12 e6bc 5e50 2bbe
00000050: 76f9 973d 99b0 353e 57ab 5dbd db0b b43a
00000060: 8567 aebd ca9a 24ba cb88 013e 17ca 0c3d
00000070: df56 b4bd 357c 95be 4a9a ff3d e6f3 47be
00000080: 29ef 313e f2a7 0dbe 5129 0c3e 1edf 84be
00000090: dd65 dfbd 177f 49be 6b66 393e 11e0 88be
000000a0: e350 b93d 50c2 123b 7548 7dbe 3f09 a5bd
000000b0: 2075 eabd a0f9 49bd 2711 8cbd bb62 e13d
000000c0: dbd6 c03c 807d 6dbe 5204 c83d 7979 263e
000000d0: d08d ce3d 12c4 4fbc 170f 1dbd 6447 ba3d
000000e0: 6bad 49be f807 c1bb 4887 03be af46 3c3d
000000f0: b8db 0cbe caf9 1ebe 94cd 033e 8f03 6d3e
00000100: e11e 013e 27e8 c33d 2908 723e 6462 2c3e
00000110: 92f4 03be 7715 0abe aff1 4d3d 9512 b93e
00000120: e910 a7bd 4c41 1c3d d09e 7cbc e4b9 433e
00000130: 5441 45bd 1cae 8b3d 7e7e 983e 5848 2c3e
00000140: 2c11 f7bb 9729 133d f795 01bd 9b13 ddbd
00000150: 6919 243d 0df9 abbd 7764 11be 9ac3 4e3d
00000160: d7ff 993e 796f cebb 5a60 883c cfe7 dfbd
00000170: 0669 533d 7e06 993d 87d6 2dbe 03be bfbc
00000180: 42d6 db3d 94ee 033e f366 663e 1aaf 0fbe
00000190: a5d4 4b3e f032 1ebe f191 85bd 2c6d 81bc
000001a0: bde3 85be 6dca 713e 71cd 11be d50b b43d
000001b0: 0deb 053e 3c86 1a3e 0fd5 2bbc 2d47 31be
000001c0: b964 a9be 8ecf 48bd 7ed6 9d3c ac58 203e
000001d0: 9644 393e e5c5 113d 49b6 7ebe 256a c63c
000001e0: e4d6 c33a 7216 293e 6450 84bd be24 b6bd
000001f0: 88bf 8c3c d0cd 053e e3ba 1a3e e7da 183e
00000200: 9604 ea3d 3596 213e e839 033e fd08 b93c
00000210: 052a a6bd 4cf3 9ebc 3d16 683e 7c42 5abe
00000220: 6afd 19be 1586 f2bd 2a56 66be fdd2 bd3b
00000230: 01c3 373e 2ec4 b13d 422f a5bd 4085 9e3e
00000240: 3e7e 483c 4b48 4a3e cb9e b13d ceb0 5fbd
00000250: c5c6 623e b642 a8bd 1bea 87bd 6954 c1bd
00000260: b8bd be3c 7b46 00bd f399 30bd 508e acbb
00000270: c179 2c3e b58b a33d 0903 323d b64b 4fbe
00000280: c279 0fba 7be5 343e 36d1 70bc c1bf 933d
00000290: 48c5 2bbd 59ae d03d 8e75 71bd 2b4a c4bd
000002a0: 286c a0bd b9b9 58be 3c94 c9bd 4858 39bc
000002b0: ef78 b4bd 593b 853d ac07 21bd 50cc eebd
000002c0: 2c48 103c d8b9 863e 03d7 0d3e 04eb 96bd
000002d0: ff07 e03d eecf 123c 82d1 8ebc 995f 843d
000002e0: ea3f cebd 158a 363d 7c61 2d3e b392 3abe
000002f0: c791 1f3e a316 4e3c e16f 1cbd c4c4 c83d
00000300: e82b 423d 0236 1a3e 35b7 573e a948 893c
00000310: 0906 973c 2d03 1ebe 90c0 58bd a0a0 8d3c
00000320: 3036 953c 6526 cf3d 821f 82bd 9051 51be
00000330: 345f 3dbe c91c 193e e678 dcbd 1e41 993d
00000340: 11c5 acbd a19b a7bd 372f 303e 5d75 22be
00000350: 9b63 0f3e a308 51bd 291e ab3c b813 113e
00000360: 7456 d53d e140 dd3d 8a60 3cbe d437 d6bd
00000370: 5fc9 013d cfde 223e 8e57 22bd 1a56 303d
00000380: d1e1 8e3e 3fe7 be3d 31fa abbd b59a fe3c
00000390: fe58 c13d 865e ef3d 4f99 b6bd fbd4 cbbd
000003a0: 4b7a 2c3d 1ba9 81bd 413a ad3a 782a 963d
000003b0: 0827 83be f2d9 c9bd d8c1 783d 8282 09bd
000003c0: 77c1 89bd 2562 493d 33ae d3bd 8dd9 ec3d
000003d0: b8d1 de3c 7628 033e fa49 3e3d 8ff6 483d
000003e0: ec81 a7bd b1b7 81bc 789d 22be 601e 5ebe
000003f0: 3eda c6bd 6592 3e3e 17a2 cebd a280 afbd
0.04887344 0.19289234 -0.060383413 0.37405375 0.23196004 -0.23277596 0.120823145 -0.1638759
-0.047060296 0.16521554 -0.009569278 0.07177866 -0.07823106 0.010321223 0.0718261 -0.0018304391
0.16805048 0.13883142 -0.028085167 -0.16729876 0.07420628 0.17743148 -0.05411848 0.0013736443
-0.085158385 -0.0006279169 0.12649839 0.034372415 -0.08805632 -0.29196325 0.124806 -0.19526634
0.17376389 -0.13833597 0.13687636 -0.25951475 -0.10908101 -0.19677387 0.18105476 -0.2673345
0.09048631 0.0022393651 -0.24734671 -0.08058404 -0.11448121 -0.049310327 -0.06839209 0.110051595
0.023539951 -0.23192406 0.09766449 0.16257276 0.10085642 -0.012681024 -0.03834447 0.09095648
-0.1969506 -0.0058908425 -0.12844574 0.045965847 -0.13755691 -0.15524974 0.1287139 0.23145889
0.12609436 0.09565764 0.23635925 0.16834408 -0.12886265 -0.1348475 0.050279316 0.3614699
-0.08157522 0.03814821 -0.015418723 0.1911388 -0.048158005 0.06820318 0.29784006 0.16824472
-0.007539889 0.035928335 -0.03163716 -0.10794755 0.040063296 -0.08397112 -0.1419848 0.05047951
0.30078003 -0.0062999097 0.016647507 -0.10932886 0.05161383 0.074719414 -0.16976367 -0.023406034
0.10734226 0.12883979 0.2250021 -0.1403164 0.19905336 -0.15449119 -0.06521977 -0.015799128
-0.26150313 0.23612376 -0.14238526 0.08791319 0.13077946 0.15090269 -0.010487809 -0.17312308
-0.33084658 -0.049026065 0.019267317 0.15658826 0.1809257 0.035589118 -0.24874224 0.024220536
0.0014941362 0.16512468 -0.06460646 -0.08893727 0.017181173 0.13066792 0.15110354 0.14927255
0.11426656 0.15779956 0.12815058 0.022587294 -0.08113483 -0.019403122 0.22664733 -0.21314424
-0.15038076 -0.1184198 -0.22493806 0.005792974 0.17945482 0.086799964 -0.08065654 0.30961037
0.01223713 0.1975414 0.086728655 -0.054611973 0.22146137 -0.08215849 -0.06636449 -0.09439928
0.023283824 -0.031317215 -0.043115567 -0.0052659884 0.1684332 0.079856314 0.043459926 -0.20243725
-0.00054731604 0.17665665 -0.014698317 0.072143085 -0.04193619 0.10189504 -0.05895 -0.09584459
-0.07833129 -0.21164598 -0.098427266 -0.011312552 -0.08812129 0.0650546 -0.039313957 -0.11660063
0.00880627 0.26313663 0.13851552 -0.073690444 0.10939025 0.008960707 -0.017433885 0.06463546
-0.100707844 0.04456528 0.16931719 -0.18220024 0.15582953 0.012578639 -0.038192634 0.09803155
0.047405154 0.15059665 0.21065982 0.01675828 0.018435495 -0.15430899 -0.052918017 0.017288506
0.018214315 0.10114745 -0.06353666 -0.2044127 -0.18493348 0.14952387 -0.10765247 0.07483123
-0.08436025 -0.08183981 0.17205511 -0.15865083 0.1400284 -0.051033627 0.020888405 0.14167678
0.1041688 0.1080339 -0.18396202 -0.10459867 0.031686183 0.15905307 -0.03963428 0.043050863
0.2790666 0.093214504 -0.083973296 0.03107963 0.09440802 0.11687951 -0.0891596 -0.09952732
0.042108815 -0.063310824 0.0013216214 0.07332319 -0.25615716 -0.09856023 0.06073174 -0.033571728
-0.067263536 0.049165864 -0.1033596 0.11564932 0.027199611 0.12808403 0.04645727 0.04906326
-0.081790775 -0.015834661 -0.15880382 -0.21691275 -0.09709595 0.18610533 -0.1008951 -0.08569457

network_body._body_endoder.seq_layers.4.bias f4 [128]
00000000: 544a cdbc 9237 08bd 61f2 36bc 2229 86bd
00000010: 4490 70bd e072 0bbd bd79 e7bc d732 54bd
00000020: be3c d43c fa87 85bb 4918 02bd 42fc a3bd
00000030: 8b7a 2abd 457c 48bc e3c4 a43c 9132 89bd
00000040: 58a2 0abd 6d72 583b 1153 273b b3ac 0cbe
00000050: bbd8 0f3b 4182 2fbd 2ef5 f7bc aca2 8fbc
00000060: 3074 78bd 6322 43bd fdd4 08bd 9366 d33b
00000070: ad73 19bd 0503 d7bc 33ab 1dbd 5275 35bd
00000080: b18e 3dbd d6c9 94bc d846 d1bc 764e 0ebd
00000090: d3ad d0bd f971 e4bd 4b86 bebd 89d8 f9bd
000000a0: 0e14 5839 83fd 4ebd a4a0 8bbd d10a cabd
000000b0: f9fd 5abd 60f7 48bd d213 44bd eecc 50bc
000000c0: 519d cabb 82a8 cdbc e062 883b 8382 06bd
000000d0: f23f 583d e678 85b9 86d4 11be 0b90 78bd
000000e0: 6a53 f8bd b6c6 943c b7cf b6bc 921c 3c3c
000000f0: 617d 9abc e013 9bbb 2928 2b3c 4935 ccbc
00000100: 592d 09bd dfb6 86bd c364 a4bd 17e5 62bd
00000110: 9f9c fdbb 75b4 e2bc 0851 23bd 2d56 a2bd
00000120: f164 633b e955 6ebc 9247 87bd 495f 22bd
00000130: 8064 58bd 733f 0fbd cf88 513b be42 1abd
00000140: 3fd4 a13c ca49 46ba 750e 85bd dcc4 73bd
00000150: fdcd 27bc 4408 09bd 0e94 093b d6b2 96bc
00000160: 549c 3abc 6e50 f1bd a2e3 66bc 1b25 bebd
00000170: f3ec 69bd 34e8 5fbd 869c 19bd fefa 153c
00000180: 92c5 d43c 35c0 02bc f046 8ebd 6f55 2cbd
00000190: 419f e43b 1124 7cbc a947 d9bd 5239 97bd
000001a0: 8c9a c8bd 53e3 60bd c3c9 b1bd 900a 59bc
000001b0: 07d6 ca3a 8420 5cbc 2a89 82bc 7851 21bd
000001c0: 80f2 bf3b f156 60bd db97 8fbd e967 a4bd
000001d0: 6748 9cbd f66a 55bd c099 433c 7433 08be
000001e0: 8f2b 1ebd cc11 60bd cd7e 9a3c 2c66 fcbc
000001f0: 112d e93b 109e 86bb ad7d f8bc 5f4a 8fbc
-0.025059856 -0.03325612 -0.011166186 -0.06550814 -0.058731332 -0.0340451 -0.028256292 -0.051806297
0.02590787 -0.0040750476 -0.03176144 -0.08007099 -0.041620772 -0.012236659 0.020113414 -0.06699098
-0.03384623 0.0033027187 0.002553169 -0.13737755 0.002194925 -0.04284883 -0.030268278 -0.017533623
-0.06065768 -0.047640216 -0.033406246 0.006451437 -0.037463833 -0.026246557 -0.038493346 -0.04430134
-0.04627866 -0.01816265 -0.025546476 -0.034742795 -0.10189404 -0.11154551 -0.09302958 -0.12199504
0.00020606836 -0.050534736 -0.06817749 -0.09865344 -0.053464863 -0.04906404 -0.047870465 -0.012744172
-0.0061833044 -0.025104765 0.0041621774 -0.03283931 0.052795358 -0.00025457813 -0.14241228 -0.060684245
-0.12125285 0.018161159 -0.022315843 0.011481421 -0.018858613 -0.004732594 0.010446587 -0.024927752
-0.033490513 -0.06577849 -0.08027031 -0.05539426 -0.007739618 -0.02767394 -0.0398722 -0.07926593
0.0034697617 -0.01454685 -0.06605448 -0.039641652 -0.05283022 -0.03497262 0.0031972413 -0.037661307
0.019754527 -0.0007564096 -0.06496898 -0.05951391 -0.0102419825 -0.03345515 0.0020992788 -0.018395822
-0.011389811 -0.11782919 -0.014092358 -0.09284421 -0.057110738 -0.054664806 -0.037502788 0.0091540795
0.025973115 -0.007980396 -0.06947124 -0.042073663 0.0069769924 -0.015389458 -0.10609371 -0.0738398
-0.097951025 -0.054904293 -0.08681061 -0.013247147 0.0015475162 -0.013435487 -0.015934546 -0.039384335
0.0058577657 -0.054770414 -0.07011386 -0.08027632 -0.07630997 -0.05210396 0.011938512 -0.13300878
-0.03861576 -0.054704472 0.018859291 -0.030810438 0.007115968 -0.004108198 -0.030333364 -0.017491518

network_body._body_endoder.seq_layers.4.weight f4 [128, 128]
00000000: 879d 693d c336 e2bc 40f5 133c 12e1 313d
00000010: 6cc9 683c a6f7 bebc 3bd0 5ebc 4b42 5abd
00000020: 7882 c53c 77d7 413d f225 1d3d d121 0dbe
00000030: 75c9 a5bd b981 203d fde0 c8bd 98ed d23d
00000040: 8192 763c 27a0 cebc ad19 ac3d 8921 293c
00000050: 6ce9 253d d2a3 5b3d 6fa5 cebd cc30 d7bd
00000060: 9f04 08be 2c77 fdbc e7e3 1dbd 2810 b0bd
00000070: 0b35 6d3d 6129 64bb 8297 10be b60a c5bd
00000080: 2980 0c3d 7455 e43d 0688 fd3c 3830 d13d
00000090: c500 083d 35a6 95bd c3eb d7ba 6ebe 8d3b
000000a0: 5cbc 3ebd 8f10 333d 90c8 113e 3366 c3bc
000000b0: d361 5b3d 0cd6 6c3d 4067 34bd 7217 b33d
000000c0: 35b1 b43c cfc3 043d fb73 68bd 704c bebd
000000d0: 93e1 bebd 66f8 713c 1573 fc3b e4a3 98bd
000000e0: ede8 303d da6c 913d a24e b93b f5a7 b63c
000000f0: e8bd f6bc ca24 2cbd eddc cebd 09b6 ae3b
00000100: 7a66 c9bc f2ff b33d 09c2 94bd d946 f53b
00000110: 50a8 00be 725c 7fbd 1ef5 093e b849 05bd
00000120: 18c4 743d 517f 393c 605f 11be 846d f03c
00000130: dbda 013e 54dd a6bd f443 25bc 38f5 d4bd
00000140: 08c4 5b3d e1d6 023e b5b1 dabd c562 3e3d
00000150: 0512 b5bd 2a18 013d e87f c2bd a9c3 58bd
00000160: 5eb5 0a3d 5af7 853d 8fdd 56bd 8758 503d
00000170: bd2b c5bb 545a f53d 705f ac3d 61d3 ffbc
00000180: 1a01 693d 3249 d1bd 6490 babc 7c32 92bd
00000190: 66e6 923d be32 453d 85d6 083d f7df e73c
000001a0: e6b8 aebd e195 353d beb1 97bc ef16 8fbc
000001b0: 1e2d 1b3e 22f0 b3bb a18b 8e3d 3428 ad3c
000001c0: 5f20 4dbd 1626 e83d 2f86 f6bd fefb a1bd
000001d0: 6503 1dbd f332 393d d606 e0bd 550e 25bd
000001e0: a237 22be 3160 923c 32e6 a83d ca7b 58bd
000001f0: f961 093e 251e b73d db00 b4b9 9e20 adbd
00000200: f28b 563e 07c4 433d a9a3 91bc dfcc ee3d
00000210: 15b6 a5bd 96a3 adbc ab6a 813d d92c 133e
00000220: 757c 323c 7172 96bc 2b6e 80bd 892c e8bd
00000230: 0bc1 72bd e674 b83c ff90 b8bd 25c2 2a3c
00000240: 486e 34bd 2082 103e 7439 d43c 8122 84bc
00000250: 72a5 5ebd 1e4e f63d b472 b9bd c124 00be
00000260: 430b 32bd 6f39 9538 b7f3 06be e1df cdbd
00000270: 40e1 4c3d ca06 48bc 929b c43d 7a50 9a3d
00000280: 1755 a7bc d6a5 cbbd 2d6b 52bb f795 c3bb
00000290: 9363 70bc 4ca8 25bd a672 cfbd 6907 833d
000002a0: aa7d 9abd 32db 10be 27ce 6c3d 3434 373d
000002b0: 03e1 e73d c51f 0cbd fcfb e73c c901 1f3e
000002c0: 9c1d bbbd 79f5 9cbb a1bd 9e3d 8c2b a7bd
000002d0: f9d5 f5bd 1788 35bd ad36 04be a67f 57bd
000002e0: 04cc b1bd 6dd3 4eba 798a e63c cefc 443d
000002f0: d4d3 823c a6cd 803c 4925 9ebd 12aa a5bd
00000300: 2116 8cbc 8615 c3bd 377e 3d3d aa76 0e3d
00000310: 826b 27bd da26 8c3d 3309 c23d f208 2cbd
00000320: 06aa 1a3c 7b4c 853c 383a 913c 2bc6 a9bd
00000330: 93a4 a4bd a40c 5fbc 9388 78bd 624d 463d
00000340: 2c88 f9bc 8f26 453d ef02 613d 3a2f 1c3d
00000350: b40e f0bc c926 d63b 39d7 073d 277a 7a3d
00000360: 3187 71bd 9ef1 ac3d 7771 66bc 38ff 08bd
00000370: 3b9b 9ebd 83c0 58bd 9b46 92bc d360 a33d
00000380: 0155 373e c20a c03c ff34 e03c 1558 bc3d
00000390: ed50 88bd f413 973d 514d 4a3e d6fb 9a3d
000003a0: 051f a23d eeef 42bc 3920 f2bd fd9c 053d
000003b0: 9abd adbd 60f0 8e3d 2c33 ab39 6367 7cbd
000003c0: a9b4 623d 2628 823c 467b 0dbd f2df 9dbd
000003d0: 726a 823d 3e6a 2a3d aa86 d4bd c668 253e
000003e0: 9240 cbbd 06c8 423c cfa4 e1bd a993 353d
000003f0: 5268 933c 6072 0c3e 6f7a 9fbd 03a8 be3c
0.057034995 -0.027614003 0.00903064 0.043427534 0.014208179 -0.023311447 -0.013599451 -0.05328588
0.024110064 0.047324624 0.038366266 -0.13782431 -0.080950655 0.039186213 -0.09808538 0.10299224
0.015049578 -0.025222851 0.08403335 0.010322937 0.04050581 0.053623028 -0.10090148 -0.10507354
-0.13283013 -0.030940615 -0.038547423 -0.085968316 0.057911914 -0.0034814703 -0.14120296 -0.096211836
0.03430191 0.111491114 0.03094865 0.10214275 0.03320386 -0.07307092 -0.0016473461 0.0043256795
-0.046566352 0.043716963 0.14236665 -0.023852443 0.05356009 0.05782132 -0.04404378 0.08744706
0.022057155 0.0324133 -0.056751233 -0.09291923 -0.093203686 0.014768695 0.0077041485 -0.07453135
0.043190885 0.0710084 0.0056551257 0.022296885 -0.030119851 -0.042027272 -0.10100732 0.005331759
-0.024584997 0.08789052 -0.07263572 0.0074852523 -0.12564206 -0.062344022 0.13472411 -0.032541007
0.059757322 0.0113218585 -0.14196539 0.029349096 0.12681143 -0.08147684 -0.010087002 -0.10398334
0.053653747 0.12777282 -0.10678426 0.046480913 -0.088413276 0.031517185 -0.094970524 -0.05292097
0.03386437 0.06541319 -0.05245739 0.050865676 -0.006017177 0.11980119 0.08416641 -0.031228723
0.056885816 -0.10219039 -0.022773929 -0.071385354 0.07172851 0.048144095 0.033407707 0.028305037
-0.0853136 0.04433239 -0.018517371 -0.01746699 0.1515393 -0.0054912725 0.06960226 0.021137334
-0.0500797 0.11335389 -0.12037312 -0.07909392 -0.038333315 0.045214605 -0.10938804 -0.04029687
-0.15841535 0.017868133 0.08247031 -0.05285243 0.1341628 0.089412965 -0.00034332913 -0.08453487
0.20951822 0.047794368 -0.017778235 0.1166017 -0.0809137 -0.021196168 0.063191734 0.14372577
0.010893931 -0.018365117 -0.06271013 -0.113366194 -0.05926613 0.022516679 -0.09012031 0.010422264
-0.044050485 0.14112139 0.025906302 -0.016129734 -0.054357 0.120266184 -0.09055081 -0.1251402
-0.04346777 7.1155715e-05 -0.13178907 -0.10052467 0.050019503 -0.01220865 0.09599985 0.07534881
-0.020426316 -0.0994374 -0.0032107339 -0.005968805 -0.014672178 -0.040443704 -0.10129289 0.06397898
-0.075435 -0.14146116 0.05781379 0.04472752 0.113222145 -0.034209985 0.028318398 0.15528025
-0.09136507 -0.004790005 0.077510126 -0.08162603 -0.12003703 -0.04431924 -0.12911482 -0.05261197
-0.08681491 -0.0007889781 0.0281422 0.048092656 0.015970148 0.01572306 -0.07721955 -0.08089079
-0.017100396 -0.0952559 0.046262946 0.034781136 -0.04087401 0.06843348 0.09474411 -0.04200072
0.009439951 0.01627182 0.017727956 -0.08289751 -0.080392025 -0.013613854 -0.060677122 0.04841364
-0.03046044 0.048132475 0.05493444 0.038130976 -0.029303886 0.0065353853 0.033164237 0.06115165
-0.05896682 0.08444522 -0.014065138 -0.03344652 -0.077444516 -0.05291797 -0.017855933 0.07977452
0.1790352 0.02344263 0.02736902 0.09196488 -0.0665606 0.07376853 0.19756056 0.07567565
0.07916073 -0.011898024 -0.11822552 0.03262042 -0.08483429 0.06979442 0.00032653788 -0.061622035
0.055348072 0.015888285 -0.03454139 -0.0770873 0.06367959 0.041605227 -0.10377248 0.16153249
-0.09924425 0.01188851 -0.11017763 0.044330273 0.01799408 0.13715506 -0.07787024 0.023273474
