Maize-Runner/results/MazeRunnerRewards2/EscapeMaze/EscapeMaze-2999992.onnx (onnx, 200372 bytes, 9 tensors)

action_model._continuous_distribution.log_sigma f4 [1, 2]
0	0xbe7f06e9	-0.2490498
1	0xbe4c7af3	-0.19968776

action_model._continuous_distribution.mu.bias f4 [2]
0	0xbc1cea91	-0.009577409
1	0x3c78f063	0.015194031

action_model._continuous_distribution.mu.weight f4 [2, 128]
0	0xbb3424aa	-0.0027487674
1	0xba69af6a	-0.00089143834
2	0xbab5ebf3	-0.0013879522
3	0x3d0bd163	0.034135234
4	0xbb583ed1	-0.0032996426
5	0x3b2863ee	0.0025694328
6	0x3b0d8544	0.0021594325
7	0xbd28a430	-0.041172206
8	0xbbc9b9ee	-0.0061561977
9	0xbb21f443	-0.0024712242
10	0xbb0d4591	-0.0021556357
11	0xbb598b20	-0.0033194497
12	0x3d87bd36	0.06627886
13	0xbd87fd63	-0.066401266
14	0x3b084055	0.0020790298
15	0x3ccc6cdc	0.024954252
16	0x3aca2335	0.001542187
17	0xbd3913ff	-0.045185085
18	0xbbc29a27	-0.0059387865
19	0xbafa71d3	-0.0019107409
20	0x3ba56efb	0.0050486303
21	0x394d5419	0.00019581652
22	0xbdaa90b5	-0.08328382
23	0xbd206bdf	-0.039165374
24	0x3aa4efe0	0.0012583695
25	0x3b8beb6e	0.0042700088
26	0x3bb337d6	0.0054693026
27	0x3b020245	0.0019837779
28	0x3c707ab9	0.014677697
29	0x3be74cf4	0.007058734
30	0xba0f736a	-0.0005472215
31	0xbb000acf	-0.0019537692
32	0xbc0e16a4	-0.00867239
33	0xbb1a5270	-0.0023547672
34	0x3db35d72	0.08758058
35	0xbb1b43c8	-0.0023691524
36	0x3b5fcd42	0.0034149443
37	0x3c2d96ca	0.010595033
38	0x39e5af64	0.0004380896
39	0x3bd284c9	0.0064245206
40	0xbaf605ce	-0.001877004
41	0x3aaf3d3c	0.001336969
42	0x3bc1466d	0.005898288
43	0x3b8d4cfc	0.004312156
44	0x3b0afa1a	0.00212062
45	0x3b78cbe8	0.0037963334
46	0x3aee7791	0.0018193593
47	0x3afe1614	0.0019385242
48	0xbb6e890e	-0.003639761
49	0xb818b77a	-3.64105e-05
50	0xbe0c34e1	-0.13692047
51	0x3b7a0c68	0.0038154367
52	0x3a137cf3	0.0005626224
53	0xbdd73892	-0.10508837
54	0xbb39d856	-0.0028357706
55	0xbad21501	-0.0016027988
56	0x3c8205c0	0.015871882
57	0xbb6c8ea0	-0.0036095753
58	0x3b2c6740	0.002630666
59	0xbd83bac3	-0.06432106
60	0xbb33ec66	-0.0027454137
61	0x3b1ccd3b	0.0023926038
62	0x3c0fb2ea	0.008770684
63	0xbb041fac	-0.002016048
64	0x3a4bb16b	0.0007770273
65	0x3be3b9a1	0.006949619
66	0x3bc6a63c	0.006062297
67	0xbc884a97	-0.01663713
68	0x3b532266	0.0032216548
69	0xba5741ec	-0.0008211422
70	0x3b296d6a	0.002585257
71	0x3b47ad9b	0.0030468467
72	0xbb515172	-0.0031939414
73	0x3a52cc7b	0.0008041334
74	0x3c9e8200	0.019349098
75	0x3b735c4e	0.0037133875
76	0x3d6280fa	0.055298783
77	0x3d6d07ce	0.05786877
78	0xba295641	-0.0006459691
79	0x39266479	0.00015868423
80	0x390c5431	0.00013382804
81	0x3db7348f	0.08945572
82	0x3bc2f0e8	0.0059491284
83	0xbb63f76b	-0.0034784924
84	0xbb3fd11b	-0.0029268924
85	0x3c96b848	0.018398419
86	0xbb348de3	-0.0027550391
87	0xbaea7651	-0.0017888044
88	0x3a2ee290	0.00066713337
89	0x3b759129	0.0037470555
90	0x3af200f3	0.0018463418
91	0x39e7b040	0.0004419107
92	0xbbc2d77d	-0.0059460984
93	0xbd347f57	-0.044066753
94	0x390ef824	0.00013634615
95	0x3b1345b7	0.0022471973
96	0x3b9a4034	0.0047073606
97	0xbbaec455	-0.005333463
98	0x3b8b22bd	0.0042460845
99	0x3bfb8912	0.007676252
100	0xba8d0e28	-0.0010761665
101	0x3b8b195a	0.0042449655
102	0xbb749579	-0.0037320538
103	0xbd35cffd	-0.044387806
104	0x3cdbecb3	0.026846265
105	0x3b0f73d2	0.0021889103
106	0xbc1cd8ec	-0.009573203
107	0xbd4df21d	-0.050279725
108	0xbbf06eda	-0.0073374333
109	0x3bdba2cf	0.006702758
110	0xb91a0ecc	-0.00014692097
111	0x3b32d050	0.0027284808
112	0xb99a3962	-0.00029415922
113	0xbabdcf9c	-0.0014481428
114	0x3a6af7ea	0.00089633337
115	0x3d0f3675	0.034964044
116	0xbd502203	-0.050813686
117	0x3d98822d	0.07446704
118	0xbbe33209	-0.006933455
119	0x3d896989	0.06709582
120	0xbd5f03bb	-0.054446917
121	0x3cc9023c	0.024537198
122	0x3b78136f	0.003785338
123	0xbd5f1099	-0.054459188
124	0x3b1053e2	0.0022022654
125	0xbdfe0e7a	-0.12405105
126	0x3b8c594b	0.0042831055
127	0xbdef200f	-0.116760366
128	0xbb93961b	-0.004503978
129	0x39cb0666	0.00038723944
130	0xbb319e28	-0.0027102325
131	0x3b14100e	0.0022592577
132	0xbc11bb7f	-0.0088948
133	0x3a0dab20	0.0005404223
134	0x3b0ef345	0.002181248
135	0xbd69c2f5	-0.05707069
136	0xbb7a182c	-0.003816138
137	0x3b4ff56b	0.0031731974
138	0xbb96fbdd	-0.004607661
139	0x3ba9eb70	0.005185537
140	0xbd6088e5	-0.054818053
141	0x3c1fb192	0.009746926
142	0xbaa3b4b0	-0.0012489762
143	0xbda2bae7	-0.07945805
144	0xbc86e927	-0.016468598
145	0x3d3602fe	0.044436447
146	0xbbd34f87	-0.0064486894
147	0x39d2d74a	0.00040214724
148	0x3bd9dec9	0.0066488725
149	0xb8ba91e4	-8.8963454e-05
150	0xbcf526e5	-0.029925773
151	0x3d4dd43d	0.050251234
152	0xbace88af	-0.0015757288
153	0x3bb16905	0.0054141306
154	0xbb1c3d83	-0.0023840375
155	0x3b1b1ded	0.002366896
156	0x3d2b95d1	0.041890923
157	0x3b6725b4	0.0035270276
158	0x3ad93482	0.0016571435
159	0x3bc79e6e	0.0060918843
160	0x3b19da08	0.0023475904
161	0x3ce106c6	0.02746905
162	0x3cda3e13	0.026640927
163	0xba9429d0	-0.0011303965
164	0xbaddf8cd	-0.001693511
165	0x3ccb66e0	0.024829328
166	0x3d0adfbd	0.03390478
167	0xbbf0d708	-0.0073498525
168	0xba1d13ba	-0.0005992014
169	0xba13de5d	-0.00056407397
170	0x3b1388a9	0.0022511876
171	0x3a5f0738	0.00085078506
172	0x3bde5650	0.0067851916
173	0xbad5b7cc	-0.0016305386
174	0xbaa7d099	-0.0012803256
175	0xbcada8ee	-0.021198716
176	0xba9a8c94	-0.0011791163
177	0x3b237c30	0.0024945848
178	0x3c9acfe0	0.01889795
179	0x39da37c4	0.0004162175
180	0xbad95bc3	-0.0016583133
181	0xbcea1f20	-0.028579295
182	0x3b1791f1	0.002312776
183	0x3b4da206	0.003137709
184	0x3bff02c0	0.0077823102
185	0x3a2537b2	0.000630255
186	0x3b4a7a2c	0.0030895574
187	0xbde6b01b	-0.11264058
188	0xb9c45427	-0.00037446732
189	0xbaf16a40	-0.0018418506
190	0xbaa4eed0	-0.0012583379
191	0x3aacc694	0.001318174
192	0x3afc6b7c	0.0019258107
193	0x3d54da2e	0.051965885
194	0x3b49f526	0.0030816286
195	0x3d94bb82	0.07262327
196	0x3a7c4c5c	0.00096244155
197	0xb9ed939c	-0.0004531414
198	0x3b37846c	0.0028002514
199	0x3af610c1	0.0018773304
200	0xbba4095d	-0.005005999
201	0x3bd2089d	0.006409718
202	0xbcf414d1	-0.029795082
203	0x3dad0269	0.08447725
204	0xbbc64eef	-0.00605189
205	0x3c34fa3f	0.011045991
206	0xbc55ca77	-0.01304876
207	0xb906cf2c	-0.00012856413
208	0xbbc526b9	-0.006016579
209	0xbd739403	-0.059467327
210	0x3d5dc640	0.054144144
211	0xbb12710a	-0.0022345209
212	0x3b97194c	0.00461117
213	0x3d2d9cb5	0.042385776
214	0xbb4bec0b	-0.0031116034
215	0xbbb8ee04	-0.005643608
216	0xbb4760c9	-0.0030422679
217	0xba798052	-0.00095177174
218	0x3b72d23a	0.0037051574
219	0x3ae4e0f5	0.0017462062
220	0xbbb7e414	-0.005611906
221	0xbda5de42	-0.08099033
222	0xbb45cd40	-0.0030182153
223	0xbb9b0ede	-0.004731997
224	0xbb5a2f2c	-0.0033292277
225	0x3b10b0cf	0.0022078042
226	0x3b150651	0.002273936
227	0xbd3711f1	-0.044694845
228	0xbc053c66	-0.008132076
229	0xbac4e5d0	-0.0015022103
230	0x3b9c5ce0	0.0047718138
231	0x3d2f2e6d	0.042768884
232	0x3d8ffd96	0.070307896
233	0x3d85ca51	0.065327294
234	0xbd904186	-0.070437476
235	0x3de2e0bc	0.11078021
236	0xbb571fb9	-0.0032825305
237	0xbab9448c	-0.0014134808
238	0x3b5671f6	0.0032721735
239	0xbba22fab	-0.00494953
240	0xb9f5f4f4	-0.00046912546
241	0xbb520f0e	-0.003205243
242	0x3c882c41	0.016622664
243	0xbc665ad5	-0.014059742
244	0xbce1795b	-0.027523687
245	0x3d3e02ef	0.046389516
246	0x39985fb4	0.00029063004
247	0xbd8c9cf2	-0.068658724
248	0xbda6d1b0	-0.081454635
249	0x3c79d7c8	0.0152492
250	0xba87cfe3	-0.0010361638
251	0xbd740544	-0.059575334
252	0xb9d614bb	-0.00040832706
253	0x3c0a4e0a	0.0084414575
254	0x383449ad	4.298396e-05
255	0x3d952a7d	0.072834946

network_body._body_endoder.seq_layers.0.bias f4 [128]
0	0xbd429574	-0.04750581
1	0xbc04d613	-0.00810768
2	0xbd8faa61	-0.07014919
3	0xbcf920dc	-0.030411176
4	0xbc9bcfc6	-0.019019973
5	0xbcf9f520	-0.030512393
6	0x3d41a36d	0.047274996
7	0xbd3a5f03	-0.045500766
8	0xbcc6d28c	-0.024270318
9	0x3cc428b0	0.023945183
10	0xbca31c03	-0.019910818
11	0xbd05ef60	-0.03269899
12	0xbbfc03b1	-0.0076908697
13	0xbbc8a541	-0.0061232154
14	0xbc30fe8c	-0.010802876
15	0x3aa0ff7c	0.0012283172
16	0x3caeaff8	0.021324143
17	0x3a21d68f	0.00061736343
18	0xbd37867c	-0.04480599
19	0xbb9d2dc1	-0.004796714
20	0x3b6fb2fc	0.003657519
21	0xbd0b004c	-0.03393583
22	0x3cb87ce7	0.022520496
23	0xbbf8b608	-0.007590059
24	0xbe2fbe8e	-0.17162535
25	0x3d4cf1b1	0.050035182
26	0x3b949a53	0.0045349984
27	0xbd563ba5	-0.052302975
28	0x3d85c2d3	0.065313004
29	0xbcc9c33c	-0.024629228
30	0xbc8478a1	-0.016170802
31	0xbcc670d2	-0.024223719
32	0xbb5c1ac5	-0.0033585292
33	0x3d1e5d0b	0.03866295
34	0x3ca63495	0.020288745
35	0xbc775b4c	-0.01509745
36	0x3cbb40ec	0.022858106
37	0xbc571bb9	-0.013129168
38	0xbb7ae907	-0.0038285868
39	0xba89e7c1	-0.0010521339
40	0xbaf49eef	-0.0018663089
41	0xbd6e2de7	-0.058149245
42	0xbd1454c8	-0.036213666
43	0xbc49a773	-0.012307989
44	0xbc5c9a8f	-0.013464584
45	0xbc7de57e	-0.01549661
46	0x3a834660	0.001001548
47	0x3cbe0484	0.023195513
48	0xbb32d714	-0.002728884
49	0xbd535477	-0.051594224
50	0xbd69d1c9	-0.057084832
51	0xbd3bcf89	-0.045852218
52	0xbd093437	-0.03349706
53	0xbc0b5ba7	-0.008505738
54	0x38d866e5	0.00010318848
55	0xbc1ae9ca	-0.009455154
56	0x3bf03459	0.007330459
57	0x3c8b68cb	0.017017743
58	0xbd1ad356	-0.037799202
59	0x3bcf5bae	0.0063280677
60	0x3c8a818d	0.016907478
61	0x3c7340f0	0.014847025
62	0x3c0e4493	0.008683342
63	0x3d081070	0.0332188
64	0x3d0227ea	0.031776346
65	0x3d0f3d95	0.03497084
66	0xbc2181cf	-0.009857609
67	0xbca4aff5	-0.020103434
68	0xbcfc4672	-0.03079531
69	0xbccf46eb	-0.025302371
70	0xbc70f56b	-0.01470695
71	0xbd004f00	-0.03132534
72	0xbc7f2451	-0.015572623
73	0xbc7c16f1	-0.015386329
74	0xbd079936	-0.033105098
75	0x3ba53520	0.0050417334
76	0x3cc52959	0.024067568
77	0xbd179580	-0.03700781
78	0x3c8c00af	0.01709017
79	0x3d04fec3	0.032469522
80	0xbcf27d82	-0.029600862
81	0xbd3d110a	-0.046158828
82	0xbc83a6b2	-0.016070697
83	0xbc304d04	-0.010760549
84	0x3d0570a2	0.03257812
85	0xbcb51332	-0.02210388
86	0xbd6a78d0	-0.057244122
87	0xbbf22550	-0.007389702
88	0x3d16f86a	0.036858
89	0xbd2ac581	-0.04169226
90	0xbd438c96	-0.047741495
91	0x3d09f6d8	0.033682674
92	0x3babfd81	0.005248726
93	0x3b6188ca	0.0034413808
94	0xbcf289c6	-0.029606711
95	0xbd173afe	-0.036921494
96	0xbba803f6	-0.0051274253
97	0x3a7d96a8	0.00096736336
98	0x3d1e0332	0.038577266
99	0xbd4c1316	-0.04982289
100	0x3ca03b1f	0.019559441
101	0x3c8c6209	0.01713659
102	0xbd0b3fda	-0.03399644
103	0xbd350006	-0.044189475
104	0xbaf3713a	-0.0018573173
105	0xbc9694e0	-0.018381536
106	0x3b23ee73	0.0025013953
107	0x3cd3064d	0.02575984
108	0xbcdf1b9d	-0.027234847
109	0xbcda4aec	-0.026647054
110	0xbd2b36b9	-0.041800234
111	0xbdec9f9b	-0.1155388
112	0xbcc6fca1	-0.024290385
113	0xbd3d3803	-0.046195995
114	0xbcba10c3	-0.02271307
115	0x3d12550d	0.035725642
116	0x3b2465c5	0.0025085073
117	0x3caa88d1	0.020817192
118	0xbd7e9161	-0.062150363
119	0xbd2f3721	-0.042777184
120	0x3c9eeec2	0.019400958
121	0xbc58caf7	-0.013231984
122	0xbcab8e3e	-0.02094185
123	0xbd704594	-0.058660105
124	0x3d1f2339	0.03885195
125	0xbc0bccba	-0.008532697
126	0x3cbc433b	0.022981277
127	0xbd20e6c1	-0.039282564

network_body._body_endoder.seq_layers.0.weight f4 [128, 126]
0	0xbdd13de0	-0.1021688
1	0x3c524682	0.012834193
2	0x3c82f556	0.015986126
3	0x3d87ac57	0.06624668
4	0xbda86619	-0.082225986
5	0xbe59cc95	-0.21269448
6	0x3d852aea	0.06502326
7	0xbe461bf4	-0.19346601
8	0xbe6bebc2	-0.23039153
9	0xbd8a6977	-0.06758397
10	0xbddd7924	-0.10814121
11	0xbe242a35	-0.16031726
12	0xbccd7e9c	-0.025084786
13	0xbe5a4066	-0.21313629
14	0xbe38993a	-0.18027201
15	0x3d8c68a8	0.06855899
16	0xbe4edeb7	-0.20202146
17	0x3e4559a6	0.1927248
18	0xbe08f4dc	-0.13374656
19	0xbe890129	-0.26758698
20	0xbec85360	-0.3912611
21	0x3dab3cfd	0.08361242
22	0xbda5e520	-0.08100343
23	0xbbac8915	-0.005265365
24	0xbd9fd949	-0.07805116
25	0x3e424ae3	0.1897388
26	0xbe0f8d8c	-0.1401884
27	0xbe487a24	-0.19577843
28	0xba8d1ca6	-0.0010765984
29	0xbe43318e	-0.19061872
30	0xbe9ba502	-0.30399328
31	0xbd8ea534	-0.06965104
32	0xbd61b2cc	-0.055102155
33	0xbd1a8044	-0.03771998
34	0xbdf30c8c	-0.118676275
35	0xbe1442d6	-0.14478621
36	0xbd4e1aaa	-0.050318398
37	0x3e4f3230	0.20233989
38	0x3d90f112	0.070772305
39	0x3bc102fc	0.0058902483
40	0x3ddbccd8	0.1073243
41	0xbdb1cf8c	-0.086821645
42	0x3e462df4	0.19353467
43	0x3e414540	0.18874073
44	0x3c6df9c1	0.014524878
45	0x3e39771a	0.1811184
46	0xbdba6690	-0.091015935
47	0xbde2e729	-0.110792466
48	0xbdac9619	-0.08427066
49	0xbdfd0e64	-0.123562604
50	0x3dd0752d	0.101785995
51	0xbe70240e	-0.23451254
52	0x3e41656b	0.18886344
53	0xbe134f7e	-0.14385793
54	0x3e0808c9	0.13284601
55	0x3ddd82b0	0.10815942
56	0xbc8c2110	-0.01710561
57	0xbdcdbcdd	-0.100457884
58	0xbc9baef2	-0.019004319
59	0xbd63e7af	-0.055640873
60	0x3dce1092	0.10061754
61	0xbe06aab5	-0.13151057
62	0x3e247e54	0.16063815
63	0x3d3c8d7f	0.04603338
64	0xbd07e6c6	-0.033179067
65	0xbdd39870	-0.103318095
66	0xbd71c496	-0.05902537
67	0xbe144c52	-0.14482239
68	0xbd9751da	-0.07388659
69	0x3dd24ab1	0.102681525
70	0xbe7b9bb5	-0.24571116
71	0xbe597aef	-0.21238302
72	0xbdb975b6	-0.09055655
73	0xbc986217	-0.01860146
74	0xbb94c40d	-0.0045399726
75	0xbe088696	-0.1333259
76	0xbe2c9c1c	-0.16856426
77	0xbe8fc574	-0.28080332
78	0xbe2dfa48	-0.16990006
79	0x3c93534c	0.017984055
80	0xbdf5ab23	-0.11995532
81	0x3e1527e8	0.14566004
82	0x3d64a0e0	0.055817485
83	0x3daf6395	0.08563916
84	0xbd336df4	-0.04380603
85	0x3a897192	0.0010486117
86	0x3e385050	0.17999387
87	0x3c801647	0.015635623
88	0xbe3d92bc	-0.18513006
89	0xbd17b143	-0.037034284
90	0x3be19843	0.006884606
91	0xbe2045a0	-0.1565156
92	0xbd80da1b	-0.062916
93	0x3d376b90	0.044780314
94	0x3ccefb76	0.02526639
95	0xbdeeded6	-0.11663596
96	0xbdf59d32	-0.11992873
97	0xbdd8b72d	-0.10581813
98	0x3da4b355	0.08042017
99	0x3d433c36	0.047664843
100	0xbc9d93dd	-0.019235546
101	0x3c1bc7cb	0.009508084
102	0x3e14f3e1	0.14546157
103	0xbe128a6c	-0.14310616
104	0xbdaecb49	-0.08534867
105	0x3db407ac	0.08790526
106	0x3da0f6ed	0.07859597
107	0x3d26da67	0.04073563
108	0x3e8d8121	0.2763758
109	0xbdc62c65	-0.09676436
110	0xbe0e4e63	-0.1389709
111	0x3ef33461	0.475009
112	0x3e529d78	0.20567882
113	0x3dab7926	0.083727166
114	0xbdbee05f	-0.09320139
115	0xbdc77f70	-0.09741104
116	0x3c85c346	0.016328465
117	0xbe0aa7dc	-0.13540596
118	0x3e811569	0.25211647
119	0xbd7f6738	-0.062354296
120	0x3d2999d1	0.041406456
121	0x3dbcc23c	0.09216735
122	0xbe52bf82	-0.20580867
123	0xbdc38273	-0.095463656
124	0xbe3bf97d	-0.18356891
125	0xbd59ca4c	-0.05317144
126	0x3e3332d5	0.1749986
127	0x3d25c519	0.04047117
128	0xbd04c24e	-0.032411866
129	0x3d2be691	0.041967932
130	0x3d00dbd3	0.03145964
131	0x3d798931	0.06092185
132	0xbd9b269f	-0.07575726
133	0xbdefcad7	-0.117086105
134	0x3dbc83fa	0.0920486
135	0xbcd20456	-0.025636833
136	0xbdb82074	-0.08990565
137	0xbd83468e	-0.064099416
138	0x3d97b869	0.0740822
139	0xbd99206b	-0.07476886
140	0xbcf87be8	-0.03033252
141	0xbe7a8ec6	-0.24468526
142	0x3d012469	0.031528864
143	0xbddf9c9c	-0.10918543
144	0xbd5d4113	-0.054017138
145	0xbe1b6487	-0.15175067
146	0x3cb222a6	0.021745037
147	0x3d39a65b	0.045324665
148	0x3c77df16	0.015128871
149	0xbc4f1d01	-0.012641192
150	0x3e17760e	0.14791128
151	0xbdd4196b	-0.103564106
152	0xbe2a6e6d	-0.16643687
153	0xbd842ac0	-0.064534664
154	0xbc83fd91	-0.01611212
155	0xbe113850	-0.14181638
156	0x3d65ad9a	0.056073762
157	0x3ca73374	0.020410277
158	0xbc81c3fe	-0.015840527
159	0xbd66e197	-0.056367483
160	0xbe125b62	-0.14292672
161	0x3c2366b2	0.009973215
162	0x3e1994d5	0.14998181
163	0xbe1da577	-0.15395151
164	0xbec2c238	-0.38038802
165	0xbdb72130	-0.08941877
166	0xbe1f011c	-0.15527767
167	0xbcc0efc5	-0.023551831
168	0x3d520102	0.051270492
169	0xbd81caf2	-0.06337537
170	0xbe123cab	-0.14280955
171	0xbdabc8f5	-0.08387939
172	0x3e1c99a3	0.15292983
173	0x3d8454ba	0.06461473
174	0xbebed7f8	-0.37274146
175	0xbe47ccb8	-0.19511688
176	0x3df0a77d	0.11750696
177	0x3bf93d5d	0.007606192
178	0x3d69868d	0.057013083
179	0xbb6a92c1	-0.0035793039
180	0xbd2e1638	-0.04250166
181	0x3db7a645	0.0896726
182	0x3d25154b	0.04030351
183	0xbd6ca05b	-0.057770114
184	0xbe91e789	-0.2849696
185	0xbdd9b170	-0.10629547
186	0x3dc34d91	0.09536279
187	0x3bdde114	0.006771216
188	0xbd126d20	-0.0357486
189	0xbe382509	-0.17982878
190	0xbe27c9b0	-0.16385531
191	0xbe1f6861	-0.15567161
192	0xbe25f41a	-0.16206399
193	0xbdf82015	-0.12115494
194	0xbbd8ab6e	-0.006612233
195	0xbdf4b757	-0.11949032
196	0xbdb269fb	-0.087116204
197	0x3de33c15	0.11095444
198	0x3df8ce9f	0.12148785
199	0x3da63e0c	0.08117303
200	0xbddbe0db	-0.10736247
201	0xbe003e27	-0.12523709
202	0x3e211be9	0.15733303
203	0xbec7fec7	-0.39061567
204	0x3da8242e	0.08210026
205	0xbd888ed4	-0.06667867
206	0x3bb82a66	0.0056202887
207	0xbe69e7e6	-0.22842368
208	0xbe54e7f8	-0.20791614
209	0xbe8dc5c1	-0.27689937
210	0x3e4370c2	0.19085982
211	0xbe0a4e56	-0.13506445
212	0xbe653feb	-0.22387664
213	0x3c9c4edd	0.019080574
214	0xbcbc991a	-0.023022223
215	0xbdecf976	-0.115710184
216	0x3d9df5f7	0.0771293
217	0x3e14378b	0.14474313
218	0xbe0a1590	-0.13484788
219	0xbd799606	-0.06093409
220	0x3d89ebee	0.06734453
221	0xbe0cbcd7	-0.13743912
222	0xbccf4889	-0.025303142
223	0x3d2e909c	0.04261838
224	0xbe33f71c	-0.17574733
225	0xbeae8030	-0.34082174
226	0x3dbbb442	0.09165241
227	0xbdb4a038	-0.08819622
228	0xbe086d21	-0.1332288
229	0xbc3b4930	-0.0114310235
230	0xbdb95175	-0.0904874
231	0xbd995915	-0.07487694
232	0x3dbcb140	0.09213495
233	0x3c26b202	0.010174276
234	0xbdd7bf4c	-0.10534534
235	0xbd372c3e	-0.044719927
236	0xbe040a4e	-0.12894556
237	0xbdfd5e64	-0.12371519
238	0xbdbaee81	-0.09127522
239	0xbe309d8d	-0.17247601
240	0x3e49f02b	0.19720523
241	0x3e2e72ba	0.17035952
242	0xbe2a7019	-0.16644324
243	0x3e3bb5dd	0.18331094
244	0xbd065a7f	-0.032801148
245	0x3d90b02b	0.070648514
246	0x3e8f832a	0.28029758
247	0x3e0f4797	0.13992153
248	0xbebbd3eb	-0.36685118
249	0x3e460178	0.19336498
250	0x3e17b8d2	0.14816597
251	0x3e4cdd17	0.20006214
252	0x3d87c8f8	0.066301286
253	0xbd3221a6	-0.04348912
254	0xbd0b5140	-0.034013033
255	0xbe177ee4	-0.14794499

network_body._body_endoder.seq_layers.2.bias f4 [128]
0	0xbd6a25a2	-0.057164796
1	0xbcbc865e	-0.02301329
2	0xbd1e7747	-0.03868797
3	0xbd3d6550	-0.046239197
4	0xbc808cac	-0.015692078
5	0xbca046ba	-0.019564975
6	0xbcdcd633	-0.026957607
7	0x3cd233df	0.0256595
8	0xbd8acb1d	-0.06777022
9	0xbda92355	-0.08258692
10	0xbcda483e	-0.026645776
11	0xbd9487a6	-0.072524354
12	0xbd4ae5bd	-0.0495355
13	0xbd8ba97a	-0.068194345
14	0xbcae11c7	-0.021248711
15	0x3c940c00	0.018072128
16	0xbd004a40	-0.03132081
17	0xbd911cc4	-0.07085565
18	0x3c9334f4	0.017969586
19	0xbcb15995	-0.021649161
20	0xbd9843bb	-0.074347936
21	0xbd145ef2	-0.03622336
22	0xbc6f6f0a	-0.014613876
23	0xbd95f1a4	-0.0732148
24	0xbd5348c7	-0.051583078
25	0x3cfb843b	0.0307027
26	0xbd253c51	-0.040340725
27	0xbca3a4e3	-0.019976085
28	0x3ac60dd4	0.0015110322
29	0xbd6dd1e8	-0.05806151
30	0x3c95cd43	0.018286353
31	0xbd3f8a16	-0.04676255
32	0xbcbfe992	-0.023426805
33	0xbd3b7fd2	-0.045776196
34	0xbd401f55	-0.04690488
35	0x3a4b2a25	0.00077501155
36	0xbd34e3eb	-0.044162672
37	0xbda46f66	-0.0802906
38	0xbdc9ea96	-0.09859197
39	0x3aeb60da	0.0017957941
40	0xbd7ac15f	-0.06121957
41	0x3d246dec	0.040143892
42	0xbd097df0	-0.03356737
43	0xbcb700be	-0.022339221
44	0xbd179ef0	-0.03701681
45	0xbd742ec0	-0.059614897
46	0x3c3933bc	0.011303838
47	0xbcf02702	-0.029315475
48	0xbc15fc6f	-0.009154423
49	0xbda0f985	-0.07860092
50	0x3cbda8c9	0.023151772
51	0xbd0d13f1	-0.034442846
52	0xbc973661	-0.018458547
53	0x3d1a0017	0.037597742
54	0xbd51252c	-0.05106084
55	0xbd9852f9	-0.07437701
56	0xbd1bb79b	-0.038016897
57	0xbc1b0009	-0.009460458
58	0xbca25813	-0.019817388
59	0xbd2a2e67	-0.04154816
60	0xbd10d69a	-0.03536091
61	0xbd023c63	-0.03179587
62	0xbc663fa3	-0.014053258
63	0xbcafed46	-0.021475445
64	0xbd83cd16	-0.064356014
65	0xbcaf27cb	-0.02138128
66	0xbd0c6d07	-0.034283664
67	0xbdbf8ec5	-0.09353403
68	0xbd1f9a7a	-0.03896568
69	0xbd5bd0d0	-0.053665936
70	0xbbe17a03	-0.006881
71	0xbcd0b24c	-0.025475644
72	0xbaadf391	-0.0013271441
73	0x3c516ca1	0.012782247
74	0xbd92a102	-0.07159616
75	0xbd2aa6fe	-0.041663162
76	0xbd4cd4bb	-0.050007563
77	0xbd888eae	-0.06667839
78	0xbc756cef	-0.014979585
79	0xbcfe0319	-0.031007336
80	0x3c18c258	0.009323679
81	0xbd576075	-0.052582223
82	0xbd9bad6a	-0.076014355
83	0xbd028d3b	-0.03187297
84	0xbd978a2a	-0.073993996
85	0xbd5ad2cc	-0.053423688
86	0xbcab6682	-0.020922903
87	0xbcd3ec75	-0.025869587
88	0xbc964e92	-0.018348012
89	0xbc86f83c	-0.01647579
90	0xbd522eac	-0.05131404
91	0xbdd0da09	-0.10197837
92	0xbc640396	-0.013916871
93	0xbcde465d	-0.027133161
94	0xbd96487e	-0.073380455
95	0xbdab5e92	-0.08367647
96	0xbda0b4d7	-0.078469925
97	0xbdb1ba39	-0.08678097
98	0xbd206360	-0.03915727
99	0xbcd52c5f	-0.026022134
100	0xbc8c0442	-0.017091874
101	0xbceab1e1	-0.028649272
102	0xbca25b94	-0.019819058
103	0x3cadacbc	0.02120053
104	0xbb9da4ab	-0.0048108897
105	0xbdbed988	-0.093188345
106	0x3be41469	0.006960441
107	0x3cdb8b98	0.026799962
108	0xbcf64f96	-0.030067246
109	0xbd8b5795	-0.06803814
110	0xbb3b6a33	-0.0028597235
111	0xbda32414	-0.07965866
112	0xbc8c865c	-0.017153911
113	0x3b2989bf	0.0025869457
114	0xbdbe9d04	-0.09307292
115	0xbca79324	-0.020455904
116	0xbd53a602	-0.05167199
117	0xbd528f0c	-0.05140595
118	0xbd0639b8	-0.03276989
119	0xbd34f5cb	-0.04417972
120	0x3b82e370	0.003994398
121	0xbce3899a	-0.027775574
122	0xbce1c0bd	-0.027557725
123	0xbd4855a5	-0.048909802
124	0xbd12a67a	-0.035803296
125	0xbccc3ed0	-0.024932295
126	0xbd92bfc9	-0.07165486
127	0x3cb2044b	0.021730563

network_body._body_endoder.seq_layers.2.weight f4 [128, 128]
0	0x3d92106b	0.07132038
1	0x3e150ddf	0.14556073
2	0xbd9d34f4	-0.07676116
3	0x3e9dab46	0.30794734
4	0x3e376f66	0.17913589
5	0xbe6d0e38	-0.23149955
6	0x3e1180a9	0.14209236
7	0xbe15e896	-0.14639506
8	0xbd48c013	-0.0490113
9	0x3e283ddd	0.16429849
10	0xbd1707ca	-0.036872663
11	0x3dadb904	0.084825546
12	0xbd37da6b	-0.044886034
13	0x3b80106a	0.0039082067
14	0x3d3b1522	0.04567445
15	0x3cd32e97	0.025779052
16	0x3e3044d5	0.17213757
17	0x3e1aab98	0.1510452
18	0xbc3eb141	-0.01163894
19	0xbe0cc043	-0.13745217
20	0xbbb86d3c	-0.005628256
21	0x3e2acd02	0.16679767
22	0xbc3ad59f	-0.01140347
23	0x3dd29195	0.10281674
24	0xbe087705	-0.13326652
25	0xbcef0d03	-0.02918101
26	0x3df6cf2c	0.12051234
27	0x3d9dc5ce	0.07703744
28	0xbd3aa29d	-0.045565236
29	0xbe762d7c	-0.24040788
30	0x3dd4e69e	0.10395549
31	0xbe4f8c63	-0.20268397
32	0x3e1d1af7	0.15342318
33	0xbdd247b6	-0.10267584
34	0x3e0a45e9	0.13503231
35	0xbe3d8a7e	-0.18509862
36	0xbe0fa1fa	-0.14026633
37	0xbdefb7ae	-0.11704956
38	0x3e0fb7ac	0.14034909
39	0xbe897ca8	-0.26852918
40	0x3d91974b	0.07108935
41	0xbc7d4489	-0.015458235
42	0xbe4cc5a5	-0.1999727
43	0x3c41f25c	0.011837568
44	0xbdbd86bf	-0.092542164
45	0xbcca95bf	-0.024729608
46	0xbd377f91	-0.04479939
47	0x3dbf14a5	0.093301095
48	0x3c3a4d26	0.011370933
49	0xbe4a2bb6	-0.19743237
50	0x3d64e5bc	0.055883154
51	0x3e1080f3	0.1411169
52	0x3d5ffea6	0.05468621
53	0x3c492584	0.012277011
54	0xbc9a63c6	-0.018846404
55	0x3db091b6	0.08621542
56	0xbe35b461	-0.1774459
57	0x3d0bc7d3	0.034126114
58	0xbdfb176c	-0.12260327
59	0x3df5f492	0.12009539
60	0xbe164ba0	-0.14677286
61	0xbe041cc2	-0.12901595
62	0x3e0c42fd	0.13697429
63	0x3e2b03a0	0.16700602
64	0x3e278ec4	0.16363055
65	0x3daaeba2	0.08345725
66	0x3e6a7ff0	0.22900367
67	0x3e3d1189	0.1846372
68	0xbe0da3c7	-0.13832007
69	0xbdb63e8f	-0.08898651
70	0x3cc49975	0.023998955
71	0x3eb2a032	0.34887844
72	0xbdcdceee	-0.10049234
73	0x3cba52ee	0.022744622
74	0xbcd7e34f	-0.026353506
75	0x3e04ba04	0.12961584
76	0xbc856e10	-0.016287833
77	0x3db72b65	0.08943824
78	0x3e76a2c6	0.2408553
79	0x3e281759	0.16415156
80	0xbd1905f6	-0.0373592
81	0x3c9a640f	0.01884654
82	0xbcff70e9	-0.03118177
83	0xbcb3cdd3	-0.02194873
84	0x3d810905	0.063005485
85	0xbd845dda	-0.06463213
86	0xbe08c13f	-0.13354968
87	0x3d4c3a22	0.049860127
88	0x3e909a2b	0.2824262
89	0x3caa1630	0.020762533
90	0x3cce856a	0.025210101
91	0xbdaa5b96	-0.0831825
92	0x3d24565f	0.040121432
93	0x3d91a513	0.071115635
94	0xbe551aed	-0.20811053
95	0xbdf24e2c	-0.11831316
96	0x3ddd826b	0.10815891
97	0x3e1a2974	0.15054876
98	0x3e623566	0.22090682
99	0xbe016df6	-0.12639603
100	0x3e46a6b1	0.19399525
101	0xbde5cb3a	-0.11220403
102	0xbe0472ec	-0.12934464
103	0xbd07ff71	-0.033202592
104	0xbe7049b9	-0.23465623
105	0x3e829fac	0.25512445
106	0xbdf05fb7	-0.11737006
107	0x3dad6f15	0.08468453
108	0x3dffb314	0.12485328
109	0x3decac76	0.11556332
110	0xbd26f7fd	-0.040763844
111	0xbe26ef86	-0.16302308
112	0xbe94e91f	-0.29084107
113	0xbd9aabf6	-0.0755233
114	0xbbbcc547	-0.005760822
115	0x3e4a8e42	0.1978083
116	0x3e43b4e8	0.19111979
117	0x3d87c6c6	0.0662971
118	0xbe69f5ab	-0.22847621
119	0x3aad2b84	0.0013211821
120	0x3cebe3b1	0.028795095
121	0x3e1d2174	0.15344793
122	0xbd261165	-0.040543932
123	0xbd852e91	-0.065030225
124	0x3d498283	0.04919673
125	0x3e1b6309	0.15174498
126	0x3e197017	0.14984165
127	0x3dfc81ac	0.123294204
128	0x3dc1c703	0.094617866
129	0x3e38624a	0.18006244
130	0x3d8a623d	0.06757019
131	0x3d816678	0.063183725
132	0xbd2dd9bf	-0.042443987
133	0xbdd196a3	-0.1023381
134	0x3e7486df	0.23879574
135	0xbe3d7939	-0.18503274
136	0xbe38852a	-0.18019548
137	0xbdde10da	-0.10843058
138	0xbe4cb0af	-0.19989274
139	0x3d1e9f2b	0.038726013
140	0x3e4ec497	0.2019218
141	0x3d864c09	0.06557471
142	0xbdc7e091	-0.097596295
143	0x3e7e5e60	0.24840689
144	0x3cbe61da	0.023240019
145	0x3e34f734	0.17672426
146	0x3d5f15cd	0.05446415
147	0xbd617a44	-0.055048242
148	0x3e641385	0.22273071
149	0xbe0cd6b9	-0.13753785
150	0xbd3ff2e3	-0.046862494
151	0xbe019353	-0.12653856
152	0xbb101405	-0.0021984589
153	0xbb897c5f	-0.0041957344
154	0xbd92d4a3	-0.071694635
155	0xbced9a87	-0.029004348
156	0x3e46b731	0.1940582
157	0x3dfbc128	0.12292701
158	0x3cf8b467	0.03035946
159	0xbe4d602f	-0.20056222
160	0x3d6b5319	0.057452295
161	0x3e37f893	0.17965917
162	0x3c710d68	0.014712669
163	0x3dafbac2	0.08580543
164	0xbd0a72a0	-0.03380072
165	0x3dc49970	0.095995784
166	0xbd4fc925	-0.050728936
167	0xbd7f2b7e	-0.062297337
168	0xbde7fe20	-0.11327767
169	0xbe593831	-0.21212842
170	0xbc71f5fe	-0.014768122
171	0x3b9b57fd	0.0047407136
172	0xbd1af195	-0.037828047
173	0x3d458cbc	0.048229918
174	0xbcf8e516	-0.030382674
175	0xbdde0102	-0.10840036
176	0x3c94655a	0.018114734
177	0x3e5a262b	0.21303622
178	0x3e04e23b	0.12976925
179	0xbd90174a	-0.07035692
180	0x3da2bde8	0.07946378
181	0x3cc9f62b	0.024653515
182	0xbc3e4447	-0.011612958
183	0x3d9c4774	0.07630816
184	0xbdeac3e1	-0.11463142
185	0x3ce7fe56	0.028319519
186	0x3ddc131d	0.10745833
187	0xbe0805ae	-0.13283417
188	0x3e2a2f60	0.16619635
189	0x3d02948b	0.031879943
190	0xbdc837e4	-0.09776285
191	0x3dcedbdf	0.10100531
192	0x3d9f9361	0.07791782
193	0x3e2efd58	0.1708883
194	0x3e10dc87	0.14146625
195	0xbd784afb	-0.060618382
196	0x3d9b286a	0.07576068
197	0xbdc31f88	-0.095274985
198	0xbc54e962	-0.012995096
199	0x3b80f6a4	0.003935652
200	0xbcab11fe	-0.020882603
201	0x3dba2243	0.09088566
202	0xbe0751fb	-0.13214867
203	0xbdf26d3c	-0.11837241
204	0xbe3e99d5	-0.1861337
205	0x3db65fff	0.089050286
206	0xbd85dff2	-0.06536855
207	0x3d472fa8	0.048629433
208	0xbd989a26	-0.074512765
209	0xbdd17cd6	-0.10228889
210	0x3e32c97d	0.17459674
211	0xbd917909	-0.07103164
212	0x3df9fab0	0.12206018
213	0xbdfe5c44	-0.12419942
214	0x3d4df047	0.050277974
215	0x3e171f03	0.14757924
216	0x3e01596d	0.1263177
217	0x3e1f5aa1	0.15561916
218	0xbe3a043d	-0.1816568
219	0xbcbbec94	-0.022939958
220	0x3cb580eb	0.0221562
221	0x3e5c80ae	0.21533462
222	0x3ad45d4a	0.0016202119
223	0xbb4e7121	-0.0031500536
224	0x3e552b86	0.20817384
225	0x3da43ce3	0.08019426
226	0xbca3e68f	-0.0200074
227	0x3d9b0d39	0.075708814
228	0x3caee4a8	0.021349266
229	0x3e031322	0.12800267
230	0xbdc9f11b	-0.0986044
231	0xbdd7266f	-0.105053775
232	0x3daf145e	0.085488066
233	0xbd8426b0	-0.064526916
234	0x3ccc4e76	0.024939757
235	0x3da0d1d1	0.07852519
236	0xbe8e56f5	-0.27800718
237	0xbd8b2344	-0.06793836
238	0x3db0555c	0.08610031
239	0xbd5f1942	-0.054467447
240	0xbd0678b5	-0.03282996
241	0x3cf98dde	0.030463155
242	0xbe1334f3	-0.14375667
243	0x3e0c3123	0.13690619
244	0x3d7a6f3c	0.061141238
245	0x3df7ee39	0.12105984
246	0x3d256fe2	0.040389903
247	0xbda0df72	-0.07855119
248	0xbbb429ab	-0.0054981313
249	0xbbd48428	-0.006485481
250	0xbe245d2d	-0.16051169
251	0xbe66e612	-0.22548702
252	0xbc7d29dd	-0.0154518755
253	0x3e3d67be	0.18496606
254	0xbe1245ad	-0.14284392
255	0xbd9f8673	-0.07789316

network_body._body_endoder.seq_layers.4.bias f4 [128]
0	0xbb85b30e	-0.004080183
1	0xbcbdc21c	-0.023163848
2	0xbc7b425b	-0.015335645
3	0xbd445043	-0.047928106
4	0xbd2193e1	-0.03944767
5	0xbd03d0ed	-0.03218167
6	0xbbcc6b4e	-0.0062383777
7	0xbd33ed11	-0.043927256
8	0x3ccb6cd7	0.024832172
9	0xbc3f87a2	-0.011690052
10	0xbd7f88eb	-0.062386435
11	0xbdb6bf75	-0.08923236
12	0xbd4b908b	-0.049698394
13	0x3b20800c	0.0024490384
14	0x3ca8a41d	0.020586068
15	0xbd74f0c3	-0.05979992
16	0xbcba11b1	-0.022713514
17	0x3ccd8f02	0.025092606
18	0x3c23911e	0.009983329
19	0xbdf82c6c	-0.12117848
20	0x3c8b91d5	0.017037312
21	0xbd312ff2	-0.043258615
22	0xbc98de84	-0.018660791
23	0xbb59b2e3	-0.0033218197
24	0xbd4be2a3	-0.049776684
25	0xbd33771f	-0.043814775
26	0xbcefe5df	-0.029284416
27	0x3bdf1e0b	0.0068090013
28	0xbc82b164	-0.015953727
29	0xbc827dc1	-0.015929105
30	0xbd3c9375	-0.046039063
31	0xbd2626d0	-0.04056436
32	0xbd2c0bc9	-0.042003427
33	0x3c3e40a4	0.011612091
34	0xbc853bf8	-0.016263947
35	0xbd3e2739	-0.046424124
36	0xbdc3aecc	-0.09554824
37	0xbd893ebe	-0.0670142
38	0xbd2eda4c	-0.042688653
39	0xbda1766f	-0.078839175
40	0xbc96a036	-0.018386941
41	0xbd5bdeaf	-0.053679164
42	0xbd9375c6	-0.07200198
43	0xbd7a2544	-0.061070696
44	0xbd54b6ca	-0.051932134
45	0xbd0883ac	-0.033328697
46	0xbce485c2	-0.027895812
47	0xbce28cf8	-0.02765511
48	0x3bb25ad2	0.0054429555
49	0xbcc72e22	-0.02431399
50	0x3b87fc17	0.0041499245
51	0xbcae501c	-0.021278434
52	0x3d544efa	0.05183313
53	0xbc8069ea	-0.015675504
54	0xbe0174d8	-0.12642229
55	0xbd800f43	-0.06252911
56	0xbda734f2	-0.081643954
57	0x3c7dc3c0	0.015488565
58	0xbd207982	-0.03917838
59	0xb8fc256d	-0.000120232675
60	0xbcc94d29	-0.024572926
61	0xba02859d	-0.00049790164
62	0x3cdbcda1	0.02683145
63	0xbcff1176	-0.031136256
64	0xbd0d97ab	-0.03456847
65	0xbd14a892	-0.036293574
66	0xbda1e3c7	-0.07904773
67	0xbcc17e0a	-0.02361967
68	0xbaf1e752	-0.001845578
69	0xbd08e80e	-0.03342443
70	0xbd2803ef	-0.041019376
71	0xbd846c2f	-0.06465947
72	0x3c840938	0.016117677
73	0xbc34b917	-0.011030457
74	0xbd60993c	-0.054833636
75	0xbc7ca930	-0.015421197
76	0xbcd92cfe	-0.026510712
77	0xbce1a786	-0.027545702
78	0x3bb5511b	0.00553335
79	0xbbffcf2f	-0.0078066806
80	0x3d237d8f	0.039914664
81	0xbbf1a9ab	-0.0073749623
82	0xbd31324d	-0.04326086
83	0xbd9e5e44	-0.077328235
84	0x3ba41c91	0.005008288
85	0xbc7d0137	-0.015442184
86	0xb8341bab	-4.2941112e-05
87	0x3b44a17a	0.0030003474
88	0xbc471fab	-0.012153546
89	0xbdea9c79	-0.11455626
90	0xbc877f17	-0.016540093
91	0xbdc983ff	-0.098396294
92	0xbd50e234	-0.050996974
93	0xbcefd48e	-0.029276159
94	0xbb0384ac	-0.0020068092
95	0x3cc85ac1	0.024457337
96	0x3c878df1	0.016547175
97	0xbcd60e67	-0.026129914
98	0xbd894105	-0.067018546
99	0xbd35640a	-0.044284858
100	0x3c564b98	0.013079546
101	0xbcb1ef6e	-0.021720614
102	0xbdb1d812	-0.0868379
103	0xbd4249fe	-0.047433846
104	0xbd643e7f	-0.055723663
105	0xbd19c4a0	-0.03754103
106	0xbd516838	-0.05112478
107	0x3c3bde27	0.011466539
108	0xbc463425	-0.012097393
109	0xbcc8a296	-0.02449159
110	0xbd097aa3	-0.03356422
111	0xbd1568a8	-0.03647676
112	0xbacf481f	-0.001581434
113	0xbd62e57a	-0.055394627
114	0xbd8ac0d6	-0.06775062
115	0xbd6b8fc9	-0.05751017
116	0xbd27c785	-0.04096176
117	0xbd60a187	-0.054841544
118	0x3d04bdfe	0.032407753
119	0xbdc5b6cb	-0.096540056
120	0xbc5c2fe6	-0.013439154
121	0xbd2adf95	-0.04171713
122	0x3b930727	0.0044869366
123	0xbc872c47	-0.016500605
124	0x3b7d6cdd	0.0038669624
125	0xbadf6d4d	-0.0017046124
126	0xbc6cf07b	-0.014461632
127	0x3c137e2c	0.00900225

network_body._body_endoder.seq_layers.4.weight f4 [128, 128]
0	0x3dba70d5	0.09103552
1	0xbd573a8c	-0.05254607
2	0xbbf8a963	-0.007588552
3	0xbcd46ee4	-0.025931783
4	0x3b6fd6fd	0.003659665
5	0x3cee497d	0.029087776
6	0x3cc6a13d	0.024246806
7	0xbd08f0c9	-0.033432756
8	0x3ca4014e	0.020020153
9	0x3d3aeaa8	0.045633942
10	0x3d15a88a	0.036537685
11	0xbe0bc162	-0.13647988
12	0xbdd20502	-0.102548614
13	0x3d1eb221	0.038744096
14	0xbdca67e1	-0.098830946
15	0x3e2391f2	0.15973642
16	0xbc466edc	-0.012111392
17	0xbd14a190	-0.03628689
18	0x3d9455e6	0.07242946
19	0x3d022b92	0.031779833
20	0x3ccd6532	0.025072668
21	0x3d68759b	0.056752782
22	0xbde20e70	-0.1103791
23	0xbde8d62d	-0.11368976
24	0xbddd2512	-0.10798086
25	0xbcf9f863	-0.030513948
26	0xbbfc307a	-0.0076962085
27	0xbdf75eeb	-0.12078651
28	0x3cf2a2e7	0.029618694
29	0x3d604c89	0.05476049
30	0xbe292c07	-0.16520701
31	0xbe0b1aa1	-0.13584377
32	0xbbb9c370	-0.00566905
33	0x3e2f226b	0.17102973
34	0x3cae70b5	0.021293977
35	0x3e0a2710	0.13491464
36	0x3d646b6f	0.05576652
37	0xbd8006b9	-0.06251282
38	0x3d8fc1bf	0.07019376
39	0x3c9577e7	0.01824565
40	0xbd374036	-0.04473897
41	0x3d8d5c33	0.06902351
42	0x3e203c3f	0.15647982
43	0x3bcafcec	0.0061947014
44	0x3d64c23e	0.055849306
45	0x3d579b77	0.052638497
46	0xbd67908d	-0.05653434
47	0x3d1537bc	0.036430106
48	0x3cf685fd	0.030093187
49	0xbbc0bb8b	-0.005881732
50	0xbd165684	-0.0367036
51	0xbdcc4206	-0.099735305
52	0xbdf46e70	-0.11935127
53	0x3cd433f1	0.025903674
54	0xbd1ce74e	-0.038306527
55	0xbdc5758a	-0.096415594
56	0x3ccd3556	0.025049847
57	0x3db43531	0.08799208
58	0x3c6d2bb9	0.014475756
59	0xbad726bf	-0.0016414745
60	0xbb0d22ee	-0.0021535712
61	0xbd90368b	-0.07041653
62	0xbdacca51	-0.08437026
63	0xbccf4500	-0.025301456
64	0xbd1cac2a	-0.038250126
65	0x3d6864d8	0.056736797
66	0xbdab307a	-0.083588555
67	0x3b29c792	0.0025906307
68	0xbdf122c1	-0.11774207
69	0xbd671499	-0.056416128
70	0x3dd28009	0.10278327
71	0xbca4821d	-0.020081574
72	0x3d43a71a	0.047766782
73	0xbb3f7a30	-0.0029217117
74	0xbd9f0697	-0.07764929
75	0x3c4d2881	0.012521864
76	0x3dfc4d96	0.12319486
77	0xbdc3cc0f	-0.095604055
78	0xbbaf5b0a	-0.005351429
79	0xbdd1f51a	-0.102518275
80	0x3de54c49	0.11196191
81	0x3dca7aa0	0.0988667
82	0xbd9c2646	-0.076244876
83	0x3cc85baf	0.02445778
84	0xbdd78dea	-0.10525115
85	0x3d479bb7	0.048732486
86	0xbde58fbf	-0.11209058
87	0xbd71b822	-0.059013493
88	0x3d307c6d	0.04308741
89	0x3d88713e	0.06662224
90	0xbd8d73f2	-0.069068804
91	0x3d89d537	0.06730121
92	0x3ce25da6	0.027632546
93	0x3e058804	0.13040167
94	0x3d96185e	0.073288664
95	0xbc087eb2	-0.008330988
96	0x3c9bbaa0	0.019009888
97	0xbde45378	-0.11148733
98	0xbd11e043	-0.035614263
99	0xbd827915	-0.06370751
100	0x3d3ec56a	0.046574987
101	0x3d9bb75d	0.07603333
102	0x3c60d3b1	0.013722346
103	0x3d031798	0.032004923
104	0xbdb53a15	-0.08848969
105	0x3c93d0a0	0.018043816
106	0xbd274fb2	-0.040847488
107	0xbcdc0a4b	-0.026860377
108	0x3e226343	0.15858178
109	0x3ab28865	0.0013620971
110	0x3dc64ebe	0.09682988
111	0xbac176d8	-0.001476015
112	0xbd8da348	-0.06915909
113	0x3df47463	0.119362615
114	0xbd97c7de	-0.074111685
115	0xbd0ca232	-0.03433437
116	0xbd76f2c1	-0.060290102
117	0x3c68aa52	0.014200764
118	0xbe0198dc	-0.12655967
119	0x3a58d0ae	0.0008270842
120	0xbe5da0d4	-0.21643382
121	0x3c6a53b2	0.014302181
122	0x3d8d32fd	0.06894491
123	0xbd6cec5d	-0.0578426
124	0x3e1654fa	0.14680853
125	0x3d6bcc9c	0.057568178
126	0xbce497ab	-0.027904352
127	0xbdccedb6	-0.10006277
128	0x3e5d42d8	0.2160753
129	0x3d833ccd	0.06408081
130	0xbc82b973	-0.01595757
131	0x3e2ce031	0.16882397
132	0xbdadedf7	-0.08492654
133	0xbd54041d	-0.051761735
134	0x3d7d6ae1	0.061869506
135	0x3e1d142c	0.15339726
136	0x3d1a98b4	0.037743285
137	0xbbf701ef	-0.0075380723
138	0xbd7e17a0	-0.06203425
139	0xbdc3c6da	-0.09559412
140	0xbd52d057	-0.05146822
141	0x3d97ff3c	0.07421729
142	0xbdd84620	-0.1056025
143	0x3cd18253	0.025574839
144	0xbc12118c	-0.008915316
145	0x3e2af7cc	0.1669609
146	0x3d062b3b	0.03275607
147	0x3d72ff9d	0.059325803
148	0xbd633ee8	-0.055479914
149	0x3e0ddfb4	0.13854867
150	0xbdb96467	-0.09052353
151	0xbe079adc	-0.13242668
152	0xbda6d339	-0.08145756
153	0x3ca5e009	0.02024843
154	0xbdf6da96	-0.12053411
155	0xbdc7e139	-0.09759755
156	0x3d8037cd	0.06260643
157	0x388f99a1	6.847387e-05
158	0x3db093c5	0.08621935
159	0x3e1eff58	0.15527093
160	0x3b0fc044	0.0021934668
161	0xbd8fbc91	-0.07018388
162	0x3c1220d1	0.008918957
163	0xbb4b860b	-0.0031055238
164	0x3a400d95	0.00073262426
165	0xbd41620a	-0.047212638
166	0xbda866be	-0.082227215
167	0x3d638d89	0.0555549
168	0xbdd16cb4	-0.102258116
169	0xbde751ee	-0.11294924
170	0x3da2ee0b	0.07955559
171	0x3d3a4cf7	0.045483556
172	0x3d9e4ba4	0.07729271
173	0xbd390164	-0.04516734
174	0x3dc2b6a0	0.09507489
175	0x3dfaebe3	0.12252023
176	0xbd98edbd	-0.0746722
177	0xbbfbe519	-0.0076872227
178	0x3dbaf9a2	0.09129645
179	0xbdb81d3d	-0.08989952
180	0xbdf3794b	-0.11888369
181	0xbd776987	-0.060403373
182	0xbdfb9363	-0.12283971
183	0xbd9845b0	-0.07435167
184	0xbd9c511b	-0.07632657
185	0x3c7eb92a	0.015547076
186	0x3d90b2fd	0.07065389
187	0x3bfca71d	0.007710351
188	0x3cb677c2	0.022273902
189	0xbc97df46	-0.018539082
190	0xbc2d2cb7	-0.010569743
191	0xbd684b67	-0.056712534
192	0x3cbd43bf	0.023103593
193	0xbdc34b67	-0.09535866
194	0x3d804499	0.06263084
195	0x3d350733	0.04419632
196	0x3a79b5a8	0.0009525665
197	0x3d4b544b	0.049640935
198	0x3db4d4e6	0.0882967
199	0xbd3e501f	-0.04646313
200	0x3c120930	0.008913323
201	0x3d2e1dee	0.042509012
202	0x3d7de22a	0.061983265
203	0xbd0dd76d	-0.034629274
204	0xbd73b2e8	-0.05949679
205	0xbced1d61	-0.028944673
206	0xbd4580c8	-0.04821852
207	0x3db4e2af	0.08832299
208	0xbd6da847	-0.05802181
209	0x3d5f3bb2	0.05450029
210	0x3d9e23f5	0.07721702
211	0x3d071036	0.032974444
212	0xbd4c3783	-0.049857628
213	0xbb1a495d	-0.0023542263
214	0x3d33afec	0.043868944
215	0x3da81a9c	0.082082
216	0xbd8e0102	-0.06933786
217	0x3dc8092d	0.09767375
218	0xbc5d76cc	-0.013517093
219	0xbd26a0e2	-0.040680774
220	0xbdaff9e9	-0.085925885
221	0xbca2a03e	-0.0198518
222	0xbd53856f	-0.051640924
223	0x3d342472	0.04398007
224	0x3e540f5d	0.20708986
225	0x3ced5fa7	0.028976275
226	0x3cb2f407	0.021844877
227	0x3d9be5e8	0.076122105
228	0xbd763ccd	-0.060116578
229	0x3d90a0bb	0.07061907
230	0x3e67572b	0.22591846
231	0x3e00458d	0.12526532
232	0x3d99b39a	0.075049594
233	0xbc7870e2	-0.015163632
234	0xbde6343b	-0.11240431
235	0x3d32c0a4	0.043640748
236	0xbd82e6b9	-0.06391663
237	0x3e12799f	0.14304207
238	0x3d4170cc	0.047226712
239	0xbd93f567	-0.07224541
240	0x3da8f63e	0.08250092
241	0xbd1d6364	-0.038424864
242	0xbd282997	-0.04105529
243	0xbdb48ae9	-0.088155575
244	0x3d8187ee	0.06324755
245	0x3d73fbec	0.059566423
246	0xbdae5e39	-0.08514065
247	0x3e23046e	0.15919659
248	0xbd63df7e	-0.05563306
249	0x3cf50074	0.029907443
250	0xbe0632c3	-0.13105302
251	0x3d17f2ed	0.037096906
252	0x3d04dbeb	0.032436293
253	0x3e0954a6	0.13411197
254	0xbd340eae	-0.043959312
255	0x3d46fe27	0.048582222
