Maize-Runner/results/MazeRunnerRewards2/EscapeMaze/EscapeMaze-1999942.onnx (onnx, 200372 bytes, 9 tensors)

action_model._continuous_distribution.log_sigma f4 [1, 2]
000000 83 f4 1c be a6 6a 09 be
       -0.15327649 -0.1341959

action_model._continuous_distribution.mu.bias f4 [2]
000000 85 c4 95 bc 4c 09 47 ba
       -0.018282184 -0.0007592633

action_model._continuous_distribution.mu.weight f4 [2, 128]
000000 06 3f 89 3a 50 b4 b6 bb 14 ad 59 bb ab 4d 55 3c
       0.0010471053 -0.005575694 -0.0033214735 0.013019006
000010 5f 07 09 3a f4 8c 71 3a eb 0f 98 bb 4f 23 3b bd
       0.00052272336 0.0009214424 -0.0046405694 -0.04568797
000020 a2 04 26 3a 43 96 43 bb ab 9a 25 bb 4c df 71 bb
       0.0006333088 -0.0029844202 -0.0025269191 -0.0036906777
000030 64 71 80 3d 72 81 63 bd 2a 58 3c ba 05 cb b5 3c
       0.062716275 -0.05554337 -0.00071847683 0.022191534
000040 3c d7 0b 3c 5a c4 4e bd cf 2a 6a 3c 14 2d 4f 3c
       0.008535203 -0.050480224 0.014292433 0.012645025
000050 67 e8 9d bb a8 6d 14 3b da b9 a3 bd 6b 1a 30 bd
       -0.0048189643 0.0022648368 -0.07994433 -0.042993944
000060 cb 93 33 ba 8a 73 c4 ba 35 3e ea ba 4a 13 2e 3a
       -0.0006850331 -0.0014988047 -0.0017871322 0.00066404475
000070 9d b4 36 bc 9d 9b 19 bc 1e a6 87 bb b3 7c 57 ba
       -0.01115146 -0.00937548 -0.0041396758 -0.0008220181
000080 1b d4 ab bb 3c 92 88 bb 20 88 90 3d c0 fa 14 3b
       -0.005243791 -0.004167823 0.07057214 0.0022732466
000090 31 95 16 3b 27 46 89 3c b1 40 eb 3a 28 6e 73 3c
       0.0022977109 0.016757084 0.0017948357 0.014857806
0000a0 73 33 ef bb 41 b7 da bb a6 3f 9b 3b f7 4b 70 3b
       -0.0072998344 -0.0066746776 0.004737812 0.0036666372
0000b0 bf 97 ca bb 2e 1e 22 bc e5 13 79 3b dc 7d 41 bb
       -0.0061826403 -0.009894891 0.0038006243 -0.002952448
0000c0 07 4f 3e b8 8b 55 bf 39 3d 7a f6 bd a2 7e c6 3a
       -4.537313e-05 0.00036494093 -0.12035034 0.0015143941
0000d0 12 cf a9 39 97 cf a8 bd c6 1f 00 3b 8e 7f ec bb
       0.0003238847 -0.082427196 0.0019550188 -0.007217354
0000e0 03 05 9d 3c d8 19 73 3b 0a 2b 26 3b f9 39 fc bc
       0.019167429 0.0037094261 0.0025355243 -0.030789362
0000f0 ac 45 cf bb ea 65 93 ba 5f ef 89 bb 8e 0b 03 3c
       -0.006325444 -0.0011245583 -0.0042094435 0.00799836
000100 ef f9 4d bb a3 6a bb bb 98 05 9f 3a ce fa 1e bd
       -0.003142949 -0.005719499 0.0012132404 -0.038813405
000110 f6 95 73 3b ff 11 aa 3a 44 e1 99 ba 1d 20 b2 3c
       0.003716824 0.0012975334 -0.0011740108 0.021743828
000120 72 a2 47 3b 14 4e aa b9 e9 cc 89 3c 81 68 07 bd
       0.0030461815 -0.000324831 0.016821342 -0.033058647
000130 49 b7 38 3d c0 30 64 3d c7 18 ff bb 9e e2 8b bb
       0.04509667 0.055710554 -0.007784936 -0.0042689582
000140 1a fc ab 3b 45 6e 9b 3d 58 cb c7 bb 45 d8 19 3b
       0.0052485587 0.075893916 -0.0060972385 0.0023474854
000150 e9 de 90 ba ef 96 d4 ba de 85 a9 3b b8 8d ca 39
       -0.001105276 -0.0016219298 0.005173429 0.0003863403
000160 f1 a5 6a 3b 67 2b 93 bb 99 0d 49 bb 2f 9a a2 3c
       0.0035804475 -0.004491258 -0.003067827 0.019848911
000170 c4 fb f7 3a 08 fd d1 bc 20 8e d4 38 b8 f2 9f 3b
       0.0018919636 -0.02563335 0.000101354206 0.0048812293
000180 d3 44 d1 38 ae 2d 43 bc 69 96 c5 3a 1f 58 ba bb
       9.978716e-05 -0.011912746 0.0015074733 -0.0056867744
000190 29 c3 1c 3c 8f 2d 5d bc 4f c8 c0 3c 2c 9f 39 bd
       0.009568014 -0.013499632 0.023533015 -0.045317814
0001a0 8a d8 10 3b 2f 9b 3c 3a 84 3f 9b bb ad 61 6d bd
       0.0022101724 0.0007194755 -0.0047377963 -0.05795448
0001b0 41 03 94 3b 47 cf 29 3b ef 9d 44 bb 35 0c b0 bc
       0.0045169895 0.00259109 -0.0030001362 -0.021490196
0001c0 76 ad 89 39 e4 47 f1 bb 55 02 36 bb 5e bf 21 3d
       0.00026259915 -0.0073633064 -0.0027772386 0.039489143
0001d0 1f be 25 bd 16 7d 97 3d f5 f3 06 3b 4b 24 6e 3d
       -0.040464517 0.07396905 0.0020592187 0.05814008
0001e0 d2 7f 3d bd a3 ca 99 3c 57 89 66 bb 3c 68 3c bd
       -0.046264477 0.018773383 -0.0035177076 -0.045997843
0001f0 c6 0f 8b 3b 9a 53 ef bd 3e 51 c0 ba 43 49 03 be
       0.0042438237 -0.116858676 -0.001467265 -0.12820916
000200 ef 49 10 bb d8 18 87 3a 35 c7 06 bb d7 23 0e 3d
       -0.0022016724 0.0010307087 -0.0020565514 0.03470215
000210 4f fd 0f bb d7 43 43 3b 76 96 b7 3a e7 32 68 bd
       -0.0021971052 0.0029795074 0.0014006633 -0.05668917
000220 d2 33 05 bb 46 18 95 3a 70 d4 f8 bb 21 23 31 3b
       -0.0020325077 0.0011375032 -0.007593684 0.0027028995
000230 a9 be 2b bd 69 48 27 b9 25 84 56 bb 90 00 5a bd
       -0.041929875 -0.00015953336 -0.0032732573 -0.053223193
000240 20 11 24 bb 55 3f 9c 3d 14 d7 7c bc 4a c0 41 3b
       -0.0025034621 0.07629267 -0.015432138 0.0029564076
000250 d7 e5 f1 3b 5f 2a 4d b9 71 f4 ba bb 40 a1 d0 3b
       0.0073821354 -0.00019566108 -0.005705409 0.0063668787
000260 44 81 47 b8 6c 79 bb 3b 34 f1 89 3b 1c 25 09 3b
       -4.7565685e-05 0.0057212617 0.004209662 0.002092666
000270 c7 b2 53 3d 6d 7a 8c 3b c8 14 8d 3b 70 96 17 ba
       0.051684167 0.004287055 0.004305456 -0.000578261
000280 eb 4b 8b bb 6d f3 42 3c 1f 92 f8 3c 63 c1 30 3a
       -0.0042509935 0.011898858 0.030343113 0.0006742684
000290 9a 7e 2b 3a 74 b4 21 3d e5 a8 d3 3c a5 d7 1e bc
       0.00065419974 0.039478734 0.025837371 -0.009694968
0002a0 ee 25 4e bb 17 d5 a3 3a cb 52 38 3c 64 c3 e2 3b
       -0.0031455713 0.0012499419 0.011250208 0.006920265
0002b0 19 93 12 3b f2 ec e8 ba af bf 8e 3a 29 2e ca 39
       0.002236551 -0.001777081 0.0010890866 0.00038562834
0002c0 b2 f6 25 bb b2 56 e5 ba 8f 2d f5 bb bb e9 70 bb
       -0.0025324044 -0.0017497151 -0.0074822376 -0.0036760408
0002d0 8f 1a 64 bb 0f 89 03 bd bc b5 54 3a e2 4e a4 39
       -0.003480587 -0.03211313 0.0008114239 0.0003133929
0002e0 f2 d5 47 3c d4 21 02 ba 6e 43 b2 bb b1 cc c3 bd
       0.012197005 -0.0004964147 -0.005440167 -0.09560526
0002f0 6a ec 79 bb 02 3b 87 3b 9d bf 56 bb 1c cb 0b ba
       -0.0038135299 0.0041269073 -0.003276802 -0.0005332695
000300 1a b9 81 bb 95 c0 3e 3d 47 4d d3 3b fb 11 60 3d
       -0.0039588334 0.04657038 0.006448421 0.054704648
000310 da c8 42 39 f8 4f 96 bb 7a 0d 0b 3c 47 54 8e 3a
       0.00018576105 -0.0045871697 0.0084871 0.0010858857
000320 b7 da c8 ba 2f a5 68 39 9c 20 7c bc cf 57 81 3d
       -0.0015323971 0.0002218678 -0.015388634 0.06315576
000330 66 79 e7 3c 32 c9 ba 3c a7 af c9 bb 8d e3 fa ba
       0.02825613 0.022801016 -0.0061549726 -0.0019141302
000340 95 6e b1 bb 7f d9 7c bd 9c a0 4b 3d c6 bc 91 3b
       -0.0054147937 -0.061730858 0.049713716 0.0044475524
000350 a2 93 4a bc bc 6a 27 3d f5 0d 8e bb 1a 5c 2a 3b
       -0.0123643 0.040873274 -0.00433516 0.0025994838
000360 5f 49 92 3b 84 fb b7 3a 92 8c cb 3b a0 0e 4f 3b
       0.004464313 0.001403675 0.0062118256 0.003159441
000370 bd e9 c8 b9 72 f9 88 bd 5b 0f 74 3a 21 9a 9a bb
       -0.0003832112 -0.06688203 0.00093101495 -0.0047180806
000380 bc 0e aa 3b 4f 98 15 bc 3e 6a 9e 3b 3d b2 c3 bc
       0.0051897448 -0.0091305515 0.0048344424 -0.023888702
000390 5b 08 a5 bb 47 1c d8 3c 28 0e ec ba 1c 20 1a 3d
       -0.0050363964 0.026380671 -0.001800959 0.037628278
0003a0 27 28 40 3d 6e fa 3f 3d 4b e2 3a bd 9c a4 6a 3d
       0.046913292 0.046869688 -0.045625966 0.05728589
0003b0 0c 56 cb bb 75 13 32 39 28 bf 4e bb 90 5c ab 3b
       -0.006205326 0.00016982651 -0.0031547043 0.00522954
0003c0 1e e7 77 ba eb 4e fa bb c7 09 8a 3b 24 41 b4 bb
       -0.00094567414 -0.0076388023 0.0042125913 -0.0055009294
0003d0 6d 6a e5 bc 56 df 80 3d 67 2b f5 bb 2f 32 80 bd
       -0.02800485 0.06292598 -0.0074819806 -0.06259572
0003e0 de 27 06 bd 50 db 4d 3d 44 ec 03 ba 18 36 7e bd
       -0.032752864 0.05025798 -0.000503246 -0.062063307
0003f0 9a 64 cf 3a 79 6e 97 bb 89 8a ad 3b 0d 7f 4e 3d
       0.0015822828 -0.0046213237 0.0052960557 0.050414134

network_body._body_endoder.seq_layers.0.bias f4 [128]
000000 c2 fe 84 bd 8c 48 b4 bc 5d 5d 87 bd 82 72 17 bd
       -0.06493904 -0.02200725 -0.066096045 -0.036974438
000010 3d 6f 37 b9 ce 54 e4 bc 32 33 4f 3d d1 19 db bc
       -0.0001749368 -0.02787247 0.050585933 -0.026745709
000020 ea 9f c4 bc e9 fd 00 3d 55 eb 96 bc 6a 22 d8 bc
       -0.024002034 0.031492148 -0.018422762 -0.026383597
000030 ea 55 84 bb a9 2b da bc 2f 52 29 bc 8a 4d 93 3c
       -0.004038562 -0.026632147 -0.0103345355 0.01798131
000040 01 c8 b9 3c 2a cf f8 ba 08 0f 35 bd 43 a6 37 38
       0.022678377 -0.0018982638 -0.044203788 4.3785443e-05
000050 e9 98 40 bb c9 3f f5 bc f1 32 3f 3b 62 61 a2 bb
       -0.0029388017 -0.029937642 0.002917465 -0.0049554566
000060 95 e5 23 be 67 ca fa 3c 23 96 13 3b 53 1a 49 bd
       -0.16005547 0.030614091 0.0022519908 -0.04909737
000070 63 2c 3c 3d e3 00 b1 bc 32 6c 49 bc 8a 99 07 bd
       0.045940768 -0.021606868 -0.012293862 -0.03310541
000080 2b da 43 bb ed 1f d4 3c e7 b2 f9 3c 4c 99 ea bb
       -0.0029884677 0.02589413 0.030480815 -0.0071593877
000090 8c 5f 2b 3b 0b ea ec bb df 32 47 3c bb b8 25 bb
       0.002614948 -0.0072300485 0.012158125 -0.002528711
0000a0 f0 7d 34 3c 4f d6 29 bd 2e b1 10 bd e0 54 e1 bb
       0.011016354 -0.041464146 -0.03532522 -0.006876573
0000b0 39 3e b5 bb 0e 01 08 bc ba 9d 00 bb 50 86 d9 3c
       -0.005531099 -0.008301033 -0.0019625262 0.026553303
0000c0 72 6c 7a bc 12 48 58 bd 50 21 22 bd ac 5b 1d bd
       -0.015284644 -0.052803107 -0.03958255 -0.038417503
0000d0 88 fa c5 bc 33 03 a2 bc cb 70 cc 3a ea 71 d7 3b
       -0.024167314 -0.019776916 0.001559758 0.006574859
0000e0 e9 38 8d 3c a9 c5 22 3c 58 da ee bc 5d cb 0d bd
       0.017239051 0.009934821 -0.029156849 -0.03461777
0000f0 4e f2 a4 3c 51 c8 15 3b 7c 17 58 3b 70 2e fc 3c
       0.020135071 0.0022854994 0.0032972982 0.030783862
000100 d8 6b 13 3d 22 2e 0d 3d 91 d0 97 bb e6 51 b9 bc
       0.03599152 0.034467824 -0.0046330173 -0.02262206
000110 57 d9 aa bc 67 dc d1 bc 27 61 f5 ba 7f c6 e9 bc
       -0.020855589 -0.025617791 -0.001872097 -0.028537033
000120 65 1d 5f bc d7 b2 08 bd 64 7c d1 bc 5c c2 c2 39
       -0.013617848 -0.03337368 -0.02557201 0.00037147372
000130 33 81 0f 3d ab 97 fc bc 61 ad a8 3c fb 39 15 3d
       0.035035323 -0.03083404 0.020590486 0.036432248
000140 77 57 0e bd 48 f0 fc bc 62 97 b3 bc ba 48 de bc
       -0.03475138 -0.030876294 -0.02192277 -0.027134288
000150 3a bc c4 3c 0d 1b 4c bc e0 e8 4d bd 9c 8d 3b 3c
       0.024015535 -0.012457621 -0.050270915 0.0114473365
000160 e6 6c 04 3d 6a ea 13 bd bd ae 96 bc f5 5f ed 3c
       0.032330416 -0.036112227 -0.018393869 0.02897642
000170 3b e5 d9 3a 11 b7 35 3b 66 8a f2 bc 66 fb 69 bc
       0.0016624102 0.0027727524 -0.02960701 -0.014281129
000180 3f 61 c4 bb 51 67 c7 bc 01 24 24 3d 1c 08 f1 bc
       -0.005993038 -0.024341257 0.0400734 -0.029422812
000190 37 de 3b 3c 2c 07 89 3c c6 22 8d bc 78 8c 08 bd
       0.011466554 0.016727053 -0.017228495 -0.033337086
0001a0 9c 74 1e bc fa 22 44 3a 74 02 4c 3b 49 a7 af 3c
       -0.0096713565 0.00074820186 0.0031129392 0.021442072
0001b0 a1 58 4a bb 3d 03 aa bc 6a 4f e6 bc f5 16 e2 bd
       -0.003087558 -0.020753497 -0.02811404 -0.11039535
0001c0 91 a2 ea bc ab 9c a1 bc 99 43 f9 bc e7 ae 09 3d
       -0.02864197 -0.019728025 -0.03042774 0.033614065
0001d0 22 78 47 3c f6 c0 ba 3c 20 3e 50 bd a4 26 26 bd
       0.012174638 0.02279709 -0.050840497 -0.040564194
0001e0 92 d1 1b 3c 6a ef 5a bc f7 de 85 bc 8c ca 42 bd
       0.009510415 -0.013362745 -0.01634167 -0.047556445
0001f0 31 63 10 3d 91 b4 ab bb 8b 94 6a 3c 4b 41 e7 bc
       0.035250846 -0.005240031 0.014317642 -0.028229376

network_body._body_endoder.seq_layers.0.weight f4 [128, 126]
000000 b7 11 bf bd 4c 71 10 bc 56 f5 82 3c 66 68 9a bc
       -0.09329551 -0.008816075 0.015986126 -0.01884861
000010 8c 43 ba bd bf 67 81 be e2 1a a7 3d f4 1b 46 be
       -0.09094915 -0.25274464 0.08159424 -0.19346601
000020 bf 90 4f be e1 3b 93 bd 7b c2 e0 bd 75 68 43 be
       -0.2027006 -0.07189155 -0.10974594 -0.19082816
000030 9c 7e cd bc d6 d4 f7 bd 58 7d 2c be 90 a1 f2 3c
       -0.025084786 -0.12101142 -0.1684469 0.029618055
000040 ed c1 4a be a6 59 45 3e 7a 78 c0 bd 28 95 94 be
       -0.1980054 0.1927248 -0.09397979 -0.29020047
000050 20 1d bf be 50 d1 54 3d 20 e5 a5 bd 64 8b 3c bd
       -0.37326908 0.05195743 -0.08100343 -0.04603137
000060 95 bc 8a bd e8 c9 26 3e e2 a9 ff bd 24 7a 48 be
       -0.067742504 0.16287959 -0.124835745 -0.19577843
000070 24 87 2c bd c8 62 5f be be 50 90 be 0b 26 dc bd
       -0.042121068 -0.21815026 -0.281866 -0.107494436
000080 cc b2 61 bd 00 24 7f 3c bf b0 06 be 86 6e 56 be
       -0.055102155 0.015572548 -0.13153361 -0.20940599
000090 9d d7 4a bc 30 32 4f 3e 14 ec 68 3d 74 3d 83 bc
       -0.012380508 0.20233989 0.056865767 -0.016020514
0000a0 bc 7f e5 3d f9 79 e9 bd f4 2d 46 3e da 1e 3a 3e
       0.11206004 -0.114002176 0.19353467 0.18175831
0000b0 88 b8 42 3c ea df 36 3e 52 d9 df bd 29 e7 e2 bd
       0.011884816 0.17858854 -0.109301224 -0.110792466
0000c0 02 12 23 bd bc ca f0 bd 02 d2 a2 3d 93 83 70 be
       -0.039812095 -0.117574185 0.07950212 -0.23487692
0000d0 6b 65 41 3e 58 03 e5 bd fa ec f7 3d 58 36 8f 3d
       0.18886344 -0.111822784 0.121057466 0.06992787
0000e0 6e 6c a6 bb dd bc cd bd 3e f1 0e 3d 75 bd 7b bd
       -0.005078844 -0.100457884 0.034898035 -0.061459977
0000f0 61 88 7f 3d 06 b4 f4 bd 54 7e 24 3e 5b ab cc 3d
       0.06238592 -0.11948399 0.16063815 0.09993621
000100 e6 bb 1f bd 08 82 00 be ea d1 55 bd 1d 1a 07 be
       -0.038997553 -0.12549603 -0.052202143 -0.13193555
000110 ea 76 bc bb 02 ea 16 3d 14 aa 6e be 3e 63 43 be
       -0.0057514803 0.03684426 -0.23307067 -0.19080827
000120 ec e9 39 bd 2b 81 33 3c d9 a1 e3 bd a5 ba 07 be
       -0.0453891 0.010956089 -0.11114854 -0.13254793
000130 11 17 47 be 7d 4a 93 be 08 f0 eb bd 4b 62 06 3d
       -0.19442393 -0.28767768 -0.11520392 0.032808583
000140 62 9a 27 be 3a 70 f3 3a 7f 03 c4 3c 5e 37 b2 bd
       -0.16367486 0.0018572875 0.023927448 -0.08701967
000150 53 47 57 bd 22 fe a2 3c e3 0e 90 3d de 20 4a bb
       -0.052558254 0.01989657 0.070340894 -0.0030842344
000160 a3 e2 62 be 76 2b da bd cd 33 83 3d c5 9a 13 be
       -0.22156768 -0.10652821 0.064063646 -0.14414509
000170 ca 40 30 bb 06 7f f3 3c c0 c9 82 bb 85 83 b5 bd
       -0.0026894086 0.029723655 -0.0039913356 -0.08862976
000180 49 bd eb bd ce 97 d7 bd 13 0f 93 3d 7d 13 d7 3b
       -0.11510713 -0.10527001 0.071806096 0.0065636025
000190 a5 e0 5e bd 42 e8 4e 3c 9b d1 f3 3d 46 69 20 be
       -0.054413456 0.012628617 0.119052134 -0.15665159
0001a0 8f 6c 1a bc 7e 4f 8f 3d e3 8e 31 3d b7 c0 16 3d
       -0.009425296 0.06997584 0.043349158 0.03680488
0001b0 fb 21 40 3e 79 bd 1a be 98 e3 20 be 3a f4 bb 3e
       0.18762963 -0.1511134 -0.1571182 0.36709768
0001c0 9b b2 4a 3e fa d6 c4 3d 9b 91 60 bd ed 44 d3 bd
       0.19794695 0.09611316 -0.05482636 -0.10315881
0001d0 13 d7 e4 3d 19 00 10 be de ca 5d 3e 1b 65 07 3d
       0.11173835 -0.14062537 0.21659419 0.033055406
0001e0 6c 39 14 3d 14 04 68 3d 44 14 37 be 22 11 e7 bd
       0.036187574 0.056644514 -0.17878824 -0.11282565
0001f0 0d d8 58 be b9 bb 73 3b fd 40 2f 3e 23 06 a5 3c
       -0.21176167 0.003719075 0.17114635 0.020144528
000200 4e c2 04 bd 5a f9 7b bd 0a aa c7 3c 9a fb 4c 3d
       -0.032411866 -0.061517097 0.024373073 0.050044633
000210 23 f8 ba bd d7 ca ef bd f1 a9 a0 3d c6 bd 30 bd
       -0.091293596 -0.117086105 0.07844914 -0.043149732
000220 f3 4f bc bd 26 24 9e bd 69 b8 97 3d b1 da 11 bd
       -0.091949366 -0.077217385 0.0740822 -0.03560895
000230 f7 6d 43 bd 7b 52 6e be 5e fe 62 ba 9c 9c df bd
       -0.047712293 -0.23273651 -0.00086591195 -0.10918543
000240 f8 45 cc bd 65 8e 18 be b1 69 51 ba 7b 14 87 3d
       -0.09974283 -0.14898069 -0.00079884665 0.06595703
000250 16 df 77 3c c2 e3 2f bd 63 b3 00 3e e6 e5 d7 bd
       0.015128871 -0.042941816 0.1256843 -0.105418965
000260 92 4e 35 be c0 2a 84 bd 47 2f 06 bd 3d ee ea bd
       -0.17705753 -0.064534664 -0.03275993 -0.114712216
000270 d6 77 8f 3d e1 c4 a9 3c fe c3 81 bc c0 7b 59 bb
       0.07005279 0.020723762 -0.015840527 -0.0033185333
000280 72 b9 10 be 6d 4c 53 3d ba d5 e3 3d 77 a5 1d be
       -0.14133242 0.051586557 0.111247495 -0.15395151
000290 97 34 c1 be d8 3d 1b bd 25 fa 1b be 6b ef a4 bc
       -0.37735435 -0.037900776 -0.15232141 -0.020133695
0002a0 02 01 52 3d dc b9 ad 3a c9 9a 11 be 3c fb 08 bd
       0.051270492 0.0013254243 -0.14219202 -0.03344272
0002b0 3f 2a a8 3d ba 54 84 3d 3e 91 79 be cb d0 0b be
       0.08211183 0.06461473 -0.24371812 -0.13653867
0002c0 a9 d6 0f 3d ab e4 37 3d 8d 86 69 3d af 77 9d 3c
       0.035116825 0.04489581 0.057013083 0.019222109
0002d0 29 fb 60 bd f6 0f 68 3d ca ed 3f 3d 5b a0 6c bd
       -0.054927025 0.056655847 0.046857633 -0.057770114
0002e0 b6 5c 2d be 5f 2f ce bd 94 5e 7f 3d ba 50 5a 3c
       -0.16929898 -0.10067629 0.062346056 0.013324911
0002f0 20 6d 12 bd 16 66 83 bd 58 08 22 be 6c 49 2a be
       -0.0357486 -0.06415956 -0.15823495 -0.1662957
000300 95 87 fe bd ee 56 ee bd 27 9d 0f bd e9 da 13 be
       -0.12428204 -0.11637674 -0.03506198 -0.14438976
000310 75 43 dc bd c2 ff 40 3d 0f b9 0c 3e 0b 70 96 3d
       -0.10755054 0.04711891 0.13742469 0.07345589
000320 25 10 33 bd 4e 8b 12 be 6e af 1f 3e 1c ac b8 be
       -0.04371657 -0.14310953 0.15594265 -0.3606881
000330 aa 2c 48 3b ae 2c cd bd 73 37 91 bd 94 95 92 bd
       0.00305442 -0.100182876 -0.07090654 -0.07157436
000340 a7 c2 22 be 51 88 39 be 72 3e c3 3d d1 8c 2c be
       -0.15894566 -0.18118407 0.09533395 -0.16850592
000350 d8 b6 02 be b5 27 bf 3a b4 c0 e0 3b b1 4b 89 bd
       -0.12765062 0.0014583977 0.0068589095 -0.0670389
000360 83 4a 5f 3d 12 da f4 3d c5 da a9 bd 25 06 ca 39
       0.05451442 0.11955656 -0.0829368 0.0003853302
000370 3c 20 0a 3e ae 25 e7 bc 86 69 70 bc 11 ed 09 3d
       0.13488859 -0.02821621 -0.014673596 0.03367335
000380 19 47 03 be a8 17 9a be e5 b3 e9 3d 6c 4e 43 bd
       -0.1282009 -0.30096173 0.11411265 -0.04768221
000390 10 39 e2 bd e0 e9 f5 bb 85 e9 30 bd ca 16 bd bc
       -0.1104604 -0.0075046867 -0.04319145 -0.023082156
0003a0 35 dc 13 3e 91 06 5f 3d 2f 65 28 bd 83 ee 61 bd
       0.14439471 0.05444962 -0.04111212 -0.055159103
0003b0 62 b1 3a bd 3b 09 0f be 4e 0a 8b bd 49 82 d0 bd
       -0.04557932 -0.13968365 -0.06789075 -0.101811
0003c0 06 df 17 3e 0e 96 03 3e 70 9b 0c be 7c 13 56 3e
       0.1483117 0.1285021 -0.1373117 0.2090587
0003d0 cf d7 16 bd 2e 5a cc 3d cd b1 9c 3e 82 28 0b 3e
       -0.036826905 0.09978138 0.306044 0.13589671
0003e0 fb d3 b1 be b5 c6 37 3e c7 85 00 3e 90 32 4f 3d
       -0.3473204 0.17946894 0.12551032 0.05058533
0003f0 cb 01 49 3d bc 4b 19 bd 40 51 0b bd 3e 77 ef bc
       0.049073976 -0.03742574 -0.034013033 -0.029231664

network_body._body_endoder.seq_layers.2.bias f4 [128]
000000 aa 92 58 bd df cb 27 bd 38 ea 06 bd 7e 25 30 bc
       -0.052874245 -0.04096591 -0.032938212 -0.010751126
000010 1c a0 c7 bc 31 97 2c bd 09 24 0d bd 4a 2d 6e 3c
       -0.024368338 -0.042136375 -0.034458194 0.014537165
000020 e4 26 80 bd cd c3 a8 bd 89 d6 5c bc f3 c2 4a bd
       -0.06257418 -0.08240471 -0.013478884 -0.049502324
000030 a3 d8 89 bc 3e f7 0b bd 3d fc fc bc 65 1d b9 3b
       -0.016826933 -0.034171335 -0.030881995 0.005649256
000040 91 45 ad bc cf f2 51 bd 1e d0 08 3c ec 9a ec bc
       -0.021151336 -0.05125695 0.0083504 -0.028882466
000050 57 81 12 bd e3 d5 4b bd 17 1a 8e bb 95 99 3e bd
       -0.03576788 -0.049764525 -0.0043366062 -0.046533186
000060 1c 0d 69 bd 0d 61 e5 3b 88 8b 15 bd bf 8c c7 bc
       -0.056897268 0.0070000947 -0.03651002 -0.024359105
000070 4a 18 99 3b de e2 43 bd 71 fd ed 3b 78 71 9d bc
       0.004672085 -0.04782378 0.0072628786 -0.019219145
000080 e3 92 52 bc 89 fb d9 bc d0 8b 16 bd f8 eb e6 3b
       -0.012852403 -0.0266092 -0.03675443 0.0070471726
000090 2f 7d 22 bd b2 b0 9f bd 88 7b 47 bd 5d af df 3a
       -0.039670166 -0.07797374 -0.048701793 0.0017065812
0000a0 96 a8 22 bd 6c 81 55 3d 3b dd 1c bd 4a 12 2b bc
       -0.039711557 0.05212538 -0.03829692 -0.010441372
0000b0 bd 47 d0 bc 0a 78 52 bd ce 7d 8a 3c f3 59 ef bc
       -0.025424832 -0.05138401 0.016905691 -0.029217696
0000c0 b5 d3 0a 3b 91 65 a8 bd ba c9 d0 3c 69 61 28 bd
       0.0021183316 -0.08222497 0.025486816 -0.041108523
0000d0 9a 64 77 bc e8 60 c4 3c fb 8c b7 bb a5 ab 5b bc
       -0.015099669 0.02397199 -0.005601523 -0.013407622
0000e0 11 1b ea bc f3 c2 28 bc a7 25 50 bb f1 d8 b8 bc
       -0.02857736 -0.010300386 -0.0031760724 -0.022564383
0000f0 a8 69 5d bd 6c 09 fe bc 5c 78 8a 3b 42 d1 fa bb
       -0.05405584 -0.031010352 0.0042257737 -0.00765434
000100 82 f6 5d bd 4c fa a2 bc d7 5c 27 bd a8 57 97 bd
       -0.054190166 -0.019894741 -0.040860023 -0.07389766
000110 36 b4 1c bd e2 36 5d bd fc ee 16 bc e9 b2 8c bc
       -0.0382578 -0.05400742 -0.009212252 -0.017175155
000120 86 79 12 bb 62 22 90 bc 0d 05 64 bd 87 cb 3e bd
       -0.0022350266 -0.01759452 -0.05566888 -0.046580818
000130 4e 18 d4 bc 43 a4 28 bd ed 85 80 bc ce e0 9d bc
       -0.025890496 -0.041172277 -0.01568886 -0.019272234
000140 0e a0 e0 bb 43 7e 58 bc 88 3a 3f bd c8 94 83 bc
       -0.0068550175 -0.013213697 -0.04668668 -0.016062155
000150 00 c9 3a bd e5 bf 32 bd 11 5c 48 bc b5 93 b0 bc
       -0.045601845 -0.043640036 -0.012228982 -0.021554807
000160 ad 65 1f bc 0b ae be bc 24 c0 43 bd 40 cb 14 bd
       -0.009728831 -0.02327635 -0.04779066 -0.036326647
000170 70 3f 94 bc c5 cb bf bc e2 62 b6 bc a9 48 60 bd
       -0.018096656 -0.023412595 -0.022263948 -0.054756794
000180 8a 3a 61 bd 9f d3 9d bd aa 8e fc bc 60 22 a5 3b
       -0.054987468 -0.07706379 -0.030829746 0.005039498
000190 bd 66 40 bc 2c 25 ea bc 4e 6a 72 bb ad 12 8a 3c
       -0.011743245 -0.028582178 -0.0036989632 0.016854608
0001a0 b9 67 a1 3a 97 13 8b bd 24 ec d1 3b af 74 97 3c
       0.0012314237 -0.06790846 0.006406324 0.018488256
0001b0 3e 04 d3 bc 63 fd 62 bd 91 2c 97 3c 25 05 71 bd
       -0.025758859 -0.05541743 0.018453868 -0.058842797
0001c0 6b 11 0f bd 3c 20 8d bb 2b 28 92 bd 66 4d 30 bd
       -0.03492872 -0.004306821 -0.07136568 -0.043042563
0001d0 d1 15 cc bc ab bd 28 bd f8 04 0c bd b6 04 0f bd
       -0.024912747 -0.041196506 -0.034184426 -0.034916602
0001e0 83 ce dc bb ba 00 5e ba cf 94 ff bb 84 9e d9 bc
       -0.0067384853 -0.0008468736 -0.007799722 -0.026564844
0001f0 4d c0 0f bd 71 fb f6 bc 3f c4 8c bd 43 39 25 ba
       -0.0350955 -0.030149193 -0.068733685 -0.0006302783

network_body._body_endoder.seq_layers.2.weight f4 [128, 128]
000000 76 4f 88 3d e1 3e e9 3d 7b ce 03 bd 96 f8 5e 3e
       0.06655781 0.11388946 -0.032179337 0.21774516
000010 30 58 56 3e 1a be 80 be 5f bd 21 3e 54 c5 26 be
       0.20932078 -0.25145036 0.15794896 -0.16286212
000020 0b 65 32 bd 1b 5d 46 3e 4e ad 08 be 4d 28 fc 3d
       -0.043553393 0.19371454 -0.1334736 0.12312374
000030 9b 4f 47 bc d7 b2 e4 b9 91 47 77 3d 67 1a 58 bc
       -0.0121649755 -0.00043620795 0.060370985 -0.013189889
000040 ae 9e 37 3e 5f 27 9f 3d 5c 51 70 bc 2c 8d df bd
       0.17931625 0.07771181 -0.014667835 -0.10915598
000050 51 a4 95 bd 9a a9 2e 3e fd 40 ac bc b1 5a f2 3d
       -0.073067315 0.17056885 -0.021027083 0.11833704
000060 e3 12 04 be 0f ed 93 bc d2 6b d9 3d 1a c0 e9 3d
       -0.1289783 -0.018057374 0.10616268 0.114135936
000070 1e ff 9e 3b 3c 99 3d be e1 93 e4 3d 76 1a 1f be
       0.0048521897 -0.18515486 0.11161018 -0.15537438
000080 05 29 f1 3d 2e 34 da bd bc 03 fa 3d 26 73 52 be
       0.11775402 -0.10654484 0.122077435 -0.20551738
000090 71 39 ef bd f0 d6 8a bc 51 05 0a 3e 17 44 6e be
       -0.11680878 -0.016948193 0.1347859 -0.23268162
0000a0 0d 9c e1 3d c6 65 44 bc a7 f1 3c be 03 5a cc 3d
       0.110160924 -0.011987155 -0.18451558 0.09978106
0000b0 b7 01 ef bd 49 9a 30 bc b1 8c b5 bd 4c 4d f3 3d
       -0.11670249 -0.010778972 -0.088647254 0.118799776
0000c0 4c b9 8d bc 03 a1 2e be 0b 85 bd 3d 8e f4 f5 3d
       -0.01730027 -0.17053609 0.092538916 0.12009536
0000d0 75 25 ce 3c 1e 23 80 3c a2 9c 27 bb ba 4a b6 3d
       0.025164345 0.015641745 -0.0025575538 0.08900972
0000e0 8f b9 4d be 45 f0 6f 3a 23 62 d4 bd f0 db e5 3d
       -0.20090316 0.00091529294 -0.103702806 0.112235904
0000f0 49 1b 12 be 84 33 20 be 8c 14 84 3d 4e 2f 43 3e
       -0.14268221 -0.15644652 0.064492315 0.19061014
000100 ed 80 39 3e 7f 03 7d 3d f6 d4 62 3e f8 12 0c 3e
       0.18115588 0.061770912 0.2215155 0.13679111
000110 4e 58 c1 bd 47 c6 b3 bd 3a 0c 70 3c 87 49 a5 3e
       -0.09440671 -0.08778053 0.014651353 0.3228266
000120 1f 08 bc bd f6 f0 22 bc e1 15 67 3b 60 33 d2 3d
       -0.091812365 -0.009945145 0.0035260844 0.10263705
000130 5f 72 43 bc e0 ba a6 3d 4a 68 6f 3e bd 28 1c 3e
       -0.011929124 0.08141112 0.23379627 0.15249915
000140 1f 5f ef bc e3 19 e4 3c f0 de 0e bd dd f9 90 bc
       -0.029220162 0.027844375 -0.03488058 -0.01769727
000150 26 d1 9c 3c 6f 19 fb bd c9 d1 9d bd b7 3b c8 3d
       0.019142698 -0.122607104 -0.07706029 0.09777015
000160 35 59 62 3e cf 14 14 3c b8 f0 72 3d 08 9d 85 bd
       0.22104342 0.009038164 0.0593116 -0.06524092
000170 3c 4c aa bd b8 2e 37 3d e3 29 2d be 90 88 a0 bd
       -0.08315322 0.04472229 -0.1691051 -0.07838547
000180 9e 43 af 3d bf ea ee 3d 79 86 43 3e c5 01 93 bd
       0.08557819 0.11665868 0.19094266 -0.07178072
000190 bd 96 ff 3d d8 a2 49 bd b1 fb 0a be a4 11 df bc
       0.12479923 -0.049227566 -0.13572575 -0.027230091
0001a0 76 31 1c be dc 0b 83 3e bf b0 e9 bd 03 6e b8 ba
       -0.15253243 0.25594985 -0.11410665 -0.0014070872
0001b0 3c b3 dd 3d 37 71 82 3d 7d 63 1b bd 61 4b 26 be
       0.10825202 0.0636925 -0.037936676 -0.16239692
0001c0 de e7 80 be 06 7b a1 bd 8a 0c 81 bd bb 3b 42 3e
       -0.251769 -0.07884793 -0.0630122 0.18968098
0001d0 66 c8 31 3e e4 e9 84 3d 47 65 5c be 17 9c 4e 3c
       0.17361602 0.064899236 -0.21523009 0.012610457
0001e0 e5 09 27 3d 48 7e 56 3e 47 5c b1 3a ee b1 3e bc
       0.04078092 0.2094661 0.0013531529 -0.011639101
0001f0 b8 30 ed bc 10 02 37 3e ba 58 11 3e ac ec cb 3d
       -0.028953895 0.1787188 0.14194003 0.09957251
000200 58 0b eb 3d 61 f6 57 3e 63 21 19 3d 85 72 ed 3d
       0.11476773 0.2109008 0.037385356 0.115941085
000210 1b df 4d bd aa e0 16 be a0 26 61 3e 7c 24 41 be
       -0.050261598 -0.1473414 0.2198739 -0.18861574
000220 63 cc 5d be c1 e5 01 be 69 3f 01 be 76 c3 69 3b
       -0.21659999 -0.126853 -0.12621845 0.0035669482
000230 8e 58 45 3e 3a d4 73 3d 63 55 e7 bd 9c 22 52 3e
       0.19272062 0.059528567 -0.11295583 0.20521015
000240 49 d5 93 3c 30 64 3a 3e 3e d3 c2 3d 18 95 80 bd
       0.018046038 0.18202281 0.095129475 -0.062784374
000250 02 07 8e 3e 59 f4 22 be 09 13 7f bd 69 52 da bd
       0.27739722 -0.15913524 -0.062274013 -0.1066025
000260 aa 2c 6d 3d b7 97 1e bd da 4b ba bd 7e 61 09 bd
       0.057903923 -0.038718905 -0.09096499 -0.03354024
000270 5c 1b 37 3e 77 fb f8 3d 58 df cb 3c f7 14 5c be
       0.1788153 0.12157338 0.024886772 -0.21492372
000280 1f 1d 89 3d ab 9b 3c 3e aa 6b 3c bd ba e4 7e 3d
       0.066950075 0.18418758 -0.046001114 0.06222985
000290 c6 85 15 bd cd a1 9d 3d 04 5e 19 bd 92 4f 97 bd
       -0.03650453 0.07696877 -0.037443176 -0.07388224
0002a0 fd b2 c6 bd 5e ff 68 be 87 b1 31 bb 32 93 48 3c
       -0.09702108 -0.22753665 -0.0027113871 0.012242125
0002b0 42 5f 75 bd 48 e5 d2 3c 5e cf a2 bb 88 5f b4 bd
       -0.059905298 0.025744095 -0.0049685678 -0.08807284
0002c0 bb 7f 71 bc 57 b8 1c 3e b9 6e 1f 3e 74 1c 7d bd
       -0.014739926 0.15304695 0.15569581 -0.061794713
0002d0 f6 24 8c 3d be db 8f 3c 75 fb 93 bc fe 15 89 3d
       0.06842987 0.017560836 -0.01806424 0.06693648
0002e0 14 10 0e be 88 72 09 3d 20 4d 03 3e 96 c9 4c bd
       -0.13873321 0.03355649 0.1282239 -0.049996935
0002f0 57 c6 21 3e dd 93 d7 3c ca 0c 8e bd 96 6b 83 3d
       0.15798317 0.026315624 -0.06936033 0.06417005
000300 8a 8d 80 3d f9 e2 f3 3d 76 7c a7 3d d4 0a b7 bd
       0.062769964 0.11908526 0.08178036 -0.08937612
000310 fb db a3 3d fe b1 be bd bb f2 81 bc 77 07 2c bb
       0.08000942 -0.09311293 -0.015862813 -0.0026249567
000320 c4 a8 14 bd fc e5 de 3d cc 99 0d be 42 9c ff bd
       -0.03629376 0.1088371 -0.138282 -0.12480976
000330 86 a7 41 be 90 85 97 3d 99 e2 68 bd c4 3d 12 3c
       -0.18911561 0.07398522 -0.056856725 0.008925859
000340 3b 5a d4 bd 05 0f 81 bd 75 67 33 3e 82 82 bc bd
       -0.103687726 -0.06301693 0.17519934 -0.0920458
000350 7e 90 fb 3d 0d b5 95 bd 8c d7 e9 3c 66 a4 21 3e
       0.12283419 -0.07309923 0.028545164 0.1578537
000360 71 fe 22 3e f8 b3 c3 3d 79 74 37 be 3b f3 52 bc
       0.15917374 0.09555811 -0.17915525 -0.0128753735
000370 94 e2 5f 3d 1d 6e 40 3e 0e 0d 02 3c e7 77 4d 3c
       0.05465944 0.18792005 0.007937683 0.012540794
000380 5c bd 22 3e fd 8f eb 3d 4a a5 fa bc 9b 07 9e 3d
       0.15892547 0.11502073 -0.030596394 0.077162944
000390 cf f2 aa 3b 8a dd fd 3d f0 1b c6 bd f0 2a ae bd
       0.0052169333 0.12395771 -0.096732974 -0.085042834
0003a0 74 1a 81 3d 29 35 59 bd 5a 14 10 3d 0e 8e a2 3d
       0.06303874 -0.053029213 0.03517566 0.07937251
0003b0 dd 24 9a be 9d 4d 11 bd 30 b4 0b 3e 02 99 02 bd
       -0.3010625 -0.03547441 0.13642955 -0.0318842
0003c0 3c 92 42 bd dc 67 9f 3d 7e b0 1c be ea 5d 98 3d
       -0.04750274 0.077834815 -0.15301701 0.07439788
0003d0 97 96 96 bb 30 f3 9e 3d 75 70 97 3c 09 ea e1 bc
       -0.0045955884 0.07761228 0.01848624 -0.027577417
0003e0 bd d7 b5 ba d1 b2 16 3c e8 b3 41 be 1e ff 86 be
       -0.0013873499 0.009197907 -0.18916285 -0.26366514
0003f0 76 ba a5 3d 4c 54 42 3e fd 16 e9 bd a0 70 52 bd
       0.08092205 0.18977469 -0.11381338 -0.05137694

network_body._body_endoder.seq_layers.4.bias f4 [128]
000000 49 7a 98 bc b4 2a 4d 3c 87 6a b6 bb 0d a0 15 bd
       -0.018612998 0.012522388 -0.0055668983 -0.03652959
000010 24 ba 36 bd 16 7f 50 bd 65 78 ad 3c 75 e7 85 bc
       -0.04461111 -0.05090245 0.021175573 -0.016345719
000020 aa ec b0 3c 33 4e f0 3b fc 78 21 bd 7b 2d 98 bd
       0.021597225 0.007333541 -0.03942202 -0.0743055
000030 c6 03 0b bd 83 d9 48 bc b7 4c f5 3c cd e3 5a bd
       -0.033939146 -0.01225889 0.029943807 -0.053439904
000040 81 61 38 bc 48 71 d2 3c bc 0a 27 bb 51 bd 78 bd
       -0.0112537155 0.025688782 -0.0025488576 -0.06072742
000050 d8 a8 13 3d 7e c3 48 bd da 7a 0b 3b 20 1a 13 3b
       0.036049694 -0.04901456 0.0021282942 0.0022445992
000060 8a 84 51 bd eb 33 60 bd 1a 37 56 bc e5 09 7c 3c
       -0.05115179 -0.054737013 -0.013074661 0.015383218
000070 b9 4c 8a bb c1 20 93 3a 84 18 24 bd 42 d1 cd bc
       -0.004220572 0.0011224971 -0.040062442 -0.025124196
000080 a3 ac ee bc 98 43 05 3d 37 3a 8e bc 5c c0 3a bd
       -0.029135054 0.032535166 -0.017361743 -0.045593604
000090 6a c8 9a bd 2e 8d 1d bd 41 ab 67 bc 75 c8 4b bd
       -0.07557757 -0.038464718 -0.014139951 -0.049751718
0000a0 59 af 81 bb ea cc 67 bd fb 15 1d bd 85 79 5e bd
       -0.0039576706 -0.056591906 -0.03835104 -0.05431511
0000b0 03 69 a6 bc 2b 43 d8 bc 08 c0 ef bc 35 f3 34 bb
       -0.020313745 -0.026399216 -0.029266372 -0.0027610783
0000c0 68 cf 00 3c 92 34 bf 3b 6c 75 aa 3c 89 48 09 bd
       0.0078619495 0.0058351243 0.020807944 -0.03351644
0000d0 a3 39 0a 3d b0 96 50 bc b9 18 bc bd f0 f9 65 bd
       0.033746373 -0.012731239 -0.09184403 -0.056146562
0000e0 4e 63 64 bd 52 45 50 3a 94 21 d2 bc fe 63 d8 3b
       -0.055758767 0.00079449 -0.025650777 0.006603717
0000f0 33 0d 13 bd cc 40 c5 bc c2 0b f0 3c e0 b5 20 bd
       -0.03590126 -0.02407875 0.029302482 -0.03923595
000100 6b d3 cf bc 24 31 9c bc 08 65 73 bd ca 91 01 bc
       -0.025369367 -0.0190664 -0.059422523 -0.007908294
000110 d4 4d 89 bc e8 d6 0c bd e1 f2 46 bd 20 a6 39 bd
       -0.016760744 -0.034384638 -0.04857147 -0.045324445
000120 9b 52 71 3b 4b d2 51 3b f1 29 03 bd 1e 34 54 bb
       0.0036822918 0.0032016214 -0.03202242 -0.0032379697
000130 7f de cf bc 4b 2c b5 bc f8 10 ba 3b 0b 26 f8 3b
       -0.02537465 -0.022115847 0.0056782924 0.0075728945
000140 92 42 c8 3c 09 60 2c bc c0 b3 87 bc 00 d7 99 bd
       0.024445806 -0.010520943 -0.016565204 -0.07511711
000150 17 f3 42 3b 8f 71 2d bc 5a a2 94 bc 43 1e a5 3b
       0.0029746944 -0.0105861565 -0.018143822 0.005039008
000160 a8 cf 53 bc f2 f7 9c bd 9b 30 19 bd 8e 1e 80 bd
       -0.012927927 -0.07664479 -0.03739987 -0.06255828
000170 a9 da 9a bd e5 ef b4 bc 61 f1 68 3c 37 38 5c 3c
       -0.07561237 -0.022087047 0.0142177055 0.013441137
000180 7b d3 32 3c e5 2a 63 bb 73 c9 8d bd d8 39 b2 bc
       0.010914679 -0.0034663018 -0.06923189 -0.021756098
000190 36 ed 55 3c 59 a0 aa bb 7e ba 86 bd d7 f3 72 bc
       0.013057044 -0.005207103 -0.06578539 -0.014828644
0001a0 33 63 fb bc ed bb cc bc 4f fd 27 bd 92 ad 1a 3c
       -0.03068695 -0.024991954 -0.04101306 0.009440796
0001b0 3d 53 17 bd 91 7f 03 bc 9f 3a 57 bd 65 4f ac bc
       -0.036944617 -0.00802602 -0.05254614 -0.021033952
0001c0 ab 26 45 bc b4 59 1a bd d4 7b 44 bd 41 e7 ea bc
       -0.012033145 -0.037683204 -0.047969654 -0.028674724
0001d0 cd 0d ec bc de c7 07 bd 65 8f 39 3d f4 a5 7b bd
       -0.028815174 -0.033149593 0.045302767 -0.061437562
0001e0 f2 44 4d bc 46 55 d7 bc d8 74 91 3c ca 0b 35 bb
       -0.012528645 -0.026285779 0.01775591 -0.0027625435
0001f0 7f b2 77 bc d1 78 16 3c 4b b5 14 3c 0a 4d 29 3d
       -0.01511824 0.009184078 0.009076427 0.041333236

network_body._body_endoder.seq_layers.4.weight f4 [128, 128]
000000 c2 a7 f0 3d f5 3c 82 bd 26 c9 c1 3c 19 0b 65 bd
       0.11750747 -0.06359283 0.023655485 -0.055918787
000010 d8 c7 66 3c 3e 97 13 3d fb ee a8 3c 00 95 e8 bc
       0.014085732 0.036032908 0.020621767 -0.028391361
000020 f7 3c 0e bc 11 34 99 ba 0f ec 0b 3d a8 77 b9 bd
       -0.008681527 -0.0011688491 0.03416067 -0.09056026
000030 d4 36 ad bd 40 2c ef 3c 66 37 f5 bd 7d 3b 07 3e
       -0.08457723 0.029195905 -0.11973457 0.13206287
000040 8a c8 0d 3b 84 f4 70 3b e0 51 cb 3d de 41 e0 3c
       0.0021634423 0.0036766836 0.09927726 0.027375158
000050 e8 22 53 3d 33 db 0f 3d 83 e1 bd bd 60 da c8 bd
       0.05154696 0.035121154 -0.092715286 -0.09807277
000060 b5 7f 07 be bc 09 67 bd 74 bc 26 3c 29 53 d9 bd
       -0.1323231 -0.056405768 0.010176767 -0.10611565
000070 3f 2a 9f 3c 29 7d 24 3d e8 83 24 be 3e 3d 9c bd
       0.019429324 0.040158425 -0.16065943 -0.076288685
000080 be e2 34 bd 23 96 44 3e 43 ac 0f 3d 71 11 10 3e
       -0.04416155 0.19197898 0.03507639 0.14069153
000090 96 1b 41 3d 20 43 b0 bd 7d e0 81 3d ca 31 1b 3d
       0.04714545 -0.08606553 0.06341646 0.03788928
0000a0 ab 59 e2 bc 68 5c b1 3d be 90 ec 3d 72 01 70 3d
       -0.027630648 0.08660203 0.11551045 0.05859513
0000b0 39 eb 91 3d 1d 48 84 3d c3 0c 98 bd c0 58 b6 3d
       0.07124943 0.06459067 -0.07424309 0.089036465
0000c0 2a 1b 2c 3d 62 4a 6e bc 2e 7c 92 bd ed 2d e3 bd
       0.042018093 -0.014544101 -0.07152592 -0.11092744
0000d0 1c 86 03 be d7 95 51 3b 06 91 8f bd 3a 5b a5 bd
       -0.12844127 0.003198018 -0.07010083 -0.08074041
0000e0 1a 77 11 3d db 23 6f 3d 73 38 82 bc 5a 63 20 ba
       0.035513975 0.058383804 -0.015896058 -0.000611832
0000f0 84 a0 de bc 65 bd 8e bd 71 0e 90 bd fb 40 b8 3b
       -0.02717615 -0.06969718 -0.070340045 0.0056229807
000100 fe ad 61 bd b0 78 9e 3d 60 15 e7 bd 47 e5 73 3c
       -0.055097573 0.07737863 -0.11283374 0.014886207
000110 d0 77 1b be b0 0e 92 bd 06 60 c4 3d 29 52 ae bc
       -0.15182424 -0.07131708 0.095886275 -0.021279411
000120 ab d0 7f 3d ee f6 5e bc 28 39 42 bd 77 7c 89 3c
       0.06245486 -0.013608677 -0.04741779 0.016782982
000130 66 b1 ff 3d 76 34 ac bd 4d 68 2d bc f4 ed ac bd
       0.12485008 -0.08408444 -0.010583949 -0.084438235
000140 6b be c7 3d 28 cb 84 3d 61 14 01 bd eb 76 5d 3c
       0.09753116 0.064840615 -0.031513575 0.013517122
000150 f3 17 e0 bd 83 6b e8 3c da 02 bb bd 60 22 59 bd
       -0.10942068 0.028371578 -0.09131403 -0.0530113
000160 68 50 f3 3b be 9a 06 3d 1a f6 f3 bc f0 d0 d9 3d
       0.0074253567 0.032862417 -0.029780436 0.10635555
000170 e1 1e 34 3c df 27 fb 3d 6e 25 97 3d c5 25 89 bb
       0.01099369 0.12263464 0.07380186 -0.0041854107
000180 d8 c6 52 3d 7f f4 eb bd 90 9e 05 bd 2f 2d 8f bd
       0.051459163 -0.11521243 -0.03262192 -0.0699104
000190 bc dc 43 3d 34 36 d8 3d 74 b4 95 3c 8e c4 8a 3d
       0.04781793 0.105572134 0.018274523 0.06775771
0001a0 63 cd 8d bd 76 03 c3 3c 53 e5 ab bd 54 1e 80 bc
       -0.0692394 0.023805361 -0.083933495 -0.015639462
0001b0 0e 9b 0f 3e 99 f6 6a bd 8e 5c ae 3d 89 7a 25 bd
       0.14023992 -0.05736408 0.08513747 -0.04040006
0001c0 9f 38 ea bc fe 27 ff 3d 10 a9 9b bd b4 3a ef bc
       -0.028591452 0.124588 -0.076006055 -0.029202797
0001d0 2c 95 bc bd 4e 97 82 3c fb f1 24 be 48 d5 31 bc
       -0.0920814 0.015941288 -0.16107933 -0.010854073
0001e0 71 76 48 be be cf be 3d 47 f7 9d 3d 86 22 8e bd
       -0.19576432 0.093169674 0.0771318 -0.069401786
0001f0 0e 29 0b 3e 63 05 9c 3d fa ae e4 bc 4d 90 d7 bd
       0.1358988 0.07618215 -0.027915467 -0.1052557
000200 54 48 65 3e fb 35 6b 3d 7a e9 a8 bb 85 6b 1b 3e
       0.22390872 0.057424527 -0.0051547857 0.15177734
000210 8c 85 f2 bd cb 81 e1 bc 27 bd ab 3d 48 1a d6 3d
       -0.11841878 -0.02752771 0.08385687 0.104542315
000220 85 2f 16 3d 23 c0 95 bc 48 6e 98 bd e2 a2 01 be
       0.036666412 -0.018280094 -0.074429095 -0.12659791
000230 3c 0a 94 bd b9 8b 91 3d 51 10 e4 bd f1 21 ce 3c
       -0.072285146 0.07106728 -0.111359246 0.025162669
000240 d9 1e 6d bc ba 93 17 3e 7c 20 17 3d 93 98 92 bc
       -0.014472687 0.14802447 0.036896214 -0.017895019
000250 bd 4d 7d bd 86 fb 09 3e a0 d8 e9 bd 9b 21 e5 bd
       -0.061841715 0.13474855 -0.11418271 -0.1118805
000260 af e0 75 bd 24 d5 03 3d 5a ad e6 bd 48 2d c4 bd
       -0.060028728 0.03218569 -0.11263533 -0.09578949
000270 8d 2c a9 3d f3 81 22 3b 47 cf d4 3d 7e 3d fe 3d
       0.082604505 0.0024796694 0.103910975 0.124140725
000280 f8 bf eb 3c 6d 18 88 bd 39 16 aa 3c c0 7f 19 bd
       0.028778061 -0.06645284 0.02076255 -0.037475348
000290 b7 cd af bc eb 29 08 bd 51 c0 fc bd aa 6d ed 3c
       -0.021460397 -0.0332431 -0.12341369 0.028982956
0002a0 e2 6d f0 bd e0 8b b5 bd ef 2c 3c 3d 33 1e 28 bc
       -0.117397085 -0.0886457 0.04594129 -0.010261106
0002b0 72 3d 72 3d e2 79 6f bd c7 a3 4a 3d d2 78 58 3d
       0.05914063 -0.058465846 0.049472596 0.0528496
0002c0 6a a3 7b bd 1b 71 2c bd 5f 4a fb 3d eb 60 94 bd
       -0.06143514 -0.042100053 0.122700445 -0.07245048
0002d0 51 6d 98 bd 37 54 2e bd 36 60 00 be 44 d4 f2 bd
       -0.074427254 -0.042560782 -0.12536702 -0.11856893
0002e0 de 22 ab bd e5 a3 a5 bb 74 48 f4 3d d6 02 c3 bc
       -0.0835626 -0.005054938 0.11927882 -0.023805063
0002f0 55 61 e7 3b 79 06 23 bb 70 e4 51 bc 8a 2f 80 bd
       0.0070611634 -0.0024875684 -0.012810811 -0.06259067
000300 69 bd 99 bb 96 c1 f4 bd 4d 75 8a 3d 43 4f ee 3c
       -0.004691769 -0.11950986 0.067606546 0.02909053
000310 eb ee 2f 3d 3d 79 48 3d a7 42 9f 3d 46 19 76 bd
       0.04295246 0.048943747 0.07776385 -0.060082696
000320 be 0d 8b 3c 16 f9 44 3c 26 a7 e5 3c d0 45 7f bd
       0.016974326 0.012022277 0.028033804 -0.062322438
000330 65 61 a3 bd 78 d3 5e bd 38 73 bb bc 76 00 4e 3d
       -0.07977561 -0.05440089 -0.022882089 0.05029341
000340 bb 2c cb bd cc a2 9c 3d 87 c2 4e 3d 99 49 89 3b
       -0.09920641 0.076482385 0.050478484 0.0041896817
000350 b8 90 94 bd 2d 66 2e ba 4b 5c c9 3c f2 4d 86 3d
       -0.072541654 -0.00066527986 0.024580142 0.06557836
000360 55 ab 45 bd 3c c8 16 3e b5 62 ab bd 2b ec 61 bd
       -0.048259098 0.14724821 -0.08368436 -0.055156868
000370 1a 8a 92 bd 6c 88 12 3d 0d 14 b9 bd 51 6c b6 3c
       -0.07155247 0.035774633 -0.090370275 0.022268446
000380 af 7c 64 3e 5a 35 0f 3d 26 6e b1 3a be 8a a2 3d
       0.22313188 0.03496299 0.0013536855 0.07936619
000390 13 b3 86 bd bd 65 02 3e dd d7 6e 3e 49 bb 1a 3e
       -0.065771244 0.12734123 0.23324533 0.15110506
0003a0 38 6b 83 3d e7 bc 17 bc 1c ab be bd 86 5d 25 3d
       0.06416935 -0.009261346 -0.0930998 0.040372394
0003b0 34 4a 92 bd b9 75 36 3e f5 a5 33 3b 7f c6 55 bd
       -0.071430594 0.17818345 0.002741215 -0.052191254
0003c0 41 d6 60 3d 5e 8f 58 bd 01 b3 71 bd 6f 7b 54 bd
       0.05489183 -0.0528711 -0.059008602 -0.051875528
0003d0 ed b4 84 3d e0 d4 6c 3d df 73 3c bd 7d 16 1d 3e
       0.06479821 0.0578202 -0.04600894 0.1534061
0003e0 00 1f b0 bd 73 8f ca 3a 1d 12 03 be 64 4f eb 3c
       -0.08599663 0.0015454128 -0.12799878 0.02872438
0003f0 bb fd 44 3d 90 34 f3 3d d2 33 39 bd 34 e6 c1 3c
       0.04809354 0.1187526 -0.045215435 0.02366934
