Maize-Runner/results/TestRightExit3/EscapeMaze.onnx (onnx, 105780 bytes, 7 tensors)

action_model._continuous_distribution.log_sigma f4 [1, 2]
-0.21013574 -0.12414263
00000000: d32d 57be 7e3e febd

action_model._continuous_distribution.mu.bias f4 [2]
0.091061965 0.0022527084
00000000: b27e ba3d 2da2 133b

action_model._continuous_distribution.mu.weight f4 [2, 128]
-0.048966404 0.013259268 0.004727282 -0.05180436 -0.011412112 -0.0044806786 0.06335598 5.283695e-07
-0.0017875453 -0.0032189197 -0.008164959 0.010280191 -0.022982847 -0.05547795 0.010034304 0.08144083
-0.051389273 -0.0031647782 -0.050699577 0.020791976 0.028614888 0.06596607 0.032069407 -0.0074013453
0.00813982 -0.0006059143 -0.014276626 0.02469445 -0.021684416 0.013591699 -0.006490564 -0.004543528
-0.013223525 0.00053404365 0.011232656 -0.10333617 0.016968142 0.023913417 0.00805087 -0.018977039
0.037722383 -0.0025740669 -0.013694278 0.0028072677 -0.029133439 0.0161999 -0.016492102 -0.0035436898
0.00026740725 -0.0009769852 -0.015082393 0.0072826524 -0.069376074 -0.075193815 0.02661853 -0.022283372
-0.0023526133 -4.5967852e-05 -0.0052543143 -0.023998441 0.0003064964 -0.0036625068 0.048268247 0.0065022684
-0.0030041786 0.028804978 -0.017523453 0.0014917536 0.025396993 -0.0003925738 -0.041425496 0.0015785818
-0.0713682 0.03478809 -0.0067037116 0.038223006 -0.0009527359 0.036592044 -0.036373157 -0.0082049025
0.02524469 -0.004701224 -0.041356854 -0.10881162 4.9632232e-05 0.002257904 0.033119798 0.008078762
0.010548146 0.009111452 -0.021324573 0.009231936 -0.035588264 -0.025714003 -0.00012469593 0.012296536
0.011301523 -0.02240376 0.021259349 -0.0059110946 0.033199497 -0.014797909 0.015009262 -0.0044630296
0.06872224 -0.06236862 -0.018429006 0.057138707 0.018614218 0.00045857593 0.02001196 0.0021274746
-0.00965221 -0.015576768 0.013274682 -0.00085776683 -0.026799647 0.036051847 0.020522915 -0.0055367863
-0.07295769 0.055665895 -0.07051091 -0.12120057 -0.044227764 -0.04676321 0.024102762 0.05187823
0.058814768 0.07799275 0.0038357815 0.022900358 0.0007337087 0.008157878 0.0064897235 0.040132776
0.007124655 0.006776195 -0.0031579346 -0.020769678 -0.042384602 0.01152275 -0.019063009 0.018963287
0.0060800756 0.016390719 0.008261161 -0.072438866 -0.100905836 0.079955935 -0.04233772 0.04359896
-0.025104653 0.021103784 -0.0804787 -0.059593573 -0.028431619 -0.017656717 -0.012520069 0.00026600112
0.008262932 -0.0048034983 0.021135828 -0.02639468 0.0034767222 -0.025432589 0.008630165 0.007784575
0.006247504 -0.06214359 0.027007835 -0.011883931 0.008821426 0.012838021 -0.0067070755 0.005320887
-0.006123091 0.0072688716 7.3901756e-05 -0.00013310913 -0.004573112 -0.030185921 0.038131516 0.0126905255
-0.002991001 -0.037047528 7.407619e-06 -0.038883824 0.026226973 -0.0005470104 0.01970917 0.00053786684
-0.014275443 -0.019962551 -0.025443217 0.011039034 -0.038111147 -0.011225298 0.039213337 -0.0065838555
-0.015222088 0.040668678 -0.0044206707 -0.017487379 0.00052018673 0.02230665 0.014541128 0.007717174
-0.048420675 -0.05826838 0.003355312 -0.0032026 0.004784723 0.0012192621 0.021629987 -0.014604433
-0.03080071 -0.08243926 0.036580455 0.030044932 0.0067188772 0.002670105 -0.037939806 0.007703218
0.015836146 -0.037900373 0.024085442 -0.003825977 0.050673444 0.013845995 0.010602645 0.014934593
0.021475973 0.026283674 0.049110558 -0.048439704 -0.056578867 -0.011930624 0.07640931 -0.0036688074
0.0077847852 0.013042717 0.014716625 -0.033210225 0.010151836 0.0014480187 0.051550344 0.022127528
-0.067193106 0.08844633 -0.0006078876 -0.009905579 -0.00010083571 0.044903304 -0.027780062 0.07910849
00000000: ff90 48bd 673d 593c 51e7 9a3b cf30 54bd
00000010: def9 3abc a8d2 92bb c8c0 813d 47d5 0d35
00000020: 114c eaba 83f4 52bb 52c6 05bc 3f6e 283c
00000030: 8646 bcbc d93c 63bd ec66 243c 73ca a63d
00000040: 8f7d 52bd 2b68 4fbb 5caa 4fbd ef53 aa3c
00000050: c569 ea3c 3819 873d 365b 033d fc86 f2bb
00000060: e15c 053c 38d6 1eba 82e8 69bc 044c ca3c
00000070: 84a3 b1bc b8af 5e3c ccae d4bb e0e1 94bb
00000080: 7ca7 58bc 10ff 0b3a 2d09 383c eaa1 d3bd
00000090: c600 8b3c 12e6 c33c cce7 033c bc75 9bbc
000000a0: c982 1a3d adb1 28bb f75d 60bc 23fa 373b
000000b0: 40a9 eebc a7b5 843c 721a 87bc 403d 68bb
000000c0: cb32 8c39 2f0e 80ba 241c 77bc 51a3 ee3b
000000d0: 0b15 8ebd 37ff 99bd 1a0f da3c 9e8b b6bc
000000e0: 4d2e 1abb 9bcd 40b8 622c acbb 6198 c4bc
000000f0: 40b1 a039 ab06 70bb edb4 453d fb10 d53b
00000100: c1e1 44bb 6bf8 eb3c 588d 8fbc f286 c33a
00000110: 5b0d d03c 5dd2 cdb9 c8ad 29bd 6ae8 ce3a
00000120: 7e29 92bd f57d 0e3d cfaa dbbb ba8f 1c3d
00000130: 06c1 79ba 8ae1 153d 05fc 14bd db6d 06bc
00000140: f4cd ce3c ba0c 9abb ce65 29bd a0d8 debd
00000150: 342c 5038 58f9 133b a0a8 073d c95c 043c
00000160: 22d2 2c3c 3348 153c dfb0 aebc 8c41 173c
00000170: 00c5 11bd 2ca6 d2bc cfc0 02b9 6977 493c
00000180: 062a 393c 1788 b7bc 1628 ae3c dbb1 c1bb
00000190: 32fc 073d ee72 72bc 68e9 753c 9b3e 92bb
000001a0: 3fbe 8c3d 3d76 7fbd 6df8 96bc 470a 6a3d
000001b0: d87c 983c 056d f039 1ff0 a33c 1a6d 0b3b
000001c0: 4e24 1ebc b335 7fbc 0d7e 593c c2db 60ba
000001d0: ef8a dbbc 1aab 133d ac1f a83c ee6d b5bb
000001e0: d76a 95bd ec01 643d 0668 90bd 0138 f8bd
000001f0: 2c28 35bd c88a 3fbd 2873 c53c 447e 543d
00000200: c1e7 703d aaba 9f3d bc61 7b3b 8899 bb3c
00000210: 5b56 403a 9fa8 053c bfa7 d43b 4462 243d
00000220: f075 e93b d80a de3b 5af5 4ebb 2c25 aabc
00000230: 7a9b 2dbd ebc9 3c3c 072a 9cbc e558 9b3c
00000240: 5f3b c73b d445 863c d259 073c d45a 94bd
00000250: b8a7 cebd f0bf a33d 516a 2dbd d394 323d
00000260: 46a8 cdbc d8e1 ac3c 04d2 a4bd 6418 74bd
00000270: 6de9 e8bc d2a4 90bc fa20 4dbc 1176 8b39
00000280: 4061 073c aa66 9dbb 0b25 ad3c a839 d8bc
00000290: b8d9 633b 0158 d0bc 8965 0d3c c015 ff3b
000002a0: ddb7 cc3b 478a 7ebd 893f dd3c d2b4 42bc
000002b0: be87 103c 9056 523c 07c7 dbbb d65a ae3b
000002c0: 36a4 c8bb b72f ee3b b4fb 9a38 3693 0bb9
000002d0: 0bda 95bb 7748 f7bc cb2f 1c3d eceb 4f3c
000002e0: ab04 44bb 26bf 17bd f68e f836 a544 1fbd
000002f0: f3d9 d63c 3f65 0fba 2075 a13c a2ff 0c3a
00000300: 8ce3 69bc 8188 a3bc 4b6e d0bc 11dd 343c
00000310: 6f1a 1cbd 50ea 37bc 2a9e 203d 62bd d7bb
00000320: 1166 79bc 3394 263d 46db 90bb b141 8fbc
00000330: 245d 083a 70bc b63c e93d 6e3c 59e0 fc3b
00000340: c254 46bd d3aa 6ebd cbe4 5b3b b6e2 51bb
00000350: 2ac9 9c3b a6cf 9f3a 5f31 b13c 6f47 6fbc
00000360: c551 fcbc ead5 a8bd 63d5 153d ca20 f63c
00000370: 072a dc3b eefc 2e3b c566 1bbd 476b fc3b
00000380: ceba 813c 6c3d 1bbd d54e c53c 3ebd 7abb
00000390: f58e 4f3d 50da 623c b7b6 2d3c 39b0 743c
000003a0: 61ee af3c dc50 d73c 2728 493d b668 46bd
000003b0: 3ebf 67bd aa78 43bc 7c7c 9c3d 6070 70bb
000003c0: 8317 ff3b 1fb1 553c 001e 713c 7207 08bd
000003d0: e353 263c 72cb bd3a 7426 533d ca44 b53c
000003e0: 8a9c 89bd 5923 b53d a55a 1fba 024b 22bc
000003f0: c277 d3b8 87ec 373d 0393 e3bc a203 a23d

network_body._body_endoder.seq_layers.0.bias f4 [128]
0.003104359 -0.0374421 0.021799888 -0.019832004 -0.034234338 0.010841716 -0.02213292 -0.012951735
-0.0020704505 -0.032436494 0.0004907186 -0.016180515 -0.0061478447 -0.014272277 -0.037663974 -0.024913045
0.028972743 0.0015641486 -0.023114009 0.00022191611 -0.0033298857 0.03230981 -0.0042199185 -0.034376837
-0.018929109 -0.011310101 -0.017740157 0.010773282 0.0033792472 -0.0337766 0.005858727 0.009456014
0.01751457 -0.020786649 0.0024450968 -0.0020518783 0.009707738 -0.04359633 -0.020961532 0.018298253
-0.029998707 0.014931952 0.008072777 -0.038641263 0.011948405 -0.02642429 -0.026465895 -0.0041179117
-0.034803845 -0.0037489252 -0.022044163 -0.01785532 -0.06354603 -0.049685653 0.00552101 0.02980109
0.023828365 0.047591716 0.045157734 0.030295035 -0.038179554 -0.005570377 -0.030491106 -0.002324116
-0.0248829 0.0056942133 -0.007068283 -0.0026671346 0.017870944 0.0059239264 -0.00716831 -0.014779694
0.003889184 -0.0033609346 -0.018895283 -0.007822599 0.032317474 -0.010911618 0.00420074 0.008542326
-0.014014308 -0.025230322 0.0072005703 -0.01698835 0.012710301 0.020348448 -0.0010359164 -0.011967676
-0.0137637425 -0.0076421406 -0.030263003 -0.036664277 0.0014942795 -0.023077933 -0.001158938 -0.032511484
0.021073254 0.008372274 0.02995478 -0.011288527 -0.01500889 -0.0043649524 -0.0017166787 -0.01448859
0.0026177492 -0.016565718 0.005590046 0.004456813 0.007589056 -0.009491477 0.010217569 0.000958726
0.03548561 0.029787704 -0.030887999 -0.002730174 -0.0068328213 0.014772389 0.015270269 -0.023297586
-0.03581995 -0.0069116903 -0.009191378 0.02992297 0.020151354 0.0021063348 0.04358977 -0.03560199
00000000: 8072 4b3b e35c 19bd ae95 b23c ba76 a2bc
00000010: 4e39 0cbd 74a1 313c 1950 b5bc 8433 54bc
00000020: 65b0 07bb 21dc 04bd 91a3 003a 008d 84bc
00000030: dc73 c9bb 45d6 69bc 8a45 1abd 7116 ccbc
00000040: 3f58 ed3c 1e04 cd3a 9759 bdbc 27b2 6839
00000050: 363a 5abb 4b57 043d 3e47 8abb bace 0cbd
00000060: 3811 9bbc 004e 39bc ce53 91bc 6b82 303c
00000070: 5c76 5d3b 5559 0abd 90fa bf3b 66ed 1a3c
00000080: b77a 8f3c c348 aabc eb3d 203b ce78 06bb
00000090: 340d 1f3c 1192 32bd 85b7 abbc 38e6 953c
000000a0: d9bf f5bc 25a5 743c ae43 043c 4d46 1ebd
000000b0: 3ec3 433c c177 d8bc 01cf d8bc 8cef 86bb
000000c0: 7a8e 0ebd 87b0 75bb f695 b4bc 5245 92bc
000000d0: 6c24 82bd 2f83 4bbd 97e9 b43b 6a21 f43c
000000e0: b433 c33c 88ef 423d 51f7 383d 4b2d f83c
000000f0: 2a62 1cbd b687 b6bb 7cc8 f9bc 3250 18bb
00000100: 39d7 cbbc 8696 ba3b 0e9d e7bb 18cb 2ebb
00000110: 1666 923c 7f1d c23b 25e4 eabb 8826 72bc
00000120: aee1 7e3b 2043 5cbb 48ca 9abc 5c2a 00bc
00000130: 545f 043d a5c6 32bc 5ca6 893b 1df5 0b3c
00000140: 459c 65bc d2af cebc c3f2 eb3b 272b 8bbc
00000150: de3e 503c cab1 a63c 96c7 87ba 1214 44bc
00000160: 5281 61bc ec6a fabb 1eea f7bc 482d 16bd
00000170: b3db c33a ef0d bdbc 82e7 97ba c32a 05bd
00000180: d1a1 ac3c dd2b 093c ba63 f53c 84f3 38bc
00000190: d9e7 75bc e007 8fbb 2e02 e1ba 8d61 6dbc
000001a0: 8b8e 2b3b d4b4 87bc b42c b73b 750a 923b
000001b0: 9ead f83b 2482 1bbc 9767 273c 0353 7b3a
000001c0: 5c59 113d 5805 f43c d408 fdbc b8ec 32bb
000001d0: dce5 dfbb e407 723c 2630 7a3c 94da bebc
000001e0: f1b7 12bd 767b e2bb 6f97 16bc 0421 f53c
000001f0: 7414 a53c 6f0a 0a3b 308b 323d 64d3 11bd

network_body._body_endoder.seq_layers.0.weight f4 [128, 71]
-0.12849523 -0.12240877 -0.14792097 0.13936518 0.21617672 0.18524837 0.004718403 -0.033628166
-0.020710072 0.12226027 -0.12473909 0.111572675 0.020995907 -0.11388722 0.2678988 -0.07753671
-0.10765104 -0.022085192 0.050493136 -0.12788501 0.14529046 0.0816243 0.16683574 -0.082215495
-0.019047322 -0.0035680304 -0.36549267 0.31594548 0.123693354 -0.03916242 -0.036237087 0.06779422
0.115462326 0.007613539 -0.007977133 -0.17235601 -0.1707255 -0.089179605 0.18851192 0.12707566
0.019668125 -0.11429086 0.16206513 -0.051292755 -0.08918931 -0.41109598 0.040444814 -0.09205735
0.1965681 -0.121893026 -0.07971062 -0.05846438 0.095427155 0.09996788 -0.00038103177 -0.27067083
0.0646716 -0.0429068 -0.006926289 -0.19277038 0.021614198 0.02546755 -0.023053486 -0.06894059
-0.016379496 -0.32359722 0.044325475 -0.075417526 0.012744842 0.051518235 0.2052524 0.00533627
0.04495288 0.042299468 -0.19597453 -0.43091968 -0.34068486 0.06435747 -0.2260873 0.014582258
-0.09956427 -0.057113346 -0.18606651 -0.1708792 0.15481892 -0.03363734 0.049168937 0.058260463
-0.014719401 0.011953139 -0.28046003 0.35346216 0.03679146 -0.16304679 -0.01911609 0.07760446
0.09381434 0.022012198 -0.089235865 0.016790528 -0.08721336 -0.2081172 -0.21076317 -0.04842796
-0.0436175 0.04067213 -0.05424261 0.096493706 0.04701232 -0.1286605 -0.01967601 -0.076034695
0.083567575 0.02354407 0.101129696 0.11473476 -0.14536668 -0.12721479 0.08582606 -0.06802058
0.18167862 -0.045664422 0.026347034 0.16102922 -0.16727625 0.047413785 0.027021252 -0.09392105
0.14848705 0.04104173 -0.13756771 0.20522402 0.12683876 0.15887164 0.16782671 0.062092412
-0.104771405 0.16315386 -0.00035484484 0.05853854 -0.02244385 -0.15208633 -0.1494867 0.1544108
-0.14168972 0.04753575 -0.17763942 -0.2741695 0.17271668 -0.07023379 0.08754371 0.008300416
-0.08174013 0.16754438 -0.15362394 0.30171353 -0.12349492 0.0014067758 0.18647528 -0.07961925
-0.12802708 -0.26141798 -0.070259914 0.08754942 -0.08311445 0.05883267 -0.028514229 -0.24109425
-0.031541407 -0.08172217 -0.11256259 0.1794727 -0.319828 -0.02908645 0.012751044 0.14716248
-0.27455848 -0.047807217 -0.14684547 -0.07771878 0.06548757 0.10261552 -0.109580554 0.09888162
-0.12156381 -0.24283855 -0.036764253 0.05144757 -0.36989444 -0.035555735 -0.014922105 -0.13016804
0.101166144 0.054198153 0.101381965 -0.15729004 -0.038015477 0.012478637 -0.03287327 0.12818578
-0.25939107 0.3032131 0.42088315 0.012911822 -0.21030809 -0.09821186 -0.04479092 0.13485448
-0.02285139 0.16761003 -0.07246124 0.008168728 0.11918207 -0.018824296 0.16247539 -0.18099852
-0.06946262 0.026611326 0.034979273 -0.13811281 0.13310641 -0.21640699 0.21006624 -0.25826445
0.07349485 0.068787284 -0.12067753 -0.323875 -0.1106803 0.16938274 -0.26872614 -0.025039785
-0.03694833 0.035031207 -0.021115286 -0.08576447 0.054751743 0.114091456 -0.059278335 0.21656424
-0.08840306 -0.06571676 0.12706158 0.03887243 -0.19722165 0.116093345 -0.13523743 0.2103051
-0.122947685 -0.12404557 0.041290645 0.032948047 -0.16350281 0.13877074 -0.06765527 -0.0905387
00000000: 4194 03be 73b1 fabd 9878 17be bfb5 0e3e
00000010: 6e5d 5d3e c0b1 3d3e d59c 9a3b b0bd 09bd
00000020: 2ba8 a9bc 9863 fa3d 3577 ffbd 3780 e43d
00000030: 9cff ab3c b43d e9bd 082a 893e 91cb 9ebd
00000040: 2678 dcbd 01ec b4bc e4d1 4e3d 4af4 02be
00000050: 06c7 143e a42a a73d fdd6 2a3e 9960 a8bd
00000060: 2109 9cbc 9ed5 69bb db21 bbbe 9bc3 a13e
00000070: f152 fd3d c668 20bd 576d 14bd b2d7 8a3d
00000080: 8377 ec3d ff7a f93b 85b2 02bc 187e 30be
00000090: aad2 2ebe cca3 b6bd 4509 413e 1f20 023e
000000a0: 0c1f a13c 5411 eabd 67f4 253e 5a18 52bd
000000b0: e3a8 b6bd 2c7b d2be 76a9 253d 9088 bcbd
000000c0: 2649 493e 0da3 f9bd 523f a3bd 5978 6fbd
000000d0: 506f c33d f6bb cc3d 38c5 c7b9 5e95 8abe
000000e0: 8b72 843d 0abf 2fbd ecf5 e2bb 9965 45be
000000f0: 4210 b13c 53a1 d03c aada bcbc b930 8dbd
00000100: 4b2e 86bc 89ae a5be a18e 353d 8174 9abd
00000110: becf 503c c904 533d af2d 523e e1db ae3b
00000120: 8320 383d 3542 2d3d 8cad 48be 81a1 dcbe
00000130: 3f6e aebe d9cd 833d 6e83 67be 6cea 6e3c
00000140: 5ae8 cbbd afef 69bd 3888 3ebe f5fa 2ebe
00000150: da88 1e3e 4fc7 09bd 5e65 493d 86a2 6e3d
00000160: a429 71bc 19d7 433c 7598 8fbe fef8 b43e
00000170: a4b2 163d bdf5 26be 5999 9cbc 16ef 9e3d
00000180: bc21 c03d ed52 b43c 4bc1 b6bd 4a8c 893c
00000190: eb9c b2bd ad1c 55be 4dd2 57be 665c 46bd
000001a0: 44a8 32bd d297 263d 802d 5ebd 7e9e c53d
000001b0: fe8f 403d 94bf 03be 952f a1bc 14b8 9bbd
000001c0: 7a25 ab3d 7edf c03c 161d cf3d 0ffa ea3d
000001d0: 01db 14be 9844 02be 93c5 af3d 604e 8bbd
000001e0: f609 3a3e 9e0a 3bbd bcd5 d73c d8e4 243e
000001f0: 774a 2bbe f534 423d ac5b dd3c ae59 c0bd
00000200: fd0c 183e 601b 283d 8dde 0cbe 3f26 523e
00000210: 05e2 013e 3faf 223e c4da 2b3e 9d54 7e3d
00000220: 6492 d6bd ce11 273e 780a bab9 1cc6 6f3d
00000230: 2adc b7bc 85bc 1bbe 0b13 19be dd1d 1e3e
00000240: 1c17 11be d9b4 423d 1ce7 35be f25f 8cbe
00000250: a4dc 303e bcd6 8fbd 1e4a b33d 78fe 073c
00000260: 5f67 a7bd c190 2b3e 984f 1dbe 327a 9a3e
00000270: e8ea fcbd 9063 b83a 60f3 3e3e 6b0f a3bd
00000280: 8819 03be 94d8 85be 6ee4 8fbd 1c4d b33d
00000290: e937 aabd 87fa 703d ac96 e9bc 69e1 76be
000002a0: 9031 01bd f45d a7bd 3787 e6bd b1c7 373e
000002b0: 7fc0 a3be b546 eebc c1e9 503c c3b1 163e
000002c0: ee92 8cbe 80d1 43bd a95e 16be 062b 9fbd
000002d0: 591e 863d 1628 d23d c56b e0bd 7282 ca3d
000002e0: 72f6 f8bd abaa 78be 1d96 16bd b0ba 523d
000002f0: ce62 bdbe e4a2 11bd d87b 74bc c54a 05be
00000300: 3230 cf3d e2fe 5d3d 59a1 cf3d a410 21be
00000310: 1eb6 1bbd 3273 4c3c 1fa6 06bd 2243 033e
00000320: e8ce 84be bf3e 9b3e ff7d d73e 1b8c 533c
00000330: 015b 57be 4d23 c9bd af76 37bd 4b17 0a3e
00000340: d732 bbbc f7a1 2b3e 8f66 94bd 21d6 053c
00000350: bb15 f43d 6935 9abc f35f 263e ad57 39be
00000360: 6b42 8ebd ffff d93c 6d46 0f3d 726d 0dbe
00000370: 0c4d 083e cb99 5dbe 9b1b 573e 3d3b 84be
00000380: 7884 963d 59e0 8c3d c825 f7bd f2d2 a5be
00000390: 5aac e2bd ab72 2d3e 7996 89be 3c20 cdbc
000003a0: 2257 17bd e27c 0f3d f7f9 acbc 48a5 afbd
000003b0: 5d43 603d c8a8 e93d d7cd 72bd 04c3 5d3e
000003c0: aa0c b5bd 8296 86bd 6e1c 023e b238 1f3d
000003d0: 79f4 49be 59c2 ed3d ae7b 0abe 385a 573e
000003e0: ffcb fbbd 9b0b febd 6120 293d 88f4 063d
000003f0: 486d 27be eb19 0e3e d98e 8abd 5b6c b9bd

network_body._body_endoder.seq_layers.2.bias f4 [128]
-0.032249443 0.009834974 -0.0046951273 -0.04981554 -0.060487766 -0.0283295 0.028263338 0.0062195593
-0.024755517 -0.016543087 -0.021233693 -0.0041048955 -0.034768682 -0.043073744 0.010611905 0.04168949
-0.058433138 -0.057702474 -0.048441723 -0.0005880574 0.0113481665 0.035255156 0.03742528 -0.04508858
-0.027480112 -0.0155460825 -0.017664753 -0.014902375 -0.043839097 -0.017954493 -0.034607373 0.01465968
-0.007907486 -3.3535194e-05 0.023170307 -0.04101226 0.004421229 0.0006935699 0.000709905 -0.008792066
0.0069969506 -0.022611348 -0.01918489 -0.004557386 -0.06966163 0.0011658537 -0.002733228 -0.027169775
-0.003721312 -0.019378414 0.013597778 -0.035193436 -0.0502948 -0.05466623 -0.01558799 -0.04723155
-0.046740558 -0.031071566 0.009826176 -0.032037426 -0.041020624 -0.032757074 0.02404337 0.025216106
0.00048073416 0.00046965483 -0.03523828 0.010454328 0.0005223729 -0.0020271263 -0.0065667606 -0.03087073
-0.03792342 0.012691529 0.0022733244 -0.0021854562 -0.046764962 -0.010430245 -0.020788128 -0.016528795
-0.0030901306 -0.024100602 -0.023112038 -0.052618746 -0.0039417073 -0.016708149 0.018227357 0.0034450812
-0.034270864 -0.012668719 -0.0608238 -0.005021524 -0.023165265 -0.02475117 -0.048061103 -0.027153887
-0.03984311 -0.04086453 0.023613531 -0.007773645 -0.01394571 -0.012755385 0.002552865 0.03165215
0.033574153 -0.038885593 -0.03216869 0.02590897 -0.005327169 -0.01700527 -0.012160282 0.024533415
0.0014168937 -0.024683168 -0.0014493648 -0.0057911556 -0.05060176 0.027946113 0.008712586 0.005439063
-0.059717074 0.032705933 -0.052006558 -0.0457288 -0.057226665 -0.0638058 0.003512254 0.014549419
00000000: fe17 04bd df22 213c 95d9 99bb 610b 4cbd
00000010: 05c2 77bd 4513 e8bc 8488 e73c 72cd cb3b
00000020: 15cc cabc 5e85 87bc 48f2 adbc 5c82 86bb
00000030: 9b69 0ebd 186e 30bd 8edd 2d3c 99c2 2a3d
00000040: 9657 6fbd 6e59 6cbd d46a 46bd dd27 1aba
00000050: a9ed 393c b667 103d 404b 193d ceae 38bd
00000060: f91d e1bc ffb4 7ebc acb5 90bc 1729 74bc
00000070: a090 33bd 4d15 93bc 76c0 0dbd 282f 703c
00000080: 668e 01bc 24a8 0cb8 a8cf bd3c 79fc 27bd
00000090: f5df 903b b0d0 353a eb18 3a3a 990c 10bc
000000a0: ad46 e53b 6f3b b9bc a129 9dbc 2056 95bb
000000b0: c2aa 8ebd 8fcf 983a f51f 33bb 2693 debc
000000c0: 41e1 73bb 7bbf 9ebc 37c9 5e3c fe26 10bd
000000d0: ec01 4ebd b2e9 5fbd c564 7fbc df75 41bd
000000e0: 0773 3fbd cc89 febc f8fd 203c ad39 03bd
000000f0: 3e05 28bd 482c 06bd 9af6 c43c 0292 ce3c
00000100: 0c0b fc39 013c f639 0456 10bd a148 2b3c
00000110: daef 083a 89d9 04bb fb2d d7bb 9de4 fcbc
00000120: 9755 1bbd 21f0 4f3c 0efc 143b df39 0fbb
00000130: 9e8c 3fbd 9ee3 2abc dd4b aabc 6567 87bc
00000140: ca83 4abb a06e c5bc 7555 bdbc c186 57bd
00000150: 7029 81bb 87df 88bc 8a51 953c dfc6 613b
00000160: 9b5f 0cbd 7590 4fbc 6022 79bd 998b a4bb
00000170: 15c5 bdbc f7c2 cabc b8db 44bd d471 debc
00000180: 8732 23bd 9161 27bd 2a71 c13c 10ba febb
00000190: 8c7c 64bc f6fb 50bc f84d 273b afa5 013d
000001a0: 0d85 093d 8046 1fbd 51c3 03bd 0c3f d43c
000001b0: 888f aebb a34e 8bbc eb3b 47bc 4dfa c83c
000001c0: 10b7 b93a 5b34 cabc 9df8 bdba bcc3 bdbb
000001d0: cb43 4fbd 3fef e43c 3cbf 0e3c 2b3a b23b
000001e0: e499 74bd a8f6 053d d404 55bd 1f4e 3bbd
000001f0: 8266 6abd 9eac 82bd d82d 663b b060 6e3c

network_body._body_endoder.seq_layers.2.weight f4 [128, 128]
-0.22528009 0.00023138497 0.02707924 0.10476716 0.121073596 -0.096380346 -0.11954659 -0.098474294
-0.02041381 -0.1025385 0.08139261 0.2112179 -0.072820514 -0.15390736 -0.07341544 -0.18670097
-0.15295108 0.18657082 0.09825305 0.15136465 -0.02618339 0.10127672 -0.22111304 -0.032080296
0.07358127 0.10520799 0.08136662 -0.15579258 -0.02563651 -0.07571318 0.041984983 0.020464225
-0.015531868 -0.08475729 0.037772365 0.10410315 0.014658308 0.039223958 -0.004695665 -0.030686077
-0.036252066 -0.15567312 0.1087715 -0.037181042 -0.14636882 -0.04874718 -0.01658122 -0.049932174
-0.089391574 0.11844784 0.011181571 0.24849989 0.16347268 0.13637064 0.22870648 -0.29874253
-0.08700959 -0.14261927 -0.26560065 0.1033536 -0.068569444 -0.122898065 -0.12411572 0.2022927
-0.1085537 0.02554517 -0.122725286 0.04431163 -0.11773774 0.12635878 0.0768201 0.09750682
-0.06549304 0.07684981 0.016298711 -0.067209266 -0.1614194 -0.107341394 0.14744622 -0.05792639
-0.007074717 0.053830635 -0.12390396 0.1117899 -0.16891277 0.007351982 -0.05435851 -0.18191971
-0.17134576 0.024825709 0.067970216 -0.016346058 -0.124253444 0.047547076 -0.09395017 -0.08912081
-0.024711488 0.07743278 0.080531426 0.09145359 -0.14229111 0.11013039 0.004588028 -0.07762503
-0.097941265 0.024089478 -0.003759182 0.19617738 -0.107248396 -0.13284019 0.042754322 0.0661146
-0.2116109 0.18857943 0.006095333 -0.068418756 -0.0073875836 0.03937505 0.05847415 -0.09303012
-0.022399573 -0.11636493 -0.2266353 0.11660156 0.10241044 -0.10435403 -0.04423626 -0.033622798
-0.058439475 0.058777325 0.16351528 0.054349534 -0.00012346408 -0.20125169 -0.11113808 0.1513073
0.03646083 0.048554562 0.08412965 0.0805321 -0.11171037 -0.08817844 0.09264116 -0.18155426
-0.0107205855 0.13010252 -0.016564986 -0.020360745 -0.07479066 -0.057928097 0.066848144 0.06942026
0.016394753 -0.26500043 0.022504276 0.012818029 0.05267548 -0.14879182 0.26101625 0.031990267
0.07664558 -0.14110899 -0.004207465 0.08263739 -0.23727053 0.01020089 -0.07572312 -0.039242137
-0.06837875 -0.06588526 -0.057103768 -0.019051448 0.080303535 0.21982086 -0.0952112 -0.06967352
-0.16302921 0.3295799 -0.077765174 0.03604343 -0.1417204 0.032806065 0.0066664736 0.021362845
0.1754151 0.060341377 -0.15077253 0.09641578 0.20542616 -0.11205571 -0.009180011 -0.04309743
-0.10272956 -0.060428217 -0.10025369 0.11566271 -0.030350877 -0.096447095 -0.026907634 0.11513876
0.08925478 0.042664316 0.11244927 -0.0036317604 -0.017777847 -0.022405062 0.16984002 -0.004616551
-0.059263118 0.09470618 -0.13951224 0.15971962 -0.09080235 0.007296192 0.016566752 -0.079511985
0.016287647 0.022452133 0.022314126 0.03662526 0.06764448 -0.022931023 0.075298876 -0.0042435215
0.17523338 0.06913836 0.13804673 0.06397053 0.042462736 0.057156567 0.023560409 0.24985734
0.17433919 -0.016937735 0.03161171 -0.040081803 0.0023133368 -0.053205498 -0.03579466 0.072920814
0.20257328 0.11410403 -0.06256496 0.02254795 0.11132909 0.08619392 -0.08595455 0.13118316
-0.050911874 0.14572428 -0.080620944 0.060565293 -0.013314771 -0.07966987 -0.17753069 -0.083827645
00000000: d3af 66be ee9f 7239 48d5 dd3c 2a90 d63d
00000010: 6ff5 f73d 0f63 c5bd d8d4 f4bd e4ac c9bd
00000020: dd3a a7bc b5ff d1bd 2bb1 a63d 8149 583e
00000030: ec22 95bd e499 1dbe d65a 96bd 8a2e 3fbe
00000040: 359f 1cbe 6c0c 3f3e e538 c93d 56ff 1a3e
00000050: 8c7e d6bc 2b6a cf3d 756b 62be a166 03bd
00000060: c7b1 963d 4977 d73d 8ba3 a63d 1788 1fbe
00000070: a903 d2bc 830f 9bbd 72f8 2b3d 97a4 a73c
00000080: 6079 7ebc 3b95 adbd 32b7 1a3d 0834 d53d
00000090: 6629 703c 4da9 203d 18de 99bb 5e61 fbbc
000000a0: 0c7d 14bd c668 1fbe 98c3 de3d 264b 18bd
000000b0: b5e1 15be 1fab 47bd 57d5 87bc ae85 4cbd
000000c0: ee12 b7bd c894 f23d e832 373c c176 7e3e
000000d0: 6265 273e bfa4 0b3e 0832 6a3e c8f4 98be
000000e0: 1532 b2bd c90a 12be cffc 87be 0dab d33d
000000f0: 236e 8cbd fbb1 fbbd 6230 febd d125 4f3e
00000100: 6751 debd 1b44 d13c 6557 fbbd 1d80 353d
00000110: 7c20 f1bd 3264 013e db53 9d3d a8b1 c73d
00000120: 3721 86bd 6f63 9d3d e084 853c 03a5 89bd
00000130: 214b 25be ced5 dbbd 24fc 163e 3944 6dbd
00000140: 07d3 e7bb 837d 5c3d 5cc1 fdbd 1af2 e43d
00000150: 78f7 2cbe e5e8 f03b 07a7 5ebd 2949 3abe
00000160: 4375 2fbe 495f cb3c f833 8b3d 2be8 85bc
00000170: 9778 febd b9c0 423d f268 c0bd f984 b6bd
00000180: bf6f cabc 1495 9e3d a9ed a43d 054c bb3d
00000190: c3b4 11be 0b8c e13d 2b57 963b dff9 9ebd
000001a0: 6e95 c8bd 4c57 c53c 9c5c 76bb b9e2 483e
000001b0: 0ca5 dbbd 4207 08be 281f 2f3d 1767 873d
000001c0: 87b0 58be f71a 413e 5cbb c73b 221f 8cbd
000001d0: 8b13 f2bb bc47 213d 9782 6f3d 9386 bebd
000001e0: 4f7f b7bc bd50 eebd 1613 68be cccc ee3d
000001f0: 91bc d13d 91b7 d5bd 1531 35bd 0fb8 09bd
00000200: 3b5e 6fbd 7ec0 703d 8d70 273e 9e9d 5e3d
00000210: 2376 01b9 ec14 4ebe 5d9c e3bd 4df0 1a3e
00000220: f457 153d 26e1 463d 2a4c ac3d 03ee a43d
00000230: 68c8 e4bd e696 b4bd a6ba bd3d 5ce9 39be
00000240: 65a5 2fbc 9839 053e 4bb3 87bc 94cb a6bc
00000250: d82b 99bd 0346 6dbd aee7 883d 362c 8e3d
00000260: 4a4e 863c 23ae 87be e35a b83c b602 523c
00000270: 3ec2 573d e25c 18be eca3 853e 3a08 033d
00000280: 5cf8 9c3d e07e 10be c6de 89bb cb3d a93d
00000290: 0cf7 72be a221 273c b914 9bbd 5dbc 20bd
000002a0: 280a 8cbd daee 86bd a4e5 69bd c811 9cbc
000002b0: 2e76 a43d b818 613e 17fe c2bd feb0 8ebd
000002c0: 21f1 26be b2be a83e 5943 9fbd 47a2 133d
000002d0: 271f 11be a75f 063d 6f72 da3b 2201 af3c
000002e0: 04a0 333e 8528 773d 1d64 1abe a375 c53d
000002f0: 3c5b 523e 777d e5bd c267 16bc ee86 30bd
00000300: e063 d2bd 9483 77bd ce51 cdbd 92e0 ec3d
00000310: 67a2 f8bc 0e86 c5bd 666d dcbc dfcd eb3d
00000320: 36cb b63d c7c0 2e3d ce4b e63d d402 6ebb
00000330: d9a2 91bc d28a b7bc 8bea 2d3e 7046 97bb
00000340: e2bd 72bd 50f5 c13d 4cdc 0ebe 8a8d 233e
00000350: 95f6 b9bd e514 ef3b ffb6 873c 2ed7 a2bd
00000360: ac6d 853c 89ed b73c 1dcc b63c 5e04 163d
00000370: 3089 8a3d d7d9 bbbc 4c36 9a3d 3d0d 8bbb
00000380: 6170 333e 6a98 8d3d 1f5c 0d3e fb02 833d
00000390: 68ed 2d3d 011d 6a3d c201 c13c 9ada 7f3e
000003a0: f985 323e 01c1 8abc 487b 013d d12c 24bd
000003b0: 5a9b 173b 02ee 59bd 6c9d 12bd 8257 953d
000003c0: 5f6f 4f3e 60af e93d 0f22 80bd 7ab6 b83c
000003d0: 8200 e43d 7086 b03d f008 b0bd e154 063e
000003e0: f888 50bd bf38 153e 981c a5bd 5013 783d
000003f0: 3226 5abc f529 a3bd 9bca 35be d4ad abbd
