Maize-Runner/results/MazeRunner/EscapeMaze.onnx (onnx, 171663 bytes, 9 tensors)

action_model._continuous_distribution.log_sigma f4 [1, 2]
000000 18 de 31 bf 28 59 03 bf
       -0.69479513 -0.51307917

action_model._continuous_distribution.mu.bias f4 [2]
000000 9e 3a bc 3d c9 56 09 3b
       0.09190868 0.002095627

action_model._continuous_distribution.mu.weight f4 [2, 128]
000000 9e 40 b8 3c 55 1f 20 3a a8 d7 c4 3b a8 8f 80 bb
       0.02249175 0.00061081845 0.0060071535 -0.003923375
000010 0d fd 71 3c d0 a0 a3 bb 90 f4 67 3b ff 65 c9 3c
       0.014769805 -0.0049935356 0.0035393573 0.024584768
000020 ac 25 5d 3d 02 f7 98 3a fc b2 1a 3c 4d ea 3b 3d
       0.053991005 0.0011670294 0.009442087 0.045877744
000030 cb 85 93 bd 2a 75 c4 bd 8c f8 96 3c 5a 38 8d 3a
       -0.07203253 -0.0959266 0.018429063 0.001077424
000040 0b 68 5b 3d f9 71 19 bd 3f af de 3b 35 1e 0d bd
       0.05356602 -0.03746221 0.0067957933 -0.034452636
000050 d3 ef 4f bd 61 82 64 3c 37 3f a0 3c 13 88 05 3d
       -0.050765824 0.0139471 0.019561393 0.032600474
000060 85 d7 58 3c 39 b2 ea bb dc cf e4 bc 82 44 5c 3d
       0.013234978 -0.007162359 -0.027931146 0.05377627
000070 a2 ec 56 3b 16 60 05 3b 74 cb 9f 3b 03 42 0a bb
       0.0032794853 0.002035146 0.0048765484 -0.0021096475
000080 2d 62 dd 3d 7c 24 fe 3c 9e a8 0a bd b9 c1 79 3b
       0.10809741 0.031023256 -0.033852212 0.0038109852
000090 ef 9f 79 3b 60 d5 24 bc dc 76 d2 bc a0 f7 21 3b
       0.0038089713 -0.010060638 -0.025691442 0.0024714246
0000a0 48 b1 34 3d 0d 9d 67 ba e8 87 2b bd 68 9f 99 ba
       0.04411438 -0.0008835353 -0.041877657 -0.001172048
0000b0 04 84 23 3c df 9b da 3d 3a eb 2c 3d c6 94 b0 bd
       0.009980205 0.10674261 0.042216517 -0.08622126
0000c0 49 01 f2 ba 3c f0 8f 3c 63 6d 97 3d 0d 37 c3 3c
       -0.0018463518 0.017570607 0.07393911 0.023829961
0000d0 93 96 5a 3c 7d 41 41 bd a7 9c 26 ba fc a4 13 ba
       0.013341564 -0.047181595 -0.00063557405 -0.00056321896
0000e0 0c 4d 88 3c 3b 67 5d bd d4 ad d4 b9 c9 f4 88 3d
       0.016638301 -0.054053526 -0.00040565303 0.06687314
0000f0 2d 9f d7 b7 cf 41 03 3b 9f 82 e0 ba 35 53 80 3b
       -2.570412e-05 0.0020028239 -0.0017128772 0.003916169
000100 b7 3e 3c bb e5 ae aa bd 54 c3 97 bc ce 6f 81 bb
       -0.0028723904 -0.0833414 -0.018525757 -0.0039500957
000110 07 e1 d7 3b c1 3d 5a b9 51 ea 91 3c 16 b0 7d bc
       0.0065881046 -0.00020813105 0.017811926 -0.015483877
000120 37 35 36 3d da fe db bb 3a a2 13 3a 25 7a 01 bc
       0.044484343 -0.0067137303 0.00056317786 -0.007902657
000130 b5 d3 b8 bb 98 59 cd bd db 49 57 3d db aa 14 bb
       -0.005640472 -0.10026854 0.05256067 -0.0022684846
000140 b6 e2 40 3a 11 b6 4c bc 5d 5a 01 3b 66 f6 1b 3b
       0.00073580013 -0.01249458 0.0019737699 0.0023797988
000150 83 3a ec 3c 2c ef 99 ba 99 97 91 3b fe ac 0a bc
       0.028836494 -0.0011744252 0.0044431207 -0.008464096
000160 21 fd 58 3c 01 d8 a9 3b 67 c4 21 3c a5 32 73 3b
       0.013243944 0.0051832204 0.009873486 0.0037109044
000170 70 45 42 bd c1 f9 ee 3a 87 e9 fa bb 9a 59 df 3b
       -0.047429502 0.0018232391 -0.007657233 0.0068161013
000180 54 db 2a 3c 7a 89 92 bd fa dc 2b 3a c4 89 6d bb
       0.010428268 -0.07155128 0.00065560604 -0.0036245445
000190 e8 c1 eb 3c bc 30 2a ba 01 74 d4 3a 4d d5 a7 3d
       0.028778985 -0.00064922473 0.0016208888 0.08194981
0001a0 17 58 94 bc 97 6f 8a 3c af 85 7e 3b 26 76 83 3b
       -0.01810841 0.016898913 0.0038837006 0.004011887
0001b0 d5 ec 07 b9 6a e4 4a 3b cc 44 0f 3b de ff a9 3a
       -0.0001296283 0.00309589 0.0021861074 0.0012969931
0001c0 45 98 e1 39 af c9 c6 bc 57 7a db bc 9f 97 81 3b
       0.00043028794 -0.024266092 -0.026791735 0.003954842
0001d0 f5 fc 91 bd 66 53 05 bb 96 3a e2 3b b7 48 ad 3b
       -0.07128326 -0.0020343899 0.0069039566 0.0052882093
0001e0 6c de a9 ba c5 22 ca 3b aa eb 12 bb 8b 2a a6 bb
       -0.0012959964 0.0061686956 -0.0022418299 -0.0050709895
0001f0 cb 27 93 3b b9 ab ab bc a9 ea 27 bd 6a ce 84 bb
       0.0044908277 -0.020955907 -0.040995274 -0.004052927
000200 0a 67 62 bd 6f b3 fb 3a 69 17 c3 b7 71 54 2b 3c
       -0.055274047 0.0019203256 -2.3256713e-05 0.010457144
000210 7a 42 a2 bc f0 42 5d 3c 9c 75 dc 3b 4e 0d e2 3d
       -0.01980709 0.013504729 0.0067278873 0.11037694
000220 fc a7 a0 3d 8e 94 b5 bb e2 94 d6 ba 2b 0d 02 3d
       0.078445405 -0.0055413907 -0.0016371275 0.03175084
000230 03 c2 30 bc 3e 00 b2 3c 74 47 05 3c 19 ea fd 3a
       -0.0107884435 0.021728631 0.0081347115 0.0019372135
000240 af e3 18 3d 70 12 8d 3d 5e e4 6d 3c 29 7a a6 bd
       0.03732651 0.06888282 0.014519779 -0.08128769
000250 6d 03 f1 3c ff 73 9e 3c 8c a9 c5 3c 8a 0f 64 3c
       0.029420579 0.01934242 0.024128698 0.01391972
000260 d4 7e d2 3a 99 9c 74 bd 5e 2c 06 bd 88 31 48 3d
       0.0016059526 -0.059719656 -0.032757156 0.04887536
000270 fc 56 ae bb 21 01 3c bc d8 b5 05 bd c3 0e f2 bb
       -0.005320428 -0.0114748785 -0.032644123 -0.0073870136
000280 0c 5a 03 3d 8e 68 22 bd d8 c5 68 bc ee 18 bd 3a
       0.032068297 -0.039650492 -0.014207326 0.0014426985
000290 5d 85 ae 3b fe 24 03 bd 1d 20 af bc 7d 45 eb 3b
       0.0053259567 -0.0320177 -0.021377617 0.0071799145
0002a0 58 b3 9f bb ce 5d 80 3b 70 eb 02 3c b9 9a 23 3b
       -0.0048736744 0.0039174324 0.007990703 0.0024964048
0002b0 b4 a3 8a ba f9 36 b2 bd 07 7e d0 bd 5c a1 88 bd
       -0.0010577352 -0.087018915 -0.10180288 -0.06671402
0002c0 db be 38 ba 9e 7c 1b bc 07 f5 70 bd 06 92 34 bd
       -0.00070474826 -0.00949016 -0.058827426 -0.04408457
0002d0 6f c9 12 bd b8 a5 86 3d b2 17 90 bb 2c 2a 10 3b
       -0.035836633 0.06574577 -0.004397356 0.0021997793
0002e0 1d 96 ee bc cb 61 9a bd 55 87 88 bb b8 89 a2 3c
       -0.029124314 -0.07538184 -0.0041665235 0.01984106
0002f0 94 17 cd 3b 06 47 53 bc 44 72 27 bb 08 da 49 bb
       0.0062589142 -0.012895351 -0.0025550285 -0.0030800123
000300 d8 9d e9 ba 70 3b 82 3d 19 ba 69 3d 8c b7 0e bd
       -0.001782353 0.06358993 0.057062242 -0.034843013
000310 7a 14 85 bc c4 6b 3c ba 63 db dc bc 57 54 67 3c
       -0.016245116 -0.0007187689 -0.02696008 0.014119229
000320 6d 76 e7 bd 63 c3 42 bb 64 c9 8c bb 43 b7 ad bb
       -0.11301885 -0.002971851 -0.0042964686 -0.0053013875
000330 6b 64 ca b8 62 5c 0f 3a 11 52 34 3c f4 37 31 bb
       -9.650815e-05 0.0005468783 0.011005894 -0.0027041407
000340 41 41 10 bc 10 ac db bc c8 10 a8 bb a2 ac 20 bd
       -0.00880462 -0.026815444 -0.0051289536 -0.039227135
000350 0e 3f 25 3d 58 5e b0 bb e1 c9 9b b9 0e 99 c7 3a
       0.040343337 -0.0053823404 -0.00029714315 0.0015228109
000360 20 4a 77 bc c3 0e ed 3b 74 97 c4 39 30 85 a7 bb
       -0.015093356 0.0072344257 0.00037496875 -0.0051123127
000370 0d 2a d9 bd 55 51 57 3b 87 53 79 bd 07 9d 24 bd
       -0.10603724 0.0032854874 -0.060870674 -0.040188815
000380 17 a7 57 3c 07 2d c5 3d 23 7d eb ba f2 b0 27 bb
       0.013162396 0.09627729 -0.0017966371 -0.0025587645
000390 25 98 9f bc 4e 0c b3 bb 3a 12 0c 3b c8 7b 7d bd
       -0.019481728 -0.0054641133 0.0021373169 -0.061885625
0003a0 a8 72 ef 3c db 8c fc bb 32 86 80 3b 9c b7 42 3b
       0.029229477 -0.007707221 0.0039222473 0.002971149
0003b0 dd 5c d2 bb 5a 9b bf 39 e4 ea 1b ba 4e 7a c3 ba
       -0.0064197616 0.00036546105 -0.0005947782 -0.0014913769
0003c0 7d c4 f3 3b 90 57 ba bc b8 60 77 3d 6f f2 c3 bb
       0.0074391947 -0.022746831 0.060394973 -0.005979828
0003d0 11 db 37 bb 3a 21 92 3b 10 14 33 3c fb e7 9c ba
       -0.0028054158 0.0044595273 0.010930076 -0.0011970991
0003e0 fd b9 af 37 67 72 d3 bb d2 c9 59 3b d3 ac 99 ba
       2.0948233e-05 -0.006452847 0.0033231867 -0.0011724479
0003f0 3e 05 47 3b 87 e5 ca 3b 10 47 d7 3c 55 d8 83 3b
       0.0030368115 0.0061919126 0.026279002 0.0040235915

network_body._body_endoder.seq_layers.0.bias f4 [128]
000000 3a 71 b4 bd cf 68 6b ba ff 6c 11 bd fa ab ba 3d
       -0.08810659 -0.0008980156 -0.035504337 0.09114833
000010 fc c7 ce bc 34 d5 bf bc 75 42 a1 bc d4 5f e8 bc
       -0.025241844 -0.023417093 -0.01968501 -0.028366007
000020 9f c9 16 3d e1 73 d3 bc 87 03 28 3c 63 fb f2 bd
       0.036813375 -0.025812091 0.010254747 -0.118643545
000030 8d 8f 17 3a 86 b9 b4 3d 4e 06 8b bd 4c 2f ef 3c
       0.00057815836 0.08824448 -0.06788312 0.029197358
000040 5b be 94 bc 64 44 d1 bd 03 77 1a 3d e0 b0 18 bd
       -0.018157175 -0.102181226 0.037711155 -0.037278056
000050 43 5f 8e bd 77 8f e2 bd e4 64 63 3d 02 2f 9d 3b
       -0.069517635 -0.1106252 0.05551614 0.0047968635
000060 da b2 f3 bc a3 5a f6 bd c6 02 27 3d f4 5a 9f bd
       -0.029748369 -0.12029006 0.04077413 -0.0778102
000070 db 0f 92 bd 83 2d dc bc 14 80 0f 3d bc 5a 11 bd
       -0.071319304 -0.02687717 0.035034254 -0.03548692
000080 35 74 d5 3c d8 ab 94 bd 38 71 90 bd 24 56 22 3d
       0.026056388 -0.07259339 -0.07052845 0.03963293
000090 82 3c 20 3d 8f 14 c5 bc 13 cd e5 bd 54 7d 20 3d
       0.039120205 -0.024057655 -0.112207554 0.039182022
0000a0 33 a6 83 3d 57 e3 58 ba c1 2b 3c bd 36 a9 12 bc
       0.06428184 -0.00082736224 -0.045940164 -0.008951476
0000b0 c3 0c 26 bb 2a 44 3d 3c 76 19 69 bc 7e 4a 06 3c
       -0.0025337196 0.011551896 -0.014227262 0.008196471
0000c0 11 df 11 3d 85 59 ad ba 05 35 63 3d 84 36 31 bd
       0.035613123 -0.0013225531 0.055470485 -0.04326488
0000d0 90 ca 30 be 8e e6 5e 3c f3 42 22 bc 0f 49 a6 bd
       -0.17264771 0.013604773 -0.009903657 -0.081194036
0000e0 56 31 74 3d cf 42 bf 3c 9c b6 00 be f8 70 86 bc
       0.059617363 0.023347287 -0.1256966 -0.01641129
0000f0 5c ed 07 bd d8 cb 6a bd 4c 9c ca bc 21 d5 02 3d
       -0.033185348 -0.057323307 -0.024732731 0.031941537
000100 0c 7d 54 bc 06 38 4d 3d 9c c3 01 be 24 29 de bd
       -0.012969267 0.050102256 -0.12672275 -0.10847691
000110 8d b2 b9 bd 5f 30 df bd b3 b0 27 3d 88 3a c6 bd
       -0.09067259 -0.10897898 0.040939998 -0.09679133
000120 15 a7 ec bd d9 af ad bd 47 d9 5a bd af dc de bc
       -0.11555306 -0.08480806 -0.053429868 -0.02720484
000130 75 50 cb bc b6 85 9c 3d 05 c3 47 bd a8 9a 66 3d
       -0.024818638 0.07642691 -0.04876997 0.056299835
000140 d5 4d 55 bd 06 b7 dc bc 20 a9 fc bb 52 5a 89 bc
       -0.05207618 -0.026942741 -0.007710591 -0.0167667
000150 88 2c 8a 3c 84 06 03 be 1f 74 29 bd a3 b2 48 bc
       0.016866937 -0.12795454 -0.041370507 -0.012249622
000160 49 45 e2 bd 61 61 cf bb be 05 1f 3d 64 c9 8d 39
       -0.11048371 -0.006328747 0.038823836 0.00027043663
000170 dc e9 81 bd 91 eb ec 3c 9f 19 70 bd c7 cf 5a bd
       -0.06343433 0.02892092 -0.058618184 -0.05342081
000180 b4 32 a5 3c e2 94 a5 bd 0f 1b 14 3c 9c 10 0b bd
       0.020165779 -0.08085038 0.009039654 -0.033951387
000190 21 ef 67 bd 7d 0d 80 bd 77 d2 9c bd 92 03 a4 bd
       -0.056624535 -0.06252573 -0.076573305 -0.080084935
0001a0 24 96 5b bc 8c e9 8c 3d 8c 32 b5 3b 10 94 64 3d
       -0.0134024955 0.06880483 0.0055297073 0.055805266
0001b0 a1 d2 c1 3c 5c 27 fb bd 93 92 d7 3c 15 96 9c 3d
       0.023660006 -0.122633666 0.02631501 0.076458134
0001c0 2a 06 b2 3c 1b c7 3a bd 8d ba 7f bd 39 e7 9a 3d
       0.021731455 -0.045600038 -0.062433768 0.075636335
0001d0 c1 7e 00 3e da 55 b7 3d fc c1 b1 bd 02 dc c5 bd
       0.12548353 0.08951922 -0.08679578 -0.09661104
0001e0 14 63 d3 3d 88 58 95 3d f2 99 94 bc de 3a 93 bd
       0.10321632 0.072922766 -0.018139813 -0.071889624
0001f0 74 af 8e bd b2 42 88 bb a5 09 ab bd 9f 6d 74 3d
       -0.06967059 -0.0041583413 -0.08351449 0.059674855

network_body._body_endoder.seq_layers.0.weight f4 [128, 70]
000000 c1 ca 84 3d b8 7a c3 bd 43 16 48 bc 66 86 17 3e
       0.06483985 -0.09544891 -0.012212339 0.14797363
000010 e2 54 39 3d 91 d7 c9 3d 9f 4c e7 bd b6 cd 1b 3e
       0.045246966 0.09855569 -0.11293911 0.15215191
000020 0e e4 10 be da 2b a2 3e 5a 3e a1 bd 9f 76 20 be
       -0.14149496 0.3167408 -0.07873221 -0.1567025
000030 2c 16 d7 3d 07 f7 4c 3d 27 52 91 bc 5e d4 96 3e
       0.10502276 0.05004027 -0.017739369 0.29458898
000040 57 a9 2d be 78 eb b1 3d e8 99 79 be 70 55 b9 3e
       -0.1695913 0.0868749 -0.24375117 0.36197996
000050 06 a7 b3 be 8b d7 8d bd d1 61 b4 3c 2d dc e2 bd
       -0.35088366 -0.06925877 0.022019299 -0.110771514
000060 ec 36 c8 bd d5 cb 57 bd 53 a7 9d be 60 9e 96 bc
       -0.097761005 -0.052684624 -0.3079172 -0.018386066
000070 4e d4 0d 3d 0b f0 fb 3e a5 2f f2 be 45 20 13 3e
       0.034626298 0.49206576 -0.47301975 0.14367779
000080 f0 89 83 3c 2a 9c 2c be e4 67 aa be 22 37 a8 3d
       0.016056985 -0.16856447 -0.33282387 0.08213641
000090 8e 59 5d be 0a fd cc 3d 27 fd 74 be e9 c5 a7 3d
       -0.21616194 0.10009201 -0.23924695 0.08192045
0000a0 e0 a0 7e be 4a 08 32 be 26 ee db bc fe 20 65 3d
       -0.24866056 -0.17385975 -0.026846956 0.055939667
0000b0 aa f6 85 be a5 8f 87 bb fb ff 21 be ac c0 8b be
       -0.26164752 -0.004136997 -0.15820305 -0.27295434
0000c0 3a 67 cf 3d a9 fa e7 3c 5d 17 d4 be 7a 74 1c 3d
       0.10127111 0.028317766 -0.41424075 0.03819702
0000d0 f2 b5 8d bd 2c 94 27 bc 50 48 dd be a1 5e f5 3c
       -0.06919469 -0.010228198 -0.43219233 0.02995235
0000e0 07 b1 b4 be e6 87 9b bd d5 8e 3f 3e f7 03 a6 bd
       -0.3529131 -0.0759428 0.1870683 -0.08106225
0000f0 20 85 a1 be 10 e1 3b be 8e f8 01 3d 38 23 c6 3e
       -0.3154688 -0.18347573 0.03173118 0.38698745
000100 52 23 30 be c8 e2 86 3e 78 21 55 be 07 c4 04 be
       -0.17200974 0.26344895 -0.20813549 -0.12965403
000110 a5 07 e0 be 1d 37 34 3e 07 c2 83 3d 41 aa 9e 3e
       -0.43755832 0.17599149 0.06433492 0.30989268
000120 30 39 1a 3e 33 f0 1a be 99 84 2f be ee 85 c9 bd
       0.15060878 -0.15130691 -0.17140426 -0.09839998
000130 63 52 75 3e 61 20 47 3e 0e 6a e5 bd 0a 16 85 3d
       0.2395721 0.19445945 -0.11201869 0.06498344
000140 29 d0 09 be ae 74 5d bb dc c1 4b be 91 3c f7 3d
       -0.13458313 -0.003379147 -0.1989817 0.12072099
000150 21 0f 03 3d e5 d5 9a 3c 08 d3 c8 3d 64 50 13 bd
       0.03199685 0.018900821 0.09805876 -0.03596534
000160 67 a5 1e be d6 33 45 be 9c 13 89 3d 2c 6a c3 bd
       -0.15492783 -0.19258055 0.06693193 -0.09541735
000170 5a e9 6a bd dd 8e 48 3e f1 7a cd 3b 20 d7 87 3e
       -0.057351448 0.19585748 0.0062707593 0.26531315
000180 51 b9 6e 3d 97 66 0d 3a 69 8d 8a be 51 57 85 3d
       0.0582822 0.000539401 -0.27061012 0.06510795
000190 03 da 7d bc 15 d8 a1 bb e4 fa 3f be 5a cf 4a be
       -0.015493873 -0.004939089 -0.18748051 -0.19805661
0001a0 1f fa de bd e2 e5 74 3e d3 62 cf be f0 fe 94 3d
       -0.108875506 0.23915818 -0.40505084 0.07275188
0001b0 da 45 4d 3e 30 06 38 bd 73 d2 90 be d1 e7 7d be
       0.20046178 -0.044927776 -0.2828556 -0.24795462
0001c0 2c 50 8f 3d f3 16 07 bc b8 0c 84 be bc 6f 39 be
       0.069977134 -0.008245218 -0.25790954 -0.1810903
0001d0 c2 df e8 3d e0 5b 82 3d d5 fd 0e 3d 39 1e 4e 3d
       0.113708034 0.0636518 0.03491004 0.05032179
0001e0 3c 0a 74 be 4b 95 24 3e ac e1 aa 3c 5e cc fc bd
       -0.23832029 0.16072576 0.020859562 -0.123436674
0001f0 9e 40 b1 bd bb 15 60 be 58 fe a4 3b 73 36 9a bc
       -0.08654903 -0.2188329 0.005035203 -0.018824792
000200 12 b9 38 39 0b 15 98 be cb c2 5b bd 53 57 f4 3d
       0.00017616551 -0.29703555 -0.053652566 0.11930718
000210 90 e8 2f be 9c 55 f4 bc 74 ea c3 be a9 2c 8e bd
       -0.1717856 -0.029825978 -0.3826481 -0.06942112
000220 5e 09 0a 3e 11 23 1f be 58 8b c5 3e 11 93 5e 3e
       0.13480136 -0.1554072 0.38582873 0.21735789
000230 fd ff 93 3e 3a 54 d4 bc 04 98 ff 3b cd cc 5c bd
       0.2890624 -0.025919069 0.007800104 -0.05390625
000240 9c 49 fb bd b4 e8 d8 3e 97 80 16 3e 83 93 56 bd
       -0.12269899 0.42365038 0.1469749 -0.052386772
000250 66 03 d3 bd 32 a6 90 3e 54 59 64 bd 41 72 78 bd
       -0.103033826 0.28251797 -0.055749252 -0.060655836
000260 4e f1 39 bd 97 d7 dc bd fd ba 5d bd e1 de a5 3e
       -0.04539614 -0.10783308 -0.054133404 0.32396606
000270 6c 93 5f bd 45 28 70 3d 34 3d c0 be df 6c c4 3e
       -0.05458395 0.058632154 -0.37546694 0.38364312
000280 37 a5 f2 be 61 53 a1 bd 5f da b4 3b d5 38 c4 3d
       -0.47391674 -0.078772314 0.005519196 0.09581152
000290 97 f1 13 be a8 ea 99 bd f9 0f ca 3d 79 67 dc bd
       -0.14447628 -0.0751546 0.09866328 -0.10761923
0002a0 cd 95 ed bd 48 18 e5 bd a9 23 af be 42 a8 61 3e
       -0.11600838 -0.11186272 -0.34206894 0.22036842
0002b0 a1 08 d3 3d 3a 5f 3e be 4a ec 94 be fb 59 dc 3d
       0.1030438 -0.18591014 -0.29086524 0.1075935
0002c0 a4 02 75 bd 0f b8 2e 3d 48 f9 bc bd d7 48 9a bc
       -0.05981697 0.042656 -0.09227234 -0.01883356
0002d0 c5 66 c5 be 52 79 4b bc 68 80 de ba 34 aa d2 3e
       -0.3855497 -0.012419062 -0.0016975524 0.4114548
0002e0 21 16 45 be 7c e5 f6 be d3 c5 22 bc 45 a6 39 be
       -0.19246723 -0.48221958 -0.00993486 -0.18129833
0002f0 64 8b b3 bd f6 e9 91 be fa 4b 3a bf 29 a1 59 3d
       -0.08766821 -0.2849881 -0.7277218 0.05313221
000300 19 3c e2 bd 01 80 66 3e c4 4f b5 bd e4 69 18 bf
       -0.11046619 0.22509767 -0.08853105 -0.59536576
000310 f0 b1 47 3e c9 22 81 be d6 26 94 be f7 f2 70 be
       0.19501472 -0.2522185 -0.2893588 -0.23530184
000320 c7 d8 73 bf 0a e8 7b 3d 5f 43 ac bd 85 ad 4d 3e
       -0.9525265 0.061500587 -0.084112875 0.20085724
000330 82 1c 0e bf 64 e7 09 3e 87 73 5c 3d 30 0b 21 3c
       -0.5551225 0.13467175 0.053821113 0.009829327
000340 d2 38 a8 be f1 a6 7f be db c5 45 3e 67 87 1b 3e
       -0.3285585 -0.24966027 0.19313757 0.1518837
000350 35 84 00 be 34 b9 f4 3d 1b 5a 0f 3e e6 2a 2d bc
       -0.12550433 0.11949387 0.13999216 -0.01056931
000360 1a 2c 01 3d 0f 10 48 3e d0 a6 18 3d b3 4f d1 bc
       0.0315362 0.19537376 0.03726846 -0.025550699
000370 a4 9e 0a be ac 0e 1e be c5 51 d7 3c e4 d1 5f 3e
       -0.13537079 -0.15435284 0.026284108 0.2185741
000380 ae 48 2d bc 29 7a 07 3e 58 02 56 3e 08 82 cb bd
       -0.01057641 0.13230194 0.20899332 -0.09936911
000390 b7 be 3e 3e 39 4b df 3d a8 3e 2c bf dd 1b 58 3e
       0.1862744 0.109030195 -0.67283106 0.21104379
0003a0 9b 1b 3e 3c 8e e8 a7 3e 59 42 81 3e 9c c6 2f be
       0.011603261 0.32794613 0.25245932 -0.17165607
0003b0 06 f8 ba 3b 0b 0a 07 3e 94 62 15 3e a5 ca cd 3e
       0.005705836 0.13187425 0.14588386 0.40193668
0003c0 eb ab 00 bf a4 0f 84 3e 69 f5 3c 3d ef 7f 23 3c
       -0.50262326 0.25793183 0.04613248 0.009979232
0003d0 e9 d9 e8 be 67 f5 72 3d e3 ac 46 3e c1 e8 84 be
       -0.45478752 0.059316065 0.19401889 -0.25958827
0003e0 66 21 f0 3c 1a 7f 0f 3e 13 af 14 bf a4 1c b7 3e
       0.0293128 0.14013329 -0.5807964 0.3576404
0003f0 9c b2 86 be a5 a4 8a 3d 0a 1c e6 bd aa f9 62 be
       -0.26308143 0.06769685 -0.11235817 -0.22165552

network_body._body_endoder.seq_layers.2.bias f4 [128]
000000 20 27 64 bc 49 a3 6e be 3d 13 c6 bd f9 08 5f bc
       -0.013925344 -0.23304476 -0.09671638 -0.013612979
000010 25 3e a3 bd b9 92 19 bd cb e2 9d 3d e5 fe f0 bc
       -0.079708375 -0.03749344 0.07709273 -0.029418418
000020 a2 0f 32 bd 4d 46 07 be 34 7d 2b be 23 cc c8 bd
       -0.04347194 -0.13210411 -0.1674698 -0.09804561
000030 c9 39 8b bd a1 17 13 bd d3 15 6d bd f2 e2 21 bc
       -0.06798131 -0.035911206 -0.05788214 -0.009880768
000040 03 78 29 be 5f 35 43 be e1 b7 b5 bd 78 05 32 bd
       -0.16549687 -0.19063328 -0.08872963 -0.043462247
000050 ac e7 af bc af 54 ce bd 2a fe 0d be 53 17 9e 3c
       -0.021472774 -0.10074746 -0.13866487 0.019298231
000060 00 8c 9e bd f2 50 39 3d 63 41 96 3c 2c 4c e0 bc
       -0.07741547 0.04524321 0.018341726 -0.027380072
000070 fb 34 14 bc a3 99 3d bd 0f a3 01 be 18 57 b1 bd
       -0.009045835 -0.046289098 -0.12659858 -0.0865919
000080 2a 4a 0a be 74 85 9d bd 0e 2d 19 be 09 46 8f 3d
       -0.13504854 -0.0769147 -0.14958593 0.0699578
000090 a4 51 04 bc c6 b4 7d bd c6 45 bf bd a5 ba 0b be
       -0.008076105 -0.061939977 -0.0933948 -0.13645418
0000a0 4f dc 52 bd b6 60 dd bd a3 f9 c6 bd 46 21 52 3d
       -0.051479634 -0.10809462 -0.09715583 0.051301263
0000b0 c0 7f ff bb 7e c4 c8 bd e3 ed ee bd 48 ca bb 3d
       -0.0077972114 -0.09803103 -0.11666467 0.091694415
0000c0 b1 c7 f5 bd 0e 99 95 bd 40 9b 62 bb c7 6a 2b bd
       -0.12000979 -0.073045835 -0.00345774 -0.041849878
0000d0 23 8b 85 bd 62 0e 0d be 19 41 01 be 22 5e 2a be
       -0.06520679 -0.13775018 -0.12622489 -0.16637471
0000e0 73 bb e6 bd 23 80 c0 bd 3f 77 04 be a2 ab 90 bd
       -0.11266222 -0.0939944 -0.12936114 -0.07063986
0000f0 05 de 95 bd fa 06 18 be 03 6e cf bd a6 f5 07 be
       -0.073177375 -0.14846411 -0.10128405 -0.13277301
000100 3e a8 b7 3c 79 c2 5b bd 75 e7 25 bd e7 a6 2c bc
       0.022419091 -0.05365226 -0.040503938 -0.0105378395
000110 fc ec a5 bd de 79 e2 bd 1c f9 52 bd 4a 11 9f 3d
       -0.08101842 -0.110584006 -0.0515071 0.077669695
000120 b1 b8 31 bd 4e 89 06 be 79 74 1e bd 15 21 cd bd
       -0.043389026 -0.13138315 -0.038685296 -0.100160755
000130 a7 57 1a 3d 20 32 f2 bd b8 20 76 bd e4 a2 2a 3e
       0.037681248 -0.11825967 -0.060089797 0.166637
000140 c8 ba 67 bc 61 00 00 be 62 40 99 bd 0f 08 fd bd
       -0.014143653 -0.12500145 -0.07482983 -0.12355053
000150 7e 83 1d be 0f a8 9e bd 0b 76 00 be 5a 92 9f bc
       -0.15382192 -0.077468984 -0.1254503 -0.019478966
000160 76 e6 9a bd bf a2 f2 bd da 06 5e be d9 38 30 be
       -0.07563488 -0.118474476 -0.21682301 -0.17209186
000170 48 e4 61 bd 8b af 08 be 2b fc 52 be f0 f4 08 bd
       -0.055149347 -0.13348214 -0.20604007 -0.033436716
000180 a3 f2 d6 bd f8 58 1c be 92 3f 4e be a8 7c 64 bd
       -0.10495498 -0.15268314 -0.20141438 -0.055782944
000190 7a 4c 44 be f3 74 db bd d5 6d b6 3c 47 3c a8 bd
       -0.19169798 -0.10715666 0.022269169 -0.08214622
0001a0 e8 41 27 be bf f4 5e bd ba 6a 1e bd 0b 7f 4d 3b
       -0.16333735 -0.054432627 -0.038676 0.003135624
0001b0 19 ac 1c be 1d 37 5a 3c 05 05 41 bd b0 84 36 be
       -0.15300025 0.013318804 -0.047123928 -0.17824054
0001c0 f2 f6 35 bd a2 27 1a be 66 47 b1 bd 57 5f d4 bd
       -0.04442496 -0.15054181 -0.08656196 -0.10369747
0001d0 09 87 a4 bc 99 40 0f be 0a 89 93 bb 57 44 83 bd
       -0.020083921 -0.13989486 -0.0045024203 -0.06409519
0001e0 8c 28 4e be b8 0b e2 bd ec 79 1e bd 11 a2 59 be
       -0.20132655 -0.110373914 -0.038690493 -0.2125323
0001f0 ea 36 13 bd 40 68 e9 ba ff f8 89 bd de 8a 39 be
       -0.035941042 -0.0017807558 -0.06736945 -0.1811938

network_body._body_endoder.seq_layers.2.weight f4 [128, 128]
000000 44 68 2f 3e db e1 e8 3d 33 bc 7c 3d 3c 40 8d be
       0.17129618 0.113712035 0.06170292 -0.2758807
000010 25 df dd bc bd 7c 73 bc 1a e1 29 3e 34 bd 77 be
       -0.027083943 -0.014861283 0.16589776 -0.24193269
000020 ed 17 94 bc ce 60 b0 3d a5 26 73 be bd 18 b2 bd
       -0.018077815 0.08612214 -0.2374521 -0.08696125
000030 7a 4c 73 bd fc 5f d4 3e f5 fc 65 ba 6d 22 6a 3e
       -0.059399106 0.4147948 -0.000877335 0.22864695
000040 b0 d2 65 be d9 c6 2f 3e b3 10 ec 3d dc 14 89 3e
       -0.22443652 0.17165698 0.115266226 0.26773727
000050 f3 ae 2e 3d 0b c7 0d be f2 2c 04 3c 67 34 24 bf
       0.042647313 -0.1384546 0.008067356 -0.6414246
000060 a6 b1 ce bc db ec 2e 3e ff 88 9a be 02 ad 97 3e
       -0.025231194 0.1708254 -0.30182645 0.29624182
000070 2b 46 be 3d c8 63 cb bd 63 64 92 bd 00 a6 d0 bd
       0.09290727 -0.09931141 -0.071480535 -0.10187912
000080 7c 95 d3 3c 51 97 2a 3e 0f 36 ff 3d 17 4a 2d bf
       0.025828116 0.16659285 0.12461483 -0.6769118
000090 e8 c4 dc 3d c6 ac d5 bb 73 a1 fb bd c3 ad 89 be
       0.107797444 -0.0065208403 -0.12286653 -0.26890382
0000a0 72 7b 80 3c e8 59 40 be fb e9 30 3e 9c 27 86 3d
       0.015683863 -0.18784297 0.17276756 0.06550524
0000b0 37 3a a9 bc 06 a4 02 be e3 2e d3 bd 3e be 0d bd
       -0.020657642 -0.12757882 -0.10311677 -0.034605257
0000c0 7b fb 33 3e 1d 0b 14 3d 56 26 09 3d a6 72 0f bd
       0.17576401 0.03614341 0.033483826 -0.035021447
0000d0 41 65 60 bd 7a 63 50 3c 50 d8 d4 ba 9d 6d 17 bd
       -0.054784063 0.01271903 -0.0016238783 -0.03696977
0000e0 bf f8 9c bd 0e b6 98 3e 13 3c b3 3d dd f3 16 be
       -0.07664632 0.29826397 0.087516926 -0.14741464
0000f0 2a a9 9b be 14 27 b8 bc d1 90 3c be ec 21 a7 3e
       -0.304025 -0.022479571 -0.18414618 0.32643068
000100 70 38 26 be be fe 27 bd a3 da ee ba 25 76 c6 3d
       -0.16232467 -0.041014425 -0.0018223118 0.09690503
000110 89 b1 3d 3d 63 43 73 3e 89 20 5c bc b8 52 2b bd
       0.04631189 0.23756175 -0.013435491 -0.041826934
000120 19 28 f2 3c 73 f5 3c 3e 6f 4d 34 3e 62 5a d1 3d
       0.029560136 0.18453006 0.17607664 0.10222317
000130 f8 82 32 3e d2 1d 6d 3b 96 57 b7 3d be 9b 24 bc
       0.17432773 0.0036181104 0.089522526 -0.010046897
000140 78 e0 fb bb 92 28 c8 bc 54 df 44 bd 30 1a b8 3c
       -0.007686671 -0.024433408 -0.048064545 0.022473425
000150 cf 5a 40 be e4 79 06 be 5a b9 82 3e 46 5b 36 be
       -0.1878464 -0.13132435 0.25532037 -0.17808256
000160 08 17 94 3d 5b 59 fb be 6f 2f 45 be 05 ee 20 3e
       0.07230955 -0.4909161 -0.19256376 0.15715797
000170 ce 81 5a bb 11 a7 99 3c d2 80 b0 bc 53 a6 a9 be
       -0.003334153 0.018756421 -0.021545801 -0.33134708
000180 17 15 75 be 27 bc 1e be 54 b8 ea 3c f4 32 2a bd
       -0.23933826 -0.15501462 0.028652348 -0.0415525
000190 d2 ed 6c be 8b 33 cf 3c b7 59 c6 bc 94 b1 e8 bc
       -0.23137596 0.025293132 -0.024212701 -0.028404988
0001a0 22 83 0a be cc af f7 bd a7 52 6e bd 20 4b 08 be
       -0.13526586 -0.120940775 -0.058184292 -0.13309908
0001b0 79 7a 0d be 9f 15 a9 3d a0 63 06 bf 17 25 95 3e
       -0.13816251 0.08256077 -0.52495766 0.2912986
0001c0 d3 86 ff bd aa d7 b6 bd 09 9f 39 be de 74 b8 be
       -0.124768876 -0.089278534 -0.18127073 -0.36026663
0001d0 3c 8e 99 3e f6 14 12 3e 0b 38 9f 3d 77 45 13 be
       0.2999133 0.14265808 0.07774361 -0.14381967
0001e0 5f 9a 0b 3e 28 78 9a bd 05 46 11 be 6d b8 0a 3d
       0.13633107 -0.07542449 -0.14186867 0.03386729
0001f0 b0 8e 84 3c 11 b0 58 3d b9 78 95 bd ee e0 15 3d
       0.01618132 0.052902285 -0.07298417 0.036591463
000200 fe b9 81 bd 68 d2 46 3d d5 c7 5b 3d 07 39 28 3c
       -0.06334303 0.048540503 0.05365737 0.010267503
000210 75 73 78 3d 34 2d b3 3e ea c5 e2 bc b2 99 9a 3b
       0.060656983 0.34995425 -0.027682263 0.004718029
000220 fb 51 5c be cc a0 81 3e 5f 69 4e be c8 a1 4b 3e
       -0.21515648 0.2531799 -0.20157383 0.19885933
000230 7e e1 f4 be 71 68 22 be 9b 02 cd 3c 6a 50 b4 3e
       -0.47828287 -0.15860154 0.025025656 0.352176
000240 d2 1e 9c bb f6 4b b0 bc 95 37 39 3c 12 43 d8 3d
       -0.0047644163 -0.021520596 0.011304756 0.10559668
000250 57 b0 ca bc 11 56 f4 bd d5 36 ad 3e 27 78 d6 bd
       -0.024742289 -0.11930478 0.33830896 -0.10472136
000260 6a 3b 91 3e bd a2 79 bc 68 9a 4c bd 5f cb 91 3c
       0.28365642 -0.015236554 -0.04995194 0.01779717
000270 54 04 31 bd 6f 30 28 be ae 5f 61 be 0c 9f bb 3d
       -0.04321702 -0.16424726 -0.22009155 0.09161195
000280 1c e2 dd 3d 07 78 2c be 71 85 21 3e 83 ab a5 be
       0.108341426 -0.16842662 0.1577356 -0.32357416
000290 9d f5 6d 3e 2b f3 8c bd 67 2f 9a bd 08 38 aa 3d
       0.23238225 -0.06882318 -0.075285725 0.08311468
0002a0 27 cf ea bd ed c3 72 be b4 81 f6 ba 64 33 00 be
       -0.114652924 -0.23707552 -0.0018806965 -0.12519604
0002b0 18 63 be bc f5 58 0a be 13 c1 1f 3e b0 bf 4b be
       -0.023240611 -0.13510497 0.15600996 -0.19897342
0002c0 b5 c0 05 bf 9c 73 f6 3c 48 ba e3 3d 45 1a 41 bd
       -0.5224717 0.030084424 0.11119515 -0.047144193
0002d0 06 87 93 bc f2 51 60 3c 43 0f 10 3e 33 88 f4 bc
       -0.01800872 0.013691412 0.14068322 -0.029850101
0002e0 43 00 e4 be 9c 23 84 be f8 52 7a be 9b 15 91 be
       -0.4453145 -0.25808418 -0.24445713 -0.28336796
0002f0 57 86 56 be 04 52 11 3d 7e 68 30 be e8 e9 24 3e
       -0.20949684 0.035478607 -0.1722736 0.16104853
000300 4e ec 31 be 92 75 e5 3d 8e 9e 2e be 37 6f 33 be
       -0.173753 0.112040654 -0.17052671 -0.17522894
000310 fb 97 fa 3c de cd 28 be ee b0 27 be 8f dd 9e bd
       0.030590048 -0.16484782 -0.16376087 -0.07757103
000320 f8 e4 04 3e 30 b6 73 3e 6a ae 40 be 53 78 75 bd
       0.1297797 0.23799968 -0.18816534 -0.059929203
000330 98 e1 e0 bb bf 44 8d be 44 07 d3 3d bb 1d b1 bd
       -0.0068628304 -0.27591512 0.1030412 -0.08648249
000340 c3 39 e1 3d 3d 7c c0 3d ac 57 00 3e 2e 98 78 be
       0.10997345 0.093986966 0.12533444 -0.24276802
000350 6e ad 2b bb e5 b7 0d bb 4f c1 b1 bd a6 a6 a4 be
       -0.0026195901 -0.0021624502 -0.08679449 -0.32158393
000360 57 88 f8 bc f7 cf 9d be b4 14 b8 bd 92 9f 32 bd
       -0.03033845 -0.30822727 -0.08988324 -0.04360921
000370 50 c4 82 bc 00 26 15 be 80 e7 2a 3e 38 53 25 be
       -0.01596275 -0.14565277 0.16689873 -0.16145027
000380 ab 3f 44 3e cd 6e 00 be 91 16 40 3e 3a f7 3e 3e
       0.19164912 -0.12542267 0.18758608 0.18648997
000390 12 bd 25 3e 33 f1 1a 3e 40 95 db bc 63 aa d3 bc
       0.16185406 0.15131073 -0.026804566 -0.025838083
0003a0 18 dd b9 3e 40 0a c9 bd 8d b0 7f be ad 16 70 be
       0.36301494 -0.09816408 -0.24969693 -0.2344615
0003b0 49 87 fe bd 4b 50 93 be 1e 61 10 3e 02 2e 61 3e
       -0.12428147 -0.28772196 0.14099547 0.21990207
0003c0 db a5 9f 3e 18 0d 9c bc 52 fe 97 3d 0a 8b da be
       0.31181225 -0.019049212 0.074215546 -0.42684203
0003d0 f4 2e de 3d 15 c0 8d 3e a7 01 68 bd 20 42 69 bc
       0.10848799 0.2768561 -0.0566422 -0.014236957
0003e0 a8 ac d1 3e ab a9 72 bd 4e aa 75 3c 3d a0 86 be
       0.4095204 -0.05924384 0.014994217 -0.26294127
0003f0 e6 43 d9 3c bf 62 8e 3e 3d 53 44 3e c7 3a d3 3d
       0.026521634 0.27809712 0.19172378 0.10313945

network_body._body_endoder.seq_layers.4.bias f4 [128]
000000 f7 bc c0 bd 28 2d a1 bc cd 7c 02 be bf c7 99 be
       -0.09411042 -0.019674852 -0.1274292 -0.30035207
000010 97 40 07 be 05 9d 4e be f1 5f b6 ba d0 5d 70 bd
       -0.13208233 -0.20177086 -0.0013914091 -0.058683217
000020 18 99 ee bd de 12 b3 3c 12 9d 55 bd 64 79 9b bc
       -0.11650294 0.021859583 -0.052151747 -0.018978782
000030 2b c8 3a be 8e c0 90 be 07 9a ed bd 31 29 26 bd
       -0.1824042 -0.28271908 -0.11601644 -0.040566627
000040 b4 1b 15 be 38 bc ee bd 91 0d db bb ac 60 1d be
       -0.14561349 -0.11656994 -0.006684967 -0.15368909
000050 94 45 95 be 6a d4 06 be 44 26 e2 bd 0b 38 3d bd
       -0.29154646 -0.13166967 -0.11042455 -0.046196025
000060 d6 82 dd bd 47 d2 b3 bd 06 2f 73 be d5 7c 0a be
       -0.108159706 -0.087803416 -0.23748407 -0.13524182
000070 e5 b5 c4 bc c9 79 f5 bd 3c 77 7d bc dd 6a 4e bd
       -0.024012515 -0.11986119 -0.015470322 -0.05039488
000080 bc 93 97 bb f0 8e c3 bd 68 5e 81 be 71 2a 9f bd
       -0.0046257656 -0.095487475 -0.2526734 -0.07771767
000090 1e 04 9b bd 6c 7f 3b bd e1 56 41 be bd 68 b3 bd
       -0.07569145 -0.045775816 -0.18880798 -0.087602116
0000a0 6d 3f 2a be 5f d2 d6 bc c1 5b 13 be 91 27 f7 bd
       -0.16625758 -0.02622336 -0.1439047 -0.120680936
0000b0 ed 97 f4 bd dd 16 d5 3d cd 4d 19 3d fe ee e1 bd
       -0.1194304 0.104047514 0.037427712 -0.11031912
0000c0 01 cc e3 bd dd 5a 3b bd 96 41 8f 3d 64 bd 9f bd
       -0.11122895 -0.04574095 0.069949314 -0.07799795
0000d0 c1 6c 8d bd ff ff 5e be 22 80 3d bd 3a 64 9d bd
       -0.06905509 -0.21777342 -0.046264775 -0.07685132
0000e0 ee 01 2a bd 08 6c 53 bd ed db 34 bc 42 98 21 bc
       -0.041505747 -0.0516167 -0.0110387625 -0.009862961
0000f0 16 90 9f bd 93 bf 31 be 97 22 86 bd c0 09 e8 bc
       -0.07791154 -0.17358236 -0.06549566 -0.028324962
000100 54 99 dc bc e4 08 52 be 43 ef 1d be d0 2a ee bd
       -0.026928581 -0.20511204 -0.15423302 -0.116292596
000110 66 a5 e2 bd 03 50 93 bd 58 0a 89 bd bf 87 9c be
       -0.110667035 -0.071929954 -0.06691426 -0.30572316
000120 6e eb 18 bd c7 49 42 bc b6 ed 1d bc 56 c0 51 bd
       -0.0373339 -0.01185841 -0.009639194 -0.051208816
000130 98 d8 95 bd 03 4a 89 be 64 dc 5d bd 3a fd 92 bc
       -0.073167026 -0.2681428 -0.05416526 -0.017943013
000140 02 91 7b bc 4d 0f 9f bd 3f 99 3f bc ab ed a0 bd
       -0.015354397 -0.0776659 -0.011694252 -0.078578316
000150 de d0 0c be 6b eb 57 bd c2 13 e3 bc 2c 76 20 bd
       -0.13751552 -0.052714746 -0.027719382 -0.039175197
000160 7a 3e 8e bc 84 58 c5 bd 89 67 12 bd 25 bf 9e bc
       -0.017363776 -0.09636024 -0.03574327 -0.019378254
000170 da ac b4 bd 31 11 41 bd 47 f2 d5 bd 5a 03 2a 3c
       -0.08822031 -0.047135536 -0.10446601 0.010376776
000180 de a1 92 bd fe 82 21 be 68 eb 87 bd f1 cc e6 bc
       -0.0715978 -0.15772626 -0.06636697 -0.028173896
000190 ce c5 dc bd 03 44 6e be 19 eb 72 bd 92 6c 31 bd
       -0.10779916 -0.23268132 -0.059306238 -0.04331643
0001a0 8b 21 49 be d8 1b cc bd 12 5c c3 bc 86 dd 23 be
       -0.19641702 -0.09966248 -0.023847613 -0.16002473
0001b0 b4 a6 04 bd f1 85 e3 bd a3 9c a1 bd 19 c7 db bc
       -0.032385543 -0.11109532 -0.07891204 -0.026828336
0001c0 7e 96 12 bd 70 28 0d be 33 d0 28 be e2 6e 41 bd
       -0.03578805 -0.13784957 -0.16485672 -0.047224887
0001d0 ab 3b 3c be f3 97 c8 bc 80 d1 a5 bd 13 a9 4d bd
       -0.18382137 -0.024486518 -0.080965996 -0.05021007
0001e0 16 45 50 bd 22 4f e6 bd 67 05 14 bd 0d aa 91 bd
       -0.050847135 -0.11245562 -0.036137965 -0.07112513
0001f0 e8 d8 54 bd c2 f3 53 be 09 73 59 be 8c 9d 79 bd
       -0.05196467 -0.20698455 -0.21235289 -0.060941264

network_body._body_endoder.seq_layers.4.weight f4 [128, 128]
000000 3d 8f 42 be 7e 77 00 3e 92 3b 07 3d 9c 14 0a bd
       -0.18999954 0.12545583 0.033015795 -0.03371106
000010 c4 ee 13 3c 80 55 ae be a4 b4 aa 3e d0 88 12 be
       0.009029094 -0.34049606 0.33340943 -0.14310002
000020 e4 7e cc 3d ec 06 78 be 6e 43 80 bd 5b 65 ad 3d
       0.0998514 -0.2422139 -0.06262861 0.08466598
000030 a5 52 12 be cf b5 89 bc 0f 74 c6 be 8c 3a 2f be
       -0.14289339 -0.016810326 -0.3876042 -0.17112178
000040 41 a0 70 be 9a 60 5e 3d fb 90 2f 3e e8 dd cb 3d
       -0.23498632 0.054291345 0.1714515 0.09954435
000050 a1 73 4a be 3c 73 86 3d 2b 0e 9d 3d a3 f2 44 3d
       -0.19770671 0.06564948 0.07668718 0.04808296
000060 8a f9 27 3d dd db 83 be 23 ee 32 3e d3 9f d4 3d
       0.041009463 -0.2575368 0.17473654 0.103820466
000070 0c cd 8b 3d 50 bd 79 be f6 90 a7 3d ad 34 0a bd
       0.06826219 -0.24388623 0.08181946 -0.03374164
000080 3c 6d 85 be d3 af 58 bc 09 cb 90 3b 40 62 4e be
       -0.26059902 -0.0132255135 0.004418735 -0.20154667
000090 4c df eb bc bb d5 3d bd e6 44 f5 3d fc 92 33 3c
       -0.028793 -0.046346407 0.11976032 0.010960337
0000a0 b6 79 05 be 46 bc 8a 3e 1c 7e d3 bd 55 15 c9 bd
       -0.1303471 0.27096766 -0.10326788 -0.09818522
0000b0 ea e2 0c 3d a5 f7 2a be b9 9d 1f bc 69 ac a8 be
       0.03439609 -0.16696031 -0.009742194 -0.3294404
0000c0 32 6e b3 be 69 a3 ad bc cb 95 40 3c b6 31 83 3e
       -0.3504501 -0.021196084 0.011754463 0.25623864
0000d0 1e 1f 7d bd aa 6c 65 3c 41 5f d1 bd 23 3d 80 bd
       -0.061797254 0.014002958 -0.10223246 -0.06261661
0000e0 78 3f 54 be f8 b7 13 bd ba c6 81 be 20 c9 99 3d
       -0.20727336 -0.03606412 -0.2534693 0.07509065
0000f0 ab 06 9d 3e 6c e0 27 bb 3a 12 ee 3c 4d a8 40 be
       0.3066915 -0.0025615944 0.029061425 -0.18814202
000100 71 47 43 3e b5 e0 0c bd 77 7a ad bd fc c7 1f be
       0.19070221 -0.034393985 -0.08470624 -0.15603632
000110 dd 0b 34 3d 30 4a 39 bd 36 2b e9 bd dd 11 87 3e
       0.043956626 -0.045236766 -0.11385195 0.26380816
000120 ad 0e da bd 2d f8 85 3d 79 d2 2c 3d 6c 71 ce bd
       -0.106473304 0.065414764 0.04219291 -0.10080227
000130 d3 3a 3c 3e 26 a5 03 be d4 ca 02 3d ac 4c 11 be
       0.18381815 -0.12855968 0.031931713 -0.14189404
000140 ca 6a 87 3d 0e 27 1f 3e b8 97 de ba 07 f5 df 3d
       0.06612165 0.15542242 -0.0016982472 0.10935407
000150 37 04 a3 3d 30 2a 02 3e 23 71 d8 3d db 9e 88 3d
       0.07959788 0.12711406 0.10568454 0.06670924
000160 92 c2 11 3e 84 58 c0 3c af b2 c8 bd 83 e5 6a 3d
       0.14234379 0.023479708 -0.09799706 0.057347786
000170 15 cc 01 3d 38 a5 d9 bd e7 50 2a 3e d8 1f b7 bd
       0.03168877 -0.10627216 0.16632424 -0.089416206
000180 6e b2 0c be 07 bb 5c be 2f f3 1e 3e 1d 3d e7 bc
       -0.1373994 -0.2155572 0.15522455 -0.028227383
000190 cc a6 d7 bd 80 e9 29 3e 93 72 cc be a2 b6 d4 3d
       -0.10529861 0.1659298 -0.39931163 0.10386397
0001a0 7e 90 88 bd 55 da 2f 3e 17 2f 18 3d c0 1d 1e 3c
       -0.06668185 0.17173131 0.037154283 0.009650648
0001b0 83 a6 9b 3d b9 eb 62 3d d1 04 dd bc 33 e6 34 be
       0.07600119 0.055400584 -0.026979836 -0.17665939
0001c0 59 e1 12 3e 01 b5 c0 bd 2c ce ef bd 84 20 bb bd
       0.14343776 -0.09409524 -0.11709246 -0.09137061
0001d0 50 e7 77 be ba 6a 85 bd 1c 07 c7 bd 03 a7 96 bd
       -0.24209332 -0.06514497 -0.09718153 -0.07356074
0001e0 cf 2b b2 ba 78 ce 94 3e 02 0e 32 be 1d 3f 2e be
       -0.0013593378 0.29063773 -0.17388156 -0.17016263
0001f0 cc a1 87 bd c8 22 28 be 36 0b 11 bd 78 9e c3 bb
       -0.06622657 -0.16419518 -0.035411082 -0.0059698187
000200 92 33 38 3d db 9e af 3d b8 ed a0 bd 76 bf 55 bd
       0.044971056 0.08575221 -0.07857841 -0.052184545
000210 85 fd bb bb 70 da 94 3d bc ac 23 3d 43 9f 99 3d
       -0.005737009 0.07268226 0.039959654 0.0750108
000220 a4 c5 40 3e 24 28 95 bd ad c9 6a bc d2 6b d2 bd
       0.18825394 -0.07283047 -0.01433031 -0.10274471
000230 d8 be 0d 3d 5b 7d c6 bd 93 5d a8 bc a3 4f 03 3d
       0.03460583 -0.096918784 -0.020552432 0.03205837
000240 0a ff 3a bc 20 00 aa 3c 6b 14 34 bd f2 f4 87 bd
       -0.011413345 0.020752013 -0.043964785 -0.066385165
000250 15 35 87 3c 1a 60 bd 3c a1 a9 6f 3d 35 89 2e bd
       0.016504804 0.023117114 0.05851138 -0.04261132
000260 e7 98 25 bc b6 01 89 bd 41 c1 4c 3d 59 93 18 3d
       -0.010107256 -0.066897795 0.04998899 0.037249897
000270 9b 6a ad bd 17 b8 9e bd fd bb 0c 3d 1b 06 7e bb
       -0.08467599 -0.07749956 0.034358967 -0.0038760963
000280 d7 54 f7 bc 87 9f 64 bc ee a5 04 3d 61 41 a5 3b
       -0.030191822 -0.01395405 0.032384805 0.005043194
000290 e7 07 63 3d 94 f2 ef bc 1c 3e 0d bd 05 28 a3 bc
       0.055427458 -0.029290475 -0.03448306 -0.019916544
0002a0 c1 5d 5b 3d 49 d5 0b 3e aa 73 8c 3d bd 67 d4 bc
       0.053556208 0.1365558 0.06857999 -0.025928373
0002b0 f1 93 a5 bd 9d aa c2 bc ab 92 d6 3d 58 e6 80 bd
       -0.08084858 -0.023762995 0.104771934 -0.062939346
0002c0 63 c1 ae 3d 1b 88 9c 3a 86 49 ec 3d fb f7 30 bd
       0.08532979 0.0011942418 0.11537461 -0.043205243
0002d0 fa 9c 60 3d 76 cf b1 bd 43 82 80 3d 98 4e 12 be
       0.054837205 -0.08682148 0.062748455 -0.14287794
0002e0 c9 69 c3 bd ec 2e f7 bd 1a a1 a0 bd 34 e6 e4 bd
       -0.09541661 -0.120694965 -0.07843228 -0.1117672
0002f0 e1 d0 11 bd ff e8 49 bc bb 0e 1f 3d 2a 09 3f 3b
       -0.035599593 -0.012323617 0.038832407 0.002914975
000300 b9 30 d3 bd 6b ed 8e 3d 5e 91 76 3d 77 e8 b5 3c
       -0.103120275 0.06978878 0.060197227 0.022205574
000310 b7 de 99 bc a5 f7 25 bd b0 8a e6 bc b1 f7 b8 3a
       -0.018782957 -0.040519375 -0.028142303 0.0014111904
000320 03 00 9a 3c b9 ab 62 3d 6b 63 2d 3d 65 7a 58 3c
       0.018798834 0.05533955 0.04233114 0.013212775
000330 4b ca a8 bd d3 8d 57 bd fe 7e b4 3d 25 24 36 3d
       -0.08241709 -0.05262549 0.08813284 0.044468064
000340 f7 f7 60 bc cb c2 05 bc 06 b9 26 bd 9e aa 1b bd
       -0.013730994 -0.008164118 -0.040703796 -0.03800451
000350 62 02 c4 3c 8c f4 98 3d ed fb 28 bd 20 a7 49 3d
       0.023926917 0.074685186 -0.04125588 0.04923165
000360 fc 1e ef 3b d1 81 9a bc 4e 4c 88 3d 7b 44 f9 3b
       0.007297395 -0.01886073 0.06655179 0.0076070405
000370 de dd a3 3d 58 ae bf bd 1a 0c 25 3e cc 00 03 3d
       0.08001302 -0.09359425 0.16117898 0.03198318
000380 ff da dc bc d1 b1 3a bd e5 9a e9 bd 3f 3d d7 3d
       -0.026959894 -0.045579735 -0.11406497 0.10509729
000390 40 b8 26 3d ef 03 cc 3c 3c 64 a4 3d a8 5b b1 3b
       0.04070306 0.02490422 0.08026931 0.0054125376
0003a0 5a c8 80 bd 3b cb 9a 3d a7 5f 85 bd 4d 99 7b 3d
       -0.06288214 0.075582944 -0.06512385 0.061425496
0003b0 5d 15 19 3e 2a dd 2a be a9 90 21 bc 8d 62 2f be
       0.14949556 -0.1668593 -0.00986115 -0.17127438
0003c0 40 a3 eb 3d 31 68 30 bd 43 d3 87 3d 5e 5d 1f 3e
       0.11505747 -0.043068115 0.06632092 0.1556296
0003d0 1a 75 da bc 45 37 53 3d 07 1f 08 bb c5 84 dd bd
       -0.026667167 0.05156638 -0.0020770447 -0.108163394
0003e0 d0 db 06 be 75 71 eb bd b6 72 0f bd 36 a9 c5 bd
       -0.1316979 -0.114962496 -0.035021506 -0.09651415
0003f0 2a f7 81 bc 71 c8 84 3c 56 ff 12 bd 22 4c 74 bd
       -0.015864927 0.01620886 -0.03588804 -0.05964292
