Maize-Runner/results/RealTest2/EscapeMaze/EscapeMaze-4999962.onnx (onnx, 171151 bytes, 9 tensors)

action_model._continuous_distribution.log_sigma f4 [1, 2]
00000000: b0e5 92be 5bc3 8abe
-0.28690863 -0.2710217

action_model._continuous_distribution.mu.bias f4 [2]
00000000: 5ca2 e53c 00a7 0d3c
0.02803152 0.008645773

action_model._continuous_distribution.mu.weight f4 [2, 128]
00000000: 603a 963a 85fc 0f3c 7272 27bd ceb2 843d
00000010: 18bf 8ebc 4cf3 e4bb 6fd0 e3bb 4d25 493c
00000020: af68 6d3d 3e99 d63c 473d b63d 65fc da3c
00000030: d7cd 72bd f792 03bc ed49 f93c db5d dc3d
00000040: 5770 6339 5f14 ae3b 8123 09bd f05d 343c
00000050: 90dd a03c 360f 11bc fdcc f73a 2ed2 ef3c
00000060: c2a2 9539 1e6e d9bc f173 803b 82ef a9bb
00000070: 808c 8f3c 2335 983c 29f9 7cbd 508b c1bc
00000080: 70c4 adbd 035f 933c f4b4 dcba 1058 313d
00000090: 6a26 d33c d6da b53c 1c6c 29bb 7bbc 893d
000000a0: 7b6f 3b3c 3ad4 853d c277 a4bc 2ef0 99bd
000000b0: d4fd ac3c ef25 bc3b f7f5 413c 6f8f 3f3c
000000c0: 3881 88bc be77 00bc df83 d5bc f38f 613c
000000d0: 1654 cdbb 6c59 b93b c5a7 563d ea97 6b3a
000000e0: 1e02 75bd a213 debb 3d59 4b3d fec7 65bc
000000f0: 5184 403d 9523 873d 67fb 05bc 4e99 e0bb
00000100: 7d98 1ebb bcf2 61bd c508 c4bb 5993 0abc
00000110: 86a8 953d 02a3 963c 1433 80bc 1bb1 acbc
00000120: 5da8 a73b 407e eebb d6e1 0cb8 d8dd 42bb
00000130: e033 90bb e6b4 71bc 162d 473a efa6 2b3d
00000140: 057a a2bc cbea 11be 58b6 28bd 2c38 a13a
00000150: 8ae7 0b3d 794b 263c 8702 cd3c 527f 16bd
00000160: e2fc b73d 6b9b 8d3c 4861 4f3b 473f a73b
00000170: 356e 3cbd 0e3e a03d ebff 0d3b c20c 28bc
00000180: f23d 12bc c801 da3d 3590 3e3c e845 bd39
00000190: 5ce7 3d3b a121 6e3d 6be8 90bc b005 213c
000001a0: 39af bbbc 6f3f 9a38 2baf 9cbb 7616 98bd
000001b0: 80f8 1d3d a144 de3b 9923 98bc 6740 db3b
000001c0: 5b31 463c e840 44bd 9ba4 03be f620 533b
000001d0: 11d1 bb3c 30ed 31bc 21fa a1bc 7287 8bbd
000001e0: c330 febd 9a7c 1c3c c388 6d3c 7f02 af3a
000001f0: 74f5 d03c 95e7 963a 8070 323c 0d6d 893d
00000200: 68f8 72bb c69a 973c 7dd7 e4bd 7fa3 f2bc
00000210: a78e ad3c 8140 46bc b234 a0bb 1ab7 0b3d
00000220: fc71 ec3c d574 573d b673 03bc 211c babc
00000230: b6b2 e3bc 65f6 0dbc 7ddd 21be 104e 753b
00000240: 1993 23bb 4137 95bc 71b8 5abd c5b4 7dbb
00000250: f340 a4bc 0e2f fa3d c94d e4bc b810 6bbd
00000260: 5824 32bc 1d12 943d 94b6 16bc eb8a 5f3b
00000270: fce9 96bc 17d2 f9bc ffe3 a7bc 09ef a8bc
00000280: 923b 68bd 2c58 54bc 4d24 77bc ef3f 2d3d
00000290: b1ab 353c adc5 68bc 9943 093c 6b54 943d
000002a0: 5541 903c 8cdb 42bc a165 14bd 1855 cebd
000002b0: e8ba febb b843 c9bc fc01 3eb9 cd38 3bbc
000002c0: ee4b 9bbd 5f2b 813b 142d 763d b451 7dbc
000002d0: 26cd 093c 68c7 9cbb 01a5 313d a9a6 f6ba
000002e0: ee46 41ba 86b3 c6bd f37d 9ebd ad0a 27bd
000002f0: 62ad 603d c852 fbbd ca85 503d 01e8 38bd
00000300: ec4f 1d3d 790a 1d3d 243b d63c eba7 78bb
00000310: d8ce bebd c4d4 b53c c33d 81bc 475d 6fbd
00000320: 06ad 15bc 3777 66bd 8497 0fbb 37f3 8c3b
00000330: e26c 133d cfdb 983c 49d5 77bb 13d0 c6bc
00000340: ee80 23bb ff75 373d 1c01 5dbc 073f 42b9
00000350: 1f52 b03d f082 8cbb 71d1 a0bd 99da c73c
00000360: ce4e 803d 1d1a 523d 40dd e3bb 07e5 443c
00000370: fd01 8ebc 6f70 48bc c2c8 b4bb 4bbc 0ebe
00000380: 0cdc df3a e73b 32bc 288a 49bc f46d 4d3b
00000390: 7aaa 91bd 349b 11bd 4f8b 98bc 3dc1 953c
000003a0: b374 ce3c f402 553c d727 38b9 30d9 a4bb
000003b0: 9c2f 48bd cf0a f73b fa0e 27bd aeff 66bc
000003c0: bd11 133c 54e9 953d 8caa 9bbc 8684 073c
000003d0: 1cbe 343d f3a9 a83c 5f82 b9bb a7b2 6cbb
000003e0: 54b8 8b3c 85f8 bd3b d7ab a73c 1954 b33b
000003f0: e9e2 1abd dc55 f53c 17c2 083d 8b5c 6dbc
0.0011461489 0.008788233 -0.040880628 0.06479417 -0.017425105 -0.006987011 -0.0069523375 0.01227696
0.057961162 0.026196118 0.088984065 0.02673168 -0.059278335 -0.008030645 0.030430758 0.10760089
0.00021690257 0.005312487 -0.033481125 0.011008725 0.0196369 -0.008853724 0.0018905696 0.029275026
0.0002854076 -0.026541766 0.0039200713 -0.0051860223 0.01752305 0.018580025 -0.061761055 -0.023626
-0.08484733 0.017989641 -0.0016838596 0.043296874 0.025775153 0.022199076 -0.0025851792 0.06725403
0.011440153 0.0653462 -0.020076636 -0.07516514 0.021117128 0.0057418267 0.011838428 0.011691912
-0.016663179 -0.007841049 -0.026063858 0.01376723 -0.0062661273 0.005656412 0.05240609 0.00089871755
-0.059816472 -0.0067772428 0.04964565 -0.014024733 0.047001187 0.065985836 -0.008177615 -0.006854213
-0.0024199777 -0.05516313 -0.0059824907 -0.008457982 0.07307534 0.018388275 -0.015649356 -0.021080544
0.005116506 -0.0072782338 -3.3588927e-05 -0.002973428 -0.004400715 -0.014752602 0.0007597966 0.041907247
-0.019833574 -0.14249723 -0.04118952 0.0012300066 0.03415636 0.01014983 0.02502562 -0.036742516
0.089837804 0.017286023 0.0031643678 0.005103979 -0.04600354 0.07824336 0.0021667432 -0.010256948
-0.008925902 0.10644871 0.011631061 0.00036100973 0.0028977012 0.05813754 -0.01768895 0.009828016
-0.022910701 7.355108e-05 -0.004781624 -0.07426159 0.038567066 0.0067830835 -0.018571662 0.006691027
0.012096728 -0.047913462 -0.12855761 0.0032215691 0.022926839 -0.010859773 -0.019772591 -0.068129435
-0.12411644 0.009551192 0.014497939 0.0013352184 0.025507666 0.0011513109 0.01089108 0.06710253
-0.0037074331 0.018506419 -0.11173914 -0.029618977 0.021186186 -0.01210034 -0.0048890943 0.034110166
0.028862946 0.052601654 -0.008023193 -0.022718491 -0.027795177 -0.008664702 -0.15807147 0.0037430562
-0.0024959503 -0.018214824 -0.053398553 -0.0038712483 -0.020050501 0.12216006 -0.027869122 -0.05738899
-0.010872923 0.07230017 -0.009198803 0.0034109901 -0.01842212 -0.030495686 -0.02049446 -0.020621793
-0.056697436 -0.012960475 -0.015084338 0.0422973 0.011088298 -0.014207286 0.008377933 0.07242664
0.017609278 -0.011893164 -0.036229733 -0.10074824 -0.007773746 -0.024568424 -0.00018120551 -0.011427117
-0.07582842 0.003941938 0.060101584 -0.015461374 0.008410728 -0.0047845133 0.04337025 -0.0018817979
-0.0007372935 -0.0970221 -0.07738867 -0.040781666 0.05485285 -0.12271649 0.05090884 -0.04514313
0.038406298 0.038340066 0.026151247 -0.0037941884 -0.09316796 0.022196181 -0.01577652 -0.058438566
-0.00913549 -0.056266036 -0.0021910379 0.0043014544 0.03599251 0.0186595 -0.0037816337 -0.02426914
-0.0024948674 0.044790264 -0.013489034 -0.00018524761 0.08609413 -0.00428807 -0.07852448 0.024396228
0.06265031 0.051294435 -0.0069538653 0.012017495 -0.017334932 -0.0122338375 -0.0055170963 -0.13939016
0.0017079129 -0.01087854 -0.012301005 0.0031346055 -0.07112594 -0.035548404 -0.018621115 0.01828062
0.02520213 0.013001192 -0.00017562449 -0.0050307736 -0.04887353 0.0075391303 -0.040785767 -0.014099045
0.008976397 0.073198944 -0.019002222 0.008271342 0.044126615 0.02058885 -0.0056612934 -0.0036117227
0.017055668 0.005797448 0.020467682 0.0054726717 -0.037814055 0.029948168 0.033388223 -0.014487396

network_body._body_endoder.seq_layers.0.bias f4 [128]
00000000: 5d51 843d 6332 a9bc ca97 333c bb3f 933a
00000010: 4a84 b1bc 1ccc 07bc 3822 d93b 865a b4bd
00000020: 8ffe 313d c0d5 6d3b dac2 b6bb ee39 0fbd
00000030: 11c4 18bd 6de4 b43c 9796 30bd 29d0 b73c
00000040: afef 62bd 4b38 0ebc 9880 86bb 7903 68bb
00000050: f08c 0abd 553a ae3b 6bbf 5dbc c503 94bd
00000060: 18e1 353c 0bb8 19bb 2b47 56bd 8c61 813d
00000070: 353b e43b 016c a3bb e4af 7b3d cfd3 5fbd
00000080: 7506 ba3b 8a02 e9bc 5686 c43c 3cf4 a93d
00000090: 2e5a ea3c 188d 443b 449f 133c 188b 63bd
000000a0: 0923 80bc b54d c53c 141a 553c fdc3 2d3d
000000b0: 00e8 82bd 5edd 85bd f98d 16bd a5eb 0bbd
000000c0: 874f b1bc ca53 0fbc f2d8 f03c d120 9cbd
000000d0: 1ff1 c1bd db91 1a3d 0239 32bd 2768 6cbd
000000e0: 09be 24bb c240 a6bd 3352 353d 752e 72bd
000000f0: a315 a63c 4ec3 9f3b e96c 4fbd 7f7c 243d
00000100: fa1e 0c3d e98f 5d3d 0c07 42bd a790 bebc
00000110: cd4e 8c3d f84a 323c 52e7 0fbd a7e4 cc3b
00000120: cd09 b8bc 2ddc 373c a6b0 24bd e94d 303d
00000130: 7c0d 993d 598b c8bd e7a3 1d3d df6d 883d
00000140: 573e 713d de99 e9bd bf12 5c3d cedf 33bc
00000150: 02cc e73c acc0 903d f7b8 e33b bdad a0bc
00000160: 5ec3 763c 5b6a 443d b768 01bd ce93 bf3c
00000170: 2b92 b63c 4c7f ba3d e6a6 d73c 4fe7 253d
00000180: 8996 c9bc 0b0d 72bd e6d3 883d 2a4c a8bd
00000190: 4209 433d 584e 4d3d f7a5 ddbb 6d69 833c
000001a0: c731 aa3c b098 053d 5593 b13c 2597 a13c
000001b0: 66e1 ebbc d330 883c 675c d63b 509d 343d
000001c0: 0655 b63d 7e33 3fbd 53f6 ec3c 76d5 9c3b
000001d0: 443d 4b3d 6afd 633d 3226 55ba 1bd6 d23c
000001e0: 365d 23bd 7e67 58bd 3890 453c c617 a93d
000001f0: 1d58 253c 939b 93bd ca5c dbbc 496d 723d
0.06460831 -0.02065391 0.010961482 0.0011234203 -0.021669526 -0.00828841 0.0066263936 -0.088063285
0.043455657 0.0036290735 -0.0055774273 -0.034967355 -0.03729636 0.022081578 -0.043112364 0.022438126
-0.05540436 -0.0086804135 -0.004104685 -0.003540246 -0.033825815 0.0053170123 -0.013534407 -0.072272815
0.01110103 -0.0023455645 -0.052313965 0.06317434 0.006965066 -0.0049872403 0.06144704 -0.054645356
0.0056770393 -0.028443594 0.023989838 0.08298537 0.028607454 0.0029991325 0.00901014 -0.055552572
-0.015641706 0.024084905 0.013006706 0.042423237 -0.06391907 -0.06536363 -0.03675649 -0.034160275
-0.021644367 -0.008748004 0.029400323 -0.07623447 -0.09469818 0.037736755 -0.043511398 -0.057716515
-0.0025137684 -0.0811782 0.044267844 -0.059126336 0.020273989 0.004875577 -0.050640974 0.04015779
0.03420923 0.05409232 -0.04737 -0.023262335 0.068509676 0.010882132 -0.035132714 0.0062528434
-0.02246561 0.011221928 -0.040207528 0.04304305 0.07473275 -0.097922035 0.038486388 0.06661581
0.058897343 -0.11406301 0.053728815 -0.010978652 0.02829552 0.07067999 0.0069495398 -0.019614095
0.015061228 0.04795299 -0.031594004 0.023385908 0.022286495 0.09106311 0.0263247 0.040503796
-0.024607914 -0.05909447 0.066810414 -0.08217652 0.04761625 0.050123543 -0.0067641693 0.016041482
0.020775689 0.032616317 0.021676699 0.019725392 -0.028794002 0.016624844 0.006541777 0.044095337
0.08902936 -0.046679966 0.02892605 0.0047861887 0.049618974 0.055661596 -0.0008130997 0.025736859
-0.039883815 -0.052833073 0.01205831 0.082564875 0.010091809 -0.07207408 -0.026777644 0.059186254

network_body._body_endoder.seq_layers.0.weight f4 [128, 69]
00000000: ef60 3dbe cafc 8c3d dd57 3c3e c52b 8cbe
00000010: a452 05bb d3f4 0cbd ea44 113e c67b 46be
00000020: 1c5a 173e ff44 75be 0e81 94be 6688 683e
00000030: 223a 3a3e 1a72 fa3d 3e88 7e3d d1d6 3cbe
00000040: 6bd5 6cbd 66ee b83d 66cb 2b3e 9310 fa3d
00000050: 1ec3 8dbd 5714 043e 8063 033d 3590 a63d
00000060: f479 ed3d cdb6 9bbd fe35 3dbd bc12 05be
00000070: bada 8a3e 8ac1 a9bd 26c7 3dbe 0115 973e
00000080: f8b6 4b3d 85ae cbbd 2b88 213e 475c 7ebe
00000090: dbef 04bd e7cb c83c 1c4d 063e 6be7 373c
000000a0: 230e d83c d7b8 2a3e 6c5f 273e 4ad2 42be
000000b0: 1e18 fd3d 7c56 45be 8741 a63c 4722 013e
000000c0: 7ef9 013e c704 a5bc 005c 8cbd 4156 b33d
000000d0: 16e9 96bd 6567 d93c 91f8 c43d 8ce8 77be
000000e0: 0dde 443e 70a7 803e 030c 0bbe af1c db3d
000000f0: 44a9 0fbe 526d a5bd 16db ffbd 1b74 2b3e
00000100: 3883 4e3e b80e c9be ca97 1a3d 4d5a cd3d
00000110: 2e68 00bd 04b3 01bd 8e53 043d f720 663d
00000120: b27b 4ebc edf6 243e 5843 2fbe 27c8 0fbd
00000130: 379f 7e3e 2883 6bbe 9a58 1e3e 772b f4bc
00000140: 65b1 33bc 3697 d5bd dea7 a53d 3dea 653e
00000150: 16aa d0bd 32d0 983e 1ecb e33c 49fa 383b
00000160: b7e7 f3bd 4741 d53e 907f 3abe f9aa aa3c
00000170: 9391 973c 2224 5cbd cd51 6abe 199d a33d
00000180: ee05 e93d 4a09 01be 5c2e 31be caf2 853d
00000190: 7b93 34be ab41 d9bd 7822 1b3d a451 94bd
000001a0: 7c88 0ebf 6fc5 7b3d d561 13be a5bd 39bd
000001b0: ca8b f6be 2e34 8abd 6e7d e9bc 8982 e73c
000001c0: edc6 debd f1a0 113e ee72 98be b3ad e33c
000001d0: e173 e5bd a38c 4dbd a1aa 5fbe 6653 06bf
000001e0: d949 a1bd 7bd1 063c 1fec 47be 84f0 423c
000001f0: ca50 adbe f641 58bd e71e 2b3c 08e3 2fbe
00000200: 7fb3 50be 821d 1cbe be56 8c3e 261b 17bd
00000210: a9b4 ee3d 6e04 16be 9d88 be3d a07b f73c
00000220: 2f04 59bd d695 e5bc 4b2e 163d 5923 64bd
00000230: fd78 3cbc f0fe 5a3c 23cc 653e fbe5 a83e
00000240: 6c7a 383d 37f9 153e 9d42 353e 88d8 3a3e
00000250: 9dfa 8a3e 41e4 b3bd 1acb 403d 2def 823e
00000260: ad03 a8bd 2b75 fa3e f325 43be 55df 04be
00000270: a973 ac3d 1a29 303e f734 3abe 7455 e33c
00000280: 1da2 17bd 428f 613d 0560 ff3c 0c4a 883e
00000290: dc33 99bd d322 e33d f421 843d 1fb8 dfbd
000002a0: d2e2 7d3e a4a8 1d3e 120a c53d 8e8b fd3c
000002b0: fa99 01bb 08b5 b33e b195 1ebd afc7 c2bb
000002c0: 9583 3c3e e8cf b7bd f2df f9bd 269e 883d
000002d0: c770 6f3d d59c 0f3c c866 b6bd 350e 7a3d
000002e0: 3a8e 0e3e c14b ef3d 4cc3 89bd 1870 4ebe
000002f0: 8126 2a3e 8b2b 65ba 782c 59bd 706c 3a3d
00000300: 7639 9ebd ede3 55bc da31 94bd 28e7 19bb
00000310: 6d71 6c3e e543 f33d baeb bf3d 6006 25be
00000320: 271e 0bbd 06df 8dbb 1306 3f3c 2334 9f3c
00000330: 0981 743d 5473 f8bd 4eca cf3d 8648 cdbd
00000340: 0286 1bbe 5740 0ebe f000 023e 4d97 a7be
00000350: ddd6 c8be dfbe a53d cd15 d6bd ad09 943e
00000360: 6ecd 9abe fad7 dbbe 4a9f 49bc 1cb8 343c
00000370: e5e0 ac3d b5b2 abbe 8d08 9abe e6f5 17bd
00000380: 6188 4f3e e949 2b3e 6588 3fbe 1873 2dbe
00000390: 9422 28be c133 f3bd 8be2 2e3c 339a 1cbe
000003a0: 29f7 a3bd f894 6eba abb5 8aba c476 0cbc
000003b0: 61b3 e03d 0013 fbbd bcc6 e5bc 812b 2c3d
000003c0: c5f9 86bd 6ae6 c9bd bb3c 323e 1f2c c93c
000003d0: 30d7 043d a9d2 f8bd 04ea 2a3d cf9b c33c
000003e0: 1e29 d6bd 2111 aa3b 1ca4 fe3d ab62 4d3d
000003f0: a56d 263e b00d 783d b871 77bd ee18 15be
-0.18494008 0.06884153 0.18392892 -0.27377144 -0.0020343447 -0.03441317 0.14186445 -0.19383153
0.14780468 -0.23952101 -0.2900471 0.22708282 0.18186238 0.122287944 0.06214165 -0.18441321
-0.05782072 0.09029846 0.16776809 0.122101925 -0.06921981 0.12898384 0.032077312 0.08132974
0.11595526 -0.07603226 -0.04619407 -0.12995428 0.2712 -0.08288868 -0.18533 0.29508212
0.04973504 -0.09945396 0.157746 -0.24839889 -0.032455307 0.02451129 0.13115352 0.011224608
0.026373928 0.16672073 0.16344994 -0.19025531 0.123581156 -0.19271272 0.020294918 0.12610732
0.1269283 -0.02014388 -0.06853485 0.08756686 -0.07368676 0.02653856 0.09617723 -0.24209803
0.1922533 0.25127745 -0.13578801 0.1069883 -0.14029413 -0.08077492 -0.12492959 0.1674351
0.20167243 -0.39269042 0.037742414 0.10026989 -0.031349353 -0.031664863 0.032306246 0.05618378
-0.012602733 0.1610982 -0.17115533 -0.03510299 0.24865423 -0.22999251 0.15463486 -0.029805882
-0.010967587 -0.10429232 0.08088659 0.22452636 -0.10188691 0.2984634 0.027806815 0.0028225353
-0.119094305 0.41651365 -0.18212724 0.02083348 0.018502032 -0.053745396 -0.22882767 0.079889484
0.11378084 -0.126012 -0.17302841 0.06540449 -0.17634384 -0.10608228 0.03787467 -0.07242134
-0.5567701 0.061467584 -0.14392789 -0.045346875 -0.48153526 -0.06748234 -0.028502192 0.028260486
-0.10877786 0.1422155 -0.29775184 0.027792787 -0.11203743 -0.05018295 -0.21842434 -0.52471006
-0.078754134 0.008228655 -0.19523667 0.011898164 -0.338507 -0.05279728 0.010444379 -0.1717645
-0.20380972 -0.15245631 0.2740993 -0.036891125 0.11655552 -0.14650127 0.09303401 0.030210316
-0.052982505 -0.028025549 0.036665242 -0.055697773 -0.011503455 0.013366446 0.22441153 0.3298796
0.045038626 0.14645849 0.17701192 0.18246663 0.27144328 -0.0878377 0.047068693 0.25573102
-0.08203826 0.48917517 -0.19057445 -0.1297582 0.08420498 0.17203179 -0.18184267 0.027750708
-0.037019838 0.055068262 0.031173715 0.26618993 -0.074805945 0.110906266 0.064517885 -0.1092379
0.24793556 0.15396363 0.096210614 0.030950334 -0.0019775615 0.35099053 -0.038716976 -0.0059442143
0.1840957 -0.08975202 -0.12200917 0.066707894 0.058457162 0.008765419 -0.08906323 0.061048705
0.13921443 0.11684371 -0.06726703 -0.20159948 0.1661625 -0.0008742145 -0.053020924 0.04551357
-0.077258036 -0.01305483 -0.07236071 -0.0023483727 0.23090144 0.11878184 0.09371133 -0.16115713
-0.033964302 -0.004329565 0.011659163 0.01943404 0.05969337 -0.12131372 0.101460084 -0.100235984
-0.15187839 -0.13891731 0.1269567 -0.3273262 -0.39226428 0.080930464 -0.10453377 0.28913632
-0.30234855 -0.42938215 -0.012306044 0.011030223 0.08441333 -0.3353478 -0.3008465 -0.03709974
0.20266868 0.16727413 -0.18704374 -0.16938436 -0.1641944 -0.11875106 0.010674129 -0.15293197
-0.080061264 -0.00091011776 -0.0010582706 -0.008573238 0.10971714 -0.12259483 -0.028048865 0.042033676
-0.065906085 -0.09858401 0.1740598 0.024557171 0.03243178 -0.12149555 0.04172708 0.023878006
-0.10457061 0.00519003 0.12433645 0.050142925 0.16252764 0.06055993 -0.060411185 -0.14560291

network_body._body_endoder.seq_layers.2.bias f4 [128]
00000000: b3b1 21bb 8bf9 4c3d 2d79 53bd 04bc ccbd
00000010: 2146 fdbc 90b6 b0bc 3745 393c 3ef8 f0bb
00000020: ec59 233d 3bb4 a4bc a4c7 e23c 81f6 55bd
00000030: cd12 a6bc 0c56 6a3c 5fc0 913b d125 d5bc
00000040: 80f6 25bb 0262 10bd aaf3 5dbd 6bb8 20bd
00000050: 9374 e63c e14d f1bc 11cb 8fbd be77 25bd
00000060: 8d27 8c3c 7add af3c 9e07 70bb 9e50 fcbb
00000070: beed 0e3d 8913 babc a6ca b33c 4896 ea3c
00000080: 39dc 1dbd 070f 95bd ad70 2e3d 9d63 d13c
00000090: bc33 64bc 44a1 85bb 2d0c 99bb 4b4c f43c
000000a0: 42f6 13bd 0e2e dfbc b44f e9bb 38c7 c63c
000000b0: 9cca f0bc a5bc 383c c571 0ebd 9bcc 8bbd
000000c0: e441 05bd 233c a73c 983f 4ebd 5c33 a6bb
000000d0: 7fd7 c73c 3871 83bd 8e09 803b 17cb 93bd
000000e0: a710 38bd 2c60 0d3d 50d7 5cbd bca4 61bd
000000f0: 4355 6ebd a4e7 11bd 90ea 6dbd 87d5 12bc
00000100: 1454 e93b 52a3 5a3c b1e2 d03c 2150 04bd
00000110: aa4e 4ebb eccc 8dbd 1cdd ae3c 4d55 68bd
00000120: 38fa 48bc 6ea1 083d 9358 17bd a74f 12bd
00000130: b557 183c 5810 0bbd b0bc d8bb a678 4dbb
00000140: 7c90 babc 93f3 8abd 2d3f fe3c b905 f23b
00000150: 02a9 a63b 76fa 103c 31ef a4bb e2d5 0e3c
00000160: 3868 5c3d 6135 84bd c2e3 dc3c 7143 c0bc
00000170: 3490 8abd 568c 853c 9e1b b03c ff6f 543b
00000180: ec6e 70bd ee31 1ebc 16f2 1dbd 89c8 50bd
00000190: 3c47 17bd cf19 d23c 4839 36bb 00c2 60ba
000001a0: ef76 87bd 65ad 28bd 48e4 96bc 189b a1bb
000001b0: 7756 033b 207d 5fbd 607e c3bc db95 76bc
000001c0: f02f 593c 35ad 5dbd 4a4c 5ebd 3d52 4ebd
000001d0: 8617 dcbd 1ba6 6abc 7641 f13b 6e78 b0bd
000001e0: ddd5 3f3c c6ae ed3a 7f25 cb3b 725c 643c
000001f0: 4833 afbb 8771 4bbc a7fd 5b3d 5e34 c53c
-0.0024672567 0.05004267 -0.051629234 -0.09996799 -0.03091723 -0.021571428 0.011308006 -0.0073538115
0.039880678 -0.020105472 0.027683087 -0.052237038 -0.020272637 0.014302742 0.0044479812 -0.026019009
-0.0025323927 -0.035249718 -0.054187454 -0.039238375 0.028131759 -0.02945608 -0.07021154 -0.0403974
0.017108703 0.021467913 -0.0036625634 -0.00770004 0.034894697 -0.022714393 0.021947216 0.028636113
-0.0385401 -0.07278257 0.042587925 0.025560195 -0.01392835 -0.0040780623 -0.004670641 0.029821536
-0.03612352 -0.02724364 -0.007120097 0.024264917 -0.029393487 0.011275445 -0.034776468 -0.06826135
-0.03253354 0.020414418 -0.050353616 -0.0050720405 0.024394749 -0.06418079 0.003907389 -0.07216471
-0.044937756 0.034515545 -0.053916276 -0.055088744 -0.05818678 -0.0356213 -0.058085024 -0.008962042
0.0071206186 0.013344603 0.02549872 -0.03230298 -0.0031479993 -0.06923851 0.021345668 -0.056721974
-0.012266688 0.033357076 -0.036949705 -0.035720494 0.009298255 -0.033951133 -0.00661429 -0.003135243
-0.022773974 -0.06784739 0.031035984 0.007385936 0.0050860653 0.008848777 -0.0050333967 0.008717986
0.05381033 -0.06455494 0.026964072 -0.023469659 -0.06765786 0.016302269 0.021497544 0.0032415388
-0.058699533 -0.009655459 -0.03856095 -0.050972495 -0.03693317 0.025647072 -0.0027805138 -0.000857383
-0.06614482 -0.041180987 -0.0184194 -0.0049318187 0.002004055 -0.054562688 -0.023863971 -0.015050377
0.013256058 -0.05412026 -0.054271974 -0.050371397 -0.10746674 -0.014321829 0.00736254 -0.0861672
0.011708704 0.0018133752 0.0061995382 0.013938056 -0.0053466894 -0.012417204 0.0537087 0.024072822

network_body._body_endoder.seq_layers.2.weight f4 [128, 128]
00000000: e838 103e 16bc ea3d 3290 cabd 2ba5 033d
00000010: 7057 4a3d 9f7d f93c 21ff b8bc cd4e 4d3d
00000020: 8b55 babc 6080 903c 931e 063e bdb9 92bc
00000030: bd4f 3b3b 723e d6bd aaa0 f0bd a89a 3fbb
00000040: de50 b73d 3a67 633d 7052 0dbe 5ad9 6b3d
00000050: 75f3 d6b9 a0da e7bc a73a 14bd b6c3 12be
00000060: b7f9 953d bc94 593c 3d96 173d bf90 bc3d
00000070: 26f9 903d 8c25 243d 4215 e73b 3c36 34bd
00000080: ce6d a8bd 09b4 1f3d 41f0 a4bd 86f5 023d
00000090: 5398 973e e587 febd 3773 a33c 8ff4 52bd
000000a0: 1306 c73d 0fc8 b53b be1c 4e3d 569a 2cbd
000000b0: bc64 203e a741 8b3d 8bda 863c 8aaf edbd
000000c0: 25bc a3bd 347e 20be a1de 52bd c278 99bd
000000d0: 04d5 56bd bddd debd 683d a63c 137f 053e
000000e0: 0c5f fbbc 7d58 2d3d 0ad5 823c d1af efbd
000000f0: 71b6 49bd a97c 9c3d 7a27 18be d335 403e
00000100: 1a1c 5cbe a5fa ac3d b2c9 5e3c b9c4 0cbe
00000110: 3b5f 133d 4186 0d3e 3f8c b13d aaad 24be
00000120: 2298 5d3d d075 253d ca34 023e 7ffb 013d
00000130: d908 693e 4ed4 713c 7eb8 f83d 0d86 ccbd
00000140: 1ff9 da3d 53a0 393d 35cb 84bd 3bf1 99bd
00000150: d7e8 ce3d ee7a 6ebd dfc8 c33c 408d 9ebd
00000160: 99fa 053e 2666 bdbb 87dd 0d3e 373f 5fbe
00000170: becc 15bd 964f 383d ae39 f2bd adb4 ad3d
00000180: 10eb 2c3d 0e4b 363d 363a e43c 10ec 543e
00000190: 0ca4 26bd 3501 133e bcfd a7bc c175 1d3e
000001a0: 5a46 d4bd 1c5d eebc df21 ebbd c0d0 7a3d
000001b0: d5a8 523d e01d 71be 495a 84be 5479 19be
000001c0: 68b5 123e 46ff 233d c0f9 2dbc 5da7 75bd
000001d0: f5f7 a3bc 82e4 a6bd 6408 68be f243 323d
000001e0: ec29 813e 2a42 793d 846a 603e df4a a4bd
000001f0: b0cd 04be 5956 a43d 8e72 133d 6582 f63c
00000200: 27b1 9abc ef0c 84bd 5984 cf3d 2b61 533e
00000210: 00b5 96bd e818 4f3e d3bd 433c edc8 543c
00000220: 891f 26bc 4500 f4bb 824d f9bd 938a a6bd
00000230: 8eea 4e3d 441c ddbd d9f5 e6bd 9d07 bebd
00000240: 3688 e53d cc72 003d 03b5 9f3b e665 5f3c
00000250: 9722 0cbe ae6c 23be 0cba 3dbe 8676 c7bd
00000260: 5d27 06be 05b7 e6bc a788 a5bd 2ed9 e9bd
00000270: 142a 2dbd 7d69 01be 7008 a7be 6e71 66bd
00000280: 20e6 99bd 9208 4dbe 7fbe 703e df54 243d
00000290: 4302 73bd bf13 24bc 1a23 93bd 72a1 28be
000002a0: aaea c43d e710 f9bc fc0a 233d 3d66 6a3e
000002b0: 5b8c 023e f936 69bd 4022 32bc c067 d1bd
000002c0: 3bf5 b8bc 7082 4dbe 0e06 973c 98c2 82bc
000002d0: e6db 97be d997 53bd b551 77be d591 583e
000002e0: 6fd6 febd 75eb 053d 7f56 ba3d b1d0 653e
000002f0: fde9 b73d 9a1b 82be 0f0b 87bd f2ab 7d3c
00000300: 1df6 95be a5a3 3e3e 6400 d43d c6ee a93c
00000310: 0ba2 75be 2d26 bf3d 24bf 6f3b 706d 09be
00000320: 1935 4f3e eccf 97bc a661 17be a119 343d
00000330: 096d 10be 097a 7f3d 838b b63d 9ebd 71be
00000340: 285f 193d 7653 0d3e c937 efbd 0849 59be
00000350: a9cb 403e 9d8b 843d b9c2 0ebe 3433 b63b
00000360: 486e 6b3d e656 a1bd ad35 d73d d41c f8bd
00000370: 8e60 2abc bd2e 25be 0b4b cabd 46f7 9c3d
00000380: be38 9fbd e134 52be 8a1a c3bd e432 56bc
00000390: 62b6 4dbe 1f0d 87bd 26ed 26be ebd6 203e
000003a0: 0519 923d 6d44 a0be ac58 47bd 4042 4abd
000003b0: 7343 b53b 096c 743b 39f8 febd 4261 99be
000003c0: 0692 4dbd 2ae9 06bd 8eb9 bfbc 164d ccbd
000003d0: 88dd ed3c 49a0 13bd 3b5f a5bd 0102 49be
000003e0: 4f3f f33d 8f13 d3bd e8f6 a23c 6c77 9bbd
000003f0: 747a 28be c9e4 3a3c 1b76 33be 4f7e 82bc
0.14084208 0.11461656 -0.09890784 0.03213994 0.049399793 0.030455409 -0.022582592 0.05012398
-0.022745868 0.017639339 0.130976 -0.017910833 0.0028581463 -0.10461129 -0.11749394 -0.002923647
0.08950971 0.055518366 -0.13800979 0.05758033 -0.0004099865 -0.02830249 -0.036188748 -0.1433247
0.0732302 0.01328009 0.037008513 0.092072956 0.07078771 0.04007487 0.0070520947 -0.043997034
-0.082240686 0.038990054 -0.08053637 0.03197243 0.29608402 -0.124282636 0.0199524 -0.05150276
0.097179554 0.0055475305 0.05032038 -0.042139374 0.15663427 0.067996316 0.016461631 -0.11605747
-0.0799487 -0.15673143 -0.051481847 -0.07493736 -0.05244924 -0.10882137 0.020292953 0.13036756
-0.03068497 0.042320717 0.015970726 -0.11703456 -0.049246255 0.076409645 -0.14858809 0.18770532
-0.21495095 0.08446244 0.013597893 -0.13746919 0.03597949 0.13820745 0.08669328 -0.16081873
0.054100163 0.040395558 0.1271545 0.031733986 0.22757281 0.01476009 0.12144564 -0.09986506
0.10692047 0.045318913 -0.06484071 -0.07516714 0.101030044 -0.058222704 0.023899494 -0.07741785
0.13083877 -0.0057799993 0.13854037 -0.21801458 -0.03657221 0.044997774 -0.11827408 0.08481727
0.04221636 0.04450517 0.027859788 0.20793176 -0.04068379 0.14355929 -0.020506732 0.15376951
-0.10364981 -0.029097132 -0.1148107 0.061234236 0.051430542 -0.23546553 -0.25850132 -0.1498769
0.14327013 0.04003837 -0.010618627 -0.059974063 -0.020015696 -0.08149053 -0.22659451 0.04352183
0.25227296 0.060854115 0.21915632 -0.08022093 -0.12969089 0.08024282 0.03599792 0.030091474
-0.018883301 -0.064477794 0.10132665 0.20642535 -0.07358742 0.20224345 0.011947113 0.012987358
-0.0101393545 -0.007446321 -0.121729866 -0.081319 0.050516658 -0.10796407 -0.112773605 -0.09278796
0.11207621 0.03135948 0.004873873 0.013635134 -0.1368507 -0.15959427 -0.18528003 -0.097394034
-0.13100953 -0.028163442 -0.08082705 -0.11418377 -0.042276457 -0.12637897 -0.32623625 -0.05626052
-0.07514596 -0.200228 0.23510168 0.040120002 -0.05932833 -0.010014473 -0.071844295 -0.16467836
0.09615071 -0.030403567 0.039805397 0.22890563 0.12748854 -0.05693719 -0.010872424 -0.10224867
-0.022577872 -0.20069289 0.018435504 -0.01596193 -0.29659957 -0.051658485 -0.24152263 0.2114938
-0.12443244 0.032695252 0.09098529 0.2244289 0.089801766 -0.25411683 -0.06593906 0.0154828895
-0.29289332 0.18617113 0.10351637 0.020743739 -0.23987596 0.09333453 0.0036582435 -0.13420653
0.20235099 -0.018531762 -0.14783344 0.043969754 -0.14104094 0.06237224 0.089133285 -0.2360749
0.037444264 0.13801369 -0.11680562 -0.21219265 0.1882769 0.064719416 -0.13941468 0.005560303
0.05747822 -0.07877903 0.10508285 -0.121148735 -0.010398997 -0.1613111 -0.098775946 0.07664351
-0.077744946 -0.20527984 -0.09526546 -0.013073657 -0.20089105 -0.065942995 -0.16301402 0.15706985
0.07133678 -0.31302205 -0.04866855 -0.049379587 0.005531722 0.003729584 -0.124496885 -0.29957014
-0.050188087 -0.032937206 -0.023403909 -0.099756405 0.029036298 -0.03604153 -0.080748044 -0.1962967
0.118773095 -0.10306465 0.019893125 -0.07591137 -0.16452962 0.011407086 -0.17525522 -0.01592937

network_body._body_endoder.seq_layers.4.bias f4 [128]
00000000: 068f cabc 17ab ef3c 7a22 3cbd fd2b 09bc
00000010: 86c9 b6bc e26d f3bc 5b36 84bd f847 cfbc
00000020: 28e3 423c 5b20 b3bc dd40 09bc e60f 2b3c
00000030: 59b4 72bd 1113 86bc 4414 5fbd 8f7e 663c
00000040: 3595 35bd c59e 73bd 1f36 2abd 69c3 aa3b
00000050: bf74 41bd 8527 053b 3157 b73b cc39 b8bc
00000060: de5f 0ebd c3a2 4fbd 09ea 92bc e59f 5abc
00000070: 4b02 d0ba b302 efbc f409 443c 0860 5dbc
00000080: 7b1b d7bc 1aa6 83bd 1cc2 8b3c 0729 29bd
00000090: 0944 a53b 81bd 093a c49a 4a3c d0f2 b7b9
000000a0: a478 64ba 52a6 e1bb da55 83ba e888 39bd
000000b0: 7089 133c 3284 65bd 8118 22bc e315 94bc
000000c0: 8c32 dcbc ce61 81bd e587 fdbc 777a 38bc
000000d0: de15 c9bb 14ab 8bbd e615 80bb 5f9f 1ebd
000000e0: 1f2a c4bb b7d2 83bc 6171 1abc 5c60 61bd
000000f0: 6ad3 8c3c 00d3 f8bb d934 3dbc 2e6e 51bd
00000100: 986a b13c 8f46 36bd 62cb dbbc e63b c6bc
00000110: 7e59 76bc ec5e 01bd 824b 33bd d082 673c
00000120: 0c92 cfbc 1402 5bbc 61dc 48bc f5ff 7dbc
00000130: 52e7 153c 330c edbc 1c43 37bd bebb 8ebc
00000140: af81 53bc b992 53bd 2f38 4fba 17f8 ebbc
00000150: 8a9d 32bb 5cec 363c a5ff 7bbc 21b0 12bd
00000160: 52fe ab3b 0dce e2bc c4d0 e3ba ca1b ca3c
00000170: 4fa7 65bc cb16 11bd 0107 92bd a2db d4bc
00000180: 2bf5 eebc a0ec 893c fdd2 21bd cd01 3ebd
00000190: 7f31 afbc 640e a6bb 22ac aabc 68e5 58bc
000001a0: 6c7b ebbc 95e7 50bc 3a5d 64bb 1d6a 2fbd
000001b0: a76f 24bd 5b14 113d dc5c b3bc 12ec 30bd
000001c0: ef4a 0bbd cde4 66bc 02f0 eebc 9f67 3cbd
000001d0: b291 213c 3a2c 013c 202d 3dbb 9769 71bc
000001e0: 27b2 5b3c 7066 3bbc 2ba1 d63b 06d3 4e3c
000001f0: b05a 4ebd 6102 61bc 6136 57bb 24fa 2abd
-0.024726402 0.029256387 -0.045931317 -0.008372304 -0.02231289 -0.029715482 -0.0645568 -0.025302872
0.011894979 -0.021866014 -0.008377281 0.010440802 -0.059254024 -0.016366513 -0.054462686 0.01406826
-0.044331748 -0.059477586 -0.04155552 0.005211283 -0.04723048 0.0020317745 0.005595111 -0.022488497
-0.034759395 -0.05069233 -0.017933862 -0.013343786 -0.0015869824 -0.029176092 0.011965264 -0.013511665
-0.02625822 -0.06428166 0.017060332 -0.041298892 0.005043511 0.00052543735 0.012366001 -0.0003508539
-0.00087154866 -0.006886282 -0.0010020093 -0.04529658 0.009004936 -0.056034274 -0.0098935375 -0.018076843
-0.026879571 -0.06317483 -0.030948589 -0.011259667 -0.00613664 -0.0681974 -0.0039088605 -0.038726207
-0.0059864665 -0.016091688 -0.009426446 -0.055023536 0.017190654 -0.0075935125 -0.011548244 -0.051130466
0.021657273 -0.044500884 -0.026830379 -0.024198484 -0.015035985 -0.031584665 -0.04377318 0.014130309
-0.025338195 -0.013367195 -0.012259574 -0.015502919 0.009149389 -0.028936481 -0.044741735 -0.017423507
-0.012909337 -0.051653598 -0.00079047953 -0.028804822 -0.0027254545 0.011164751 -0.015380775 -0.0358125
0.005248823 -0.027686143 -0.0017380943 0.024671454 -0.01401694 -0.035422128 -0.07130242 -0.025983635
-0.02916964 0.016836464 -0.039507855 -0.046388436 -0.021385906 -0.0050676335 -0.020834032 -0.013238288
-0.028745376 -0.012750526 -0.0034845606 -0.042825807 -0.040145542 0.035419803 -0.021894865 -0.043193884
-0.03400701 -0.014092636 -0.029167179 -0.04599726 0.009861397 0.00788408 -0.0028866008 -0.014734647
0.013409174 -0.011437997 0.0065499744 0.012623554 -0.050379455 -0.013733477 -0.003283881 -0.04174246

network_body._body_endoder.seq_layers.4.weight f4 [128, 128]
00000000: b396 7d3a a66c fa3b e001 0dbe f7c8 1b3e
00000010: 4bb0 d83d cdb0 783c e10a 36be dd2a fa3b
00000020: 62e1 94bc c83a cabd ddaf d13d a3fd 1bbd
00000030: cffd 2cbd c0f0 e13d 1a5e 56bd 3034 3dbc
00000040: 31f0 6cba a515 35be fdf6 503d 8baa f53c
00000050: 0091 9dbd 7cfd 8cbc b4bc 6abd 5918 5fbd
00000060: d34f 42bd a5d8 bebd e2b0 e23d 2552 11be
00000070: 9b53 a33d 72ee b13b f856 3e3d a5c4 343e
00000080: 4e2a e0bd 3cae 20bd a5c2 24be b50e 0f3e
00000090: f280 a5bc 97da 80bb 85a4 293d 0c60 dc3d
000000a0: 4d46 893d 2959 ddbd 76f6 04bd cc47 063e
000000b0: 9a2d 403d b25e 3dbc 42ed babd 8095 b9bc
000000c0: f56f 103d 10b0 dabd e31c 36bd 7950 0b3e
000000d0: 11a1 af3c 7fa5 9bbd 16cd 0fbd 7840 0a3d
000000e0: 5faf e7bc 6e19 84bd 912d ebbd 7484 8c3d
000000f0: a4af ad3d 6e14 e2bc 1ba1 fe3c ca4b d1bd
00000100: 8916 96bd 75ad a5bd 0304 203d 1bed ffbc
00000110: 3f54 113d 9e3f 393d 4da0 2abd 74c4 6cbd
00000120: ac8d da3d ff48 9d3d 411e fb3d c291 64bc
00000130: 4ebc 4bbd ec6a 69bd 4ef4 063e 94de ce3d
00000140: 20bb 2e3b ed72 0fbe 1bb4 713d d896 3d3c
00000150: e00b a4bd e54b 00be f704 34bc b898 99bd
00000160: 949a 33bd 5bc6 773d b5a3 7b3c a0c1 423d
00000170: 8051 adbd 44e1 3b3d 10b5 0c3e 7465 08bd
00000180: f36b a93d 861b f63c af08 a5bc f590 27bd
00000190: 9288 37bd d883 f1bc 9eb9 173d e9f7 ddbd
000001a0: 1755 b93d 9ce7 d2bd e3a9 193c e368 863d
000001b0: a574 58bd 6d54 89bd 2449 79bc 251d 063e
000001c0: b3d8 12be 88ce 353e c47f 883c 9819 a9bd
000001d0: 76c7 f03d 8c6a 74bd 9a64 003e 3478 1dbb
000001e0: d66c 313d 3fb5 06be bc9d ab3d 8456 9f3c
000001f0: 5ed8 91bd 44a0 193d cd6c f4bd 6616 8fbd
00000200: de7d c53d cc3d 50bc f2ad 6abe e1c8 143d
00000210: 30b7 3abd b8c4 d63d eb07 d73d 8d7e d4bd
00000220: 504f 1f3d 64ce 42bd b341 e1bc 8617 fabd
00000230: 51a2 c0bd c0d9 73bd 9507 49bd 04c0 94bd
00000240: 5e13 82bc eb16 023e dbc4 a53d 0f01 1a3e
00000250: 0a1b 4cbd 1b8c 3e3b 4c5a 683c d547 3abd
00000260: 496c a63c 9222 85bd c0db 6c3d 7dd4 903c
00000270: e89d 493d a622 f2bb 3fa1 75bd a09d d7bd
00000280: c998 0f3d d478 1fbd 66c4 163b 300c 033e
00000290: ceb0 58be e6cb b43d 9a3f 70bd 2017 ddbd
000002a0: b78c 4ebd 3435 02be a349 83bc 1516 dbbd
000002b0: 6497 4a3e 8a96 323d dea1 83be 3804 3bbc
000002c0: bafb cabd a904 2cbd a57b 9b3d c4b0 173c
000002d0: c025 da3d def7 71bd 9677 09bc aa90 b83c
000002e0: 5214 d43d 11d8 c13c ed7a b9bd 3abc 463d
000002f0: b40b c0bc 9f63 3f3e 29df f93d 3c81 383a
00000300: 1d61 103c 2674 ffbd da14 633d a1a4 4f3d
00000310: 14ee 0e3e 7ef2 e93c 94b0 fcbc 1a2c a83b
00000320: e4dc f43c bc6b 5abc d965 81be f342 1abe
00000330: 8682 51bd 75d5 913d 40eb 943d 0d4c 773d
00000340: 4aca d9bd 4b0f 473b ce0f df3d f0b2 353c
00000350: ee60 dabc 95fd d33d 883e 633d 65d4 b83c
00000360: 65ed cf3c 33af 463d a975 4bbd fb56 1e3d
00000370: 6d5a 82bd 26c2 cb3d d888 033e 5422 f93d
00000380: 307a 17bc 295e 7b3d 8c1b e6bc 80db b53c
00000390: 127a 78bd ad68 32be 40ae 89bd 62e0 15be
000003a0: d72f 143d 1f0b 143d 7c0e 2bbe 704b e7bd
000003b0: ebb0 41be 7666 cf39 4503 2abc 169a 59bd
000003c0: 0e00 b93d b231 a63d d0ab 80bd d320 16bd
000003d0: 1b29 b83c cf40 bc3d 8e83 9dbd 8fe3 333d
000003e0: 7b38 81bd 6b2f bebd 564b 1a3d bd75 93bd
000003f0: e87d 43be b0dc 60bd 1a89 22bd 843c 79bc
0.000967364 0.0076423464 -0.13770247 0.15213381 0.105805 0.015178871 -0.17777587 0.007634504
-0.018173877 -0.09874493 0.102386214 -0.038083684 -0.04223424 0.110322475 -0.052335836 -0.011548087
-0.0009038477 -0.17684038 0.051016796 0.029988548 -0.07693672 -0.017210715 -0.057308868 -0.05446658
-0.047439408 -0.093186654 0.11068894 -0.14191492 0.07974931 0.005430036 0.04646966 0.17653139
-0.10945569 -0.039228663 -0.16089876 0.13970454 -0.020203087 -0.003932308 0.041416664 0.10760507
0.06702862 -0.108080216 -0.032461606 0.13113326 0.04691849 -0.011558222 -0.091272846 -0.022654295
0.03526302 -0.106781125 -0.044461142 0.13604917 0.021439107 -0.07599925 -0.035107695 0.03375289
-0.028281866 -0.06450163 -0.114833005 0.06861201 0.084807664 -0.027597632 0.03108268 -0.10219534
-0.07328517 -0.08089725 0.039066326 -0.03124099 0.035480734 0.045226686 -0.04165678 -0.05780454
0.10671553 0.076799385 0.1226163 -0.013950767 -0.04974013 -0.056986734 0.13179132 0.10101047
0.0026661828 -0.14008684 0.059009653 0.0115716085 -0.080100775 -0.12528951 -0.010987512 -0.07499832
-0.04384859 0.0604919 0.015358855 0.047547936 -0.084628105 0.045869127 0.13740945 -0.03329988
0.08272543 0.030042421 -0.020145742 -0.040909726 -0.044807978 -0.029481813 0.037042253 -0.10838301
0.09049433 -0.10298082 0.009378883 0.06562974 -0.052845616 -0.06705556 -0.015215192 0.13097055
-0.14340477 0.17754567 0.016662486 -0.08256835 0.11756794 -0.059671924 0.12538376 -0.0024027945
0.043316685 -0.13155077 0.08379695 0.019450434 -0.07121347 0.037506357 -0.119348146 -0.06986694
0.09643148 -0.012710046 -0.22917917 0.036324386 -0.045584857 0.1048674 0.10499557 -0.103757
0.038893998 -0.04756011 -0.027497148 -0.12211518 -0.094059594 -0.059533834 -0.049079496 -0.072631866
-0.015878376 0.12704055 0.08094188 0.15039466 -0.049830474 0.0029075209 0.014181685 -0.04547866
0.020315306 -0.065007344 0.057826757 0.017679447 0.049222857 -0.0073893843 -0.05996823 -0.105281115
0.035057817 -0.03893359 0.0023005246 0.12797618 -0.21161196 0.08827953 -0.058654405 -0.10795426
-0.050427165 -0.12715608 -0.016026324 -0.10697571 0.19784313 0.043600596 -0.25709432 -0.01141458
-0.09911294 -0.04199663 0.07591943 0.009258453 0.106517315 -0.059074275 -0.008390328 0.022529919
0.10355438 0.023662599 -0.09056649 0.04851935 -0.02344308 0.18690346 0.122007675 0.00070383004
0.008812216 -0.124733254 0.055439807 0.05069411 0.13958007 0.028558012 -0.030845918 0.0051322104
0.029890485 -0.01333135 -0.25273016 -0.15064602 -0.051149867 0.07120792 0.07271433 0.060375262
-0.10634287 0.0030374106 0.108916864 0.011090025 -0.026657548 0.10351101 0.055479556 0.022562215
0.025381753 0.048506927 -0.049672756 0.03865717 -0.063649036 0.0994914 0.1284517 0.12164751
-0.00924544 0.061369095 -0.028089307 0.022199392 -0.06066329 -0.17422743 -0.06722689 -0.14636377
0.036178436 0.03614342 -0.16704744 -0.112936854 -0.18915145 0.00039558456 -0.010376756 -0.053125463
0.090332136 0.081149474 -0.06282771 -0.036652397 0.022480538 0.09192049 -0.07691108 0.04391819
-0.06309601 -0.09286388 0.037669502 -0.07200191 -0.19090998 -0.054897964 -0.03968153 -0.015212182
