Maize-Runner/results/RealTest2/EscapeMaze/EscapeMaze-5151500.onnx (onnx, 171151 bytes, 9 tensors)

action_model._continuous_distribution.log_sigma f4 [1, 2]
000000 46 10 96 be 86 68 93 be
       -0.2930929 -0.28790683

action_model._continuous_distribution.mu.bias f4 [2]
000000 8f 1f db 3c 0d e5 fd 3b
       0.026748447 0.0077482522

action_model._continuous_distribution.mu.weight f4 [2, 128]
000000 8e 4c 12 ba 82 c3 02 3c 94 15 1b bd 50 67 85 3d
       -0.00055808655 0.007981183 -0.037862375 0.06513846
000010 a8 f7 55 bc 17 8a 07 bb bd e9 87 ba 83 98 46 3c
       -0.013059534 -0.0020681673 -0.0010369342 0.012121323
000020 13 6e 4b 3d 89 f7 9e 3c 18 9d b6 3d 8f 8f cc 3c
       0.04966552 0.019405143 0.08916682 0.024970798
000030 cd df 6e bd 5e 4d a6 3a 5f 46 c9 3c 67 b7 da 3d
       -0.0583189 0.0012687852 0.024569688 0.106795125
000040 df 88 d5 ba d9 86 d7 3b 41 b6 f7 bc d2 50 64 3b
       -0.0016291401 0.0065773544 -0.030238273 0.0034838212
000050 25 0f 8c 3c 9d b0 4a bc 64 3b c8 3b c9 6b e7 3c
       0.017097065 -0.012371209 0.0061105955 0.028249638
000060 be e9 89 3b 38 23 c0 bc a0 01 fe 3a 24 c7 ed 3a
       0.0042087724 -0.023454294 0.0019379146 0.0018141014
000070 cf e3 71 3c fc 61 8a 3c a0 d5 73 bd ed cd 98 bc
       0.014763786 0.016892426 -0.0595299 -0.01865288
000080 83 42 b0 bd f0 2d 78 3c 7f 60 c2 3b 56 f5 2c 3d
       -0.08606436 0.015147671 0.0059319134 0.042226158
000090 25 0f 7b 3c 92 59 8c 3c 4b bf 08 3b fd 00 8a 3d
       0.015323435 0.017132554 0.0020865973 0.0673847
0000a0 5b 86 aa 3b 17 a2 7d 3d b3 6c 8d bc 49 48 8d bd
       0.0052040047 0.06192216 -0.017263746 -0.06898553
0000b0 d8 b0 a3 3c 41 45 8b 3b 0d 84 ca 3b ab 86 07 3c
       0.019981787 0.004250199 0.0061802925 0.008271853
0000c0 f5 45 64 bc a5 73 81 39 26 ef a3 bc 1f 47 b7 3b
       -0.013932695 0.0002469096 -0.020011496 0.005593195
0000d0 e2 19 6e bb f9 a7 13 3b 80 5f 56 3d 0f ba ad bb
       -0.0036331345 0.002253054 0.05233717 -0.005301721
0000e0 11 be 73 bd 48 e9 31 bc 64 71 62 3d 2e 65 39 bc
       -0.059507433 -0.010858841 0.05528392 -0.011315627
0000f0 ae 30 42 3d d7 5c 83 3d e8 6c 2e bc 33 a6 de bb
       0.047409706 0.06414192 -0.010646082 -0.006794715
000100 f2 2b 6c bb a0 df 52 bd 9c a5 fb bb 6e f0 21 bb
       -0.0036036936 -0.051482797 -0.0076796543 -0.0024709958
000110 9e ec 8e 3d dd 6e 28 3c c9 04 0b bc e7 12 86 bc
       0.06978725 0.010280338 -0.008485028 -0.016366435
000120 92 93 15 bb 04 69 1c bc 57 b3 29 bb e9 30 6b 39
       -0.0022823554 -0.009546522 -0.0025894248 0.00022429567
000130 52 33 5e ba f0 bd 41 bc 56 2b 89 39 e8 e9 26 3d
       -0.0008476275 -0.01182507 0.00026162964 0.040750414
000140 d7 a8 9a bc cb 4a 13 be 22 1f 32 bd 1d 5d 98 3a
       -0.018879337 -0.14384 -0.04348672 0.001162443
000150 d0 31 dd 3c d3 a4 63 3b bb bf 02 3d 3f ef 0e bd
       0.027001292 0.0034735694 0.03192113 -0.03489613
000160 6b 1e c0 3d 7c af 78 3c 01 d2 d4 3a e5 29 91 bb
       0.09380802 0.0151785575 0.0016236902 -0.004430043
000170 57 71 25 bd e7 7e a4 3d 88 af e7 3a 38 90 8c bc
       -0.040391292 0.08032017 0.0017676214 -0.017158613
000180 d9 31 a9 ba 52 97 d3 3d 9e 90 cc 3b a8 80 4e ba
       -0.0012908533 0.103315964 0.0062428256 -0.00078774476
000190 f7 78 04 3c ea 6c 71 3d a1 4a 63 bc 39 1a a8 3b
       0.008085481 0.05894176 -0.013872773 0.005130079
0001a0 cf b2 c8 bc 92 41 99 3a 5c dd 39 ba 70 57 86 bd
       -0.024499325 0.0011692515 -0.0007090175 -0.06559646
0001b0 78 00 02 3d bf f6 30 bb 5a 34 89 bc 60 e2 63 3b
       0.03173873 -0.002700254 -0.016748596 0.0034772381
0001c0 64 bb aa 3a ef 1a 2e bd ed 97 01 be 55 ef a5 38
       0.0013025817 -0.042506155 -0.12655611 7.912392e-05
0001d0 1a ec c2 3c 79 fc 64 bb df 35 3c bc ea 43 90 bd
       0.023794223 -0.0034940524 -0.011487453 -0.070442036
0001e0 1e 03 00 be 4f 22 41 3b ba c0 fa 3b e0 6e ff 3a
       -0.12501189 0.0029469912 0.0076523693 0.0019487999
0001f0 3d 61 ed 3c b5 f4 81 bb 6e a7 28 3c 2b 20 77 3d
       0.02897703 -0.003965939 0.010293825 0.060333412
000200 4d 15 4d 3b 27 b2 32 3c c0 fa e6 bd 32 67 04 bd
       0.0031293214 0.010906733 -0.112782955 -0.032324977
000210 ef 08 e3 3b 3b 01 57 bb 0c cb c9 3b 05 0a d1 3c
       0.006928555 -0.003280713 0.0061582383 0.025517473
000220 27 c0 ea 3c 43 be 56 3d 03 c4 8c bc 6c 7a 79 bc
       0.028656079 0.05242754 -0.01718331 -0.015226942
000230 c9 c3 e1 bc af c2 55 3a 24 d2 1e be 8c 25 bf 3a
       -0.027559178 0.00081543153 -0.1550985 0.0014583333
000240 cd 9a ce 3a 97 17 82 bc 94 ae 43 bd cd 47 e6 ba
       0.0015762687 -0.01588039 -0.047773913 -0.0017569006
000250 aa ae 5c bc 2d c2 e4 3d bc c9 c3 bc 88 84 81 bd
       -0.0134693775 0.111698486 -0.023899905 -0.063241065
000260 5c 7d 94 ba 46 73 94 3d 46 3a b3 bb 7f 37 0c bb
       -0.0011328864 0.07248549 -0.005469593 -0.0021395383
000270 a1 8d 26 bc 02 4d a0 bc 8c 94 cd bc ea 2b 51 bc
       -0.010165603 -0.01956797 -0.025095247 -0.012766818
000280 40 f1 72 bd 06 7e d7 bb 1d 69 12 bc fa b3 12 3d
       -0.059312105 -0.0065763025 -0.008936194 0.03581617
000290 5b 1c 01 3c 74 86 29 bc 8f ce 2c 3b fe c0 91 3d
       0.007880296 -0.0103469975 0.0026368236 0.071168885
0002a0 c5 63 e9 3b 79 ac 8c bb 38 26 e1 bc 5f d4 d0 bd
       0.007122489 -0.0042930213 -0.027484044 -0.101967566
0002b0 39 70 10 bc 7c 38 b1 bc c3 13 c6 3a 82 fa ef bb
       -0.0088158185 -0.02163338 0.0015112091 -0.007323564
0002c0 17 34 93 bd a6 b4 30 39 8e 3a 4b 3d b2 77 da bb
       -0.0718767 0.00016851965 0.04961639 -0.006667101
0002d0 5a 90 ac 3b 71 5f 16 ba 24 3e 19 3d 56 84 0e 3a
       0.0052662315 -0.0005736268 0.037412778 0.00054365897
0002e0 34 a9 62 bb ca 5f c7 bd 24 27 a1 bd 44 8d 1f bd
       -0.0034585716 -0.09735067 -0.078687936 -0.03895308
0002f0 13 0c 4c 3d 07 68 02 be d1 bc 38 3d bf e4 30 bd
       0.049816202 -0.12734996 0.045101944 -0.0431869
000300 19 37 e4 3c 5e a9 10 3d cb 16 f4 3c d9 43 3c ba
       0.027858304 0.03531777 0.029796025 -0.0007181741
000310 8b d7 be bd da 34 d0 3c a8 e0 0f bc 4e 00 49 bd
       -0.09318455 0.025415827 -0.00878159 -0.049072556
000320 e5 eb 0d 39 88 30 57 bd 0d 2b e0 38 1c ab 5a ba
       0.00013534685 -0.052536517 0.00010689171 -0.00083415373
000330 43 ec a4 3c c2 38 66 3c 8c 20 33 ba 03 ae c4 bc
       0.02013219 0.014051618 -0.0006833158 -0.024008757
000340 1c 31 4c ba c2 12 26 3d 8d 75 39 bc 13 f4 36 bb
       -0.00077893 0.040545233 -0.01131953 -0.0027916476
000350 dc c0 af 3d 28 01 1f bb 9d 7e a6 bd 43 75 ca 3c
       0.08581707 -0.0024262164 -0.08129618 0.024714118
000360 eb 2c 7d 3d 27 b7 34 3d 44 2a 2b ba eb a9 d4 3b
       0.061810415 0.04411998 -0.00065294304 0.0064899824
000370 03 4c 98 bc 50 ce 5b bc b9 0f 98 ba 44 f1 0e be
       -0.018590933 -0.013415888 -0.0011601365 -0.13959223
000380 8d 8a bc 39 04 6b 04 bc e9 8f ff bb 33 14 c7 39
       0.00035961383 -0.008082155 -0.007799138 0.00037971287
000390 49 54 86 bd 28 1d 2b bd fc 8f 9a bc a4 b1 5d 3c
       -0.06559045 -0.041775852 -0.018867485 0.013531122
0003a0 74 a7 96 3c f9 51 1b 3b 22 03 5e ba 5c 84 fb bb
       0.018390395 0.0023699983 -0.0008469095 -0.0076756906
0003b0 39 61 40 bd 04 e5 11 3b 5d a4 28 bd 71 ac 02 ba
       -0.04696772 0.0022261748 -0.041172374 -0.0004984802
0003c0 91 8d 3a bb e9 68 89 3d 4c e1 8b bc b2 72 63 3b
       -0.0028465728 0.06709463 -0.017075203 0.0034705815
0003d0 da 73 2e 3d 3e e9 44 3b 84 37 0b bc 39 cc 3e bb
       0.042590953 0.003004625 -0.008497123 -0.0029113425
0003e0 40 46 80 3c f5 91 f3 3b 5e 7d 58 3c 3c b2 4a bb
       0.015658498 0.007433171 0.013213484 -0.003092899
0003f0 15 50 fa bc bf 5f 8b 3c 32 da 9a 3c 41 6f 62 bc
       -0.030555764 0.017013429 0.018902872 -0.01382047

network_body._body_endoder.seq_layers.0.bias f4 [128]
000000 ea 59 6a 3d 50 cd b9 bc b5 fe 11 3c 18 9b 51 ba
       0.057214655 -0.022680908 0.008910825 -0.0007995828
000010 56 bc b0 bc bc 9e 1a bc 90 98 01 3c 88 1b b2 bd
       -0.02157418 -0.009437259 0.007909909 -0.086966574
000020 2a 58 28 3d ee b9 d6 3a 3c b4 fd b9 4d 18 16 bd
       0.041099705 0.0016382316 -0.00048390205 -0.03664427
000030 f3 e3 2a bd 6c 9d c1 3c d2 c2 38 bd 73 a9 c8 3c
       -0.041721296 0.023634635 -0.04510767 0.024494862
000040 51 e6 72 bd 9c 56 42 bc 90 72 9a bb ac db fd ba
       -0.059301678 -0.01186147 -0.004713364 -0.0019367835
000050 a2 2c 16 bd d8 94 f1 3b 52 43 4c bc f9 79 97 bd
       -0.03666366 0.00737248 -0.012467222 -0.07396311
000060 36 db fd 3b c3 96 2a bb f5 a0 57 bd 87 41 84 3d
       0.0077470792 -0.0026029802 -0.052643735 0.06457811
000070 04 96 06 3c 67 99 ec ba 39 cf 80 3d f7 14 8a bd
       0.008214477 -0.0018051089 0.062895246 -0.0674228
000080 d0 00 b9 3b a0 a3 09 bd 57 45 ac 3c 31 76 a8 3d
       0.005645849 -0.03360331 0.021029158 0.08225668
000090 23 8a e6 3c 6c e9 93 3a 0a 88 16 3c c0 0c 63 bd
       0.02814204 0.0011284775 0.009187708 -0.05543208
0000a0 9b 01 94 bc 0c f2 cb 3c 3d 2a 74 3c 0a 8c 27 3d
       -0.018067172 0.02489569 0.0149026485 0.040905036
0000b0 0d 3c 83 bd fb cb 89 bd 62 7e 06 bd 7c 98 08 bd
       -0.06407938 -0.06728359 -0.03283537 -0.033348545
0000c0 64 06 c1 bc fb 88 13 bc dd d7 cd 3c f3 57 a1 bd
       -0.023562618 -0.009004827 0.025127346 -0.07878103
0000d0 d6 af c5 bd 6d 07 07 3d 07 78 29 bd 79 5f 72 bd
       -0.09652679 0.032966066 -0.041374233 -0.05917308
0000e0 30 20 a8 bb 7b 0d 9a bd 0e 27 29 3d 45 ca 83 bd
       -0.00513079 -0.075221024 0.04129701 -0.06435064
0000f0 47 ee 94 3c f0 81 2e 3b 6e f8 69 bd ca 2e 1f 3d
       0.018180026 0.0026627742 -0.057121687 0.03886298
000100 cb 41 11 3d 57 a4 4c 3d 7b cb 4d bd 45 a9 cc bc
       0.035463136 0.049961414 -0.050242882 -0.024983058
000110 ff 52 88 3d f1 e0 2b 3c 41 91 10 bd de 52 dd 3c
       0.06656455 0.010490642 -0.035294775 0.027017053
000120 8a 6b bb bc 2c 9a 08 3c 2d d0 2e bd 3f a5 2e 3d
       -0.022878427 0.008337539 -0.042679 0.04263806
000130 04 4c 9c 3d f2 fd c8 bd 94 3c 0c 3d 70 27 8a 3d
       0.07631686 -0.09814061 0.03423746 0.06745803
000140 6b 3e 7d 3d 3f 87 ed bd 20 1f 66 3d 6f 8b 25 bc
       0.061827105 -0.11598062 0.056182027 -0.010104044
000150 37 89 bb 3c c1 67 91 3d cc a5 1d 3c f6 9c 90 bc
       0.022892578 0.070998676 0.009622049 -0.01765297
000160 ee ff 95 3c 19 8d 47 3d 34 05 07 bd 0e d9 c9 3c
       0.018310513 0.048718546 -0.032963946 0.024639633
000170 8b eb ba 3c 02 51 cb 3d 5d 91 f0 3c 6e b1 2f 3d
       0.022817394 0.099275604 0.02936619 0.04289382
000180 96 db bb bc 20 a0 79 bd b3 f9 89 3d 9c 56 a9 bd
       -0.022931855 -0.060943723 0.067370795 -0.082684726
000190 b3 62 3b 3d d8 96 4b 3d 3a 79 b4 bb be 14 55 3c
       0.045748424 0.049704403 -0.0055076154 0.013005434
0001a0 e6 1a 9a 3c 1d a8 f9 3c f1 69 8f 3c d2 c5 47 3c
       0.018811654 0.03047567 0.017506571 0.01219316
0001b0 65 26 ed bc 96 28 4a 3c 94 02 d4 3b 12 bf 2c 3d
       -0.028948972 0.012338778 0.006470034 0.042174406
0001c0 42 d3 b4 3d e1 5f 43 bd 90 36 e8 3c 56 0e ea 3b
       0.08829357 -0.04769886 0.02834633 0.0071428223
0001d0 b2 4d 48 3d 7f f7 5b 3d 22 ae 5c b9 a8 f6 dc 3c
       0.04890222 0.053702828 -0.00021045704 0.026973084
0001e0 f0 fc 2d bd b1 56 5d bd b5 58 14 3c 84 16 ad 3d
       -0.042477548 -0.054037753 0.0090543525 0.0845156
0001f0 71 05 1a 3c d6 b4 a5 bd ab 37 e8 bc 71 1e 7f 3d
       0.009400711 -0.08091132 -0.028346857 0.06228489

network_body._body_endoder.seq_layers.0.weight f4 [128, 69]
000000 1e 4a 3a be c5 1c 8c 3d dd 57 3c 3e 26 a4 97 be
       -0.18192336 0.06841425 0.18392892 -0.29617423
000010 9c ac 61 bc 1a aa 2c bd 2f b2 12 3e c6 7b 46 be
       -0.013774063 -0.04215441 0.14325784 -0.19383153
000020 26 53 fd 3d 79 c8 81 be 5a f4 9c be a5 87 65 3e
       0.12369375 -0.2534826 -0.30655175 0.22415026
000030 22 3a 3a 3e 25 bb e0 3d 61 fc 54 3d 49 29 2c be
       0.18186238 0.10973195 0.0519985 -0.16812624
000040 8f 35 7b bd 66 ee b8 3d 0f fc 21 3e de 78 eb 3d
       -0.061330374 0.09029846 0.15818809 0.11497663
000050 b7 a2 88 bd 13 ad fc 3d 80 63 03 3d 5c a8 9a 3d
       -0.066716604 0.12337699 0.032077312 0.07551643
000060 45 8d f0 3d 76 37 a6 bd de b5 57 bd bc 12 05 be
       0.11745695 -0.08116047 -0.052663676 -0.12995428
000070 71 e3 88 3e 53 07 a4 bd 61 3a 3c be 60 89 91 3e
       0.26736024 -0.080092095 -0.18381645 0.2842512
000080 f8 b6 4b 3d 4e 63 bc bd 10 49 29 3e 8f 86 70 be
       0.04973504 -0.09198628 0.16531777 -0.2348883
000090 96 5d ff bc e7 cb c8 3c ea f9 f4 3d 43 f3 16 3c
       -0.031172555 0.02451129 0.1196173 0.009213272
0000a0 d2 11 6d 3d ef ef 2a 3e 6c 5f 27 3e 08 40 56 be
       0.057878323 0.1669309 0.16344994 -0.20922863
0000b0 dd 63 fa 3d 2a 2a 33 be 39 38 50 3c 47 22 01 3e
       0.12226079 -0.17496553 0.012708717 0.12610732
0000c0 b1 fd fa 3d b7 65 d0 bc 0d 9f 58 bd 5a 5e aa 3d
       0.12255419 -0.025439126 -0.052886058 0.083187774
0000d0 16 e9 96 bd 1a 8a a2 3c d9 58 bc 3d 83 79 7c be
       -0.07368676 0.019841243 0.09196634 -0.24655728
0000e0 2a 41 3b 3e 70 a7 80 3e 9a 10 09 be 16 21 cb 3d
       0.18286577 0.25127745 -0.13385239 0.0991842
0000f0 fb 1a 11 be bb 4d a1 bd 16 db ff bd 07 95 1f 3e
       -0.14170448 -0.07876154 -0.12492959 0.15584193
000100 43 ea 46 3e 86 d5 ce be 43 34 f8 3c 60 c1 c7 3d
       0.19425301 -0.4039728 0.030298358 0.0975368
000110 54 12 38 bd 54 fe 49 bd c2 71 19 3d f7 20 66 3d
       -0.044939354 -0.04931481 0.037462004 0.05618378
000120 03 77 ab bc a1 d2 1e 3e 68 7c 30 be d0 ae 19 bd
       -0.020930773 0.15510036 -0.17234957 -0.03752023
000130 37 9f 7e 3e 31 6c 6b be 63 12 1d 3e 5c d7 df bc
       0.24865423 -0.2299049 0.15339045 -0.027324371
000140 cb 83 66 bc 36 97 d5 bd fd da a5 3d 6a bb 64 3e
       -0.014069508 -0.10429232 0.08098409 0.22337118
000150 6f f1 d8 bd ee 08 98 3e 1e cb e3 3c d4 ce 09 3b
       -0.10592925 0.29694313 0.027806815 0.002102782
000160 94 8d ef bd 2e ca cb 3e 9c 99 34 be f9 aa aa 3c
       -0.11696926 0.39802688 -0.17636722 0.02083348
000170 f0 cd 22 3c a0 fa 4f bd 32 c1 7c be ab c3 98 3d
       0.009936795 -0.050776124 -0.24683073 0.07459196
000180 ee 05 e9 3d f3 bb ef bd 9d 2b 33 be cd 7b 40 3d
       0.11378084 -0.1170577 -0.17497106 0.046993066
000190 c2 75 3b be ab 41 d9 bd c8 27 2e 3d 01 54 96 bd
       -0.1830664 -0.10608228 0.042518407 -0.07340241
0001a0 48 ed 0d bf b3 b2 65 3d d5 61 13 be f9 cd 13 bd
       -0.5544019 0.056078624 -0.14392789 -0.036085103
0001b0 d6 74 f9 be 04 6d b5 bd 4e 16 e3 bc 89 82 e7 3c
       -0.4872195 -0.08858684 -0.027720597 0.028260486
0001c0 ef da e5 bd 76 ea 0f 3e e7 6a 9a be bb bb cb 3c
       -0.11223399 0.14054283 -0.30159685 0.02486979
0001d0 e1 73 e5 bd fc 3a 45 bd 20 8a 6a be d2 24 0b bf
       -0.11203743 -0.048151955 -0.22904253 -0.5435306
0001e0 24 2b a4 bd 7b d1 06 3c d9 34 48 be e6 85 84 3b
       -0.08016041 0.008228655 -0.1955141 0.0040442823
0001f0 41 d7 b8 be 7a a7 4e bd e7 1e 2b 3c c0 bc 36 be
       -0.36101726 -0.050452687 0.010444379 -0.1784544
000200 6c c0 5c be c3 a9 22 be c5 14 8f 3e 26 1b 17 bd
       -0.21557778 -0.15885071 0.27945533 -0.036891125
000210 09 a5 d3 3d 64 c3 20 be 12 9d b3 3d ea d9 e6 3c
       0.10334212 -0.15699536 0.08770193 0.028180081
000220 dd 68 48 bd de 25 a4 bc dd 48 d5 3c b0 d1 4c bd
       -0.04892813 -0.020037588 0.02603572 -0.05000466
000230 fd 78 3c bc 6b ea 44 3b e1 e0 67 3e fc ec ac 3e
       -0.011503455 0.003004695 0.22644378 0.33774555
000240 f9 29 3d 3d 37 f9 15 3e 43 fb 2f 3e 48 01 43 3e
       0.046182606 0.14645849 0.17185692 0.19043458
000250 eb e2 8a 3e 2a ec a7 bd 1a cb 40 3d 83 f5 7a 3e
       0.2712625 -0.081993416 0.047068693 0.24507718
000260 22 82 ab bd 73 97 fc 3e 8a 85 46 be 55 df 04 be
       -0.0837443 0.49334297 -0.19386879 -0.1297582
000270 a2 15 ab 3d 90 f5 2f 3e 21 d9 38 be 74 59 e1 3c
       0.083537355 0.17183518 -0.18051578 0.027508475
000280 1d a2 17 bd 5d e2 52 3d 38 f8 ea 3c cb 15 92 3e
       -0.037019838 0.051485408 0.028682813 0.28532252
000290 4f d9 90 bd d3 22 e3 3d 37 23 5f 3d 39 e1 e4 bd
       -0.07072698 0.110906266 0.054476943 -0.1117577
0002a0 0f 6c 88 3e 40 c3 13 3e 12 0a c5 3d 11 c6 25 3d
       0.26644942 0.1442995 0.096210614 0.040472094
0002b0 c5 df 84 bb 91 f0 b2 3e b6 62 25 bd af c7 c2 bb
       -0.0040549957 0.34949163 -0.04037734 -0.0059442143
0002c0 14 86 3b 3e 21 2a bd bd 6f 03 ec bd a5 a9 6d 3d
       0.18312865 -0.09236551 -0.115240924 0.058023114
0002d0 c7 70 6f 3d 8d 5f a1 3c 83 b2 af bd 1c e6 18 3d
       0.058457162 0.019698882 -0.0857897 0.037328824
0002e0 78 a1 0d 3e c1 4b ef 3d 93 5e 8a bd 01 e2 4d be
       0.13831127 0.11684371 -0.0675632 -0.20105745
0002f0 6b 0d 1f 3e 2c 03 5d 3b 78 2c 59 bd 51 71 11 3d
       0.15532462 0.0033723814 -0.053020924 0.035508458
000300 e9 fd b1 bd f0 ae 63 bc 10 1d a1 bd 28 e7 19 bb
       -0.08691008 -0.013896689 -0.07866871 -0.0023483727
000310 2e 9d 70 3e e5 06 f0 3d 0a f8 b0 3d eb 0e 2d be
       0.2349746 0.11720065 0.0864106 -0.16900222
000320 27 1e 0b bd c8 86 3f 3b 6b 5b a6 3b 1a db 85 3c
       -0.033964302 0.0029224623 0.005076816 0.016339827
000330 eb 22 6c 3d e3 f2 f3 bd f6 be b2 3d d5 27 c3 bd
       0.057650488 -0.11911561 0.08727829 -0.09529082
000340 7a 33 1b be 57 40 0e be 8b cf fb 3d 06 d4 aa be
       -0.15156356 -0.13891731 0.12295445 -0.33364886
000350 7c ff c8 be 22 b5 a0 3d cd 15 d6 bd 4e 09 94 3e
       -0.3925742 0.07847048 -0.10453377 0.2891335
000360 ee 5d 9e be a0 3d db be f3 df ae bc 1c b8 34 3c
       -0.30931038 -0.42820454 -0.021347022 0.011030223
000370 48 db c2 3d f5 e9 ae be 4d 05 9a be 9c bd 11 bd
       0.09514481 -0.3416287 -0.3008217 -0.035581216
000380 61 88 4f 3e 90 8a 25 3e e6 80 46 be 51 9a 2e be
       0.20266868 0.16166139 -0.19385108 -0.17051055
000390 28 67 2b be c1 33 f3 bd f1 72 4a 3c 6c 5a 23 be
       -0.1673857 -0.11875106 0.012356506 -0.15952462
0003a0 90 ce a3 bd 3a 7d 89 bb ab b5 8a ba 72 f3 e2 bb
       -0.07998383 -0.0041958364 -0.0010582706 -0.0069259936
0003b0 6a f7 e2 3d fb 5d d1 bd 15 af fe bc 81 2b 2c 3d
       0.11082347 -0.102230035 -0.031089345 0.042033676
0003c0 b4 90 87 bd 61 2e d0 bd e5 58 45 3e 2a 32 e7 3c
       -0.06619397 -0.10165096 0.19272192 0.028222162
0003d0 30 d7 04 3d 0a 49 09 be 49 5a 14 3d c0 a3 16 bb
       0.03243178 -0.13406768 0.036218915 -0.0022985786
0003e0 47 15 d1 bd 21 11 aa 3b f1 0c f5 3d da bf 3f 3d
       -0.102091365 0.00519003 0.11965359 0.046813823
0003f0 a2 63 3b 3e 48 a1 7a 3d b8 71 77 bd 04 6b 1a be
       0.18299726 0.061188966 -0.060411185 -0.15079886

network_body._body_endoder.seq_layers.2.bias f4 [128]
000000 b1 e4 a5 bb 83 43 40 3d 5b fa 66 bd 11 26 d0 bd
       -0.0050626625 0.046939384 -0.0563911 -0.101635106
000010 7d cc 0c bd 06 59 9f bc 81 97 f5 3b 3e 9c 3f bc
       -0.034374703 -0.01945163 0.0074948673 -0.011694966
000020 b4 e5 10 3d c3 3b a9 bc 2f a1 ab 3c 1a b7 5d bd
       0.035375312 -0.02065838 0.020950882 -0.054129697
000030 69 3f e3 bc 8b f7 4c 3c c9 65 97 3a 27 0b d3 bc
       -0.027740197 0.012510191 0.001155072 -0.025762154
000040 63 d5 8b bb 9d d4 1e bd e6 4c 4c bd c1 d4 45 bd
       -0.004267381 -0.038776983 -0.049878024 -0.0482986
000050 62 29 bc 3c 91 4b ed bc 0f e8 8b bd e4 db 28 bd
       0.022968952 -0.028966697 -0.06831371 -0.04122533
000060 73 d9 98 3c 25 bb 96 3c b7 b9 19 bc b3 45 07 bc
       0.018658375 0.018399784 -0.009382657 -0.008256364
000070 d2 f9 00 3d 3a 80 bd bc cd 75 91 3c 13 bc d5 3c
       0.031488247 -0.023132432 0.017756367 0.026090657
000080 a4 2f 24 bd f0 7c a0 bd 92 74 3e 3d 30 9a 9f 3c
       -0.040084496 -0.0783633 0.04649789 0.019482702
000090 a8 12 91 bc 3f 62 d2 bb d1 91 06 bc 71 d2 ec 3c
       -0.017709091 -0.0064204033 -0.008213476 0.02890894
0000a0 97 13 13 bd a7 8a e5 bc de c4 64 bc 7b ce af 3c
       -0.035907354 -0.028020216 -0.013962952 0.021460762
0000b0 c5 3d cb bc c0 59 6c 3c 26 34 2d bd 79 68 8b bd
       -0.024809727 0.014425695 -0.04228606 -0.06807036
0000c0 99 2e fc bc 89 34 94 3c af c3 50 bd 6d 9f d2 bb
       -0.030783938 0.018091457 -0.05096787 -0.0064276964
0000d0 3b 89 87 3c 74 5b 87 bd 1e 26 63 39 e3 4b 98 bd
       0.016544929 -0.0660924 0.00021662607 -0.07436349
0000e0 59 1d 33 bd 96 00 e3 3c 83 87 65 bd e7 64 6e bd
       -0.04372916 0.02771024 -0.056037437 -0.058201697
0000f0 92 be 5a bd ee f3 1f bd 6a bc 71 bd b9 f0 1a bc
       -0.0534044 -0.03905099 -0.059017576 -0.009456807
000100 01 46 b6 3b 16 7e 2f 3c cf 05 72 3c ae 72 0b bd
       0.0055625443 0.010711214 0.014771893 -0.034044914
000110 e4 79 70 bb 37 c1 8c bd 48 9c 71 3c 39 22 6b bd
       -0.0036693746 -0.0687279 0.014746733 -0.057405684
000120 15 3b 8c bc 99 d6 07 3d c6 13 33 bd f7 76 1a bd
       -0.017118016 0.03316364 -0.04372003 -0.03771111
000130 e3 fb e0 3b 83 56 26 bd 11 9c 33 bc 8d c0 d5 bb
       0.0068659647 -0.040609848 -0.010962502 -0.006523198
000140 fd 14 9f bc 47 de 8f bd f6 a0 d1 3c c4 9f 9e 3b
       -0.019419188 -0.07024818 0.025589447 0.004840823
000150 ea 37 93 3b 8f 16 53 3b 99 4c d4 bb b6 91 b9 38
       0.0044927495 0.003220949 -0.0064788577 8.848628e-05
000160 ce 00 5a 3d 05 d4 82 bd d2 d5 e0 3c 31 fd e7 bc
       0.053223424 -0.06388096 0.027445707 -0.028318973
000170 9f dc 91 bd c6 4c 63 3c 86 4d a8 3c 0e c2 85 3b
       -0.07122158 0.013873285 0.020544779 0.004081971
000180 99 aa 6b bd 75 ac 18 bc 93 17 32 bd 08 61 56 bd
       -0.05753574 -0.009318461 -0.043479513 -0.05233863
000190 da 5f 1d bd c8 bf aa 3c 1f 5b a4 bb 89 59 19 bb
       -0.03842149 0.020843402 -0.0050157453 -0.0023399314
0001a0 8f 69 8c bd 9f 66 3b bd 1c a5 95 bc 89 02 43 bc
       -0.06856071 -0.045752164 -0.018267207 -0.01190246
0001b0 f0 59 5a bb 25 f3 5f bd 07 91 fc bc 4f 9d 4e bc
       -0.0033317767 -0.05467524 -0.030830873 -0.0126107475
0001c0 bf 2b 44 3c 97 a8 65 bd 5b 69 6f bd 54 7c 43 bd
       0.0119733205 -0.056068983 -0.058450084 -0.04772599
0001d0 62 97 de bd b2 f9 97 bc 38 9a 5a 3b b1 00 a8 bd
       -0.10868718 -0.018551681 0.0033356082 -0.08203257
0001e0 19 69 48 3c 34 86 aa bb 33 54 25 39 3c 58 33 3c
       0.0122320885 -0.0052039865 0.00015766993 0.01094633
0001f0 7a 75 1d bc 57 4d 91 bc 3b 16 6b 3d 58 b3 a2 3c
       -0.009610528 -0.017737074 0.057394248 0.019860908

network_body._body_endoder.seq_layers.2.weight f4 [128, 128]
000000 00 c3 12 3e 57 d0 fd 3d 94 f5 c2 bd 4c c3 ae 3c
       0.14332199 0.12393253 -0.095194966 0.02133336
000010 76 9c 4a 3d 95 f3 3e 3d 02 07 e5 bc 65 10 33 3d
       0.04946562 0.046619017 -0.027957443 0.043716807
000020 12 6d 93 bc 4c 71 52 3c ce 96 10 3e dd 50 ca bc
       -0.017996345 0.012844395 0.14120027 -0.024696762
000030 78 92 c9 3b 02 4e c2 bd b9 3a f2 bd 97 e7 b7 bb
       0.0061514936 -0.09487535 -0.11827607 -0.0056123245
000040 56 9e b3 3d 9d 5c 6a 3d 85 33 19 be ca dc 8f 3d
       0.087704346 0.05721723 -0.1496106 0.07024534
000050 dc ad 09 bc cf 0d d8 bc da 43 47 bd 96 62 0f be
       -0.008403268 -0.026373772 -0.048648693 -0.14002451
000060 1f 5f a8 3d c0 b4 59 3c 70 26 14 3d 16 66 d8 3d
       0.08221268 0.013287723 0.03616947 0.10566346
000070 0a 31 82 3d 60 15 84 3d 18 22 1f bc ca aa 24 bd
       0.0635701 0.064493895 -0.009712718 -0.04020194
000080 59 38 9e bd 5e 87 09 3d d2 71 c0 bd 5a 47 08 3d
       -0.07725591 0.03357636 -0.093967095 0.03327117
000090 3f 8d 98 3e b7 01 00 be d5 46 9c 3c 10 c4 63 bd
       0.29795262 -0.12500654 0.019076744 -0.0556069
0000a0 11 50 cb 3d e3 39 0e 3c 5e 2c 67 3d f2 12 87 bd
       0.09927381 0.008680793 0.056438796 -0.065954104
0000b0 ee 2d 19 3e 19 3d 83 3d 67 50 67 3c 5e 3d d0 bd
       0.14958927 0.06408138 0.0141182905 -0.10167955
0000c0 9f cc bd bd d7 c5 2a be 8d b4 38 bd 00 45 99 bd
       -0.09267544 -0.16677032 -0.04509406 -0.07483864
0000d0 14 34 36 bd c8 82 ee bd cd c2 c8 3c 01 68 0c 3e
       -0.04448326 -0.11646038 0.02450695 0.1371155
0000e0 52 48 16 bd 78 2e 2f 3d 08 da 4a 3b 89 42 f3 bd
       -0.036690064 0.042768925 0.003095271 -0.11877925
0000f0 99 8c 91 bd b7 41 94 3d ba 3e 1c be f2 0b 45 3e
       -0.07106895 0.072390966 -0.15258303 0.19242838
000100 6d 4d 56 be 53 7d ac 3d df 31 86 3c b6 60 23 be
       -0.20927973 0.08422341 0.016381202 -0.15954861
000110 18 42 34 3d 6b 53 06 3e 97 61 af 3d 0c d8 24 be
       0.044008344 0.13117759 0.08563536 -0.1609804
000120 d3 8e 47 3d b2 ce 3d 3d 56 72 f6 3d 66 d1 81 3c
       0.048720192 0.046339698 0.120335266 0.01584692
000130 a5 63 68 3e cc 64 61 3c e8 74 f9 3d fa 80 c9 bd
       0.22694261 0.013756942 0.12180501 -0.098390535
000140 5f 3a dc 3d c0 99 2d 3d 26 09 94 bd 63 c9 90 bd
       0.10753321 0.042382956 -0.072283074 -0.070696615
000150 1e 9d bb 3d 91 25 31 bd ba 52 e9 3c 2a 9e cb bd
       0.09160827 -0.043248717 0.02848183 -0.09942277
000160 a6 8b f0 3d 34 d4 76 3b 28 82 0b 3e bf 1a 6f be
       0.11745386 0.0037663104 0.1362387 -0.23350047
000170 c5 59 32 bd bd f9 5f 3d 46 9a 04 be d1 43 d2 3d
       -0.043542642 0.05468153 -0.12949476 0.10266841
000180 97 5b 2e 3d af be 3a 3d 38 c1 d6 3c 6c 68 5f 3e
       0.042567816 0.045592006 0.02621518 0.21817178
000190 b7 9e 3f bd ef c1 1a 3e ef eb b4 bc a4 26 18 3e
       -0.04678222 0.15113042 -0.022085158 0.1485849
0001a0 d6 5a db bd 84 6e d9 bc 86 bb e3 bd fb a7 86 3d
       -0.10710685 -0.026541956 -0.11119752 0.065750085
0001b0 ef 7c 3d 3d aa e1 73 be a6 d2 7f be 15 61 1c be
       0.046261724 -0.23816553 -0.249827 -0.15271409
0001c0 1f 3f 1b 3e 7d 0d d9 3c 9d bc 7f bc a6 70 82 bd
       0.15160798 0.02649569 -0.015608934 -0.06369142
0001d0 18 2d 5e bc f4 cc a8 bd 44 3b 66 be c7 47 5c 3d
       -0.013560556 -0.08242217 -0.22483546 0.05377939
0001e0 0c f6 79 3e 8c 3c 88 3d cb 10 61 3e 7f 4d 99 bd
       0.24410266 0.066521734 0.21979062 -0.07485484
0001f0 34 9d 0b be 30 45 ac 3d 1e 0a 16 3d a6 42 ef 3c
       -0.13634187 0.08411634 0.036630742 0.029206585
000200 4a 66 a3 bc f4 95 90 bd b0 17 ea 3d 34 61 58 3e
       -0.019946236 -0.07059851 0.11430299 0.2113083
000210 d6 dd a7 bd 9d d3 48 3e 30 61 be bb a9 a5 d8 3b
       -0.08196609 0.19611974 -0.0058099255 0.006611545
000220 1e 8d 65 bc c3 eb 8c 3b 06 4a e7 bd 43 12 b0 bd
       -0.014010696 0.004300566 -0.11293416 -0.08597233
000230 e2 ed 60 3d c9 d5 e9 bd 96 b3 f7 bd 37 86 bb bd
       0.054914363 -0.114177294 -0.120948 -0.09156459
000240 b6 fb eb 3d 6b 44 0f 3d 65 15 d4 bb 2c 7b 45 3c
       0.115226194 0.034977358 -0.006472277 0.012053292
000250 cb 75 03 be 01 5d 2e be c8 30 45 be 55 57 d2 bd
       -0.12837903 -0.17027666 -0.1925689 -0.102705635
000260 6d 8b ff bd c3 2b e9 bc a7 31 ad bd 81 79 dd bd
       -0.12477765 -0.02846325 -0.08456736 -0.10814191
000270 54 dd 29 bd 43 76 0c be 6b a5 aa be 8d ce 61 bd
       -0.04147084 -0.13716988 -0.3332933 -0.055128623
000280 a1 ff 9c bd a9 5a 58 be 02 66 69 3e 49 7c 22 3d
       -0.07665945 -0.21128334 0.22792819 0.03966931
000290 39 3b 77 bd 41 b3 26 bc 1f 42 a2 bd 19 b4 30 be
       -0.060359214 -0.010174573 -0.07922768 -0.17256202
0002a0 98 15 b5 3d ef a0 e4 bc a9 11 2b 3d c8 c9 70 3e
       0.08842009 -0.02790877 0.04176489 0.23514473
0002b0 bf 5b 10 3e 1b 4d 65 bd b8 aa 2e bc a3 98 d3 bd
       0.14097498 -0.055981737 -0.01066082 -0.103318475
0002c0 22 5e 17 bd 23 47 4e be 92 2d b6 3c fc fd fb bc
       -0.036955006 -0.20144324 0.022238526 -0.030760758
0002d0 38 91 94 be 43 53 19 bd cc e3 77 be d6 11 5d 3e
       -0.29017043 -0.03743292 -0.24207991 0.21588835
0002e0 0d 05 0a be 30 4d 06 3d 74 81 cb 3d bf 4a 61 3e
       -0.13478489 0.032788455 0.099368006 0.2200117
0002f0 ae 3a b2 3d 5c 07 83 be da 0c 55 bd 94 73 93 3c
       0.087025985 -0.25591552 -0.05201421 0.017999448
000300 79 14 9c be 77 b2 44 3e f4 c2 cd 3d 12 6f 0c 3d
       -0.3048437 0.19208704 0.1004695 0.034285612
000310 27 42 74 be 6f 64 c4 3d a1 c4 a3 3c 49 aa 03 be
       -0.2385336 0.09589469 0.01999122 -0.12857927
000320 30 b1 4b 3e ad 55 73 bc 7e 51 00 be 79 9f d5 3c
       0.1989181 -0.01485197 -0.12531087 0.026077019
000330 d1 f8 0a be c2 e4 76 3d 49 05 ae 3d 13 cb 74 be
       -0.13571478 0.060276754 0.08497102 -0.23905592
000340 c4 da 24 3d 2c 91 10 3e 20 98 01 be e9 75 73 be
       0.040247694 0.14117879 -0.12655687 -0.23775448
000350 e2 24 55 3e 38 0e 96 3d eb 25 06 be ab b5 fc 3a
       0.20814851 0.07326931 -0.13100402 0.0019280215
000360 94 a7 41 3d c8 3e b0 bd 14 45 e7 3d 2a 65 f1 bd
       0.047278956 -0.086057246 0.112924725 -0.11786874
000370 3d d1 b0 bc e2 df 22 be 27 83 d2 bd bb 21 8b 3d
       -0.021584148 -0.15905717 -0.102789216 0.06793543
000380 f6 a0 93 bd a3 7c 53 be b7 ae bc bd a4 28 2d bc
       -0.07208435 -0.20653014 -0.09213012 -0.0105687715
000390 34 ed 4b be 79 81 7e bd b6 95 34 be 5c a6 18 3e
       -0.19914705 -0.062135193 -0.17635235 0.14907211
0003a0 c5 6a a4 3d 19 be a4 be 9f 41 43 bd 62 7b 42 bd
       0.08028177 -0.32176283 -0.047670003 -0.04748095
0003b0 ed 99 15 3c 3b ba f0 3a e7 ca 0b be 7a 0f 9a be
       0.009130937 0.0018366048 -0.1365162 -0.30089933
0003c0 37 a4 59 bd 52 d1 2d bd 47 e6 2a bd c0 dc c0 bd
       -0.053135123 -0.04243595 -0.041723516 -0.09417105
0003d0 0c da 1b 3d 94 4e 07 bd bf f3 ca bd 43 80 42 be
       0.038049743 -0.033033922 -0.09909772 -0.1899424
0003e0 e2 79 04 3e 41 34 d8 bd e1 2e af 3c 20 15 ab bd
       0.1293712 -0.10556842 0.021384658 -0.08353639
0003f0 d0 a0 2b be 7b 33 f7 3b 8b 9a 31 be cf 78 97 bc
       -0.16760564 0.0075439787 -0.1734411 -0.018490223

network_body._body_endoder.seq_layers.4.bias f4 [128]
000000 33 87 90 bc 5e 12 bb 3c c2 29 3d bd b0 a0 60 bc
       -0.017642593 0.022835907 -0.0461824 -0.013710186
000010 56 af e7 bc 8c 10 09 bd cd 4b 7a bd b0 2d 11 bd
       -0.028281849 -0.033463046 -0.061107446 -0.03544396
000020 a0 0f b7 3b 96 f9 cd bc e1 f9 26 bc 4d 32 b3 3b
       0.0055865794 -0.025143426 -0.010191412 0.005468643
000030 f4 be 6c bd 9e d9 8e bc 4f 0f 6c bd 27 3d fc 3b
       -0.057799295 -0.017437752 -0.057631787 0.0076977196
000040 1a 76 26 bd d5 2b 78 bd d9 77 35 bd 28 8b de 3a
       -0.040639974 -0.060588676 -0.04430375 0.0016978728
000050 d2 1e 4e bd 0f 94 34 bb 75 88 81 3b f5 a4 be bc
       -0.05032236 -0.002755407 0.0039530345 -0.023272017
000060 74 09 19 bd d2 68 55 bd c3 c5 9b bc ea 79 88 bc
       -0.03736253 -0.052101918 -0.019015199 -0.016659696
000070 5d 1b 84 bb 3e 5a 0e bd e4 11 1e 3c ac 45 79 bc
       -0.0040315823 -0.03475403 0.00964782 -0.015214365
000080 22 72 cd bc 09 1d 8e bd fb 54 a4 3c 5e db 3b bd
       -0.025078837 -0.06939132 0.020060053 -0.0458635
000090 45 d3 b3 b9 15 7e bc bb 08 15 68 3c c6 5f 53 bb
       -0.0003429895 -0.005752335 0.0141651705 -0.003225313
0000a0 9a 29 89 bb 6c 65 33 bc 17 57 99 bb 74 3d 3b bd
       -0.0041858675 -0.010949474 -0.0046795714 -0.045712903
0000b0 c1 9f d6 3b ac 7b 70 bd a9 f4 b3 bc 21 3e ad bc
       0.006549806 -0.058711693 -0.021967249 -0.02114779
0000c0 45 58 df bc 56 e1 83 bd 19 43 31 bd 0a 34 71 bc
       -0.02726377 -0.06439464 -0.04327688 -0.01472188
0000d0 56 6e f8 bb ac fa 9b bd 04 d6 b7 bb c3 34 1a bd
       -0.0075815124 -0.07616171 -0.0056102294 -0.037647974
0000e0 76 54 54 bc ca 30 73 bc 70 60 06 bc 5f 5b 61 bd
       -0.01295959 -0.014843175 -0.008201703 -0.05501878
0000f0 38 52 54 3c f1 d5 f2 bb f2 8f 9e bc 8a 62 54 bd
       0.012959056 -0.0074107577 -0.019355748 -0.051851787
000100 0a a1 8c 3c 1c 71 34 bd 5e a2 e7 bc c1 56 b8 bc
       0.017166633 -0.044053182 -0.028275665 -0.022502305
000110 13 e8 4e bc 61 71 13 bd f6 95 59 bd 35 59 3f 3c
       -0.012628573 -0.0359968 -0.05312153 0.011678983
000120 09 07 dd bc f4 e4 6a bc ca 52 c2 bc ef a4 08 bd
       -0.026980894 -0.014336813 -0.023721118 -0.033360418
000130 b9 4b 87 3b d3 3b f5 bc b2 ab 49 bd 09 de b5 bc
       0.0041289 -0.029935753 -0.049236007 -0.022200601
000140 24 5d 83 bc 55 0a 5d bd 5e 60 be bb 5a 9b 29 bd
       -0.016035624 -0.05396493 -0.0058098277 -0.04140792
000150 f4 b5 cb bb 05 ac 0c 3c 1b 67 4f bc 80 70 22 bd
       -0.006216759 0.0085859345 -0.01265886 -0.03965807
000160 4b 4e b6 3a 4b 1a 07 bd 9e 6b 04 bc bd 79 4f 3c
       0.0013908831 -0.03298406 -0.008082299 0.012663302
000170 99 1a 92 bc 67 53 13 bd c6 66 a0 bd 13 33 fe bc
       -0.017834948 -0.03596821 -0.078321025 -0.031030213
000180 ce 88 a2 bc ff bf 6c 3c 06 33 3d bd c7 da 49 bd
       -0.019840624 0.014450072 -0.046191238 -0.049280908
000190 78 68 cd bc 77 14 b2 bb 59 71 cf bc 42 9d b6 bc
       -0.025074229 -0.0054345685 -0.025322603 -0.022291783
0001a0 46 8c 19 bd 7a 88 d1 bc 30 08 b1 bb f8 a4 2d bd
       -0.03748729 -0.025577772 -0.0054025874 -0.042393655
0001b0 14 6b 33 bd 1a 08 16 3d 49 1d c1 bc 42 aa 4e bd
       -0.04380329 0.03662882 -0.023573535 -0.05045534
0001c0 77 7b 1b bd a4 81 a8 bc 36 d3 eb bc 80 4a 62 bd
       -0.037959542 -0.02056963 -0.028787237 -0.05524683
0001d0 80 1f fe 39 22 8a f7 3b 3c 1f 03 bc 4c d2 a5 bc
       0.00048470125 0.0075543085 -0.008003052 -0.020241879
0001e0 2a 75 20 3c 96 c3 c5 bc da c5 dc 3a 4c a2 0b 3c
       0.009793559 -0.024141114 0.0016843632 0.008522581
0001f0 7f 34 58 bd 35 79 8e bc 20 31 0b bc 53 82 3a bd
       -0.05278444 -0.01739178 -0.008495599 -0.045534443

network_body._body_endoder.seq_layers.4.weight f4 [128, 128]
000000 2c 30 3e bb f5 3b 88 3b 10 ba 17 be 12 b1 15 3e
       -0.0029020412 0.004157538 -0.14817071 0.14618328
000010 17 04 c2 3d d6 77 bd 3c 59 67 32 be 64 de 5a 3b
       0.09473436 0.023128431 -0.17422237 0.0033396715
000020 a1 27 38 bc 23 7d ce bd 92 2d da 3d be de 3f bd
       -0.011239917 -0.10082462 0.10653223 -0.046843283
000030 42 75 2c bd bb ce e5 3d 10 5a 61 bd 13 17 b4 3b
       -0.042104013 0.11221071 -0.05501753 0.0054959147
000040 1c 31 e2 3b 8e dd 27 be d3 37 27 3d 44 c6 03 3d
       0.006902827 -0.1639311 0.040824722 0.032171503
000050 a3 16 9a bd a4 21 c0 bc a5 0d 3e bd 7d 66 6f bd
       -0.07523849 -0.023453541 -0.04639973 -0.05844735
000060 24 d3 60 bd 83 08 ad bd ef 0c e4 3d e2 ea 05 be
       -0.05488886 -0.08448889 0.111352794 -0.13077882
000070 b1 7d a1 3d 80 25 00 3c 99 36 20 3d aa 51 30 3e
       0.07885302 0.007821441 0.03911457 0.17218652
000080 13 b3 f3 bd 23 98 57 bd 81 75 30 be e1 a1 04 3e
       -0.1189939 -0.052635323 -0.17232324 0.12952377
000090 80 4b b1 bc d3 3f 9d ba 34 2a 2c 3d 69 4e d3 3d
       -0.021642447 -0.001199717 0.042032436 0.1031769
0000a0 83 76 95 3d 35 a1 cb bd fe 90 0f bd 18 4f 04 3e
       0.07297995 -0.09942857 -0.035050385 0.12920797
0000b0 36 e3 3c 3d 98 c0 82 bb f7 5d d0 bd 24 20 8d bc
       0.046115123 -0.003990244 -0.10174172 -0.01722724
0000c0 32 cb 26 3d ee 8a cf bd f8 7e 36 bd be 40 0b 3e
       0.040721126 -0.101339206 -0.04455468 0.13598916
0000d0 bd 88 59 3c 63 ed 86 bd a3 46 f0 bc 2c d1 cb 3c
       0.01327723 -0.06588247 -0.029330557 0.024880014
0000e0 12 6a 5b bd 57 dc 9f bd f6 e4 f6 bd 70 4b 97 3d
       -0.053567953 -0.07805698 -0.120553896 0.073874354
0000f0 bc 0e cc 3d 77 e7 e8 bc 72 2f 02 3d b7 b6 c0 bd
       0.09963748 -0.028430684 0.03178353 -0.0940985
000100 8f 3b 96 bd 09 1b b4 bd 7f bb 5d 3d ac b3 b8 bc
       -0.07335579 -0.08794219 0.05413389 -0.022546612
000110 a4 d0 00 3d 30 a2 21 3d d4 7e 40 bd 91 96 8f bd
       0.031448975 0.039461315 -0.046995953 -0.0701114
000120 9f aa c7 3d 6b ad 8a 3d 28 41 f7 3d 6a 16 dc bb
       0.0974934 0.06771358 0.120729744 -0.006716539
000130 3c 86 07 bd f1 c2 82 bd c9 7a fd 3d f8 a8 ce 3d
       -0.033087 -0.06384838 0.12376935 0.10090822
000140 00 f8 91 bb b6 0c 0b be 90 91 70 3d af 85 5c 3c
       -0.0044546127 -0.13579068 0.05873257 0.013459607
000150 38 41 9f bd 43 fb 08 be ea cd 51 bc 92 8a 8b bd
       -0.07776111 -0.13377099 -0.012805441 -0.068135396
000160 22 10 4d bd 6f 77 42 3d db f1 a4 3c 7f f4 63 3d
       -0.050064214 0.047477182 0.020134857 0.05565309
000170 60 5b 9e bd a3 b0 6a 3d a3 2b 0d 3e 67 f2 15 bd
       -0.07732272 0.05729736 0.13786177 -0.036608126
000180 1d 34 d1 3d 5a 16 bd 3c 71 15 01 bd d3 2a 08 bd
       0.10215018 0.023081947 -0.03151459 -0.033243965
000190 e7 cb 48 bd 6a 8b 25 bd 9a 3e df 3c 35 d0 c4 bd
       -0.04902258 -0.04041616 0.02725153 -0.09610025
0001a0 76 c6 c2 3d 79 ff dd bd 4d e0 8b 3c 2f ee a2 3d
       0.0951051 -0.10839743 0.017074728 0.07955586
0001b0 d6 ea 3c bd 9f 44 4f bd a4 1c 14 bd cc aa 0a 3e
       -0.046122395 -0.05060255 -0.036160126 0.13541716
0001c0 7a 56 0d be d7 8e 3a 3e c0 fd 90 3c 27 c1 92 bd
       -0.1380252 0.18218552 0.017699122 -0.07165747
0001d0 7a c3 ff 3d ae e8 58 bd 11 cb fd 3d 84 b6 e0 bb
       0.12488456 -0.052956276 0.123922475 -0.006857695
0001e0 af 74 12 3d 37 8c 06 be 64 9c b1 3d 3d 0b a6 3c
       0.03575581 -0.13139425 0.08672407 0.02026903
0001f0 33 a5 85 bd cb 0f c0 3c 83 de 10 be 05 d3 96 bd
       -0.0652565 0.02344503 -0.14147381 -0.073644675
000200 aa b4 bc 3d cc 33 e0 bb 9a 9c 5c be 5d 4a 06 3d
       0.092141464 -0.006842112 -0.21544114 0.032785762
000210 94 01 2c bd 43 eb d7 3d 29 38 d1 3d 6e 0f c3 bd
       -0.041993693 0.105429195 0.1021579 -0.09524427
000220 ac 53 02 3d f5 9c 1d bd b0 70 c9 bc 48 a0 fc bd
       0.031818077 -0.038479764 -0.024589866 -0.12335259
000230 b6 bd bf bd 22 9f 86 bd d5 0f 69 bd 21 e0 a8 bd
       -0.09362356 -0.06573321 -0.056899864 -0.08245874
000240 98 61 6b bc c3 27 02 3e 2f 60 a7 3d b4 65 1d 3e
       -0.01436653 0.1271048 0.081726424 0.15370828
000250 46 f1 6c bd 49 40 1f 3b c9 b0 30 3c 34 91 44 bd
       -0.057847284 0.0024299792 0.010784336 -0.04799004
000260 f8 77 9d 3c 3d 8c 85 bd ab 1b 79 3d 30 1e 8f 3c
       0.019222245 -0.06520889 0.0608174 0.01747045
000270 47 a3 5c 3d c2 d8 61 bc 57 df 80 bd 4b 4a ca bd
       0.05386665 -0.013784589 -0.06292599 -0.098774515
000280 e8 d5 05 3d a5 46 28 bd ee b8 9c 3b a9 f0 0c 3e
       0.0326747 -0.041082997 0.0047827875 0.1376368
000290 47 a6 52 be b5 8c aa 3d 3c 17 84 bd 99 d2 de bd
       -0.20571242 0.08327619 -0.06449744 -0.10880012
0002a0 9d 9f 3d bd d2 d9 05 be c8 cc 36 bc c9 fb d5 bd
       -0.046294797 -0.13071373 -0.011157222 -0.10448415
0002b0 be 71 4d 3e 98 e5 0e 3d a4 e5 82 be 37 7c 13 bc
       0.2006292 0.034886926 -0.25565827 -0.009001783
0002c0 dd e7 d5 bd c4 1d 2c bd 7b 38 a0 3d a1 2e cc 3b
       -0.10444615 -0.042020574 0.07823273 0.0062311445
0002d0 8c 58 d4 3d 21 51 88 bd f7 99 30 bc 55 d6 f3 3c
       0.103684515 -0.06656099 -0.010778896 0.029765287
0002e0 46 e0 d9 3d ec e2 f7 3c d8 4f ba bd 34 ec 70 3d
       0.1063848 0.030259572 -0.0909726 0.05881901
0002f0 85 42 cb bc be df 3e 3e b0 a0 ea 3d ed a0 67 bb
       -0.024811992 0.18640038 0.1145643 -0.0035343722
000300 74 c8 ab ba 4f b7 f1 bd 1d 55 5c 3d 93 8a 4f 3d
       -0.0013106004 -0.118025415 0.053792108 0.050669264
000310 45 13 15 3e be b4 fc 3c 7d 8e 00 bd 41 5b 04 bb
       0.14558132 0.030847903 -0.031385887 -0.0020195993
000320 e8 e9 f0 3c a1 01 25 bb 59 b6 89 be 12 2d 13 be
       0.02940841 -0.0025177973 -0.26896933 -0.14372662
000330 22 ae 6d bd 71 5c 9a 3d b4 c7 9e 3d 95 9b 61 3d
       -0.058027394 0.07537163 0.07752934 0.055080015
000340 ab 25 e7 bd fe c2 6f bb 1c 00 e4 3d 1b 88 a4 3b
       -0.112864815 -0.003658473 0.11132833 0.005021108
000350 56 0a df bc a7 5a d1 3d 7a 3d 7b 3d 01 32 85 3c
       -0.027226608 0.10222369 0.061337925 0.016259195
000360 64 30 85 3c 70 53 5f 3d e9 95 58 bd 59 37 59 3d
       0.016258426 0.05452293 -0.05287734 0.0530313
000370 7e 14 8c bd e1 a1 ba 3d c7 18 f5 3d 56 24 01 3e
       -0.06839846 0.09112907 0.119676165 0.12611517
000380 d4 e1 5e bc bb 1e 8c 3d 10 ef 09 bd 6d b4 c2 3c
       -0.013603646 0.06841799 -0.033675253 0.023767674
000390 83 d0 7e bd 8d 9a 2f be 13 78 6b bd 34 81 15 be
       -0.06221057 -0.171488 -0.05748756 -0.14600068
0003a0 8c 11 12 3d c7 0a 06 3d 7d ed 26 be be 66 f5 bd
       0.035661265 0.03272512 -0.16301532 -0.11982487
0003b0 0f 41 4b be 1e 6b 02 bc 3d 37 5e b9 8f 9d 3e bd
       -0.19849037 -0.007960109 -0.00021192148 -0.04653698
0003c0 81 a4 b9 3d 7c 3e a9 3d 6b 97 85 bd aa 11 e4 bc
       0.0906458 0.08263871 -0.06523021 -0.027840454
0003d0 08 3a a6 3c b7 3f b3 3d c5 79 9e bd 89 de 3b 3d
       0.020291343 0.08752387 -0.077380694 0.045866523
0003e0 89 30 86 bd be b3 c2 bd 38 45 00 3d 9c 9b 98 bd
       -0.06552226 -0.09506939 0.031316012 -0.07451555
0003f0 e6 d8 45 be 70 df 5d bd 24 85 cf bc 56 a5 d9 bc
       -0.19321021 -0.054168165 -0.025332041 -0.026568096
