Maize-Runner/results/TestReward/EscapeMaze.onnx (onnx, 105780 bytes, 7 tensors)

action_model._continuous_distribution.log_sigma f4 [1, 2]
0	0xbcb83c6f	-0.022489754
1	0x3bb0c822	0.0053949514

action_model._continuous_distribution.mu.bias f4 [2]
0	0xbc802d33	-0.015646553
1	0x3b662b1d	0.0035120912

action_model._continuous_distribution.mu.weight f4 [2, 128]
0	0xbb047b13	-0.002021496
1	0x3c98309a	0.018577863
2	0x3c017da1	0.007903487
3	0x3cde17bc	0.027110927
4	0x3ca8101a	0.02051549
5	0x3cb5a8b5	0.022175172
6	0x3c903e62	0.017607871
7	0x39c9a5d2	0.00038461253
8	0xbca5d164	-0.020241447
9	0x3c8baaa5	0.017049143
10	0x3a94d6a8	0.0011355476
11	0x3cde76f6	0.027156334
12	0xbc015782	-0.007894399
13	0x3cf6d800	0.030132294
14	0xbb634653	-0.0034679368
15	0x37a4fae4	1.9667154e-05
16	0x3d107677	0.035269227
17	0xbca4e5f5	-0.020129183
18	0x3c4c8796	0.012483498
19	0xbbb74d10	-0.0055939034
20	0xbc8d7b7b	-0.017270794
21	0x3d55eea4	0.05222954
22	0xbb2e1b0b	-0.0026566412
23	0xbca727ca	-0.020404715
24	0x3ccfa033	0.025344944
25	0x3cf485d8	0.029848978
26	0x3cbea48a	0.023271818
27	0x3cd31bf2	0.025770161
28	0xbd534aa4	-0.051584855
29	0x3c081737	0.008306316
30	0x3c5c1e86	0.013435012
31	0xbc76ef15	-0.01507165
32	0x39100e9c	0.00013738353
33	0xbc9305a8	-0.017947033
34	0xbb2388a5	-0.0024953273
35	0xbc81cf35	-0.015845874
36	0x3cbbd6d4	0.022929586
37	0xbd1cfe46	-0.03832843
38	0x39d74d3b	0.00041065537
39	0x3c352bb6	0.011057785
40	0xbc380471	-0.011231528
41	0xbc529a1d	-0.012854126
42	0xbd156c75	-0.036480386
43	0xbb1b517c	-0.0023699692
44	0xbc682b51	-0.014170484
45	0x3c646a23	0.013941321
46	0x3d1f3baa	0.03887526
47	0x3d82ed79	0.063929506
48	0xb97ffe41	-0.00024413412
49	0xbcf1a245	-0.029496321
50	0x3d2da0f3	0.04238982
51	0x3c8571d1	0.016289623
52	0xbb0f4d53	-0.0021866157
53	0x3bce8bf3	0.0063033043
54	0x3c691eb7	0.014228514
55	0x3cab861a	0.020937968
56	0x3c9b3a3a	0.018948663
57	0x3b11d770	0.0022253655
58	0xbc95b0ed	-0.018272841
59	0xbbf51430	-0.007479213
60	0xbcc2d4a9	-0.023783045
61	0x3cbfc734	0.023410417
62	0xbd2f33fa	-0.042774178
63	0xbc268489	-0.010163435
64	0x3c9e4619	0.019320535
65	0xbca9c18e	-0.020722177
66	0xbc41583a	-0.01180082
67	0xbcee0898	-0.029056832
68	0xbd065526	-0.032796048
69	0xbb291934	-0.0025802376
70	0xbb4135be	-0.0029481496
71	0x3c453426	0.012036359
72	0xbb5f84cc	-0.0034106253
73	0xbb5d3640	-0.003375426
74	0x3c3c4e97	0.011493347
75	0x3d385ad1	0.045008484
76	0x3d2864ae	0.04111164
77	0x3c088030	0.0083313435
78	0x3b64ad32	0.0034893272
79	0xbcee8b42	-0.029119138
80	0xbbbc0752	-0.0057381773
81	0xbb359500	-0.002770722
82	0xbc6385bd	-0.013886866
83	0xbcd4cf6b	-0.02597781
84	0xba751864	-0.0009349643
85	0x3b9677e8	0.0045919307
86	0x3c6e3e30	0.014541194
87	0xbd5e7a65	-0.054315943
88	0x3c103f5d	0.0088041695
89	0xbc4ac0aa	-0.012375036
90	0xbc428b94	-0.011874098
91	0x3bb423fa	0.005497453
92	0xbccff99f	-0.025387583
93	0xbcd30fc2	-0.02576435
94	0x3bbc568e	0.005747623
95	0xbc164320	-0.009171277
96	0x3c08c33b	0.008347328
97	0xbb3744c3	-0.002796457
98	0xbc312a2a	-0.010813275
99	0xbc22978e	-0.009923829
100	0x3c9fcef4	0.019507863
101	0xbb85b791	-0.0040807207
102	0x3be23e55	0.006904403
103	0x3c242435	0.010018398
104	0x3c22a687	0.0099273985
105	0x3b9a58ab	0.004710277
106	0x3c913276	0.017724257
107	0xbbf6b8fa	-0.007529375
108	0xbc97c61e	-0.018527087
109	0x3d0faaad	0.03507488
110	0x3cce205d	0.025161916
111	0xbbd225d8	-0.0064132027
112	0x3cdb87c6	0.02679814
113	0xbcbf7543	-0.023371344
114	0x3b37d855	0.0028052528
115	0x3c6a6999	0.014307403
116	0xbc711881	-0.014715315
117	0xbcd373ba	-0.025812019
118	0xbc046613	-0.008080977
119	0xbc8585c3	-0.016299134
120	0x3c51399e	0.012770085
121	0xbb3aae06	-0.0028485074
122	0x3d16a227	0.036775734
123	0x3bb8384d	0.005621946
124	0xba800718	-0.0009767739
125	0xbc49b52b	-0.01231126
126	0x3b8495a1	0.0040461575
127	0xbc257c01	-0.010100366
128	0x3bafd2cc	0.005365705
129	0xbbd4a1cd	-0.0064890147
130	0x3ced3f58	0.028960869
131	0x3c33b204	0.010967735
132	0xbc06e1fb	-0.008232589
133	0x3bd226a5	0.006413298
134	0x3bf33d53	0.007423082
135	0x3b826b81	0.0039801006
136	0x3c9fcc93	0.019506728
137	0x3c405a33	0.011740255
138	0x3d051e1a	0.03249941
139	0x3c2bbf3d	0.0104826065
140	0xbc3c153d	-0.011479673
141	0x3ce1b2e4	0.027551122
142	0xbce5322f	-0.027978031
143	0x3ca16803	0.019702917
144	0x3a950f4d	0.0011372358
145	0xbc5e7a99	-0.013579034
146	0x3c2650ec	0.010151129
147	0x3c718d10	0.014743105
148	0x3d28a7d6	0.041175686
149	0xbcd6e08d	-0.026230121
150	0xbb13c742	-0.0022549187
151	0xbcb9a6f4	-0.022662617
152	0xbd1c752c	-0.03819768
153	0x3cb50fe9	0.022102313
154	0x3c2e36f9	0.010633224
155	0xbb9c190b	-0.0047637275
156	0xbc92be73	-0.017913079
157	0x3d53a701	0.05167294
158	0xbc336a38	-0.0109506175
159	0xbc46ba3e	-0.012129365
160	0xbc7d215d	-0.015449849
161	0xbc2232b7	-0.009899787
162	0xbd800663	-0.06251218
163	0x3b8cab1b	0.0042928583
164	0x3c269bce	0.010168983
165	0xbc74ca32	-0.014940785
166	0xbc26c72c	-0.010179322
167	0x3c62a9e4	0.01383445
168	0x3c8ac34f	0.016938834
169	0x3cee26c9	0.029071229
170	0xbbb283bc	-0.005447833
171	0xbce3c03f	-0.027801631
172	0x3b68ccfa	0.0035522566
173	0x3bbc80db	0.0057526655
174	0xbbe259fc	-0.0069076996
175	0xbcae8280	-0.021302462
176	0x3c55487e	0.013017772
177	0x3ca2c9c1	0.019871594
178	0x3cf37e4e	0.029723313
179	0xbc48f7c2	-0.012266101
180	0xbc061b91	-0.008185283
181	0x3c096838	0.008386664
182	0xbc9baa98	-0.019002244
183	0x3b99abdc	0.0046896767
184	0x3ba000d7	0.0048829126
185	0x3c37b7fc	0.011213299
186	0xbc815972	-0.015789721
187	0xbd073bac	-0.033015892
188	0x3b50510f	0.0031786596
189	0xbc4cb92c	-0.01249532
190	0xbbb81671	-0.0056179096
191	0xbcb014ae	-0.021494236
192	0x3bcf0bb9	0.006318536
193	0x3bc8915a	0.006120843
194	0xbc82536d	-0.015908921
195	0x3c288baf	0.010287209
196	0xbce81a5e	-0.028332885
197	0xbca3076f	-0.019901006
198	0xbbf7dbee	-0.0075640595
199	0x3c31edf0	0.010859951
200	0x3caadf09	0.020858305
201	0x3bb59dc7	0.00554249
202	0x3cfa3c2f	0.030546276
203	0xbd0576d4	-0.032584026
204	0xbc4f8522	-0.012666019
205	0x3b889744	0.004168423
206	0x3c13293e	0.008982001
207	0x3c150143	0.009094539
208	0xb9883c5f	-0.0002598492
209	0x3c8172ec	0.01580187
210	0xbd044274	-0.032289937
211	0xbc5863f6	-0.013207426
212	0x3cc9f628	0.02465351
213	0x3c928e61	0.017890157
214	0xb9bfabf4	-0.00036558474
215	0x3c7fc7e8	0.015611626
216	0x3c3b61f1	0.011436925
217	0xbbc6c93a	-0.0060664685
218	0x3b831a93	0.0040009706
219	0x3c5b675a	0.01339134
220	0xbc3528d3	-0.0110570965
221	0x3b9095dd	0.0044123963
222	0x3b3b9100	0.0028620362
223	0xbc028a9c	-0.007967617
224	0xbbc62079	-0.0060463515
225	0x3cce44ef	0.025179354
226	0xbc4d4c45	-0.012530391
227	0xbc1c8ede	-0.009555547
228	0xbc2128b4	-0.009836365
229	0x3c80acbe	0.01570737
230	0x3c5d903e	0.01352316
231	0x3b26d2ba	0.0025455193
232	0xbbf497df	-0.0074643935
233	0xbbeaf6ce	-0.0071705347
234	0xbbfd4f61	-0.00773041
235	0x3cbc6e4c	0.023001812
236	0xbc0a07c3	-0.008424702
237	0xbd282fac	-0.04106109
238	0xbd079067	-0.033096697
239	0x3cb82de7	0.022482825
240	0xbb8272cd	-0.0039809705
241	0xbcc612d9	-0.02417891
242	0x3bb8fa04	0.0056450386
243	0x3c19b8b4	0.009382416
244	0x3c67fc9e	0.01415935
245	0x3c16497b	0.009172793
246	0xbba4f7d1	-0.005034425
247	0x3c90529c	0.017617516
248	0x3b8e0742	0.0043343613
249	0xbc0cb912	-0.008589046
250	0xbcdc0526	-0.026857924
251	0xbc2f1b92	-0.010687726
252	0x3b55b6f1	0.0032610262
253	0x3d820bed	0.06349931
254	0xbd0cdb7c	-0.034389004
255	0x3ca02cb1	0.01955256

network_body._body_endoder.seq_layers.0.bias f4 [128]
0	0x3c79a7f3	0.015237796
1	0x3c08c1db	0.008347
2	0x3c87f721	0.016597332
3	0x3ba0de50	0.004909314
4	0xbbab121d	-0.005220665
5	0xbc483ff9	-0.0122222835
6	0xbb6b4f2f	-0.0035905351
7	0x3c2030be	0.009777246
8	0xbaf77c88	-0.0018881718
9	0x3a3a064e	0.00070962764
10	0x3c618fff	0.0137672415
11	0xbc839462	-0.016061965
12	0xbb68014f	-0.003540117
13	0x3c1e0f49	0.009647199
14	0xbcc44a85	-0.023961315
15	0x3b102c0c	0.002199891
16	0x3b9a473e	0.0047081998
17	0xbca43d29	-0.020048695
18	0xba0341ce	-0.0005007059
19	0xbc3daeac	-0.01157729
20	0xbc5d2007	-0.013496405
21	0x3bd22e18	0.006414186
22	0x3ade6eef	0.0016970317
23	0xbbb1075e	-0.0054024896
24	0x3c9f04d3	0.01941148
25	0x3cb60847	0.022220744
26	0xbcaf9ff6	-0.02143858
27	0xbc8f98f5	-0.01752899
28	0xbad1600c	-0.0015974059
29	0xbc7c3029	-0.015392342
30	0xbc562f7e	-0.013072846
31	0x3d0cb62a	0.034353413
32	0xbc3682c0	-0.011139572
33	0xba96564d	-0.0011469811
34	0xbbc043ba	-0.0058674486
35	0x3b08b6fa	0.0020861016
36	0xbbeb4e6b	-0.007180979
37	0xb9857657	-0.00025455907
38	0xbbfc850d	-0.0077062906
39	0xbc6dbda1	-0.014510543
40	0x3d212318	0.03934011
41	0xbc39b145	-0.011333768
42	0xbcf388e5	-0.029728362
43	0x3cf5f6fd	0.030025
44	0x3c7d8219	0.015472912
45	0x3d22cbf5	0.03974529
46	0x3c223342	0.009899916
47	0x38b07f73	8.416073e-05
48	0xbc6ffc42	-0.014647545
49	0x3d2743fa	0.040836312
50	0x3a85c72c	0.0010206453
51	0x3c279e09	0.01023055
52	0x3c8cc892	0.017185483
53	0xbcce0e35	-0.025153259
54	0xbb8c0afe	-0.0042737713
55	0xbcf7cb4f	-0.030248312
56	0x3c30edd6	0.010798892
57	0xba0010d0	-0.0004885318
58	0xbc8cc441	-0.017183425
59	0xbce1a80f	-0.027545957
60	0xbcc4e8f8	-0.02403687
61	0x3c94e359	0.018174814
62	0x3c319bb2	0.010840343
63	0x3c42a51b	0.0118801845
64	0x3bd970c5	0.0066357576
65	0x3c07219b	0.008247758
66	0xbc737a0b	-0.01486064
67	0xbc9c5038	-0.01908122
68	0xbc947efb	-0.018126955
69	0xbb9f7264	-0.0048659313
70	0xbd0b0566	-0.033940695
71	0x3c6c84d6	0.014435967
72	0x3ca3ee34	0.020011045
73	0x3b75e3b2	0.003751975
74	0xbcbe6e88	-0.023246065
75	0xbc13436a	-0.008988241
76	0xbcc10bff	-0.02356529
77	0x3c65b7da	0.014020884
78	0x3c01c53c	0.0079205595
79	0x3ccfdb5e	0.025373157
80	0xbc19b36d	-0.009381157
81	0xbd05229a	-0.0325037
82	0xbc882676	-0.016619902
83	0xbb874f38	-0.0041293167
84	0x3bcd67fc	0.0062684994
85	0xbc680d77	-0.0141633665
86	0x3a4bac9a	0.0007769555
87	0xbab891b6	-0.0014081511
88	0x3cdf909a	0.027290631
89	0x3ab913d2	0.0014120287
90	0xbd0d701c	-0.034530744
91	0xbd262cad	-0.04056995
92	0x3cea8558	0.028628036
93	0xbb0d4e4c	-0.002156156
94	0xbce8eabc	-0.028432243
95	0xbc9bf2a7	-0.019036604
96	0xbcb038b6	-0.021511417
97	0x3cd05e7a	0.025435675
98	0xbd04e3fe	-0.032443993
99	0xbc86544e	-0.016397621
100	0xbd06b32e	-0.032885723
101	0xba94197d	-0.00112991
102	0x3c0d36f8	0.008619063
103	0x3c4ca8b4	0.012491394
104	0x3c6ef3ed	0.014584524
105	0xbc5bd711	-0.013417975
106	0x3bd6a68d	0.006550616
107	0x3c5e858c	0.013581645
108	0x3c503a5c	0.012709226
109	0xbcc795a2	-0.024363343
110	0xbc0edea5	-0.008720075
111	0x3cbff44e	0.023431923
112	0xbca0b731	-0.019618602
113	0xbbeb7c8c	-0.007186478
114	0xbbb67ef2	-0.0055693323
115	0xbb59e2be	-0.003324672
116	0x3cc29c71	0.023756238
117	0xbcfaea1b	-0.030629208
118	0x3b46528f	0.003026161
119	0xbc460fb3	-0.012088704
120	0xba4193ab	-0.000738437
121	0xbcc587a9	-0.02411254
122	0x3d245f84	0.040130153
123	0xbc807c44	-0.015684254
124	0xbcefcea4	-0.029273339
125	0x3cc27cf4	0.023741223
126	0xbc72a17e	-0.014809011
127	0x3b4ea6ba	0.0031532482

network_body._body_endoder.seq_layers.0.weight f4 [128, 71]
0	0x3d3e26a8	0.046423584
1	0xbd328938	-0.043587893
2	0x3de8ffcb	0.11376914
3	0x3dd76cf6	0.105188295
4	0xbda5f8f4	-0.08104125
5	0x3e812ac3	0.25227937
6	0xbda48cae	-0.08034645
7	0x3df807e1	0.12110878
8	0xbd8002c4	-0.062505275
9	0xbe7eacc4	-0.24870592
10	0x3e072378	0.13197124
11	0xbb46277a	-0.0030235932
12	0xbd92d376	-0.07169239
13	0x3dac148a	0.08402355
14	0xbd822fe6	-0.06356792
15	0xbd0e41b8	-0.034730643
16	0x3d85110c	0.06497392
17	0x3df577be	0.1198573
18	0x3c598f7e	0.01327884
19	0x3df7ad72	0.12093629
20	0xbda226bb	-0.079175435
21	0xbe102dd5	-0.14079984
22	0x3d9e79f1	0.07738102
23	0xbdef896c	-0.11696133
24	0x3e156f0d	0.14593144
25	0x3e10033d	0.14063735
26	0xbe1bd685	-0.15218551
27	0xbdff34c3	-0.124612354
28	0x3da1f5fc	0.07908246
29	0xbcf2c8a9	-0.029636698
30	0x3e27396a	0.16330495
31	0xbb83a4ef	-0.0040174644
32	0xbceb6609	-0.028735178
33	0x3db5277b	0.08845421
34	0x3dedd1db	0.116122924
35	0xbe20f1a9	-0.15717186
36	0x3e540bfa	0.20707694
37	0xbda48056	-0.08032291
38	0xbdf572fa	-0.11984821
39	0x3db83add	0.08995602
40	0xbd49a9cc	-0.049234197
41	0xbd92cbb3	-0.07167759
42	0x3b9db481	0.0048127775
43	0x3da6d347	0.08145767
44	0xbdb485cf	-0.088145845
45	0xbd2385a9	-0.03992239
46	0xbbc6448c	-0.006050652
47	0xbaa1fbe2	-0.0012358392
48	0x3da6ab45	0.08138136
49	0x3d20068c	0.039068744
50	0x3d57214e	0.052521996
51	0x3eac83b6	0.33694237
52	0x3df22d7c	0.11825082
53	0xbd23439b	-0.039859395
54	0xbe5c3769	-0.21505512
55	0x3e040d5f	0.12895726
56	0xbe348f42	-0.17632774
57	0x3aa610b9	0.0012669779
58	0xbe3fa83a	-0.18716517
59	0x3d032d84	0.03202583
60	0x3e100d11	0.14067484
61	0x3ea8f2cd	0.32997742
62	0x3c971181	0.018440964
63	0x3dd58ce9	0.10427267
64	0x3dc4630a	0.09589203
65	0xbd0a058b	-0.033696692
66	0x3e09dd13	0.1346324
67	0xbdf350ac	-0.11880621
68	0xbdf58127	-0.119875245
69	0xbd34ab2d	-0.04410856
70	0xbd1fc4e6	-0.039006136
71	0xbb6576c8	-0.0035013426
72	0x3d6e8765	0.05823459
73	0x3e4704e1	0.19435455
74	0x3d7e41dd	0.06207453
75	0xbdc626d9	-0.09675378
76	0x3dda3293	0.106541775
77	0x3e070f07	0.13189326
78	0xbd366145	-0.044526357
79	0x3e1b4754	0.15163928
80	0xbb8735d1	-0.0041262885
81	0x3d452b28	0.04813686
82	0xbdcb8c82	-0.09938909
83	0x3c1981ac	0.009369295
84	0xbd8e2f70	-0.06942642
85	0xbe030c6c	-0.12797707
86	0x3cb50eed	0.022101844
87	0x3d16d6d4	0.03682597
88	0xbdeced67	-0.115687184
89	0xbdb3e1c9	-0.087832995
90	0xbdf1fdf8	-0.11816019
91	0xbdac76a4	-0.084210664
92	0x3e5112fb	0.20417397
93	0xbc91a3d3	-0.017778313
94	0x3dac24b1	0.08405436
95	0xbd229ba2	-0.039699204
96	0xbd4025a3	-0.046910893
97	0xb8d7c346	-0.000102883714
98	0x3d06fec7	0.03295782
99	0x3d5240ca	0.05133132
100	0xbd305b85	-0.04305603
101	0x3e07d203	0.13263707
102	0x3ca39bc4	0.019971736
103	0x3d89a917	0.067217045
104	0x3b931739	0.0044888523
105	0xbde4b281	-0.111668594
106	0x3ddde272	0.10834207
107	0x3e10f97a	0.14157668
108	0xba9803a7	-0.0011597768
109	0xbdaea216	-0.08527009
110	0x3cd0eb16	0.025502723
111	0xbd878a7a	-0.06618209
112	0xbda81ced	-0.08208642
113	0x3d4ee225	0.050508637
114	0x3e87c0f4	0.265144
115	0x3d85f55e	0.06540941
116	0xbe42481f	-0.18972825
117	0x3e4bb0bb	0.19891636
118	0xbd717034	-0.058944896
119	0x3c770d9c	0.015078928
120	0xbe133a22	-0.14377645
121	0x3ea1b83d	0.31585875
122	0xbe0bb7ba	-0.13644305
123	0x3d81d025	0.063385285
124	0x3dbf8675	0.093518175
125	0xbc8ffa8c	-0.017575525
126	0x3dd975ff	0.10618209
127	0xbe2430ff	-0.16034316
128	0x3e60da2b	0.21958224
129	0xbd745118	-0.05964765
130	0x3d5d191f	0.053979035
131	0x3d161f68	0.036651045
132	0x3c820092	0.015869413
133	0x3df1bf99	0.118041225
134	0xbcb16fb5	-0.021659711
135	0xbd939c2f	-0.07207524
136	0xbd02202c	-0.031768963
137	0x3e3ac0da	0.1823763
138	0xbdf32353	-0.11871972
139	0xbc9022c7	-0.017594708
140	0x3cb0db30	0.021588892
141	0x3d67378f	0.05644947
142	0xbd0a1822	-0.03371442
143	0x3c80777d	0.015681976
144	0xbb4ba5b5	-0.003107411
145	0x3cc2d0fd	0.023781294
146	0xbd018b9c	-0.031627283
147	0xbbc2b977	-0.0059425193
148	0xbdb186b1	-0.086682685
149	0xbd0da75e	-0.034583442
150	0xbe163a9c	-0.14670795
151	0xbdcd04bf	-0.10010671
152	0xbd520219	-0.05127153
153	0xbd5d1846	-0.053978227
154	0xbe862149	-0.2619727
155	0xbd1a9a01	-0.037744526
156	0xbde82303	-0.11334803
157	0x37284e7c	1.0031854e-05
158	0x3db3d7f4	0.08781424
159	0x3b2571ae	0.002524476
160	0xbe8032e7	-0.25038835
161	0xbe01c37d	-0.12672229
162	0x3c9935a6	0.01870234
163	0x3c047683	0.008084896
164	0xbe68dcd6	-0.22740492
165	0xbdd5d82b	-0.104416214
166	0x3dbf0d44	0.09328702
167	0x3ed2bed2	0.4116121
168	0x3e19c4de	0.15016505
169	0xbd495a12	-0.049158163
170	0x3ddf6d2a	0.10909493
171	0xbe2653ac	-0.16242856
172	0x3de3bd17	0.111200504
173	0x3dd5efd3	0.104461335
174	0xbdd98037	-0.10620158
175	0x3c20467f	0.009782433
176	0x3e30eb23	0.17277198
177	0xbe7901e7	-0.24317132
178	0x3e08878b	0.13332956
179	0x3d7c83a4	0.06164898
180	0xbdc57a81	-0.096425064
181	0x3c8e5ff9	0.017379748
182	0x3db509c2	0.08839752
183	0xbccbd9ed	-0.024884189
184	0x3e7b4b6b	0.24540488
185	0xbd97814c	-0.07397708
186	0xbd098d6e	-0.033582143
187	0x3d49c134	0.04925652
188	0x3ddbd068	0.1073311
189	0x3d31902d	0.043350387
190	0x3c9a4630	0.018832296
191	0x3d60f1e1	0.054918174
192	0x3ce8dfae	0.028426971
193	0xbe14ae71	-0.14519669
194	0x3e23b32b	0.15986316
195	0x3e397264	0.18110043
196	0xbd62ab96	-0.05533942
197	0x3d601869	0.05471078
198	0x3bbe2a38	0.0058033727
199	0x3c7482e8	0.014923789
200	0x3c8f4366	0.017488193
201	0x3d81c3d3	0.06336179
202	0x3dab8076	0.08374111
203	0x3de92cd8	0.113855064
204	0xbe5c1cd7	-0.21495377
205	0x38f8e601	0.00011868403
206	0xbda5475c	-0.08070251
207	0xbd4fc7c9	-0.05072764
208	0x3da7d221	0.08194376
209	0x3e51c9d0	0.20487142
210	0x3d9f39e6	0.07774715
211	0x3d398679	0.04529426
212	0x3e293506	0.16524133
213	0x3e2040ea	0.15649763
214	0xbe5bcbc1	-0.21464445
215	0xbbe14cca	-0.006875609
216	0xbdcdb4eb	-0.10044273
217	0xbe4da1c1	-0.20081235
218	0x3d79a43e	0.06094765
219	0x3dc4bad8	0.0960595
220	0xb9f3323c	-0.00046386
221	0x3e17e60c	0.1483385
222	0xbd43c279	-0.047792885
223	0x3a6806b1	0.0008851095
224	0x3e0036be	0.12520882
225	0x3e23f760	0.16012335
226	0xbd1d6c8e	-0.038433604
227	0xbdb96050	-0.09051573
228	0xbe112c7f	-0.1417713
229	0x3e2e6f26	0.17034587
230	0x3d0ea257	0.034822788
231	0x3d9163e9	0.070991345
232	0xbe55fea9	-0.20897926
233	0x3c985a87	0.018597854
234	0x3e8b1f3a	0.2717226
235	0x3de2f326	0.11081533
236	0x3cd3ba8b	0.025845787
237	0x3e13675b	0.14394896
238	0x3e3ae1d1	0.18250205
239	0xbd028ece	-0.03187447
240	0xbea251e2	-0.31703097
241	0xbd47703c	-0.04869102
242	0x3d6da754	0.058020905
243	0x3e5a864d	0.21340294
244	0x3d5d3266	0.05400314
245	0x3d1709ac	0.03687446
246	0x3ae861c0	0.0017729327
247	0xbcfbd0cf	-0.030739216
248	0x3e7419b7	0.23837934
249	0x3cf94881	0.03043008
250	0x3df2c1f7	0.11853402
251	0x3de7d274	0.113194376
252	0xbec2b0c7	-0.38025495
253	0x3e7b4313	0.24537306
254	0x3cd699c4	0.026196368
255	0x3be9af90	0.0071315244

network_body._body_endoder.seq_layers.2.bias f4 [128]
0	0xbc8fd1ac	-0.017556034
1	0x3c6b6703	0.014367822
2	0xbc73911b	-0.014866139
3	0xbd027c52	-0.031856842
4	0xbcb21f59	-0.021743463
5	0xbc9da5f1	-0.019244166
6	0xbca3b0be	-0.019981738
7	0x3aede9e0	0.0018151365
8	0x3be1c229	0.006889601
9	0xb9114189	-0.00013852691
10	0x3b47a677	0.003046421
11	0xbba2e93b	-0.004971651
12	0x3be68215	0.00703455
13	0xbc668542	-0.014069857
14	0x3bfdb1a1	0.0077421223
15	0xba9d922a	-0.001202171
16	0xbbf0cd7d	-0.007348715
17	0x3c836a46	0.016041886
18	0xbc87e4ca	-0.016588587
19	0x3c3420f0	0.010994181
20	0x3b3e625d	0.0029050328
21	0xbc6c4502	-0.01442075
22	0xbc2faaa0	-0.0107218325
23	0x3b8097ba	0.003924337
24	0xbc02e376	-0.007988801
25	0xbc0f908c	-0.00876249
26	0x3b48191c	0.0030532544
27	0xbc626cf0	-0.013819918
28	0x3c79310a	0.015209446
29	0xbb177279	-0.0023109003
30	0xbcba37b0	-0.022731632
31	0x3c856744	0.016284592
32	0xbbfa308c	-0.007635182
33	0x3be8327c	0.0070860963
34	0x3aa86a03	0.0012848977
35	0x3ce41b9c	0.027845196
36	0xbb4d0fc5	-0.0031289917
37	0x3b005c3c	0.0019586226
38	0xbba7be26	-0.005119103
39	0x3c7944fc	0.015214201
40	0x3af42725	0.0018627389
41	0xbbf2f55b	-0.0074145026
42	0x3c22f3c3	0.009945813
43	0xbbac9599	-0.005266857
44	0x3ba9a8f2	0.0051776106
45	0xbc8e339a	-0.01735859
46	0xbc9b3d11	-0.018950017
47	0xbc66888b	-0.01407064
48	0x3c48cd16	0.012255928
49	0x3c1a5bb5	0.009421279
50	0xbc38b1ae	-0.011272831
51	0xbc907423	-0.017633503
52	0x3b660229	0.0035096502
53	0xbc076f27	-0.008266247
54	0x3c3327f4	0.010934819
55	0xbc448a5d	-0.011995879
56	0xbc8c101f	-0.01709753
57	0x3b97794a	0.004622613
58	0x3b8dbe13	0.004325637
59	0xbb00365d	-0.0019563653
60	0x3cae7519	0.02129607
61	0x3bbc6bd0	0.005750157
62	0x3c949a3f	0.018139957
63	0x3cdea0cb	0.027176281
64	0xbcb9b710	-0.022670299
65	0x3bcc114c	0.006227648
66	0x3c031846	0.008001393
67	0x3bd8184c	0.0065946933
68	0x3ad71919	0.0016410678
69	0x3c53c4a4	0.012925301
70	0xbaf8b1ec	-0.0018973923
71	0xbc8b24e3	-0.016985362
72	0xbc1a255c	-0.009408321
73	0x3a8fdf09	0.0010976504
74	0x3b89d412	0.004206189
75	0xbc8ad52b	-0.01694735
76	0xbbcd4624	-0.006264465
77	0xbc9c072c	-0.019046389
78	0xbc5666c1	-0.013086022
79	0x3c81bd1f	0.01583725
80	0x3c07a037	0.008277944
81	0xbb378102	-0.0028000479
82	0x3b79787d	0.0038066201
83	0x3c2a7d82	0.0104059
84	0x38bac9f7	8.90679e-05
85	0xbcaede6a	-0.02134629
86	0xbc525ac4	-0.012839023
87	0x3c90b03e	0.017662164
88	0x3ad09e10	0.0015916247
89	0x3b9f18df	0.00485526
90	0xbc098d63	-0.008395526
91	0xbc70e31e	-0.014702586
92	0x3cbac50e	0.022799041
93	0x3c03db70	0.008047923
94	0xb9ef1e5f	-0.0004560826
95	0x3b5803ff	0.0032961366
96	0xbbdb156c	-0.0066859033
97	0xbac5cb68	-0.0015090527
98	0x3c6b8012	0.014373796
99	0xbc91cec7	-0.017798794
100	0xbc8db447	-0.017297877
101	0xbc1e52df	-0.009663313
102	0xbc1e9532	-0.009679126
103	0xbbcb0e5e	-0.006196781
104	0xbb194cd8	-0.002339175
105	0xbcbdcf56	-0.023170155
106	0xbc430d6b	-0.011905055
107	0x3c025b04	0.00795627
108	0x3c819cd5	0.015821854
109	0xbc240d6d	-0.010012967
110	0xbb94a546	-0.0045363037
111	0x3bfd0bb4	0.0077223424
112	0xbcb3ae0e	-0.021933582
113	0x3d1692da	0.036761142
114	0xbccb8285	-0.02484251
115	0xbc63a980	-0.013895392
116	0xbabcec41	-0.0014413671
117	0x3c08231b	0.008309151
118	0x3b317cd1	0.0027082453
119	0x3a5b2761	0.0008360055
120	0xbc7f35b5	-0.01557677
121	0x3b187164	0.0023260945
122	0xbc500a5f	-0.012697785
123	0xbbd01fa7	-0.0063514295
124	0xbbfedf7b	-0.007778106
125	0x3c87d918	0.01658301
126	0xbc9180fe	-0.017761704
127	0x3c3b025e	0.011414139

network_body._body_endoder.seq_layers.2.weight f4 [128, 128]
0	0xbdc61198	-0.096713245
1	0xbca62b25	-0.020284245
2	0x3d6690b2	0.056290336
3	0x3d837d36	0.064203665
4	0x3e01cae9	0.1267506
5	0x3dc310b2	0.09524669
6	0xbd1d3f19	-0.038390253
7	0xbdb1af5e	-0.08676027
8	0xbd57ed16	-0.052716337
9	0xbdb5593d	-0.088549115
10	0xbd5b982f	-0.05361193
11	0x3cc89258	0.024483845
12	0xbce6b5aa	-0.028162796
13	0x3cea0559	0.028567003
14	0xbc3c3ef6	-0.01148962
15	0x3d7f1082	0.062271602
16	0xbd97801c	-0.07397482
17	0xbd06fc15	-0.032955248
18	0xbb488ec4	-0.0030602673
19	0x3d81690d	0.06318865
20	0xbe02bf99	-0.12768401
21	0xbca2dca8	-0.019880608
22	0xbcab3fea	-0.0209045
23	0xbcddebb8	-0.027089939
24	0xbe1a0d2f	-0.15044092
25	0x3da476fe	0.080305085
26	0xbdcd5c2f	-0.10027348
27	0xbd3befdc	-0.045883045
28	0xbcec2706	-0.028827202
29	0x3db318c6	0.087449595
30	0xbe6602d3	-0.22462015
31	0xbd8c35b6	-0.06846182
32	0x3d6d8c37	0.057995047
33	0x3dcd449d	0.100228526
34	0xbc903177	-0.017601712
35	0xbdd4729a	-0.10373421
36	0xbc64aa8d	-0.013956678
37	0xbd93cfa2	-0.07217337
38	0x3d236d0f	0.03989893
39	0x3d99de4a	0.075131014
40	0xbd15f961	-0.03661478
41	0xbd0f4734	-0.034980014
42	0x3c8bef71	0.017081948
43	0xbe1a4d40	-0.15068531
44	0x3d2c7983	0.04210807
45	0x3bcad3f1	0.006189816
46	0x3d5c8ecc	0.05384712
47	0x3b8310f7	0.003999825
48	0x3db6bf25	0.08923177
49	0xbb1ccaaa	-0.0023924508
50	0xbbf31647	-0.007418427
51	0xbd61b8d6	-0.055107914
52	0x3cba7896	0.022762578
53	0x3b9de7e4	0.0048189033
54	0xbdb214fb	-0.08695408
55	0x3ced8bd7	0.028997345
56	0x3e472bb9	0.19450273
57	0x3db7f472	0.08982171
58	0x3d182221	0.037141923
59	0x3dd4c591	0.10389245
60	0xbe08275c	-0.13296264
61	0x3d8a2f75	0.06747333
62	0x3d33c2ef	0.043887075
63	0x3df792bc	0.12088534
64	0xbdcf0044	-0.101074725
65	0x3d2f89c9	0.04285601
66	0xbba2c9fc	-0.004967926
67	0x3da2c9c0	0.07948637
68	0x3d267774	0.040641263
69	0xbdd21efb	-0.10259815
70	0xbd745a21	-0.059656266
71	0x3c5ed085	0.01359952
72	0x3d8e4ea9	0.06948597
73	0x3c2d621e	0.010582475
74	0x3cd070e4	0.025444455
75	0xbda65ec8	-0.08123547
76	0x3d44c93b	0.04804347
77	0xbda1abc7	-0.07894092
78	0x3d81b378	0.06333059
79	0x3c36f7c7	0.011167473
80	0xbdaf0659	-0.085461326
81	0x3d78d225	0.060747284
82	0x3ce410e3	0.027840083
83	0xbd672fc2	-0.05644203
84	0xbcfc70ee	-0.030815568
85	0xbde483ae	-0.111579284
86	0x3d72064d	0.05908804
87	0xbe23f00c	-0.1600954
88	0x3d67e88f	0.05661827
89	0x3ca5ab17	0.020223184
90	0x3da372de	0.079808936
91	0x3da31a1a	0.07963963
92	0xbce2bc21	-0.027677597
93	0x3b9d9870	0.0048094317
94	0x3d4f2524	0.05057253
95	0x3ded0702	0.11573602
96	0xbdcfece2	-0.10152604
97	0x3e34a674	0.17641622
98	0x3d2eebac	0.042705223
99	0x3d4aadf4	0.0494823
100	0xbc04d9c2	-0.008108558
101	0xbbf68b69	-0.007523943
102	0xbb6a8df0	-0.0035790168
103	0x3c281be0	0.010260552
104	0x3b1145cb	0.0022166844
105	0x3e0f016c	0.13965386
106	0xbde269f1	-0.11055363
107	0x3d975a46	0.07390265
108	0xbda8e8b2	-0.08247508
109	0xbce9655a	-0.028490711
110	0x3cf83381	0.030297996
111	0x3e072915	0.13199265
112	0xbdecbde4	-0.11559656
113	0xbde4586d	-0.111496784
114	0x3e00d85a	0.12582532
115	0xbc66aacf	-0.01407881
116	0xbd1444c7	-0.036198404
117	0x3e228c6a	0.15873876
118	0x3d1fed6f	0.039044794
119	0xbb6e278b	-0.0036339487
120	0x3d977af4	0.07396498
121	0x3d23cc51	0.039989773
122	0xbd1c4321	-0.038149957
123	0x3b8ade85	0.004237952
124	0x3dfe0394	0.12403026
125	0x39e29b9c	0.00043222017
126	0x3bcc0641	0.0062263315
127	0x3e0d8e8c	0.13823909
128	0x3dc1c39d	0.094611384
129	0xbe68ace3	-0.22722201
130	0x3c9fae05	0.019492159
131	0xbc7fe7e5	-0.015619253
132	0xbd932959	-0.07185621
133	0x3d46dd30	0.048550785
134	0x3c7b2ef9	0.015331023
135	0x3d8c1e15	0.06841675
136	0x3e493637	0.19649588
137	0x3d309554	0.04311116
138	0xbdba591b	-0.09099027
139	0x3d9881ef	0.07446658
140	0xbd0ba90e	-0.03409677
141	0x3d401b5f	0.046901103
142	0x3d8b9b8b	0.06816777
143	0x3b3c3ef2	0.0028724042
144	0x3e1e9739	0.15487374
145	0xbe1f7199	-0.15570678
146	0xbe5bfc58	-0.2148298
147	0x3d28e515	0.041234095
148	0xbe00cdd3	-0.12578516
149	0xbdad217b	-0.084536515
150	0x3d9a7ad3	0.07542958
151	0x3c3f5a9a	0.011679316
152	0xbd88bfb6	-0.06677191
153	0xbc707bc3	-0.014677945
154	0xbd732fa3	-0.0593716
155	0x3d1e2872	0.03861279
156	0xbc990e4f	-0.01868358
157	0xbd01daa7	-0.031702664
158	0xbc2479da	-0.010038817
159	0xbe27982a	-0.1636664
160	0x3c3cb210	0.011517063
161	0x3c81e134	0.015854456
162	0x3d05285c	0.032509193
163	0xbd70135a	-0.058612205
164	0xbd876b09	-0.06612212
165	0xbc9f7eed	-0.019469703
166	0x3d2703d9	0.040775154
167	0xbb7afe6d	-0.0038298622
168	0xbd6e4fbc	-0.05818151
169	0xbd8e4b26	-0.06947927
170	0xbd9f2068	-0.07769853
171	0x3dc49cee	0.096002445
172	0x3d29a2b2	0.041414924
173	0xbda7c6cf	-0.081922166
174	0xbd69280c	-0.056922957
175	0x3d037146	0.032090448
176	0x3d1fc3bd	0.03900503
177	0xbd02e6c4	-0.031958356
178	0xbd9f839a	-0.07788773
179	0x3e233fea	0.1594235
180	0x3db372dd	0.08762143
181	0x3da586f8	0.08082384
182	0x3db54c62	0.088524595
183	0x3d735b22	0.059413083
184	0x3dff6b6f	0.12471663
185	0xbcd9bb2b	-0.026578506
186	0xbce78674	-0.028262354
187	0x3e19249e	0.14955375
188	0x3dd6a271	0.10480202
189	0x3cb8922a	0.022530634
190	0xbdc6e44f	-0.09711515
191	0x3d48ae37	0.04899427
192	0xbc347985	-0.011015301
193	0x3c9fd8d7	0.019512577
194	0x3dc05a61	0.093922384
195	0x3e2781e4	0.16358143
196	0xbcc4a545	-0.024004588
197	0x3dd2fd91	0.1030227
198	0x3ccc90cb	0.024971386
199	0xbd89bffd	-0.06726072
200	0x3d4f1e01	0.050565723
201	0x3db03785	0.086043395
202	0x3d7acd6b	0.061231058
203	0xbbf8d68e	-0.0075939363
204	0xbd970fd8	-0.07376069
205	0xbe1fec7e	-0.15617558
206	0x3bec359c	0.007208539
207	0x3d9e7e70	0.0773896
208	0x3cf886e1	0.030337753
209	0xbd45077d	-0.048102845
210	0x3e1a78fb	0.15085213
211	0xbdb90bd6	-0.09035461
212	0xbdc60ed8	-0.096708
213	0xbd9c27f7	-0.0762481
214	0x3c0f35e6	0.008740878
215	0x3c0e5e28	0.008689441
216	0x3c50dc81	0.012747885
217	0x3cb49a91	0.02204636
218	0x3c404ca4	0.011737023
219	0xbdca7763	-0.098860525
220	0xbd9b3f69	-0.07580454
221	0xbd02b6ae	-0.0319125
222	0x3dc59b88	0.09648806
223	0xbd8a89b7	-0.06764548
224	0xbca186ee	-0.01971766
225	0xbdf8888d	-0.1213542
226	0xbb1fbd4b	-0.0024374302
227	0x3d72c90a	0.059273757
228	0x3d4eff4b	0.050536435
229	0x3dc0cd0b	0.09414109
230	0xbde0d3ab	-0.109778725
231	0xbcb2e598	-0.021837994
232	0xbd63748c	-0.05553107
233	0xbcb5ee1d	-0.022208268
234	0x3e73045c	0.23732132
235	0xbdc0c6cc	-0.094129175
236	0x3d760bb7	0.060069766
237	0xbdb876de	-0.09007047
238	0x3de82d94	0.11336818
239	0xbc8978f2	-0.016781304
240	0xbd48c8da	-0.049019672
241	0xbbaf503e	-0.005350142
242	0x3c4c4f33	0.012470054
243	0x3dbfb1e4	0.09360102
244	0x3d3f206f	0.04666179
245	0xbca83931	-0.020535083
246	0x3de83b43	0.11339428
247	0x3e054497	0.13014446
248	0xbe464923	-0.19363837
249	0x3df88480	0.12134647
250	0xbdcd9e81	-0.10039998
251	0xbdc09f8d	-0.09405432
252	0xbdfa28ff	-0.12214851
253	0xbd1ad3f4	-0.03779979
254	0xbe1dec11	-0.15422083
255	0x3d88b324	0.06674793
