Maize-Runner/results/TestRightExit2/EscapeMaze/EscapeMaze-1216.pt (torch, 216271 bytes, 12 tensors)

network_body._body_endoder.seq_layers.0.weight f4 [128, 71]
00000000: 3e7d 14be febb 4ebd 692f 09be 67e0 3cbd
00000010: e2be 4bbd adfa c2bc ffb7 ef3b 8e13 283b
00000020: bee3 d6bc f34b 05be f99b a73d d0a4 d8bd
00000030: ee78 b73d 556d fd3d f344 aabc 3217 34be
00000040: e74d 94be cdcc 953d a6f1 18be 54e2 b5bd
00000050: c680 c9bd f6fb 993b 9673 26be fd1e 0bbe
00000060: d1bc 7a3d 2499 c7bc d6c9 cc3d 9c32 353e
00000070: e36d f43d 29f9 cdbd f55b 123c 9278 2bbe
00000080: 202b 48bc 22b2 0abe 8527 883d 29b7 41be
00000090: 96f6 a83d 32ec c73d eabd 00be b761 e53d
000000a0: 7116 553d 6805 3a3e 3edd a83d 2263 983d
000000b0: fed1 68bd 000e ecbd 846a ddbd b0e6 ad3d
000000c0: 3ea6 bebd 1a1d 513d 63d0 d53d 728d f0bc
000000d0: b3bc bb3c c32b 81bd cdc6 693e e8a4 75be
000000e0: b0df ddbd 54b9 b13d 65b7 063e 5a15 ecbc
000000f0: 3ab0 573e 62ab d23d 3e5e 5ebd c5c8 22bd
00000100: 12fa 9ebd 93fc f43d efa8 bbbd aedb 57bd
00000110: eacd 42be c094 903c c9dd fc3c bff1 99bd
00000120: 30e1 33bd 8cd8 563e 6392 063e 45b1 3c3e
00000130: a007 433d 9e7a 82bd ac0d 4dbe 03d5 1cbe
00000140: dbaa 8b3d c310 e9bd 6bbb 3abd 07aa e93c
00000150: b991 00be 5b79 413d 33c1 143e 26e1 dc3d
00000160: 4625 903d 5c3b 843e 4dfb d33d 4f85 49be
00000170: c6e2 b93d d626 163d a2ea e9bd 9514 863d
00000180: 09ae 1c3e 1711 13be 4bd0 d3bd 74c7 23bd
00000190: 31c5 9a3d 2d8d 173e 43a3 dc3d 1ef1 393e
000001a0: c992 6ebd b7ec 1f3d 4cb7 213c ba8c 453d
000001b0: 14ad 143e 9369 3ebe 09c1 c7bd 3414 dbbc
000001c0: 7b01 0d3e 6cce 653d b595 84bd 5d9a 42be
000001d0: e9bd 0b3e f15f 46bd 157d 31be b035 fdbd
000001e0: a24e 2ebe 935f 37bd fd50 32be 4370 eebd
000001f0: 2743 373e c340 af3d 0baf 4abd a62a 02be
00000200: bab3 a03c fa90 9c3d 914d 4f3d caf6 dabc
00000210: fe87 4abe 7bbc 023e aec0 783d da58 d7bd
00000220: e68a d3bd 264e 3ebe 97ac 31be d16b 34be
00000230: ab0e 4dbb e2b1 d03d c355 7f3b 8ebc 6a3e
00000240: d618 c63d 3e1d 70bb 1e36 873c 79a3 663d
00000250: a471 b1bd 598a a13b de13 60bd dc89 4b3e
00000260: 3f1a aa3c f1f8 6e3c c491 933c bc5d b93d
00000270: 3024 62be eee1 ea3d 108a 1a3e e29d 07be
00000280: ad8b 8f3d add8 83be 7a65 ce3b ac8b 173e
00000290: 198c 503e 170b 39bd e725 4d3d 849a f33d
000002a0: 2f9d f1bc 056e 1c3d 060e d3bc 03d7 07bd
000002b0: 19dd 0f3c ff87 a53d 64a5 8abe f07d b1bd
000002c0: 3a59 cd3d f816 293d 9321 33bd d14f a23c
000002d0: 1f63 013e e3bd 163e 68df 933d 6901 493e
000002e0: 626f f5bd f214 f23d 334a 9fbc 183f 843d
000002f0: 1c15 17be e302 d93c c9e0 153e b9dd f93d
00000300: 9650 9f3d f755 0dbe daf2 e8bd d283 21bd
00000310: 4460 793e c34d 6c3d 5aa9 ec3d 0db1 1abe
00000320: 83eb a43d f1d4 bd3c 1828 99be d194 f7bd
00000330: 5c58 a03d 6fde 0bbe 4741 b8bd 2375 523e
00000340: 29c9 e0bd c179 af3e 6a6f 7e3d bbe0 8a3d
00000350: f0ad 6e3d 2015 adbd c6a8 8a3d 23f7 b9bd
00000360: 7210 8ebd 94fb 3a3b f119 dfbd dcb9 e43d
00000370: 12bc f7bd d219 013d d9f8 ddbd 15fe 9bbd
00000380: 6cca 57bc 655e 48be 8399 8bbd d33d 13bd
00000390: 5a16 8b3d 0ee7 70bc 29c8 fb3d f642 8cbe
000003a0: ae84 10be 8128 0c3d 107e 05be be8b 003d
000003b0: 5b7b 17bc ea6d 1e3e 672d 303e 8c9c df3d
000003c0: df28 86be 5cfc 4f3e 6a55 16be ee8f 093e
000003d0: bcdf 473e 0c8b 223e b121 3cbe 2c26 5e3e
000003e0: 2a36 86bd f800 2c3e 6f94 53be 6c14 3fbd
000003f0: 1707 9cbd e1b2 e3bc 7bd0 7fbd 8ea0 e03b
-0.14500901 -0.050472252 -0.13396992 -0.046112444 -0.049742587 -0.023801172 0.007315635 0.002564642
-0.026231643 -0.13017254 0.08184046 -0.105783105 0.089586124 0.12374369 -0.02078483 -0.17586973
-0.28965685 0.07314453 -0.14935932 -0.08881059 -0.09839015 0.0046992255 -0.1625503 -0.1358604
0.061215226 -0.024365015 0.09999435 0.17695087 0.11935022 -0.10057289 0.008933057 -0.16745213
-0.012217313 -0.13544515 0.06648163 -0.18917526 0.082501575 0.097618476 -0.12572446 0.11200278
0.052023355 0.18166125 0.082453236 0.07440783 -0.05684089 -0.11526108 -0.10811332 0.08491266
-0.09309052 0.051053144 0.10440137 -0.029364321 0.022917127 -0.06307175 0.22829743 -0.23988688
-0.10833681 0.08677927 0.13155897 -0.028818775 0.21063319 0.10286595 -0.054289095 -0.03974225
-0.07762541 0.11962237 -0.09163081 -0.052699737 -0.19023862 0.017649055 0.030867474 -0.075168125
-0.043915927 0.20981044 0.1314178 0.18426998 0.047614694 -0.063710436 -0.20024747 -0.15315633
0.068196975 -0.1138015 -0.045588892 0.028523458 -0.12555589 0.047234874 0.14526825 0.10785131
0.07038359 0.25826538 0.10350666 -0.1967976 0.09076457 0.03665813 -0.11421706 0.065468945
0.15300764 -0.14361988 -0.10342463 -0.039985135 0.075571425 0.14799948 0.10773327 0.18158385
-0.058245454 0.03904411 0.009870362 0.04822991 0.14519149 -0.18594961 -0.097536154 -0.026743032
0.13770096 0.056105062 -0.06473867 -0.19004197 0.13646664 -0.04843134 -0.17332871 -0.12363756
-0.17022184 -0.04476888 -0.17413707 -0.11642506 0.1789671 0.08557274 -0.04948334 -0.12711582
0.01961695 0.076448396 0.050611082 -0.026729006 -0.1977844 0.12767212 0.06073063 -0.10514994
-0.10329227 -0.18584499 -0.17350994 -0.17619254 -0.003128926 0.101901785 0.003896103 0.2292349
0.09672706 -0.0036638523 0.016505297 0.056308243 -0.08664253 0.0049298224 -0.054706447 0.19876808
0.020764468 0.014585719 0.018013842 0.090510815 -0.22084117 0.11468874 0.15091729 -0.13243821
0.07009063 -0.25751248 0.006298718 0.14799374 0.20365943 -0.04517659 0.050084975 0.11894706
-0.029493896 0.03819086 -0.025763523 -0.033164036 0.008780741 0.0808258 -0.27079308 -0.08666599
0.10026784 0.04128167 -0.04373319 0.01981345 0.12635468 0.14720874 0.07220346 0.19629444
-0.11984135 0.11820401 -0.01944456 0.06457347 -0.14754146 0.026490634 0.1463653 0.12200493
0.077790424 -0.13802324 -0.11374445 -0.039432354 0.24353129 0.057691347 0.11555739 -0.15106602
0.08052733 0.023172827 -0.29913402 -0.12088931 0.07829353 -0.1365907 -0.08996826 0.20552497
-0.10975868 0.34272578 0.06211797 0.06781145 0.05827135 -0.08451295 0.06770472 -0.09080341
-0.069367304 0.00285313 -0.1089362 0.11168262 -0.120964184 0.031518765 -0.108384795 -0.07616822
-0.01317082 -0.19567259 -0.068163894 -0.035947632 0.067913726 -0.014703525 0.12294037 -0.27394837
-0.14113113 0.034218315 -0.1303637 0.03138327 -0.009245719 0.15471616 0.1720482 0.10918531
-0.26203057 0.20311111 -0.1468102 0.13433811 0.19518942 0.15873355 -0.18372227 0.21694249
-0.065533 0.16797245 -0.20662092 -0.046650335 -0.0761854 -0.027795257 -0.06245468 0.006855077

network_body._body_endoder.seq_layers.0.bias f4 [128]
00000000: 0000 0000 0000 0000 0000 0000 0000 0000
00000010: 0000 0000 0000 0000 0000 0000 0000 0000
00000020: 0000 0000 0000 0000 0000 0000 0000 0000
00000030: 0000 0000 0000 0000 0000 0000 0000 0000
00000040: 0000 0000 0000 0000 0000 0000 0000 0000
00000050: 0000 0000 0000 0000 0000 0000 0000 0000
00000060: 0000 0000 0000 0000 0000 0000 0000 0000
00000070: 0000 0000 0000 0000 0000 0000 0000 0000
00000080: 0000 0000 0000 0000 0000 0000 0000 0000
00000090: 0000 0000 0000 0000 0000 0000 0000 0000
000000a0: 0000 0000 0000 0000 0000 0000 0000 0000
000000b0: 0000 0000 0000 0000 0000 0000 0000 0000
000000c0: 0000 0000 0000 0000 0000 0000 0000 0000
000000d0: 0000 0000 0000 0000 0000 0000 0000 0000
000000e0: 0000 0000 0000 0000 0000 0000 0000 0000
000000f0: 0000 0000 0000 0000 0000 0000 0000 0000
00000100: 0000 0000 0000 0000 0000 0000 0000 0000
00000110: 0000 0000 0000 0000 0000 0000 0000 0000
00000120: 0000 0000 0000 0000 0000 0000 0000 0000
00000130: 0000 0000 0000 0000 0000 0000 0000 0000
00000140: 0000 0000 0000 0000 0000 0000 0000 0000
00000150: 0000 0000 0000 0000 0000 0000 0000 0000
00000160: 0000 0000 0000 0000 0000 0000 0000 0000
00000170: 0000 0000 0000 0000 0000 0000 0000 0000
00000180: 0000 0000 0000 0000 0000 0000 0000 0000
00000190: 0000 0000 0000 0000 0000 0000 0000 0000
000001a0: 0000 0000 0000 0000 0000 0000 0000 0000
000001b0: 0000 0000 0000 0000 0000 0000 0000 0000
000001c0: 0000 0000 0000 0000 0000 0000 0000 0000
000001d0: 0000 0000 0000 0000 0000 0000 0000 0000
000001e0: 0000 0000 0000 0000 0000 0000 0000 0000
000001f0: 0000 0000 0000 0000 0000 0000 0000 0000
0.0 0.0 0.0 0.0 0.0 0.0 0.0 0.0
0.0 0.0 0.0 0.0 0.0 0.0 0.0 0.0
0.0 0.0 0.0 0.0 0.0 0.0 0.0 0.0
0.0 0.0 0.0 0.0 0.0 0.0 0.0 0.0
0.0 0.0 0.0 0.0 0.0 0.0 0.0 0.0
0.0 0.0 0.0 0.0 0.0 0.0 0.0 0.0
0.0 0.0 0.0 0.0 0.0 0.0 0.0 0.0
0.0 0.0 0.0 0.0 0.0 0.0 0.0 0.0
0.0 0.0 0.0 0.0 0.0 0.0 0.0 0.0
0.0 0.0 0.0 0.0 0.0 0.0 0.0 0.0
0.0 0.0 0.0 0.0 0.0 0.0 0.0 0.0
0.0 0.0 0.0 0.0 0.0 0.0 0.0 0.0
0.0 0.0 0.0 0.0 0.0 0.0 0.0 0.0
0.0 0.0 0.0 0.0 0.0 0.0 0.0 0.0
0.0 0.0 0.0 0.0 0.0 0.0 0.0 0.0
0.0 0.0 0.0 0.0 0.0 0.0 0.0 0.0

network_body._body_endoder.seq_layers.2.weight f4 [128, 128]
00000000: aeb1 9d3c 2bd8 17be 7906 883a 6b6b 55bd
00000010: 1b2b 1b3e d0fc 8a3d 0baf 033e deab 08bd
00000020: 1115 183e bfdc a33d fdb3 07bd 80ed 39bd
00000030: 40fe 1cbd c3ef a63c 9253 4dbd a1b2 073c
00000040: 4094 a03d c020 08be fe3b 1a3d 9c6e c1bd
00000050: e485 2ebe 5205 c93d 503b 05be 921c c73c
00000060: f35b bcbc 3167 d5bd 3673 9abd d84c 72bd
00000070: ffe4 2a3e 6edf 91bd 57b8 e6bb 8485 b7bc
00000080: db10 633d b139 62bd c343 7dbd be9a 023e
00000090: 75eb a0ba 4bd3 66bd 3300 b2bc 4df3 03be
000000a0: 4500 123e f0d4 87bd bdee 353e 6dff 90bd
000000b0: d04f 70bd 7a5e 8bbb a4f3 333d 7b69 4b3d
000000c0: 08ab 60bd 3b98 c63d 10da eebc 8d47 fabc
000000d0: 6a78 8e3c 33a0 a03d 4af7 3abd 0738 cebd
000000e0: 0f60 95bd 403a ccbd 220c fb3d ab01 143b
000000f0: 0bd3 c73d 4073 98bb 5a93 163e f711 763e
00000100: 0c4f f7bc cd67 323d 2948 ab3d 3aac d53d
00000110: 8283 6abe dff9 0bbc 0034 cfbd c105 eebd
00000120: aadf a4bd fc5d 4b3e ff49 36be c227 713d
00000130: 602e b83d b2e6 23bd 83a2 ef3d de3a e8bd
00000140: 9241 443d 416f 68bd 1f2c 2e3d f966 8d3d
00000150: abf6 0cbd cdb5 263d 1e9a 17bd 1283 15bd
00000160: 15ab cfbd cc38 7c3d e025 47bd fc83 903c
00000170: 6803 0f3d 69cc 96bb 28ec 773d e855 a9b9
00000180: f062 7b3d ea26 ca3d 6da4 67be cd7f c6bd
00000190: abd5 f43d bfec 513d ba59 21bd 1acb c2bd
000001a0: 9e17 a83d a5bb 33be 96ab fd3c cccf bb3c
000001b0: e968 5abb ee6b 76bd a000 003d 3318 c0bc
000001c0: d7f5 043e e6f9 103d 19d3 b4bc 6790 aabd
000001d0: 3f08 28be 2d8b b03d 7241 373c fa08 4abd
000001e0: 7dd2 edbd 75bd 273d 94ab 9cbc 4ff1 fa3d
000001f0: b577 1abe a9d1 973a 0fd4 543e befd 8abd
00000200: 4496 113d bc4f 45bd d138 35bd 2ead 11bd
00000210: 06e7 d73d d9df 85bd faa9 a4bd 9bf9 c0bc
00000220: 27d2 b63d edb2 53bd 00f9 85bd d530 953d
00000230: afca 4bbd 2999 cfbc 9e3d f8bd 4a62 ddbc
00000240: 16d1 283d 54c4 ae3d fa4f 0dbe 7cf8 333d
00000250: 63f6 e83d 9f8d afbd 51db 073e 59ab 123e
00000260: 07f4 26bd f1bb 4a3d 4eff babd c38d 1f3d
00000270: 5c9d 0bbe b98b 16bd 0cf6 f6bd fe58 0e3e
00000280: 41e7 1b3e 48bb 3dbd f11f 2f3c 72ce c9bd
00000290: f870 9f3d ab65 033e c097 b23a 46f9 9f3d
000002a0: a71a b03d da7c b23d 5349 f53c fa26 93b9
000002b0: 7c53 c2bd 4292 1dbe 6b81 bfb9 6016 fbbd
000002c0: 251c f1bc c39a a5bc 7a0a 00be 1b64 00bc
000002d0: d5d0 0dbe 7cc5 15be 8a1d 83bd a2b6 723a
000002e0: 5206 48bd 61bb a23d e43a c0bd a483 fcbc
000002f0: a30e 0ebe 884f aa3d 18bd 0c3e ef9f 5e3d
00000300: f3f5 bdbd f524 4bbe 2860 83bd fe04 acbd
00000310: da4d 22be 89bc 483d 7b6b a9bc 06df 853d
00000320: 14bd 6fbc a09c b63c 9e16 0dbb 66ac 7dbb
00000330: 2032 43bd cd1b 693e 589f e53d 908c 0f3d
00000340: 56b1 8c3d 0fc7 9f3c e228 f2bc 418d 5f3d
00000350: 7e73 003d 3e1b 303e 0231 01bd 85fe a83d
00000360: ebc2 4d3c d1cc c43c cb71 923c e947 32bd
00000370: e9ed c3bd 7169 153e e826 943c 911f 48be
00000380: a9d1 14be 0993 e1bd c036 18bd 3b72 b0bd
00000390: 9cdf 34ba b2e7 03bd 04d3 c5bc a5ed a03a
000003a0: f70f d1bd eead 53bd c9aa 053d 0a73 68bd
000003b0: 1e26 303c cec9 b4bd 6c38 1ebe c3b9 a83c
000003c0: 1b78 553c 52c7 fe3d 57e5 de3c aad5 fd3c
000003d0: e610 5cbd 9f10 ff3c 5ae0 0a3e c9c5 123d
000003e0: 24ed 093e ad59 5bbd 4658 423c 9170 c73d
000003f0: 0fd8 933d e1e8 32be 7ffc 8abc 6523 4abd
0.019249763 -0.14828555 0.0010377906 -0.052104395 0.15153162 0.067865014 0.12859742 -0.03336703
0.14851786 0.08001088 -0.033130635 -0.045392513 -0.03832841 0.020378 -0.050128527 0.008282335
0.078407764 -0.13293743 0.03765487 -0.09444925 -0.17043263 0.09815468 -0.13010907 0.024305616
-0.022993064 -0.10420073 -0.07541506 -0.059155315 0.16688918 -0.07122694 -0.007041018 -0.022402532
0.055435997 -0.0552308 -0.0618322 0.12754342 -0.0012277203 -0.05635385 -0.02172861 -0.1288578
0.14257915 -0.066324115 0.17766853 -0.070799686 -0.058669865 -0.004253206 0.043933526 0.04966114
-0.054850608 0.096970044 -0.029156715 -0.030551696 0.017391402 0.078430556 -0.04564599 -0.1006928
-0.07293712 -0.09972048 0.122581735 0.0022584002 0.0975705 -0.0046524107 0.14704648 0.2403029
-0.03018906 0.043556023 0.08363373 0.1043324 -0.22901729 -0.008543461 -0.1011734 -0.11622191
-0.08050473 0.19860071 -0.17801665 0.058875807 0.0899322 -0.04001493 0.117009185 -0.11339353
0.047914095 -0.056746725 0.042522546 0.06904406 -0.03441493 0.040700722 -0.037012212 -0.03650195
-0.10140053 0.061577603 -0.048620105 0.01764106 0.034915358 -0.0046020043 0.06052795 -0.00032298197
0.06137365 0.098707035 -0.22621317 -0.09692345 0.119548164 0.05125117 -0.03939221 -0.09511395
0.082076296 -0.1755205 0.030965608 0.022926234 -0.0033326691 -0.060161524 0.031250596 -0.02344904
0.12984405 0.03539457 -0.022073315 -0.08328324 -0.16409396 0.08620296 0.011185037 -0.049324967
-0.11612413 0.040952165 -0.019124784 0.12253057 -0.15084727 0.0011582869 0.20784019 -0.06786679
0.035543695 -0.048171744 -0.044243637 -0.035565548 0.10542111 -0.06536836 -0.08040233 -0.023556521
0.08926802 -0.05168431 -0.065416336 0.072847046 -0.04975384 -0.025341587 -0.121211275 -0.027024407
0.041215025 0.0853354 -0.1380004 0.043938145 0.113751195 -0.08571934 0.13267256 0.14323176
-0.040760066 0.04949564 -0.09130727 0.038953554 -0.13634247 -0.036754344 -0.120586485 0.13901135
0.15224935 -0.046321183 0.010688768 -0.098538294 0.07785219 0.12831752 0.0013625547 0.07811217
0.085988335 0.0871522 0.02994219 -0.00028067065 -0.0948858 -0.15387824 -0.00036526783 -0.12260127
-0.029432366 -0.020215398 -0.12503996 -0.007836367 -0.13849194 -0.14626116 -0.064021185 0.0009258782
-0.048834153 0.07945896 -0.093862325 -0.03082449 -0.13872771 0.08315951 0.13744009 0.054351743
-0.09275427 -0.19838317 -0.06414825 -0.0839939 -0.1585001 0.049007926 -0.020681133 0.06536679
-0.014632482 0.022291481 -0.0021528373 -0.0038707494 -0.047655225 0.22764511 0.11212033 0.03504616
0.06869762 0.019504098 -0.02956051 0.05457807 0.031360142 0.17197892 -0.031540878 0.08251671
0.012558679 0.024023445 0.017876526 -0.04352561 -0.09566862 0.14591004 0.018084958 -0.19543292
-0.14533104 -0.11014373 -0.03716159 -0.08615538 -0.00068997755 -0.032203384 -0.024148472 0.0012277855
-0.10208123 -0.051679544 0.032633577 -0.056750335 0.010751275 -0.08827554 -0.1545121 0.02059639
0.013029124 0.12440361 0.027208967 0.030985672 -0.053727053 0.031135855 0.13562146 0.035833154
0.13469368 -0.05355232 0.011861866 0.09738267 0.07218944 -0.17471649 -0.016966103 -0.04935016

network_body._body_endoder.seq_layers.2.bias f4 [128]
00000000: 0000 0000 0000 0000 0000 0000 0000 0000
00000010: 0000 0000 0000 0000 0000 0000 0000 0000
00000020: 0000 0000 0000 0000 0000 0000 0000 0000
00000030: 0000 0000 0000 0000 0000 0000 0000 0000
00000040: 0000 0000 0000 0000 0000 0000 0000 0000
00000050: 0000 0000 0000 0000 0000 0000 0000 0000
00000060: 0000 0000 0000 0000 0000 0000 0000 0000
00000070: 0000 0000 0000 0000 0000 0000 0000 0000
00000080: 0000 0000 0000 0000 0000 0000 0000 0000
00000090: 0000 0000 0000 0000 0000 0000 0000 0000
000000a0: 0000 0000 0000 0000 0000 0000 0000 0000
000000b0: 0000 0000 0000 0000 0000 0000 0000 0000
000000c0: 0000 0000 0000 0000 0000 0000 0000 0000
000000d0: 0000 0000 0000 0000 0000 0000 0000 0000
000000e0: 0000 0000 0000 0000 0000 0000 0000 0000
000000f0: 0000 0000 0000 0000 0000 0000 0000 0000
00000100: 0000 0000 0000 0000 0000 0000 0000 0000
00000110: 0000 0000 0000 0000 0000 0000 0000 0000
00000120: 0000 0000 0000 0000 0000 0000 0000 0000
00000130: 0000 0000 0000 0000 0000 0000 0000 0000
00000140: 0000 0000 0000 0000 0000 0000 0000 0000
00000150: 0000 0000 0000 0000 0000 0000 0000 0000
00000160: 0000 0000 0000 0000 0000 0000 0000 0000
00000170: 0000 0000 0000 0000 0000 0000 0000 0000
00000180: 0000 0000 0000 0000 0000 0000 0000 0000
00000190: 0000 0000 0000 0000 0000 0000 0000 0000
000001a0: 0000 0000 0000 0000 0000 0000 0000 0000
000001b0: 0000 0000 0000 0000 0000 0000 0000 0000
000001c0: 0000 0000 0000 0000 0000 0000 0000 0000
000001d0: 0000 0000 0000 0000 0000 0000 0000 0000
000001e0: 0000 0000 0000 0000 0000 0000 0000 0000
000001f0: 0000 0000 0000 0000 0000 0000 0000 0000
0.0 0.0 0.0 0.0 0.0 0.0 0.0 0.0
0.0 0.0 0.0 0.0 0.0 0.0 0.0 0.0
0.0 0.0 0.0 0.0 0.0 0.0 0.0 0.0
0.0 0.0 0.0 0.0 0.0 0.0 0.0 0.0
0.0 0.0 0.0 0.0 0.0 0.0 0.0 0.0
0.0 0.0 0.0 0.0 0.0 0.0 0.0 0.0
0.0 0.0 0.0 0.0 0.0 0.0 0.0 0.0
0.0 0.0 0.0 0.0 0.0 0.0 0.0 0.0
0.0 0.0 0.0 0.0 0.0 0.0 0.0 0.0
0.0 0.0 0.0 0.0 0.0 0.0 0.0 0.0
0.0 0.0 0.0 0.0 0.0 0.0 0.0 0.0
0.0 0.0 0.0 0.0 0.0 0.0 0.0 0.0
0.0 0.0 0.0 0.0 0.0 0.0 0.0 0.0
0.0 0.0 0.0 0.0 0.0 0.0 0.0 0.0
0.0 0.0 0.0 0.0 0.0 0.0 0.0 0.0
0.0 0.0 0.0 0.0 0.0 0.0 0.0 0.0

action_model._continuous_distribution.log_sigma f4 [1, 2]
00000000: 0000 0000 0000 0000
0.0 0.0

action_model._continuous_distribution.mu.weight f4 [2, 128]
00000000: 934b cd3c 287b e7bb dbaa f5bb aae5 0f3b
00000010: caaa d23c 06df 423b 9af4 0e3c 73bb 0d3d
00000020: 1738 0fbb 8208 783b 0343 ccb9 dd57 debb
00000030: af49 953b f75b 85bb 1bc3 0b3c 00fe 413b
00000040: b53f 083c e938 10bc 24d2 a63c 281f 173c
00000050: 898f a33b 7cb9 863c eb06 74bd 1d8b 21bc
00000060: 287d 3dbc fc2f 9a3a 00da 3b3c e3cf 2d39
00000070: 9324 acba 8a85 af3c 0dd6 c63c f309 523b
00000080: 2d39 19bc 7af1 a1ba f856 3bbc 4028 613c
00000090: 358b f7bb ce62 04bc 8b29 2c3d 0b2b fa3c
000000a0: cd9a a93c 8700 283c a07b a93b 0f8d 41bc
000000b0: d2c3 173c 137d 113c b178 103d fbe2 1a3b
000000c0: 81a9 943c c775 de3c cb63 233c 5c0e 403c
000000d0: c755 f6bb dbaf adbb 9381 2fba 524b fb3c
000000e0: 23b0 a8bc c317 8bbc 83aa 0f3d 6fb3 c83c
000000f0: 53aa 80bc e33f 49bc 2e20 0f3c 0f79 563c
00000100: b81e 4ebc 97fc 9c3c e965 2cbc 45d4 f43b
00000110: e29b b6bc 750b 05ba 311e 883c 35ab 7abc
00000120: 8286 503d 6167 2cbc 22e1 91bc 5342 953b
00000130: 56dc 263a 481b 99bc 5f20 a93c b107 2d3c
00000140: 7cdf bcbb 5f69 1e3c f759 563c 3b82 b8bc
00000150: d404 31bc a58b b6bc c8ef 76ba 8af3 d03c
00000160: 1151 0b3a f386 bbbc 0511 623c a61b 913c
00000170: cfa7 cfbb fe33 20bc 32d4 25bc 3739 5239
00000180: 6378 313c 43f4 cfbc 9b8f db3c af8e a33c
00000190: 94f8 27bc 5a74 84bc 00f2 6abc 7017 5c3c
000001a0: 8bac b3bb f33e 89bb 117b 42bc b580 78bc
000001b0: 1236 433b 6ce4 433c 07b6 98bc f2a1 68bb
000001c0: 35b6 f4bb 3395 02bc 20c2 f43b e790 0c3c
000001d0: 3387 17bd 4a32 66bb 5bc0 1cbc ccc8 b8bc
000001e0: 3d3d d53c fd41 323c 4887 703c 7f1e f6bb
000001f0: 3316 87bc 8504 40bb 0eda 8d3c 1d5c fe3b
00000200: d33a 96bb 5a9e 703c 0b43 afbc 5866 c13c
00000210: 7294 dfbc ebbb 873c e3b8 463c 8750 c43b
00000220: c47c 1e3c d51f 02bc d93a bebc 8409 c53c
00000230: 4a2a abbb 23a1 263c dd74 c0bc 9fc2 963c
00000240: 8fb4 05bd f383 993b 9a16 823c 67dc b23c
00000250: 0031 a33c 1aa9 b13b 0345 d13c 7340 cb3b
00000260: d309 33bc 5595 dd3c 978d 473c 8f5e 073c
00000270: fa9a b6bc e739 5e3b 0c05 003c 8c41 b23c
00000280: 4a6c f0bb 6942 093d 1db3 58bc 5bea af3c
00000290: df33 273d e020 95bb 8edc 8e3a 826a ad3b
000002a0: ff15 223c fc13 443c ba4e 16bd e59e c33b
000002b0: daa3 f1bb cd0d 43bc 3fc0 22b9 8827 d8bb
000002c0: 9ee4 023d bf77 b5bb 9b17 943b 8ff2 adbc
000002d0: 3544 d0bc 00cd d03c 53ca 03bc 8059 e0bb
000002e0: fad1 c33c e4a6 ba3b a35e 003d 5fd9 4cba
000002f0: a23c e2ba 209e 403c 3640 413d 534a 91bc
00000300: 38ce a6bc 3172 b3bb 8be4 953c 1c56 9d3b
00000310: 835b 5d3c 7bac 45bb f27d 11bc 9f1b cb3b
00000320: 8590 523c 9ffe 00bd f1fd 143d 4f8a f0bb
00000330: 93f8 04bb 8bc6 90bb 4f44 aa39 a8ad a0bb
00000340: cb50 bf3b 84a4 a23c 9c1d 95bb 8f4f a13b
00000350: 780d debc fb1b 843c 0309 343c c15b 243b
00000360: 92fc d7bc 071a 17bd eb38 cc3c 1c1a aabb
00000370: ccda 943c 4da2 58bc a6a0 a3ba 3a6b aa3b
00000380: f22b 05bd 15cb 773c 9e02 49bb 945f 83bc
00000390: be1f 8f3c d05a 9b3c 37bb 95bb cfd5 84bb
000003a0: fe0d 213d bb07 e03c b735 86bc adc5 ea3b
000003b0: 183e 57bb 1328 62bb 00d2 523b 4337 c73b
000003c0: fade 7a3b 4276 f4bb 5776 28bc c74d 8ebb
000003d0: d7fc 5f3c b111 c6bc e0be e63c 2546 05bd
000003e0: 0bc8 473c eedb 233d f836 71bb 93e0 41bb
000003f0: d85f 563c cc89 003d bae5 003d 98a1 2c3c
0.02506045 -0.007064242 -0.007497174 0.0021956959 0.025716204 0.0029734983 0.00872531 0.034602594
-0.00218535 0.0037846868 -0.0003895984 -0.0067853765 0.004555903 -0.004069801 0.0085304035 0.0029600859
0.00831597 -0.008802631 0.020363875 0.009223737 0.004991476 0.016445868 -0.05957691 -0.009859827
-0.011565484 0.0011763568 0.0114655495 0.0001657601 -0.0013133459 0.021425981 0.02427199 0.0032049387
-0.009352011 -0.0012355291 -0.011434309 0.0137425065 -0.0075544366 -0.0080801975 0.042031806 0.030538103
0.020703698 0.010254032 0.005172208 -0.011813416 0.009262996 0.008879918 0.03527135 0.0023633826
0.018147232 0.02715577 0.009972523 0.011722174 -0.0075175497 -0.0053005046 -0.0006695028 0.030675564
-0.020591801 -0.016979104 0.035074722 0.024499623 -0.015706217 -0.012283298 0.0087357 0.013090386
-0.012580566 0.019163413 -0.010522344 0.0074715936 -0.022291128 -0.00050752546 0.016615959 -0.015299608
0.050909527 -0.010522694 -0.017807547 0.0045550256 0.000636523 -0.018689767 0.020645319 0.010560916
-0.005763946 0.009668677 0.013082973 -0.022523036 -0.010804374 -0.022283385 -0.00094198855 0.025506753
0.0005314509 -0.022891497 0.013798003 0.01771338 -0.006337143 -0.009778021 -0.010121392 0.00020048475
0.010831925 -0.025385028 0.026801875 0.019965498 -0.010252137 -0.016168762 -0.014339924 0.013433322
-0.005483215 -0.0041884123 -0.011870162 -0.015167405 0.0029786867 0.0119563155 -0.018641485 -0.0035496918
-0.00746801 -0.007970142 0.0074694306 0.008579469 -0.03699417 -0.003512519 -0.0095673455 -0.022556685
0.026030177 0.010879991 0.014680691 -0.0075109596 -0.016490078 -0.002929957 0.01731589 0.0077624456
-0.004584649 0.014686191 -0.021394273 0.023608372 -0.027292464 0.016569098 0.012129041 0.005991045
0.009673301 -0.00794216 -0.02322142 0.024052389 -0.005223547 0.010170254 -0.023493225 0.01840335
-0.032642897 0.004684919 0.015879918 0.021833612 0.019920826 0.00542177 0.025545603 0.0062027513
-0.010927635 0.027048746 0.012179754 0.008262291 -0.022290695 0.0033909024 0.007813703 0.02175977
-0.007337128 0.0335106 -0.013226298 0.021474054 0.040820953 -0.004551038 0.0010899471 0.0052922377
0.00989294 0.011967655 -0.036696173 0.0059698694 -0.007374269 -0.011905146 -0.00015521141 -0.0065965094
0.031956308 -0.0055379565 0.0045194156 -0.021233825 -0.025423149 0.025488377 -0.008043843 -0.0068466067
0.023903836 0.0056961644 0.031340253 -0.0007814373 -0.0017260502 0.01175645 0.047180377 -0.017735636
-0.020362005 -0.005476259 0.018297454 0.004801525 0.013510588 -0.003016262 -0.008880125 0.006198361
0.012851839 -0.031492826 0.03637499 -0.0073407064 -0.0020289763 -0.0044181994 0.0003247582 -0.004903514
0.0058384887 0.019853838 -0.004550649 0.004922814 -0.027106032 0.016126623 0.010988477 0.0025079104
-0.026365552 -0.036890056 0.024929484 -0.0051911008 0.018170737 -0.013222289 -0.001248379 0.0052007707
-0.032512613 0.015124102 -0.0030671726 -0.016036786 0.01747119 0.018964201 -0.004569437 -0.0040538083
0.039319985 0.027347436 -0.016383035 0.007164678 -0.0032843407 -0.003450875 0.0032168627 0.0060795858
0.0038279877 -0.0074603865 -0.010282121 -0.004342768 0.013671122 -0.024178358 0.028167188 -0.0325376
0.01219369 0.040004663 -0.0036806446 -0.002958332 0.013084374 0.031381413 0.031469084 0.010536574

action_model._continuous_distribution.mu.bias f4 [2]
00000000: 0000 0000 0000 0000
0.0 0.0

network_body._body_endoder.seq_layers.0.weight f4 [128, 71]
00000000: 627c f5bd 0324 cfbd 700b 183d acb4 083d
00000010: 48e4 913d 85bd 823d 70f8 babc 20a9 153e
00000020: 1be7 243d 642c 92bd f7aa 4dbd e27f 95bd
00000030: 3123 40be 3a9f 45be 4a16 0dbc a905 4dba
00000040: 5b4f 2ebe acaa 723b 3a24 4c3d f092 4ebe
00000050: 511a aebc 594e 803d 1508 d73d 5d58 8dbd
00000060: e93f cdbd 2f78 a9bd c912 32bc cbe7 333e
00000070: 6913 78bd 843f 9cbc 4f90 113e ca8f 933d
00000080: 10be f2bd d1f5 783d 2cdc 1bbe b4c5 f1bc
00000090: 3f95 103e fa3f f1bb 4667 bebc 0eba 9d3b
000000a0: 7ea3 1f3d 51c4 b1bd d8d5 50bd 49d4 b13c
000000b0: 32bc ad3d a957 dfbd 295d 233d 075f 99bd
000000c0: 09e5 0e3e da20 cdbc 2219 6cbe b06e 7a3d
000000d0: 23a6 bbb8 249b 8a3d c91c 0cbe d828 263d
000000e0: 13af 4e3b f4f3 91be 256b 453e 2038 3b3d
000000f0: c55c 813c 2dc3 cc3d 3dda 00be d4a9 1a3e
00000100: af3e 5c3e 95b9 bcbd e9af d13d a9cd 443d
00000110: 4426 133e e73e 4d3d 91d0 593d 046f f0bd
00000120: 7f04 6dbd 8f3c dc3c b856 f93d c1b8 2bbe
00000130: fb55 f8bd 26a9 a53d 5d76 1a3e e99c 4abd
00000140: be68 0d3d f3be 3abe 2beb 403d 19d5 873d
00000150: 21fe df3c a90c d63c 9717 debd e6aa 97bd
00000160: 210f b03d 7647 703d fa9a 073d d51f 983d
00000170: 7554 993e 9d63 313d 435a 2dbd d56f 8c3d
00000180: eeac a43d 8a50 18be cf9c 0bbd da6c 42be
00000190: 2e38 cfbd 53d8 863c 29c8 0c3e 778f 093d
000001a0: 69a8 cdbc 54d6 923c f83a f73c 8ca4 953d
000001b0: 44be 383e 2890 1f3d 4ec9 c0bd 4e4e 143e
000001c0: 87b5 48bd e0de 763e c5f3 e4bd ae51 d63c
000001d0: 10b3 6a3c 8c6f b53d 0de9 373d 5155 0d3e
000001e0: 2ff4 c8bd fee2 e43d aaaa 0ebe 1d78 a03d
000001f0: 490c 82bd 18cd f5bb 31df 66be 6d9d 973d
00000200: ae67 ecbd 2ab6 84be edf0 77bd 64ca debb
00000210: ace1 cfbd 9e35 74bc 7d2f 92bb 6439 173d
00000220: e464 b63e 9dbe 1abe 623e 193e 62a1 3bbc
00000230: 96e4 e83c a887 4abd c0af 593d 12cd 093e
00000240: ae1f 9abd c612 3c3d bc9b 2d3e 4721 a13d
00000250: 605b 77bd 4e22 9f3d 3775 e93c 3ee8 493d
00000260: 1fd5 143e 23b8 5f3d 77c4 71bd 5137 32bc
00000270: 9d6b 95bd f945 1f3e 59ad 8fbd 3fd3 983d
00000280: ea8e 083e 358c 683d 714f 28bd efac d23d
00000290: 54f5 5fbc 15dd 863c d81f 46bd b566 e63d
000002a0: c27b 43bd 6569 29be bfc9 04be 6229 2fbd
000002b0: 9276 81be adf0 633e 4b58 aabd 1350 99bc
000002c0: b167 fa3d 6862 cb3d 42a0 263d 6fe1 653c
000002d0: 51b7 53bc 1fe2 c8bc 4cf2 943d f289 173c
000002e0: 2bac d3bd 4db7 4a3e 4ce5 273e 392d cdbc
000002f0: 24c0 f7bd 2b43 2ebd 39bf 143e 6246 e3bc
00000300: 9c94 0b3d 5b72 093e 5cdb 253e 8b2e 393e
00000310: 6074 0cbc 77dc 8d3d 9dcc d03d bd8d a03c
00000320: c4e1 873d 4438 06be 23d5 9f3d 303e c03c
00000330: ba29 333d 4340 24bd 4f05 de3d 8bce 09be
00000340: 147b 58bd e87d 25be 8818 2cbe 2a51 153e
00000350: b54b dc3d 2ca2 19bd fd5a 263d ffdc b03d
00000360: dc0a b73d b4ba b7bd 1c5d 1bbe 25d2 0cbd
00000370: ec85 f33d f1c3 8a3d 734a cabd 9671 f3bd
00000380: 9108 65bd eac9 a53d f5bc d6bc 2264 4d3d
00000390: b0fd 78be db44 1a3e 124e 463c 9bf6 06be
000003a0: 4312 253e ef4e caba e371 40be a409 f63c
000003b0: b01d 31be 86ff 023e 6485 fabc e9f2 86bd
000003c0: a8ff a93d c242 533d f90d 3abe 863f 223d
000003d0: 22dd 65bd 2702 84be e342 1bbe 1f78 b73d
000003e0: 5f46 d1bc 0313 30bd bb13 203d cb83 f33d
000003f0: 49c6 a8bd e536 533c 5277 b63b ba48 113e
-0.11986615 -0.101142906 0.037120283 0.033375427 0.07123619 0.06383804 -0.022823542 0.14615297
0.04025946 -0.07137373 -0.050211873 -0.07299782 -0.18763424 -0.19299021 -0.008611271 -0.0007820973
-0.17022459 0.0037027998 0.049839236 -0.2017324 -0.021252783 0.06264944 0.104995884 -0.069016196
-0.100219555 -0.08274876 -0.010868737 0.17568891 -0.060565386 -0.019073255 0.14215206 0.0720516
-0.11852658 0.060781304 -0.15220708 -0.029513218 0.14119433 -0.007362363 -0.023242604 0.004813439
0.038974278 -0.086800225 -0.050985187 0.02170767 0.08483161 -0.10905392 0.039883766 -0.07488828
0.13954557 -0.025040079 -0.23056462 0.061140716 -8.9478e-05 0.06767872 -0.13682856 0.040566295
0.0031537458 -0.28506434 0.19279154 0.04570782 0.015791306 0.09998164 -0.12583251 0.15103847
0.21508287 -0.092150845 0.1023863 0.048047695 0.14370066 0.050108816 0.05317742 -0.117399246
-0.057865616 0.026884345 0.121747434 -0.16769697 -0.121257745 0.08088903 0.15084215 -0.049466047
0.034523718 -0.18236904 0.047099274 0.06632442 0.027342858 0.026129084 -0.10844343 -0.07405643
0.085966356 0.0586619 0.03310678 0.074279465 0.29947248 0.04330789 -0.04232241 0.06857268
0.08040796 -0.14874473 -0.03408509 -0.18986836 -0.10118137 0.016460573 0.1374823 0.033584084
-0.025104718 0.017924465 0.030179486 0.073067755 0.1804133 0.038955837 -0.09413396 0.14482996
-0.049001243 0.24108458 -0.11179308 0.026161995 0.014324918 0.088591665 0.04489999 0.13802077
-0.09812199 0.11176108 -0.1393229 0.0783541 -0.063499995 -0.0075012557 -0.22546078 0.074030735
-0.11543213 -0.2592023 -0.0605325 -0.006799029 -0.10150465 -0.014905361 -0.0044612275 0.036919966
0.35623848 -0.15111776 0.14965203 -0.011452051 0.02842931 -0.049445778 0.053146124 0.13457134
-0.07525574 0.04591634 0.16953939 0.07867675 -0.060389876 0.07770215 0.028498275 0.04929375
0.14534424 0.054618966 -0.059025254 -0.010877446 -0.07295916 0.15554036 -0.07015485 0.07462167
0.13335767 0.056774337 -0.041091386 0.10286891 -0.013669331 0.016462842 -0.048370212 0.112500586
-0.047725447 -0.16544111 -0.12967585 -0.042764075 -0.25285774 0.2225978 -0.08317622 -0.01871494
0.12226809 0.09930879 0.040680178 0.014030798 -0.012922124 -0.024521885 0.07272777 0.009249197
-0.10335573 0.19796486 0.16396064 -0.025045978 -0.12097195 -0.042544525 0.1452607 -0.027743522
0.03407727 0.1342253 0.1619696 0.18084161 -0.008572668 0.06926816 0.10195277 0.019598836
0.06634858 -0.13107401 0.078043245 0.023467153 0.043740965 -0.040100347 0.10840856 -0.13457696
-0.05285175 -0.1616131 -0.16806233 0.14581743 0.107566275 -0.037508175 0.040614117 0.08635902
0.08937618 -0.08971158 -0.15172237 -0.034380097 0.11890778 0.06775654 -0.09877481 -0.11886899
-0.055916373 0.08095153 -0.026213149 0.050144322 -0.24315524 0.15065329 0.012103574 -0.1318001
0.16120248 -0.0015434901 -0.18793444 0.030033894 -0.17296481 0.12792787 -0.030581184 -0.065893
0.08300716 0.051577337 -0.18169393 0.039611362 -0.05611909 -0.25782892 -0.15162234 0.08958458
-0.02554625 -0.04298688 0.039081316 0.11890372 -0.08240945 0.012891506 0.0055684233 0.14187899

network_body._body_endoder.seq_layers.0.bias f4 [128]
00000000: 0000 0000 0000 0000 0000 0000 0000 0000
00000010: 0000 0000 0000 0000 0000 0000 0000 0000
00000020: 0000 0000 0000 0000 0000 0000 0000 0000
00000030: 0000 0000 0000 0000 0000 0000 0000 0000
00000040: 0000 0000 0000 0000 0000 0000 0000 0000
00000050: 0000 0000 0000 0000 0000 0000 0000 0000
00000060: 0000 0000 0000 0000 0000 0000 0000 0000
00000070: 0000 0000 0000 0000 0000 0000 0000 0000
00000080: 0000 0000 0000 0000 0000 0000 0000 0000
00000090: 0000 0000 0000 0000 0000 0000 0000 0000
000000a0: 0000 0000 0000 0000 0000 0000 0000 0000
000000b0: 0000 0000 0000 0000 0000 0000 0000 0000
000000c0: 0000 0000 0000 0000 0000 0000 0000 0000
000000d0: 0000 0000 0000 0000 0000 0000 0000 0000
000000e0: 0000 0000 0000 0000 0000 0000 0000 0000
000000f0: 0000 0000 0000 0000 0000 0000 0000 0000
00000100: 0000 0000 0000 0000 0000 0000 0000 0000
00000110: 0000 0000 0000 0000 0000 0000 0000 0000
00000120: 0000 0000 0000 0000 0000 0000 0000 0000
00000130: 0000 0000 0000 0000 0000 0000 0000 0000
00000140: 0000 0000 0000 0000 0000 0000 0000 0000
00000150: 0000 0000 0000 0000 0000 0000 0000 0000
00000160: 0000 0000 0000 0000 0000 0000 0000 0000
00000170: 0000 0000 0000 0000 0000 0000 0000 0000
00000180: 0000 0000 0000 0000 0000 0000 0000 0000
00000190: 0000 0000 0000 0000 0000 0000 0000 0000
000001a0: 0000 0000 0000 0000 0000 0000 0000 0000
000001b0: 0000 0000 0000 0000 0000 0000 0000 0000
000001c0: 0000 0000 0000 0000 0000 0000 0000 0000
000001d0: 0000 0000 0000 0000 0000 0000 0000 0000
000001e0: 0000 0000 0000 0000 0000 0000 0000 0000
000001f0: 0000 0000 0000 0000 0000 0000 0000 0000
0.0 0.0 0.0 0.0 0.0 0.0 0.0 0.0
0.0 0.0 0.0 0.0 0.0 0.0 0.0 0.0
0.0 0.0 0.0 0.0 0.0 0.0 0.0 0.0
0.0 0.0 0.0 0.0 0.0 0.0 0.0 0.0
0.0 0.0 0.0 0.0 0.0 0.0 0.0 0.0
0.0 0.0 0.0 0.0 0.0 0.0 0.0 0.0
0.0 0.0 0.0 0.0 0.0 0.0 0.0 0.0
0.0 0.0 0.0 0.0 0.0 0.0 0.0 0.0
0.0 0.0 0.0 0.0 0.0 0.0 0.0 0.0
0.0 0.0 0.0 0.0 0.0 0.0 0.0 0.0
0.0 0.0 0.0 0.0 0.0 0.0 0.0 0.0
0.0 0.0 0.0 0.0 0.0 0.0 0.0 0.0
0.0 0.0 0.0 0.0 0.0 0.0 0.0 0.0
0.0 0.0 0.0 0.0 0.0 0.0 0.0 0.0
0.0 0.0 0.0 0.0 0.0 0.0 0.0 0.0
0.0 0.0 0.0 0.0 0.0 0.0 0.0 0.0

network_body._body_endoder.seq_layers.2.weight f4 [128, 128]
00000000: 660c a538 8a82 773d 79cc 923b 2f5a 943d
00000010: b99b 053e a3cd f53c 832c 4fbd 4c66 eb3d
00000020: 2591 74bd 899b 02be 8879 8b3d 8f86 82bd
00000030: a3c7 3fbd 5360 bb3b 242a e0bd c9c6 07bd
00000040: 2e27 303e e74c febd 50ef 963d 624f e2bd
00000050: 0e86 ac3d bbba 9ebd aa0f dcbd cc9a 3cbd
00000060: 5880 213e 498a a2bd dc5c 19bd 5059 fdbd
00000070: 2c0e 103e faea c13d 711a eabd 1a42 033e
00000080: a7b5 52bd bee8 c33d 1ff3 ecbc fd20 2abd
00000090: c29d be3c 0e06 e2bd 09ec ab3d 41cc b4bd
000000a0: c91d ecbd b32a f63c 76ad 0cbe 1e90 2fbe
000000b0: 8607 e03d 56c2 c13d 60bf 1dbe 795b fe3c
000000c0: e6d7 443d 6157 65bd 944d 213e a28d 7bbd
000000d0: a1f5 d9bc 6ccd a6bd b21b 2fbb 7b54 fc3c
000000e0: a42b 27be 868b 143d 4d93 f4bd 6a8f b6bd
000000f0: 00de 143d f3e3 653d 030b b0bd 2069 97bc
00000100: 08bc 8e3d 793e 5ebe ea9d 56bd ba6b db3d
00000110: 202b c13c 7606 32be 35e6 cfbd e853 7cbd
00000120: bd65 bd3b 6b6f dcbd ea39 2abd bde0 1c3d
00000130: 554e 28bd 1469 7c3d ab93 00bd 021d 503e
00000140: f6fb 413d 6832 80bd 57eb 633d d4e0 cbbd
00000150: 57c1 35bc 84ef 1e3d 829f f83d 17b3 aebd
00000160: c154 833d b485 4cbd 91fa 7abd 3f1c d1bd
00000170: e8b7 1fbd c40e 1bbd 68bd 85bc 9da1 a23d
00000180: dbeb aabd a58a e1bd 0f0c 863d 66b6 2c3b
00000190: d094 26bc c881 0a3e dd98 13be 12dc 39bd
000001a0: 51d4 27bd b767 e2bd b029 043c a4e6 c43c
000001b0: ef81 9fbd 17a4 2e3d 3bd5 10bd 0d6d 573e
000001c0: 0240 813c 7b10 a2bc 1b9a 3cbe fd7c 9e3d
000001d0: cac3 293d 5cc0 c6bc 89d0 5a3d 8ed0 11bc
000001e0: 99d9 39be f484 5dbe 0e62 2ebe dbbf bd3d
000001f0: 108a 94bb 7bca e23d 6e6d 3a3e 9209 28bd
00000200: 6409 acbc 8cdb e5bd b3fc 983c eb96 b33d
00000210: 5837 11bd 1e97 373d 4beb adbc efef 97bd
00000220: 6d3f b1bb b430 7c3d 62ae 203d 28f0 ddbb
00000230: d8ee 333d 0bcb 473c 7fae 13bd bedd 08be
00000240: cbc6 2e3d f63a 32be 6ced e43d 54ee aa3d
00000250: 80e9 ccbd 0ce4 253e 4a9d 243e c12d ed3d
00000260: c40b 413d fc26 09bd d1cb 8d3d 09ff b73d
00000270: c99c ca3d 8f87 c93c 336e 36bd 3010 00be
00000280: dae4 213d 64fa 173d 45f6 9aba f056 02bc
00000290: 1c8e ec3d 26be 0cbd adc8 96be f134 9abd
000002a0: eb10 b4bd baa9 413e b354 02bd 00c2 743e
000002b0: 1798 2c3e bc09 1abd fed8 ec3d b017 053e
000002c0: 2109 b43c db26 323d 724d f63d e28b 8bbd
000002d0: fc32 2dbe fe68 fcbc c30d 1a3e 5e8d fe3c
000002e0: 00c8 113e 6714 2e3d 74c9 a53c 2517 ee3d
000002f0: 9c93 93bc 3e69 4b3d 8a3d 063e 60bc 68be
00000300: 9b7f f13d a682 9d3c 7c6f 1bbe ab83 133d
00000310: c361 973b d509 343c 2c82 293e c2d8 95bc
00000320: 60f8 97bb 2bcd 19be 30f7 b3bd 6e56 6d3d
00000330: 980f d73c 1592 5bbd c7c2 943d 7dea 763d
00000340: f68a 703d 2195 5dbe 9b7f dabd f35b d539
00000350: e7e3 54bc e06c f7bc 7f99 2f3b 129a fc3d
00000360: a18e 00be b20e bd3c 1f1b 833c 9d69 a63d
00000370: 89b5 e6bc 6646 9dbc 06b2 ca3d def9 a83d
00000380: bcaf 4b3c dc44 023d ec75 303d ce81 123d
00000390: f10b 98bb 1c06 08be ab65 1abe c3e6 a43c
000003a0: 2ad3 4b3d 9997 50bd e5ee 94bd fb61 c53d
000003b0: 3d1f 5e3c 527d bbbd 961d 3d3c 5512 183c
000003c0: c176 423d 06b0 b63c 4744 123d f355 67be
000003d0: b76f 093e d301 39bd 4490 46bd e364 d93d
000003e0: f0ef 34bc 4016 823d 45ec f7bd 716e 2d3e
000003f0: 9cb0 533e 8239 9a3d 9617 bdbc 0917 c63d
7.8701225e-05 0.060427226 0.0044799414 0.07243764 0.13047685 0.030005282 -0.05057956 0.11494121
-0.059708733 -0.12754644 0.068102896 -0.06373321 -0.046821248 0.00571827 -0.10945538 -0.03314856
0.17202446 -0.12417012 0.07369864 -0.11050297 0.084240064 -0.0775046 -0.10745175 -0.046046063
0.15771616 -0.07936532 -0.037442073 -0.12370551 0.14067906 0.09468646 -0.114308245 0.12818184
-0.05144277 0.095658764 -0.028924523 -0.041535366 0.023268584 -0.11036311 0.083946295 -0.08828021
-0.115291186 0.030049657 -0.13738045 -0.1714482 0.10938935 0.09460895 -0.15405035 0.031049477
0.04805746 -0.055991534 0.1575225 -0.06141437 -0.026606383 -0.0814465 -0.0026719389 0.030802002
-0.16325241 0.036265872 -0.11942158 -0.08914073 0.03634453 0.056125592 -0.0859585 -0.018482745
0.06969458 -0.21703519 -0.052396692 0.107139066 0.023580134 -0.17385277 -0.101513304 -0.061603457
0.0057799504 -0.10763439 -0.041559137 0.038300265 -0.04109033 0.061623648 -0.031390827 0.20323566
0.04735943 -0.06259614 0.05564436 -0.09954992 -0.011093459 0.03880264 0.12139799 -0.085302524
0.0641265 -0.049932197 -0.061274115 -0.10210466 -0.038993746 -0.03785588 -0.016325668 0.079409815
-0.08345767 -0.110127725 0.06545269 0.0026353835 -0.010167316 0.1352607 -0.14413781 -0.04537589
-0.040973965 -0.11054938 0.00806658 0.02403576 -0.07788455 0.042636957 -0.035359602 0.21037693
0.015777592 -0.01978325 -0.18418162 0.077386834 0.041446485 -0.024261646 0.05342153 -0.008899821
-0.18149413 -0.21632749 -0.17029592 0.09265109 -0.00453306 0.11073776 0.18205807 -0.041024752
-0.021000572 -0.11223516 0.018675184 0.0876902 -0.03545317 0.04482185 -0.02123036 -0.074188106
-0.0054091723 0.061569884 0.039228804 -0.0067730136 0.04392895 0.012194405 -0.036055084 -0.13365838
0.042670052 -0.17405304 0.11178097 0.08346239 -0.10005474 0.16200274 0.16075626 0.115809925
0.04713036 -0.033484444 0.069236405 0.08984191 0.09893186 0.024600772 -0.044538688 -0.12506175
0.03952489 0.037104025 -0.0011822662 -0.007955298 0.11550543 -0.034361027 -0.29449978 -0.07529629
-0.08792289 0.18912402 -0.031819057 0.2390213 0.16854893 -0.03760694 0.115648255 0.12997317
0.02197701 0.043494087 0.1202649 -0.0681379 -0.1691398 -0.030811783 0.15044312 0.031073269
0.1423645 0.042499926 0.020237662 0.11625508 -0.018014722 0.049660914 0.13109413 -0.2272811
0.11791917 0.019227337 -0.15179247 0.03601424 0.0046198084 0.010988672 0.16553563 -0.018291835
-0.004637763 -0.15019672 -0.08787382 0.057943754 0.026252553 -0.05360611 0.07263713 0.06028222
0.058726273 -0.2163892 -0.1066887 0.00040695033 -0.012993789 -0.030203283 0.0026794372 0.12334074
-0.12554409 0.023078296 0.016004143 0.08125613 -0.028162735 -0.019198608 0.098972365 0.082507834
0.012432035 0.03180395 0.04308121 0.035768323 -0.0046400954 -0.1328358 -0.15077846 0.020129567
0.04976193 -0.050925825 -0.07272128 0.09637829 0.0135572525 -0.09154762 0.011542698 0.009281714
0.047476534 0.022300731 0.035709646 -0.22591381 0.13421522 -0.045167755 -0.048477426 0.10614946
-0.011043534 0.063519 -0.12105612 0.16936661 0.2067284 0.075305 -0.023082536 0.09672362

network_body._body_endoder.seq_layers.2.bias f4 [128]
00000000: 0000 0000 0000 0000 0000 0000 0000 0000
00000010: 0000 0000 0000 0000 0000 0000 0000 0000
00000020: 0000 0000 0000 0000 0000 0000 0000 0000
00000030: 0000 0000 0000 0000 0000 0000 0000 0000
00000040: 0000 0000 0000 0000 0000 0000 0000 0000
00000050: 0000 0000 0000 0000 0000 0000 0000 0000
00000060: 0000 0000 0000 0000 0000 0000 0000 0000
00000070: 0000 0000 0000 0000 0000 0000 0000 0000
00000080: 0000 0000 0000 0000 0000 0000 0000 0000
00000090: 0000 0000 0000 0000 0000 0000 0000 0000
000000a0: 0000 0000 0000 0000 0000 0000 0000 0000
000000b0: 0000 0000 0000 0000 0000 0000 0000 0000
000000c0: 0000 0000 0000 0000 0000 0000 0000 0000
000000d0: 0000 0000 0000 0000 0000 0000 0000 0000
000000e0: 0000 0000 0000 0000 0000 0000 0000 0000
000000f0: 0000 0000 0000 0000 0000 0000 0000 0000
00000100: 0000 0000 0000 0000 0000 0000 0000 0000
00000110: 0000 0000 0000 0000 0000 0000 0000 0000
00000120: 0000 0000 0000 0000 0000 0000 0000 0000
00000130: 0000 0000 0000 0000 0000 0000 0000 0000
00000140: 0000 0000 0000 0000 0000 0000 0000 0000
00000150: 0000 0000 0000 0000 0000 0000 0000 0000
00000160: 0000 0000 0000 0000 0000 0000 0000 0000
00000170: 0000 0000 0000 0000 0000 0000 0000 0000
00000180: 0000 0000 0000 0000 0000 0000 0000 0000
00000190: 0000 0000 0000 0000 0000 0000 0000 0000
000001a0: 0000 0000 0000 0000 0000 0000 0000 0000
000001b0: 0000 0000 0000 0000 0000 0000 0000 0000
000001c0: 0000 0000 0000 0000 0000 0000 0000 0000
000001d0: 0000 0000 0000 0000 0000 0000 0000 0000
000001e0: 0000 0000 0000 0000 0000 0000 0000 0000
000001f0: 0000 0000 0000 0000 0000 0000 0000 0000
0.0 0.0 0.0 0.0 0.0 0.0 0.0 0.0
0.0 0.0 0.0 0.0 0.0 0.0 0.0 0.0
0.0 0.0 0.0 0.0 0.0 0.0 0.0 0.0
0.0 0.0 0.0 0.0 0.0 0.0 0.0 0.0
0.0 0.0 0.0 0.0 0.0 0.0 0.0 0.0
0.0 0.0 0.0 0.0 0.0 0.0 0.0 0.0
0.0 0.0 0.0 0.0 0.0 0.0 0.0 0.0
0.0 0.0 0.0 0.0 0.0 0.0 0.0 0.0
0.0 0.0 0.0 0.0 0.0 0.0 0.0 0.0
0.0 0.0 0.0 0.0 0.0 0.0 0.0 0.0
0.0 0.0 0.0 0.0 0.0 0.0 0.0 0.0
0.0 0.0 0.0 0.0 0.0 0.0 0.0 0.0
0.0 0.0 0.0 0.0 0.0 0.0 0.0 0.0
0.0 0.0 0.0 0.0 0.0 0.0 0.0 0.0
0.0 0.0 0.0 0.0 0.0 0.0 0.0 0.0
0.0 0.0 0.0 0.0 0.0 0.0 0.0 0.0

value_heads.value_heads.extrinsic.weight f4 [1, 128]
00000000: 4900 0dbe c8e6 353e 07bd 3e3e 6572 cfbd
00000010: 55be 7abd 676a 1abd c6f8 4e3e a560 ad3d
00000020: e97d 07be 83de 11be 1703 14be 8363 28bd
00000030: f178 11be 4b4c 0cbd c20a 4bbe 53f1 543d
00000040: 8623 0ebe 4094 aabd 54b3 5a3e 9089 f13d
00000050: b7f1 333e f8a9 71bd eb5c 46be 73d0 4a3e
00000060: f073 343d 35c2 41be 01fd 0fbd 22cf 76bd
00000070: e1a5 393e 3e90 3a3e 8442 4b3d 5411 883d
00000080: 2522 493e 1078 653d 0fee 013e ddd6 c93d
00000090: eeeb 123e 3c85 003e a5f5 ddbd fe99 30be
000000a0: 8946 953d f17e 0ebe 0a42 113e 90be 93b9
000000b0: 0485 57bc b0b5 003e 099b cb3d 1ce1 36bc
000000c0: 8fd0 423e f3ff 54be 6551 34be 4325 383e
000000d0: bf6e 003e 2eb1 46bd bea2 ec3d 2a5a a43d
000000e0: 9248 03be 3dea 66bd 1e5e 393e e543 353e
000000f0: 74da 0a3e f35d 68bc fd6f 303e 6b6a 453c
00000100: 6187 18bd 9364 233d 47c9 983d a409 703d
00000110: 0316 90bd 27eb cebd 0887 a83d 367b debd
00000120: 95d8 87bc 78c3 19be 5be4 23be f0d5 f0bd
00000130: 54f7 8a3c 8546 0e3e 39d9 a3bc 624a 1d3e
00000140: 75b0 013e e1d9 ca3d c8fd 4ebd 9a8d d23d
00000150: 5f19 293e 1dfd 4b3e 68e7 983d d7ec 223e
00000160: 7447 ad3d 5297 053e ad78 0d3e c4bc c4bd
00000170: 8e60 7a3d be2e c3bd 0cca ab3d 548d 46be
00000180: e35a ad3d caf9 c2bd b39d 1ebe d24d 0dbe
00000190: ff0f 90bd 146f f63d efe8 d1bd c312 58be
000001a0: fd54 703d d040 833d b770 ecbd de74 573e
000001b0: 3761 013d 33e4 d3ba c81d 2a3e 977c 4d3e
000001c0: e9e2 07be 3e1d aebc b28c 173d 8bb1 143e
000001d0: 10cd 253e 31c6 593e 190b 023e 5512 c4bd
000001e0: d07e 1c3e 8068 1abe 4a74 bcbd bc01 4d3e
000001f0: fc81 44be 434d 9d3d 2bb1 cb3d 5ecd 08be
-0.1376964 0.17763817 0.18626796 -0.10129241 -0.06121667 -0.03769913 0.20212087 0.08465699
-0.13231625 -0.14245038 -0.14454304 -0.041110527 -0.14206292 -0.034252446 -0.19828323 0.051987957
-0.13880739 -0.08329058 0.21357471 0.11793816 0.17572676 -0.058999985 -0.19371383 0.1980608
0.04405588 -0.1892174 -0.035153393 -0.06025613 0.18129684 0.18219087 0.04962398 0.0664393
0.19641931 0.056022704 0.12688468 0.09855435 0.14347813 0.12550825 -0.108378686 -0.17246243
0.07288844 -0.13915612 0.14185348 -0.00028180005 -0.013154272 0.12569308 0.0994168 -0.011162069
0.19024871 -0.20800762 -0.17609175 0.17982964 0.12542246 -0.048508815 0.11554478 0.0802501
-0.12820652 -0.05637573 0.18102309 0.17701681 0.13559896 -0.0141825555 0.1723022 0.012049298
-0.037238482 0.039890837 0.074602656 0.058602944 -0.070354484 -0.101034455 0.0822888 -0.10863344
-0.016582767 -0.15015972 -0.1600508 -0.11759555 0.016963638 0.13894089 -0.02000104 0.15360406
0.1266497 0.09904838 -0.050534993 0.102809146 0.16513585 0.19920774 0.07466012 0.1591066
0.08460894 0.13046005 0.13815565 -0.09606317 0.061127238 -0.095304 0.08388147 -0.1938985
0.08464601 -0.095203 -0.15489845 -0.13799217 -0.07034301 0.12032905 -0.10249507 -0.21100907
0.0586748 0.064088464 -0.11544936 0.21040675 0.031586852 -0.0016166031 0.16612923 0.20067059
-0.13270153 -0.021254178 0.036999412 0.14520852 0.16191506 0.2126701 0.12699546 -0.09573809
0.1528275 -0.15078926 -0.09201868 0.20020193 -0.1919021 0.07680752 0.099459015 -0.13359591
