Maize-Runner/results/TestRightExit3/EscapeMaze/EscapeMaze-1999941.onnx (onnx, 105780 bytes, 7 tensors)

action_model._continuous_distribution.log_sigma f4 [1, 2]
0	0xbde52717	-0.111890964
1	0xbd8ec06f	-0.069702975

action_model._continuous_distribution.mu.bias f4 [2]
0	0x3d92fbfc	0.071769685
1	0x3c1218b6	0.008917024

action_model._continuous_distribution.mu.weight f4 [2, 128]
0	0xbd302b3e	-0.04300999
1	0xbaa866e5	-0.0012848048
2	0x3c866da9	0.016409712
3	0xbd135b01	-0.03597546
4	0xbc87a0ac	-0.016556107
5	0xbc56c1b6	-0.013107708
6	0x3d0438a7	0.03228059
7	0xbbaf8cd7	-0.0053573656
8	0xbb94d1d5	-0.0045416155
9	0xbb64dafd	-0.0034920566
10	0xbc371281	-0.011173845
11	0xbc36b412	-0.011151331
12	0xbca32a36	-0.019917589
13	0xbce25d69	-0.027632432
14	0xbc13aa8f	-0.009012832
15	0x3d923aae	0.071400985
16	0xbd2e5cb8	-0.042568892
17	0xbaf10b1f	-0.0018390155
18	0xbc3450e4	-0.011005614
19	0x3c7edf18	0.015556119
20	0x3c37dd08	0.011222132
21	0x3d1e44ef	0.03863996
22	0x3cf0b46c	0.029382907
23	0xbc2ff72e	-0.010740085
24	0xbb86500c	-0.004098898
25	0xbc208e62	-0.009799572
26	0xbc9d5be3	-0.019208854
27	0x3c3ccd93	0.011523622
28	0xbc0c78af	-0.008573695
29	0x3cc689ed	0.02423569
30	0x3c18be91	0.009322778
31	0xb92d24ef	-0.00016512325
32	0xbaaef7ae	-0.0013348961
33	0x3bbf898a	0.0058452534
34	0x393a56ca	0.00017770674
35	0xbd86e8c1	-0.06587363
36	0x3cb032bb	0.021508565
37	0x3cca4a7b	0.024693718
38	0xbb23ef18	-0.0025014337
39	0xbcc225e6	-0.023699712
40	0x3bf7a22f	0.0075571756
41	0xb980220a	-0.00024439424
42	0xbc80cd72	-0.015722964
43	0x3ca3bcfe	0.01998758
44	0xbcd8f649	-0.026484625
45	0x3bb5c340	0.0055469573
46	0x3bb368ed	0.0054751546
47	0x3987c520	0.00025896076
48	0xbc312ef0	-0.010814413
49	0xbc8f64ed	-0.01750418
50	0xbc04e108	-0.008110292
51	0xbb885acd	-0.004161215
52	0xbd448735	-0.047980506
53	0xbd7c6dd1	-0.061628167
54	0x3bc64e4a	0.0060518133
55	0xbc1a0587	-0.009400732
56	0x3c5f74dc	0.013638701
57	0xbb9effdf	-0.0048522796
58	0xbb9f5e58	-0.0048635416
59	0xbce1240c	-0.027483009
60	0xbbc9d85a	-0.0061598243
61	0x3b42f748	0.0029749442
62	0x3c6e6487	0.014550335
63	0x3ac79c34	0.0015229047
64	0xbb2e60f4	-0.0026608082
65	0x3d1b3db7	0.037900653
66	0xbbf1cbc9	-0.0073790294
67	0xbb38e641	-0.0028213414
68	0x3d16615e	0.03671395
69	0xbc48313d	-0.012218771
70	0xbd1229fd	-0.035684574
71	0x3bb2ccc6	0.00545654
72	0xbd2056dc	-0.039145336
73	0x3c489a95	0.0122438865
74	0x3b83f308	0.0040267743
75	0x3d1fac90	0.038982928
76	0xba899a2b	-0.0010498216
77	0x3cedb42e	0.02901658
78	0xbc257253	-0.010098058
79	0xbb3591ee	-0.002770539
80	0x3c4e07f9	0.012575143
81	0xbc5ca17b	-0.013466234
82	0xbc30aac9	-0.010782906
83	0xbd94bcb7	-0.07262557
84	0xba296a39	-0.0006462667
85	0xbb8cd714	-0.0042981002
86	0x3cdedfe9	0.027206378
87	0x3bd2cf54	0.006433407
88	0x3aef5d30	0.0018262025
89	0x3c107bcd	0.008818579
90	0xbc84f625	-0.016230652
91	0xbc148702	-0.0090653915
92	0xbcc6ff1a	-0.024291564
93	0xbc4de6ab	-0.012567203
94	0xbc6cec87	-0.014460689
95	0x3cb2dbd5	0.02183334
96	0xbbcf0f2b	-0.006318947
97	0xbcad1302	-0.021127228
98	0x3cf6ed8a	0.030142564
99	0x3a8212a8	0.0009923773
100	0x3c6d6c18	0.014491104
101	0x3af0ecc4	0.0018381109
102	0x3c4771cf	0.01217313
103	0x3a6d3bb9	0.0009049732
104	0x3d8cca35	0.068745054
105	0xbced0134	-0.028931238
106	0xbca2f2be	-0.01989114
107	0x3d1922e7	0.0373868
108	0x3c69ecef	0.014277681
109	0x3c8fdfc5	0.017562756
110	0xb9dd4fa7	-0.0004221175
111	0x3ada5ad7	0.0016659152
112	0x3bb8848a	0.0056310343
113	0xbc66c483	-0.014084938
114	0x3c912d27	0.017721726
115	0x3c0379ef	0.008024677
116	0xbcd2aca0	-0.02571708
117	0x3d16769d	0.036734212
118	0x3c9bdc97	0.019026084
119	0xbaf97743	-0.0019032735
120	0xbd808735	-0.06275789
121	0x3d802974	0.062579066
122	0xbd385c15	-0.04500969
123	0xbdaa40a1	-0.08313108
124	0xbd0d5b61	-0.034510974
125	0xbd1d9c18	-0.03847894
126	0x3c3f5a8d	0.011679304
127	0x3cbfb75c	0.023402862
128	0x3d393b91	0.045222823
129	0x3d684be1	0.05671299
130	0x3c07ab0f	0.00828053
131	0x3c883a8a	0.016629476
132	0x3b3f4657	0.0029186213
133	0x3c9d6d47	0.019217147
134	0x3c740c99	0.014895582
135	0x3d09c9e9	0.033639822
136	0xbc0f0278	-0.008728616
137	0x3bacf6da	0.0052784504
138	0x3b1cd854	0.0023932653
139	0xbc2ed242	-0.010670247
140	0xbcf35884	-0.029705293
141	0x3bec9352	0.0072197104
142	0xbb5a71a9	-0.0033331907
143	0x3b9d5dca	0.0048024403
144	0xbc5889f0	-0.013216481
145	0x3b123a8c	0.0022312729
146	0xba667f40	-0.00087927654
147	0xbd5c5cbc	-0.053799376
148	0xbda43e1d	-0.0801966
149	0x3d4bb0a3	0.049729
150	0xbcc62325	-0.02418668
151	0x3d1a23fe	0.03763198
152	0x3baf0705	0.005341413
153	0xbc324488	-0.010880597
154	0xbd6cee5f	-0.057844516
155	0xbd34de3e	-0.04415726
156	0xbcb22af8	-0.021749005
157	0xbcbf1526	-0.023325514
158	0x3c1399ea	0.009008864
159	0xbc279ba3	-0.010229978
160	0xba247169	-0.0006273003
161	0x3b885ef7	0.0041617113
162	0xbb1a3250	-0.0023528524
163	0xbc9dda8e	-0.019269254
164	0x3c0886e3	0.008332941
165	0xbc5e014b	-0.013550113
166	0x3bd9ebd7	0.0066504288
167	0xbb0a7133	-0.00211246
168	0x3c051d4d	0.008124662
169	0xbd6921eb	-0.056917112
170	0x3cdf8b5f	0.027288137
171	0xbcae7531	-0.021296116
172	0x3c5de0fd	0.013542411
173	0xbb1f4fa3	-0.0024308942
174	0x3c6dd2a7	0.014515555
175	0xbbf284c0	-0.007401079
176	0xbc605e6e	-0.013694389
177	0xbc3d4695	-0.011552473
178	0xbb14b2a4	-0.0022689486
179	0xbaf85cc5	-0.0018948546
180	0xbc5e4733	-0.01356678
181	0xbd085e92	-0.033293314
182	0x3d44d2e8	0.0480527
183	0x3c14bbf5	0.009078016
184	0xbc5acd56	-0.01335462
185	0xbd011b3f	-0.031520125
186	0xbbc5d01f	-0.006036773
187	0xbcd875e6	-0.026423406
188	0x3d01e525	0.03171267
189	0x3b8c3cae	0.0042796945
190	0x3c8ebdb2	0.017424438
191	0xbac3e34f	-0.0014945063
192	0x3be89d8b	0.0070988587
193	0xbc96b42c	-0.01839646
194	0xbca8ad15	-0.020590344
195	0x3c8bbaa6	0.017056774
196	0xbd0f6510	-0.03500849
197	0xbc826f64	-0.015922256
198	0x3d452cb0	0.04813832
199	0xbb3dc900	-0.0028958917
200	0xbaad8379	-0.0013238034
201	0x3d089ed3	0.03335459
202	0x3bd53d8e	0.006507582
203	0xbc72d2e9	-0.014820793
204	0xba4af16f	-0.0007741665
205	0x3cde7011	0.027153047
206	0xbc538571	-0.012910233
207	0x3b96f052	0.004606285
208	0xbd25bc20	-0.040462613
209	0xbd43accf	-0.047772225
210	0x3b0021c8	0.0019551385
211	0x3c03599a	0.008016968
212	0x3bb60641	0.0055549447
213	0x3c27d6be	0.01024407
214	0x3c0eb76e	0.008710725
215	0xbbe0a22d	-0.0068552704
216	0xbcb2db88	-0.021833196
217	0xbd8427d2	-0.064529076
218	0x3cbd757e	0.023127314
219	0x3d06e648	0.032934457
220	0x3c2dbdb5	0.010604312
221	0xba7e5dd4	-0.00097033125
222	0xbd09279b	-0.033485036
223	0x3babd548	0.005243931
224	0xbba1a11f	-0.004932537
225	0xbcbff298	-0.023431107
226	0xbc1ade79	-0.009452456
227	0x3b9f3ebf	0.004859775
228	0x3d6e1910	0.05812937
229	0x3c5485d1	0.012971357
230	0xbc453236	-0.012035897
231	0x3bbf9d03	0.0058475747
232	0x3c08f597	0.008359334
233	0x3b38413a	0.002811505
234	0x3d221056	0.03956636
235	0xbd541396	-0.05177649
236	0xbd057693	-0.032583784
237	0xbbf07968	-0.0073386915
238	0x3d9f6c0d	0.07784281
239	0xba9caf8d	-0.0011954174
240	0xbbacb4d8	-0.0052705817
241	0x3cb48a47	0.022038592
242	0x3c8c425b	0.017121485
243	0xbc6999f4	-0.014257897
244	0x3c675832	0.0141201485
245	0xbbcb008e	-0.0061951345
246	0x3d068f73	0.032851648
247	0xbc82f5fe	-0.015986439
248	0xbd33db5b	-0.043910366
249	0x3d8b3659	0.06797475
250	0xb90199d8	-0.0001235971
251	0xbc0045c0	-0.00782913
252	0xbb1585ff	-0.0022815464
253	0x3d3b2aff	0.0456953
254	0xbcd2f702	-0.025752548
255	0x3da7c7f5	0.08192436

network_body._body_endoder.seq_layers.0.bias f4 [128]
0	0x3adda9b0	0.0016911533
1	0xbc934394	-0.01797656
2	0x3d01a7ff	0.031654354
3	0xbc847a07	-0.016171468
4	0xbcf0a573	-0.029375767
5	0xbb8f6122	-0.004375593
6	0xbcd7daa0	-0.026349366
7	0xbc9fe562	-0.019518558
8	0x3a9461aa	0.001132061
9	0xbd16ac28	-0.036785275
10	0xbba58308	-0.0050510205
11	0xbc96732c	-0.018365465
12	0xbccfa277	-0.025346024
13	0xbc88dffa	-0.016708363
14	0xbd327236	-0.04356595
15	0xbd017fbf	-0.03161597
16	0x3cb937a1	0.022609534
17	0xbb2617c0	-0.0025343746
18	0xbc9fe7cb	-0.019519707
19	0x3b0a1c1d	0.0021073886
20	0xbc239e0d	-0.009986413
21	0x3cbc5bc9	0.022992985
22	0x3b6cfbad	0.0036160753
23	0xbd320839	-0.043464873
24	0xbc1bc110	-0.009506479
25	0xbc43f0f6	-0.011959305
26	0xbccfe963	-0.025379842
27	0x3b90edb0	0.004422866
28	0x3a41e17f	0.0007395967
29	0xbd2589d8	-0.04041466
30	0x3a1f8981	0.00060858583
31	0xbc78a888	-0.0151769
32	0x3c012338	0.007881932
33	0xbcb6f652	-0.022334252
34	0x3b0609fc	0.0020452728
35	0x3bb2fb55	0.00546209
36	0xbc0cbdbe	-0.00859016
37	0xbd213f3d	-0.03936695
38	0xbd00c32c	-0.03143613
39	0x3c64bb29	0.013960638
40	0xbcd10118	-0.025513217
41	0x3c8788ae	0.016544666
42	0x3c41b7e1	0.011823625
43	0xbd69e240	-0.057100534
44	0x3c936887	0.017994178
45	0xbcd48efd	-0.025947088
46	0xbcf15795	-0.029460708
47	0xbc7718d8	-0.015081607
48	0xbd15dc90	-0.036587298
49	0xbc66a31b	-0.014076973
50	0xbcbb94fc	-0.02289819
51	0xbc5c56f5	-0.013448467
52	0xbd34fd0f	-0.044186648
53	0xbd21c00d	-0.039489795
54	0x3c8db4a5	0.017298052
55	0x3c84ceec	0.01621195
56	0x3c10fcd7	0.008849344
57	0x3d2c9a12	0.04213912
58	0x3d1475e4	0.03624524
59	0x3cccaf82	0.024986032
60	0xbd0030cd	-0.03129654
61	0xbc28184c	-0.010259699
62	0xbcf85545	-0.030314097
63	0xbb777b2b	-0.0037762623
64	0xbce2345e	-0.027612861
65	0xbb596cc1	-0.0033176395
66	0xbc5152f9	-0.01277613
67	0xbb8ddacb	-0.0043290607
68	0x3bc6cf51	0.0060671945
69	0x3b691214	0.0035563754
70	0xbbd5ca41	-0.0065243547
71	0xbc8ac434	-0.01693926
72	0x3c041e00	0.008063793
73	0xbc20f0b1	-0.00982301
74	0xbd0c0b76	-0.034190618
75	0xbc55c149	-0.013046571
76	0x3caef62c	0.021357618
77	0xbc870da0	-0.01648599
78	0x3c32d671	0.010915385
79	0x3c2c7ac2	0.010527315
80	0xbc95d85c	-0.018291645
81	0xbc496803	-0.012292865
82	0xba90cd7c	-0.0011047567
83	0xbc896208	-0.016770378
84	0x3b0e9e35	0.002176178
85	0x3c85dc47	0.016340388
86	0xbb4fe9ea	-0.0031725117
87	0xbc823680	-0.015895128
88	0xbcf4478f	-0.029819278
89	0x3b949e0d	0.0045354427
90	0xbc741d61	-0.014899583
91	0xbd43f425	-0.047840256
92	0x3bd361ba	0.006450859
93	0xbc592371	-0.013253079
94	0x3bf15e31	0.007365965
95	0xbd30d66a	-0.04317323
96	0x3c45fe10	0.012084499
97	0x3c268f3c	0.010165986
98	0x3cc0c6a7	0.023532225
99	0xbaa54a31	-0.0012610612
100	0xbc2075fc	-0.009793755
101	0x3c62ad67	0.013835288
102	0xbc5fdb5f	-0.013663142
103	0x3ac8e6f1	0.0015327615
104	0x3c2397ad	0.009984893
105	0xbcbc8f46	-0.023017537
106	0xbc85a55f	-0.016314207
107	0x3c5c3c76	0.013442149
108	0xbba626f4	-0.0050705615
109	0xbc361b45	-0.0111149
110	0x3babf46e	0.005247644
111	0x3c4181d7	0.011810741
112	0x3cf0cc42	0.029394273
113	0x3d2e314b	0.04252748
114	0xbcb32fa3	-0.0218733
115	0xbc5f61d5	-0.013634165
116	0xbc49796c	-0.012297016
117	0x3cafd871	0.021465512
118	0x3c8cab97	0.017171664
119	0xbca6ede5	-0.020377109
120	0xbccb1554	-0.024790443
121	0xbc42dcde	-0.011893479
122	0xbbba44b2	-0.0056844587
123	0x3cfa34c8	0.030542746
124	0x3ca95b17	0.020673318
125	0x3b07291f	0.0020623875
126	0x3d0197a6	0.031638764
127	0xbd1a082a	-0.037605442

network_body._body_endoder.seq_layers.0.weight f4 [128, 71]
0	0xbe224533	-0.1584671
1	0xbdf8e471	-0.12152947
2	0xbe240170	-0.16016173
3	0x3e260830	0.16214061
4	0x3e60c1de	0.21948954
5	0x3dfd0674	0.123547465
6	0xbc5b314c	-0.0133784525
7	0x3912da62	0.00014004999
8	0xbcdefa99	-0.027219104
9	0x3de31dbc	0.11089656
10	0xbe4594d9	-0.19295062
11	0x3de26cd8	0.110559165
12	0x3cf8b95a	0.03036182
13	0xbdd49a02	-0.10380937
14	0x3e86fea2	0.26366144
15	0xbcb01a89	-0.021497028
16	0xbe1f5eed	-0.15563555
17	0xbbcfcd63	-0.0063416227
18	0x3d9e5b6b	0.0773228
19	0xbdd735d5	-0.105083145
20	0x3d83b40c	0.064308256
21	0x3d9b662f	0.07587849
22	0x3e487bc7	0.19578467
23	0xbdc16b2d	-0.0944427
24	0xbd4641e6	-0.04840269
25	0xbca09195	-0.019600669
26	0xbebe0619	-0.37114027
27	0x3ea52bb7	0.32259914
28	0x3df789f4	0.12086859
29	0xbd0f13fa	-0.03493116
30	0xbd99c2a3	-0.07507827
31	0x3d999712	0.074995175
32	0x3dfff523	0.12497928
33	0xbc88d96d	-0.01670524
34	0xbd0532fa	-0.03251932
35	0xbe34351d	-0.17598386
36	0xbe12ad82	-0.14324
37	0xbdab50a8	-0.08364993
38	0x3e0e09f5	0.13870986
39	0x3dfbf1b2	0.12301959
40	0x3caa0ee8	0.020759061
41	0xbdcfd329	-0.101476975
42	0x3e1272d4	0.14301616
43	0xbd47dfd4	-0.048797444
44	0xbdbfcc64	-0.09365156
45	0xbe9e6cbf	-0.30942342
46	0x3d1bc16b	0.038026255
47	0xbdb19247	-0.08670478
48	0x3e3197ae	0.17343017
49	0xbdef7f71	-0.116942294
50	0xbd4dc80e	-0.050239615
51	0xbdb39c94	-0.08770099
52	0x3dd9f032	0.10641517
53	0x3dfb72b0	0.12277734
54	0x3c99e010	0.0187836
55	0xbe4dc06c	-0.20092934
56	0x3d25b3b1	0.04045457
57	0xbd3d3dfa	-0.046201684
58	0x3c6461ea	0.01393936
59	0xbe312367	-0.17298661
60	0x3d9765fe	0.073925
61	0x3b7ee022	0.0038890918
62	0xbc23b979	-0.009992951
63	0xbd917a7d	-0.07103441
64	0x3c074561	0.008256287
65	0xbea5ae89	-0.32359722
66	0x3d358ea1	0.044325475
67	0xbd9a7481	-0.075417526
68	0x3c50cfbe	0.012744842
69	0x3d5304c9	0.051518235
70	0x3e522daf	0.2052524
71	0x3a2ec1eb	0.0006666469
72	0x3d81ea6b	0.0634354
73	0x3d76f5a9	0.060292874
74	0xbe64a79e	-0.22329566
75	0xbed0f15b	-0.4080914
76	0xbe7e2372	-0.24818209
77	0x3d95177e	0.072798714
78	0xbe6ef4dd	-0.23335595
79	0x3d0f074f	0.03491908
80	0xbd48525d	-0.048906673
81	0xbd770ec0	-0.0603168
82	0xbe2ba381	-0.1676159
83	0xbe2ef288	-0.17084706
84	0x3e2b9e66	0.16759643
85	0xbc89fc9b	-0.016844084
86	0x3c7ba78a	0.015359769
87	0x3d97ae1f	0.07406258
88	0xbca9153b	-0.020640006
89	0x3d3afc41	0.045650724
90	0xbe72f54f	-0.2372639
91	0x3ec23236	0.37928933
92	0x3d63e3ba	0.0556371
93	0xbe126fd2	-0.14300469
94	0xbd27e076	-0.040985547
95	0x3db9bd6b	0.09069332
96	0x3dbf41ee	0.09338747
97	0x3cd7e44f	0.026353983
98	0xbd8bd516	-0.06827752
99	0x3d05ea7d	0.03269433
100	0xbd876a27	-0.06612044
101	0xbe2d06b3	-0.16897087
102	0xbe580b69	-0.21098103
103	0xbd7f489c	-0.062325105
104	0x3b9c8916	0.004777084
105	0x3dac57b0	0.084151626
106	0xbd434793	-0.04767568
107	0x3da1f613	0.07908263
108	0x3d99a031	0.07501257
109	0xbd8a38f3	-0.067491435
110	0xbc0542bb	-0.008133586
111	0xbd662e6a	-0.056196608
112	0x3da31c06	0.079643294
113	0x3d47172d	0.048606087
114	0x3dd400b1	0.103516944
115	0x3df7c62c	0.12098345
116	0xbe73f144	-0.23822504
117	0xbdf39456	-0.11893527
118	0x3dd18ec0	0.102323055
119	0xbd0c36e0	-0.03423202
120	0x3e3d0406	0.18458566
121	0xbcce1037	-0.025154216
122	0x3d3ce782	0.04611922
123	0x3e1be8aa	0.15225473
124	0xbe16f09f	-0.14740227
125	0x3d808913	0.06276145
126	0x3b3ce9c3	0.0028825856
127	0xbdc1c502	-0.094614044
128	0x3e2fc21c	0.1716389
129	0x3d631d43	0.055447828
130	0xbe2b632e	-0.16737053
131	0x3e2bfb8e	0.16795179
132	0x3e0bb502	0.13643268
133	0x3e32337e	0.17402455
134	0x3e3898d4	0.1802705
135	0x3d763af1	0.060114805
136	0xbdd69264	-0.104771405
137	0x3e2711ce	0.16315386
138	0xb9ba0a78	-0.00035484484
139	0x3d6fc61c	0.05853854
140	0xbcb7dc2a	-0.02244385
141	0xbe1bbc85	-0.15208633
142	0xbe192537	-0.14955603
143	0x3e2a866d	0.16652842
144	0xbe0a7925	-0.13522775
145	0x3d1e49ec	0.038644716
146	0xbe2b402e	-0.16723701
147	0xbe420ebf	-0.18950938
148	0x3e3ed4f6	0.18635926
149	0xbda1e740	-0.079054356
150	0x3d95e0de	0.07318281
151	0x3c824545	0.01590217
152	0xbac1f5a5	-0.0014797939
153	0x3e2d9226	0.16950282
154	0xbe34fa1d	-0.17673536
155	0x3e9c03a3	0.30471525
156	0xbde2fe29	-0.110836335
157	0xbcda94ce	-0.026682284
158	0x3e65f8d6	0.22458205
159	0xbdd396dd	-0.10331509
160	0xbe1ac3a2	-0.1511369
161	0xbe70f5eb	-0.2353131
162	0xbd45cf6b	-0.048293512
163	0x3dfd6a2e	0.12373768
164	0xbdc28baa	-0.09499295
165	0x3b9e56c2	0.0048321197
166	0xbcca5cd2	-0.024702463
167	0xbe565645	-0.20931347
168	0xbd797ff3	-0.060913038
169	0xbd42aac7	-0.047526147
170	0xbdad8927	-0.08473425
171	0x3e3d8b62	0.18510202
172	0xbe8ce9ee	-0.27522224
173	0xbc2c169f	-0.01050344
174	0xbbe87a96	-0.0070946915
175	0x3e121d8d	0.14269085
176	0xbe87497b	-0.2642325
177	0xbc600f41	-0.013675512
178	0xbe4de70d	-0.2010767
179	0xbd71438a	-0.0589023
180	0x3df5302f	0.11972081
181	0x3df55730	0.1197952
182	0xbdaf86f9	-0.08570666
183	0x3db82a30	0.089924216
184	0xbde6875f	-0.11256289
185	0xbe7548c7	-0.23953544
186	0xbcee97bf	-0.029125093
187	0xbce3fcbc	-0.027830474
188	0xbec63e56	-0.38719434
189	0xbc981cd9	-0.018568443
190	0x3c7c7fae	0.015411301
191	0xbe04c497	-0.12965618
192	0x3dad4ce1	0.08461929
193	0x3d680932	0.056649394
194	0x3dcf8aa1	0.10133863
195	0xbe057d58	-0.13036096
196	0xbca27c0f	-0.019834546
197	0xbcd9989c	-0.026562028
198	0xbcb886eb	-0.022525271
199	0x3e0fbc79	0.1403674
200	0xbe88e2de	-0.26735586
201	0x3e9082bb	0.2822474
202	0x3ebd7c62	0.3700896
203	0xbb0a7bd2	-0.0021130932
204	0xbe3de641	-0.18544866
205	0xbd9dc27e	-0.07703112
206	0xbd4d9129	-0.050187264
207	0x3e0a174b	0.13485448
208	0xbcbb32d7	-0.02285139
209	0x3e2ba1f7	0.16761003
210	0xbd94668f	-0.07246124
211	0x3c05d621	0.008168728
212	0x3df415bb	0.11918207
213	0xbcecd9b4	-0.028912403
214	0x3e1a7dd9	0.1508707
215	0xbe100b7a	-0.14066878
216	0xbdc3263a	-0.095287755
217	0xbb8502a7	-0.004059154
218	0x3c95bc4d	0.018278265
219	0xbde02191	-0.10943902
220	0x3dbb9f35	0.09161226
221	0xbe4dd22b	-0.20099704
222	0x3e466c32	0.1937721
223	0xbe6317e4	-0.22177082
224	0x3d67bc01	0.05657578
225	0x3da8835b	0.08228179
226	0xbdf92c8b	-0.12166699
227	0xbea8f925	-0.33002582
228	0xbdb57bff	-0.08861541
229	0x3e38d34b	0.18049352
230	0xbe88f2d8	-0.26747775
231	0xbd2e1b3a	-0.042506434
232	0xbd1fa63a	-0.038976885
233	0x3d6b3e87	0.057432678
234	0xbbc37505	-0.0059648775
235	0xbdb56eb0	-0.088590026
236	0x3d1f1866	0.038841628
237	0x3de02a83	0.109456085
238	0x3cad1460	0.02112788
239	0x3e3accf6	0.18242249
240	0xbd7244b9	-0.05914757
241	0xbd0a695a	-0.033791877
242	0x3e0e003a	0.13867274
243	0x3c5b608a	0.013389716
244	0xbe24239d	-0.1602921
245	0x3df9635c	0.121771544
246	0xbe371d4c	-0.1788227
247	0x3e3cb4a7	0.18428288
248	0xbdaf72b2	-0.08566798
249	0xbdf3adad	-0.118983604
250	0x3d05b26b	0.032640856
251	0x3ce2856b	0.02765151
252	0xbe1b54bb	-0.15169041
253	0x3e27cc4e	0.1638653
254	0xbd525339	-0.0513489
255	0xbdc44cee	-0.09584986

network_body._body_endoder.seq_layers.2.bias f4 [128]
0	0xbca4b7f4	-0.020107247
1	0x3c7cb13f	0.015423118
2	0x3a2c3dc8	0.00065704854
3	0xbd15a8de	-0.036537997
4	0xbd426718	-0.0474616
5	0xbc63d6f4	-0.013906229
6	0x3c761ef6	0.01502203
7	0x3c2a1f7a	0.010383481
8	0xbc67ce25	-0.01414827
9	0xbc687021	-0.01418689
10	0xbcb67cab	-0.022276243
11	0xbc1dd0b3	-0.009632277
12	0xbcf21fb0	-0.029556125
13	0xbd0fda61	-0.03512037
14	0xbaee3330	-0.0018173214
15	0x3d0b9f52	0.034087487
16	0xbd5409ab	-0.051767033
17	0xbd3afb75	-0.045649964
18	0xbd1feb10	-0.039042532
19	0xbbf8b354	-0.007589737
20	0xbbcd5539	-0.006266263
21	0x3ccaae57	0.024741335
22	0x3cd84c1a	0.026403476
23	0xbd141fd2	-0.03616316
24	0xbca918bf	-0.020641683
25	0xbc636329	-0.013878622
26	0xbd02a06d	-0.031891275
27	0xbcf15346	-0.029458653
28	0xbd4ffdd1	-0.050779168
29	0xbccb19e3	-0.024792617
30	0xbc66f56d	-0.0140966
31	0x3ca29804	0.019847877
32	0xbbb646e2	-0.005562649
33	0x3ab8157c	0.0014044489
34	0x3c4a4d5d	0.012347546
35	0xbd2acb72	-0.041697927
36	0x3c07dd05	0.008292441
37	0xbbf78ae7	-0.0075544002
38	0xbb07e7d3	-0.0020737543
39	0x3b09d72f	0.00210328
40	0xbbbeacdb	-0.005818946
41	0xbcebc041	-0.028778197
42	0xbbd13ee2	-0.00638567
43	0xbc04a87b	-0.0080968095
44	0xbd6f5f74	-0.05844064
45	0xb9dbcdc6	-0.00041924248
46	0xbc0d5d47	-0.008628196
47	0xbcb9044a	-0.022585053
48	0xbc684e94	-0.014178891
49	0xbcd49152	-0.0259482
50	0xbbea239e	-0.007145359
51	0xbc3a1b7f	-0.011359095
52	0xbd101a89	-0.035181556
53	0xbd590f91	-0.05299336
54	0xbc044a1c	-0.00807431
55	0xbd086621	-0.033300523
56	0xbcf710cd	-0.030159378
57	0xbd27390c	-0.04082589
58	0x3bfab327	0.007650751
59	0xbcdbbfb7	-0.026824815
60	0xbcfc0c85	-0.030767689
61	0xbcfc2a58	-0.03078191
62	0x3c574f2d	0.013141436
63	0xba791dc5	-0.0009503032
64	0xbbd08eeb	-0.0063646934
65	0xbb8720e6	-0.004123795
66	0xbce0a53f	-0.027422545
67	0xba2e5b0f	-0.0006651142
68	0xbb92f6ca	-0.004484986
69	0x3b0e5ae3	0.0021721653
70	0x3c3f6dcd	0.011683893
71	0xbcc5b8ba	-0.024135936
72	0xbd06ac70	-0.032879293
73	0x3c363135	0.01112013
74	0xbc22c3c6	-0.009934371
75	0xbc4217c1	-0.011846484
76	0xbd08d84b	-0.033409398
77	0xbc3e3eab	-0.011611621
78	0xbb6da849	-0.0036263636
79	0xbc983ef0	-0.018584698
80	0xbc798b48	-0.015230961
81	0xbd006843	-0.03134943
82	0xbc3a2020	-0.011360198
83	0xbd3ecc80	-0.046581745
84	0xbc98da21	-0.0186587
85	0xbc89c84b	-0.01681914
86	0x3c6c2bdf	0.014414757
87	0xbc4be887	-0.012445576
88	0xbd205395	-0.03914221
89	0xbca004b0	-0.019533485
90	0xbd413b4f	-0.0471757
91	0x3b30b83d	0.0026965283
92	0xbbb367dd	-0.005475028
93	0xbca2d7a7	-0.019878222
94	0xbd2e9bfe	-0.042629234
95	0xbcabcd97	-0.020972056
96	0xbd0f6224	-0.035005704
97	0xbd225b36	-0.039637767
98	0x3c9c407c	0.019073717
99	0xbc467988	-0.012113936
100	0xbc5ec961	-0.013597817
101	0xbb97b0cd	-0.0046292306
102	0x3a0b8616	0.00053224096
103	0x3ca0dc05	0.019636163
104	0x3cf06e64	0.029349513
105	0xbd118549	-0.0355275
106	0xbcaf9384	-0.021432646
107	0x3c66e52e	0.014092727
108	0xbc388172	-0.011261331
109	0xbbfa2e5b	-0.0076349205
110	0xbc225593	-0.009908098
111	0x3c52723f	0.012844621
112	0x3aae948c	0.0013319417
113	0xbc39f3c3	-0.011349621
114	0x3bf8068a	0.007569139
115	0xbc571612	-0.013127821
116	0xbd04a55b	-0.032384258
117	0x3cac1303	0.02100516
118	0x3bf60d95	0.0075089433
119	0x3b00b825	0.0019641009
120	0xbd77d909	-0.060509715
121	0x3d0d034f	0.034426983
122	0xbd2d5569	-0.04231778
123	0xbd3c2dcb	-0.04594211
124	0xbd41235c	-0.047152862
125	0xbd3e70bf	-0.04649424
126	0xbbb0d757	-0.0053967643
127	0x3c5dbbc4	0.013533536

network_body._body_endoder.seq_layers.2.weight f4 [128, 128]
0	0xbe55f15a	-0.2089285
1	0x3ceeff53	0.029174482
2	0x3d3700f0	0.04467863
3	0x3db328d8	0.08748025
4	0x3dae6064	0.08514479
5	0xbd56c098	-0.052429765
6	0xbdc0d1e7	-0.09415036
7	0xbd8ff5a3	-0.07029273
8	0x3c30d6fa	0.010793442
9	0xbdd8431b	-0.10559674
10	0x3d94d67e	0.07267474
11	0x3e46a104	0.1939736
12	0xbd211fec	-0.039337084
13	0xbe205575	-0.156576
14	0xbd801234	-0.06253472
15	0xbe22a216	-0.15882143
16	0xbe1e1505	-0.15437706
17	0x3e157641	0.14595892
18	0x3d9be822	0.07612635
19	0x3de694b4	0.112588316
20	0xbcf16cd1	-0.029470833
21	0x3e0804af	0.13283037
22	0xbe4eb882	-0.20187572
23	0xbc8933a9	-0.016748266
24	0x3d53c558	0.051701874
25	0x3df9a6fe	0.12190054
26	0x3dbdf484	0.09275153
27	0xbdfbd1d6	-0.122958824
28	0xbccefa8f	-0.02526596
29	0xbd7db589	-0.061940704
30	0x3d906afa	0.07051654
31	0x3d589ccc	0.05288391
32	0x3cfd6235	0.030930618
33	0xbdf460f0	-0.11932552
34	0x3d52550e	0.051350646
35	0x3dd49110	0.10379231
36	0x3d6f84cd	0.058476258
37	0x3d2a2150	0.041535676
38	0xbc2088cc	-0.00979824
39	0xbd089361	-0.033343676
40	0xbcc45c44	-0.023969777
41	0xbe3c4a8f	-0.18387817
42	0x3dbcb967	0.0921505
43	0xbd5cedcb	-0.053937715
44	0xbe21d7d0	-0.15804982
45	0xbce00f10	-0.027350932
46	0xbbb1d272	-0.0054266984
47	0xbd332dee	-0.043744974
48	0xbdd953e8	-0.10611707
49	0x3db034a1	0.08603788
50	0xbc52a9dd	-0.012857881
51	0x3e8af5a9	0.2714055
52	0x3e3335d9	0.1750101
53	0x3e17d4db	0.14827292
54	0x3e362617	0.17787968
55	0xbe6615c0	-0.22469234
56	0xbd771195	-0.060319502
57	0xbe14d4d9	-0.1453432
58	0xbe6cdde3	-0.23131518
59	0x3e107a69	0.14109196
60	0xbdca7421	-0.09885431
61	0xbde57c90	-0.11205399
62	0xbe0af641	-0.13570501
63	0x3e438abc	0.19095892
64	0xbe01091f	-0.12601136
65	0x3d327286	0.04356625
66	0xbdbfa28a	-0.09357174
67	0x3db91eaf	0.090390556
68	0xbdd479cd	-0.10374794
69	0x3e430cc4	0.19047838
70	0x3d5f2d61	0.054486636
71	0x3dbcf1be	0.09225796
72	0xbd8d9cd8	-0.06914681
73	0x3dd4826e	0.1037644
74	0xbccf7b21	-0.025327267
75	0xbd3e0c92	-0.046398707
76	0xbe09b520	-0.13448
77	0xbd8e07d1	-0.069350846
78	0x3df2b05a	0.11850043
79	0xbda867af	-0.08222901
80	0x3bf161e3	0.0073664053
81	0x3d6ce4de	0.057835452
82	0xbdb3e796	-0.08784406
83	0x3dd3d7a8	0.103438675
84	0xbdd71f2e	-0.10503994
85	0xbd0d192c	-0.034447834
86	0xbd85f03f	-0.06539964
87	0xbe3590a0	-0.17730951
88	0xbe3fcd65	-0.18730696
89	0xbcaaff9b	-0.020873835
90	0x3db23114	0.08700767
91	0x3c7e3685	0.015515928
92	0xbe17a3a9	-0.14808525
93	0x3d68492b	0.056710403
94	0xbd0c432c	-0.034243748
95	0xbe255470	-0.16145492
96	0xbd62689a	-0.055275537
97	0x3d61589c	0.055016145
98	0x3dc73b57	0.09728115
99	0x3d807060	0.06271434
100	0xbdcc1db3	-0.09966602
101	0x3dde3638	0.10850185
102	0xbc77f646	-0.0151344
103	0xbda4c209	-0.08044822
104	0xbe024166	-0.1272026
105	0x3d1ca4d1	0.03824312
106	0x3cb3ec9f	0.021963416
107	0x3e6541cb	0.2238838
108	0xbd88615e	-0.06659196
109	0xbdb69b10	-0.089162946
110	0x3d8cf532	0.06882705
111	0x3d6f62ab	0.058443706
112	0xbe46c610	-0.19411492
113	0x3e50cfd2	0.20391777
114	0xbb21bb9e	-0.002467848
115	0xbd516fe4	-0.051132098
116	0xbb9aae04	-0.0047204513
117	0xbacc7a5d	-0.0015600432
118	0x3d72e852	0.05930359
119	0xbdc10863	-0.09425428
120	0xbd3de3f6	-0.04635998
121	0xbdca1a8c	-0.09868345
122	0xbe772836	-0.24136433
123	0x3d880f2d	0.066435196
124	0x3dbfe633	0.09370079
125	0xbdf6155e	-0.12015794
126	0x3b185078	0.0023241322
127	0xbbdb75e1	-0.006697402
128	0xbd407623	-0.046987664
129	0x3da3c83c	0.07997176
130	0x3e31e38d	0.1737196
131	0x3d8b1d11	0.06792653
132	0xbcfb806e	-0.030700888
133	0xbe18b042	-0.14910987
134	0xbdad7ec5	-0.08471445
135	0x3e17d009	0.14825453
136	0x3d4e0e5f	0.050306674
137	0x3d66f57a	0.05638645
138	0x3d9adfec	0.07562241
139	0x3dadf89b	0.08494683
140	0xbd9f1ec7	-0.07769542
141	0xbdb51cbf	-0.088433735
142	0x3e0c9902	0.13730243
143	0xbe27a62d	-0.16371985
144	0x3b8cf9b5	0.0043022283
145	0x3e015fe6	0.12634239
146	0xbc217301	-0.009854079
147	0xbd33dfcf	-0.043914612
148	0xbd6a3511	-0.057179514
149	0xbcfe97a6	-0.031078171
150	0x3d4866ee	0.048926286
151	0x3daca3ec	0.08429703
152	0xbc69d5a5	-0.014272128
153	0xbe8222c8	-0.2541716
154	0x3d5f026b	0.054445665
155	0x3d3a16ad	0.04543178
156	0x3d2b1f7e	0.04177808
157	0xbe004ae6	-0.12528571
158	0x3e7ce51f	0.24696778
159	0x3d87107a	0.065949395
160	0x3dfa0ace	0.12209092
161	0xbe2b7d4c	-0.16747016
162	0x3c19fd15	0.009398718
163	0x3d8d6916	0.06904809
164	0xbe504666	-0.20339355
165	0xbbcda172	-0.0062753493
166	0xbd96c11b	-0.07361051
167	0xbd559a53	-0.05214913
168	0xbd9e2624	-0.077221185
169	0xbdab5567	-0.083658986
170	0xbdb33f37	-0.08752292
171	0xbc8637b7	-0.016383989
172	0x3dbf5cbb	0.09343859
173	0x3e5eaa88	0.2174474
174	0xbd92b3cb	-0.07163199
175	0xbdc12fa8	-0.09432918
176	0xbe1b2c83	-0.15153699
177	0x3e90442f	0.2817702
178	0xbd88930b	-0.06668671
179	0x3d8eb482	0.06968023
180	0xbe0acd39	-0.13554849
181	0x3d479423	0.04872526
182	0xbd2a25bc	-0.041539893
183	0x3d53e374	0.051730588
184	0x3e2128c4	0.15738207
185	0x3d008217	0.031374063
186	0xbe1db894	-0.15402442
187	0x3dcfabf6	0.10140221
188	0x3e2ef48b	0.17085473
189	0xbdc05809	-0.093917914
190	0x3baf0e3c	0.005342273
191	0xbd35fcb6	-0.044430457
192	0xbde9b3c2	-0.11411239
193	0xbd2de616	-0.042455755
194	0xbd652f74	-0.055953458
195	0x3dfb2114	0.122621685
196	0xbc7bc1ac	-0.015365999
197	0xbd97ff8b	-0.07421788
198	0xbd07c12b	-0.033143204
199	0x3e0a037e	0.13477895
200	0x3d8a5cb7	0.06755965
201	0x3d3f2bb5	0.04667254
202	0x3d7953a5	0.060870785
203	0xbc8b66ea	-0.017016847
204	0xbca79e3c	-0.020461194
205	0xbcdfcde1	-0.02731985
206	0x3e1d0d62	0.15337136
207	0xbb4c82a7	-0.0031205805
208	0xbcb211e1	-0.021737041
209	0x3db8d1a0	0.09024358
210	0xbdd6941f	-0.104774706
211	0x3df56bbf	0.119834416
212	0xbd648d50	-0.05579883
213	0xbcf6e4fc	-0.030138485
214	0x398e204d	0.00027108417
215	0xbd26c6d4	-0.04071696
216	0xbac5c83d	-0.0015089583
217	0x3a8a4458	0.0010548932
218	0x3d1bf8c8	0.038079053
219	0x3d88c593	0.06678309
220	0x3d215bc8	0.03939417
221	0xbd2dc8a9	-0.042427693
222	0x3deef92b	0.11668619
223	0xbd3457ea	-0.044029154
224	0x3e028521	0.12746097
225	0x3d8b383a	0.06797834
226	0x3e054dcd	0.1301796
227	0x3cbb5196	0.022866052
228	0x3d91c776	0.07118122
229	0x3d0a3fac	0.03375213
230	0x3c6e2e71	0.01453744
231	0x3e80cf0f	0.25157973
232	0x3e248dac	0.16069669
233	0x3d12b39a	0.035815813
234	0x3d002f52	0.03129513
235	0xbc9e8bb7	-0.01935373
236	0x3c1b6f84	0.009487037
237	0xbc142531	-0.00904207
238	0x3c61b7e2	0.013776751
239	0x3d869373	0.065710925
240	0x3e43434d	0.19068642
241	0x3dee1d2d	0.116266586
242	0xbda41823	-0.08012416
243	0x3d54eed0	0.05198556
244	0x3db6d62d	0.089275695
245	0x3d4dc602	0.050237663
246	0xbda58be6	-0.08083324
247	0x3dedf482	0.11618902
248	0xbdacb4d0	-0.08432925
249	0x3e0a3cf7	0.13499819
250	0xbd8c4956	-0.06849925
251	0x3bf9fddb	0.007629139
252	0xbc554b79	-0.013018482
253	0xbd9cb37c	-0.076514214
254	0xbe02a88e	-0.12759611
255	0xbd866922	-0.06563021
