Maize-Runner/results/TestRightExit3/EscapeMaze/EscapeMaze-999943.pt (torch, 639071 bytes, 36 tensors)

network_body._body_endoder.seq_layers.0.weight f4 [128, 71]
0	0xbe07d79b	-0.1326584
1	0xbe0109c7	-0.12601386
2	0xbe4393b5	-0.19099315
3	0x3e43c291	0.1911719
4	0x3e610a6d	0.21976633
5	0x3d8e3cdf	0.06945204
6	0xbbdbf2ae	-0.0067122793
7	0xbd25d9bc	-0.04049085
8	0x3be7adc9	0.0070702774
9	0x3df8e0df	0.12152266
10	0xbe58e707	-0.2118188
11	0x3dec81c4	0.11548188
12	0x3d0ef94a	0.03490571
13	0xbdede069	-0.116150685
14	0x3e78040a	0.24220291
15	0xbd024bf6	-0.031810723
16	0xbe1a3420	-0.15058947
17	0x3a4929ea	0.0007673787
18	0x3d30b22f	0.04313868
19	0xbe0a3afc	-0.13499063
20	0x3c0b9534	0.0085194595
21	0x3dcea94e	0.10090886
22	0x3e29c84b	0.16580312
23	0xbd912aa7	-0.070882134
24	0xbd5beb43	-0.05369116
25	0x3c1c4cd4	0.009539802
26	0xbeb55173	-0.35413703
27	0x3eae629d	0.3405961
28	0x3d504b98	0.05085334
29	0xbd88de62	-0.06683041
30	0xbe156f9d	-0.14593358
31	0x3dc02fbf	0.09384107
32	0x3e0b5d2b	0.1360976
33	0xbd6729c0	-0.0564363
34	0xbd89f52e	-0.067362174
35	0xbde0121f	-0.10940956
36	0xbe0d0958	-0.13773096
37	0xbdc4dd12	-0.09612478
38	0x3df2934b	0.118445
39	0x3e038b5b	0.12846129
40	0xbd1310ff	-0.03590488
41	0xbdc6dcbe	-0.09710072
42	0x3e1577d7	0.14596497
43	0xbd159a11	-0.036523882
44	0xbdfb1355	-0.12259547
45	0xbe43b828	-0.19113219
46	0xbce25ac1	-0.027631165
47	0xbc96b77d	-0.01839804
48	0x3e071548	0.13191712
49	0xbdf376f0	-0.1188792
50	0xbdeaf034	-0.11471596
51	0xbda43189	-0.080172606
52	0x3de93329	0.11386711
53	0x3dec042e	0.11524235
54	0xbb0e6b7f	-0.0021731553
55	0xbe28f258	-0.16498697
56	0x3d2a720a	0.041612662
57	0xbd5fe1d0	-0.05465871
58	0xbbc36e24	-0.0059640575
59	0xbe0abf14	-0.13549453
60	0x3de9c46a	0.11414416
61	0xbc8768e9	-0.016529517
62	0x3c040dfd	0.008059976
63	0xbda94240	-0.08264589
64	0x3ca37bf8	0.019956574
65	0xbea5ae89	-0.32359722
66	0x3d358ea1	0.044325475
67	0xbd9a7481	-0.075417526
68	0x3c50cfbe	0.012744842
69	0x3d5304c9	0.051518235
70	0x3e522daf	0.2052524
71	0xbbc9cee8	-0.0061586984
72	0x3d53f588	0.05174783
73	0x3d892df2	0.066982165
74	0xbe384060	-0.17993307
75	0xbeb2e075	-0.34936872
76	0xbe61f878	-0.2206744
77	0x3d4f5c72	0.050625272
78	0xbe33a7b9	-0.1754445
79	0x3d089d06	0.033352874
80	0xbcbdffd8	-0.023193285
81	0xbe00678b	-0.12539499
82	0xbe33150c	-0.17488497
83	0xbdff3afd	-0.12462423
84	0x3e1e39fa	0.15451804
85	0x3b91a150	0.004444279
86	0x3cd65e87	0.026168121
87	0x3d913445	0.07090048
88	0xbc9c5469	-0.019083219
89	0x3d9801d7	0.07422226
90	0xbe43c833	-0.19119339
91	0x3eed0562	0.4629317
92	0x3ca2825f	0.019837556
93	0xbdbb48ce	-0.09144746
94	0xbd5b8118	-0.05358991
95	0x3dcb24a6	0.099190995
96	0x3d84fd33	0.064936064
97	0xbb8e914b	-0.0043508164
98	0xbd7fd38e	-0.062457614
99	0x3df15517	0.11783808
100	0xbcb3753f	-0.021906493
101	0xbdc8428b	-0.09778317
102	0xbe30d453	-0.17268495
103	0xbd9d5870	-0.07682884
104	0xbc94ea95	-0.018178264
105	0x3db50a99	0.08839912
106	0xbd7cf103	-0.061753284
107	0x3dcd8db7	0.100367956
108	0x3dce24c5	0.10065607
109	0xbdecc67a	-0.11561294
110	0xbd01203f	-0.031524893
111	0xbbe4563e	-0.0069682887
112	0x3dae01c5	0.08496431
113	0x3d3014a3	0.04298843
114	0x3dd773de	0.10520147
115	0x3e10b6c0	0.14132214
116	0xbe6a635c	-0.22889465
117	0xbdbec83c	-0.093155354
118	0x3da93477	0.0826196
119	0xbd0e2794	-0.034705713
120	0x3e293416	0.16523775
121	0xbbd0dfb6	-0.0063743247
122	0x3d368524	0.044560567
123	0x3e0ca6be	0.13735482
124	0xbdece98b	-0.11567982
125	0x3dae4707	0.08509641
126	0x3d8cd1de	0.068759665
127	0xbddc6c21	-0.107628115
128	0x3e2d8b64	0.16947705
129	0x3d876a7d	0.06612108
130	0xbe3805d9	-0.1797098
131	0x3e32ac4d	0.1744854
132	0x3e1ffc0c	0.15623492
133	0x3e16f33b	0.14741223
134	0x3e429711	0.1900294
135	0x3d607a8a	0.054804362
136	0xbdd69264	-0.104771405
137	0x3e2711ce	0.16315386
138	0xb9ba0a78	-0.00035484484
139	0x3d6fc61c	0.05853854
140	0xbcb7dc2a	-0.02244385
141	0xbe1bbc85	-0.15208633
142	0xbe3cbe2b	-0.18431918
143	0x3e0ed56b	0.139486
144	0xbdf1b8d5	-0.11802832
145	0x3c40adb8	0.011760168
146	0xbe2a0c22	-0.16606191
147	0xbdb10e11	-0.08645261
148	0x3e117181	0.14203455
149	0xbc660871	-0.0140400985
150	0x3c6dd74f	0.014516666
151	0xbb24dfa9	-0.0025157726
152	0xbdb365eb	-0.08759674
153	0x3e06db6a	0.13169637
154	0xbdf0d0de	-0.11758588
155	0x3e9025b0	0.28153753
156	0xbdf8f160	-0.12155414
157	0xbcb26b10	-0.021779567
158	0x3e4ac362	0.19801095
159	0xbde9a2ef	-0.1140803
160	0xbe17c7f6	-0.14822373
161	0xbe5f4462	-0.2180343
162	0x3cc5f85c	0.024166279
163	0x3d8c7eee	0.068601474
164	0xbda15603	-0.078777336
165	0xbaf778b1	-0.0018880573
166	0xbc3b4b72	-0.011431562
167	0xbe4218d4	-0.18954784
168	0xbde06392	-0.109564915
169	0xbda92d53	-0.08260598
170	0xbd39160a	-0.045187034
171	0x3e43f74d	0.19137307
172	0xbe8b06fc	-0.27153766
173	0x3c028b7c	0.007967826
174	0xbcd6c8c5	-0.026218781
175	0x3da6d86b	0.08146747
176	0xbe95729a	-0.29188997
177	0xbd0a7f3b	-0.033812743
178	0xbe3e7e14	-0.18602782
179	0xbd37ff23	-0.04492105
180	0x3d4695d5	0.048482735
181	0x3d826490	0.06366837
182	0xbca6e9f0	-0.020375222
183	0x3d1bbd2d	0.03802221
184	0xbe0a0b3b	-0.13480847
185	0xbe46faa6	-0.19431552
186	0xbc1e29d1	-0.0096535245
187	0xbdb4cee3	-0.08828523
188	0xbeb8cfa9	-0.36095932
189	0xbd8cbaf4	-0.06871596
190	0x3d136bd5	0.03599151
191	0xbe1e436b	-0.15455405
192	0x3da6910b	0.081331335
193	0xbbd67af7	-0.0065454203
194	0x3de1e769	0.11030466
195	0xbde27e51	-0.11059249
196	0xbd78b626	-0.060720585
197	0xbd825308	-0.06363493
198	0xbd8aa0bf	-0.06768941
199	0x3dfda14a	0.12384279
200	0xbe72a012	-0.23693874
201	0x3e7cdc9f	0.24693535
202	0x3ebdb7ad	0.37054196
203	0xbc81908f	-0.015816001
204	0xbe70ab7a	-0.23502913
205	0xbda726e3	-0.08161714
206	0xbd9de8e9	-0.0771044
207	0x3e0a174b	0.13485448
208	0xbcbb32d7	-0.02285139
209	0x3e2ba1f7	0.16761003
210	0xbd94668f	-0.07246124
211	0x3c05d621	0.008168728
212	0x3df415bb	0.11918207
213	0x3bddbdb6	0.006767
214	0x3e2a5da7	0.16637288
215	0xbe347957	-0.17624412
216	0xbd870649	-0.06592996
217	0x3a4e95a2	0.00078805734
218	0x3cdb0d76	0.026739817
219	0xbda4f7be	-0.080550656
220	0x3d06c74a	0.0329049
221	0xbe44fd0c	-0.19237155
222	0x3e3bb4ab	0.18330638
223	0xbe1cd98f	-0.15317367
224	0x3d7887a2	0.060676225
225	0x3d85070c	0.06495485
226	0xbdc14886	-0.09437661
227	0xbea770f5	-0.32703367
228	0xbdbe64ea	-0.092965916
229	0x3e4da1b9	0.20081224
230	0xbe95a0fa	-0.29224378
231	0xbd5d5a35	-0.054041106
232	0xbd7c4f4d	-0.061599065
233	0xbc904e13	-0.017615354
234	0x3c0ffb97	0.008788011
235	0xbdbfd9d9	-0.09367723
236	0x3d5e51d1	0.054277245
237	0x3ddf2b5f	0.10896944
238	0x3d90f769	0.0707844
239	0x3e4bc723	0.19900183
240	0xbdb4c0f3	-0.08825865
241	0xbd8a1688	-0.06742579
242	0x3dfb11ac	0.1225923
243	0x3c1417e2	0.009038897
244	0xbe1e33aa	-0.15449396
245	0x3dc7f633	0.09763756
246	0xbe17ce05	-0.14824684
247	0x3e443453	0.19160585
248	0xbc282339	-0.010262304
249	0xbde83c3a	-0.11339612
250	0xbcc27600	-0.023737907
251	0x3d65cbb8	0.056102484
252	0xbe19c995	-0.15018304
253	0x3dba8fcc	0.09109458
254	0xbd40f82d	-0.04711168
255	0xbd9a7b44	-0.07543042

network_body._body_endoder.seq_layers.0.bias f4 [128]
0	0x39489781	0.00019129926
1	0xbc4c1a69	-0.012457469
2	0x3ab3baa5	0.0013712241
3	0xbc393e7d	-0.011306402
4	0xbcad763c	-0.021174543
5	0xbb7c617e	-0.0038510258
6	0xbbf78234	-0.007553363
7	0xbcec7327	-0.028863503
8	0xbba8a1cd	-0.0051462413
9	0xbd20b332	-0.039233394
10	0xba71b1e0	-0.0009219926
11	0x38f3eec5	0.00011631617
12	0xbcfca0c7	-0.030838383
13	0xbc079b4d	-0.008276773
14	0xbd17f1ee	-0.037095957
15	0xbd13110c	-0.03590493
16	0x3cbf0c16	0.023321193
17	0x3aeaa0cd	0.0017900706
18	0xbcb7fd8d	-0.02245977
19	0xbbcb93d6	-0.006212692
20	0xbc6117bf	-0.013738572
21	0x3cea9d0b	0.028639337
22	0x3c162b41	0.009165586
23	0xbd3cba23	-0.04607595
24	0xbcbe678a	-0.02324273
25	0xbc957524	-0.018244334
26	0xbc968b57	-0.01837699
27	0x3bd33dcd	0.006446576
28	0xbba15ed3	-0.004924634
29	0xbd0de860	-0.03464544
30	0x3b5fe74a	0.0034164959
31	0xbc398c75	-0.0113249915
32	0x3bc2a35b	0.0059398836
33	0xbd0b7663	-0.03404845
34	0xbc1b25b4	-0.009469438
35	0x3b354072	0.002765682
36	0xba8d86fb	-0.0010797674
37	0xbd2fabe3	-0.042888533
38	0xbd05ec3c	-0.032695994
39	0x3c98feb8	0.018676147
40	0xbc89f086	-0.016838323
41	0xbb9401bc	-0.0045168083
42	0x3cb022bc	0.021500938
43	0xbd1bb53d	-0.03801464
44	0x3b8101e6	0.003936994
45	0xbd1a2174	-0.03762956
46	0xbc60159b	-0.013677026
47	0xbc5b2916	-0.013376495
48	0xbcc59619	-0.024119424
49	0xbc8348a2	-0.016025845
50	0xbcc8c932	-0.02451
51	0xbceba75c	-0.028766327
52	0xbcf442dc	-0.029817037
53	0xbd69a945	-0.057046194
54	0x3cb7239c	0.022355847
55	0x3caf57f5	0.021404246
56	0x3c21b968	0.009870864
57	0x3d4ed772	0.050498433
58	0x3d1cd96c	0.038293287
59	0x3cb55b44	0.022138245
60	0xbd41d392	-0.04732091
61	0xbc373a64	-0.011183355
62	0xbcd62b3a	-0.026143659
63	0xbc6325f5	-0.01386403
64	0xbce1c8d5	-0.027561584
65	0xbc12f2a6	-0.008968985
66	0xbc0085cb	-0.007844399
67	0xbb217632	-0.00246371
68	0x3bd834c7	0.0065980884
69	0xbba01567	-0.004885364
70	0xbbc54dc1	-0.006021232
71	0xbcfeb02e	-0.031089868
72	0x3c78bdb8	0.015181951
73	0xbc7ca678	-0.015420549
74	0xbc8ae7d3	-0.016956246
75	0xbc273353	-0.010205108
76	0x3cd3b691	0.02584389
77	0xbd047a95	-0.032343466
78	0xbadaf2e7	-0.0016704471
79	0x3be146c2	0.00687489
80	0xbbb0488f	-0.0053797434
81	0xbbcc065a	-0.006226343
82	0xbbe177de	-0.0068807444
83	0xbc1ff6c1	-0.009763421
84	0x3c3907aa	0.011293331
85	0x3cba2754	0.022723831
86	0xbb8a79f7	-0.004225965
87	0xbc9589c1	-0.018254163
88	0xbcd2bb64	-0.02572412
89	0x3c444b11	0.011980788
90	0xbc575361	-0.013142438
91	0xbc919e64	-0.017775722
92	0x3c5712c4	0.013127033
93	0xbbdded98	-0.006772708
94	0xbadf4372	-0.001703365
95	0xbcd49f5e	-0.025954898
96	0x3c4ff093	0.012691635
97	0x3c85e907	0.016346468
98	0x3cf6f15b	0.030144384
99	0xbb6f45bc	-0.003651007
100	0x3a9027f2	0.0010998233
101	0xbba4c94c	-0.0050288793
102	0xbbce4983	-0.0062953844
103	0xbb2050e1	-0.002446227
104	0x3c8794b4	0.0165504
105	0xbcae8f20	-0.021308482
106	0xbc86287b	-0.016376724
107	0x3b4702d3	0.0030366674
108	0x3afb3cb0	0.0019167867
109	0xbc284ae1	-0.010271759
110	0x3b723c69	0.0036962277
111	0x3c157c15	0.009123822
112	0x3d003d82	0.03130866
113	0x3c952c8f	0.018209724
114	0xbcf2a486	-0.029619467
115	0xbc9843b0	-0.018586963
116	0x3b14f18d	0.0022726983
117	0x3cbb01dc	0.022828035
118	0x3cc89756	0.024486225
119	0xbc7c571f	-0.015401631
120	0xbca01a13	-0.019543683
121	0xbb6da177	-0.003625957
122	0xbbd21323	-0.0064109727
123	0x3cfbf77c	0.030757658
124	0x3ca2fd61	0.019896211
125	0x394c98e7	0.00019511917
126	0x3cf06692	0.029345784
127	0xbcf3c831	-0.029758545

network_body._body_endoder.seq_layers.2.weight f4 [128, 128]
0	0xbe415707	-0.18880855
1	0x3d2fbd57	0.042905178
2	0xbb5de4ca	-0.0033858293
3	0x3d7a820a	0.06115917
4	0x3db2ebe5	0.087363996
5	0xbcdb745e	-0.026788887
6	0xbdbf1987	-0.09331041
7	0xbd793f79	-0.060851548
8	0x3c24dbb9	0.010062152
9	0xbe01b542	-0.126668
10	0x3df122e5	0.11774234
11	0x3e2913c5	0.16511448
12	0xbd3c99b2	-0.046045013
13	0xbe26dc6b	-0.1629502
14	0xbd940f57	-0.07229488
15	0xbe29fe82	-0.16600993
16	0xbe03fc94	-0.1288932
17	0x3e193d91	0.14964892
18	0x3d08c5ae	0.033391647
19	0x3d5a3a9e	0.053278558
20	0xbc10cf7f	-0.008838533
21	0x3e36d06d	0.17852946
22	0xbe5c71a2	-0.21527722
23	0x3d50d29d	0.050982106
24	0x3cea9785	0.028636703
25	0x3e0ec952	0.13943985
26	0x3db83dfb	0.08996197
27	0xbe0a2609	-0.13491072
28	0xbbb8a2dd	-0.005634649
29	0xbdb19912	-0.08671774
30	0x3d4b821d	0.049684633
31	0x3d957837	0.0729832
32	0x3d143b48	0.036189348
33	0xbd6cdfa8	-0.057830483
34	0x3d7612ff	0.06007671
35	0x3de46a6c	0.11153111
36	0x3d8aa65e	0.06770013
37	0x3cc48b68	0.023992255
38	0x3cc0092e	0.023441877
39	0xbc983ee9	-0.018584685
40	0xbce138e8	-0.027492955
41	0xbdb41398	-0.087928
42	0x3da1a936	0.078936026
43	0xbd2fd362	-0.0429262
44	0xbe4c3ef2	-0.19945887
45	0xbd4d06a8	-0.050055176
46	0x3cc1711b	0.023613503
47	0xbd283655	-0.04106744
48	0xbddf566c	-0.109051555
49	0x3db618b1	0.08891428
50	0xbc8e50c6	-0.0173725
51	0x3e5fd0ca	0.2185699
52	0x3e45c784	0.1931439
53	0x3dfa720a	0.122287825
54	0x3e44dc09	0.19224562
55	0xbe3ea88b	-0.18618982
56	0xbc259d93	-0.010108369
57	0xbe05ebce	-0.13078234
58	0xbe459371	-0.19294526
59	0x3e238710	0.15969491
60	0xbde15cc8	-0.11004025
61	0xbddf8b92	-0.10915293
62	0xbdee34f9	-0.116311975
63	0x3e46e2a0	0.19422388
64	0xbdb7ce58	-0.08974904
65	0x3da4988f	0.08036911
66	0xbd82ac7a	-0.063805535
67	0x3d868af9	0.06569476
68	0xbd659585	-0.056050796
69	0x3e4a5f1a	0.19762841
70	0x3d9ace21	0.07558847
71	0x3d76c547	0.060246732
72	0xbd80be03	-0.06286242
73	0x3dc25c7c	0.09490296
74	0x3b277191	0.0025549869
75	0xbd80a4ea	-0.06281455
76	0xbde5d2e2	-0.11221863
77	0xbd8c2e4d	-0.06844769
78	0x3db0ef80	0.08639431
79	0xbdd14b02	-0.10219385
80	0xbbb6b260	-0.005575463
81	0x3d595469	0.053059015
82	0xbcea78e0	-0.02862209
83	0x3db63745	0.088972606
84	0xbdc60eb6	-0.09670775
85	0xbcd88dcb	-0.0264348
86	0xbda5e12d	-0.080995895
87	0xbe1afb00	-0.15134811
88	0xbe162f99	-0.14666595
89	0xbc5eeb35	-0.013605882
90	0x3d4e9082	0.050430782
91	0x3c2e52f5	0.010639896
92	0xbdf5e070	-0.12005699
93	0x3dc3d7c6	0.0956264
94	0xbd082393	-0.03323705
95	0xbe231334	-0.15925294
96	0xbd93acba	-0.07210679
97	0x3d0d8701	0.034552578
98	0x3da78f71	0.08181656
99	0x3d284587	0.04108193
100	0xbdc1c9fc	-0.094623536
101	0x3df0607e	0.117371544
102	0x3c0b8e2a	0.008517781
103	0xbdd27e32	-0.10277976
104	0xbd8c7494	-0.06858173
105	0x3d44ffb5	0.048095424
106	0x3d766a24	0.060159817
107	0x3e4eb566	0.20186386
108	0xbd95bdcd	-0.07311592
109	0xbe05269b	-0.13003008
110	0x3d5577e6	0.052116297
111	0x3c8ff280	0.017571688
112	0xbe3ac50d	-0.18239231
113	0x3e2eeef4	0.17083341
114	0x3c59b29c	0.013287213
115	0xbd04986f	-0.032371935
116	0xbcb07f43	-0.021545058
117	0x3ca855d3	0.020548737
118	0x3d98f36d	0.07468305
119	0xbdcc91e1	-0.09988762
120	0xbdb00aaa	-0.08595784
121	0xbdb1d065	-0.08682326
122	0xbe5420d6	-0.20715651
123	0x3d27c219	0.04095659
124	0x3dc91905	0.09819225
125	0xbde6ecdb	-0.11275645
126	0x3d198b90	0.037486613
127	0x3bd5f257	0.0065291333
128	0xbd70e0ba	-0.058808066
129	0x3dc707ca	0.097182825
130	0x3e0c027c	0.13672823
131	0x3d8aaab5	0.06770841
132	0xbd3031c8	-0.043016225
133	0xbe100991	-0.1406615
134	0xbd8403e2	-0.06446053
135	0x3e116b7b	0.14201157
136	0x3d025012	0.031814642
137	0x3d75105b	0.05983005
138	0x3d9a3038	0.07528728
139	0x3d3d9051	0.04628021
140	0xbd912010	-0.070861936
141	0xbdd01490	-0.10160172
142	0x3df8e306	0.12152676
143	0xbe387d52	-0.18016556
144	0xbcb5fef3	-0.022216296
145	0x3e2033f1	0.15644814
146	0xbcb296b8	-0.021800384
147	0xbd507c22	-0.050899632
148	0xbd84befb	-0.06481739
149	0xbcd24a80	-0.02567029
150	0x3c8e2d1c	0.017355494
151	0x3dd5a0b2	0.10431041
152	0xbd518011	-0.051147524
153	0xbe86fa26	-0.26362723
154	0x3d30b3ea	0.04314033
155	0x3d6ca0fc	0.057770714
156	0x3c483069	0.012218573
157	0xbe028bd8	-0.12748659
158	0x3e6cc036	0.23120198
159	0x3d8ef594	0.06980434
160	0x3dd004e9	0.101571865
161	0xbe143db6	-0.14476666
162	0xbbdd9266	-0.006761837
163	0x3d6f41fa	0.05841253
164	0xbe58adce	-0.21160051
165	0x3abd5927	0.0014446125
166	0xbd339d7f	-0.04385137
167	0xbd3d44e4	-0.046208277
168	0xbd8dea6d	-0.06929479
169	0xbd88a7dc	-0.06672642
170	0xbdcd8f59	-0.10037107
171	0xbc2fe640	-0.010736048
172	0x3db39e62	0.087704435
173	0x3e3d2fcc	0.18475264
174	0xbda3502b	-0.07974275
175	0xbda295d8	-0.07938737
176	0xbe0ce77d	-0.13760181
177	0x3e8c416c	0.27393663
178	0xbd6f9455	-0.05849107
179	0x3d3a1d49	0.045438085
180	0xbe139bb8	-0.1441487
181	0x3b856974	0.004071409
182	0x3ce1f118	0.027580783
183	0x3d9560dc	0.07293865
184	0x3e3bc190	0.18335557
185	0x3d41c60e	0.04730802
186	0xbdfb91fc	-0.12283704
187	0x3de26c17	0.11055773
188	0x3e295417	0.16535984
189	0xbdcc6c59	-0.09981603
190	0xbb5b8ac2	-0.0033499454
191	0xbc9cb96e	-0.019131389
192	0xbdc0ae04	-0.09408191
193	0xbd258dac	-0.040418312
194	0xbd0d7939	-0.034539435
195	0x3da422cc	0.080144495
196	0xbad3043f	-0.0016099288
197	0xbdb17d67	-0.08666497
198	0x3caa49e2	0.020787183
199	0x3de6e80c	0.11274728
200	0x3daa1250	0.08304274
201	0x3cea18b7	0.028576238
202	0x3da2e078	0.0795297
203	0x3b0abb93	0.0021168932
204	0xbd3867d0	-0.04502088
205	0xbd427d25	-0.04748263
206	0x3e2562b0	0.16150928
207	0x3bb28ac6	0.005448672
208	0xbd9077fb	-0.070541345
209	0x3d688d0c	0.056775138
210	0xbd8fba84	-0.07017997
211	0x3e00f706	0.12594232
212	0xbd4d0737	-0.05005571
213	0xbcd485d3	-0.025942719
214	0x3c93f1cd	0.018059636
215	0xbc39fcab	-0.011351745
216	0x3c973007	0.018455518
217	0x3ccfc83e	0.025364038
218	0x3d5bfa01	0.05370522
219	0x3cd874fc	0.02642297
220	0x3d837e18	0.06420535
221	0xbca4e1fc	-0.020127289
222	0x3dce42a2	0.10071303
223	0xbd18d4a9	-0.037312184
224	0x3e0707a0	0.13186502
225	0x3d77ed5e	0.060529105
226	0x3ddcb3e3	0.10776498
227	0x3d1d0fe6	0.03834524
228	0x3db2141b	0.08695241
229	0x3cc1edcd	0.023672963
230	0x3ca32626	0.019915652
231	0x3e65c59a	0.2243866
232	0x3e407ce2	0.18797639
233	0x3d084336	0.033267222
234	0x3c9a2573	0.018816685
235	0xbd729858	-0.059227318
236	0x3ba267e2	0.0049562315
237	0xbd32ac28	-0.043621212
238	0x3d105931	0.03524131
239	0x3cae1c85	0.021253834
240	0x3e6056d2	0.2190812
241	0x3dac6a18	0.08418673
242	0xbdcfae35	-0.10140649
243	0x3dba2b41	0.09090281
244	0x3d7b7917	0.061394777
245	0x3d617974	0.055047467
246	0xbd765cea	-0.060147204
247	0x3daa0340	0.08301401
248	0xbda23e5e	-0.07922052
249	0x3e26658a	0.16249672
250	0xbd6a33f3	-0.05717845
251	0x3b88556e	0.0041605746
252	0x3bc14e9e	0.0058992645
253	0xbd9a780c	-0.075424284
254	0xbddfe66e	-0.10932623
255	0xbd9ab092	-0.07553209

network_body._body_endoder.seq_layers.2.bias f4 [128]
0	0xbce0cda9	-0.027441816
1	0x3c8d5892	0.017254148
2	0xbba2a85d	-0.004963918
3	0xbd14175c	-0.03615509
4	0xbcec9eb4	-0.02888427
5	0xbc9489d4	-0.018132128
6	0x3ccd2733	0.025043106
7	0x3c21be4c	0.0098720305
8	0xbc1a852e	-0.009431167
9	0xbb14bdb7	-0.0022696087
10	0xbc9e79d9	-0.01934521
11	0xbb65076a	-0.0034947046
12	0xbcba2e4a	-0.02272715
13	0xbd195fe4	-0.037444964
14	0xbad71853	-0.0016410447
15	0x3d1be647	0.038061406
16	0xbd3fd0ca	-0.046829976
17	0xbcfb25e3	-0.030657714
18	0xbcc6e142	-0.024277333
19	0x3aefdd79	0.0018300257
20	0xbba99264	-0.005174922
21	0x3cd0254f	0.025408415
22	0x3cf718fb	0.030163279
23	0xbd2a84b4	-0.04163046
24	0xbcec1207	-0.02881719
25	0x3c07c80b	0.00828744
26	0xbcd8bb92	-0.026456628
27	0xbcb9c812	-0.022678409
28	0xbd39fcd0	-0.045407116
29	0xbc970495	-0.018434802
30	0xbcc512c7	-0.024056805
31	0x3cf95779	0.030437218
32	0x3c0f1b58	0.008734547
33	0x3b900500	0.0043951273
34	0x38efb774	0.00011430579
35	0xbd2a3abb	-0.041559916
36	0x3c7818b9	0.015142613
37	0x3b6bb154	0.003596385
38	0x3cd3ed31	0.025869938
39	0x3c320786	0.010866052
40	0x3c211402	0.00983143
41	0xbcd91999	-0.026501464
42	0x3848c198	4.7864014e-05
43	0x3ab95d47	0.0014142179
44	0xbd59e23f	-0.05319428
45	0x3c72a7d6	0.014810523
46	0xbb6b548c	-0.0035908548
47	0xbce88370	-0.028382987
48	0xbc7dac30	-0.015482947
49	0xbcf395b1	-0.029734464
50	0xbbf11b19	-0.0073579666
51	0x3c1386f0	0.00900434
52	0xbd038dda	-0.032117702
53	0xbd2eda9d	-0.042688955
54	0xbbe85e50	-0.007091321
55	0xbd0bd350	-0.03413707
56	0xbcc7e6af	-0.02440199
57	0xbd1af7f7	-0.037834134
58	0x3cf25ea4	0.029586144
59	0xbc98c29b	-0.018647483
60	0xbd001315	-0.031268198
61	0xbcc6a47c	-0.024248354
62	0x3cb68aa8	0.022282913
63	0xbb4d94fc	-0.003136932
64	0xb9f027c9	-0.0004580601
65	0x3a20e3bf	0.00061374524
66	0xbcb971f1	-0.02263734
67	0x3b5b92ec	0.003350432
68	0xbbe918ad	-0.0071135373
69	0x3c37055d	0.011170712
70	0x3c7e72f0	0.015530333
71	0xbbf2a1fc	-0.007404564
72	0xbcd91ef4	-0.026504017
73	0x3c911d88	0.017714277
74	0xbb819f46	-0.0039557545
75	0xbc26ae2b	-0.010173361
76	0xbd0ca093	-0.034332823
77	0xbc09869a	-0.008393908
78	0xbbbb1842	-0.005709679
79	0xbca74139	-0.020416843
80	0xbbd8e08a	-0.006618564
81	0xbcd7e2c4	-0.026353247
82	0xbcc15f51	-0.02360502
83	0xbd337c63	-0.043819796
84	0xb9dcd702	-0.00042121863
85	0xbb28d84c	-0.0025763689
86	0x3c7d1a25	0.015448128
87	0xbc48f722	-0.012265952
88	0xbcd5fd35	-0.026121715
89	0xbc9849d3	-0.01858989
90	0xbd3bc919	-0.04584608
91	0x3c4c3faa	0.012466351
92	0xbb02b0cf	-0.0019941812
93	0xbb8cd52b	-0.0042978725
94	0xbd28c9d4	-0.041208103
95	0xbc52d96a	-0.012869218
96	0xbcb40aef	-0.02197787
97	0xbcd5ba80	-0.026089907
98	0x3cc0cb07	0.023534311
99	0xbc3808d2	-0.011232572
100	0xbc55ae09	-0.0130419815
101	0xbc141913	-0.009039181
102	0x3c6b5a9c	0.014364865
103	0x3ccd553c	0.025065057
104	0x3cfc3a5a	0.030789543
105	0xbd36347a	-0.04448364
106	0xbcad9b30	-0.021192163
107	0x3c42cc83	0.01188958
108	0xba7c68a2	-0.00096286286
109	0x3b959ac8	0.0045655705
110	0xbb9e0835	-0.0048227557
111	0x3bb65092	0.005563804
112	0xbbd0dc35	-0.006373907
113	0xbbefd7a6	-0.0073194085
114	0x3c434690	0.011918679
115	0xbafcd76b	-0.0019290274
116	0xbcff35c8	-0.031153575
117	0x3cdbeb08	0.02684547
118	0x3c1478a5	0.009061967
119	0xbc9e73f9	-0.01934241
120	0xbd4d3ae4	-0.05010499
121	0x3d03a21d	0.032137025
122	0xbd3cd8e4	-0.04610528
123	0xbd356d3f	-0.04429364
124	0xbd36627d	-0.04452752
125	0xbd377d09	-0.044796977
126	0x3ae1477d	0.0017187443
127	0x3c3d178d	0.0115412595

action_model._continuous_distribution.log_sigma f4 [1, 2]
0	0xbd811f62	-0.06304814
1	0xbd04029e	-0.03222906

action_model._continuous_distribution.mu.weight f4 [2, 128]
0	0xbd0f4e85	-0.03498699
1	0x3c2b83f1	0.010468469
2	0x3c1ec196	0.009689709
3	0xbcfca772	-0.030841563
4	0x3c4795ef	0.012181743
5	0xbcaff8a4	-0.021480866
6	0x3d2af409	0.041736636
7	0x3c0c2b1d	0.008555201
8	0x3a8b8485	0.0010644352
9	0x3b96048a	0.004578178
10	0xb91125d4	-0.0001384237
11	0xbcca170e	-0.024669196
12	0xbc965cd3	-0.018354809
13	0xbd068ebc	-0.032850966
14	0xbbe39d5f	-0.0069462503
15	0x3d85c65b	0.06531974
16	0xbd463a7e	-0.048395626
17	0x3c37a655	0.01120909
18	0x3ba73867	0.005103159
19	0x3c8c4b9f	0.017125903
20	0xbc36614d	-0.011131597
21	0x3cf794b8	0.030222282
22	0x3d2f6bf9	0.04282758
23	0xbbc241f4	-0.0059282724
24	0xbc0cb902	-0.008589031
25	0x3bf26140	0.007396847
26	0xbd0966a9	-0.03354517
27	0xbc2817b7	-0.01025956
28	0xbce5067e	-0.027957197
29	0x3ba57cbf	0.0050502713
30	0x3aba1488	0.0014196793
31	0x3c5829d9	0.013193571
32	0x3b9d7451	0.0048051258
33	0x3ab52642	0.0013820606
34	0xbb3c2010	-0.0028705634
35	0xbd5bbdaf	-0.053647693
36	0x3c928434	0.017885305
37	0x3d089be7	0.033351805
38	0x3cd064f8	0.02543877
39	0xbc539048	-0.012912817
40	0x3c485bd6	0.012228927
41	0xbce6c0c7	-0.028168095
42	0x3c0ebb3d	0.008711633
43	0x3d0697ff	0.0328598
44	0xbd3c1402	-0.04591752
45	0x3cd6638e	0.026170518
46	0x3a585808	0.0008252864
47	0xbb6da2cb	-0.0036260362
48	0xbc74f1cd	-0.014950228
49	0xbbf7a2fe	-0.007557272
50	0x3c8e9fd7	0.017410202
51	0x3cc587b4	0.02411256
52	0xbd020adb	-0.031748634
53	0xbd9a09fd	-0.07521436
54	0x3a5bdb8d	0.00083869026
55	0xbcb45850	-0.022014767
56	0x3c322aab	0.010874431
57	0xbca2bb5b	-0.019864729
58	0x3c7cf1f9	0.01543855
59	0xbcf3995a	-0.02973621
60	0xbbc4a162	-0.0060006836
61	0xba264b4d	-0.0006343618
62	0x3c2e2ad6	0.01063033
63	0xbb05b44a	-0.002040165
64	0x3b2ef618	0.0026696976
65	0x3cc395c1	0.02387512
66	0xbc64b257	-0.013958535
67	0x3b37f552	0.0028069806
68	0x3c001b17	0.007818959
69	0x3cbd61c6	0.023117911
70	0xbc785455	-0.015156825
71	0x3caa390f	0.02077916
72	0xbd2bec33	-0.041973304
73	0x3c9f26f6	0.019427758
74	0xbb4667f6	-0.0030274368
75	0x3c5d497d	0.0135062905
76	0xbc08c4c6	-0.008347696
77	0x3d19cc8e	0.037548594
78	0x3bc83580	0.0061098933
79	0xbc81bc48	-0.01583685
80	0xbb11bd1d	-0.0022237964
81	0xbca0d289	-0.019631641
82	0xbc1b5ab8	-0.009482078
83	0xbd4e09bb	-0.05030225
84	0x3c10a94f	0.008829429
85	0xbb02d29b	-0.0019961956
86	0xbb4f0d3d	-0.0031593584
87	0xbc54d876	-0.012991061
88	0xbb667967	-0.0035167576
89	0x3b423d4d	0.002963859
90	0xbc30810d	-0.010772956
91	0xbaa05efd	-0.001223534
92	0x3b892a6f	0.0041859667
93	0xbc33ce8b	-0.010974537
94	0xbc0f1bc5	-0.008734648
95	0x3adcee63	0.0016855713
96	0xbb4ad9d8	-0.00309526
97	0xbc9e8557	-0.01935069
98	0x3c88385d	0.016628439
99	0xbafc2357	-0.0019236606
100	0x3af6b5bc	0.0018822472
101	0x3acdddfc	0.0015706415
102	0x3d0f6e2c	0.035017177
103	0x3cc01736	0.023448568
104	0x3d2bd1ed	0.041948248
105	0xbce36d27	-0.027762009
106	0xbc5b1252	-0.013371067
107	0x3c824121	0.015900197
108	0x3cbd9572	0.02314255
109	0x3ca858e7	0.020550204
110	0xbbe113c1	-0.00686881
111	0x39fe7b81	0.00048538673
112	0xb95ec016	-0.00021243127
113	0xbc4173e0	-0.011807412
114	0x3ca328ec	0.019916974
115	0xbc62d35a	-0.013844335
116	0xbcabad01	-0.020956518
117	0x3d54ad4f	0.051923092
118	0x3d02e192	0.031953402
119	0xbb40966e	-0.0029386538
120	0xbd8c12b7	-0.06839507
121	0x3d61e118	0.055146307
122	0xbd16cdf1	-0.036817495
123	0xbd71717c	-0.058946118
124	0xbd232019	-0.039825533
125	0xbd04cd17	-0.03242215
126	0x3bbcfa10	0.0057671145
127	0x3c837760	0.016048133
128	0x3c6042d2	0.013687806
129	0x3d4d0ff1	0.05006403
130	0xbc03ff74	-0.00805651
131	0x3bbc1365	0.0057396167
132	0x3c4f8cc0	0.012667835
133	0x3b76447e	0.0037577446
134	0x3c2b15c1	0.010442198
135	0x3ce2b2f1	0.027673217
136	0xbc0c9ce0	-0.008582324
137	0xbbf5c80f	-0.0075006555
138	0x3c648b88	0.0139492825
139	0xbc81cfab	-0.015846094
140	0xbcb9de6c	-0.022689067
141	0xbad8246e	-0.0016490349
142	0x3b8159ea	0.003947486
143	0x3c72155b	0.014775599
144	0xbc47239d	-0.012154487
145	0xbb202551	-0.0024436305
146	0x3be5888f	0.0070048044
147	0xbd3ebba4	-0.046565667
148	0xbd91477b	-0.07093712
149	0x3d4154ef	0.04720014
150	0xbcdbe0d8	-0.026840612
151	0x3cd6ccfc	0.026220791
152	0xbc7672ed	-0.015042049
153	0x3cd5c37b	0.026094189
154	0xbd111502	-0.035420425
155	0xbc9b792d	-0.01897868
156	0xbc66b03f	-0.014080106
157	0xbc8e2d4b	-0.017355582
158	0xbb8a7c1d	-0.0042262212
159	0x3bc50a9b	0.006013227
160	0x3c26d682	0.010182979
161	0xbb6aae04	-0.0035809288
162	0xbb16e36b	-0.0023023735
163	0xbc9c99b9	-0.01911627
164	0x3b0ed53c	0.0021794578
165	0xbd0430d7	-0.03227314
166	0x3bf6e9ee	0.007535211
167	0x3cb89ba6	0.022535156
168	0x3ccf18d5	0.025280396
169	0xbcb91ca1	-0.02259666
170	0x3cb47d82	0.022032503
171	0xbcd1fecf	-0.025634198
172	0x3b87c524	0.004143374
173	0xbaebb2ba	-0.0017982342
174	0x3ca65b4a	0.020307202
175	0xbc2587bd	-0.010103163
176	0xbc6ca0d1	-0.0144426385
177	0xb9e399ae	-0.00043411314
178	0xbc7bb665	-0.01536331
179	0xbc043016	-0.008068105
180	0x3afcbe66	0.0019282817
181	0xbcc9cac6	-0.024632823
182	0x3d22f5f8	0.039785355
183	0xbb84953e	-0.0040461114
184	0xbca2fbb4	-0.019895412
185	0xbccac60b	-0.024752637
186	0x3c93292a	0.017963964
187	0xbcf3fdfc	-0.029784195
188	0x3c5b6950	0.013391808
189	0x3c79d09d	0.015247491
190	0x3d01f16a	0.03172437
191	0xbabd64e5	-0.0014449625
192	0x3befc8d6	0.0073176427
193	0xbc96f6b8	-0.018428192
194	0xbc8e36d6	-0.017360132
195	0x3c953846	0.01821531
196	0xbcd34c67	-0.025793267
197	0xbcdab469	-0.026697354
198	0x3d515a95	0.051111776
199	0xbcbf2e8e	-0.023337629
200	0xbb08ed2c	-0.0020893319
201	0x3ce55a06	0.027997028
202	0x3bc16607	0.005902055
203	0xbcc7176e	-0.024303164
204	0x3b6e9681	0.0036405625
205	0x3cd330eb	0.025780162
206	0x3a3ddb38	0.0007242444
207	0x3c8bfada	0.017087389
208	0xbd0ae94b	-0.03391389
209	0xbd12caf2	-0.035838075
210	0x3b21a1f3	0.002466318
211	0x3bf2e3e7	0.007412422
212	0x3cc99e44	0.0246116
213	0xba0b8f5e	-0.00053237926
214	0xbc11539d	-0.008870033
215	0xbb9c107f	-0.0047627087
216	0xbd32ecc6	-0.043682836
217	0xbd4a7559	-0.049428318
218	0x3cb794a9	0.022409754
219	0x3d29a646	0.041418336
220	0x3cb2ecb6	0.021841388
221	0x3caa0a15	0.02075676
222	0xbcc41f53	-0.023940718
223	0xbb80bd38	-0.0039288066
224	0x3a33c76f	0.0006858026
225	0xbcf560b5	-0.02995334
226	0x3bdc1e1c	0.0067174565
227	0x3b90d14b	0.004419481
228	0x3d2de342	0.042453058
229	0xba7aa34b	-0.0009561076
230	0x3cc17d37	0.023619277
231	0xbb8b5fa5	-0.004253345
232	0x3c80cb20	0.015721858
233	0xbbe0b92d	-0.006858012
234	0x3c8be583	0.017077213
235	0xbd0f56bd	-0.03499483
236	0xbd2e48b4	-0.042549804
237	0xbb95f0ae	-0.0045758104
238	0x3d862da4	0.06551674
239	0x3bdb8562	0.00669925
240	0x3a18fdfc	0.00058361865
241	0x3cffcbfc	0.031225197
242	0x3b534f13	0.0032243177
243	0xbcda3f8d	-0.026641631
244	0xbc4da355	-0.012551148
245	0x3a93a555	0.0011264483
246	0x3d11563b	0.035482626
247	0x3a55e8dd	0.00081600045
248	0xbd165ccd	-0.036709595
249	0x3d4a3a0e	0.04937177
250	0xbc13074e	-0.00897391
251	0xbc4c80a0	-0.012481838
252	0xbc55bb67	-0.0130451685
253	0x3d091ce3	0.033474814
254	0xbc27e1be	-0.010246692
255	0x3d894884	0.067032844

action_model._continuous_distribution.mu.bias f4 [2]
0	0x3d7db714	0.061942175
1	0x3bef2600	0.007298231

exp_avg f4 [128, 71]
0	0x2ba8b78e	1.1988065e-12
1	0x3800c97b	3.070522e-05
2	0xb946c3d9	-0.0001895571
3	0xb7dc3d19	-2.6254495e-05
4	0xb8fc94b1	-0.00012043992
5	0x2bf90c2d	1.7695894e-12
6	0xb914bf4b	-0.00014185642
7	0xb7b25e09	-2.1263042e-05
8	0xb7b87089	-2.1986913e-05
9	0xb9377371	-0.00017495245
10	0xb791a2a8	-1.736109e-05
11	0x3863ffba	5.435918e-05
12	0xb93e5af7	-0.00018153699
13	0xb82a26ff	-4.0567476e-05
14	0xb937c286	-0.00017524706
15	0x29c80031	8.8818174e-14
16	0x37d4a8c6	2.535096e-05
17	0xb95df320	-0.00021166774
18	0x35a274a9	1.2103893e-06
19	0xb879db38	-5.957039e-05
20	0x382bd6e4	4.096971e-05
21	0x37f6ce51	2.9421559e-05
22	0xb960bcbd	-0.00021432615
23	0xb82caf8b	-4.1171483e-05
24	0xb891372d	-6.924416e-05
25	0x2eeee993	1.0864478e-10
26	0xb915a49e	-0.00014271072
27	0xb8000655	-3.0523475e-05
28	0xb7472f1f	-1.18722955e-05
29	0xb9013bbf	-0.00012324656
30	0x31264df2	2.4200486e-09
31	0xb7a686c5	-1.9851499e-05
32	0xb940c779	-0.00018384856
33	0x379bf47c	1.8591287e-05
34	0xb919e4c4	-0.00014676439
35	0xae6e8309	-5.4231317e-11
36	0xb7b75cd8	-2.1858534e-05
37	0xb94dc2c0	-0.00019622874
38	0x380a5506	3.2980948e-05
39	0x37b13632	2.112528e-05
40	0xb2ce3122	-2.40039e-08
41	0x38656f1f	5.4701344e-05
42	0xb962f280	-0.00021643378
43	0xb7c3df98	-2.334993e-05
44	0xb8e2abca	-0.00010808518
45	0xb6f9c52b	-7.4437316e-06
46	0xb88ec71f	-6.808177e-05
47	0xb8c9c998	-9.621977e-05
48	0xb760298c	-1.3361114e-05
49	0xb77c9ebc	-1.5057329e-05
50	0x362b5334	2.5529416e-06
51	0xb5def7d5	-1.6612418e-06
52	0x35f126c4	1.7967182e-06
53	0xb944eac7	-0.00018779478
54	0xb955b5e2	-0.0002038102
55	0x35e63fb3	1.7154874e-06
56	0xb8cbca96	-9.717529e-05
57	0xb89f040f	-7.582467e-05
58	0xb767e4be	-1.3821931e-05
59	0xb7791c73	-1.484818e-05
60	0xb25df7a5	-1.2920201e-08
61	0xb8a0c31b	-7.665736e-05
62	0xb911fb4c	-0.00013921893
63	0x38011cd0	3.078283e-05
64	0xb893d9c9	-7.050072e-05
65	0x00000000	0.0
66	0x00000000	0.0
67	0x00000000	0.0
68	0x00000000	0.0
69	0x00000000	0.0
70	0x00000000	0.0
71	0x2e548521	4.832146e-11
72	0xb9883e2b	-0.0002598626
73	0x39c4d58e	0.00037543144
74	0x37196c1e	9.144684e-06
75	0x38ae0abf	8.298968e-05
76	0xaddcb00e	-2.5089288e-11
77	0x395137ff	0.00019952653
78	0xb82efd68	-4.1720836e-05
79	0xb80acc65	-3.309212e-05
80	0x399559e4	0.00028486468
81	0x37101a51	8.589196e-06
82	0xb91c7e6d	-0.00014924417
83	0x39a96d04	0.00032315415
84	0xb8725ed2	-5.7785604e-05
85	0x397181e7	0.00023031943
86	0x2a50c9de	1.8544148e-13
87	0xb9a04381	-0.00030567872
88	0x39df3a9b	0.0004257754
89	0x369aeabb	4.616884e-06
90	0x3890dc7d	6.907524e-05
91	0xb916d1b9	-0.00014383243
92	0xb908b4a3	-0.00013037263
93	0x39c022e4	0.0003664709
94	0x38081882	3.244775e-05
95	0xb8894c5e	-6.5468936e-05
96	0xaf32551a	-1.621924e-10
97	0x3969eee0	0.000223096
98	0xb842e2a4	-4.646428e-05
99	0xb859c286	-5.1917996e-05
100	0x39473546	0.00018997965
101	0x2e5aff87	4.9794415e-11
102	0xb8afcabf	-8.382415e-05
103	0x39bab1d1	0.00035609168
104	0xb91ab8b9	-0.00014755399
105	0x392d158b	0.00016506591
106	0xad104a95	-8.202013e-12
107	0xb790a4e6	-1.7242925e-05
108	0x399e541f	0.00030198783
109	0xb927ce16	-0.00016003134
110	0xb9416924	-0.00018445082
111	0x368c61cd	4.1837106e-06
112	0xb98e90c0	-0.00027192198
113	0x39c45a1c	0.0003745117
114	0x37967e21	1.7940127e-05
115	0x390bf033	0.00013345554
116	0x35a2dba3	1.2133863e-06
117	0x3697ade1	4.520393e-06
118	0x38c7c839	9.526354e-05
119	0x37c6f24d	2.371627e-05
120	0xb8125037	-3.488382e-05
121	0xb54c9b46	-7.6221875e-07
122	0xb94a33e4	-0.00019283552
123	0xb838714d	-4.3974538e-05
124	0x39bdf12e	0.00036228582
125	0x39ab448c	0.00032666733
126	0xb654e616	-3.172439e-06
127	0xb866a687	-5.4991364e-05
128	0x393daa3b	0.0001808786
129	0x36062237	1.9987472e-06
130	0xb886d8c3	-6.429993e-05
131	0x2f82230e	2.367177e-10
132	0xb89a707d	-7.364245e-05
133	0x39c66e06	0.00037847477
134	0xb93cde55	-0.00018011902
135	0x36be105c	5.6643457e-06
136	0x00000000	0.0
137	0x00000000	0.0
138	0x00000000	0.0
139	0x00000000	0.0
140	0x00000000	0.0
141	0x00000000	0.0
142	0x2d0f5452	8.147332e-12
143	0xb95ba719	-0.00020947716
144	0xb6ca7c8a	-6.0345674e-06
145	0x378ab1f9	1.6533757e-05
146	0xb883cf06	-6.285128e-05
147	0xab88a5f2	-9.70944e-13
148	0xb9283301	-0.00016040729
149	0xb82f57e3	-4.1805102e-05
150	0x36590ed0	3.2344142e-06
151	0xb7e89ff6	-2.7731043e-05
152	0x367cdd56	3.767976e-06
153	0xb909e4e7	-0.00013150611
154	0xb6eccae8	-7.0569695e-06
155	0xb88699ec	-6.418288e-05
156	0xb8c2412a	-9.2627786e-05
157	0x28cec37c	2.2955372e-14
158	0xb94e1072	-0.00019651817
159	0xb5ffce74	-1.9059066e-06
160	0xb514af87	-5.538972e-07
161	0xb88779e9	-6.460009e-05
162	0xb901bb25	-0.00012372115
163	0xb88e00dc	-6.771248e-05
164	0xb705eca1	-7.982512e-06
165	0x34eb3ee3	4.3817917e-07
166	0xb9057b3f	-0.00012729781
167	0xaed0b1c3	-9.490322e-11
168	0xb907afd1	-0.000129401
169	0xb851aec4	-4.9992246e-05
170	0xb7a449b2	-1.958464e-05
171	0xb8ae395b	-8.30765e-05
172	0x2f0d4373	1.2847838e-10
173	0xb80b2d8a	-3.3182594e-05
174	0xb8134f14	-3.512118e-05
175	0xb90905a0	-0.00013067434
176	0xb91c8d92	-0.00014930058
177	0xac05f260	-1.9034982e-12
178	0x361936ae	2.2830604e-06
179	0xb8ab1f58	-8.1597536e-05
180	0xb8faf3db	-0.000119663506
181	0xb937e392	-0.00017537017
182	0x3451996e	1.9520459e-07
183	0xb94c422f	-0.00019479611
184	0xb6d30f03	-6.2900376e-06
185	0x36006042	1.9129516e-06
186	0xb84ba9ba	-4.855704e-05
187	0xb419904b	-1.4301729e-07
188	0x3635cc04	2.7089854e-06
189	0xb958c065	-0.00020671038
190	0x36ad5b44	5.1664265e-06
191	0xb89cccb1	-7.4767864e-05
192	0xb3f36342	-1.1333624e-07
193	0xb935c027	-0.00017333087
194	0xb7cc8d9c	-2.4384637e-05
195	0xb59a3be3	-1.1491323e-06
196	0xb7fadda5	-2.9905534e-05
197	0xb5ad962a	-1.2933208e-06
198	0xb881ffd6	-6.1988525e-05
199	0xb90d1092	-0.00013452981
200	0xb59c8a1f	-1.1663104e-06
201	0xb8dace5f	-0.0001043349
202	0xb0c165c9	-1.4071527e-09
203	0xb83e4373	-4.5362347e-05
204	0xb689035b	-4.083309e-06
205	0xb91ccb66	-0.00014953091
206	0xb91661cc	-0.00014341547
207	0x00000000	0.0
208	0x00000000	0.0
209	0x00000000	0.0
210	0x00000000	0.0
211	0x00000000	0.0
212	0x00000000	0.0
213	0xac59fb3e	-3.0977022e-12
214	0x3907b396	0.00012941504
215	0xb8527e59	-5.0185572e-05
216	0x36b92edb	5.5188843e-06
217	0x37f65d73	2.9369001e-05
218	0x2d441b77	1.11474085e-11
219	0x3751fcbd	1.2516216e-05
220	0x383038cb	4.2014562e-05
221	0x37fd7bb5	3.0217556e-05
222	0xb7dc474c	-2.6259244e-05
223	0xb6b75840	-5.4640986e-06
224	0x38b79166	8.7532026e-05
225	0xb7e96d61	-2.7826698e-05
226	0x37ffe988	3.0507115e-05
227	0xb7207916	-9.564936e-06
228	0x274d2fdc	2.847541e-15
229	0x39460f19	0.00018888376
230	0xb8e0607d	-0.00010699125
231	0x363fa703	2.8558431e-06
232	0x3815d9b7	3.572713e-05
233	0x38b26e82	8.508285e-05
234	0x389b6601	7.409976e-05
235	0xb86b952a	-5.6167286e-05
236	0xb7993bf8	-1.8266946e-05
237	0x38a0a7ce	7.6606506e-05
238	0x2f4ce1eb	1.8633954e-10
239	0x37941f03	1.7657416e-05
240	0x383d6085	4.5151002e-05
241	0x37b80b46	2.1939759e-05
242	0x35b9074a	1.3785696e-06
243	0x3082a4cf	9.505586e-10
244	0x38885f89	6.50278e-05
245	0xb89e3675	-7.5441705e-05
246	0x38c79153	9.516128e-05
247	0x3870d9ff	5.7423484e-05
248	0xac941a8e	-4.209361e-12
249	0x37577c00	1.284387e-05
250	0xb7bedc0d	-2.2752234e-05
251	0x38c68271	9.465672e-05
252	0x39038a60	0.00012544682
253	0xb5544762	-7.908003e-07
254	0x392707a1	0.00015929203
255	0xb8762852	-5.868852e-05

exp_avg_sq f4 [128, 71]
0	0x320fd9fc	8.373259e-09
1	0x34b8071e	3.427785e-07
2	0x34624486	2.1072819e-07
3	0x34a4c93a	3.0693792e-07
4	0x34e6be9b	4.2979522e-07
5	0x31153f3f	2.1718305e-09
6	0x3505ed5c	4.9891764e-07
7	0x34863f50	2.500551e-07
8	0x341b37cb	1.4455797e-07
9	0x34a5ad30	3.0859655e-07
10	0x32fd78a3	2.9507936e-08
11	0x34d5d13a	3.9826574e-07
12	0x34bf5844	3.5640744e-07
13	0x33c2effe	9.077483e-08
14	0x348f2c5c	2.66681e-07
15	0x31f28cc7	7.0591315e-09
16	0x3502990e	4.86515e-07
17	0x349db7c3	2.9377233e-07
18	0x33a203bf	7.544394e-08
19	0x3480dd47	2.4002858e-07
20	0x32592279	1.2638901e-08
21	0x34be9f1c	3.5506025e-07
22	0x34ae6d05	3.2489348e-07
23	0x34484f15	1.8655221e-07
24	0x34b32412	3.3367593e-07
25	0x32056e3f	7.766686e-09
26	0x34b3acd5	3.34671e-07
27	0x34a1d870	3.0146066e-07
28	0x3470a453	2.2411523e-07
29	0x34b2e051	3.3318295e-07
30	0x320895f5	7.950338e-09
31	0x34baa110	3.4762388e-07
32	0x34ce93bd	3.8477984e-07
33	0x341a2db4	1.4358994e-07
34	0x34ad6199	3.2294773e-07
35	0x3234de48	1.052792e-08
36	0x34c59687	3.6803632e-07
37	0x34a91e8d	3.1500932e-07
38	0x343e5575	1.7726218e-07
39	0x34cdb58b	3.8316315e-07
40	0x330ffb72	3.352347e-08
41	0x34b3aad3	3.346564e-07
42	0x34d88677	4.033097e-07
43	0x33cef9a9	9.6380354e-08
44	0x34935847	2.7445114e-07
45	0x331ba7b8	3.624129e-08
46	0x34ce4c50	3.8426015e-07
47	0x34c3b8ae	3.6455953e-07
48	0x33d44a5b	9.8855445e-08
49	0x348bbf27	2.602985e-07
50	0x330ae116	3.2335343e-08
51	0x34d9d471	4.057397e-07
52	0x34a223d8	3.020093e-07
53	0x3409cbf6	1.283332e-07
54	0x349dad0a	2.936943e-07
55	0x32afcac6	2.0464892e-08
56	0x3501d989	4.83728e-07
57	0x3482d6c1	2.437064e-07
58	0x3400cf79	1.1996407e-07
59	0x349f8229	2.9710762e-07
60	0x33196ca2	3.572189e-08
61	0x35058978	4.9746404e-07
62	0x34683655	2.162645e-07
63	0x33e28f43	1.0550004e-07
64	0x34a2b70c	3.0308036e-07
65	0x00000000	0.0
66	0x00000000	0.0
67	0x00000000	0.0
68	0x00000000	0.0
69	0x00000000	0.0
70	0x00000000	0.0
71	0x32520d15	1.2226583e-08
72	0x35cbfa33	1.5197496e-06
73	0x3517e935	5.6591244e-07
74	0x341e01ac	1.4715505e-07
75	0x34c0174d	3.577974e-07
76	0x31d4c865	6.1927943e-09
77	0x35e5ddbd	1.7126364e-06
78	0x34b5506a	3.3772386e-07
79	0x345f9443	2.0822431e-07
80	0x34f79e21	4.612239e-07
81	0x33d7e723	1.0053761e-07
82	0x35a30551	1.2145994e-06
83	0x3535ec9d	6.777207e-07
84	0x34b7714f	3.416885e-07
85	0x3535ab28	6.767682e-07
86	0x32322d11	1.0371211e-08
87	0x35f2ce9c	1.8090536e-06
88	0x34d9bf1d	4.0558453e-07
89	0x339da16d	7.3402454e-08
90	0x34c01fce	3.5785928e-07
91	0x32ec60d1	2.7518043e-08
92	0x3572c558	9.04392e-07
93	0x34d79269	4.0153398e-07
94	0x3585cd94	9.969103e-07
95	0x35ac4224	1.2834248e-06
96	0x31803339	3.7311136e-09
97	0x35dbca87	1.6375715e-06
98	0x345900aa	2.0209941e-07
99	0x34f0164a	4.47197e-07
100	0x35489d5b	7.473479e-07
101	0x32a06bef	1.8675534e-08
102	0x350d0c59	5.254456e-07
103	0x35a7aada	1.2492194e-06
104	0x350f8b49	5.347434e-07
105	0x3583dad2	9.823946e-07
106	0x329a729d	1.798008e-08
107	0x35a302e4	1.2145288e-06
108	0x354a8d27	7.545627e-07
109	0x349ab4f6	2.8816402e-07
110	0x3571b60a	9.00444e-07
111	0x32b9a9e4	2.1614092e-08
112	0x3599436f	1.1419014e-06
113	0x357c37f1	9.395872e-07
114	0x34925aa6	2.7260575e-07
115	0x3579c13c	9.304092e-07
116	0x33462116	4.613056e-08
117	0x35448006	7.320199e-07
118	0x35a69efe	1.2414237e-06
119	0x34c3ccf7	3.6470712e-07
120	0x3566c7b9	8.597231e-07
121	0x33db6d72	1.021789e-07
122	0x3587e264	1.0124172e-06
123	0x356e9a61	8.888656e-07
124	0x34acbc47	3.2174486e-07
125	0x3559a499	8.107832e-07
126	0x33469788	4.6238284e-08
127	0x35220a35	6.0364556e-07
128	0x35b7d168	1.3695508e-06
129	0x349e0aa6	2.943754e-07
130	0x35318227	6.6127035e-07
131	0x33e59372	1.06904636e-07
132	0x356f2303	8.9085387e-07
133	0x3569a00a	8.703215e-07
134	0x34e5335f	4.269195e-07
135	0x35814cc7	9.633594e-07
136	0x00000000	0.0
137	0x00000000	0.0
138	0x00000000	0.0
139	0x00000000	0.0
140	0x00000000	0.0
141	0x00000000	0.0
142	0x300a91a9	5.0411103e-10
143	0x34497ac3	1.8764244e-07
144	0x3321ba3b	3.765511e-08
145	0x32db3ee0	2.5523548e-08
146	0x333e0356	4.4240856e-08
147	0x2fb6630e	3.317599e-10
148	0x344f4428	1.9303172e-07
149	0x3368683d	5.4111513e-08
150	0x31c626b0	5.7669567e-09
151	0x33358ae9	4.2268685e-08
152	0x31cab8ce	5.8999836e-09
153	0x344125de	1.7988302e-07
154	0x32e6adb8	2.6854522e-08
155	0x332d585b	4.036006e-08
156	0x33973f26	7.042972e-08
157	0x30773384	8.9931285e-10
158	0x3476c7b0	2.2983181e-07
159	0x329bce5e	1.813822e-08
160	0x3187d5f3	3.9533403e-09
161	0x3339e474	4.3281446e-08
162	0x314663e6	2.8869578e-09
163	0x3437c625	1.7115288e-07
164	0x32b9a188	2.161029e-08
165	0x33820242	6.0540074e-08
166	0x33d29b86	9.8071766e-08
167	0x3056f3fa	7.819946e-10
168	0x3426e7c3	1.5544269e-07
169	0x331a60a9	3.594383e-08
170	0x3381b00e	6.039055e-08
171	0x33dc428c	1.0256653e-07
172	0x30487281	7.2922296e-10
173	0x33c238f5	9.0441894e-08
174	0x33afd7d4	8.1883314e-08
175	0x33b23d76	8.2999506e-08
176	0x33ecd397	1.1028094e-07
177	0x310efcc2	2.0807396e-09
178	0x3381692f	6.0261634e-08
179	0x341074fe	1.3453607e-07
180	0x33709325	5.601318e-08
181	0x340ac5ba	1.2924184e-07
182	0x303380cb	6.5302846e-10
183	0x34354e39	1.6885396e-07
184	0x33967d14	7.007671e-08
185	0x324f435a	1.20643e-08
186	0x33aefd7b	8.148614e-08
187	0x31b5fdaf	5.296634e-09
188	0x32494883	1.1716227e-08
189	0x34565421	1.9960909e-07
190	0x3333e3e4	4.188395e-08
191	0x33acfd15	8.0554095e-08
192	0x32d7a429	2.5103946e-08
193	0x33ecb155	1.1021863e-07
194	0x33d68ca4	9.990734e-08
195	0x32073814	7.870785e-09
196	0x3391b744	6.7854245e-08
197	0x318ff151	4.1892823e-09
198	0x33516885	4.8756664e-08
199	0x342c72a9	1.6060461e-07
200	0x3317c32a	3.5334928e-08
201	0x33d112e5	9.735758e-08
202	0x32f6db3d	2.8737867e-08
203	0x33f0f456	1.1220315e-07
204	0x335d1046	5.1470373e-08
205	0x337daf95	5.9065844e-08
206	0x34026768	1.2144812e-07
207	0x00000000	0.0
208	0x00000000	0.0
209	0x00000000	0.0
210	0x00000000	0.0
211	0x00000000	0.0
212	0x00000000	0.0
213	0x3148398a	2.9136538e-09
214	0x351ff195	5.9583664e-07
215	0x345d2f4d	2.0599437e-07
216	0x3411e4ad	1.3587369e-07
217	0x349277fe	2.7281925e-07
218	0x315ae6bd	3.1854335e-09
219	0x352700db	6.2213593e-07
220	0x34517aae	1.9509272e-07
221	0x341112c6	1.3511007e-07
222	0x3472e5b2	2.2621569e-07
223	0x32b55fdd	2.1114767e-08
224	0x34f78db0	4.6110426e-07
225	0x34d80a14	4.0240468e-07
226	0x335e775f	5.179697e-08
227	0x345efffa	2.0768485e-07
228	0x31bf9ef4	5.5769025e-09
229	0x35455e1a	7.3525155e-07
230	0x343457ad	1.6795703e-07
231	0x331345d1	3.4289602e-08
232	0x34510c3b	1.9469091e-07
233	0x31ffc1da	7.443515e-09
234	0x349604a8	2.7943065e-07
235	0x345280af	1.9604589e-07
236	0x34fb38e8	4.6793798e-07
237	0x351addfe	5.769251e-07
238	0x3189bf06	4.0089416e-09
239	0x3544c850	7.3307183e-07
240	0x33bc110e	8.7575344e-08
241	0x33f9bd7b	1.1629432e-07
242	0x348dad4f	2.6389395e-07
243	0x32227a08	9.457388e-09
244	0x34644eec	2.1262866e-07
245	0x350cac77	5.2405034e-07
246	0x345cb68a	2.0555504e-07
247	0x34d6ae06	3.9987225e-07
248	0x3307a73b	3.1584232e-08
249	0x350e64bb	5.3045704e-07
250	0x3467a97a	2.1575207e-07
251	0x3420594a	1.4933644e-07
252	0x34bab5b6	3.4777412e-07
253	0x329b84f3	1.8104833e-08
254	0x34cda651	3.8305237e-07
255	0x34f6ce79	4.59713e-07

exp_avg f4 [128]
0	0xb942191c	-0.00018510636
1	0x3902c58e	0.00012471361
2	0xb950a4bf	-0.00019897798
3	0x38b1baed	8.474835e-05
4	0xb800e144	-3.0727373e-05
5	0x37271113	9.957951e-06
6	0x38b10ad1	8.4420324e-05
7	0x37dd16a6	2.63558e-05
8	0x378619a8	1.5985992e-05
9	0xb858be86	-5.1675852e-05
10	0x3870cec7	5.7413035e-05
11	0xb79b72ec	-1.8530955e-05
12	0x38434d18	4.6563422e-05
13	0xb89c31fb	-7.447969e-05
14	0xb7deeaa7	-2.657373e-05
15	0xb76ebb9c	-1.4229587e-05
16	0x37ed89ae	2.8316714e-05
17	0x389d07b4	7.487778e-05
18	0x3867027d	5.507701e-05
19	0x3827f06a	4.0039806e-05
20	0xb8d6e54b	-0.00010247024
21	0x388e3e85	6.782733e-05
22	0x38c66b57	9.461369e-05
23	0xb8d32ff3	-0.00010070195
24	0xb742148a	-1.1568083e-05
25	0x3812ea6e	3.5027442e-05
26	0x38456845	4.706557e-05
27	0xb8678db5	-5.5206667e-05
28	0x38125953	3.4892302e-05
29	0xb8e2be06	-0.000108119144
30	0x3741a610	1.1542361e-05
31	0xb8a6ace9	-7.947704e-05
32	0x38d9eaf8	0.00010391133
33	0x384a3b38	4.8215705e-05
34	0x388704e9	6.438216e-05
35	0x38cf14b5	9.874386e-05
36	0xb88470e3	-6.315277e-05
37	0x3826957f	3.9716713e-05
38	0xb95b95db	-0.00020941293
39	0xb93844cf	-0.0001757324
40	0xb8c05dd8	-9.172753e-05
41	0xb720ebbc	-9.591629e-06
42	0xb9c42dc4	-0.0003741813
43	0xb6c072d0	-5.735412e-06
44	0xb837031a	-4.363349e-05
45	0xb874cd76	-5.8365484e-05
46	0xb804ee40	-3.169314e-05
47	0xb7ee2109	-2.8387194e-05
48	0xb83b51fc	-4.466063e-05
49	0xb81d859a	-3.7556143e-05
50	0xb8324656	-4.2504013e-05
51	0xb94f62f7	-0.00019777926
52	0x37ea7729	2.7950462e-05
53	0x361a87e2	2.3026882e-06
54	0x390df450	0.00013537821
55	0xb8f4bda4	-0.0001167015
56	0x386fb787	5.7152964e-05
57	0xb95fdeaa	-0.00021349886
58	0xb998d29f	-0.00029148624
59	0xb9366883	-0.00017395806
60	0xb8296b6e	-4.039279e-05
61	0x389a54c6	7.3590825e-05
62	0x3712df0b	8.754209e-06
63	0x3798542b	1.8159006e-05
64	0x3723ada5	9.755987e-06
65	0xb7f18649	-2.879197e-05
66	0x3913f9a1	0.00014112006
67	0x38afd4d1	8.3842904e-05
68	0xb8443b76	-4.678542e-05
69	0x37fea90b	3.0357876e-05
70	0xb8b3fe9a	-8.5828084e-05
71	0xb81cf1fe	-3.741867e-05
72	0x391ddcb2	0.00015054902
73	0xb6fb3914	-7.4870277e-06
74	0xb7b4edcb	-2.1568403e-05
75	0x37b51d41	2.1590504e-05
76	0x37aa7b2b	2.0322934e-05
77	0x38d52f13	0.000101654
78	0xb783db70	-1.57186e-05
79	0xb85b1842	-5.223626e-05
80	0xb93e7474	-0.00018163194
81	0x39643453	0.00021763267
82	0xb937805f	-0.00017500062
83	0x398653ed	0.00025621
84	0xb875d47e	-5.861045e-05
85	0xb87d9f36	-6.0468177e-05
86	0xb88c525c	-6.691061e-05
87	0x389330c4	7.0185895e-05
88	0xb7c681ba	-2.3663848e-05
89	0x3895be9e	7.140379e-05
90	0x3930aace	0.00016848298
91	0x3949a4c7	0.00019230238
92	0xb98bd5b9	-0.00026671382
93	0x383c696a	4.4920867e-05
94	0xb7ca4ad4	-2.4115121e-05
95	0xb8a2b99d	-7.759335e-05
96	0xb7a125af	-1.9210243e-05
97	0x390029ed	0.0001222265
98	0xb8ec35d1	-0.00011263381
99	0x3550b93f	7.7755607e-07
100	0x38e49a2c	0.00010900604
101	0x3837db35	4.3834752e-05
102	0xb7564b53	-1.2772932e-05
103	0x390f2297	0.00013650428
104	0xb7f56573	-2.9253517e-05
105	0xb7f76690	-2.9492454e-05
106	0xb906b7d2	-0.00012847714
107	0xb97b180d	-0.00023946185
108	0x38552cc7	5.082486e-05
109	0xb7c57676	-2.3539393e-05
110	0xb7c8a9b5	-2.3920884e-05
111	0x393b8d7f	0.00017886421
112	0xb92225ee	-0.00015463654
113	0xb71567cc	-8.905259e-06
114	0xb8a846b9	-8.0240374e-05
115	0xb92e06e9	-0.00016596507
116	0xb8823e4e	-6.210488e-05
117	0x3855576b	5.086457e-05
118	0xb858aa0d	-5.1656785e-05
119	0xb9144561	-0.00014140226
120	0x36bb66f9	5.585022e-06
121	0x38248f05	3.9233844e-05
122	0xb98ae389	-0.00026490938
123	0x38aaa8ee	8.137697e-05
124	0xb97f77ce	-0.00024363326
125	0x3737f6df	1.0965129e-05
126	0x377bcd15	1.5008515e-05
127	0xb9de3e19	-0.00042389406

exp_avg_sq f4 [128]
0	0x3571d99a	9.009615e-07
1	0x36181186	2.2659965e-06
2	0x3486dc01	2.511952e-07
3	0x357988b0	9.2958635e-07
4	0x35795100	9.28776e-07
5	0x34232899	1.5195327e-07
6	0x35042cae	4.923885e-07
7	0x32c5f197	2.304368e-08
8	0x3582db8b	9.74965e-07
9	0x3469af16	2.1763512e-07
10	0x34c3abee	3.6446676e-07
11	0x3532aed1	6.656456e-07
12	0x3459a881	2.0271001e-07
13	0x353a3caa	6.937868e-07
14	0x33aba432	7.992675e-08
15	0x3414be6b	1.3852848e-07
16	0x330e55d3	3.3140008e-08
17	0x35acf6cf	1.2886829e-06
18	0x35a341e3	1.2163622e-06
19	0x350f0d74	5.329123e-07
20	0x3540dba9	7.184522e-07
21	0x35672e3b	8.612148e-07
22	0x369148ae	4.329798e-06
23	0x3500019b	4.768605e-07
24	0x3500a3c6	4.792204e-07
25	0x3504d4a7	4.948328e-07
26	0x33e89394	1.0830186e-07
27	0x33e0eae6	1.04735406e-07
28	0x36727bc2	3.6132847e-06
29	0x35e3747d	1.694672e-06
30	0x35902cad	1.0741838e-06
31	0x344fac63	1.9341091e-07
32	0x33799e98	5.811907e-08
33	0x35852cb8	9.922287e-07
34	0x33c8b3aa	9.3459064e-08
35	0x361cf050	2.3385692e-06
36	0x3676eba6	3.6794022e-06
37	0x334b35e7	4.7313645e-08
38	0x359283e7	1.0916236e-06
39	0x35a8f34a	1.2587782e-06
40	0x354a1ff7	7.529738e-07
41	0x3352791c	4.9004584e-08
42	0x368edbe8	4.2575302e-06
43	0x329e322a	1.8416433e-08
44	0x34399102	1.7282221e-07
45	0x33d22a95	9.786633e-08
46	0x3429aff9	1.580337e-07
47	0x3500908d	4.7894065e-07
48	0x354373ec	7.281185e-07
49	0x34e971d9	4.3482467e-07
50	0x3586c5ef	1.0041384e-06
51	0x35e0ab58	1.6739168e-06
52	0x33faeb1a	1.1684297e-07
53	0x338898fc	6.360821e-08
54	0x35cc9eb7	1.5245377e-06
55	0x3674d6b0	3.6483798e-06
56	0x364156b7	2.8809716e-06
57	0x36a3dc6f	4.8834404e-06
58	0x36464738	2.9545754e-06
59	0x35edc4dd	1.7715171e-06
60	0x33b7be14	8.5561766e-08
61	0x33c3753e	9.101721e-08
62	0x34e38082	4.2375547e-07
63	0x33350754	4.214901e-08
64	0x3309f947	3.2124515e-08
65	0x334fb601	4.8361475e-08
66	0x359df8bd	1.1769804e-06
67	0x3465d722	2.1405552e-07
68	0x358ed19f	1.0640832e-06
69	0x33baf9d4	8.7067434e-08
70	0x3494a4ea	2.768714e-07
71	0x338065d4	5.978987e-08
72	0x35bed818	1.4218995e-06
73	0x3319a7dc	3.5775756e-08
74	0x345705a0	2.0025482e-07
75	0x3439c0ec	1.7299652e-07
76	0x34ab6123	3.1921908e-07
77	0x34844a57	2.4641005e-07
78	0x3491aed1	2.713555e-07
79	0x34c6c665	3.7024725e-07
80	0x3526d2dd	6.2146665e-07
81	0x35b5eec0	1.3555036e-06
82	0x353b3a18	6.9747466e-07
83	0x35b933aa	1.379861e-06
84	0x3689af15	4.1033004e-06
85	0x3513e6c2	5.5097564e-07
86	0x3395bb02	6.97237e-08
87	0x35a934ab	1.260681e-06
88	0x34324281	1.6601736e-07
89	0x346c9106	2.2031972e-07
90	0x358b0f1c	1.0360704e-06
91	0x36179d55	2.2592333e-06
92	0x36aaef27	5.094236e-06
93	0x360ceb02	2.0998418e-06
94	0x3585641a	9.938406e-07
95	0x34f44811	4.5500977e-07
96	0x3362f8c5	5.284598e-08
97	0x35ab68a7	1.2770951e-06
98	0x35a8ba46	1.2571188e-06
99	0x34c33674	3.63612e-07
100	0x360bc7fa	2.0829016e-06
101	0x33dd1812	1.0295493e-07
102	0x3326474f	3.871474e-08
103	0x34b8116a	3.428534e-07
104	0x35dbbd8a	1.6371935e-06
105	0x341972e0	1.4291027e-07
106	0x34c57751	3.6780924e-07
107	0x3599a184	1.1446396e-06
108	0x340d20ad	1.3143536e-07
109	0x35837bfa	9.796343e-07
110	0x33118783	3.388369e-08
111	0x3594e2fd	1.1092922e-06
112	0x37011a41	7.695112e-06
113	0x3490a99d	2.69455e-07
114	0x35265c3e	6.197405e-07
115	0x3599afd8	1.1450566e-06
116	0x36110f29	2.1615508e-06
117	0x340bac16	1.3007988e-07
118	0x368a47c4	4.121075e-06
119	0x3492657e	2.7268464e-07
120	0x34e5c633	4.2798783e-07
121	0x3602e2f5	1.9503616e-06
122	0x36de9848	6.6338434e-06
123	0x35047716	4.9347125e-07
124	0x36709955	3.5852038e-06
125	0x334109b0	4.4945125e-08
126	0x34cf4c80	3.8612416e-07
127	0x363ca42a	2.810974e-06
