Maize-Runner/results/TestRightExit3/EscapeMaze/EscapeMaze-1107665.pt (torch, 639071 bytes, 36 tensors)

network_body._body_endoder.seq_layers.0.weight f4 [128, 71]
0	0xbe0cebed	-0.13761874
1	0xbdfc8f78	-0.12332052
2	0xbe36d5e7	-0.17855035
3	0x3e3acb48	0.18241608
4	0x3e5de4e6	0.21669349
5	0x3dcb9bae	0.09941803
6	0x3b648e20	0.0034874752
7	0xbd2d76ea	-0.042349733
8	0xb9a802e6	-0.00032045617
9	0x3df444f8	0.11927217
10	0xbe516b8f	-0.20451187
11	0x3de85fdd	0.113464095
12	0x3d352442	0.04422403
13	0xbdf049b5	-0.117328085
14	0x3e806922	0.2508021
15	0xbd492a5d	-0.049112666
16	0xbe13bdc0	-0.14427853
17	0xbc49e59d	-0.0123228105
18	0x3d94def0	0.072690845
19	0xbdee52f9	-0.116369195
20	0x3ca63cce	0.020292666
21	0x3dd76997	0.105181865
22	0x3e38157b	0.17976944
23	0xbdc19661	-0.094525106
24	0xbd7d2996	-0.061807238
25	0xbc4118c2	-0.011785688
26	0xbeb5fe07	-0.3554537
27	0x3eab42b4	0.33449328
28	0x3d9ba445	0.07599691
29	0xbd5da871	-0.054115716
30	0xbde27c97	-0.1105892
31	0x3db512e9	0.088414975
32	0x3dfab3ca	0.12241323
33	0xbcc4daa5	-0.02403004
34	0xbd538ee2	-0.051649936
35	0xbdf91c86	-0.121636435
36	0xbe004464	-0.12526089
37	0xbdce2213	-0.10065093
38	0x3df407ac	0.11915526
39	0x3df6a928	0.12043983
40	0xbc498786	-0.012300378
41	0xbdcd3c40	-0.100212574
42	0x3e1c4813	0.15261869
43	0xbd34c575	-0.044133622
44	0xbddf98fc	-0.10917851
45	0xbe3db1d5	-0.18524869
46	0xbbea7e00	-0.0071561337
47	0xbd2bc764	-0.0419382
48	0x3e17e352	0.1483281
49	0xbdfc81cf	-0.123294465
50	0xbddee363	-0.10883214
51	0xbda35eb9	-0.07977051
52	0x3def3bb5	0.1168131
53	0x3df473c7	0.11936145
54	0xb9acc5c4	-0.00032953743
55	0xbe2e73f1	-0.17036416
56	0x3d431e13	0.047636103
57	0xbd7f3c17	-0.062313166
58	0x3c55de5e	0.013053505
59	0xbe15f3b9	-0.14643754
60	0x3e065880	0.13119698
61	0xba0092d6	-0.0004904693
62	0xb967c419	-0.00022102929
63	0xbdbe3452	-0.09287323
64	0x3cbb1e4d	0.022841597
65	0xbea5ae89	-0.32359722
66	0x3d358ea1	0.044325475
67	0xbd9a7481	-0.075417526
68	0x3c50cfbe	0.012744842
69	0x3d5304c9	0.051518235
70	0x3e522daf	0.2052524
71	0x3b001d82	0.0019548838
72	0x3d62574f	0.055259045
73	0x3d902323	0.07037952
74	0xbe46179b	-0.19344942
75	0xbeb90362	-0.36135393
76	0xbe676f16	-0.2260097
77	0x3d7d76df	0.061880942
78	0xbe374a83	-0.17899518
79	0x3ca4c970	0.020115584
80	0xbd02ea90	-0.031961977
81	0xbde2ce06	-0.11074452
82	0xbe343698	-0.17598951
83	0xbe0a8267	-0.13526307
84	0x3e2a8bb6	0.16654858
85	0x3b86daae	0.004115424
86	0x3cd23198	0.025658414
87	0x3da4f573	0.08054628
88	0xbcbf3725	-0.023341725
89	0x3d5f0c98	0.05445537
90	0xbe50eca2	-0.20402768
91	0x3ee57090	0.4481244
92	0x3c858a7a	0.016301382
93	0xbdd4b478	-0.10385984
94	0xbce79dad	-0.028273428
95	0x3de03097	0.10946768
96	0x3d99af0e	0.07504092
97	0x3b820d8c	0.0039689
98	0xbd7b56f3	-0.061362218
99	0x3dd443cc	0.10364494
100	0xbd066ec6	-0.032820486
101	0xbe041ca3	-0.12901549
102	0xbe41c4a4	-0.18922669
103	0xbd77dbd5	-0.060512383
104	0xbc43d979	-0.011953705
105	0x3dbb5a3c	0.0914807
106	0xbd461086	-0.0483556
107	0x3dcaa801	0.098953255
108	0x3dc47125	0.09591893
109	0xbdd51091	-0.104035504
110	0xbc83ac70	-0.016073436
111	0xbd1cc214	-0.038271025
112	0x3db31633	0.087444685
113	0x3d1e7458	0.038685173
114	0x3df7da0c	0.12102136
115	0x3e1917fd	0.14950557
116	0xbe6a0c5d	-0.22856279
117	0xbdb03bbe	-0.08605145
118	0x3da9d5c6	0.08292727
119	0xbd317507	-0.043324497
120	0x3e364650	0.1780026
121	0xbc1ffe23	-0.009765181
122	0x3d4d4ab7	0.05012008
123	0x3e118fb1	0.1421497
124	0xbe00bb19	-0.12571372
125	0x3dba7856	0.091049835
126	0x3d03972b	0.032126587
127	0xbdcc0cb1	-0.09963358
128	0x3e2fe1ba	0.17175952
129	0x3d87151d	0.06595824
130	0xbe23b2da	-0.15986195
131	0x3e2aff16	0.1669887
132	0x3e1f055c	0.15529388
133	0x3e1b2a5c	0.15152878
134	0x3e4483b8	0.19190872
135	0x3d702f34	0.058638766
136	0xbdd69264	-0.104771405
137	0x3e2711ce	0.16315386
138	0xb9ba0a78	-0.00035484484
139	0x3d6fc61c	0.05853854
140	0xbcb7dc2a	-0.02244385
141	0xbe1bbc85	-0.15208633
142	0xbe2491c3	-0.16071229
143	0x3e16eaa9	0.14737953
144	0xbdee0334	-0.11621705
145	0x3ce4edea	0.027945478
146	0xbe2a3cf9	-0.16624822
147	0xbdea5d94	-0.1144363
148	0x3e22eac8	0.15909874
149	0xbc7fda8c	-0.0156160705
150	0x3ca256c2	0.01981676
151	0x3b792d06	0.003802122
152	0xbd9c3856	-0.07627933
153	0x3e131e82	0.14367107
154	0xbdf84a5f	-0.1212356
155	0x3e941c9c	0.28928077
156	0xbde423d2	-0.11139645
157	0xbc144119	-0.009048724
158	0x3e56dff8	0.20983875
159	0xbdd354c4	-0.10318902
160	0xbe24ec87	-0.16105853
161	0xbe584bc1	-0.21122648
162	0x3d0364f8	0.032078713
163	0x3d89f2f0	0.0673579
164	0xbd9f4626	-0.07777052
165	0x3ce6b4c9	0.028162377
166	0xbb89b16b	-0.004202058
167	0xbe493670	-0.19649673
168	0xbdc7fa39	-0.09764523
169	0xbd83d2db	-0.06436702
170	0xbd57b47f	-0.05266237
171	0x3e461e95	0.19347604
172	0xbe953c0c	-0.29147375
173	0x3c154efb	0.009113069
174	0xbcad7d1e	-0.021177825
175	0x3dd5a29d	0.10431407
176	0xbe8dca40	-0.27693367
177	0xbce8bf23	-0.028411454
178	0xbe44b1b8	-0.1920842
179	0xbd449c8a	-0.04800085
180	0x3dacd5ff	0.08439254
181	0x3dc66335	0.09686891
182	0xbd57fb99	-0.052730177
183	0x3d6bbbe1	0.057552222
184	0xbe10e271	-0.1414888
185	0xbe349af3	-0.17637233
186	0x3b0bd37d	0.0021335774
187	0xbdb229b1	-0.08699358
188	0xbeb045e3	-0.3442832
189	0xbd4f8c5a	-0.05067096
190	0x3c88a26f	0.016679017
191	0xbe114e3c	-0.1419
192	0x3dabfdcc	0.08398017
193	0x3c537af0	0.012907729
194	0x3dd2cb24	0.10292652
195	0xbdc2d9a2	-0.095141664
196	0xbd11ae38	-0.03556654
197	0xbd9b08d6	-0.07570045
198	0xbd4f0ca5	-0.05054917
199	0x3e0efb7c	0.13963121
200	0xbe839405	-0.25698867
201	0x3e8e05aa	0.27738696
202	0x3eb669f9	0.35627726
203	0xbc5db001	-0.013530732
204	0xbe658be1	-0.22416641
205	0xbd7faae3	-0.06241883
206	0xbd7bf658	-0.06151423
207	0x3e0a174b	0.13485448
208	0xbcbb32d7	-0.02285139
209	0x3e2ba1f7	0.16761003
210	0xbd94668f	-0.07246124
211	0x3c05d621	0.008168728
212	0x3df415bb	0.11918207
213	0x3b62956f	0.0034573933
214	0x3e27289c	0.16324085
215	0xbe38cdd1	-0.18047263
216	0xbd803b49	-0.06261308
217	0xbb90b7fa	-0.004416463
218	0x3d1d3073	0.038376283
219	0xbdaeba10	-0.08531582
220	0x3cf1a65f	0.029498277
221	0xbe43338e	-0.19062635
222	0x3e302bd4	0.17204219
223	0xbe2858b7	-0.16440092
224	0x3d80a9ab	0.062823616
225	0x3d7cb6d5	0.0616978
226	0xbdcabf9b	-0.09899827
227	0xbea7a263	-0.3274108
228	0xbdce7e1a	-0.10082646
229	0x3e45c0a3	0.19311766
230	0xbe968f00	-0.29405975
231	0xbd169549	-0.036763463
232	0xbd7ab800	-0.061210632
233	0xbca5d6b6	-0.020243984
234	0x3c944875	0.018100956
235	0xbdcbce66	-0.09951477
236	0x3d332b33	0.04374237
237	0x3dd74c64	0.10512617
238	0x3d81baea	0.06334479
239	0x3e41e40f	0.18934654
240	0xbda20ad6	-0.07912223
241	0xbd790399	-0.060794447
242	0x3df8f6b7	0.12156432
243	0x3cac4faf	0.02103409
244	0xbe1b5663	-0.15169673
245	0x3dc64045	0.09680227
246	0xbe247ff2	-0.16064432
247	0x3e39cc08	0.18144238
248	0xbcb0600e	-0.021530177
249	0xbdeaa7ce	-0.114577875
250	0xbc577621	-0.013150723
251	0x3d23ab2a	0.039958157
252	0xbe2adf39	-0.16686715
253	0x3dd16426	0.1022418
254	0xbd435f4f	-0.047698315
255	0xbd9c6df4	-0.076381594

network_body._body_endoder.seq_layers.0.bias f4 [128]
0	0x3b9793f2	0.0046257908
1	0xbc26b9b8	-0.010176115
2	0x3c822ec0	0.015891433
3	0xbc754cae	-0.014971895
4	0xbca2f250	-0.019890934
5	0xbba76f58	-0.0051097088
6	0xbc8b52b4	-0.01700721
7	0xbc86bf8b	-0.016448757
8	0x3b3fbbdd	0.0029256262
9	0xbcf545e8	-0.02994056
10	0x3a8aa8be	0.0010578854
11	0xba34b899	-0.0006893962
12	0xbd026911	-0.03183848
13	0xbc0eb632	-0.008710431
14	0xbd28e10a	-0.04123024
15	0xbd0d5999	-0.034509275
16	0x3cd27eee	0.02569529
17	0xbac21ff8	-0.0014810553
18	0xbca3a979	-0.019978272
19	0xbc149dce	-0.009070827
20	0xbc1bd173	-0.009510386
21	0x3cf289a5	0.02960665
22	0x3bcc2ca0	0.0062309057
23	0xbd4cd976	-0.050012074
24	0xbcd77968	-0.026303008
25	0xbc21ec97	-0.009883068
26	0xbca4edbe	-0.020132896
27	0x3c3dc62c	0.011582892
28	0x39e814d4	0.00044266006
29	0xbd09a3ad	-0.03360336
30	0x3b1be0fc	0.0023785224
31	0xbc18b6eb	-0.009320955
32	0x3b141818	0.0022597369
33	0xbd0a425d	-0.033754695
34	0xbc176d79	-0.009242409
35	0x3b7603fe	0.0037539
36	0xbb2bd259	-0.0026217906
37	0xbd47096f	-0.04859298
38	0xbcf7a366	-0.030229282
39	0x3ca67f88	0.020324484
40	0xbcc0122c	-0.023446165
41	0x3b239e3d	0.0024966144
42	0x3c907634	0.017634489
43	0xbd331ec2	-0.043730505
44	0x3c54593f	0.012960731
45	0xbd1d8da6	-0.038465165
46	0xbca30930	-0.019901842
47	0xbcb5ea41	-0.022206428
48	0xbd039699	-0.032126043
49	0xbcaf4360	-0.021394432
50	0xbccc8bcc	-0.024969004
51	0xbce3dd0d	-0.027815366
52	0xbcbe7c5c	-0.023252659
53	0xbd534a49	-0.051584516
54	0x3cac4578	0.021029219
55	0x3c9aabff	0.018880842
56	0x3b519e32	0.003198516
57	0x3d447599	0.047963712
58	0x3d148d28	0.03626743
59	0x3ccbf935	0.024899105
60	0xbd2a6cdd	-0.041607726
61	0xbc365b40	-0.011130154
62	0xbce037e5	-0.027370403
63	0xbc4a7396	-0.012356659
64	0xbcc5716c	-0.024101935
65	0xbb91244b	-0.0044293753
66	0xbc684000	-0.014175415
67	0xbbcc26c6	-0.006230208
68	0x3b98cd6a	0.004663159
69	0xbab0ab76	-0.0013478834
70	0xbc0b2af5	-0.0084941285
71	0xbce56697	-0.02800302
72	0x3c4ae046	0.0123825725
73	0xbc5ec5bb	-0.013596947
74	0xbcb09de8	-0.02155967
75	0xbc3d17e8	-0.011541344
76	0x3c9e44ce	0.019319918
77	0xbcda1559	-0.026621507
78	0xbadb6eac	-0.0016741357
79	0x3c0aaf9d	0.008464721
80	0xbc6c4903	-0.014421704
81	0xbb7f1e96	-0.0038928143
82	0xbbaa5e1b	-0.0051992065
83	0xbc224519	-0.0099041695
84	0x3c1b17b1	0.009466098
85	0x3c979481	0.01850343
86	0xbac9a958	-0.0015385551
87	0xbc95afec	-0.018272363
88	0xbced522a	-0.028969843
89	0x3c750253	0.014954167
90	0xbc61ba01	-0.013777257
91	0xbcb0b06e	-0.021568503
92	0x3bc75cd7	0.0060840654
93	0xbbdd6ea8	-0.006757576
94	0xba528781	-0.0008031056
95	0xbcdd889b	-0.027042678
96	0x3c10d0b7	0.008838824
97	0x3c5a8e55	0.013339599
98	0x3cca8fb1	0.02472672
99	0xba61d9d9	-0.00086155307
100	0x3ae30e20	0.0017322935
101	0x3a91e290	0.0011130143
102	0xbc0ed583	-0.008717897
103	0xbb5f8acf	-0.0034109836
104	0x3c6b2c83	0.014353874
105	0xbcd31ca5	-0.025770495
106	0xbc48eb51	-0.012263135
107	0x3c28621d	0.010277298
108	0xbb1e308b	-0.002413782
109	0xbc7abb6f	-0.015303477
110	0x3bbe8cdb	0.005815131
111	0x3bf37234	0.0074293856
112	0x3d0a97bc	0.03383611
113	0x3cb0aad1	0.021565827
114	0xbce4ae8f	-0.027915267
115	0xbca7604e	-0.020431664
116	0x39ef98f6	0.00045699597
117	0x3c804d5b	0.015661886
118	0x3cb32093	0.021866119
119	0xbc9d6d3a	-0.019217122
120	0xbc9b69f5	-0.018971423
121	0xbb4d05ce	-0.0031283977
122	0xbc1769b6	-0.009241512
123	0x3ce3d66c	0.027812205
124	0x3cb26c95	0.021780292
125	0x3a28db73	0.0006441392
126	0x3cd06f29	0.02544363
127	0xbcee0d0e	-0.02905896

network_body._body_endoder.seq_layers.2.weight f4 [128, 128]
0	0xbe3ceca6	-0.18449649
1	0x3d305aeb	0.043055456
2	0x3c4acb5f	0.012377589
3	0x3d92731c	0.071508616
4	0x3da22fd6	0.0791928
5	0xbd3ebabb	-0.0465648
6	0xbdbde733	-0.092726134
7	0xbd420744	-0.04737021
8	0x3cae4ea1	0.021277728
9	0xbe0263b3	-0.12733345
10	0x3df09cdd	0.11748669
11	0x3e333777	0.17501627
12	0xbd6fbb9e	-0.058528535
13	0xbe26f2a6	-0.163035
14	0xbda1647b	-0.07880493
15	0xbe2fe51a	-0.17177239
16	0xbe10ea40	-0.1415186
17	0x3e18a12e	0.14905235
18	0x3d58c9d3	0.05292685
19	0x3d4601f9	0.048341725
20	0x3a4dca8c	0.0007850311
21	0x3e3ef33d	0.18647476
22	0xbe56147f	-0.20906256
23	0x3d23eb47	0.0400193
24	0x3ca2eedb	0.019889286
25	0x3e16f590	0.14742112
26	0x3dcce1b9	0.10003991
27	0xbe101dbc	-0.14073843
28	0xbd0ca03b	-0.034332495
29	0xbdc882c1	-0.09790564
30	0x3d50f568	0.051015288
31	0x3da83247	0.08212715
32	0x3d093739	0.03349993
33	0xbd96ba64	-0.0735977
34	0x3d388ec7	0.045058038
35	0x3ddea2f0	0.108709216
36	0x3d7d6991	0.061868254
37	0x3c64e989	0.013971695
38	0x3cd2ad08	0.025717273
39	0xbcb20f71	-0.021735879
40	0xbc1f4610	-0.009721294
41	0xbdd3c74c	-0.10340747
42	0x3d97b0c8	0.07406765
43	0xbd4bddf9	-0.049772236
44	0xbe4a54ac	-0.19758862
45	0xbd56e51b	-0.052464586
46	0x3c2bf96c	0.0104964785
47	0xbce0786a	-0.027401168
48	0xbdbd06f6	-0.09229843
49	0x3dd19017	0.10232561
50	0xbc8bc9fa	-0.017064083
51	0x3e623bb1	0.22093083
52	0x3e46122f	0.19342874
53	0x3df631f4	0.120212466
54	0x3e434908	0.19070828
55	0xbe3fdaf8	-0.18735874
56	0xbc01df40	-0.007926762
57	0xbe09d645	-0.13460644
58	0xbe4df771	-0.20113923
59	0x3e276c0f	0.16349815
60	0xbde1c210	-0.110233426
61	0xbdcde82f	-0.10054051
62	0xbdf26932	-0.11836471
63	0x3e4c0826	0.19924983
64	0xbdf1fecf	-0.11816179
65	0x3d9d398f	0.07676994
66	0xbd7ebc8c	-0.06219153
67	0x3da369e3	0.07979181
68	0xbd824a60	-0.06361842
69	0x3e450ce9	0.19243206
70	0x3d9ba2d7	0.075994186
71	0x3d80ad01	0.06282998
72	0xbd5457eb	-0.051841658
73	0x3dc886c6	0.09791331
74	0xba8195a7	-0.0009886519
75	0xbda4bd0a	-0.08043869
76	0xbe00f386	-0.12592897
77	0xbd870a86	-0.06593804
78	0x3db5056d	0.088389255
79	0xbdce0a35	-0.100605406
80	0x3c597b6d	0.013274056
81	0x3d7c6a96	0.061625086
82	0xbd07b86d	-0.033134867
83	0x3dc254b8	0.09488815
84	0xbdbf4cfd	-0.09340856
85	0xbd034007	-0.032043483
86	0xbdb601dd	-0.08887074
87	0xbe19b830	-0.15011668
88	0xbe20b32c	-0.15693349
89	0xbcd80074	-0.026367404
90	0x3d59f339	0.05321047
91	0x3b4b9cda	0.0031068833
92	0xbdf5a5c1	-0.11994506
93	0x3dd39565	0.10331229
94	0xbcc183a2	-0.023622338
95	0xbe0f2af0	-0.13981223
96	0xbd91eb8a	-0.07125004
97	0x3d3ec9aa	0.04657904
98	0x3db5e6d4	0.088819176
99	0x3d3c3f29	0.04595867
100	0xbdb560e3	-0.0885637
101	0x3de57bef	0.11205279
102	0xbc4a2964	-0.01233897
103	0xbdce281c	-0.10066244
104	0xbdae816c	-0.08520779
105	0x3d40b065	0.047043223
106	0x3d1041d2	0.03521902
107	0x3e54687f	0.20742987
108	0xbda389da	-0.079852775
109	0xbdf15bed	-0.117851116
110	0x3d3fb218	0.046800703
111	0x3afa8212	0.001911225
112	0xbe3a3df2	-0.18187693
113	0x3e32a861	0.17447044
114	0xbc321d31	-0.010871218
115	0xbd2773fe	-0.040882103
116	0xbd132448	-0.035923272
117	0x3b4eb5a8	0.003154138
118	0x3db3468f	0.08753692
119	0xbdd40167	-0.1035183
120	0xbdd92401	-0.1060257
121	0xbd9c350b	-0.07627305
122	0xbe57d180	-0.21076012
123	0x3ce73d80	0.028227568
124	0x3dc8e6aa	0.09809621
125	0xbdbc6cc0	-0.0920043
126	0x3d03e159	0.03219733
127	0x3b1989c6	0.0023428067
128	0xbd5ccd48	-0.05390671
129	0x3dcc1818	0.09965533
130	0x3e0c734f	0.13715862
131	0x3d94ac2d	0.072594024
132	0xbccacd9f	-0.02475625
133	0xbe17ad9e	-0.14812323
134	0xbd8849a0	-0.06654668
135	0x3e149243	0.1450892
136	0x3d25f87c	0.040520176
137	0x3d515357	0.05110487
138	0x3d90580e	0.07048045
139	0x3d5e8c04	0.054332748
140	0xbda4ef5d	-0.080534674
141	0xbddc85f5	-0.10767738
142	0x3df37d6d	0.118891574
143	0xbe2e6eea	-0.17034498
144	0xbcbe8273	-0.023255562
145	0x3e12e0db	0.14343588
146	0xbc94e01d	-0.018173272
147	0xbd530cd3	-0.051525902
148	0xbd5d492d	-0.054024864
149	0xbcbd4bda	-0.023107458
150	0x3ca3720c	0.019951843
151	0x3dd85250	0.10562575
152	0xbd72c89a	-0.05927334
153	0xbe843f39	-0.25829485
154	0x3d456bb5	0.04819842
155	0x3d2f5b97	0.042811956
156	0x3c00c97b	0.007860537
157	0xbe0f3664	-0.13985592
158	0x3e72847c	0.23683351
159	0x3d8ce957	0.068804435
160	0x3dce2aad	0.100667335
161	0xbe223dc8	-0.1584388
162	0xbbed4b58	-0.0072416477
163	0x3d7cb870	0.06169933
164	0xbe571441	-0.2100382
165	0xbc494b4d	-0.0122860195
166	0xbd359f11	-0.04434115
167	0xbd468fce	-0.048476987
168	0xbd88b215	-0.066745915
169	0xbda539a2	-0.08067633
170	0xbdd4775a	-0.10374327
171	0xbc4c90a2	-0.012485655
172	0x3d8fd67a	0.0702333
173	0x3e42eb61	0.19035102
174	0xbd9e906d	-0.07742391
175	0xbd924080	-0.07141209
176	0xbe0430fb	-0.1290931
177	0x3e8fc2b0	0.28078222
178	0xbd8bbf02	-0.06823541
179	0x3d42ebcf	0.047588166
180	0xbe0e6d21	-0.13908817
181	0x3bf3dab5	0.0074418434
182	0x3c2b6937	0.010462097
183	0x3d830f63	0.06399419
184	0x3e324ba2	0.17411664
185	0x3d3b351e	0.045704953
186	0xbdf492bb	-0.11942049
187	0x3ddd3d79	0.108027406
188	0x3e2916e0	0.16512632
189	0xbdc44044	-0.0958257
190	0x3b34248e	0.0027487609
191	0xbc666b97	-0.014063737
192	0xbdb9216b	-0.09039577
193	0xbcfcf597	-0.030878825
194	0xbd02e2e8	-0.031954676
195	0x3db23343	0.08701184
196	0xbb40e837	-0.0029435286
197	0xbdaa216b	-0.08307155
198	0x3c7b66cb	0.015344332
199	0x3de00fbd	0.10940502
200	0x3dc59fdc	0.096496314
201	0x3ccc36c3	0.024928456
202	0x3d95eb28	0.07320243
203	0xbbef312e	-0.007299564
204	0xbd0685f7	-0.032842603
205	0xbd252033	-0.04031391
206	0x3e1aa548	0.15102112
207	0x3c01688c	0.007898461
208	0xbd4089cc	-0.047006413
209	0x3d87ce12	0.06631102
210	0xbdb15a97	-0.08659857
211	0x3df5c0d7	0.11999672
212	0xbd255647	-0.040365484
213	0xbcefba2d	-0.02926358
214	0x3c5b5670	0.0133873075
215	0xbc893dca	-0.016753096
216	0x3be3e689	0.006954972
217	0x3ca5f242	0.02025712
218	0x3d47caf9	0.048777554
219	0x3cb8cbfd	0.022558207
220	0x3d84be99	0.06481666
221	0xbc8942fe	-0.016755577
222	0x3dd56ce4	0.1042116
223	0xbceb8fa5	-0.028755018
224	0x3e0110af	0.1260402
225	0x3d725485	0.059162635
226	0x3de8e932	0.113726035
227	0x3ce392f1	0.027780028
228	0x3dba69df	0.091022246
229	0x3cf2f076	0.029655676
230	0x3c8be834	0.017078497
231	0x3e6111d8	0.21979463
232	0x3e33a34d	0.17542763
233	0x3d29cff6	0.041458093
234	0x3c19d936	0.009390166
235	0xbd50b6d9	-0.050955627
236	0xba3962f1	-0.00070719334
237	0xbcf77118	-0.030205294
238	0x3d25e9ff	0.04050636
239	0x3ca281a6	0.019837212
240	0x3e63fa3d	0.22263427
241	0x3dac22d4	0.084050804
242	0xbde23166	-0.11044578
243	0x3dac1a90	0.08403504
244	0x3d86ffda	0.065917686
245	0x3d092249	0.033479962
246	0xbd4e2b5d	-0.050334323
247	0x3d9fed19	0.07808895
248	0xbdc8498f	-0.09779655
249	0x3e2f285d	0.17105241
250	0xbd58bc6c	-0.052914068
251	0x3bd0a3bd	0.0063671754
252	0xba4f8efb	-0.0007917729
253	0xbd8b82d7	-0.06812065
254	0xbde43065	-0.11142043
255	0xbda4fc82	-0.080559745

network_body._body_endoder.seq_layers.2.bias f4 [128]
0	0xbcc02ced	-0.023458922
1	0x3c8d6114	0.017258205
2	0xbc4de726	-0.012567317
3	0xbd10c015	-0.035339434
4	0xbcfe7983	-0.0310638
5	0xbc6345b5	-0.0138716
6	0x3cb455d0	0.022013575
7	0x3c337271	0.010952578
8	0xbc0a7c62	-0.008452507
9	0xbc28d173	-0.010303843
10	0xbcab8758	-0.02093856
11	0xbb95e8fc	-0.004574893
12	0xbcbe3020	-0.023216307
13	0xbd0fcc83	-0.035107147
14	0x3bc282b2	0.0059359903
15	0x3d1706c3	0.036871683
16	0xbd49c82d	-0.049263168
17	0xbd176403	-0.036960613
18	0xbcca682a	-0.024707872
19	0xbb509c92	-0.0031831604
20	0xbc20d291	-0.009815828
21	0x3cdaab8d	0.02669313
22	0x3ce279be	0.027645942
23	0xbd1dae27	-0.038496163
24	0xbce5a2f2	-0.0280318
25	0x3ba8039e	0.0051273843
26	0xbcd1a3ac	-0.02559074
27	0xbcd0d02a	-0.025489885
28	0xbd3b008c	-0.04565482
29	0xbcbe2248	-0.023209706
30	0xbcdcaff4	-0.02693937
31	0x3cbec2ce	0.02328625
32	0x3c15f28b	0.009152065
33	0x3c2b8f92	0.010471242
34	0xbb519cfb	-0.0031984437
35	0xbd2e1d0a	-0.042508163
36	0x3c312532	0.010812091
37	0xbab0514a	-0.001345196
38	0x3caad564	0.020853706
39	0x3c34ebf9	0.011042588
40	0x3c14c43c	0.009079989
41	0xbcd4a014	-0.025955237
42	0x3a2d7389	0.00066166423
43	0xbb31d68e	-0.0027135941
44	0xbd4f6f59	-0.0506433
45	0x3c1a44f4	0.009415854
46	0xbbb0e85a	-0.005398792
47	0xbd0a5ce3	-0.03377999
48	0xbc68fb2a	-0.014220038
49	0xbce9ea5e	-0.028554138
50	0xbc358536	-0.011079123
51	0x3bc3c8fd	0.0059748874
52	0xbcec9f5d	-0.028884584
53	0xbd2d6499	-0.042332266
54	0xbba33cff	-0.0049816365
55	0xbcefec82	-0.02928758
56	0xbcef46d5	-0.02920858
57	0xbd1d640f	-0.0384255
58	0x3ce22450	0.027605206
59	0xbcb4dc1c	-0.022077613
60	0xbce6df44	-0.028182633
61	0xbcb49337	-0.022042854
62	0x3cb54523	0.022127694
63	0x3bc5c02e	0.0060348725
64	0xb76901ad	-1.3888272e-05
65	0xbb539b47	-0.0032288597
66	0xbcaf70ce	-0.021416094
67	0x3b7169ab	0.0036836665
68	0xbc130e0a	-0.008975515
69	0x3be5b6a3	0.0070102974
70	0x3c972286	0.01844908
71	0xbc36e38b	-0.011162649
72	0xbcc04af5	-0.023473242
73	0x3c8ea834	0.01741419
74	0xbaa74450	-0.0012761448
75	0xbc5732b6	-0.013134649
76	0xbd0a9a8c	-0.033838794
77	0xbc0ff4ad	-0.008786363
78	0xba99463b	-0.0011693904
79	0xbc8d6730	-0.017261118
80	0xbc362045	-0.011116092
81	0xbce88b2c	-0.028386675
82	0xbc4745b1	-0.012162612
83	0xbd25b7ba	-0.04045842
84	0xbba9f25a	-0.0051863613
85	0xbc198b95	-0.009371658
86	0x3c31c6e9	0.0108506465
87	0xbc449ebd	-0.012000737
88	0xbcfcf35b	-0.03087776
89	0xbcb13150	-0.02162996
90	0xbd3c60da	-0.045990802
91	0x3c6b97fd	0.014379499
92	0x3b4b577e	0.0031027491
93	0xbb8e933b	-0.0043510473
94	0xbd251c59	-0.040310238
95	0xbc863148	-0.016380921
96	0xbcdbddd7	-0.02683918
97	0xbcf86c18	-0.03032498
98	0x3ca4d75f	0.020122228
99	0xbc502f0b	-0.012706528
100	0xbc131304	-0.008976702
101	0x3b72c128	0.00370414
102	0x3c576fc8	0.013149209
103	0x3ca7a7a0	0.020465672
104	0x3cf7933d	0.030221576
105	0xbd2e0448	-0.04248455
106	0xbc974d41	-0.018469455
107	0x3c135582	0.008992555
108	0xbb2afd64	-0.0026090974
109	0x3a529356	0.0008032819
110	0xbaf8ea10	-0.0018990654
111	0x3bf0c4c8	0.007347677
112	0x3b93bdde	0.004508718
113	0xbc08030c	-0.008301508
114	0x3c2794ff	0.0102283945
115	0xbb745f5a	-0.003728828
116	0xbcf683c3	-0.030092126
117	0x3cce6758	0.025195763
118	0x3c299724	0.010350976
119	0xbc83f732	-0.016109083
120	0xbd47507b	-0.048660737
121	0x3d024f91	0.03181416
122	0xbd22824f	-0.039675053
123	0xbd2cfd3f	-0.0422337
124	0xbd3c79ed	-0.046014715
125	0xbd2fca6a	-0.042917646
126	0xbb522f32	-0.0032071588
127	0x3c5db34d	0.013531518

action_model._continuous_distribution.log_sigma f4 [1, 2]
0	0xbd92ae3b	-0.07162138
1	0xbd41587a	-0.04720352

action_model._continuous_distribution.mu.weight f4 [2, 128]
0	0xbd0dabb1	-0.034587566
1	0xba7a3d11	-0.0009545843
2	0x3bb82011	0.005619057
3	0xbccc3410	-0.02492717
4	0x3bfcb694	0.0077121947
5	0xbcc698b0	-0.024242729
6	0x3d14cde3	0.03632916
7	0x3c3b55a3	0.011433992
8	0x3bd9275c	0.0066270065
9	0x3bddb1d8	0.0067655854
10	0x3be377d9	0.006941777
11	0xbcd0482c	-0.02542504
12	0xbd05c785	-0.03266098
13	0xbd0b0de0	-0.03394878
14	0xbc79c886	-0.015245562
15	0x3d8de14f	0.0692774
16	0xbd282fd0	-0.041061223
17	0x3c89df02	0.016829971
18	0xbac8669f	-0.0015289373
19	0x3c814841	0.015781524
20	0xbc6bff5a	-0.014404142
21	0x3d259808	0.04042819
22	0x3d325622	0.043539174
23	0xbbfee15e	-0.0077783307
24	0xbc335eb0	-0.010947868
25	0x3c145ae8	0.009054877
26	0xbd0570e0	-0.03257835
27	0xbb10b20e	-0.0022078785
28	0xbcc9d6c4	-0.024638541
29	0x3c47c0e3	0.012191984
30	0x3b958887	0.0045633945
31	0x3c43be86	0.01194728
32	0x3b8d6d33	0.004315996
33	0x3b6d2c13	0.00361896
34	0x3b8d1458	0.0043054037
35	0xbd5383d5	-0.051639397
36	0x3cbd79ce	0.02312937
37	0x3d0ecdfc	0.03486441
38	0x3c953ccb	0.018217465
39	0xbc3f5a34	-0.011679221
40	0xb97f2534	-0.00024332554
41	0xbd0b7e66	-0.03405609
42	0xbb7507ac	-0.0037388606
43	0x3d0ebccb	0.034848016
44	0xbd3ddb4b	-0.046351712
45	0x3ca66081	0.020309689
46	0xbbcbf78b	-0.006224578
47	0xb8802e6b	-6.112162e-05
48	0xbc2aaa34	-0.010416556
49	0xbb90707a	-0.0044079395
50	0x3c3e7a85	0.011625891
51	0x3cd3922a	0.025826532
52	0xbd0d27b3	-0.03446169
53	0xbd98d7c7	-0.07463031
54	0xbb51888b	-0.0031972255
55	0xbcbaaaf1	-0.02278659
56	0x3c1a55db	0.009419884
57	0xbcc42cbf	-0.023947118
58	0x3c835bb8	0.016034946
59	0xbcea8e47	-0.028632296
60	0xbbd7a6a7	-0.006581146
61	0xbac01772	-0.0014655425
62	0x3bcc7494	0.006239483
63	0xbc382461	-0.011239142
64	0xbbbbb0d7	-0.005727868
65	0x3cf6df8d	0.030135894
66	0xbc827369	-0.015924172
67	0xbb2b37ac	-0.0026125712
68	0x3cadacf6	0.021200638
69	0x3c91ff12	0.017821822
70	0xbc7e9588	-0.015538581
71	0x3c8c0c8b	0.017095825
72	0xbd3223e1	-0.043491248
73	0x3caca690	0.021075517
74	0xbc3ba8b6	-0.011453798
75	0x3c94a62d	0.018145645
76	0x3abfc945	0.0014632127
77	0x3cefc0f5	0.029266814
78	0xbb27c512	-0.002559964
79	0xbc939baa	-0.018018562
80	0x3b328878	0.0027241986
81	0xbca65e0f	-0.020308523
82	0xbc93f697	-0.01806192
83	0xbd6256a2	-0.0552584
84	0x3c28fc40	0.010314047
85	0x3c42c1c4	0.011887018
86	0x3c8488e3	0.016178554
87	0xbcac30a8	-0.021019295
88	0xbc2bdf0e	-0.010490192
89	0xbc183c92	-0.009291785
90	0xbc2176bf	-0.009854971
91	0xbc2a5f7b	-0.010398741
92	0xb7aad049	-2.036257e-05
93	0xbc11fcf2	-0.0089104045
94	0xbc1c2e08	-0.009532459
95	0x3c3d0471	0.011536703
96	0x3b1f27c0	0.0024285167
97	0xbc5f3259	-0.013622844
98	0x3cd885f0	0.026431054
99	0x3aa5359c	0.0012604478
100	0xbb8839f6	-0.0041573
101	0x39cb5196	0.00038779964
102	0x3cb7478e	0.022372987
103	0x3ca58966	0.020207118
104	0x3d4f8e5e	0.05067288
105	0xbcdba9ae	-0.026814308
106	0xbbb7fdea	-0.0056149857
107	0x3c810568	0.015749648
108	0x3cfe13a7	0.03101523
109	0x3cd140ae	0.025543537
110	0xbc58d0ba	-0.013233358
111	0x3b878695	0.0041359165
112	0xbc489894	-0.012243409
113	0xbc822ba7	-0.015889956
114	0x3d08fa78	0.03344199
115	0xbc340efd	-0.010989902
116	0xbccdcdf5	-0.025122622
117	0x3d5f4992	0.05451352
118	0x3cedef1e	0.029044684
119	0xb99d47f9	-0.00029998997
120	0xbd969d8e	-0.0735427
121	0x3d7626aa	0.060095467
122	0xbd2b567c	-0.041830525
123	0xbd7b2bc4	-0.061321035
124	0xbd07150f	-0.032979067
125	0xbd19949b	-0.037495237
126	0x3c2da991	0.01059951
127	0x3c731934	0.014837552
128	0x3ca88745	0.020572314
129	0x3d35b35a	0.044360496
130	0xbbb70824	-0.0055856872
131	0x3bc42c6d	0.0059867413
132	0x3c7ed216	0.015553018
133	0x3a1fc216	0.000609429
134	0x3c3a24e7	0.011361337
135	0x3cf9f4ad	0.030512178
136	0xbc8c5b79	-0.017133461
137	0xbc105ab0	-0.008810684
138	0x3bedb829	0.0072546196
139	0xbc903241	-0.017602088
140	0xbc24916e	-0.010044439
141	0xbbe38a62	-0.0069439868
142	0x3c094385	0.008377914
143	0x3c846c86	0.01616503
144	0xbc8f27f0	-0.017475098
145	0xbc12558e	-0.008931531
146	0x3ba7103e	0.0050983718
147	0xbd479e3e	-0.048734896
148	0xbd8592ad	-0.06522117
149	0x3d4a2efe	0.04936122
150	0xbceb11e4	-0.028695054
151	0x3cc054cf	0.02347794
152	0xbc49ccc4	-0.012316886
153	0x3ca64ccc	0.020300291
154	0xbd2e540d	-0.042560626
155	0xbccda929	-0.025105076
156	0xbc762a8e	-0.015024794
157	0xbca2164c	-0.019786023
158	0xb68481bb	-3.949009e-06
159	0x39864b24	0.00025614456
160	0x3af35d98	0.0018567322
161	0x3b3b6144	0.002859191
162	0xbc187850	-0.0093060285
163	0xbcb103b8	-0.021608219
164	0x3b2cab65	0.0026347276
165	0xbcf8a467	-0.03035183
166	0x3c27ebe9	0.010249116
167	0x3c5be67e	0.013421653
168	0x3cd585d3	0.026064789
169	0xbcdf775c	-0.027278595
170	0x3ca7420f	0.020417241
171	0xbcb7080a	-0.0223427
172	0x3a2c0d16	0.0006563229
173	0x3951e191	0.00020015823
174	0x3c4208a1	0.011842878
175	0xbbf7bcb8	-0.007560339
176	0xbca69957	-0.02033679
177	0xbc0373f1	-0.008023248
178	0xbb72e11f	-0.0037060452
179	0xbc153d30	-0.0091088265
180	0x3afccd55	0.0019287268
181	0xbce3ad39	-0.02779256
182	0x3d2d9d36	0.042386256
183	0xbb8993e6	-0.004198539
184	0xbcc1705c	-0.023613147
185	0xbcc70718	-0.024295375
186	0x3c8abeb7	0.016936643
187	0xbcd2bada	-0.025723863
188	0x3c949db3	0.018141603
189	0x3c000442	0.007813515
190	0x3cf30fdc	0.029670648
191	0x3b9e1c2f	0.004825137
192	0xbb4e8d51	-0.0031517337
193	0xbcaaa156	-0.020828884
194	0xbcb168d1	-0.021656426
195	0x3c845e6f	0.01615831
196	0xbcfe94d2	-0.031076822
197	0xbca2f795	-0.019893447
198	0x3d6f7223	0.05845846
199	0xbcd5c398	-0.026094243
200	0x39a5b633	0.00031607
201	0x3cd1b926	0.025600981
202	0x3c33f04d	0.010982585
203	0xbcfe14b8	-0.031015739
204	0xbc4679db	-0.012114014
205	0x3d0da09b	0.034576993
206	0xbb2608ab	-0.0025334756
207	0x3c3efc81	0.011656881
208	0xbd058a10	-0.03260237
209	0xbd0bb50c	-0.034108207
210	0x3c2bd810	0.010488525
211	0x3c16e8df	0.009210794
212	0x3c3fa3da	0.01169678
213	0xbbd39013	-0.006456384
214	0xbbb1a3a5	-0.0054211193
215	0xbc44d30b	-0.012013207
216	0xbd130124	-0.03588976
217	0xbd43538a	-0.04768709
218	0x3c8d76ef	0.017268626
219	0x3d31ff09	0.04345611
220	0x3d0e9a3c	0.034815058
221	0x3c3009f4	0.0107445605
222	0xbd0b663d	-0.03403305
223	0xbbfb817e	-0.007675349
224	0xbaf522b3	-0.0018702358
225	0xbcc1129d	-0.023568446
226	0x3a6d7f42	0.00090597954
227	0xbb51f07d	-0.0032034211
228	0x3d59da2d	0.053186584
229	0x39f502c6	0.00046732108
230	0x3cdc381f	0.02688223
231	0x3afe82f7	0.0019417693
232	0x3ca73f81	0.020416023
233	0xbbf02367	-0.007328439
234	0x3cd30432	0.025758836
235	0xbd1135b5	-0.03545161
236	0xbd45cbf4	-0.048290208
237	0xbc3c2447	-0.011483259
238	0x3d8ea9bd	0.06965969
239	0x3c1c7388	0.009549029
240	0x3c018986	0.007906323
241	0x3cc9afb8	0.024619922
242	0x3baec42b	0.0053334436
243	0xbd051f64	-0.03250064
244	0xbc2e97a5	-0.010656272
245	0x3b9a2387	0.004703942
246	0x3d263d97	0.04058608
247	0x3b197e77	0.0023421326
248	0xbd173eed	-0.036925245
249	0x3d3f0f2e	0.046645336
250	0xbbc233c4	-0.005926581
251	0xbc1f4bb1	-0.009722636
252	0xbcb95649	-0.022624152
253	0x3cde421d	0.027131135
254	0xbc1ddd98	-0.009635352
255	0x3d9046ff	0.070447914

action_model._continuous_distribution.mu.bias f4 [2]
0	0x3d7e7888	0.062126666
1	0x3c3386a8	0.0109573975

exp_avg f4 [128, 71]
0	0xb7945ea4	-1.7687045e-05
1	0xb895c476	-7.141467e-05
2	0xb620e30f	-2.3974023e-06
3	0x3935e083	0.00017345142
4	0x393a64e6	0.0001777593
5	0x32ab2ae2	1.992652e-08
6	0xb6db299c	-6.5315526e-06
7	0xb8b753e7	-8.741748e-05
8	0x39386ccf	0.00017588142
9	0x3927293b	0.0001594172
10	0x359835c3	1.1340529e-06
11	0x38b5cefb	8.669306e-05
12	0xb9117da1	-0.00013875078
13	0x390b54a1	0.000132876
14	0x395db29c	0.0002114274
15	0xb7945d5d	-1.768645e-05
16	0x395e5896	0.0002120457
17	0xb801d49a	-3.0953997e-05
18	0xb8aad1bb	-8.145297e-05
19	0x373d589d	1.128591e-05
20	0x34b1614a	3.3039606e-07
21	0xb8468bcd	-4.733708e-05
22	0x393f98be	0.0001827208
23	0xb8617e51	-5.376182e-05
24	0x37ff7cf0	3.0456547e-05
25	0x3666cd36	3.439212e-06
26	0x3925839a	0.00015784652
27	0x37bfc76a	2.2861834e-05
28	0xb8d651a5	-0.00010219523
29	0x383919f0	4.4131593e-05
30	0x36cede6f	6.165173e-06
31	0xb84e87de	-4.9240763e-05
32	0x3901cc33	0.00012378469
33	0x35a6dc4c	1.2432079e-06
34	0x38962376	7.1591625e-05
35	0x37826460	1.5543948e-05
36	0x38c3fd8c	9.3455514e-05
37	0xb882fe0e	-6.2462044e-05
38	0x38148a72	3.5414887e-05
39	0x38c1418b	9.2151655e-05
40	0xb671766d	-3.5980731e-06
41	0xb5c3bcec	-1.4583616e-06
42	0x3933991e	0.00017127811
43	0xb8b0b9c0	-8.4269326e-05
44	0x372d196f	1.0317525e-05
45	0x34085172	1.2695617e-07
46	0xb7eda498	-2.8329247e-05
47	0x3929e122	0.00016200964
48	0xb8597ee6	-5.1855015e-05
49	0xb765be41	-1.3693761e-05
50	0x38299b17	4.043718e-05
51	0x379f84ef	1.9016179e-05
52	0xb8f19c65	-0.00011520906
53	0x391065b7	0.00013770802
54	0x39159e50	0.00014268723
55	0x3775532e	1.4622505e-05
56	0xb8a6149f	-7.919338e-05
57	0x3926ee1f	0.000159197
58	0xb754a19c	-1.2673812e-05
59	0xb81954c6	-3.6556994e-05
60	0x3761bc78	1.3454926e-05
61	0xb8410d0b	-4.6026933e-05
62	0x37ef238b	2.8507571e-05
63	0x38b463e1	8.601673e-05
64	0x37ce6b3a	2.4607045e-05
65	0x00000000	0.0
66	0x00000000	0.0
67	0x00000000	0.0
68	0x00000000	0.0
69	0x00000000	0.0
70	0x00000000	0.0
71	0x376845a1	1.3844489e-05
72	0x38cecadf	9.860633e-05
73	0xb973fdfb	-0.00023268901
74	0xb9596f9a	-0.00020736307
75	0xb97d251b	-0.00024141783
76	0xb50c6b3b	-5.2310105e-07
77	0xb84a6494	-4.8254224e-05
78	0xb8ba347f	-8.878949e-05
79	0xb94743fb	-0.00019003444
80	0xb9a2c51e	-0.00031045912
81	0xb84317c7	-4.6513767e-05
82	0xb9454687	-0.00018813658
83	0xb86b2409	-5.6061926e-05
84	0xb81ab941	-3.6888992e-05
85	0xb97b5257	-0.000239679
86	0x3767bce4	1.38126525e-05
87	0xb9df4f47	-0.0004259294
88	0x39064ca0	0.00012807781
89	0xb836b6b6	-4.3562344e-05
90	0xb977edd1	-0.00023644349
91	0xb61b40a6	-2.313443e-06
92	0xb81beaf7	-3.7173708e-05
93	0xb990f7e5	-0.00027650516
94	0xb742c43c	-1.16089905e-05
95	0xb8c537b0	-9.4040646e-05
96	0xb75945e5	-1.29504815e-05
97	0xb9ae9fb3	-0.0003330685
98	0x37d044f7	2.4827646e-05
99	0xb6d714a0	-6.4099004e-06
100	0xb95390be	-0.00020176449
101	0xb7a1d1b6	-1.929035e-05
102	0x35bfb8c4	1.4284383e-06
103	0xb9972dcf	-0.00028835094
104	0xb7b36b3c	-2.1388398e-05
105	0xb8cb3ede	-9.691504e-05
106	0xb79016c0	-1.7176731e-05
107	0xb8a7d661	-8.003112e-05
108	0xb8b51a49	-8.6356486e-05
109	0xb917089e	-0.00014403692
110	0xb9789eb4	-0.00023710245
111	0x36b2e095	5.330958e-06
112	0xb8a137a3	-7.6874414e-05
113	0xb9b2d75b	-0.00034111258
114	0x38b25f68	8.505472e-05
115	0xb88ea15f	-6.801145e-05
116	0x33bb2a6f	8.715585e-08
117	0xb893be2c	-7.0449285e-05
118	0xb99734d1	-0.00028840316
119	0x3802b61e	3.1164025e-05
120	0xb8ae82bb	-8.321317e-05
121	0xb8c1c964	-9.240469e-05
122	0xb92de298	-0.00016582978
123	0x39495713	0.00019201291
124	0xb98909c8	-0.00026137964
125	0xb9a468b2	-0.00031358522
126	0xb8142797	-3.532282e-05
127	0xb81e24d5	-3.7704438e-05
128	0xb987edbd	-0.00025926335
129	0x369d591d	4.6893388e-06
130	0xb8a4bdbc	-7.85547e-05
131	0xb7fd286e	-3.0178777e-05
132	0xb95c4dcb	-0.00021009815
133	0x381964df	3.6571986e-05
134	0xb901ea27	-0.00012389627
135	0xb905b59a	-0.0001275152
136	0x00000000	0.0
137	0x00000000	0.0
138	0x00000000	0.0
139	0x00000000	0.0
140	0x00000000	0.0
141	0x00000000	0.0
142	0x3692a48e	4.3702958e-06
143	0x377fe4bc	1.5252441e-05
144	0xb8f8804e	-0.0001184946
145	0xb91cb4b1	-0.00014944632
146	0xb9322283	-0.0001698826
147	0xb324d804	-3.838069e-08
148	0xb6b0c698	-5.268328e-06
149	0xb9311340	-0.00016887207
150	0xb89b7b46	-7.4139374e-05
151	0xb91fa26b	-0.00015223927
152	0xb7e4443b	-2.721149e-05
153	0xb8f9cee8	-0.000119117845
154	0xb8d5bff1	-0.00010192383
155	0xb38b8edc	-6.498678e-08
156	0xb8db711e	-0.000104638035
157	0x3692418a	4.358769e-06
158	0xb963b52d	-0.000217159
159	0x380ff525	3.4322165e-05
160	0xb892771b	-6.9840076e-05
161	0xb95397d3	-0.00020179087
162	0xb5e4ab98	-1.7037264e-06
163	0xb8b7364c	-8.7362336e-05
164	0xb916e224	-0.00014389359
165	0xb780d61c	-1.5358492e-05
166	0xb8417d08	-4.613123e-05
167	0xb6b26cfc	-5.317501e-06
168	0xb9018941	-0.0001235353
169	0xb8849670	-6.322272e-05
170	0xb86be614	-5.6242643e-05
171	0xb917355d	-0.00014420362
172	0xb6c71ddf	-5.9341396e-06
173	0xb8c4eae3	-9.389759e-05
174	0xb92e9820	-0.00016650604
175	0x379728d9	1.8019624e-05
176	0xb84b9248	-4.8535207e-05
177	0xb6c8ca22	-5.983996e-06
178	0x376524e3	1.3658052e-05
179	0xb93d2a4d	-0.00018040203
180	0xb89e8629	-7.5590164e-05
181	0xb904e45c	-0.00012673571
182	0x368358a6	3.9144243e-06
183	0xb8f01fe4	-0.00011450032
184	0xb924e5da	-0.00015725885
185	0x37a3cd1a	1.9526622e-05
186	0xb8846a78	-6.314082e-05
187	0x3293b327	1.7194521e-08
188	0xb7da5d9f	-2.603122e-05
189	0xb9687659	-0.00022169332
190	0xb523f531	-6.107903e-07
191	0xb910b837	-0.00013801536
192	0xb8057db4	-3.182674e-05
193	0xb91b09b2	-0.00014785564
194	0x386d9976	5.6648125e-05
195	0xb9035ea4	-0.0001252839
196	0xb942155b	-0.00018509237
197	0xb6f8de3b	-7.416847e-06
198	0xb5ae047d	-1.2965317e-06
199	0xb97477e7	-0.0002331432
200	0xb6d8d097	-6.4615847e-06
201	0xb8ffffaa	-0.00012206969
202	0xb7e70042	-2.7537466e-05
203	0xb8e7d106	-0.00011053872
204	0x36032ea7	1.9547676e-06
205	0xb8eb4b29	-0.00011219673
206	0xb92d1605	-0.00016506769
207	0x00000000	0.0
208	0x00000000	0.0
209	0x00000000	0.0
210	0x00000000	0.0
211	0x00000000	0.0
212	0x00000000	0.0
213	0xb774e8f0	-1.4597768e-05
214	0xb813cb1e	-3.52367e-05
215	0xb7527fb2	-1.2546707e-05
216	0x3785857b	1.5916992e-05
217	0x37932ebe	1.7545532e-05
218	0x336c6976	5.5043948e-08
219	0xb4ec69e5	-4.4035474e-07
220	0xb8c22dcb	-9.2591705e-05
221	0x384316c4	4.6512825e-05
222	0x3820f009	3.8370523e-05
223	0xb6753112	-3.6536408e-06
224	0x37f7e056	2.9549159e-05
225	0xb88887dd	-6.510292e-05
226	0xb6f37f69	-7.256797e-06
227	0x3806b536	3.2116855e-05
228	0xb774ee51	-1.4599021e-05
229	0x38913509	6.924017e-05
230	0xb811c454	-3.475354e-05
231	0xb88b265c	-6.6351815e-05
232	0xb85baef5	-5.237661e-05
233	0xb3b3981c	-8.3630056e-08
234	0xb801710d	-3.0861283e-05
235	0x36fda877	7.5595995e-06
236	0xb7c1997e	-2.3078868e-05
237	0xb7c66f80	-2.365536e-05
238	0x362bf40e	2.5623044e-06
239	0x3805cd21	3.1900712e-05
240	0xb7e602eb	-2.7419495e-05
241	0xb8606d78	-5.3507712e-05
242	0xb83d3694	-4.511194e-05
243	0x36986a77	4.542347e-06
244	0xb7f1b99a	-2.8815866e-05
245	0xb812af67	-3.497247e-05
246	0x3756715e	1.2781789e-05
247	0xb7cea74c	-2.4635017e-05
248	0x36957411	4.454058e-06
249	0x3783ec4d	1.5726453e-05
250	0xb83245d9	-4.2503558e-05
251	0xb7ca82b5	-2.4141142e-05
252	0xb7ea221d	-2.7910859e-05
253	0xb59daacd	-1.1747121e-06
254	0x36700be1	3.5769701e-06
255	0xb7bdf9a1	-2.2646798e-05

exp_avg_sq f4 [128, 71]
0	0x32372f64	1.0662777e-08
1	0x35184fc4	5.6740487e-07
2	0x350cc890	5.244592e-07
3	0x34b38399	3.3437098e-07
4	0x3525f276	6.1820117e-07
5	0x322384c3	9.518035e-09
6	0x351a59f7	5.7500387e-07
7	0x350512e7	4.957387e-07
8	0x34c25da1	3.620344e-07
9	0x3536b790	6.80674e-07
10	0x329e295b	1.8412427e-08
11	0x35250aac	6.148282e-07
12	0x34fa0440	4.656922e-07
13	0x34a17ab0	3.0077854e-07
14	0x351b6e4e	5.7902514e-07
15	0x31a0812d	4.6712985e-09
16	0x35070932	5.03048e-07
17	0x353e5021	7.089712e-07
18	0x3448ecb8	1.8712569e-07
19	0x35043411	4.92496e-07
20	0x32857b47	1.5539298e-08
21	0x353969b2	6.907168e-07
22	0x351d7684	5.865952e-07
23	0x3422e105	1.5169287e-07
24	0x34de6414	4.142354e-07
25	0x31f5a7bc	7.1495077e-09
26	0x34e8aee7	4.3340626e-07
27	0x354b111c	7.564829e-07
28	0x34708487	2.2399955e-07
29	0x34e8c4b3	4.3356485e-07
30	0x322bd69d	1.0002307e-08
31	0x3538cd70	6.884429e-07
32	0x351395af	5.4979586e-07
33	0x3485aa25	2.4896977e-07
34	0x34fc0c93	4.6947807e-07
35	0x3333e76d	4.1887166e-08
36	0x351d8b9a	5.8690205e-07
37	0x34e75dea	4.3095434e-07
38	0x34cbdd62	3.7972774e-07
39	0x353a76e4	6.946341e-07
40	0x33557666	4.970061e-08
41	0x35217535	6.014773e-07
42	0x350f2e3f	5.333895e-07
43	0x34881c99	2.5352782e-07
44	0x350ca1e2	5.2389635e-07
45	0x32ec713b	2.7525507e-08
46	0x350e4277	5.299584e-07
47	0x35276d24	6.237117e-07
48	0x347ab8c3	2.335028e-07
49	0x350cad32	5.2406097e-07
50	0x336f8ef4	5.577654e-08
51	0x34f63f4c	4.5867125e-07
52	0x34e9b536	4.353148e-07
53	0x34f43f32	4.5494522e-07
54	0x3535714f	6.759264e-07
55	0x32a112cc	1.8751415e-08
56	0x3518fcf0	5.6992485e-07
57	0x35326440	6.645605e-07
58	0x33fb2016	1.1693935e-07
59	0x34eeb228	4.446058e-07
60	0x32d95f8a	2.5305571e-08
61	0x352612f2	6.186739e-07
62	0x35097f1b	5.122144e-07
63	0x34945bc0	2.7633905e-07
64	0x3517f4f9	5.6608366e-07
65	0x00000000	0.0
66	0x00000000	0.0
67	0x00000000	0.0
68	0x00000000	0.0
69	0x00000000	0.0
70	0x00000000	0.0
71	0x330e0e29	3.307483e-08
72	0x35c0caae	1.4364102e-06
73	0x35abf77f	1.2812524e-06
74	0x345a74a3	2.0345264e-07
75	0x35395272	6.9037844e-07
76	0x32a52314	1.922448e-08
77	0x3600fff2	1.9222466e-06
78	0x351f0b59	5.924863e-07
79	0x34f40685	4.5453285e-07
80	0x357f8063	9.518173e-07
81	0x3346c642	4.6280782e-08
82	0x358b679b	1.038646e-06
83	0x3586560f	1.0008824e-06
84	0x35635881	8.469288e-07
85	0x35aa0b34	1.2669248e-06
86	0x327086d4	1.4000495e-08
87	0x360e7b07	2.123126e-06
88	0x353c7ebd	7.0219886e-07
89	0x34401df2	1.7892287e-07
90	0x3520622d	5.974751e-07
91	0x335b49d0	5.1057043e-08
92	0x35ac531e	1.2839189e-06
93	0x35903ce9	1.0746563e-06
94	0x351c5333	5.82356e-07
95	0x35b07795	1.3147825e-06
96	0x321e4ced	9.214301e-09
97	0x3602f804	1.9515874e-06
98	0x350ede34	5.322247e-07
99	0x35087f44	5.0849144e-07
100	0x3572f372	9.0506285e-07
101	0x332eabf0	4.066891e-08
102	0x358d3ea8	1.0523554e-06
103	0x35c1ae7d	1.4430403e-06
104	0x3512ccbf	5.4687183e-07
105	0x3593ea03	1.102046e-06
106	0x32ec37d3	2.7499402e-08
107	0x35bfbdaa	1.4285808e-06
108	0x3580405f	9.555478e-07
109	0x35119165	5.4228286e-07
110	0x3587d07f	1.0118964e-06
111	0x3321b374	3.7648945e-08
112	0x35a583a3	1.2331769e-06
113	0x35934963	1.0973712e-06
114	0x352dc7e5	6.4738407e-07
115	0x35c0eb1d	1.4373542e-06
116	0x32bfd6e0	2.233304e-08
117	0x35a0ab3d	1.1970766e-06
118	0x35a704a3	1.2443819e-06
119	0x3509378b	5.11173e-07
120	0x35983ffc	1.1343504e-06
121	0x3396e90b	7.0273096e-08
122	0x356344c0	8.4664134e-07
123	0x35c1cbbe	1.4438917e-06
124	0x352ab58f	6.359414e-07
125	0x35a81ccc	1.2525356e-06
126	0x332da8fe	4.04334e-08
127	0x3585f839	9.981514e-07
128	0x35d8b517	1.6145958e-06
129	0x348723bc	2.517171e-07
130	0x357daf7f	9.4505225e-07
131	0x33476e69	4.6433716e-08
132	0x359ffd3e	1.1920126e-06
133	0x35a1bb40	1.2049932e-06
134	0x3514d786	5.5447924e-07
135	0x35a4ba8d	1.2273246e-06
136	0x00000000	0.0
137	0x00000000	0.0
138	0x00000000	0.0
139	0x00000000	0.0
140	0x00000000	0.0
141	0x00000000	0.0
142	0x3163a8df	3.312884e-09
143	0x34b8d59f	3.44281e-07
144	0x340e6430	1.3261229e-07
145	0x332c3331	4.009343e-08
146	0x33f61b5f	1.14602464e-07
147	0x30418fbf	7.0417266e-10
148	0x34bf2c77	3.5608875e-07
149	0x33f954a4	1.1610362e-07
150	0x3380463f	5.973242e-08
151	0x3421f296	1.5082546e-07
152	0x31d209b6	6.1129084e-09
153	0x34a3696c	3.043782e-07
154	0x339e4f75	7.3719015e-08
155	0x341d4aae	1.4648933e-07
156	0x3445b04d	1.8411193e-07
157	0x308a7f0b	1.0076929e-09
158	0x34c69e0e	3.6995374e-07
159	0x34142722	1.379781e-07
160	0x3299c3c1	1.7900563e-08
161	0x340010a4	1.1926983e-07
162	0x32181ff1	8.854827e-09
163	0x34aedb0b	3.25694e-07
164	0x33edd051	1.1074065e-07
165	0x33b3a895	8.366002e-08
166	0x3439f833	1.7319762e-07
167	0x2f4a8a88	1.8421009e-10
168	0x349c4e23	2.9114116e-07
169	0x33ecf8e1	1.1034877e-07
170	0x34020a09	1.2110844e-07
171	0x345df73c	2.0672172e-07
172	0x3188f466	3.985906e-09
173	0x348df142	2.6438835e-07
174	0x343c2ec9	1.7525885e-07
175	0x33d3847e	9.849553e-08
176	0x34296073	1.577444e-07
177	0x318880f5	3.9727817e-09
178	0x340f242f	1.3331076e-07
179	0x3467b4a5	2.157927e-07
180	0x34390924	1.7232793e-07
181	0x34895064	2.557673e-07
182	0x3222dc57	9.4797405e-09
183	0x349dbbaa	2.9380072e-07
184	0x341d372d	1.4641837e-07
185	0x33bcc8f7	8.7909875e-08
186	0x345d20d2	2.0594169e-07
187	0x31ca7e96	5.893365e-09
188	0x33c428c1	9.134374e-08
189	0x34ad4d82	3.2280155e-07
190	0x340151e1	1.2043849e-07
191	0x34690226	2.1700598e-07
192	0x32a89039	1.9623359e-08
193	0x345e9fd6	2.0733509e-07
194	0x3464363f	2.125389e-07
195	0x33c1a67f	9.017548e-08
196	0x34485d30	1.8660353e-07
197	0x31304676	2.5651423e-09
198	0x3435e9fd	1.6942063e-07
199	0x34a7207c	3.112981e-07
200	0x33313366	4.125777e-08
201	0x345bbcc4	2.0464637e-07
202	0x325133ee	1.2177209e-08
203	0x345995a6	2.0264142e-07
204	0x343b888c	1.7465408e-07
205	0x3417ab24	1.4125231e-07
206	0x3487336e	2.518313e-07
207	0x00000000	0.0
208	0x00000000	0.0
209	0x00000000	0.0
210	0x00000000	0.0
211	0x00000000	0.0
212	0x00000000	0.0
213	0x31a80396	4.889851e-09
214	0x3413cf07	1.3765758e-07
215	0x33d95985	1.01211334e-07
216	0x32daff7d	2.5494723e-08
217	0x339f7e6c	7.4270105e-08
218	0x31a11bfb	4.6888977e-09
219	0x341e8e68	1.4766704e-07
220	0x33adcc5f	8.093115e-08
221	0x333024c1	4.101162e-08
222	0x33bac114	8.696421e-08
223	0x315bd124	3.1987577e-09
224	0x33efc608	1.11653264e-07
225	0x33f0d65e	1.1214864e-07
226	0x3323d9f5	3.8149626e-08
227	0x33af2e5f	8.1575074e-08
228	0x30ef149f	1.73954e-09
229	0x3460b57b	2.0927648e-07
230	0x33363539	4.2423583e-08
231	0x32c64cc4	2.3085143e-08
232	0x339d5774	7.32679e-08
233	0x31a449a5	4.7814006e-09
234	0x33f28db8	1.12947816e-07
235	0x33afeeac	8.192487e-08
236	0x3399aa74	7.155623e-08
237	0x340c0e82	1.3043794e-07
238	0x30b40d29	1.3100464e-09
239	0x345f0104	2.0768863e-07
240	0x32dbdcf7	2.5595439e-08
241	0x33155843	3.477204e-08
242	0x33a76049	7.794058e-08
243	0x3150128e	3.027853e-09
244	0x33b9b2fd	8.6472916e-08
245	0x340db68d	1.319806e-07
246	0x3373aabf	5.673314e-08
247	0x33eb114e	1.0946188e-07
248	0x31bca4d7	5.4902602e-09
249	0x34182fe5	1.4173527e-07
250	0x33a63e6a	7.7413304e-08
251	0x3339f637	4.32976e-08
252	0x33aa3935	7.926648e-08
253	0x32199dfc	8.941694e-09
254	0x33b77ae1	8.543953e-08
255	0x340b4892	1.2971785e-07

exp_avg f4 [128]
0	0x38abddcc	8.195228e-05
1	0xb9abc1e6	-0.00032760127
2	0xb98230b3	-0.00024831816
3	0xb842e28d	-4.6464196e-05
4	0x3a110953	0.00055327005
5	0xb7f54bd1	-2.924158e-05
6	0x3992c8f2	0.00027997006
7	0xb98f5c9b	-0.00027344082
8	0xb9bab672	-0.00035612617
9	0xb8bc9db0	-8.99391e-05
10	0xb94d24cb	-0.0001956403
11	0x378b0fe5	1.6577493e-05
12	0xb88246fc	-6.212105e-05
13	0x383591a7	4.3289412e-05
14	0x3783e7c7	1.5724347e-05
15	0x394852d4	0.00019104342
16	0x386cca45	5.6455163e-05
17	0xb8929ab8	-6.990641e-05
18	0xb9917c07	-0.00027748963
19	0xb8df7522	-0.00010655286
20	0xb976dd70	-0.0002354288
21	0xb9102792	-0.00013747651
22	0x38c4eeba	9.3904746e-05
23	0x39df0069	0.0004253418
24	0x39853fcd	0.00025415272
25	0xb96ed242	-0.00022775776
26	0xb90cc264	-0.00013423857
27	0xb8a813c8	-8.014549e-05
28	0x3a90c31c	0.0011044475
29	0xb80a03e5	-3.290539e-05
30	0x38b3c76e	8.572532e-05
31	0xb8afad25	-8.376901e-05
32	0xb86cb979	-5.643952e-05
33	0xb97ed82d	-0.0002430386
34	0x380b71d7	3.3246204e-05
35	0x3957d165	0.00020582003
36	0x39ceb417	0.0003942556
37	0x37a2c63f	1.940422e-05
38	0xb9b63be1	-0.00034758358
39	0x39ba78cc	0.00035566685
40	0x39176b0b	0.00014440359
41	0x38ffe198	0.00012201368
42	0x3a8eda96	0.0010898884
43	0x37aa3f5a	2.029508e-05
44	0xb96243e4	-0.00021578331
45	0xb7855a32	-1.5896836e-05
46	0x39001730	0.00012215669
47	0x38e48a14	0.00010897606
48	0x382e24e3	4.1519186e-05
49	0x38c9fee7	9.631906e-05
50	0xb8304a90	-4.203111e-05
51	0xb9b17703	-0.0003384874
52	0xb95aa47c	-0.00020851375
53	0x360f80ff	2.1383746e-06
54	0x39131d99	0.00014030038
55	0x389a0499	7.3441486e-05
56	0x39848e46	0.00025283004
57	0x3a619b4e	0.0008606211
58	0x3a85aaa3	0.0010197948
59	0x395e9f19	0.00021230838
60	0xb7ecbce8	-2.8221359e-05
61	0xb71c7801	-9.326265e-06
62	0xb79fc220	-1.9044674e-05
63	0x375492b9	1.2670346e-05
64	0x3982380a	0.00024837285
65	0xb5bc4103	-1.4026012e-06
66	0x39443d79	0.00018714917
67	0xb8ec54f0	-0.00011269178
68	0x39b598b2	0.00034636777
69	0x38306b13	4.206139e-05
70	0xb88e8591	-6.795966e-05
71	0xb7d3a315	-2.5229101e-05
72	0x39dc98b1	0.00042075434
73	0xb7caf43a	-2.4194003e-05
74	0x37015e44	7.710947e-06
75	0x39a8fc1f	0.00032231302
76	0x394b14dd	0.00019367361
77	0xb89ce02b	-7.480414e-05
78	0x3862a1c6	5.4033262e-05
79	0xb922b33f	-0.00015516298
80	0x392610c2	0.00015837236
81	0xb9a94e88	-0.00032292702
82	0x3a023832	0.000496748
83	0xb9785b61	-0.00023685164
84	0x3a2608e1	0.00063337205
85	0x3999bc6f	0.00029322828
86	0x395192a2	0.00019986418
87	0xb9a09e0e	-0.00030635338
88	0x38bb92eb	8.9442205e-05
89	0x391931b3	0.00014609731
90	0xb9496849	-0.00019207703
91	0x3a152492	0.00056893483
92	0x3a3e39a8	0.0007256516
93	0x37510be3	1.2460138e-05
94	0xb9ba7c4c	-0.00035569293
95	0x34636e67	2.1181187e-07
96	0x37e0e7ad	2.6810763e-05
97	0x3971c72c	0.00023057748
98	0x39f91147	0.00047505854
99	0xb8930040	-7.009553e-05
100	0x38ddc53d	0.0001057484
101	0xb8afdc7f	-8.385721e-05
102	0x37d89ed4	2.5823167e-05
103	0xb91973d8	-0.00014634372
104	0x3a1bf63d	0.0005949473
105	0x37e3400d	2.7090335e-05
106	0x3a386a05	0.0007034841
107	0xb9f2e9bd	-0.00046331986
108	0x3680e7ad	3.841668e-06
109	0x3945cf7b	0.00018864677
110	0x38066ab1	3.2047454e-05
111	0xb9d93953	-0.00041432175
112	0x39cd1872	0.0003911886
113	0xb91ad9ce	-0.00014767723
114	0xb8601bb2	-5.3431555e-05
115	0x38b40dfa	8.585672e-05
116	0x3a51f84b	0.0008009716
117	0x391c5357	0.00014908366
118	0x3a0b6ffd	0.0005319117
119	0x398d3c3a	0.00026938488
120	0xb80f2d55	-3.4136076e-05
121	0x3996f1e0	0.0002879044
122	0x3aa980d4	0.001293207
123	0x394561e2	0.00018823848
124	0xb9a870a4	-0.0003212738
125	0xb869eb64	-5.5770754e-05
126	0x38c8fc34	9.58372e-05
127	0x37a12f43	1.9214704e-05

exp_avg_sq f4 [128]
0	0x35c4e695	1.4670246e-06
1	0x364a1c33	3.011676e-06
2	0x3509bb48	5.130901e-07
3	0x349169c3	2.7085306e-07
4	0x35dfe539	1.6681507e-06
5	0x33f526fb	1.1415792e-07
6	0x34c135a0	3.598807e-07
7	0x34253eb1	1.538963e-07
8	0x36174055	2.25382e-06
9	0x35201f87	5.9650523e-07
10	0x34c05ba5	3.5829467e-07
11	0x34ec2806	4.3987546e-07
12	0x344a7aa1	1.8857328e-07
13	0x3543c86c	7.2934813e-07
14	0x32ec0a2a	2.7478638e-08
15	0x34e25860	4.2160082e-07
16	0x335d07f4	5.1462806e-08
17	0x34f86a9c	4.6271168e-07
18	0x359978a1	1.1434496e-06
19	0x34ae5f72	3.247947e-07
20	0x354c5846	7.6124377e-07
21	0x35890a74	1.0210338e-06
22	0x366c7900	3.5237172e-06
23	0x3571bfd5	9.005865e-07
24	0x350561a7	4.9688464e-07
25	0x352322cd	6.0772874e-07
26	0x34158eb7	1.3928626e-07
27	0x34ba2366	3.4670956e-07
28	0x37061466	7.991772e-06
29	0x35f36112	1.8133162e-06
30	0x3599f2f6	1.1470099e-06
31	0x34d54e6a	3.9731395e-07
32	0x33b55b28	8.4450505e-08
33	0x35aadd47	1.2730387e-06
34	0x338af9fa	6.471596e-08
35	0x36360aa7	2.7126314e-06
36	0x369e52a7	4.718389e-06
37	0x3288573f	1.5872159e-08
38	0x35cf0d21	1.5426523e-06
39	0x360efba1	2.1306116e-06
40	0x349846f6	2.8363837e-07
41	0x348bd48e	2.6045421e-07
42	0x368c2d93	4.1776307e-06
43	0x3283ddb5	1.5351228e-08
44	0x34ef5f29	4.4586457e-07
45	0x33aa16d7	7.9203964e-08
46	0x33941746	6.8960205e-08
47	0x33ed84f9	1.106036e-07
48	0x34cbd171	3.7964085e-07
49	0x3532ac99	6.656133e-07
50	0x350915fc	5.106847e-07
51	0x35cc2eed	1.5212842e-06
52	0x342681ad	1.550713e-07
53	0x32e1f8ec	2.6306644e-08
54	0x357f18a6	9.503077e-07
55	0x36537342	3.150854e-06
56	0x35a09722	1.1964914e-06
57	0x36779533	3.6892714e-06
58	0x36861277	3.995661e-06
59	0x362ff434	2.6219177e-06
60	0x3386c303	6.275334e-08
61	0x3403dc25	1.2280414e-07
62	0x34453b0a	1.8368533e-07
63	0x329a3247	1.7950823e-08
64	0x34b9f091	3.463397e-07
65	0x328701a7	1.571682e-08
66	0x35309121	6.57763e-07
67	0x34b6eed2	3.4073906e-07
68	0x357d8671	9.444548e-07
69	0x3374fc34	5.7040054e-08
70	0x34e334ef	4.232056e-07
71	0x33444f63	4.5707008e-08
72	0x3611d4ea	2.1730616e-06
73	0x33c1a911	9.018016e-08
74	0x33cd0381	9.546694e-08
75	0x34c9a7ba	3.7561205e-07
76	0x34857b4b	2.4862888e-07
77	0x351c579a	5.8242006e-07
78	0x3450ff93	1.9464487e-07
79	0x34993369	2.8535877e-07
80	0x3458207f	2.012839e-07
81	0x36223750	2.4172077e-06
82	0x361987ea	2.287789e-06
83	0x35de3394	1.65553e-06
84	0x36656b61	3.4186162e-06
85	0x350fe853	5.360973e-07
86	0x34eaabfa	4.3711026e-07
87	0x3548f6e9	7.486511e-07
88	0x34a805dd	3.1296705e-07
89	0x3436f88d	1.7040493e-07
90	0x350736fd	5.037144e-07
91	0x35f9e4af	1.8618501e-06
92	0x366e42d8	3.5503672e-06
93	0x362b1e1a	2.5498507e-06
94	0x35cb0872	1.5127137e-06
95	0x3469c3ac	2.1771001e-07
96	0x330730ac	3.1476404e-08
97	0x3587802f	1.009559e-06
98	0x358b7fc0	1.0393487e-06
99	0x34a10148	2.998952e-07
100	0x363d4c04	2.8207442e-06
101	0x33937b6e	6.867673e-08
102	0x3267c251	1.3490152e-08
103	0x34ed9c98	4.4258627e-07
104	0x35cb90c9	1.5166817e-06
105	0x336fcec7	5.5834587e-08
106	0x360bad1a	2.0813372e-06
107	0x35a38330	1.2182627e-06
108	0x3311a5c4	3.3911206e-08
109	0x350bb6ed	5.204773e-07
110	0x3317f550	3.5380538e-08
111	0x355c4f70	8.2071983e-07
112	0x371b50db	9.257546e-06
113	0x340f8635	1.3366737e-07
114	0x34373a13	1.706433e-07
115	0x35d541fd	1.5888942e-06
116	0x363f34be	2.8491918e-06
117	0x34104310	1.3435442e-07
118	0x36ac2a45	5.1309203e-06
119	0x350321e1	4.8850603e-07
120	0x343d0a6b	1.7605787e-07
121	0x3623f836	2.443337e-06
122	0x36e6b4e8	6.8755944e-06
123	0x349a617d	2.8755667e-07
124	0x36a3918b	4.874722e-06
125	0x32a255c2	1.889828e-08
126	0x341ef612	1.4804417e-07
127	0x368298f6	3.892109e-06
