Maize-Runner/results/TestRightExit3/EscapeMaze/EscapeMaze-1107665.onnx (onnx, 105780 bytes, 7 tensors)

action_model._continuous_distribution.log_sigma f4 [1, 2]
000000 3b ae 92 bd 7a 58 41 bd
       -0.07162138 -0.04720352

action_model._continuous_distribution.mu.bias f4 [2]
000000 88 78 7e 3d a8 86 33 3c
       0.062126666 0.0109573975

action_model._continuous_distribution.mu.weight f4 [2, 128]
000000 b1 ab 0d bd 11 3d 7a ba 11 20 b8 3b 10 34 cc bc
       -0.034587566 -0.0009545843 0.005619057 -0.02492717
000010 94 b6 fc 3b b0 98 c6 bc e3 cd 14 3d a3 55 3b 3c
       0.0077121947 -0.024242729 0.03632916 0.011433992
000020 5c 27 d9 3b d8 b1 dd 3b d9 77 e3 3b 2c 48 d0 bc
       0.0066270065 0.0067655854 0.006941777 -0.02542504
000030 85 c7 05 bd e0 0d 0b bd 86 c8 79 bc 4f e1 8d 3d
       -0.03266098 -0.03394878 -0.015245562 0.0692774
000040 d0 2f 28 bd 02 df 89 3c 9f 66 c8 ba 41 48 81 3c
       -0.041061223 0.016829971 -0.0015289373 0.015781524
000050 5a ff 6b bc 08 98 25 3d 22 56 32 3d 5e e1 fe bb
       -0.014404142 0.04042819 0.043539174 -0.0077783307
000060 b0 5e 33 bc e8 5a 14 3c e0 70 05 bd 0e b2 10 bb
       -0.010947868 0.009054877 -0.03257835 -0.0022078785
000070 c4 d6 c9 bc e3 c0 47 3c 87 88 95 3b 86 be 43 3c
       -0.024638541 0.012191984 0.0045633945 0.01194728
000080 33 6d 8d 3b 13 2c 6d 3b 58 14 8d 3b d5 83 53 bd
       0.004315996 0.00361896 0.0043054037 -0.051639397
000090 ce 79 bd 3c fc cd 0e 3d cb 3c 95 3c 34 5a 3f bc
       0.02312937 0.03486441 0.018217465 -0.011679221
0000a0 34 25 7f b9 66 7e 0b bd ac 07 75 bb cb bc 0e 3d
       -0.00024332554 -0.03405609 -0.0037388606 0.034848016
0000b0 4b db 3d bd 81 60 a6 3c 8b f7 cb bb 6b 2e 80 b8
       -0.046351712 0.020309689 -0.006224578 -6.112162e-05
0000c0 34 aa 2a bc 7a 70 90 bb 85 7a 3e 3c 2a 92 d3 3c
       -0.010416556 -0.0044079395 0.011625891 0.025826532
0000d0 b3 27 0d bd c7 d7 98 bd 8b 88 51 bb f1 aa ba bc
       -0.03446169 -0.07463031 -0.0031972255 -0.02278659
0000e0 db 55 1a 3c bf 2c c4 bc b8 5b 83 3c 47 8e ea bc
       0.009419884 -0.023947118 0.016034946 -0.028632296
0000f0 a7 a6 d7 bb 72 17 c0 ba 94 74 cc 3b 61 24 38 bc
       -0.006581146 -0.0014655425 0.006239483 -0.011239142
000100 d7 b0 bb bb 8d df f6 3c 69 73 82 bc ac 37 2b bb
       -0.005727868 0.030135894 -0.015924172 -0.0026125712
000110 f6 ac ad 3c 12 ff 91 3c 88 95 7e bc 8b 0c 8c 3c
       0.021200638 0.017821822 -0.015538581 0.017095825
000120 e1 23 32 bd 90 a6 ac 3c b6 a8 3b bc 2d a6 94 3c
       -0.043491248 0.021075517 -0.011453798 0.018145645
000130 45 c9 bf 3a f5 c0 ef 3c 12 c5 27 bb aa 9b 93 bc
       0.0014632127 0.029266814 -0.002559964 -0.018018562
000140 78 88 32 3b 0f 5e a6 bc 97 f6 93 bc a2 56 62 bd
       0.0027241986 -0.020308523 -0.01806192 -0.0552584
000150 40 fc 28 3c c4 c1 42 3c e3 88 84 3c a8 30 ac bc
       0.010314047 0.011887018 0.016178554 -0.021019295
000160 0e df 2b bc 92 3c 18 bc bf 76 21 bc 7b 5f 2a bc
       -0.010490192 -0.009291785 -0.009854971 -0.010398741
000170 49 d0 aa b7 f2 fc 11 bc 08 2e 1c bc 71 04 3d 3c
       -2.036257e-05 -0.0089104045 -0.009532459 0.011536703
000180 c0 27 1f 3b 59 32 5f bc f0 85 d8 3c 9c 35 a5 3a
       0.0024285167 -0.013622844 0.026431054 0.0012604478
000190 f6 39 88 bb 96 51 cb 39 8e 47 b7 3c 66 89 a5 3c
       -0.0041573 0.00038779964 0.022372987 0.020207118
0001a0 5e 8e 4f 3d ae a9 db bc ea fd b7 bb 68 05 81 3c
       0.05067288 -0.026814308 -0.0056149857 0.015749648
0001b0 a7 13 fe 3c ae 40 d1 3c ba d0 58 bc 95 86 87 3b
       0.03101523 0.025543537 -0.013233358 0.0041359165
0001c0 94 98 48 bc a7 2b 82 bc 78 fa 08 3d fd 0e 34 bc
       -0.012243409 -0.015889956 0.03344199 -0.010989902
0001d0 f5 cd cd bc 92 49 5f 3d 1e ef ed 3c f9 47 9d b9
       -0.025122622 0.05451352 0.029044684 -0.00029998997
0001e0 8e 9d 96 bd aa 26 76 3d 7c 56 2b bd c4 2b 7b bd
       -0.0735427 0.060095467 -0.041830525 -0.061321035
0001f0 0f 15 07 bd 9b 94 19 bd 91 a9 2d 3c 34 19 73 3c
       -0.032979067 -0.037495237 0.01059951 0.014837552
000200 45 87 a8 3c 5a b3 35 3d 24 08 b7 bb 6d 2c c4 3b
       0.020572314 0.044360496 -0.0055856872 0.0059867413
000210 16 d2 7e 3c 16 c2 1f 3a e7 24 3a 3c ad f4 f9 3c
       0.015553018 0.000609429 0.011361337 0.030512178
000220 79 5b 8c bc b0 5a 10 bc 29 b8 ed 3b 41 32 90 bc
       -0.017133461 -0.008810684 0.0072546196 -0.017602088
000230 6e 91 24 bc 62 8a e3 bb 85 43 09 3c 86 6c 84 3c
       -0.010044439 -0.0069439868 0.008377914 0.01616503
000240 f0 27 8f bc 8e 55 12 bc 3e 10 a7 3b 3e 9e 47 bd
       -0.017475098 -0.008931531 0.0050983718 -0.048734896
000250 ad 92 85 bd fe 2e 4a 3d e4 11 eb bc cf 54 c0 3c
       -0.06522117 0.04936122 -0.028695054 0.02347794
000260 c4 cc 49 bc cc 4c a6 3c 0d 54 2e bd 29 a9 cd bc
       -0.012316886 0.020300291 -0.042560626 -0.025105076
000270 8e 2a 76 bc 4c 16 a2 bc bb 81 84 b6 24 4b 86 39
       -0.015024794 -0.019786023 -3.949009e-06 0.00025614456
000280 98 5d f3 3a 44 61 3b 3b 50 78 18 bc b8 03 b1 bc
       0.0018567322 0.002859191 -0.0093060285 -0.021608219
000290 65 ab 2c 3b 67 a4 f8 bc e9 eb 27 3c 7e e6 5b 3c
       0.0026347276 -0.03035183 0.010249116 0.013421653
0002a0 d3 85 d5 3c 5c 77 df bc 0f 42 a7 3c 0a 08 b7 bc
       0.026064789 -0.027278595 0.020417241 -0.0223427
0002b0 16 0d 2c 3a 91 e1 51 39 a1 08 42 3c b8 bc f7 bb
       0.0006563229 0.00020015823 0.011842878 -0.007560339
0002c0 57 99 a6 bc f1 73 03 bc 1f e1 72 bb 30 3d 15 bc
       -0.02033679 -0.008023248 -0.0037060452 -0.0091088265
0002d0 55 cd fc 3a 39 ad e3 bc 36 9d 2d 3d e6 93 89 bb
       0.0019287268 -0.02779256 0.042386256 -0.004198539
0002e0 5c 70 c1 bc 18 07 c7 bc b7 be 8a 3c da ba d2 bc
       -0.023613147 -0.024295375 0.016936643 -0.025723863
0002f0 b3 9d 94 3c 42 04 00 3c dc 0f f3 3c 2f 1c 9e 3b
       0.018141603 0.007813515 0.029670648 0.004825137
000300 51 8d 4e bb 56 a1 aa bc d1 68 b1 bc 6f 5e 84 3c
       -0.0031517337 -0.020828884 -0.021656426 0.01615831
000310 d2 94 fe bc 95 f7 a2 bc 23 72 6f 3d 98 c3 d5 bc
       -0.031076822 -0.019893447 0.05845846 -0.026094243
000320 33 b6 a5 39 26 b9 d1 3c 4d f0 33 3c b8 14 fe bc
       0.00031607 0.025600981 0.010982585 -0.031015739
000330 db 79 46 bc 9b a0 0d 3d ab 08 26 bb 81 fc 3e 3c
       -0.012114014 0.034576993 -0.0025334756 0.011656881
000340 10 8a 05 bd 0c b5 0b bd 10 d8 2b 3c df e8 16 3c
       -0.03260237 -0.034108207 0.010488525 0.009210794
000350 da a3 3f 3c 13 90 d3 bb a5 a3 b1 bb 0b d3 44 bc
       0.01169678 -0.006456384 -0.0054211193 -0.012013207
000360 24 01 13 bd 8a 53 43 bd ef 76 8d 3c 09 ff 31 3d
       -0.03588976 -0.04768709 0.017268626 0.04345611
000370 3c 9a 0e 3d f4 09 30 3c 3d 66 0b bd 7e 81 fb bb
       0.034815058 0.0107445605 -0.03403305 -0.007675349
000380 b3 22 f5 ba 9d 12 c1 bc 42 7f 6d 3a 7d f0 51 bb
       -0.0018702358 -0.023568446 0.00090597954 -0.0032034211
000390 2d da 59 3d c6 02 f5 39 1f 38 dc 3c f7 82 fe 3a
       0.053186584 0.00046732108 0.02688223 0.0019417693
0003a0 81 3f a7 3c 67 23 f0 bb 32 04 d3 3c b5 35 11 bd
       0.020416023 -0.007328439 0.025758836 -0.03545161
0003b0 f4 cb 45 bd 47 24 3c bc bd a9 8e 3d 88 73 1c 3c
       -0.048290208 -0.011483259 0.06965969 0.009549029
0003c0 86 89 01 3c b8 af c9 3c 2b c4 ae 3b 64 1f 05 bd
       0.007906323 0.024619922 0.0053334436 -0.03250064
0003d0 a5 97 2e bc 87 23 9a 3b 97 3d 26 3d 77 7e 19 3b
       -0.010656272 0.004703942 0.04058608 0.0023421326
0003e0 ed 3e 17 bd 2e 0f 3f 3d c4 33 c2 bb b1 4b 1f bc
       -0.036925245 0.046645336 -0.005926581 -0.009722636
0003f0 49 56 b9 bc 1d 42 de 3c 98 dd 1d bc ff 46 90 3d
       -0.022624152 0.027131135 -0.009635352 0.070447914

network_body._body_endoder.seq_layers.0.bias f4 [128]
000000 f2 93 97 3b b8 b9 26 bc c0 2e 82 3c ae 4c 75 bc
       0.0046257908 -0.010176115 0.015891433 -0.014971895
000010 50 f2 a2 bc 58 6f a7 bb b4 52 8b bc 8b bf 86 bc
       -0.019890934 -0.0051097088 -0.01700721 -0.016448757
000020 dd bb 3f 3b e8 45 f5 bc be a8 8a 3a 99 b8 34 ba
       0.0029256262 -0.02994056 0.0010578854 -0.0006893962
000030 11 69 02 bd 32 b6 0e bc 0a e1 28 bd 99 59 0d bd
       -0.03183848 -0.008710431 -0.04123024 -0.034509275
000040 ee 7e d2 3c f8 1f c2 ba 79 a9 a3 bc ce 9d 14 bc
       0.02569529 -0.0014810553 -0.019978272 -0.009070827
000050 73 d1 1b bc a5 89 f2 3c a0 2c cc 3b 76 d9 4c bd
       -0.009510386 0.02960665 0.0062309057 -0.050012074
000060 68 79 d7 bc 97 ec 21 bc be ed a4 bc 2c c6 3d 3c
       -0.026303008 -0.009883068 -0.020132896 0.011582892
000070 d4 14 e8 39 ad a3 09 bd fc e0 1b 3b eb b6 18 bc
       0.00044266006 -0.03360336 0.0023785224 -0.009320955
000080 18 18 14 3b 5d 42 0a bd 79 6d 17 bc fe 03 76 3b
       0.0022597369 -0.033754695 -0.009242409 0.0037539
000090 59 d2 2b bb 6f 09 47 bd 66 a3 f7 bc 88 7f a6 3c
       -0.0026217906 -0.04859298 -0.030229282 0.020324484
0000a0 2c 12 c0 bc 3d 9e 23 3b 34 76 90 3c c2 1e 33 bd
       -0.023446165 0.0024966144 0.017634489 -0.043730505
0000b0 3f 59 54 3c a6 8d 1d bd 30 09 a3 bc 41 ea b5 bc
       0.012960731 -0.038465165 -0.019901842 -0.022206428
0000c0 99 96 03 bd 60 43 af bc cc 8b cc bc 0d dd e3 bc
       -0.032126043 -0.021394432 -0.024969004 -0.027815366
0000d0 5c 7c be bc 49 4a 53 bd 78 45 ac 3c ff ab 9a 3c
       -0.023252659 -0.051584516 0.021029219 0.018880842
0000e0 32 9e 51 3b 99 75 44 3d 28 8d 14 3d 35 f9 cb 3c
       0.003198516 0.047963712 0.03626743 0.024899105
0000f0 dd 6c 2a bd 40 5b 36 bc e5 37 e0 bc 96 73 4a bc
       -0.041607726 -0.011130154 -0.027370403 -0.012356659
000100 6c 71 c5 bc 4b 24 91 bb 00 40 68 bc c6 26 cc bb
       -0.024101935 -0.0044293753 -0.014175415 -0.006230208
000110 6a cd 98 3b 76 ab b0 ba f5 2a 0b bc 97 66 e5 bc
       0.004663159 -0.0013478834 -0.0084941285 -0.02800302
000120 46 e0 4a 3c bb c5 5e bc e8 9d b0 bc e8 17 3d bc
       0.0123825725 -0.013596947 -0.02155967 -0.011541344
000130 ce 44 9e 3c 59 15 da bc ac 6e db ba 9d af 0a 3c
       0.019319918 -0.026621507 -0.0016741357 0.008464721
000140 03 49 6c bc 96 1e 7f bb 1b 5e aa bb 19 45 22 bc
       -0.014421704 -0.0038928143 -0.0051992065 -0.0099041695
000150 b1 17 1b 3c 81 94 97 3c 58 a9 c9 ba ec af 95 bc
       0.009466098 0.01850343 -0.0015385551 -0.018272363
000160 2a 52 ed bc 53 02 75 3c 01 ba 61 bc 6e b0 b0 bc
       -0.028969843 0.014954167 -0.013777257 -0.021568503
000170 d7 5c c7 3b a8 6e dd bb 81 87 52 ba 9b 88 dd bc
       0.0060840654 -0.006757576 -0.0008031056 -0.027042678
000180 b7 d0 10 3c 55 8e 5a 3c b1 8f ca 3c d9 d9 61 ba
       0.008838824 0.013339599 0.02472672 -0.00086155307
000190 20 0e e3 3a 90 e2 91 3a 83 d5 0e bc cf 8a 5f bb
       0.0017322935 0.0011130143 -0.008717897 -0.0034109836
0001a0 83 2c 6b 3c a5 1c d3 bc 51 eb 48 bc 1d 62 28 3c
       0.014353874 -0.025770495 -0.012263135 0.010277298
0001b0 8b 30 1e bb 6f bb 7a bc db 8c be 3b 34 72 f3 3b
       -0.002413782 -0.015303477 0.005815131 0.0074293856
0001c0 bc 97 0a 3d d1 aa b0 3c 8f ae e4 bc 4e 60 a7 bc
       0.03383611 0.021565827 -0.027915267 -0.020431664
0001d0 f6 98 ef 39 5b 4d 80 3c 93 20 b3 3c 3a 6d 9d bc
       0.00045699597 0.015661886 0.021866119 -0.019217122
0001e0 f5 69 9b bc ce 05 4d bb b6 69 17 bc 6c d6 e3 3c
       -0.018971423 -0.0031283977 -0.009241512 0.027812205
0001f0 95 6c b2 3c 73 db 28 3a 29 6f d0 3c 0e 0d ee bc
       0.021780292 0.0006441392 0.02544363 -0.02905896

network_body._body_endoder.seq_layers.0.weight f4 [128, 71]
000000 ed eb 0c be 78 8f fc bd e7 d5 36 be 48 cb 3a 3e
       -0.13761874 -0.12332052 -0.17855035 0.18241608
000010 e6 e4 5d 3e ae 9b cb 3d 20 8e 64 3b ea 76 2d bd
       0.21669349 0.09941803 0.0034874752 -0.042349733
000020 e6 02 a8 b9 f8 44 f4 3d 8f 6b 51 be dd 5f e8 3d
       -0.00032045617 0.11927217 -0.20451187 0.113464095
000030 42 24 35 3d b5 49 f0 bd 22 69 80 3e 5d 2a 49 bd
       0.04422403 -0.117328085 0.2508021 -0.049112666
000040 c0 bd 13 be 9d e5 49 bc f0 de 94 3d f9 52 ee bd
       -0.14427853 -0.0123228105 0.072690845 -0.116369195
000050 ce 3c a6 3c 97 69 d7 3d 7b 15 38 3e 61 96 c1 bd
       0.020292666 0.105181865 0.17976944 -0.094525106
000060 96 29 7d bd c2 18 41 bc 07 fe b5 be b4 42 ab 3e
       -0.061807238 -0.011785688 -0.3554537 0.33449328
000070 45 a4 9b 3d 71 a8 5d bd 97 7c e2 bd e9 12 b5 3d
       0.07599691 -0.054115716 -0.1105892 0.088414975
000080 ca b3 fa 3d a5 da c4 bc e2 8e 53 bd 86 1c f9 bd
       0.12241323 -0.02403004 -0.051649936 -0.121636435
000090 64 44 00 be 13 22 ce bd ac 07 f4 3d 28 a9 f6 3d
       -0.12526089 -0.10065093 0.11915526 0.12043983
0000a0 86 87 49 bc 40 3c cd bd 13 48 1c 3e 75 c5 34 bd
       -0.012300378 -0.100212574 0.15261869 -0.044133622
0000b0 fc 98 df bd d5 b1 3d be 00 7e ea bb 64 c7 2b bd
       -0.10917851 -0.18524869 -0.0071561337 -0.0419382
0000c0 52 e3 17 3e cf 81 fc bd 63 e3 de bd b9 5e a3 bd
       0.1483281 -0.123294465 -0.10883214 -0.07977051
0000d0 b5 3b ef 3d c7 73 f4 3d c4 c5 ac b9 f1 73 2e be
       0.1168131 0.11936145 -0.00032953743 -0.17036416
0000e0 13 1e 43 3d 17 3c 7f bd 5e de 55 3c b9 f3 15 be
       0.047636103 -0.062313166 0.013053505 -0.14643754
0000f0 80 58 06 3e d6 92 00 ba 19 c4 67 b9 52 34 be bd
       0.13119698 -0.0004904693 -0.00022102929 -0.09287323
000100 4d 1e bb 3c 89 ae a5 be a1 8e 35 3d 81 74 9a bd
       0.022841597 -0.32359722 0.044325475 -0.075417526
000110 be cf 50 3c c9 04 53 3d af 2d 52 3e 82 1d 00 3b
       0.012744842 0.051518235 0.2052524 0.0019548838
000120 4f 57 62 3d 23 23 90 3d 9b 17 46 be 62 03 b9 be
       0.055259045 0.07037952 -0.19344942 -0.36135393
000130 16 6f 67 be df 76 7d 3d 83 4a 37 be 70 c9 a4 3c
       -0.2260097 0.061880942 -0.17899518 0.020115584
000140 90 ea 02 bd 06 ce e2 bd 98 36 34 be 67 82 0a be
       -0.031961977 -0.11074452 -0.17598951 -0.13526307
000150 b6 8b 2a 3e ae da 86 3b 98 31 d2 3c 73 f5 a4 3d
       0.16654858 0.004115424 0.025658414 0.08054628
000160 25 37 bf bc 98 0c 5f 3d a2 ec 50 be 90 70 e5 3e
       -0.023341725 0.05445537 -0.20402768 0.4481244
000170 7a 8a 85 3c 78 b4 d4 bd ad 9d e7 bc 97 30 e0 3d
       0.016301382 -0.10385984 -0.028273428 0.10946768
000180 0e af 99 3d 8c 0d 82 3b f3 56 7b bd cc 43 d4 3d
       0.07504092 0.0039689 -0.061362218 0.10364494
000190 c6 6e 06 bd a3 1c 04 be a4 c4 41 be d5 db 77 bd
       -0.032820486 -0.12901549 -0.18922669 -0.060512383
0001a0 79 d9 43 bc 3c 5a bb 3d 86 10 46 bd 01 a8 ca 3d
       -0.011953705 0.0914807 -0.0483556 0.098953255
0001b0 25 71 c4 3d 91 10 d5 bd 70 ac 83 bc 14 c2 1c bd
       0.09591893 -0.104035504 -0.016073436 -0.038271025
0001c0 33 16 b3 3d 58 74 1e 3d 0c da f7 3d fd 17 19 3e
       0.087444685 0.038685173 0.12102136 0.14950557
0001d0 5d 0c 6a be be 3b b0 bd c6 d5 a9 3d 07 75 31 bd
       -0.22856279 -0.08605145 0.08292727 -0.043324497
0001e0 50 46 36 3e 23 fe 1f bc b7 4a 4d 3d b1 8f 11 3e
       0.1780026 -0.009765181 0.05012008 0.1421497
0001f0 19 bb 00 be 56 78 ba 3d 2b 97 03 3d b1 0c cc bd
       -0.12571372 0.091049835 0.032126587 -0.09963358
000200 ba e1 2f 3e 1d 15 87 3d da b2 23 be 16 ff 2a 3e
       0.17175952 0.06595824 -0.15986195 0.1669887
000210 5c 05 1f 3e 5c 2a 1b 3e b8 83 44 3e 34 2f 70 3d
       0.15529388 0.15152878 0.19190872 0.058638766
000220 64 92 d6 bd ce 11 27 3e 78 0a ba b9 1c c6 6f 3d
       -0.104771405 0.16315386 -0.00035484484 0.05853854
000230 2a dc b7 bc 85 bc 1b be c3 91 24 be a9 ea 16 3e
       -0.02244385 -0.15208633 -0.16071229 0.14737953
000240 34 03 ee bd ea ed e4 3c f9 3c 2a be 94 5d ea bd
       -0.11621705 0.027945478 -0.16624822 -0.1144363
000250 c8 ea 22 3e 8c da 7f bc c2 56 a2 3c 06 2d 79 3b
       0.15909874 -0.0156160705 0.01981676 0.003802122
000260 56 38 9c bd 82 1e 13 3e 5f 4a f8 bd 9c 1c 94 3e
       -0.07627933 0.14367107 -0.1212356 0.28928077
000270 d2 23 e4 bd 19 41 14 bc f8 df 56 3e c4 54 d3 bd
       -0.11139645 -0.009048724 0.20983875 -0.10318902
000280 87 ec 24 be c1 4b 58 be f8 64 03 3d f0 f2 89 3d
       -0.16105853 -0.21122648 0.032078713 0.0673579
000290 26 46 9f bd c9 b4 e6 3c 6b b1 89 bb 70 36 49 be
       -0.07777052 0.028162377 -0.004202058 -0.19649673
0002a0 39 fa c7 bd db d2 83 bd 7f b4 57 bd 95 1e 46 3e
       -0.09764523 -0.06436702 -0.05266237 0.19347604
0002b0 0c 3c 95 be fb 4e 15 3c 1e 7d ad bc 9d a2 d5 3d
       -0.29147375 0.009113069 -0.021177825 0.10431407
0002c0 40 ca 8d be 23 bf e8 bc b8 b1 44 be 8a 9c 44 bd
       -0.27693367 -0.028411454 -0.1920842 -0.04800085
0002d0 ff d5 ac 3d 35 63 c6 3d 99 fb 57 bd e1 bb 6b 3d
       0.08439254 0.09686891 -0.052730177 0.057552222
0002e0 71 e2 10 be f3 9a 34 be 7d d3 0b 3b b1 29 b2 bd
       -0.1414888 -0.17637233 0.0021335774 -0.08699358
0002f0 e3 45 b0 be 5a 8c 4f bd 6f a2 88 3c 3c 4e 11 be
       -0.3442832 -0.05067096 0.016679017 -0.1419
000300 cc fd ab 3d f0 7a 53 3c 24 cb d2 3d a2 d9 c2 bd
       0.08398017 0.012907729 0.10292652 -0.095141664
000310 38 ae 11 bd d6 08 9b bd a5 0c 4f bd 7c fb 0e 3e
       -0.03556654 -0.07570045 -0.05054917 0.13963121
000320 05 94 83 be aa 05 8e 3e f9 69 b6 3e 01 b0 5d bc
       -0.25698867 0.27738696 0.35627726 -0.013530732
000330 e1 8b 65 be e3 aa 7f bd 58 f6 7b bd 4b 17 0a 3e
       -0.22416641 -0.06241883 -0.06151423 0.13485448
000340 d7 32 bb bc f7 a1 2b 3e 8f 66 94 bd 21 d6 05 3c
       -0.02285139 0.16761003 -0.07246124 0.008168728
000350 bb 15 f4 3d 6f 95 62 3b 9c 28 27 3e d1 cd 38 be
       0.11918207 0.0034573933 0.16324085 -0.18047263
000360 49 3b 80 bd fa b7 90 bb 73 30 1d 3d 10 ba ae bd
       -0.06261308 -0.004416463 0.038376283 -0.08531582
000370 5f a6 f1 3c 8e 33 43 be d4 2b 30 3e b7 58 28 be
       0.029498277 -0.19062635 0.17204219 -0.16440092
000380 ab a9 80 3d d5 b6 7c 3d 9b bf ca bd 63 a2 a7 be
       0.062823616 0.0616978 -0.09899827 -0.3274108
000390 1a 7e ce bd a3 c0 45 3e 00 8f 96 be 49 95 16 bd
       -0.10082646 0.19311766 -0.29405975 -0.036763463
0003a0 00 b8 7a bd b6 d6 a5 bc 75 48 94 3c 66 ce cb bd
       -0.061210632 -0.020243984 0.018100956 -0.09951477
0003b0 33 2b 33 3d 64 4c d7 3d ea ba 81 3d 0f e4 41 3e
       0.04374237 0.10512617 0.06334479 0.18934654
0003c0 d6 0a a2 bd 99 03 79 bd b7 f6 f8 3d af 4f ac 3c
       -0.07912223 -0.060794447 0.12156432 0.02103409
0003d0 63 56 1b be 45 40 c6 3d f2 7f 24 be 08 cc 39 3e
       -0.15169673 0.09680227 -0.16064432 0.18144238
0003e0 0e 60 b0 bc ce a7 ea bd 21 76 57 bc 2a ab 23 3d
       -0.021530177 -0.114577875 -0.013150723 0.039958157
0003f0 39 df 2a be 26 64 d1 3d 4f 5f 43 bd f4 6d 9c bd
       -0.16686715 0.1022418 -0.047698315 -0.076381594

network_body._body_endoder.seq_layers.2.bias f4 [128]
000000 ed 2c c0 bc 14 61 8d 3c 26 e7 4d bc 15 c0 10 bd
       -0.023458922 0.017258205 -0.012567317 -0.035339434
000010 83 79 fe bc b5 45 63 bc d0 55 b4 3c 71 72 33 3c
       -0.0310638 -0.0138716 0.022013575 0.010952578
000020 62 7c 0a bc 73 d1 28 bc 58 87 ab bc fc e8 95 bb
       -0.008452507 -0.010303843 -0.02093856 -0.004574893
000030 20 30 be bc 83 cc 0f bd b2 82 c2 3b c3 06 17 3d
       -0.023216307 -0.035107147 0.0059359903 0.036871683
000040 2d c8 49 bd 03 64 17 bd 2a 68 ca bc 92 9c 50 bb
       -0.049263168 -0.036960613 -0.024707872 -0.0031831604
000050 91 d2 20 bc 8d ab da 3c be 79 e2 3c 27 ae 1d bd
       -0.009815828 0.02669313 0.027645942 -0.038496163
000060 f2 a2 e5 bc 9e 03 a8 3b ac a3 d1 bc 2a d0 d0 bc
       -0.0280318 0.0051273843 -0.02559074 -0.025489885
000070 8c 00 3b bd 48 22 be bc f4 af dc bc ce c2 be 3c
       -0.04565482 -0.023209706 -0.02693937 0.02328625
000080 8b f2 15 3c 92 8f 2b 3c fb 9c 51 bb 0a 1d 2e bd
       0.009152065 0.010471242 -0.0031984437 -0.042508163
000090 32 25 31 3c 4a 51 b0 ba 64 d5 aa 3c f9 eb 34 3c
       0.010812091 -0.001345196 0.020853706 0.011042588
0000a0 3c c4 14 3c 14 a0 d4 bc 89 73 2d 3a 8e d6 31 bb
       0.009079989 -0.025955237 0.00066166423 -0.0027135941
0000b0 59 6f 4f bd f4 44 1a 3c 5a e8 b0 bb e3 5c 0a bd
       -0.0506433 0.009415854 -0.005398792 -0.03377999
0000c0 2a fb 68 bc 5e ea e9 bc 36 85 35 bc fd c8 c3 3b
       -0.014220038 -0.028554138 -0.011079123 0.0059748874
0000d0 5d 9f ec bc 99 64 2d bd ff 3c a3 bb 82 ec ef bc
       -0.028884584 -0.042332266 -0.0049816365 -0.02928758
0000e0 d5 46 ef bc 0f 64 1d bd 50 24 e2 3c 1c dc b4 bc
       -0.02920858 -0.0384255 0.027605206 -0.022077613
0000f0 44 df e6 bc 37 93 b4 bc 23 45 b5 3c 2e c0 c5 3b
       -0.028182633 -0.022042854 0.022127694 0.0060348725
000100 ad 01 69 b7 47 9b 53 bb ce 70 af bc ab 69 71 3b
       -1.3888272e-05 -0.0032288597 -0.021416094 0.0036836665
000110 0a 0e 13 bc a3 b6 e5 3b 86 22 97 3c 8b e3 36 bc
       -0.008975515 0.0070102974 0.01844908 -0.011162649
000120 f5 4a c0 bc 34 a8 8e 3c 50 44 a7 ba b6 32 57 bc
       -0.023473242 0.01741419 -0.0012761448 -0.013134649
000130 8c 9a 0a bd ad f4 0f bc 3b 46 99 ba 30 67 8d bc
       -0.033838794 -0.008786363 -0.0011693904 -0.017261118
000140 45 20 36 bc 2c 8b e8 bc b1 45 47 bc ba b7 25 bd
       -0.011116092 -0.028386675 -0.012162612 -0.04045842
000150 5a f2 a9 bb 95 8b 19 bc e9 c6 31 3c bd 9e 44 bc
       -0.0051863613 -0.009371658 0.0108506465 -0.012000737
000160 5b f3 fc bc 50 31 b1 bc da 60 3c bd fd 97 6b 3c
       -0.03087776 -0.02162996 -0.045990802 0.014379499
000170 7e 57 4b 3b 3b 93 8e bb 59 1c 25 bd 48 31 86 bc
       0.0031027491 -0.0043510473 -0.040310238 -0.016380921
000180 d7 dd db bc 18 6c f8 bc 5f d7 a4 3c 0b 2f 50 bc
       -0.02683918 -0.03032498 0.020122228 -0.012706528
000190 04 13 13 bc 28 c1 72 3b c8 6f 57 3c a0 a7 a7 3c
       -0.008976702 0.00370414 0.013149209 0.020465672
0001a0 3d 93 f7 3c 48 04 2e bd 41 4d 97 bc 82 55 13 3c
       0.030221576 -0.04248455 -0.018469455 0.008992555
0001b0 64 fd 2a bb 56 93 52 3a 10 ea f8 ba c8 c4 f0 3b
       -0.0026090974 0.0008032819 -0.0018990654 0.007347677
0001c0 de bd 93 3b 0c 03 08 bc ff 94 27 3c 5a 5f 74 bb
       0.004508718 -0.008301508 0.0102283945 -0.003728828
0001d0 c3 83 f6 bc 58 67 ce 3c 24 97 29 3c 32 f7 83 bc
       -0.030092126 0.025195763 0.010350976 -0.016109083
0001e0 7b 50 47 bd 91 4f 02 3d 4f 82 22 bd 3f fd 2c bd
       -0.048660737 0.03181416 -0.039675053 -0.0422337
0001f0 ed 79 3c bd 6a ca 2f bd 32 2f 52 bb 4d b3 5d 3c
       -0.046014715 -0.042917646 -0.0032071588 0.013531518

network_body._body_endoder.seq_layers.2.weight f4 [128, 128]
000000 a6 ec 3c be eb 5a 30 3d 5f cb 4a 3c 1c 73 92 3d
       -0.18449649 0.043055456 0.012377589 0.071508616
000010 d6 2f a2 3d bb ba 3e bd 33 e7 bd bd 44 07 42 bd
       0.0791928 -0.0465648 -0.092726134 -0.04737021
000020 a1 4e ae 3c b3 63 02 be dd 9c f0 3d 77 37 33 3e
       0.021277728 -0.12733345 0.11748669 0.17501627
000030 9e bb 6f bd a6 f2 26 be 7b 64 a1 bd 1a e5 2f be
       -0.058528535 -0.163035 -0.07880493 -0.17177239
000040 40 ea 10 be 2e a1 18 3e d3 c9 58 3d f9 01 46 3d
       -0.1415186 0.14905235 0.05292685 0.048341725
000050 8c ca 4d 3a 3d f3 3e 3e 7f 14 56 be 47 eb 23 3d
       0.0007850311 0.18647476 -0.20906256 0.0400193
000060 db ee a2 3c 90 f5 16 3e b9 e1 cc 3d bc 1d 10 be
       0.019889286 0.14742112 0.10003991 -0.14073843
000070 3b a0 0c bd c1 82 c8 bd 68 f5 50 3d 47 32 a8 3d
       -0.034332495 -0.09790564 0.051015288 0.08212715
000080 39 37 09 3d 64 ba 96 bd c7 8e 38 3d f0 a2 de 3d
       0.03349993 -0.0735977 0.045058038 0.108709216
000090 91 69 7d 3d 89 e9 64 3c 08 ad d2 3c 71 0f b2 bc
       0.061868254 0.013971695 0.025717273 -0.021735879
0000a0 10 46 1f bc 4c c7 d3 bd c8 b0 97 3d f9 dd 4b bd
       -0.009721294 -0.10340747 0.07406765 -0.049772236
0000b0 ac 54 4a be 1b e5 56 bd 6c f9 2b 3c 6a 78 e0 bc
       -0.19758862 -0.052464586 0.0104964785 -0.027401168
0000c0 f6 06 bd bd 17 90 d1 3d fa c9 8b bc b1 3b 62 3e
       -0.09229843 0.10232561 -0.017064083 0.22093083
0000d0 2f 12 46 3e f4 31 f6 3d 08 49 43 3e f8 da 3f be
       0.19342874 0.120212466 0.19070828 -0.18735874
0000e0 40 df 01 bc 45 d6 09 be 71 f7 4d be 0f 6c 27 3e
       -0.007926762 -0.13460644 -0.20113923 0.16349815
0000f0 10 c2 e1 bd 2f e8 cd bd 32 69 f2 bd 26 08 4c 3e
       -0.110233426 -0.10054051 -0.11836471 0.19924983
000100 cf fe f1 bd 8f 39 9d 3d 8c bc 7e bd e3 69 a3 3d
       -0.11816179 0.07676994 -0.06219153 0.07979181
000110 60 4a 82 bd e9 0c 45 3e d7 a2 9b 3d 01 ad 80 3d
       -0.06361842 0.19243206 0.075994186 0.06282998
000120 eb 57 54 bd c6 86 c8 3d a7 95 81 ba 0a bd a4 bd
       -0.051841658 0.09791331 -0.0009886519 -0.08043869
000130 86 f3 00 be 86 0a 87 bd 6d 05 b5 3d 35 0a ce bd
       -0.12592897 -0.06593804 0.088389255 -0.100605406
000140 6d 7b 59 3c 96 6a 7c 3d 6d b8 07 bd b8 54 c2 3d
       0.013274056 0.061625086 -0.033134867 0.09488815
000150 fd 4c bf bd 07 40 03 bd dd 01 b6 bd 30 b8 19 be
       -0.09340856 -0.032043483 -0.08887074 -0.15011668
000160 2c b3 20 be 74 00 d8 bc 39 f3 59 3d da 9c 4b 3b
       -0.15693349 -0.026367404 0.05321047 0.0031068833
000170 c1 a5 f5 bd 65 95 d3 3d a2 83 c1 bc f0 2a 0f be
       -0.11994506 0.10331229 -0.023622338 -0.13981223
000180 8a eb 91 bd aa c9 3e 3d d4 e6 b5 3d 29 3f 3c 3d
       -0.07125004 0.04657904 0.088819176 0.04595867
000190 e3 60 b5 bd ef 7b e5 3d 64 29 4a bc 1c 28 ce bd
       -0.0885637 0.11205279 -0.01233897 -0.10066244
0001a0 6c 81 ae bd 65 b0 40 3d d2 41 10 3d 7f 68 54 3e
       -0.08520779 0.047043223 0.03521902 0.20742987
0001b0 da 89 a3 bd ed 5b f1 bd 18 b2 3f 3d 12 82 fa 3a
       -0.079852775 -0.117851116 0.046800703 0.001911225
0001c0 f2 3d 3a be 61 a8 32 3e 31 1d 32 bc fe 73 27 bd
       -0.18187693 0.17447044 -0.010871218 -0.040882103
0001d0 48 24 13 bd a8 b5 4e 3b 8f 46 b3 3d 67 01 d4 bd
       -0.035923272 0.003154138 0.08753692 -0.1035183
0001e0 01 24 d9 bd 0b 35 9c bd 80 d1 57 be 80 3d e7 3c
       -0.1060257 -0.07627305 -0.21076012 0.028227568
0001f0 aa e6 c8 3d c0 6c bc bd 59 e1 03 3d c6 89 19 3b
       0.09809621 -0.0920043 0.03219733 0.0023428067
000200 48 cd 5c bd 18 18 cc 3d 4f 73 0c 3e 2d ac 94 3d
       -0.05390671 0.09965533 0.13715862 0.072594024
000210 9f cd ca bc 9e ad 17 be a0 49 88 bd 43 92 14 3e
       -0.02475625 -0.14812323 -0.06654668 0.1450892
000220 7c f8 25 3d 57 53 51 3d 0e 58 90 3d 04 8c 5e 3d
       0.040520176 0.05110487 0.07048045 0.054332748
000230 5d ef a4 bd f5 85 dc bd 6d 7d f3 3d ea 6e 2e be
       -0.080534674 -0.10767738 0.118891574 -0.17034498
000240 73 82 be bc db e0 12 3e 1d e0 94 bc d3 0c 53 bd
       -0.023255562 0.14343588 -0.018173272 -0.051525902
000250 2d 49 5d bd da 4b bd bc 0c 72 a3 3c 50 52 d8 3d
       -0.054024864 -0.023107458 0.019951843 0.10562575
000260 9a c8 72 bd 39 3f 84 be b5 6b 45 3d 97 5b 2f 3d
       -0.05927334 -0.25829485 0.04819842 0.042811956
000270 7b c9 00 3c 64 36 0f be 7c 84 72 3e 57 e9 8c 3d
       0.007860537 -0.13985592 0.23683351 0.068804435
000280 ad 2a ce 3d c8 3d 22 be 58 4b ed bb 70 b8 7c 3d
       0.100667335 -0.1584388 -0.0072416477 0.06169933
000290 41 14 57 be 4d 4b 49 bc 11 9f 35 bd ce 8f 46 bd
       -0.2100382 -0.0122860195 -0.04434115 -0.048476987
0002a0 15 b2 88 bd a2 39 a5 bd 5a 77 d4 bd a2 90 4c bc
       -0.066745915 -0.08067633 -0.10374327 -0.012485655
0002b0 7a d6 8f 3d 61 eb 42 3e 6d 90 9e bd 80 40 92 bd
       0.0702333 0.19035102 -0.07742391 -0.07141209
0002c0 fb 30 04 be b0 c2 8f 3e 02 bf 8b bd cf eb 42 3d
       -0.1290931 0.28078222 -0.06823541 0.047588166
0002d0 21 6d 0e be b5 da f3 3b 37 69 2b 3c 63 0f 83 3d
       -0.13908817 0.0074418434 0.010462097 0.06399419
0002e0 a2 4b 32 3e 1e 35 3b 3d bb 92 f4 bd 79 3d dd 3d
       0.17411664 0.045704953 -0.11942049 0.108027406
0002f0 e0 16 29 3e 44 40 c4 bd 8e 24 34 3b 97 6b 66 bc
       0.16512632 -0.0958257 0.0027487609 -0.014063737
000300 6b 21 b9 bd 97 f5 fc bc e8 e2 02 bd 43 33 b2 3d
       -0.09039577 -0.030878825 -0.031954676 0.08701184
000310 37 e8 40 bb 6b 21 aa bd cb 66 7b 3c bd 0f e0 3d
       -0.0029435286 -0.08307155 0.015344332 0.10940502
000320 dc 9f c5 3d c3 36 cc 3c 28 eb 95 3d 2e 31 ef bb
       0.096496314 0.024928456 0.07320243 -0.007299564
000330 f7 85 06 bd 33 20 25 bd 48 a5 1a 3e 8c 68 01 3c
       -0.032842603 -0.04031391 0.15102112 0.007898461
000340 cc 89 40 bd 12 ce 87 3d 97 5a b1 bd d7 c0 f5 3d
       -0.047006413 0.06631102 -0.08659857 0.11999672
000350 47 56 25 bd 2d ba ef bc 70 56 5b 3c ca 3d 89 bc
       -0.040365484 -0.02926358 0.0133873075 -0.016753096
000360 89 e6 e3 3b 42 f2 a5 3c f9 ca 47 3d fd cb b8 3c
       0.006954972 0.02025712 0.048777554 0.022558207
000370 99 be 84 3d fe 42 89 bc e4 6c d5 3d a5 8f eb bc
       0.06481666 -0.016755577 0.1042116 -0.028755018
000380 af 10 01 3e 85 54 72 3d 32 e9 e8 3d f1 92 e3 3c
       0.1260402 0.059162635 0.113726035 0.027780028
000390 df 69 ba 3d 76 f0 f2 3c 34 e8 8b 3c d8 11 61 3e
       0.091022246 0.029655676 0.017078497 0.21979463
0003a0 4d a3 33 3e f6 cf 29 3d 36 d9 19 3c d9 b6 50 bd
       0.17542763 0.041458093 0.009390166 -0.050955627
0003b0 f1 62 39 ba 18 71 f7 bc ff e9 25 3d a6 81 a2 3c
       -0.00070719334 -0.030205294 0.04050636 0.019837212
0003c0 3d fa 63 3e d4 22 ac 3d 66 31 e2 bd 90 1a ac 3d
       0.22263427 0.084050804 -0.11044578 0.08403504
0003d0 da ff 86 3d 49 22 09 3d 5d 2b 4e bd 19 ed 9f 3d
       0.065917686 0.033479962 -0.050334323 0.07808895
0003e0 8f 49 c8 bd 5d 28 2f 3e 6c bc 58 bd bd a3 d0 3b
       -0.09779655 0.17105241 -0.052914068 0.0063671754
0003f0 fb 8e 4f ba d7 82 8b bd 65 30 e4 bd 82 fc a4 bd
       -0.0007917729 -0.06812065 -0.11142043 -0.080559745
