Maize-Runner/results/MazeRunner/EscapeMaze/EscapeMaze-9063160.onnx (onnx, 171663 bytes, 9 tensors)

action_model._continuous_distribution.log_sigma f4 [1, 2]
0	0xbf2d90d4	-0.67799115
1	0xbefd597d	-0.49482337

action_model._continuous_distribution.mu.bias f4 [2]
0	0x3db8bf54	0.09020868
1	0xb85d57b1	-5.2772175e-05

action_model._continuous_distribution.mu.weight f4 [2, 128]
0	0x3ce200db	0.027588299
1	0xbb8a201c	-0.0042152535
2	0x3b57192f	0.0032821407
3	0xbb368de0	-0.002785556
4	0x3c9ed9cc	0.019390963
5	0x3c37eabf	0.011225401
6	0xbad86cc4	-0.0016511907
7	0x3c8690cb	0.016426465
8	0x3d798430	0.06091708
9	0x3a6cad0d	0.0009028472
10	0xb92e5192	-0.0001662432
11	0x3cf67bbe	0.030088302
12	0xbd88a2d7	-0.06671684
13	0xbda6bae2	-0.08141114
14	0x3cb52377	0.022111638
15	0x3ac21124	0.0014806134
16	0x3d4bee91	0.04978806
17	0xbce38d0f	-0.027777223
18	0x3bc157f2	0.0059003765
19	0xbcfd890c	-0.030949138
20	0xbd4d95fd	-0.050191868
21	0xb96e8fab	-0.00022750969
22	0x3c324783	0.010881308
23	0x3d24583c	0.04012321
24	0xbac3bc79	-0.0014933489
25	0x3b4592e1	0.003014736
26	0xbca18555	-0.019716898
27	0x3d1ed2f8	0.038775414
28	0xbae65865	-0.0017573951
29	0xbb84e5c9	-0.004055713
30	0xba3c0074	-0.00071716984
31	0x3aa6c03e	0.0012722088
32	0x3dbfe3c0	0.09369612
33	0x3d0fc58e	0.035100512
34	0xbd1d7e1b	-0.03845034
35	0xbba8a2cf	-0.0051463614
36	0xbba3113f	-0.004976421
37	0xb95d7390	-0.00021119253
38	0xbcce36a2	-0.025172535
39	0x3bf90266	0.007599163
40	0x3ccaa4a6	0.024736714
41	0x3a5b3af8	0.0008362974
42	0xbcd98db2	-0.026556823
43	0x3b232283	0.0024892397
44	0x3b12e4d8	0.0022414234
45	0x3ddd6a16	0.1081125
46	0x3d50defe	0.050993912
47	0xbda38d46	-0.0798593
48	0xba1d678f	-0.0006004506
49	0x3ca861b9	0.02055441
50	0x3d859573	0.06522646
51	0x3c40868c	0.0117508285
52	0x3cef89ed	0.029240573
53	0xbd3bb1ac	-0.045823738
54	0xbb053221	-0.0020324069
55	0xbbb756d1	-0.005595066
56	0x3c31b542	0.010846438
57	0xbd576c15	-0.05259331
58	0x3abefa55	0.0014570454
59	0x3d6aed73	0.057355355
60	0x3b100e6b	0.002198125
61	0x3beab500	0.00716269
62	0xbad32eba	-0.0016111948
63	0x3b804d9c	0.0039155018
64	0xbab8e0bc	-0.0014105062
65	0xbdb0c660	-0.08631587
66	0x3bc2046c	0.0059209373
67	0x3c2275ed	0.009915811
68	0xbb5bd462	-0.0033543338
69	0x3a19a53d	0.0005861109
70	0x3badcb2e	0.005303762
71	0xbbd124fc	-0.0063825827
72	0x3d67bdab	0.056577366
73	0xbaa0811e	-0.0012245511
74	0x3ae89c05	0.0017746693
75	0xbc1797aa	-0.009252468
76	0x3916b7fb	0.00014373653
77	0xbde8ec0b	-0.113731466
78	0x3d7af2f5	0.061266858
79	0x39ad59a7	0.00033063928
80	0x3bcce06b	0.0062523386
81	0xbcc6580f	-0.024211911
82	0x3b68c5ea	0.0035518357
83	0x3c47543b	0.012166078
84	0x3d236130	0.039887607
85	0x3c81bd17	0.015837235
86	0x3b4d1b4f	0.0031296795
87	0xb808bea1	-3.2602464e-05
88	0x3be566ec	0.0070007946
89	0x3a391984	0.0007060992
90	0x3a7d46e5	0.0009661748
91	0x3b331562	0.0027325978
92	0xbd43b9d3	-0.047784638
93	0x3c21c936	0.009874633
94	0xbc0254ae	-0.0079547595
95	0xbb0572c9	-0.0020362607
96	0xbb34ef60	-0.00276085
97	0xbda2c10d	-0.07946978
98	0x3b005387	0.0019581036
99	0xba7d1c03	-0.0009655358
100	0x3cd4fa1e	0.025998171
101	0xbb2653e2	-0.0025379588
102	0x3a1651d3	0.00057342387
103	0x3db0dbb3	0.08635654
104	0xbc446456	-0.011986813
105	0x3ccf291b	0.025288155
106	0xbb092456	-0.00209262
107	0x3a4473db	0.00074940705
108	0xbc05740c	-0.0081453435
109	0x388ae4e1	6.622985e-05
110	0xbb4f25b6	-0.003160817
111	0xb9c02f88	-0.00036656507
112	0xbaf43086	-0.0018630184
113	0xbc857cd3	-0.016294872
114	0xbc60ab4f	-0.013712718
115	0x3b7a0bff	0.0038154123
116	0xbd5d07fe	-0.0539627
117	0x3b5f5754	0.0034079151
118	0xb9d52107	-0.00040651133
119	0xbaaa260e	-0.0012981312
120	0xbaf6545d	-0.0018793453
121	0x3c2a5d7a	0.010398263
122	0xbb449806	-0.002999784
123	0xb89ab15b	-7.376327e-05
124	0xba190fe3	-0.0005838854
125	0xbccb0824	-0.024784155
126	0xbd2baace	-0.04191094
127	0xbb0fdb42	-0.0021950756
128	0xbd4bd63b	-0.049764853
129	0x3b2998d2	0.0025878442
130	0xbc44c7d8	-0.012010537
131	0x3c5784cf	0.013154223
132	0xbc6b07b6	-0.0143451
133	0x3c5efbfb	0.0136098815
134	0x39c5cee6	0.0003772892
135	0x3db3ab83	0.08772948
136	0x3da8e721	0.08247209
137	0x3bce06eb	0.006287446
138	0x3b32b259	0.0027266948
139	0x3cb60d11	0.022223027
140	0xbd28aaa0	-0.041178346
141	0x3cdf58c7	0.027264012
142	0x3c5cc5ce	0.013474895
143	0xb906e9fc	-0.00012866402
144	0x3d5291bd	0.051408518
145	0x3d726ff7	0.05918881
146	0x3ca5480f	0.020175962
147	0xbd96760b	-0.07346734
148	0x3d1ffbc4	0.03905846
149	0x3c80adc4	0.015707858
150	0x3cfc0651	0.03076473
151	0x3c751652	0.014958935
152	0x3b5f5ac1	0.0034081193
153	0xbd47f75f	-0.048819896
154	0xbc8b7308	-0.017022625
155	0x3d03bddb	0.032163482
156	0xba558e03	-0.00081464666
157	0xbb594ae6	-0.0033156215
158	0xbd31ebfd	-0.043437947
159	0x3b994921	0.004677907
160	0x3c2f05c8	0.010682531
161	0xbd169969	-0.036767397
162	0xbc7e74dc	-0.015530791
163	0x3c399ee5	0.011329387
164	0x3b28ef83	0.0025777526
165	0xbd17e361	-0.03708208
166	0xbd36e47e	-0.0446515
167	0xb6aba6b5	-5.1156044e-06
168	0x3bf02ee6	0.0073298095
169	0x39120315	0.00013924793
170	0x3c8bd623	0.017069882
171	0xbb1bdd10	-0.0023782887
172	0xbbdb6c64	-0.006696271
173	0xbd9e857f	-0.07740306
174	0xbdbff8c7	-0.093736224
175	0xbd91879c	-0.071059436
176	0x3b0b4efd	0.0021256797
177	0xbbeb7625	-0.007185715
178	0xbd7526e1	-0.05985153
179	0xbd22bed9	-0.039732788
180	0xbd1da66b	-0.038488787
181	0x3d23e168	0.040009886
182	0x3bf22257	0.0073893475
183	0xba23aa4c	-0.0006243333
184	0xbcc286e8	-0.023745969
185	0xbd79283a	-0.06082938
186	0xb9e642f9	-0.00043918917
187	0x3d210753	0.039313626
188	0xba8e3282	-0.0010848793
189	0xbc29ca69	-0.0103632
190	0x3b0b5ca4	0.0021264935
191	0xbb3bf70c	-0.0028681187
192	0xbb4d7c54	-0.0031354623
193	0x3d9811c0	0.074252605
194	0x3d5f44b1	0.05450887
195	0xbd043e56	-0.03228601
196	0xbca598a0	-0.020214379
197	0x38933dfa	7.02105e-05
198	0xbd50f3a7	-0.051013615
199	0x3c5cdfe8	0.013481118
200	0xbdddc270	-0.10828102
201	0xbb99929a	-0.0046866657
202	0xbb78b89d	-0.0037951835
203	0x3af0111f	0.0018315649
204	0xbae01774	-0.0017096833
205	0xbc993968	-0.018704131
206	0xbb738088	-0.0037155468
207	0x3ac4c5be	0.0015012545
208	0xbb46a9a1	-0.003031351
209	0xbcf6dbe4	-0.030134149
210	0x3ad85946	0.0016506098
211	0xbcec8003	-0.028869634
212	0x3ce7700e	0.028251674
213	0xbcdb3318	-0.026757762
214	0xbb6983f0	-0.003563162
215	0xbb84fb7a	-0.0040582987
216	0xbcac209c	-0.021011643
217	0x39d8a52a	0.00041321787
218	0x398fb324	0.00027408556
219	0x3afec121	0.0019436219
220	0xbdf01e1b	-0.11724492
221	0xbb9ce240	-0.0047877133
222	0xbd3c6481	-0.045994285
223	0xbd7454e5	-0.059651274
224	0x3c664b1a	0.014055992
225	0x3dcf6cb8	0.10128158
226	0x3aa1e771	0.00123523
227	0x3c28e8d0	0.010309413
228	0xbb2f3ea6	-0.0026740222
229	0xbb563017	-0.0032682472
230	0x3b73bee8	0.0037192646
231	0xbccff3f1	-0.025384875
232	0x3c940855	0.01807038
233	0xbc2faded	-0.0107226195
234	0x397cd5bc	0.00024112215
235	0xbc09f9e4	-0.008421395
236	0x3c3860b6	0.011253526
237	0x3b0d9c4c	0.0021608053
238	0xbbd0fc86	-0.0063777594
239	0xbc58107e	-0.013187526
240	0x3c070c4e	0.00824268
241	0xbcec2008	-0.028823867
242	0x3d9b8415	0.07593552
243	0xbacd2b93	-0.0015653245
244	0xbc1a7c04	-0.009428982
245	0xb9fd113a	-0.00048268755
246	0x3ac4f3a8	0.0015026229
247	0x3bf89240	0.0075857937
248	0x3abcdd9e	0.0014409309
249	0xbaeba979	-0.0017979584
250	0x3bae5a5c	0.0053208303
251	0xbb9f413a	-0.0048600705
252	0x3b2798c3	0.002557323
253	0x3cc1d662	0.023661796
254	0x3d23da0a	0.04000286
255	0x3bda40b7	0.0066605466

network_body._body_endoder.seq_layers.0.bias f4 [128]
0	0xbdb71785	-0.08940033
1	0x3cde2b58	0.027120277
2	0xbd1ea448	-0.03873089
3	0x3dbbc54b	0.0916849
4	0xbca58117	-0.020203156
5	0xbcb78948	-0.022404328
6	0xbcc79eac	-0.024367653
7	0xbcdbab7a	-0.026815165
8	0x3d2a0ea4	0.04151787
9	0xbcbd1d75	-0.023085335
10	0x3c3c5886	0.011495715
11	0xbddfc987	-0.1092711
12	0x3b442e58	0.002993485
13	0x3dc2a44c	0.095039934
14	0xbd47efe6	-0.04881277
15	0x3ccc41aa	0.024933655
16	0xbcc7d483	-0.024393326
17	0xbdc4fa57	-0.09618061
18	0x3d04f7df	0.03246295
19	0xbd0c346e	-0.03422969
20	0xbd904ac3	-0.0704551
21	0xbde0ed89	-0.10982806
22	0x3d549d5d	0.051907886
23	0x3af0eb5d	0.0018380691
24	0xbcd9b713	-0.026576554
25	0xbdebc967	-0.11513024
26	0x3d2f2c9e	0.04276716
27	0xbd9fb963	-0.077990316
28	0xbd958c67	-0.0730217
29	0xbcbdb898	-0.02315931
30	0x3ce880a3	0.028381651
31	0xbd22e4e9	-0.039769087
32	0x3cf0fa20	0.029416144
33	0xbd81bf03	-0.06335261
34	0xbd70928f	-0.05873352
35	0x3d0c3645	0.034231443
36	0x3cb4ef0b	0.02208664
37	0xbcd0d8ad	-0.025493944
38	0xbde0f123	-0.10983493
39	0x3d2f47ab	0.042792957
40	0x3d829996	0.063769504
41	0x3b8be1f2	0.004268878
42	0xbd86f4c5	-0.06589655
43	0xbc2d80be	-0.010589777
44	0xbb51b39d	-0.0031997927
45	0x3beb9a8c	0.0071900543
46	0xbc56a67f	-0.013101219
47	0x3c9b1bfa	0.018934239
48	0x3d2e46e2	0.042548068
49	0xbb7ec040	-0.0038871914
50	0x3d31a81c	0.043373212
51	0xbd2591d5	-0.04042228
52	0xbe17b5e7	-0.14815484
53	0x3ba8c0db	0.0051499433
54	0xba642916	-0.0008703632
55	0xbd919c1d	-0.07109854
56	0x3d687e27	0.056760933
57	0x3ce27f32	0.027648542
58	0xbdffd034	-0.124908835
59	0xbbdfd957	-0.006831329
60	0xbd0b2ed6	-0.033980213
61	0xbd53abae	-0.0516774
62	0xbcef4313	-0.029206788
63	0x3d13ed67	0.036115076
64	0xbc81abf6	-0.015829068
65	0x3d4a981c	0.04946147
66	0xbdfc3d43	-0.12316372
67	0xbdd5abc1	-0.1043315
68	0xbd9f40f4	-0.07776061
69	0xbdcefef9	-0.10107226
70	0x3d0f3978	0.034966916
71	0xbdadf486	-0.08493905
72	0xbdf0d1bd	-0.117587544
73	0xbd88687e	-0.06660555
74	0xbd4cf9c3	-0.05004288
75	0xbcc651ed	-0.024208987
76	0xbcb97a5c	-0.022641353
77	0x3da44ffb	0.080230676
78	0xbd4631d9	-0.048387382
79	0x3d6a5468	0.057209402
80	0xbd44d2e7	-0.048052695
81	0xbcff9f6f	-0.031203954
82	0xbc112fe4	-0.008861516
83	0xbcaa9d1e	-0.020826872
84	0x3c62959e	0.013829617
85	0xbe06f96c	-0.13181084
86	0xbd335811	-0.04378516
87	0x3abee136	0.0014562968
88	0xbddc9e9f	-0.10772442
89	0x3aa4ff6a	0.0012588326
90	0x3d2e1417	0.042499628
91	0xbb73bc6a	-0.003719116
92	0xbd87a68c	-0.06623563
93	0x3cd08aae	0.025456753
94	0xbd8edab2	-0.069753066
95	0xbda20fe3	-0.079131864
96	0x3c82d64f	0.01597133
97	0xbda8c61d	-0.08240912
98	0x3ac22e16	0.001481476
99	0xbcdb0e57	-0.026740236
100	0xbd7ef242	-0.062242754
101	0xbd38047f	-0.044926163
102	0xbd7218ae	-0.059105568
103	0xbda63072	-0.08114709
104	0xbc8813d6	-0.016611021
105	0x3d82c125	0.06384496
106	0xbb7997dc	-0.00380849
107	0x3d806c48	0.06270653
108	0x3c92be5b	0.017913034
109	0xbdf749b6	-0.12074606
110	0x3d03fcc8	0.032223493
111	0x3d929b37	0.07158511
112	0x3c643967	0.013929701
113	0xbd32913f	-0.04359555
114	0xbd5fdb34	-0.054652408
115	0x3da81349	0.08206803
116	0x3df8a2ba	0.12140413
117	0x3d639868	0.055565268
118	0xbda72890	-0.081620336
119	0xbddd8819	-0.10816974
120	0x3dbe5f8d	0.092955686
121	0x3d962d76	0.0733289
122	0xbc34e58f	-0.011041059
123	0xbd869d6a	-0.06572993
124	0xbd8045d5	-0.062633194
125	0xbb1f3eed	-0.0024298981
126	0xbda0f98b	-0.078600965
127	0x3d5595e4	0.0521449

network_body._body_endoder.seq_layers.0.weight f4 [128, 70]
0	0x3da51d2b	0.08062204
1	0xbde940b4	-0.11389294
2	0xbc481643	-0.012212339
3	0x3e242d00	0.16032791
4	0x3d5e0147	0.054200437
5	0x3dc1b4a3	0.09458282
6	0xbe05cd59	-0.13066615
7	0x3e1bcdb6	0.15215191
8	0xbdfce62b	-0.123485886
9	0x3ea9168e	0.3302502
10	0xbd6f3170	-0.058396757
11	0xbe1bd213	-0.15216856
12	0x3dd7162c	0.10502276
13	0x3d268cf0	0.040661752
14	0xbb18346d	-0.0023224608
15	0x3e9aff9b	0.30273136
16	0xbe283044	-0.16424662
17	0x3db1eb78	0.0868749
18	0xbe814d44	-0.25254261
19	0x3eb5d6f2	0.35515553
20	0xbeb52946	-0.35383052
21	0xbd8560c3	-0.065125965
22	0x3cb461d1	0.022019299
23	0xbded8945	-0.11598448
24	0xbdc7f739	-0.09763951
25	0xbd3e3ce9	-0.046444807
26	0xbe9c2f89	-0.30505016
27	0xbc969e60	-0.018386066
28	0x3cee34ba	0.029077876
29	0x3ef8a5f2	0.48564106
30	0xbef51a4f	-0.47871634
31	0x3e08f0cc	0.13373107
32	0x3c8389f0	0.016056985
33	0xbe259a77	-0.16172205
34	0xbeaa5b40	-0.33272743
35	0x3db21708	0.08695799
36	0xbe71a1e1	-0.23596908
37	0x3dccfd0a	0.10009201
38	0xbe6240bd	-0.22095008
39	0x3da4ceac	0.08047232
40	0xbe6c658a	-0.23085609
41	0xbe304aec	-0.1721608
42	0xbcdbee26	-0.026846956
43	0x3d44baa3	0.048029553
44	0xbe860795	-0.2617766
45	0x3bdf9369	0.0068229926
46	0xbe1e7155	-0.1547292
47	0xbe8bc0ac	-0.27295434
48	0x3dc17a2a	0.09447129
49	0x3d00b728	0.03142467
50	0xbecfa62a	-0.4055646
51	0x3ce3e428	0.027818754
52	0xbd8db5f2	-0.06919469
53	0xb9ffc35d	-0.00048782947
54	0xbedea8f6	-0.43488282
55	0x3cf8f7f6	0.030391674
56	0xbeb8cd25	-0.36094013
57	0xbd9b87e6	-0.0759428
58	0x3e43d187	0.19122897
59	0xbdb1cd65	-0.08681754
60	0xbe8f2733	-0.27959594
61	0xbe32ac54	-0.1744855
62	0x3d01f88e	0.03173118
63	0x3ec03ee2	0.37547976
64	0xbe308584	-0.17238432
65	0x3e84f269	0.25966194
66	0xbe56757e	-0.20943257
67	0xbe05d967	-0.13071214
68	0xbee078c4	-0.43842137
69	0x3e38a358	0.1803106
70	0x3d97eab3	0.07417812
71	0x3ea43bd8	0.32076907
72	0x3e1a3930	0.15060878
73	0xbdee6853	-0.11640992
74	0xbe1d39f5	-0.1535414
75	0xbda6410c	-0.081178755
76	0x3e86a053	0.26294193
77	0x3e472061	0.19445945
78	0xbdc6b054	-0.09701601
79	0x3dbb58ef	0.09147822
80	0xbdd05016	-0.10171525
81	0xbc0e2c0d	-0.008677495
82	0xbe4bc1dc	-0.1989817
83	0x3e259d0f	0.16173194
84	0x3d731701	0.05934811
85	0xbd1ed737	-0.038779464
86	0x3de9dc9c	0.11419031
87	0xbd135064	-0.03596534
88	0xbdb8288c	-0.08992109
89	0xbe19abd7	-0.15006958
90	0x3d4b56d7	0.049643364
91	0xbddb8d44	-0.10720304
92	0xbd6ae95a	-0.057351448
93	0x3e7a52d4	0.24445659
94	0x3d231492	0.03981454
95	0x3e9cfa45	0.3065969
96	0x3d982712	0.07429327
97	0x3a0d6697	0.000539401
98	0xbe859c57	-0.2609584
99	0x3db9640f	0.09052288
100	0xbc873008	-0.016502395
101	0x3c507f2b	0.012725632
102	0xbe3ffae4	-0.18748051
103	0xbe372f30	-0.17889094
104	0xbda7a20c	-0.08185205
105	0x3e621284	0.22077376
106	0xbec180fe	-0.37793726
107	0x3d94fef0	0.07275188
108	0x3e5f465a	0.2180418
109	0xbcc554b9	-0.02408825
110	0xbe8eb717	-0.2787406
111	0xbe6477ee	-0.22311375
112	0x3d8f502c	0.069977134
113	0x3bcd5116	0.0062657697
114	0xbe61c4d3	-0.22047739
115	0xbe3d17a4	-0.1846605
116	0x3e02259b	0.12709658
117	0x3d825be0	0.0636518
118	0x3d83ce1f	0.06435799
119	0x3d8cdc50	0.06877959
120	0xbe4a9266	-0.19782409
121	0x3e39450b	0.18092744
122	0x3caae1ac	0.020859562
123	0xbdda672f	-0.10664212
124	0xbd42090f	-0.04737192
125	0xbe5cb0f7	-0.21551882
126	0x3d30c479	0.04315612
127	0xbc9a3673	-0.018824792
128	0xbc448ea0	-0.011996895
129	0xbe9099d3	-0.2824236
130	0xbd5b1bb2	-0.05349321
131	0x3e176d8c	0.14787883
132	0xbe2fe890	-0.1717856
133	0xbcfa7ba9	-0.030576544
134	0xbeb86478	-0.36014152
135	0xbd280755	-0.041022617
136	0x3e26b406	0.16279611
137	0xbdfd2cb2	-0.123620406
138	0x3ec85c5a	0.3913296
139	0x3e79e0bd	0.24402137
140	0x3e8a9e20	0.27073765
141	0xbd4e242a	-0.050327457
142	0x3bff9804	0.007800104
143	0xbcd24090	-0.025665551
144	0xbdf70b91	-0.12062753
145	0x3ec57b31	0.3857055
146	0x3e2decf5	0.16984923
147	0xbd569383	-0.052386772
148	0xbdfbab2e	-0.12288509
149	0x3e8d3768	0.27581334
150	0xbd93c06e	-0.072144374
151	0xbd7e9ad8	-0.06215939
152	0xbd39f14e	-0.04539614
153	0xbddef3b7	-0.10886329
154	0xbd565fc3	-0.05233742
155	0x3eb602d0	0.3554902
156	0xbd9825ba	-0.07429071
157	0x3d702845	0.058632154
158	0xbeb85e2e	-0.36009353
159	0x3ec7d923	0.3903285
160	0xbedd1a42	-0.43184096
161	0xbdb3894e	-0.08766423
162	0x3bb4da5f	0.005519196
163	0x3dc753cf	0.09732782
164	0xbe114345	-0.14185818
165	0xbd84f6dd	-0.06492398
166	0x3da344cd	0.07972107
167	0xbddc6779	-0.10761923
168	0xbdd58ffd	-0.10427854
169	0xbdbff9d9	-0.093738265
170	0xbe8eb275	-0.27870527
171	0x3e5bddb9	0.21471299
172	0x3dd308a1	0.1030438
173	0xbe426b13	-0.18986158
174	0xbe92ca9b	-0.286702
175	0x3dc52d32	0.09627761
176	0xbd71c67a	-0.059027173
177	0x3d2eb80f	0.042656
178	0xbdc58f7d	-0.09646509
179	0xbc0bee9c	-0.008540776
180	0xbec0ae7a	-0.37633115
181	0xbcb3ba78	-0.021939501
182	0xbade8068	-0.0016975524
183	0x3ed43f8c	0.41454732
184	0xbe438a90	-0.19095826
185	0xbee13673	-0.43986854
186	0xbbca248f	-0.006168909
187	0xbe39a645	-0.18129833
188	0xbdd7f664	-0.10545042
189	0xbe900036	-0.2812516
190	0xbf44c07d	-0.76856214
191	0x3d2b9ca3	0.041897427
192	0xbde23c19	-0.11046619
193	0x3e6b78f0	0.22995353
194	0xbdb87ffb	-0.09008785
195	0xbf0dd4da	-0.5540291
196	0x3e4401cb	0.19141309
197	0xbe8122c9	-0.2522185
198	0xbe95df91	-0.2927213
199	0xbe6b54fe	-0.2298164
200	0xbf750419	-0.9570938
201	0x3d91bd6e	0.07116209
202	0xbdac435f	-0.084112875
203	0x3e3bdb1e	0.18345305
204	0xbf0db931	-0.55360705
205	0x3e0443f5	0.12916549
206	0x3d4f35f2	0.050588556
207	0x3be41ef0	0.006961696
208	0xbeb0aa77	-0.34505054
209	0xbe78e90e	-0.24307653
210	0x3e3cc97f	0.1843624
211	0x3e2bf653	0.16793184
212	0xbe008435	-0.12550433
213	0x3ddff252	0.10934891
214	0x3e0a14eb	0.13484542
215	0xbd1d07d7	-0.038337555
216	0x3d8261d9	0.06366319
217	0x3e48100f	0.19537376
218	0x3c4d0a04	0.012514595
219	0xbcce5af3	-0.025189852
220	0xbdfce1e2	-0.12347771
221	0xbe1c51f1	-0.15265633
222	0x3cd751c5	0.026284108
223	0x3e5d750d	0.21626683
224	0xbc60abb4	-0.013712812
225	0x3e39b543	0.18135552
226	0x3e4aa52c	0.1978957
227	0xbdcb8208	-0.09936911
228	0x3e43f4f6	0.19136414
229	0x3dfc79af	0.12327897
230	0xbf2baca7	-0.6706032
231	0x3e6a3ab2	0.22873953
232	0x3c3e1b9b	0.011603261
233	0x3e9d5dc7	0.3073561
234	0x3e7687d4	0.24075252
235	0xbe474a2e	-0.19461891
236	0x3bcc63b9	0.006237474
237	0x3e070a0b	0.13187425
238	0x3e183a7a	0.14866057
239	0x3ed1aed3	0.40953693
240	0xbef85976	-0.48505753
241	0x3e7bed80	0.24602318
242	0x3d3cf569	0.04613248
243	0x3cd09e77	0.025466187
244	0xbeeb93e3	-0.46011266
245	0x3d5ad763	0.053428065
246	0x3e517dbc	0.2045812
247	0xbe84e8c1	-0.25958827
248	0x3ca39722	0.019969527
249	0x3e0cc3d3	0.13746576
250	0xbf0e87bd	-0.5567587
251	0x3eb60fc4	0.35558903
252	0xbe86b29c	-0.26308143
253	0x3d8fe584	0.070261985
254	0xbdd61cc6	-0.10454707
255	0xbe57d726	-0.21078166

network_body._body_endoder.seq_layers.2.bias f4 [128]
0	0xbc7ef5a7	-0.015561498
1	0xbe6c39d4	-0.23068935
2	0xbdc07003	-0.093963645
3	0xbc5a9cef	-0.01334308
4	0xbd8762a6	-0.066106126
5	0xbd27a1f5	-0.04092594
6	0x3da4661c	0.08027288
7	0xbd21c1f5	-0.039491612
8	0xbd464050	-0.048401177
9	0xbe01740a	-0.12641922
10	0xbe19c22d	-0.15015478
11	0xbdd28b7f	-0.10280513
12	0xbdba0aab	-0.09084066
13	0xbba59d02	-0.005054117
14	0xbd5ecb58	-0.054393142
15	0xbc4fa45b	-0.012673463
16	0xbe0a78d0	-0.13522649
17	0xbe335e8c	-0.17516536
18	0xbda598b9	-0.0808577
19	0xbd8b0a9d	-0.06789134
20	0xbcd1ed86	-0.025625955
21	0xbdc5e39d	-0.096625544
22	0xbdfe8e77	-0.12429517
23	0x3c456f2c	0.012050431
24	0xbdc8fc16	-0.098137066
25	0x3d546738	0.05185625
26	0x3d1d9845	0.038475294
27	0xbd1a5483	-0.037678253
28	0xbce836b6	-0.0283464
29	0xbd420052	-0.047363587
30	0xbe0eef3f	-0.13958453
31	0xbdafca24	-0.08583477
32	0xbe1aba37	-0.15110098
33	0xbd8b239a	-0.067939
34	0xbe0e7f39	-0.13915719
35	0x3d980651	0.0742308
36	0xbb3de702	-0.0028976803
37	0xbda3b0c6	-0.07992701
38	0xbdbad77d	-0.091231324
39	0xbe0d29cd	-0.13785477
40	0xbd87838c	-0.066168875
41	0xbddc9a2a	-0.10771592
42	0xbdcdbe25	-0.10046033
43	0x3d0eb7a1	0.03484309
44	0x3c541563	0.012944552
45	0xbdd9ebee	-0.10640703
46	0xbdff6cec	-0.12471947
47	0x3db3fea4	0.08788803
48	0xbdd60912	-0.10450949
49	0xbd99586f	-0.074875705
50	0x3b9f5252	0.0048621083
51	0xbd33d632	-0.043905444
52	0xbdd0d48d	-0.10196791
53	0xbe0ac3ed	-0.13551302
54	0xbddb2544	-0.10700467
55	0xbe39dbbd	-0.1815023
56	0xbdedea69	-0.11616976
57	0xbdee4c6d	-0.11635671
58	0xbdfda2be	-0.12384556
59	0xbdc5c796	-0.096572086
60	0xbd734b85	-0.059398193
61	0xbe06a017	-0.13147007
62	0xbdc8aedc	-0.09798977
63	0xbe032516	-0.12807116
64	0x3ce3f3b6	0.027826171
65	0xbd60c0d9	-0.054871414
66	0xbd40df9f	-0.04708826
67	0xbb8c5637	-0.0042827385
68	0xbdbd7ccd	-0.092523195
69	0xbde552b9	-0.11197419
70	0xbd5ab9a9	-0.053399716
71	0x3da8cbdc	0.08242008
72	0xbd3e5bdd	-0.046474326
73	0xbe26aeb0	-0.16277575
74	0xbd0fb231	-0.035082046
75	0xbddb0d92	-0.10695948
76	0x3d206b20	0.039164662
77	0xbdddec18	-0.10836047
78	0xbd8b0766	-0.067885205
79	0x3e225147	0.15851317
80	0xbc2aaa73	-0.010416615
81	0xbdeaf16a	-0.11471827
82	0xbd6ef20e	-0.05833631
83	0xbdef9614	-0.11698547
84	0xbe2a6f91	-0.16644122
85	0xbdb7a053	-0.08966126
86	0xbe03683c	-0.12832731
87	0xbc96c4e5	-0.018404434
88	0xbd74af17	-0.05973729
89	0xbdfb2bab	-0.122641884
90	0xbe5084f6	-0.2036322
91	0xbe39ada4	-0.18132645
92	0xbd114892	-0.0354696
93	0xbe036950	-0.12833142
94	0xbe4274e8	-0.18989909
95	0xbcb727e4	-0.022357889
96	0xbddfce1a	-0.10927983
97	0xbe0c7c00	-0.13719177
98	0xbe3e09f1	-0.1855848
99	0xbd4ad397	-0.049518194
100	0xbe5a7045	-0.2133189
101	0xbdb8f912	-0.090318814
102	0x3c308f00	0.010776281
103	0xbd9277ec	-0.071517795
104	0xbe40723a	-0.18793574
105	0xbd8fdd3f	-0.07024621
106	0xbc0f8f91	-0.008762256
107	0xbb703166	-0.0036650538
108	0xbe2d331c	-0.16914028
109	0x3cce3f98	0.025176808
110	0xbd5a7c27	-0.053341057
111	0xbe30a021	-0.17248584
112	0xbd28f334	-0.04124756
113	0xbe250582	-0.16115382
114	0xbdb31e1a	-0.08745976
115	0xbdcd5c72	-0.10027398
116	0xbcf87551	-0.030329378
117	0xbdfcdc07	-0.123466544
118	0x3ba4217d	0.005008875
119	0xbda249c3	-0.07924225
120	0xbe5bf183	-0.21478848
121	0xbdefcb8d	-0.11708746
122	0xbd3ffbb4	-0.046870902
123	0xbe53124b	-0.20612447
124	0xbc8d24ef	-0.017229525
125	0xbc960b37	-0.018315895
126	0xbd66b960	-0.05632913
127	0xbe3eed9c	-0.18645328

network_body._body_endoder.seq_layers.2.weight f4 [128, 128]
0	0x3e2c0e04	0.16802222
1	0x3deb06c1	0.114758976
2	0x3d650ade	0.055918567
3	0xbe80de79	-0.25169733
4	0xbc3546cf	-0.011064245
5	0xbcec099e	-0.02881318
6	0x3e397d82	0.18114284
7	0xbe8d6d63	-0.27622518
8	0xbc27fae0	-0.010252684
9	0x3dad0076	0.084473535
10	0xbe8444a9	-0.25833634
11	0xbda80e97	-0.08205908
12	0xbd398af6	-0.04529854
13	0x3ed8e42a	0.42361575
14	0x3739832f	1.1057403e-05
15	0x3e77b5b8	0.24190414
16	0xbe68c70a	-0.22732177
17	0x3e1fb493	0.15596227
18	0x3ded051b	0.115732394
19	0x3e849634	0.25895846
20	0x3d69ad3c	0.057049975
21	0xbdeb82df	-0.11499571
22	0x3c413ab7	0.011793784
23	0xbf161751	-0.5862933
24	0xbd1817ed	-0.037132192
25	0x3e2aa872	0.1666582
26	0xbea08e4c	-0.31358564
27	0x3ea08cf3	0.31357536
28	0x3db4a58b	0.08820637
29	0xbdcbe89b	-0.09956475
30	0xbdb1949f	-0.08670925
31	0xbe0ab942	-0.13547233
32	0x3cd350f8	0.025795445
33	0x3e208ec1	0.15679456
34	0x3dfe18f4	0.12407103
35	0xbf29d050	-0.66333485
36	0x3dd74200	0.105106354
37	0xbbc1e18b	-0.0059167794
38	0xbdf36e1c	-0.11886236
39	0xbe8f4a55	-0.27986398
40	0x3bc9def5	0.0061606118
41	0xbe3a175c	-0.18172973
42	0x3e2ddc72	0.16978624
43	0x3d8d795b	0.06907912
44	0xbc933002	-0.017967228
45	0xbe1c5fb1	-0.15270878
46	0xbdbb29ba	-0.09138818
47	0xbcc4cf81	-0.024024727
48	0x3e2f964a	0.17147174
49	0x3d0eeeeb	0.03489582
50	0x3d2ed5c1	0.04268432
51	0xbca81b71	-0.020520898
52	0xbd52e6cd	-0.05148964
53	0xba544c49	-0.00080985256
54	0x3b0d711a	0.0021582306
55	0xbd17cee8	-0.037062556
56	0xbda8f173	-0.08249178
57	0x3e92da70	0.2868228
58	0x3df08f0a	0.117460325
59	0xbe2fab38	-0.17155159
60	0xbe850b92	-0.2598539
61	0xbc2431b9	-0.01002162
62	0xbe536632	-0.20644453
63	0x3e994822	0.29937845
64	0xbe4a0969	-0.19730152
65	0xbd303c5a	-0.043026306
66	0xbcbce30b	-0.023057481
67	0x3ddba7e1	0.1072538
68	0x3d81d74d	0.063398935
69	0x3e651555	0.22371419
70	0x3c1bffab	0.009521405
71	0xbd363267	-0.04448166
72	0xbb1e7be4	-0.0024182731
73	0x3e482923	0.19546942
74	0x3e4178e7	0.18893777
75	0x3df69a52	0.12041153
76	0x3e3d4634	0.18483812
77	0x3c6a9072	0.014316665
78	0x3d27fdbc	0.041013464
79	0xbcc34801	-0.023838045
80	0xbc413466	-0.011792278
81	0xbd02868d	-0.0318666
82	0xbc5738f8	-0.013136141
83	0x3bc6a6b3	0.0060623526
84	0xbe3c4a55	-0.1838773
85	0xbdf9bf77	-0.12194722
86	0x3e4911f3	0.19635753
87	0xbe341693	-0.17586736
88	0x3d7b4e93	0.06135423
89	0xbefa78d5	-0.48920313
90	0xbe30f1d3	-0.17279749
91	0x3e2e7a66	0.17038879
92	0xbc068c6c	-0.00821219
93	0x3c9c07f7	0.019046767
94	0xbc941190	-0.01807478
95	0xbea756e0	-0.32683468
96	0xbe82a15e	-0.25513738
97	0xbe2dd62c	-0.16976231
98	0xbc4a30bf	-0.012340724
99	0xbd5fd8a8	-0.05464998
100	0xbe6494a5	-0.22322328
101	0x3cf27ad6	0.029599588
102	0xbbf34c0b	-0.0074248365
103	0xbccc6781	-0.024951698
104	0xbdfdb0f2	-0.12387265
105	0xbe005b78	-0.12534893
106	0xbd9a69f9	-0.07539744
107	0xbddd9285	-0.10818962
108	0xbe2320f5	-0.15930541
109	0x3da52f41	0.080656536
110	0xbf000eb3	-0.5002243
111	0x3ea47e86	0.3212778
112	0xbdf1a595	-0.117991604
113	0xbdc09f8d	-0.09405432
114	0xbe449327	-0.19196759
115	0xbeaef7bf	-0.3417339
116	0x3e8c6a3d	0.27424803
117	0x3e15fb93	0.14646749
118	0x3d9bde08	0.076107085
119	0xbdf3721c	-0.11886999
120	0x3e03fcab	0.12889354
121	0xbdb1a5a7	-0.08674174
122	0xbe1e6d28	-0.15471327
123	0x3c829f62	0.01594514
124	0x3d2b2856	0.041786514
125	0x3d6e8641	0.058233503
126	0xbdc8c384	-0.09802917
127	0x3d23edbb	0.04002164
128	0xbd400fd2	-0.046890087
129	0x3d33f8ef	0.043938573
130	0x3da5ba54	0.0809218
131	0x3ce923f5	0.028459528
132	0x3d9d6e9f	0.07687115
133	0x3eae7fcc	0.34081876
134	0x3dbb003e	0.091309056
135	0xbbcbc228	-0.0062182136
136	0xbe2e09f7	-0.16995989
137	0x3e7df7c0	0.2480154
138	0xbe1dc72d	-0.15408011
139	0x3e513c4b	0.20433156
140	0xbef295f3	-0.47380027
141	0xbe177c18	-0.14793432
142	0x3cd280ba	0.025696147
143	0x3ecab924	0.39594376
144	0xbd0f9635	-0.035055358
145	0xbd195ae9	-0.037440214
146	0xbb0e68d7	-0.002172997
147	0x3dba4a7c	0.09096238
148	0xbd6fc751	-0.058539692
149	0xbde30ef8	-0.110868394
150	0x3ead38b3	0.3383232
151	0xbe1452a5	-0.14484651
152	0x3e928ec2	0.2862454
153	0xbc82ed56	-0.015982311
154	0xbd6a3b5a	-0.05718551
155	0x3a9f7270	0.0012164842
156	0xbd37a2a0	-0.044832826
157	0xbe32a97e	-0.17447469
158	0xbe732b29	-0.23746933
159	0x3dd2f7c9	0.103011675
160	0x3d64fff4	0.05590816
161	0xbe3933fe	-0.1808624
162	0x3e1de37c	0.1541881
163	0xbe8b0a02	-0.27156073
164	0x3e542713	0.2071803
165	0xbd9b44a5	-0.07581452
166	0xbdc1ff2a	-0.09472497
167	0x3e232acd	0.15934296
168	0xbdfc7089	-0.12326152
169	0xbe7d5cdc	-0.24742454
170	0xbd23089a	-0.039803125
171	0xbd8effba	-0.0698237
172	0xbcd0b89c	-0.025478654
173	0xbe16103b	-0.14654629
174	0x3e4e8294	0.20166999
175	0xbe5f7f6d	-0.21825953
176	0xbf0231c1	-0.5085717
177	0x3d502070	0.050812185
178	0x3e0db9e4	0.13840443
179	0xbd86c805	-0.065811194
180	0xbcb51ad7	-0.022107525
181	0x3ca7d970	0.020489424
182	0x3e4e2c5e	0.20134112
183	0x3d16a25d	0.036775935
184	0xbee03979	-0.43793848
185	0xbe5a5e4b	-0.21325032
186	0xbe7d063d	-0.24709411
187	0xbe7e1817	-0.24813877
188	0xbe299aa5	-0.16562898
189	0x3d299cc7	0.04140928
190	0xbe2cb185	-0.16864593
191	0x3e10e136	0.14148411
192	0xbe3ceb85	-0.18449219
193	0x3de697a8	0.11259395
194	0xbde6af21	-0.11263872
195	0xbe255e76	-0.16149315
196	0x3d054996	0.03254088
197	0xbe2338fb	-0.15939705
198	0xbe136790	-0.14394975
199	0xbda882bb	-0.0822806
200	0x3e05bc30	0.13060069
201	0x3e7e6846	0.24844465
202	0xbe35f5b7	-0.17769514
203	0xbd9a9324	-0.07547596
204	0xbd080217	-0.033205118
205	0xbe95be15	-0.29246584
206	0x3dcb6f34	0.0993332
207	0xbd90c15c	-0.070681304
208	0x3dbde711	0.09272588
209	0x3d8cbb32	0.06871642
210	0x3e1faca5	0.15593202
211	0xbe6713f7	-0.2256621
212	0x3d3d9fef	0.046295103
213	0xbc775928	-0.01509694
214	0xbddaceed	-0.10683999
215	0xbe902945	-0.28156486
216	0xbcf15b1b	-0.029462388
217	0xbe674c84	-0.22587782
218	0xbdb06628	-0.08613235
219	0xbd5783d2	-0.052615948
220	0xbcf6fe7c	-0.030150644
221	0xbd863223	-0.065525316
222	0x3e2f21f8	0.17102802
223	0xbe1bbfbd	-0.15209861
224	0x3e65ffc0	0.22460842
225	0xbe07a66a	-0.13247076
226	0x3de1c5ac	0.11024031
227	0x3e2cc8b6	0.1687344
228	0x3e372b51	0.17887618
229	0x3e18ff46	0.14941129
230	0xbce79d29	-0.028273182
231	0xbcf153dc	-0.029458933
232	0x3ec0ed0e	0.37680858
233	0xbd61a78d	-0.05509143
234	0xbe86bd66	-0.26316375
235	0xbdf5b33f	-0.11997079
236	0xbda1c971	-0.0789975
237	0xbe91de34	-0.2848984
238	0x3e2c721f	0.16840409
239	0x3e47707f	0.19476508
240	0x3e9e3b33	0.3090454
241	0xbc59a910	-0.013284937
242	0x3d92d6ec	0.07169899
243	0xbed21018	-0.41027904
244	0x3da4dc24	0.08049801
245	0x3e8de326	0.27712363
246	0xbd95a2f8	-0.073064744
247	0xbd28525c	-0.04109417
248	0x3ed3c62e	0.41362137
249	0xbd279192	-0.04091031
250	0x3d4f572c	0.050620243
251	0xbe6ec0e1	-0.23315765
252	0xbd0d48e3	-0.03449334
253	0x3e92656a	0.28592998
254	0x3e4a21d6	0.1973947
255	0x3dacc9fb	0.08436962

network_body._body_endoder.seq_layers.4.bias f4 [128]
0	0xbda981ef	-0.08276736
1	0xbcac3d0a	-0.0210252
2	0xbe07b8db	-0.1325411
3	0xbe8b750b	-0.27237734
4	0xbdfe07f9	-0.124038644
5	0xbe3b6dff	-0.18303679
6	0xbb4ce667	-0.003126526
7	0xbda06e51	-0.07833541
8	0xbe0044dc	-0.12526268
9	0x3cb2736d	0.021783555
10	0xbd5cc273	-0.05389638
11	0xbcd9bc7c	-0.026579134
12	0xbe2369fb	-0.15958397
13	0xbe947f94	-0.29003584
14	0xbddf529f	-0.109044306
15	0xbd28a4a0	-0.041172624
16	0xbe2922fc	-0.16517252
17	0xbdde9f91	-0.108702786
18	0x3a9e375c	0.0012070942
19	0xbe22473b	-0.15847485
20	0xbe8e56f1	-0.27800706
21	0xbe01768d	-0.1264288
22	0xbdce81c2	-0.10083343
23	0xbd5045a2	-0.050847657
24	0xbdd89806	-0.10575871
25	0xbda8169f	-0.0820744
26	0xbe71263f	-0.23549746
27	0xbe0dec41	-0.13859655
28	0xbcc105f2	-0.023562405
29	0xbdf61e64	-0.12017515
30	0xbbb38c6f	-0.0054793875
31	0xbd624f14	-0.055251196
32	0xbb66f843	-0.003524319
33	0xbd9996bb	-0.07499453
34	0xbe656643	-0.22402291
35	0xbd9d1a8c	-0.07671079
36	0xbd9e8345	-0.077398814
37	0xbd5090d7	-0.05091938
38	0xbe3c409b	-0.1838402
39	0xbdbd8eb2	-0.092557326
40	0xbe3df1c9	-0.18549265
41	0xbc9b03e9	-0.018922763
42	0xbe14dbd2	-0.1453698
43	0xbdb37207	-0.08761983
44	0xbdef6f1c	-0.11691114
45	0x3dccbbd5	0.099967636
46	0x3d171acb	0.036890786
47	0xbdd9516d	-0.10611234
48	0xbded2373	-0.11579027
49	0xbd1e774f	-0.038688
50	0x3d8bd241	0.06827212
51	0xbdb1f073	-0.0868844
52	0xbd621de8	-0.055204302
53	0xbe58c244	-0.21167856
54	0xbd836d28	-0.06417304
55	0xbd9604a0	-0.07325101
56	0xbd45908a	-0.048233546
57	0xbd6aa48c	-0.05728583
58	0x3b1ceab0	0.0023943596
59	0xbc443848	-0.011976309
60	0xbd9b3328	-0.07578117
61	0xbe23750a	-0.15962616
62	0xbd66732b	-0.056262176
63	0xbce71091	-0.028206142
64	0xbccf365e	-0.025294479
65	0xbe42622c	-0.18982762
66	0xbe18234c	-0.14857215
67	0xbde95518	-0.113931835
68	0xbdd3658a	-0.103221014
69	0xbd880192	-0.066409245
70	0xbd676d9f	-0.056501027
71	0xbe9ac685	-0.30229583
72	0xbce03b7a	-0.02737211
73	0xbc3d1cf2	-0.011542546
74	0xbc58289f	-0.013193279
75	0xbd4dce31	-0.050245468
76	0xbd88c4f5	-0.066781916
77	0xbe7c3382	-0.24629024
78	0xbd3948ac	-0.04523532
79	0xbcccfc89	-0.025022762
80	0xbc99004e	-0.018676903
81	0xbd873b4c	-0.06603107
82	0xbc25ea56	-0.010126671
83	0xbda74639	-0.08167691
84	0xbe0c01a7	-0.13672505
85	0xbd157978	-0.036492795
86	0xbd310c6f	-0.04322475
87	0xbd1a51a8	-0.03767553
88	0xbc8047dd	-0.015659267
89	0xbdc48bbf	-0.09596967
90	0xbd07b122	-0.03312791
91	0xbcae3461	-0.02126521
92	0xbda3d3fb	-0.079994164
93	0xbd541b1d	-0.05178367
94	0xbdc7fa2c	-0.097645134
95	0x3cd4b066	0.02596302
96	0xbd85c12a	-0.06530984
97	0xbdef4cb8	-0.11684555
98	0xbd8676aa	-0.06565602
99	0xbcca8e52	-0.024726067
100	0xbddd738a	-0.10813053
101	0xbe315a63	-0.17319636
102	0xbd832a74	-0.06404582
103	0xbd2ff27a	-0.042955853
104	0xbe379a6e	-0.17930004
105	0xbdc29815	-0.095016636
106	0xbcf6949d	-0.030100161
107	0xbe214bd5	-0.15751584
108	0xbcaf7013	-0.021415746
109	0xbde3d3a1	-0.111243494
110	0xbd99a91f	-0.075029604
111	0xbcdfbc58	-0.027311489
112	0xbd2cda35	-0.042200286
113	0xbe11ff43	-0.14257531
114	0xbe235cff	-0.15953444
115	0xbd7ffbb5	-0.062495906
116	0xbe4f3b4a	-0.2023746
117	0xbcc93cba	-0.02456509
118	0xbdb09cf4	-0.086236864
119	0xbd767fa9	-0.06018034
120	0xbd558915	-0.052132685
121	0xbde4340f	-0.11142742
122	0xbd15cd12	-0.036572523
123	0xbda76aaf	-0.08174645
124	0xbd72fcd0	-0.059323132
125	0xbe38362c	-0.17989415
126	0xbe4fbf74	-0.20287877
127	0xbd65f633	-0.056142997

network_body._body_endoder.seq_layers.4.weight f4 [128, 128]
0	0xbe45a9b1	-0.19303013
1	0x3e056b1f	0.13029145
2	0x3d569f42	0.052397974
3	0xbd7cae5a	-0.061689712
4	0x3c24291c	0.010019567
5	0xbeb13fb0	-0.34618902
6	0x3ea58b1b	0.32332692
7	0xbe2279f0	-0.15866828
8	0x3d92b10e	0.07162677
9	0xbe3fc972	-0.18729189
10	0xbd9c0684	-0.0761843
11	0x3db5f23c	0.08884093
12	0xbe36231f	-0.17786835
13	0xbb1b5031	-0.002369892
14	0xbeb972e2	-0.3622046
15	0xbe0f50e3	-0.139957
16	0xbe716a6c	-0.23575753
17	0x3d87d8b6	0.06633131
18	0x3e5b49a8	0.21414816
19	0x3d9b148c	0.075722784
20	0xbe446395	-0.19178613
21	0x3d401830	0.046898067
22	0x3d85e903	0.06538584
23	0x3d6940cb	0.056946557
24	0x3d15c7fe	0.03656768
25	0xbe91ae00	-0.28453064
26	0x3e2bae87	0.16765796
27	0x3ddd5e11	0.10808957
28	0x3d511f99	0.051055524
29	0xbe652e35	-0.22380908
30	0x3d6e5e97	0.058195677
31	0xbd4633c9	-0.04838923
32	0xbe5957bd	-0.21224876
33	0x39990bc7	0.0002919121
34	0x3c367390	0.011135951
35	0xbe3e3555	-0.18575032
36	0xbc7e57a4	-0.015523825
37	0xbd8e7928	-0.069567025
38	0x3e4107e4	0.18850666
39	0x3bf92192	0.007602879
40	0xbdd8ea8e	-0.10591613
41	0x3e8e0e60	0.27745342
42	0xbd858a65	-0.06520537
43	0xbdcd0b78	-0.10011953
44	0x3d775881	0.06038714
45	0xbe22b0a9	-0.15887703
46	0x3caee8b3	0.021351194
47	0xbeb62166	-0.35572356
48	0xbea3901a	-0.31945878
49	0xbcd19edf	-0.025588451
50	0x3cd7a0cc	0.026321791
51	0x3e67a486	0.22621354
52	0xbda8c2bb	-0.08240267
53	0x3c9291a1	0.017891707
54	0xbdafa189	-0.08575732
55	0xbd6ffad0	-0.058588803
56	0xbe2bf509	-0.16792692
57	0xbc313d23	-0.010817799
58	0xbe839c11	-0.25705007
59	0x3d27ccc2	0.040966757
60	0x3e960304	0.29299176
61	0x3bd8426c	0.006599715
62	0x3c8cd988	0.01719357
63	0xbe14edae	-0.14543793
64	0x3e43ad21	0.19109012
65	0xbd342a55	-0.043985683
66	0xbdb37a73	-0.0876359
67	0xbe47e522	-0.19521001
68	0x3d56a21e	0.0524007
69	0xbd8be3d9	-0.06830568
70	0xbde41b1c	-0.11137983
71	0x3e91ce0d	0.28477517
72	0xbdb5a790	-0.08869851
73	0x3d759048	0.05995205
74	0x3d39c08b	0.04534964
75	0xbde13e76	-0.109982416
76	0x3e3fa561	0.18715431
77	0xbe0e01fa	-0.13867941
78	0x3d011cdc	0.031521663
79	0xbe0381cf	-0.12842487
80	0x3d2aad81	0.041669372
81	0x3e1f60b1	0.15564229
82	0xbc4851e5	-0.012226556
83	0x3e117ec2	0.1420851
84	0x3dcc4d5f	0.09975695
85	0x3de1e9a1	0.11030889
86	0x3df7930e	0.12088595
87	0x3d4de9b3	0.0502717
88	0x3e1db3b9	0.1540059
89	0x3d21d9b0	0.039514244
90	0xbdcfb31c	-0.10141584
91	0x3d820ab2	0.06349696
92	0x3c9fe543	0.0195185
93	0xbdb3cba2	-0.08779074
94	0x3e2cc351	0.16871382
95	0xbdfcc785	-0.12342743
96	0xbe0f44c6	-0.13991079
97	0xbe45d12e	-0.19318077
98	0x3e3550e8	0.17706645
99	0xbd58d53b	-0.052937727
100	0xbde72bdd	-0.11287663
101	0x3e2d5035	0.16925128
102	0xbed06d75	-0.4070851
103	0x3dc16eb8	0.09444946
104	0xbdbc6eb7	-0.09200805
105	0x3e30f194	0.17279655
106	0x3d5c7005	0.053817768
107	0x3c99f127	0.018791748
108	0x3d9b709d	0.07589839
109	0x3cbeb5be	0.02328002
110	0xbcd06d7b	-0.02544283
111	0xbe160c28	-0.14653075
112	0x3e23a80e	0.15982077
113	0xbd9b8a59	-0.07594747
114	0xbdc8634d	-0.09784565
115	0xbd89a886	-0.067215964
116	0xbe846c9d	-0.25864115
117	0xbdaab6c4	-0.08335641
118	0xbd99d365	-0.075110234
119	0xbd90c6b3	-0.07069149
120	0x3bdb7606	0.006697419
121	0x3e95f163	0.29285726
122	0xbe19a09f	-0.15002678
123	0xbe13a02b	-0.14416568
124	0xbda1251d	-0.07868407
125	0xbe11a224	-0.14222008
126	0xbd0f23b9	-0.034946177
127	0xbbdb3456	-0.0066895885
128	0x3ce1e41c	0.027574591
129	0x3ddb2167	0.1069973
130	0xbd409ffb	-0.04702757
131	0xbdab5c89	-0.08367259
132	0xbb8abb93	-0.0042337864
133	0x3d8dd33d	0.06925056
134	0x3c3743c1	0.011185587
135	0x3d37ab77	0.044841256
136	0x3e4cd104	0.20001608
137	0xbdb07f0f	-0.086179845
138	0xbca18c4c	-0.01972022
139	0xbe12d1ff	-0.1433792
140	0x3cf1959d	0.029490286
141	0xbd9d1cf4	-0.07671538
142	0xbc4f3965	-0.012647961
143	0x3cee3eeb	0.029082736
144	0xbb288541	-0.002571419
145	0x3d20fdba	0.039304473
146	0xbd0a793f	-0.033807036
147	0xbd7e4d40	-0.06208539
148	0x3d04bd5c	0.03240715
149	0x3bf8cd54	0.0075928364
150	0x3d98ee1a	0.07467289
151	0xbce046a0	-0.027377427
152	0xbd0987de	-0.03357684
153	0xbd787927	-0.060662415
154	0x3d5c727a	0.05382011
155	0x3d58815f	0.052857753
156	0xbd9bec99	-0.07613487
157	0xbd91b825	-0.07115201
158	0x3d502f7d	0.05082654
159	0x3bd1615b	0.0063897795
160	0xbc56c451	-0.013108329
161	0xbc704fa9	-0.01466743
162	0x3c845e2a	0.016158182
163	0xbcaf1a47	-0.021374835
164	0x3d20c0f8	0.03924653
165	0xbcacdfda	-0.021102834
166	0xbd174997	-0.036935415
167	0xbcf75bd1	-0.030195149
168	0x3b3a1574	0.0028394135
169	0x3e17136f	0.14753507
170	0x3d71ec84	0.05906345
171	0xbc7c42b4	-0.015396763
172	0xbdd0e606	-0.102001235
173	0xbc88f82e	-0.016719904
174	0x3dd96370	0.10614669
175	0xbd926a0e	-0.071491346
176	0x3dcdb102	0.10043527
177	0x3d07c1b9	0.033143733
178	0x3dc417b2	0.09574832
179	0xbd562266	-0.0522789
180	0x3d65e0c3	0.056122553
181	0xbda298b1	-0.0793928
182	0x3d88062d	0.06641803
183	0xbe0360a4	-0.12829834
184	0xbdb550df	-0.088533156
185	0xbdd9e507	-0.106393866
186	0xbd9a042b	-0.07520326
187	0xbdb8a226	-0.09015302
188	0xbc4c6e38	-0.01247745
189	0x3c3285b4	0.010896135
190	0x3d3b911e	0.04579269
191	0xba3ba60e	-0.0007158228
192	0xbe0f4454	-0.13990909
193	0x3d80034b	0.06250628
194	0x3d9b7cf9	0.07592196
195	0x3b1cc408	0.0023920555
196	0x3b3a334f	0.002841193
197	0xbd73eba5	-0.0595509
198	0xbc97af74	-0.01851628
199	0xba920373	-0.0011139944
200	0x3d1248e7	0.035714056
201	0x3d8fc7c9	0.07020528
202	0x3d2c2df1	0.042036
203	0x3c2984fa	0.0103466455
204	0xbdad13e7	-0.08451062
205	0xbd2277e1	-0.039665107
206	0x3d8de032	0.069275275
207	0x3d337003	0.043807995
208	0x3986446d	0.00025609453
209	0x3ceaf155	0.02867953
210	0xbd0759aa	-0.033044495
211	0xbccc0b08	-0.024907604
212	0x3d4965e9	0.049169455
213	0x3db81145	0.08987669
214	0xbd09803b	-0.033569556
215	0x3d4707f1	0.048591558
216	0xbc309b00	-0.010779142
217	0xbca3ec67	-0.020010186
218	0x3d797ac3	0.06090809
219	0x3ce82eda	0.028342653
220	0x3d9309be	0.071795925
221	0xbdd64a69	-0.10463411
222	0x3e190b7d	0.14945789
223	0x3d13046a	0.03589288
224	0x3bdd222b	0.006748458
225	0xbd1339c8	-0.035943776
226	0xbdc52361	-0.096258886
227	0x3dd6baaa	0.10484822
228	0x3d1930d7	0.037400093
229	0x3cab40de	0.020904955
230	0x3da33e8e	0.07970916
231	0x3cf433d2	0.029809866
232	0xbd6598fe	-0.056054108
233	0x3d96f7ad	0.07371459
234	0xbd632853	-0.055458378
235	0x3d2b0115	0.04174908
236	0x3e144dd6	0.14482817
237	0xbe379fdf	-0.1793208
238	0xbc27f79f	-0.010251909
239	0xbe338165	-0.17529829
240	0x3e1a0756	0.15041861
241	0xbbf76aff	-0.0075505967
242	0x3d955645	0.07291845
243	0x3e1328bc	0.14371008
244	0xbd3882fb	-0.045046788
245	0x3d8c3589	0.068461485
246	0xbca307a8	-0.019901112
247	0xbe037da6	-0.128409
248	0xbe0d2eed	-0.13787432
249	0xbe0a81a0	-0.1352601
250	0xbd301a8c	-0.042994067
251	0xbdad0dc5	-0.08449892
252	0xbcbe2e04	-0.023215301
253	0x3ca11fff	0.019668577
254	0x3b1b4a90	0.0023695566
255	0xbd5ca484	-0.05386783
