Maize-Runner/results/MazeRunner/EscapeMaze/EscapeMaze-8674867.onnx (onnx, 171663 bytes, 9 tensors)

action_model._continuous_distribution.log_sigma f4 [1, 2]
-0.66073817 -0.49954596
00000000: 2326 29bf 7dc4 ffbe

action_model._continuous_distribution.mu.bias f4 [2]
0.08190859 -0.0020904492
00000000: b1bf a73d ebff 08bb

action_model._continuous_distribution.mu.weight f4 [2, 128]
0.034430888 0.0038016345 0.00411417 0.0018682376 0.01746412 0.0045299637 0.0030814798 0.05487573
0.046997868 0.006987665 -0.0070751607 0.03207815 -0.067108385 -0.076727465 0.023411022 0.004329616
0.0455965 -0.030956654 -0.013120488 -0.042342238 -0.044838626 0.006714732 0.009209388 0.056285664
0.0050264224 0.004424815 -0.01083038 0.012076171 0.0001870089 -0.0066148536 0.013266871 0.0041426118
0.08956102 0.05162659 -0.031176329 -0.0052827327 -0.000463385 0.009941455 -0.01727087 0.009801221
0.021657556 0.00758135 -0.010882195 0.014616989 -0.008881403 0.109731466 0.0551462 -0.06840247
0.003135972 0.02501758 0.08287074 0.033097275 0.023151282 -0.04892004 0.0037619139 0.0033419554
0.0125281345 -0.043734524 0.0001580818 0.06872384 0.006306542 0.002649756 -0.004390544 -0.0032659983
-0.008557516 -0.04585286 0.00673445 -0.0055775703 0.0029415302 0.0018993608 0.007269591 -0.015836982
0.044480436 -0.00060976634 -0.00012908103 -0.0041631293 0.0014764778 -0.10418177 0.06368762 -0.0073537887
0.0025125057 -0.020301092 -0.004727552 0.011109061 0.03589396 0.0294805 0.009160473 -0.0056573944
0.004358601 0.0021170003 0.0016551857 -0.0025584968 -0.034728076 0.00044392532 -0.0049338387 -0.010984164
-0.008781109 -0.07683315 -0.0005997878 -0.0005416023 0.023015799 -0.0018591053 -0.001871137 0.07516478
-0.012471721 0.032418456 0.0056235036 0.008822539 -0.0013190277 -0.004558923 -0.0012975199 -0.0011929118
-0.0046879076 -0.019217117 -0.017230984 0.0061250287 -0.06355191 -7.675313e-05 0.0022444148 -0.0014022711
-0.00465397 0.015309506 -0.0017476216 -0.0015334869 0.004524276 -0.0024845796 -0.010746653 -0.0024306804
-0.045941304 0.0035243828 0.0017720275 0.003464603 -0.023479246 0.02559226 -0.0051430324 0.11907283
0.08131818 -0.0041705957 -0.0032855188 0.02255255 -0.02182622 0.035614934 0.04196573 0.003254789
0.070515364 0.051612426 0.018481806 -0.0794603 0.058170434 0.019986566 -0.0015129548 0.020484952
-0.0025716182 -0.061213583 -0.023240523 0.028877877 -0.0020756435 0.009930664 -0.042645764 -0.0089409305
-0.0046153446 -0.031812377 0.005884715 -0.0020146898 -0.006661936 -0.038842566 -0.032869935 -0.003062551
0.016246086 -0.00076952775 0.010743878 0.0027163238 -0.012385567 -0.08590823 -0.09024964 -0.075392015
0.0031499 0.0016567766 -0.05488253 -0.04046217 -0.015927458 0.043373678 0.0011229723 -0.0030831988
-0.029208237 -0.0653384 -0.0022627711 0.04660068 -0.0003260584 -0.0087585645 0.0019871998 0.006446469
0.0019212012 0.08545266 0.074666455 -0.016381104 -0.015259689 -0.0079181865 -0.026212748 0.018050576
-0.10173792 0.00017298094 -0.00021858016 -0.0031073338 -0.01177903 -0.031026537 -0.012303699 0.007337028
-0.003520463 -0.04649283 0.0014143509 -0.03488466 0.042892274 -0.02882255 -0.0035469048 0.0046563228
-0.012006271 0.0062164916 -0.002576452 0.0049151443 -0.114040874 0.003209043 -0.033573724 -0.073797606
0.008453065 0.11906181 0.0020578941 0.0035155423 0.0025378913 0.01355262 0.0005888499 -0.022715773
0.00976946 -0.018997736 -0.0010544108 -0.02420311 0.00067965133 0.0026419982 -0.01182486 -0.0073897303
0.0035820778 -0.033540517 0.07292158 -0.004879949 -0.016170429 -0.0022437288 0.005178982 -0.007441191
-6.717686e-05 -0.018184762 -0.0038398837 0.0072270767 -0.0015314672 0.018663513 0.055151388 0.0043828404
00000000: 6707 0d3d d824 793b 29d0 863b a7df f43a
00000010: ea10 8f3c 1770 943b a7f2 493b 60c5 603d
00000020: d680 403d c8f8 e43b c0d6 e7bb 6164 033d
00000030: 1f70 89bd 4a23 9dbd 79c8 bf3c 74df 8d3b
00000040: 65c3 3a3d cf98 fdbc 51f7 56bc 0e6f 2dbd
00000050: b5a8 37bd 4107 dc3b f9e2 163c cc8b 663d
00000060: b0b4 a43b 0afe 903b e871 31bc 22db 453c
00000070: d217 4439 6ac1 d8bb 4a5d 593c bfbe 873b
00000080: c56b b73d 6776 533d 8065 ffbc c61a adbb
00000090: 7bf2 f2b9 7ce1 223c a47b 8dbc 4d95 203c
000000a0: 306b b13c f96c f83b 3c4b 32bc 187c 6f3c
000000b0: 4e83 11bc e4ba e03d fbe0 613d 9816 8cbd
000000c0: e184 4d3b abf1 cc3c 22b8 a93d 0291 073d
000000d0: c2a7 bd3c 6160 48bd 718a 763b b504 5b3b
000000e0: ce42 4d3c f922 33bd c3c2 2539 16bf 8c3d
000000f0: 1ca7 ce3b 87a7 2d3b 8dde 8fbb 5c0a 56bb
00000100: d334 0cbc 35d0 3bbd a9ac dc3b 0dc4 b6bb
00000110: b0c6 403b f9f3 f83a c035 ee3b 8fbc 81bc
00000120: 1e31 363d bad8 1fba ed59 07b9 dc6a 88bb
00000130: 6086 c13a 405d d5bd a86e 823d 0df8 f0bb
00000140: daa8 243b 7a4e a6bc 95e9 9abb c702 363c
00000150: 8c05 133d 1781 f13c cf15 163c aa61 b9bb
00000160: 98d2 8e3b 5fbd 0a3b d1f2 d83a 74ac 27bb
00000170: 073f 0ebd a6be e839 0aac a1bb ecf6 33bc
00000180: a4de 0fbc b35a 9dbd 143b 1dba 51fa 0dba
00000190: a18b bc3c 39ad f3ba f040 f5ba feef 993d
000001a0: 3056 4cbc 37c9 043d 5e45 b83b 698c 103c
000001b0: 3ae3 acba 0563 95bb 8b11 aaba 7a5b 9cba
000001c0: 059d 99bb 376d 9dbc fe27 8dbc 77b4 c83b
000001d0: 8127 82bd 86f6 a0b8 0817 133b 69cc b7ba
000001e0: 5480 98bb b9d4 7a3c 7310 e5ba 48ff c8ba
000001f0: 6140 943b 54d4 22bb bb12 30bc 0d4c 1fbb
00000200: f32c 3cbd 55f9 663b 6043 e83a 650e 633b
00000210: 8c57 c0bc dca6 d13c e286 a8bb 75dc f33d
00000220: 258a a63d 7ea9 88bb dc51 57bb 20c0 b83c
00000230: e7cc b2bc f7e0 113d 42e4 2b3d 4c4e 553b
00000240: 5c6a 903d 8d67 533d 2867 973c 15bc a2bd
00000250: 1f44 6e3d deba a33c 574e c6ba 0fd0 a73c
00000260: 9888 28bb 18bb 7abd e962 bebc 4c91 ec3c
00000270: 8507 08bb 39b4 223c 53ad 2ebd fb7c 12bc
00000280: 513c 97bb b24d 02bd 91d4 c03b e308 04bb
00000290: 5f4c dabb 6219 1fbd a0a2 06bd 14b5 48bb
000002a0: 8316 853c 22ba 49ba 1707 303c 5a04 323b
000002b0: d5ec 4abc a7f0 afbd ced4 b8bd 2167 9abd
000002c0: 8d6e 4e3b 3328 d93a 81cc 60bd a9bb 25bd
000002d0: 4d7a 82bc 99a8 313d b330 933a 7e0f 4abb
000002e0: 1d46 efbc 24d0 85bd 004b 14bb 5be0 3e3d
000002f0: d1f2 aab9 1580 0fbc ae3b 023b e73c d33b
00000300: d1d0 fb3a ce01 af3d baea 983d aa31 86bc
00000310: c603 7abc 48bb 01bc 1ebc d6bc cdde 933c
00000320: f85b d0bd 3862 3539 aa32 65b9 69a4 4bbb
00000330: d5fc 40bc 5d2b febc 7495 49bc 746b f03b
00000340: 91b7 66bb 446f 3ebd be61 b93a 38e3 0ebd
00000350: cfaf 2f3d 451d ecbc 3073 68bb 1194 983b
00000360: f3b5 44bc b6b3 cb3b b1d9 28bb 380f a13b
00000370: 438e e9bd cf4e 523b 9a84 09bd 3323 97bd
00000380: b97e 0a3c aed6 f33d bcdd 063b 0365 663b
00000390: c052 263b cf0b 5e3c 0c5d 1a3a 6e16 babc
000003a0: 1610 203c 24a1 9bbc 2834 8aba 9a45 c6bc
000003b0: a12a 323a 6025 2d3b 0fbd 41bc 8d25 f2bb
000003c0: 4bc1 6a3b c861 09bd e957 953d fbe7 9fbb
000003d0: d977 84bc 860b 13bb 73b4 a93b 3cd5 f3bb
000003e0: 4de1 8cb8 36f8 94bc 8fa6 7bbb 1dd1 ec3b
000003f0: 83bb c8ba 39e4 983c 6ce6 613d ee9d 8f3b

network_body._body_endoder.seq_layers.0.bias f4 [128]
-0.08181333 0.026858298 -0.030602196 0.09169491 -0.019521452 -0.02730579 -0.017638339 -0.03434183
0.038444724 -0.02742083 0.012173169 -0.07033598 -0.0124301305 0.08226437 -0.0144891795 0.013802291
-0.03632173 -0.09902177 0.02884471 -0.024648255 -0.074465 -0.11823262 0.048309535 0.0023180135
-0.02934752 -0.124173954 0.045703363 -0.086291626 -0.07462492 -0.0240561 0.017460415 -0.04083155
0.03296999 -0.059923325 -0.0709361 0.021663722 0.01564145 -0.038963944 -0.10058328 0.055949204
0.058529735 -0.009560097 -0.06395166 -0.00029832276 -0.00720758 0.012524566 -0.012466844 0.0032989834
0.044806585 0.00553444 0.056762047 -0.03520166 -0.13708632 0.012355517 0.0013534559 -0.074724436
0.05136789 0.027910208 -0.10602255 -0.0023040078 -0.035390504 -0.043322504 -0.023138588 0.03274265
-0.024056038 0.03867444 -0.12479101 -0.11261463 -0.06520842 -0.09981445 0.023420522 -0.07262866
-0.11856706 -0.031140529 -0.05697355 -0.022467552 -0.027258983 0.087160826 -0.037959106 0.06331991
-0.043994028 -0.024951758 -0.0004459263 -0.01583249 0.010188083 -0.13016407 -0.03874553 -0.0014480673
-0.098122336 0.004236605 0.040116377 0.0068041654 -0.0466098 0.026283277 -0.06150972 -0.09556735
0.022218853 -0.081526525 0.004475688 -0.026620807 -0.058713328 -0.04595588 -0.05477332 -0.082160465
-0.008378663 0.07064496 -0.0061511514 0.05682118 0.016022505 -0.12604634 0.03229692 0.07446005
-0.0012346776 -0.04481318 -0.08366293 0.0761252 0.121105835 0.055309054 -0.07917025 -0.10753681
0.07899832 0.06847337 -0.015987048 -0.07738343 -0.06590271 -0.0053536557 -0.10062837 0.08103269
00000000: bf8d a7bd ef05 dc3c 75b1 fabc 8aca bb3d
00000010: 74eb 9fbc 64b0 dfbc 477e 90bc 05aa 0cbd
00000020: 3778 1d3d a6a1 e0bc f971 473c 4f0c 90bd
00000030: bfa7 4bbc 397a a83d 0664 6dbc 0123 623c
00000040: 18c6 14bd edcb cabd be4b ec3c 23eb c9bc
00000050: 1b81 98bd f223 f2bd 38e0 453d d0e9 173b
00000060: 366a f0bc ea4e febd 7333 3b3d aab9 b0bd
00000070: f3d4 98bd 4c11 c5bc 2509 8f3c fc3e 27bd
00000080: 8a0b 073d 2972 75bd f246 91bd 1e78 b13c
00000090: 8022 803c a898 1fbd 9bfe cdbd fe2a 653d
000000a0: e0bc 6f3d f4a1 1cbc 17f9 82bd 3468 9cb9
000000b0: 902d ecbb d633 4d3c bc41 4cbc c233 583b
000000c0: 1c87 373d 3f5a b53b 527f 683d 9e2f 10bd
000000d0: 5b60 0cbe cb6e 4a3c 7266 b13a 2009 99bd
000000e0: 2367 523d f3a3 e43c 5a22 d9bd d6fe 16bb
000000f0: a2f5 10bd f072 31bd 238d bdbc 281d 063d
00000100: 2b11 c5bc 1769 1e3d 6e92 ffbd 80a2 e6bd
00000110: fe8b 85bd 856b ccbd 65dc bf3c 56be 94bd
00000120: 49d3 f2bd 6c1a ffbc 195d 69bd df0d b8bc
00000130: 3b4e dfbc 6081 b23d 027b 1bbd dead 813d
00000140: 1533 34bd a167 ccbc 37cb e9b9 23b3 81bc
00000150: ebeb 263c bb49 05be a2b3 1ebd 13cd bdba
00000160: 5df4 c8bd 38d3 8a3b 1251 243d 7af5 de3b
00000170: ebe9 3ebd 0750 d73c 9ef1 7bbd d1b8 c3bd
00000180: 5004 b63c 61f7 a6bd cba8 923b e113 dabc
00000190: 637d 70bd 3c3c 3cbd fd59 60bd bf43 a8bd
000001a0: a946 09bc 4eae 903d 998f c9bb 53bd 683d
000001b0: a141 833c 4b12 01be c649 043d 837e 983d
000001c0: e8d4 a1ba 068e 37bd 7857 abbd 87e7 9b3d
000001d0: 5606 f83d bf8b 623d 0324 a2bd 423c dcbd
000001e0: dfc9 a13d c43b 8c3d 45f7 82bc 347b 9ebd
000001f0: 00f8 86bd b86d afbb 3f16 cebd 78f4 a53d

network_body._body_endoder.seq_layers.0.weight f4 [128, 70]
0.09744682 -0.103333324 -0.012212339 0.16263908 0.06162394 0.1715677 -0.1328474 0.15215191
-0.13710731 0.33889738 -0.07540033 -0.13539106 0.10502276 0.03897765 -0.0025715716 0.37926224
-0.15899032 0.0868749 -0.27685624 0.35611475 -0.3291917 -0.072382525 0.022019299 -0.10233935
-0.09811381 0.0067862165 -0.28512806 -0.018386066 -0.002170613 0.4766713 -0.44873694 0.14624092
0.016056985 -0.17324139 -0.3167102 0.107769586 -0.23388723 0.10009201 -0.2187038 0.08764822
-0.2646661 -0.18585877 -0.026846956 0.086183004 -0.24091473 -0.006760495 -0.1357289 -0.27295434
0.10359296 0.03261645 -0.45743152 0.06651729 -0.06919469 -0.015829882 -0.41793802 0.02290415
-0.3570963 -0.0759428 0.20369537 -0.071528606 -0.27932256 -0.12686014 0.03173118 0.3425489
-0.18486576 0.266192 -0.20183887 -0.12652476 -0.46680525 0.21715878 0.14064927 0.31602892
0.15060878 -0.13257757 -0.14931789 -0.0506871 0.25439435 0.19445945 -0.09324759 0.0854922
-0.12320055 0.04305138 -0.1989817 0.124548934 0.05445515 -0.042424127 0.11826448 -0.03596534
-0.1066553 -0.1525701 0.00970473 -0.084300786 -0.057351448 0.24367982 0.04126662 0.34395435
0.052965444 0.000539401 -0.25583768 0.07385717 -0.02655779 0.017170234 -0.18748051 -0.18477851
-0.09219281 0.17073976 -0.34249458 0.07275188 0.21654283 -0.0282287 -0.3126588 -0.23912866
0.069977134 0.033162914 -0.20829923 -0.24736534 0.16009746 0.0636518 0.032847308 0.06425162
-0.21688929 0.16056572 0.020859562 -0.067928314 -0.04587375 -0.22467786 0.05653265 -0.018824792
-0.030781757 -0.2930839 -0.034514364 0.13539383 -0.1717856 6.8318725e-05 -0.36309382 -0.034320988
0.1625561 -0.11177528 0.36386368 0.23802882 0.24154928 -0.017490176 0.007800104 -0.029272527
-0.11104048 0.38221708 0.18448134 -0.052386772 -0.12364132 0.278577 -0.13011618 -0.028998123
-0.04539614 -0.11170661 -0.055363335 0.3356348 -0.061277375 0.058632154 -0.34624514 0.39885837
-0.4168386 -0.10201305 0.005519196 0.11788828 -0.13092643 -0.061864845 0.08525164 -0.10761923
-0.10572092 -0.081202224 -0.24819694 0.19916292 0.1030438 -0.1592946 -0.26613936 0.074851975
-0.054505385 0.042656 -0.08460289 -0.008492555 -0.39277568 -0.03566808 -0.0016975524 0.43909964
-0.17219447 -0.40978852 0.009561659 -0.18129833 -0.12977749 -0.29937318 -0.80649483 0.052714534
-0.11046619 0.23215008 -0.07508726 -0.5088761 0.18430306 -0.2522185 -0.2636948 -0.22789757
-0.9392724 0.07030255 -0.084112875 0.19286387 -0.5435478 0.13346486 0.058713928 0.019034555
-0.32998207 -0.22594987 0.13851675 0.19658875 -0.12550433 0.10347384 0.12835689 -0.018224204
0.047805928 0.19537376 0.020736583 -0.024877774 -0.14341938 -0.1418244 0.026284108 0.2142489
-0.0231816 0.17569935 0.20427398 -0.09936911 0.1867338 0.12388426 -0.66969603 0.22740154
0.011603261 0.3120276 0.23343784 -0.2298163 0.02588846 0.13187425 0.15148507 0.4246627
-0.49087265 0.25000888 0.04613248 0.017005313 -0.44789422 0.075095885 0.21410318 -0.25958827
0.0025703383 0.13497457 -0.5331748 0.33673722 -0.26308143 0.09395544 -0.09481044 -0.1887438
00000000: 3392 c73d 6ca0 d3bd 4316 48bc dc8a 263e
00000010: 6269 7c3d 71af 2f3e 2609 08be b6cd 1b3e
00000020: dc65 0cbe f583 ad3e 7d6b 9abd f4a3 0abe
00000030: 2c16 d73d 07a7 1f3d d087 28bb a92e c23e
00000040: 5cce 22be 78eb b13d 1ac0 8dbe ac54 b63e
00000050: d18b a8be 4a3d 94bd d161 b43c 4b97 d1bd
00000060: e5ef c8bd e95e de3b 4efc 91be 609e 96bc
00000070: d840 0ebb 430e f43e d9c0 e5be 2ec0 153e
00000080: f089 833c 3166 31be d727 a2be 4db6 dc3d
00000090: 2280 6fbe 0afd cc3d e4f3 5fbe e980 b33d
000000a0: 5182 87be c351 3ebe 26ee dbbc b780 b03d
000000b0: 5ab2 76be 2487 ddbb 84fc 0abe acc0 8bbe
000000c0: 8c28 d43d d498 053d 7734 eabe 383a 883d
000000d0: f2b5 8dbd abad 81bc f9fb d5be 7ca1 bb3c
000000e0: 54d5 b6be e687 9bbd 8595 503e 977d 92bd
000000f0: 5e03 8fbe a0e7 01be 8ef8 013d 9262 af3e
00000100: 734d 3dbe 514a 883e d9ae 4ebe b58f 01be
00000110: 1901 efbe df5e 5e3e 5d06 103e 8bce a13e
00000120: 3039 1a3e 6ac2 07be cae6 18be 479d 4fbd
00000130: fa3f 823e 6120 473e 98f8 bebd 8916 af3d
00000140: 9250 fcbd a556 303d dcc1 4bbe 8313 ff3d
00000150: 5d0c 5f3d ecc4 2dbd a634 f23d 6450 13bd
00000160: 186e dabd 563b 1cbe 9600 1f3c e4a5 acbd
00000170: 5ae9 6abd 3487 793e 3007 293d c91a b03e
00000180: 4bf2 583d 9766 0d3a 28fd 82be 6e42 973d
00000190: b98f d9bc 97a8 8c3c e4fa 3fbe 9436 3dbe
000001a0: 95cf bcbd 67d6 2e3e 735b afbe f0fe 943d
000001b0: 67bd 5d3e e03f e7bc d014 a0be 25de 74be
000001c0: 2c50 8f3d d6d5 073d 654c 55be 574d 7dbe
000001d0: 97f0 233e e05b 823d e68a 063d 5a96 833d
000001e0: 3a18 5ebe 576b 243e ace1 aa3c 001e 8bbd
000001f0: 1de6 3bbd f411 66be c88e 673d 7336 9abc
00000200: 062a fcbc 180f 96be ef5e 0dbd aea4 0a3e
00000210: 90e8 2fbe 5646 8f38 6fe7 b9be 2a94 0cbd
00000220: 1b75 263e 70ea e4bd 574c ba3e d4bd 733e
00000230: b258 773e 8f47 8fbc 0498 ff3b f0cc efbc
00000240: 3169 e3bd f5b1 c33e ade8 3c3e 8393 56bd
00000250: a937 fdbd a5a1 8e3e 2d3d 05be 798d edbc
00000260: 4ef1 39bd 6fc6 e4bd aac4 62bd 53d8 ab3e
00000270: fcfd 7abd 4528 703d 0b47 b1be 2a37 cc3e
00000280: de6b d5be 38ec d0bd 5fda b43b 696f f13d
00000290: 9411 06be fe65 7dbd 6998 ae3d 7967 dcbd
000002a0: 3684 d8bd 5a4d a6bd 5727 7ebe 5df1 4b3e
000002b0: a108 d33d 201e 23be 6b43 88be fe4b 993d
000002c0: 0a41 5fbd 0fb8 2e3d 4844 adbd 5b24 0bbc
000002d0: e519 c9be b118 12bd 6880 deba abd1 e03e
000002e0: bf53 30be cdcf d1be 81a8 1c3c 45a6 39be
000002f0: 64e4 04be 7147 99be 7276 4ebf 32eb 573d
00000300: 193c e2bd c0b8 6d3e 59c7 99bd b445 02bf
00000310: f1b9 3c3e c922 81be 0103 87be fb5d 69be
00000320: 2874 70bf c9fa 8f3d 5f43 acbd 1b7e 453e
00000330: f325 0bbf 03ab 083e 047e 703d 5bee 9b3c
00000340: 69f3 a8be 675f 67be 56d7 0d3e 904e 493e
00000350: 3584 00be 18ea d33d fd6f 033e ed4a 95bc
00000360: 26d0 433d 0f10 483e c4df a93c 79cc cbbc
00000370: 88dc 12be 6a3a 11be c551 d73c 1064 5b3e
00000380: 57e7 bdbc 88ea 333e 332d 513e 0882 cbbd
00000390: 2537 3f3e 08b7 fd3d 3371 2bbf f3db 683e
000003a0: 9b1b 3e3c 15c2 9f3e 540a 6f3e f754 6bbe
000003b0: 0914 d43c 0b0a 073e e71e 1b3e 646d d93e
000003c0: a953 fbbe 2a01 803e 69f5 3c3d ba4e 8b3c
000003d0: 6452 e5be dfcb 993d dd3d 5b3e c1e8 84be
000003e0: 1f73 283b c636 0a3e 257e 08bf d268 ac3e
000003f0: 9cb2 86be b66b c03d fa2b c2bd 0e46 41be

network_body._body_endoder.seq_layers.2.bias f4 [128]
-0.025386028 -0.22317277 -0.093116246 -0.029422691 -0.071990736 -0.05440658 0.078527614 -0.020447861
-0.033405386 -0.12328413 -0.12392324 -0.08547158 -0.10354648 -0.006918232 -0.033041213 -0.02853834
-0.123766795 -0.16081223 -0.095391735 -0.070407435 -0.021944365 -0.079826266 -0.11588077 0.0054428293
-0.1071348 0.03682141 0.019994719 -0.053311717 -0.021135518 -0.03193111 -0.12383195 -0.08860013
-0.12559283 -0.063377894 -0.13815379 0.08293706 -0.0017036063 -0.06741244 -0.09539015 -0.11803378
-0.054232188 -0.10334768 -0.108289 0.028981116 0.00452204 -0.11207897 -0.11631327 0.08571633
-0.1009035 -0.064460635 0.0012447559 -0.032130178 -0.09034209 -0.13970236 -0.10896276 -0.16531087
-0.11965787 -0.14213096 -0.13976334 -0.08722974 -0.04293262 -0.13721056 -0.10274647 -0.12304658
0.021975778 -0.055711884 -0.04244906 -0.013998379 -0.08797854 -0.08754016 -0.041893642 0.081441596
-0.053223636 -0.1711334 -0.024151506 -0.10274857 0.03072631 -0.12767468 -0.04854188 0.16386685
-0.008882208 -0.11637279 -0.053537566 -0.12648155 -0.14839472 -0.070048146 -0.12081619 -0.013402287
-0.051060457 -0.110725045 -0.18697555 -0.16884118 -0.03193451 -0.122280434 -0.17943686 -0.029959992
-0.103469454 -0.105511665 -0.18357107 -0.05399111 -0.15746449 -0.10297862 0.012937719 -0.09892879
-0.1746528 -0.075635076 0.0051078694 -0.0057019386 -0.17093891 0.020190472 -0.055371076 -0.18232445
-0.05601233 -0.13902606 -0.09414554 -0.11491308 -0.02453592 -0.13275267 0.016803553 -0.0774047
-0.21331993 -0.083405584 -0.040545806 -0.22259785 -0.025543591 -0.01521852 -0.04494729 -0.17853391
00000000: 5cf6 cfbc 6787 64be bbb3 bebd db07 f1bc
00000010: e16f 93bd 6fd9 5ebd 16d3 a03d 4682 a7bc
00000020: 16d4 08bd 647c fcbd 78cb fdbd b90b afbd
00000030: 2d10 d4bd 56b2 e2bb 3956 07bd 3dc9 e9bc
00000040: 7279 fdbd f6ab 24be be5c c3bd c631 90bd
00000050: abc4 b3bc f47b a3bd e652 edbd c359 b23b
00000060: 7d69 dbbd 0cd2 163d f7cb a33c 635d 5abd
00000070: 6524 adbc 32ca 02bd 9b9b fdbd fc73 b5bd
00000080: 689b 00be 45cc 81bd 3078 0dbe e8da a93d
00000090: 8b4b dfba 890f 8abd e95b c3bd b2bb f1bd
000000a0: 9222 5ebd f3a7 d3bd a0c6 ddbd ce69 ed3c
000000b0: 9f2d 943b a989 e5bd a735 eebd 0b8c af3d
000000c0: 7fa6 cebd f003 84bd 1427 a33a ef9a 03bd
000000d0: 4605 b9bd 230e 0fbe de27 dfbd 4147 29be
000000e0: 2f0f f5bd c78a 11be 1f1e 0fbe 82a5 b2bd
000000f0: 1dda 2fbd ed80 0cbe be6c d2bd d8ff fbbd
00000100: 8c06 b43c 2532 64bd 11df 2dbd 7559 65bc
00000110: 182e b4bd 4148 b3bd ab98 2bbd daca a63d
00000120: 0701 5abd 983d 2fbe 61d9 c5bc d86d d2bd
00000130: beb5 fb3c 27bd 02be dad3 46bd b6cc 273e
00000140: ae86 11bc db54 eebd 354a 5bbd 6184 01be
00000150: c9f4 17be 6775 8fbd 7b6e f7bd 4495 5bbc
00000160: c524 51bd d0c3 e2bd 8576 3fbe b4e4 2cbe
00000170: c3cd 02bd 2a6e fabd 4cbe 37be a86e f5bc
00000180: cbe7 d3bd 8016 d8bd 0efa 3bbe c825 5dbd
00000190: 5f3e 21be 74e6 d2bd baf8 533c 2d9b cabd
000001a0: 2fd8 32be 90e6 9abd ea5f a73b 54d7 babb
000001b0: 9c0a 2fbe 7d66 a53c c8cc 62bd 43b3 3abe
000001c0: 2f6d 65bd d95c 0ebe 60cf c0bd 8d57 ebbd
000001d0: 8eff c8bc 51f0 07be 9ba7 893c 5b86 9ebd
000001e0: 8a70 5abe 8cd0 aabd 5c13 26bd b1f0 63be
000001f0: cb40 d1bc 1957 79bc a61a 38bd 98d1 36be

network_body._body_endoder.seq_layers.2.weight f4 [128, 128]
0.15980893 0.1271938 0.048664562 -0.2482788 0.00610322 -9.227964e-05 0.19378988 -0.26131085
-0.04214059 0.08280265 -0.23025046 -0.07301313 -0.060283404 0.45409235 -0.005005707 0.234496
-0.19042043 0.15655567 0.09512433 0.27507323 0.086717494 -0.15040533 -0.00091247197 -0.5883698
-0.034982476 0.1252706 -0.28736955 0.29885268 0.09839699 -0.12023031 -0.07412817 -0.11894752
0.0009014272 0.14927009 0.11970933 -0.6436734 0.08388841 0.0011831135 -0.13774915 -0.26724726
0.031308305 -0.22633977 0.20799145 0.09295839 -0.004523047 -0.1321937 -0.09665104 -0.00640463
0.14779377 0.026476782 0.046032127 -0.036660515 -0.057435565 0.04713696 0.0069698985 -0.03541137
-0.10645368 0.2913242 0.115883276 -0.18427376 -0.24846324 0.010007846 -0.25839218 0.3143402
-0.1704877 -0.030499259 -0.028366633 0.11749763 0.08878331 0.22253537 0.025450798 -0.023562577
-0.0036144974 0.19944046 0.19183598 0.11457093 0.18013243 0.018202623 0.085887685 -0.037420318
-0.028865315 -0.026269335 -0.00019609222 -0.0029040268 -0.17099464 -0.13256307 0.22672746 -0.1772787
0.06803399 -0.5061334 -0.18827862 0.1792447 0.0019346012 0.037959814 0.00091442134 -0.31464568
-0.27260324 -0.19032006 0.029772874 -0.041495305 -0.21456072 0.03296174 -0.0010891425 -0.037129775
-0.10651804 -0.10491688 -0.07997681 -0.103222854 -0.12518595 0.0754321 -0.52712417 0.33155248
-0.12532625 -0.07782119 -0.17723715 -0.3722988 0.25827694 0.15064435 0.06314936 -0.12592648
0.12011983 -0.083742484 -0.13292006 0.04853431 0.016015554 0.06802321 -0.087731585 0.06027209
-0.028081844 0.026334375 0.08567682 0.056914724 0.07627071 0.3334458 0.11030915 0.0049085584
-0.16078079 0.25079346 -0.15706062 0.20234208 -0.45052552 -0.15819484 0.036104124 0.37749374
-0.017180223 -0.021280672 0.0014595296 0.08727312 -0.057906147 -0.078315385 0.33539012 -0.12738381
0.3024824 0.010876031 -0.046414584 0.023746736 -0.053944834 -0.15629949 -0.27717614 0.11125425
0.028058032 -0.18086411 0.1624206 -0.23180842 0.22353388 -0.07570401 -0.10022593 0.1480254
-0.12281407 -0.2444973 -0.035046957 -0.054005634 -0.00065156823 -0.1419155 0.20505477 -0.23428881
-0.50009745 0.053894978 0.1337552 -0.023341 -0.035855908 0.0066115223 0.19708924 0.025979063
-0.45766556 -0.17247345 -0.25979456 -0.21980786 -0.16226606 0.028852476 -0.17222191 0.1416538
-0.17775272 0.07081763 -0.08889032 -0.18011299 0.041996635 -0.14638321 -0.15777752 -0.0815717
0.13014928 0.24869606 -0.15587878 -0.07371866 -0.028277425 -0.3076679 0.08521 -0.051230304
0.09540125 0.05550594 0.13664177 -0.22362043 0.062103696 -0.024168357 -0.113490194 -0.25099754
-0.025337793 -0.1901195 -0.074767604 -0.040402602 -0.042992774 -0.07125248 0.18069464 -0.15994817
0.21053624 -0.13274257 0.08742876 0.18165126 0.18912683 0.15099578 -0.021784717 -0.022996115
0.3670893 -0.066704676 -0.2734936 -0.11188712 -0.07046208 -0.2773398 0.1935444 0.16201843
0.32851112 -0.029709553 0.07395776 -0.39264357 0.053814318 0.2822044 -0.055374872 -0.057415284
0.41712514 -0.055226814 0.05053996 -0.21938294 -0.040399596 0.2860576 0.21413895 0.07734125
00000000: f4a4 233e 173f 023e 7e54 473d cc3c 7ebe
00000010: 85fd c73b 4186 c1b8 db70 463e 89ca 85be
00000020: 9c9b 2cbd 7094 a93d c7c6 6bbe e887 95bd
00000030: bbeb 76bd cb7e e83e ea06 a4bb b81f 703e
00000040: 93fd 42be 2150 203e 8bd0 c23d 66d6 8c3e
00000050: f198 b13d db03 1abe f532 6fba 679f 16bf
00000060: c949 0fbd f046 003e 1a22 93be 3803 993e
00000070: 5c84 c93d 4f3b f6bd 83d0 97bd c29a f3bd
00000080: c14d 6c3a 42da 183e 2a2a f53d c8c7 24bf
00000090: b0cd ab3d b412 9b3a 1d0e 0dbe a2d4 88be
000000a0: 233d 003d 9dc5 67be b6fb 543e f860 be3d
000000b0: 1136 94bb c95d 07be fbf0 c5bd eedd d1bb
000000c0: 4057 173e d6e5 d83c 2f8c 3c3d 5629 16bd
000000d0: 8e41 6bbd af12 413d bf63 e43b 830b 11bd
000000e0: 6304 dabd 7228 953e 3654 ed3d 43b2 3cbe
000000f0: 266d 7ebe f3f7 233c fb4b 84be 33f1 a03e
00000100: 5494 2ebe 95d9 f9bc 2461 e8bc 99a2 f03d
00000110: 06d4 b53d 50e0 633e 317e d03c 4e06 c1bc
00000120: 34e1 6cbb 1f3a 4c3e a770 443e 2aa4 ea3d
00000130: a374 383e ab1d 953c e2e5 af3d 0c46 19bd
00000140: f476 ecbc ca32 d7bc 1b9e 4db9 7c51 3ebb
00000150: 3819 2fbe 9dbe 07be 3e2b 683e 8c88 35be
00000160: 6855 8b3d f591 01bf 1ccc 40be ec8b 373e
00000170: 7292 fd3a c07b 1b3d c7b5 6f3a 3d19 a1be
00000180: a792 8bbe 43e3 42be 3ee6 f33c fbf6 29bd
00000190: ceb5 5bbe e402 073d 8fc1 8eba 6415 18bd
000001a0: 2126 dabd a9de d6bd e2ca a3bd 8166 d3bd
000001b0: bf30 00be 257c 9a3d 9cf1 06bf 3fc1 a93e
000001c0: 8655 00be b760 9fbd a87d 35be f39d bebe
000001d0: e03c 843e 8342 1a3e 7454 813d dff2 00be
000001e0: 6301 f63d 2e81 abbd 321c 08be eacb 463d
000001f0: 0d33 833c c14f 8b3d 9eac b3bd dedf 763d
00000200: e50b e6bc 30bb d73c 5477 af3d 6a1f 693d
00000210: d133 9c3d 68b9 aa3e c3e9 e13d f9d7 a03b
00000220: b8a3 24be 0068 803e 80d4 20be c332 4f3e
00000230: 48ab e6be d4fd 21be ebe1 133d dc46 c13e
00000240: 8abd 8cbc ce54 aebc b04d bf3a 40bc b23d
00000250: ff2e 6dbd d163 a0bd 41b8 ab3e e770 02be
00000260: f9de 9a3e 6131 323c 381d 3ebd 8488 c23c
00000270: 42f5 5cbd f90c 20be 08ea 8dbe 45d9 e33d
00000280: f5d9 e53c 7134 39be 9651 263e 305f 6dbe
00000290: 11e6 643e b40a 9bbd 4143 cdbd f893 173e
000002a0: f185 fbbd 805d 7abe 668d 0fbd 0335 5dbd
000002b0: 01ce 2aba 4c52 11be e1f9 513e 68e9 6fbe
000002c0: 6306 00bf fbc0 5c3d 20f7 083e a035 bfbc
000002d0: a5dd 12bd 78a5 d83b c3d1 493e 0bd2 d43c
000002e0: 2453 eabe e19c 30be cb03 85be 5015 61be
000002f0: 1329 26be 075c ec3c f15a 30be b20d 113e
00000300: cf04 36be d508 913d 210c b6bd 8a6f 38be
00000310: aa04 2c3d 7be5 15be 6e90 21be 100f a7bd
00000320: da45 053e 2eaa 7e3e b09e 1fbe cff9 96bd
00000330: 0fa6 e7bc a686 9dbe 9582 ae3d ded6 51bd
00000340: bb61 c33d 325a 633d d2eb 0b3e c1fc 64be
00000350: 7260 7e3d b8fc c5bc 8c6d e8bd c082 80be
00000360: 3491 cfbc b0ae 42be c21f 99bd 337d 25bd
00000370: 3119 30bd d2ec 91bd 0408 393e 74c9 23be
00000380: d096 573e abed 07be da0d b33d ca02 3a3e
00000390: 77aa 413e a39e 1a3e dd75 b2bc 5962 bcbc
000003a0: 21f3 bb3e 769c 88bd 5a07 8cbe 1325 e5bd
000003b0: 6c4e 90bd 7bff 8dbe 8130 463e 29e8 253e
000003c0: 9c32 a83e 7361 f3bc 2b77 973d 9408 c9be
000003d0: 676c 5c3d 187d 903e c3d0 62bd 4a2c 6bbd
000003e0: 6d91 d53e 8335 62bd fd02 4f3d eca5 60be
000003f0: 0c7a 25bd 2476 923e 3e47 5b3e 1765 9e3d

network_body._body_endoder.seq_layers.4.bias f4 [128]
-0.07605983 -0.016036514 -0.10578395 -0.22910741 -0.11203669 -0.16471785 -0.011627829 -0.061992884
-0.1242849 0.023283912 -0.040086128 -0.013473099 -0.1476264 -0.27063462 -0.09812279 -0.035744753
-0.15573305 -0.10300927 0.008668751 -0.14424352 -0.27244538 -0.11509214 -0.09195715 -0.051943425
-0.09731732 -0.06913428 -0.21800901 -0.14567655 -0.021093315 -0.113508195 0.00081535726 -0.061779276
-0.011370187 -0.08679139 -0.21780452 -0.07786868 -0.07367315 -0.046896473 -0.19345444 -0.08965532
-0.1828463 -0.021214098 -0.13471009 -0.05422036 -0.121963374 0.10531581 0.046066202 -0.112935565
-0.11398008 -0.04066306 0.07051838 -0.08757856 -0.05741206 -0.21305332 -0.06621321 -0.0730364
-0.041471925 -0.039760083 -0.000121742814 -0.0034287395 -0.061227705 -0.13653468 -0.070530206 -0.028352099
-0.015342641 -0.20393293 -0.1345911 -0.10817168 -0.103745334 -0.07153061 -0.055105712 -0.27610537
-0.017020127 -0.014551234 -0.020892072 -0.04255409 -0.067265205 -0.25430822 -0.052063193 -0.009733476
-0.020722039 -0.03762705 -0.0041330247 -0.05385197 -0.13055924 -0.030794807 -0.053718943 -0.022244228
-0.020239472 -0.08939053 -0.029658847 -0.0229927 -0.079787806 -0.051895298 -0.08146671 0.041380074
-0.057787836 -0.118530065 -0.055942573 -0.026112908 -0.11517888 -0.102650784 -0.0687356 -0.0316268
-0.1462134 -0.09702566 -0.028203577 -0.12633803 -0.021585524 -0.10054246 -0.06578123 -0.025196457
-0.03635801 -0.14489716 -0.1588959 -0.05980822 -0.17624538 -0.012615567 -0.086343236 -0.05652248
-0.050788727 -0.109802365 -0.035454374 -0.08179664 -0.050372917 -0.16984253 -0.18440765 -0.042429805
00000000: 42c5 9bbd 025f 83bc 41a5 d8bd 229b 6abe
00000010: 7e73 e5bd ccab 28be a682 3ebc 40ec 7dbd
00000020: 1589 febd e7bd be3c 5a31 24bd 46be 5cbc
00000030: 602b 17be 9f90 8abe 9af4 c8bd 1769 12bd
00000040: 7c78 1fbe 86f6 d2bd 6107 0e3c 93b4 13be
00000050: f67d 8bbe 6eb5 ebbd 0854 bcbd a1c2 54bd
00000060: 4e4e c7bd 4696 8dbd c13d 5fbe 3c2c 15be
00000070: e3cb acbc fc76 e8bd b3bd 553a 440c 7dbd
00000080: 054a 3abc afbf b1bd 2608 5fbe 9d79 9fbd
00000090: f3e1 96bd 8416 40bd ec18 46be 359d b7bd
000000a0: 0f3c 3bbe 30c9 adbc 71f1 09be 2b16 5ebd
000000b0: efc7 f9bd d1af d73d eaaf 3c3d c34a e7bd
000000c0: 636e e9bd 4f8e 26bd f16b 903d 635c b3bd
000000d0: e928 6bbd a62a 5abe cb9a 87bd 1c94 95bd
000000e0: 77de 29bd 78db 22bd 2d50 ffb8 b4b4 60bb
000000f0: e7c9 7abd bfcf 0bbe 2472 90bd a942 e8bc
00000100: b35f 7bbc cbd3 50be 40d2 09be 1d89 ddbd
00000110: 6f78 d4bd a47e 92bd 87b6 61bd af5d 8dbe
00000120: cb6d 8bbc 4d68 6ebc da25 abbc 334d 2ebd
00000130: 57c2 89bd b034 82be 3740 55bd 2879 1fbc
00000140: 44c1 a9bc d21e 1abd 536e 87bb e293 5cbd
00000150: 52b1 05be 6445 fcbc 6508 5cbd 8739 b6bc
00000160: 40cd a5bc 6212 b7bd 1cf7 f2bc 305b bcbc
00000170: ca67 a3bd 2a90 54bd 05d8 a6bd 277e 293d
00000180: f0b2 6cbd e4bf f2bd 0a24 65bd bdea d5bc
00000190: e8e2 ebbd 933a d2bd 40c5 8cbd 1a8b 01bd
000001a0: f7b8 15be 64b5 c6bd 300b e7bc c25e 01be
000001b0: 20d4 b0bc 35e9 cdbd 4fb8 86bd cd68 cebc
000001c0: 23ec 14bd ec5f 14be 9bb5 22be 77f9 74bd
000001d0: ab79 34be 86b1 4ebc b9d4 b0bd 1e84 67bd
000001e0: d707 50bd 10e0 e0bd 9b38 11bd ff84 a7bd
000001f0: d553 4ebd 33eb 2dbe 5cd5 3cbe e0ca 2dbd

network_body._body_endoder.seq_layers.4.weight f4 [128, 128]
-0.18917455 0.12154231 0.023072751 -0.011599702 -0.011104891 -0.34395534 0.33496988 -0.14065737
0.051677804 -0.18076964 -0.07316986 0.08935821 -0.19752382 0.025108974 -0.36382532 -0.14963534
-0.23235536 0.06857015 0.22999604 0.06800622 -0.22531728 0.062288564 0.059971716 0.062677726
0.038489 -0.26156944 0.12789255 0.07771938 0.08733429 -0.22173488 0.057733648 -0.058570184
-0.18977666 -0.0025698112 0.030098742 -0.17887862 -0.013440623 -0.079861864 0.19205087 0.029610028
-0.11893081 0.22522883 -0.05199443 -0.09815332 0.04735209 -0.16820155 0.010467129 -0.3501079
-0.30562672 -0.043390352 0.045473937 0.21319643 -0.107371554 -0.0049147205 -0.0759084 -0.07587019
-0.17543848 -0.006844536 -0.28020617 0.03670688 0.3054491 0.01008145 -0.00028560587 -0.13564189
0.20918079 -0.026955724 -0.12785974 -0.19222686 0.06500566 -0.018330906 -0.12311649 0.28070357
-0.10934806 0.041438997 0.031721167 -0.09363923 0.19241248 -0.096756324 0.051596 -0.13087536
0.027384678 0.15805107 0.020882802 0.13785757 0.10116808 0.11768654 0.12659773 0.08838783
0.13814747 0.020537905 -0.11283819 0.038128905 0.011987757 -0.108611785 0.14788081 -0.12291177
-0.14805113 -0.18973695 0.18731287 -0.06672956 -0.12093944 0.17748085 -0.37753603 0.08454664
-0.106909744 0.19259018 0.07977698 -0.008614838 0.061507255 -0.0068986644 -0.03748254 -0.15093456
0.16385683 -0.06543323 -0.09946464 -0.07936943 -0.24122064 -0.06838215 -0.08103712 -0.076758154
-2.8692531e-05 0.30253786 -0.13743658 -0.14082418 -0.09548113 -0.13429745 -0.06419433 -0.014497081
0.053014822 0.10888592 -0.07535757 -0.089514844 -0.0005489664 0.08142061 0.042484064 0.057490963
0.1814266 -0.0736334 -0.006349705 -0.15645036 0.03664775 -0.087484136 0.018493326 0.03229167
0.013047588 0.042911936 -0.026206536 -0.051630937 0.029780783 0.0008884833 0.06859622 -0.020435853
-0.018686928 -0.048546985 0.036079176 0.11133378 -0.076155715 -0.057563245 0.04540236 0.02816854
-0.009642581 0.007219235 0.0095421085 -0.02404864 0.058969684 -0.034064595 -0.03800611 -0.046365127
0.015325203 0.14273639 0.069506414 -0.01686814 -0.081820875 -0.021347636 0.095000684 -0.06467036
0.1025019 0.006953713 0.088114284 -0.039562315 0.040826444 -0.09318785 0.088388495 -0.11041193
-0.04244018 -0.11864206 -0.068105526 -0.13101609 -0.018817382 0.025792746 0.057945825 -0.00023205754
-0.1381618 0.057826027 0.05321551 0.008140043 -0.0036699676 -0.054551087 -0.00627588 0.016882159
0.037485063 0.06874052 0.05599828 0.021334765 -0.06866726 -0.018561054 0.06463714 0.04884886
-0.001675975 0.06693686 -0.035863146 -0.035586704 0.07102213 0.07142218 -0.049607024 0.031468783
-0.01546399 -0.04211705 0.054167196 0.029655932 0.058655843 -0.08275306 0.15042163 0.032958455
-0.004570926 -0.04035503 -0.07926697 0.08986322 0.05178088 -0.0018082472 0.080225945 0.07661996
-0.057440545 0.085864976 -0.041203175 0.056253057 0.15572086 -0.17800371 -0.028091418 -0.16552654
0.172463 0.0015866231 0.06779251 0.13313334 -0.04083969 0.099514596 -0.018732466 -0.122104965
-0.14928672 -0.10192115 -0.05150695 -0.06884092 -0.020390853 0.022558091 0.0058636535 -0.065501936
00000000: f9b6 41be 2deb f83d 1103 bd3c ad0c 3ebc
00000010: 4af1 35bc ea1a b0be 2c81 ab3e 7c08 10be
00000020: 1bac 533d ad1b 39be 14da 95bd 7001 b73d
00000030: af43 4abe 56b1 cd3c 5047 babe 023a 19be
00000040: 90ee 6dbe 826e 8c3d 1584 6b3e d846 8b3d
00000050: 93b9 66be 4b22 7f3d e7a4 753d 2e5d 803d
00000060: a4a6 1d3d 6eec 85be 44f6 023e 572b 9f3d
00000070: 52dc b23d 780e 63be 1e7a 6c3d 4ae7 6fbd
00000080: d054 42be 476a 28bb a391 f63c f52b 37be
00000090: 0f36 5cbc 9e8e a3bd fca8 443e bb90 f23c
000000a0: ff91 f3bd 63a2 663e 1df8 54bd 9c04 c9bd
000000b0: 44f4 413d 073d 2cbe 527e 2b3c 5841 b3be
000000c0: 1b7b 9cbe 15ba 31bd e142 3a3d 2a50 5a3e
000000d0: 9ee5 dbbd aa0b a1bb dd75 9bbd d561 9bbd
000000e0: 25a6 33be 2148 e0bb 2f77 8fbe f459 163d
000000f0: d363 9c3e ab2c 253c 5fbd 95b9 b5e5 0abe
00000100: 7d33 563e 40d2 dcbc aaed 02be 1ed7 44be
00000110: b021 853d b22a 96bc 8024 fcbd 61b8 8f3e
00000120: e0f1 dfbd f0bb 293d 0eee 013d edc5 bfbd
00000130: c707 453e 2e28 c6bd 5456 533d 3104 06be
00000140: d555 e03c 24d8 213e 6912 ab3c 892a 0d3e
00000150: 3631 cf3d a405 f13d d6a2 013e ae04 b53d
00000160: 8876 0d3e 1c3f a83c b517 e7bd 0e2d 1c3d
00000170: 4c68 443c db6f debd 116e 173e 2bb9 fbbd
00000180: b79a 17be 674a 42be f2ce 3f3e 82a9 88bd
00000190: 19af f7bd 8abd 353e 674c c1be ca26 ad3d
000001a0: 7ff3 dabd 5c36 453e 1d62 a33d 4025 0dbc
000001b0: 08ef 7b3d 310e e2bb 4b87 19bd 978e 1abe
000001c0: 16ca 273e db01 86bd 1eb4 cbbd 718c a2bd
000001d0: 8b02 77be f10b 8cbd caf6 a5bd 6133 9dbd
000001e0: beb0 f0b7 3ee6 9a3e 2dbc 0cbe 3734 10be
000001f0: 9c8b c3bd 4585 09be 5178 83bd 2a85 6dbc
00000200: 1226 593d 95ff de3d 1255 9abd 8f53 b7bd
00000210: 83e8 0fba d9bf a63d c503 2e3d a57b 6b3d
00000220: e5c7 393e 1ccd 96bd 3011 d0bb 8634 20be
00000230: f31b 163d e22a b3bd 517f 973c 4544 043d
00000240: 8dc5 553c 6dc4 2f3d 17af d6bc f67a 53bd
00000250: d4f6 f33c 1be9 683a 2d7c 8c3d 1769 a7bc
00000260: 5415 99bc 34d9 46bd c2c7 133d f702 e43d
00000270: 87f7 9bbd 70c7 6bbd d3f7 393d b6c1 e63c
00000280: ebfb 1dbc 558f ec3b 8156 1c3c a701 c5bc
00000290: 328a 713d 5187 0bbd 4bac 1bbd 5ce9 3dbd
000002a0: 8f16 7b3c 7d29 123e 6159 8e3d 0e2f 8abc
000002b0: b491 a7bd 3de1 aebc b88f c23d e571 84bd
000002c0: 84ec d13d f9db e33b 4375 b43d 180c 22bd
000002d0: a139 273d 46d9 bebd 0705 b53d a61f e2bd
000002e0: c1d5 2dbd 9cfa f2bd e97a 8bbd 1529 06be
000002f0: e926 9abc 4f4b d33c 9a58 6d3d 7954 73b9
00000300: 497a 0dbe fcda 6c3d 82f8 593d d15d 053c
00000310: d783 70bb f670 5fbd e6a5 cdbb 744c 8a3c
00000320: f089 193d d4c7 8c3d 745e 653d 3fc6 ae3c
00000330: 6ca1 8cbd 5a0d 98bc 7a60 843d be15 483d
00000340: 64ac dbba 3116 893d 3ce5 12bd 5dc3 11bd
00000350: 0d74 913d cb45 923d bc30 4bbd 69e5 003d
00000360: ad5c 7dbc ee82 2cbd 6cde 5d3d fff0 f23c
00000370: 1c41 703d 707a a9bd 2108 1a3e 72ff 063d
00000380: b5c7 95bb 514b 25bd b956 a2bd 350a b83d
00000390: 3018 543d b502 edba 804d a43d edea 9c3d
000003a0: c746 6bbd fad9 af3d a9c4 28bd 9b69 663d
000003b0: 4a75 1f3e 9b46 36be f91f e6bc ca7f 29be
000003c0: 249a 303e 3df6 cf3a cdd6 8a3d 1b54 083e
000003d0: 8547 27bd 4fce cb3d d474 99bc 2b12 fabd
000003e0: 9ede 18be 09bc d0bd f4f8 52bd 78fc 8cbd
000003f0: b80a a7bc bfcb b83c e423 c03b e125 86bd
