Maize-Runner/results/MazeRunner/EscapeMaze/EscapeMaze-8999940.onnx (onnx, 171663 bytes, 9 tensors)

action_model._continuous_distribution.log_sigma f4 [1, 2]
-0.6680091 -0.49230444
00000000: a502 2bbf 540f fcbe

action_model._continuous_distribution.mu.bias f4 [2]
0.08650815 0.000593599
00000000: 2f2b b13d c19b 1b3a

action_model._continuous_distribution.mu.weight f4 [2, 128]
0.021624763 0.0062066354 0.010853378 0.0027475771 0.013981077 0.00027627332 -0.0015806442 0.02212445
0.057450734 0.0029810464 -0.0052637034 0.019111287 -0.06773137 -0.07841853 0.016007617 -0.00054266455
0.056764096 -0.025148168 -0.0035988984 -0.03707603 -0.044797514 0.0108528985 0.004074771 0.039459873
-0.0013941269 0.0063708914 -0.020209018 0.03173902 -0.00203346 -0.0020879149 0.0018221979 -0.0011718113
0.09489472 0.04477522 -0.03317283 -0.008262363 -0.0077653495 0.0025029264 -0.019032028 0.008629198
0.014852283 0.0019368597 -0.018965818 0.0076466487 0.0066409586 0.10818336 0.051167015 -0.078137994
-0.0030259357 0.027041353 0.07143427 0.023895767 0.03136481 -0.04030113 -0.003748799 -0.004915926
0.009853724 -0.048763204 0.00096954487 0.067215696 0.002926288 0.0096697975 -0.003171533 0.0026821955
0.002425322 -0.07758483 -0.002694141 0.0037352869 -0.003711595 0.010722914 0.011507422 -0.011948864
0.05036707 -0.0010496376 0.0023072767 0.00066485844 0.0045763385 -0.1177351 0.065294474 0.0019808342
0.00919575 -0.019241238 -0.0023805033 0.008900713 0.042087648 0.02533723 0.0076410007 -0.0021016535
0.017632242 0.005062549 0.00089630333 -0.000116529794 -0.043207098 0.015659483 -0.010592227 -0.0027155555
-0.0013721004 -0.0811834 -0.002046045 0.0026949723 0.027860451 -0.005268778 -0.0024529959 0.092198245
-0.014739274 0.031355925 -0.0050399834 -0.0085724285 -0.0039405003 0.0023204484 0.0032781167 -0.0032331198
0.00016851044 -0.022671577 -0.009427947 0.0031477248 -0.0538619 -0.0038000664 0.00033978128 0.0009945224
-0.0025063779 0.013667698 0.0009824114 0.0032011645 0.0010265778 -0.027727986 -0.036690444 -0.0010416482
-0.049835816 -0.0072562494 -0.010865442 0.012411639 -0.018622426 0.018749395 -0.0015355331 0.100437135
0.08433696 -0.0035942257 0.0049982327 0.027469572 -0.037622333 0.038803898 0.020279707 -0.0015129658
0.052670695 0.05191334 0.0132841375 -0.075724535 0.046420563 0.011799154 0.024704708 0.021889966
-0.0014735432 -0.057208557 -0.01372816 0.025723938 -0.0016844545 0.0009064054 -0.03359019 0.0028946777
0.008619829 -0.033997912 0.0021238488 0.008532512 -0.0014710301 -0.042338848 -0.040120885 -0.0046096696
0.008900998 0.0030070753 0.018540684 -0.0030679712 -0.0061767134 -0.07282205 -0.089930594 -0.06892684
0.0036458233 0.002563209 -0.049044646 -0.02412456 -0.036791395 0.04123235 0.007275129 -0.0019963253
-0.024314366 -0.06843289 -0.0037123451 0.041323986 0.0018498962 -0.018997006 0.0028478696 0.006989885
0.00024296825 0.07989715 0.07063539 -0.035075996 -0.016797423 -0.0018394137 -0.039436724 0.015518731
-0.10735481 0.00065808336 0.004447582 0.0078099547 -0.0020726735 -0.032729402 0.0032041736 0.006506058
0.0010107782 -0.03650388 -5.434626e-05 -0.035754792 0.038144745 -0.030832425 0.0037632813 -0.0011816635
-0.015227272 0.008818094 -0.0032481807 0.008325311 -0.11889056 0.0017608176 -0.050384548 -0.06507989
0.013394657 0.10302538 0.003756082 0.001746937 -0.0077251745 0.0075099 0.0007888731 -0.019451268
0.017965395 -0.0065083355 0.002905228 -0.009377933 0.008401077 -0.0027450754 -0.0113775255 -0.012636402
0.0002974579 -0.042263553 0.079670474 -0.0006217321 -0.00906807 0.0050747725 0.001758601 5.576959e-06
0.0009868023 -0.010752624 0.0065148924 -0.0063541336 0.0007945186 0.027706945 0.04198174 0.00050773914
00000000: 6a26 b13c 0861 cb3b 5ed2 313c b210 343b
00000010: e310 653c c7d8 9039 9e2d cfba 563e b53c
00000020: 7651 6b3d a95d 433b 257b acbb 468f 9c3c
00000030: bfb6 8abd e599 a0bd 6822 833c 9a41 0eba
00000040: 7881 683d 8803 cebc 7fdb 6bbb 09dd 17bd
00000050: 997d 37bd 5bd0 313c a885 853b ada0 213d
00000060: 23bb b6ba e9c2 d03b 628d a5bc c600 023d
00000070: cc43 05bb 66d5 08bb d1d6 ee3a 7697 99ba
00000080: 2a58 c23d 3966 373d 3ce0 07bd dd5e 07bc
00000090: 7974 febb 2308 243b 0ee9 9bbc 7b61 0d3c
000000a0: fd56 733c 3ade fd3a 345e 9bbc bd90 fa3b
000000b0: 669c d93b 3d8f dd3d 8194 513d d006 a0bd
000000c0: c74e 46bb d485 dd3c 214c 923d 0ec1 c33c
000000d0: 6378 003d cc12 25bd 69ae 75bb c715 a1bb
000000e0: 8471 213c edbb 47bd 0e29 7e3a 62a8 893d
000000f0: f7c6 3f3b 126e 1e3c 7fd9 4fbb c6c7 2f3b
00000100: 27f2 1e3b cce4 9ebd 2f90 30bb b7cb 743b
00000110: 3b3e 73bb 29af 2f3c a089 3c3c 2bc5 43bc
00000120: b34d 4e3d fe93 89ba ae35 173b e549 2e3a
00000130: 1cf5 953b 1a1f f1bd 1cb9 853d e2d0 013b
00000140: c5a9 163c cd9f 9dbc 3802 1cbb 4cd4 113c
00000150: 1964 2c3d 0690 cf3c 5c61 fa3b e5bb 09bb
00000160: 7e71 903c bde3 a53b e6f5 6a3a 7561 f4b8
00000170: edf9 30bd 5148 803c 058b 2dbc 76f7 31bb
00000180: 0dd8 b3ba 7b43 a6bd f016 06bb 229e 303b
00000190: 9a3b e43c b7a5 acbb 71c2 20bb 6fd2 bc3d
000001a0: ff7c 71bc 126f 003d 7226 a5bb 5f73 0cbc
000001b0: 501f 81bb aa12 183b acd5 563b c0e2 53bb
000001c0: 2db2 3039 beb9 b9bc ad77 1abc 0f4a 4e3b
000001d0: 4c9e 5cbd 890a 79bb ac24 b239 a25a 823a
000001e0: 0b42 24bb 7bee 5f3c 42c4 803a a1ca 513b
000001f0: 3c8e 863a cd25 e3bc b848 16bd ea87 88ba
00000200: a420 4cbd d5c5 edbb f804 32bc 305a 4b3c
00000210: 0f8e 98bc 5598 993c f143 c9ba fcb1 cd3d
00000220: dbb8 ac3d 1a8d 6bbb 37c8 a33b de07 e13c
00000230: e019 1abd d6f0 1e3d a121 a63c b54e c6ba
00000240: 3abd 573d 15a3 543d b6a5 593c 7715 9bbd
00000250: 7d23 3e3d 3d51 413c 8761 ca3c 9652 b33c
00000260: e823 c1ba 8553 6abd 14ec 60bc 02bb d23c
00000270: eac8 dcba d69b 6d3a de95 09bd a2b4 3d3b
00000280: 2f3a 0d3c 6541 0bbd 4530 0b3b f3cb 0b3c
00000290: 94cf c0ba 806b 2dbd cc55 24bd b60c 97bb
000002a0: 7ed5 113c 5a12 453b a2e2 973c 0410 49bb
000002b0: 0766 cabb ba23 95bd 882d b8bd 8429 8dbd
000002c0: c4ee 6e3b 83fb 273b 0ae3 48bd dfa0 c5bc
000002d0: 93b2 16bd 41e3 283d 3564 ee3b c8d4 02bb
000002e0: ec2e c7bc 8b26 8cbd d14a 73bb 5743 293d
000002f0: 3778 f23a 9c9f 9bbc 53a3 3a3b 680b e53b
00000300: 4bc5 7e39 1ea1 a33d 4aa9 903d d9ab 0fbd
00000310: c09a 89bc 7b18 f1ba 6788 21bd 4742 7e3c
00000320: d7dc dbbd 3a83 2c3a 06bd 913b a6ea ff3b
00000330: b1d5 07bb 440f 06bd 1dfd 513b c530 d53b
00000340: 177c 843a 1885 15bd daf1 63b8 9e73 12bd
00000350: aa3d 1c3d 4894 fcbc 62a1 763b 0ce2 9aba
00000360: cf7b 79bc c479 103c 6edf 54bb e366 083c
00000370: e57c f3bd 3ccb e63a 0760 4ebd 9b48 85bd
00000380: 4375 5b3c f8fe d23d 9928 763b 7bf9 e43a
00000390: 7623 fdbb 9b15 f63b 61cc 4e3a 4458 9fbc
000003a0: 2a2c 933c e043 d5bb a365 3e3b e7a5 19bc
000003b0: aca4 093c b9e6 33bb cd68 3abc e908 4fbc
000003c0: 20f4 9b39 8c1c 2dbd 462a a33d bcfb 22ba
000003d0: 3e92 14bc 474a a63b dc80 e63a b721 bb36
000003e0: 9757 813a c62b 30bc e17a d53b 5636 d0bb
000003f0: 3e47 503a adf9 e23c 0cf5 2b3d cc19 053a

network_body._body_endoder.seq_layers.0.bias f4 [128]
-0.0870728 0.032767233 -0.038474753 0.09127323 -0.030075308 -0.02812113 -0.018477703 -0.020797124
0.043403633 -0.029541202 0.015447913 -0.10604804 -0.0049559446 0.092931464 -0.03775274 0.018462468
-0.021492 -0.08973308 0.031275954 -0.030370692 -0.071526214 -0.11451898 0.04708833 -0.011224479
-0.029433403 -0.11336042 0.049475435 -0.07821393 -0.07202127 -0.021732153 0.031577058 -0.042245645
0.030133344 -0.064616196 -0.06800803 0.023390714 0.02397751 -0.035953432 -0.107153036 0.044064235
0.062262874 0.0020883142 -0.06446071 -0.0070822365 -0.0053258473 0.014386255 -0.015682224 0.011990175
0.04135335 -0.006122502 0.046312638 -0.03550349 -0.14193846 0.007009083 0.0032475006 -0.07481457
0.054665662 0.02421108 -0.11906514 -0.0044164327 -0.037631303 -0.05000317 -0.029480796 0.03232157
-0.013023651 0.044641927 -0.12466346 -0.11061306 -0.07922729 -0.10381247 0.028590593 -0.07953741
-0.12010994 -0.052414298 -0.05032723 -0.022878308 -0.025694681 0.08090083 -0.045876198 0.05624446
-0.04480528 -0.026803648 -0.008213712 -0.031715475 0.009454216 -0.12872182 -0.04171448 -0.0017568235
-0.097113006 -0.00302902 0.042035285 -0.0018925214 -0.05722323 0.028902054 -0.07129489 -0.091390766
0.020126471 -0.07829366 0.0055144443 -0.0343036 -0.06541099 -0.04987625 -0.05840461 -0.07690213
-0.022942312 0.06350902 -0.008656754 0.063315615 0.017319 -0.119605 0.026209563 0.06853279
0.005120858 -0.045719605 -0.065532945 0.07933764 0.123328894 0.04647715 -0.082129665 -0.1168064
0.09564546 0.06842919 -0.01038473 -0.062184576 -0.06035558 -0.009266411 -0.09347045 0.06393825
00000000: 3953 b2bd ef36 063d b497 1dbd 76ed ba3d
00000010: 7e60 f6bc 495e e6bc 8d5e 97bc bb5e aabc
00000020: 02c8 313d 6400 f2bc 3e19 7d3c b72f d9bd
00000030: 7a65 a2bb da52 be3d 9ea2 1abd 9a3e 973c
00000040: fe0f b0bc fac5 b7bd 371b 003d f5cb f8bc
00000050: 567c 92bd ed88 eabd b1df 403d e1e6 37bc
00000060: 521e f1bc 8229 e8bd c1a6 4a3d a02e a0bd
00000070: e37f 93bd a107 b2bc f256 013d c509 2dbd
00000080: 34da f63c 7f55 84bd cb47 8bbd e29d bf3c
00000090: 7c6c c43c e843 13bd 0d73 dbbd b37c 343d
000000a0: 5b07 7f3d 19dc 083b fa03 84bd 1b12 e8bb
000000b0: 7284 aebb 54b4 6b3c 0278 80bc 7072 443c
000000c0: 2162 293d 459f c8bb 52b2 3d3d 1c6c 11bd
000000d0: 5158 11be 73ac e53b 05d4 543b 6238 99bd
000000e0: 1ae9 5f3d 5156 c63c 6dd8 f3bd b9b7 90bb
000000f0: 4823 1abd 20d0 4cbd b681 f1bc 9f63 043d
00000100: 2761 55bc 74da 363d 8e4f ffbd 1a89 e2bd
00000110: eb41 a2bd a29b d4bd d236 ea3c 82e4 a2bd
00000120: 33fc f5bd 60b0 56bd ed23 4ebd 4a6b bbbc
00000130: a77d d2bc 56af a53d aee8 3bbd 9760 663d
00000140: be85 37bd 5393 dbbc ce92 06bc 16e8 01bd
00000150: dbe5 1a3c a7cf 03be cddc 2abd 3745 e6ba
00000160: 2fe3 c6bd 8682 46bb 312d 2c3d 7b0e f8ba
00000170: e862 6abd 00c4 ec3c 0e03 92bd 152b bbbd
00000180: 45e0 a43c 6d58 a0bd 83b2 b43b ef81 0cbd
00000190: 32f6 85bd 0a4b 4cbd ac39 6fbd dd7e 9dbd
000001a0: 84f1 bbbc 0411 823d 0fd5 0dbc 9eab 813d
000001b0: 93e0 8d3c 77f3 f4bd 70b5 d63c eb5a 8c3d
000001c0: dfcc a73b 7b44 3bbd 2336 86bd c67b a23d
000001d0: dc93 fc3d d35e 3e3d 9933 a8bd 3238 efbd
000001e0: c4e1 c33d 9a24 8c3d b724 2abc 41b5 7ebd
000001f0: 6a37 77bd 25d2 17bc 6f6d bfbd 0ff2 823d

network_body._body_endoder.seq_layers.0.weight f4 [128, 70]
0.08565964 -0.110848285 -0.012212339 0.15838662 0.058178548 0.12822062 -0.1246431 0.15215191
-0.13762951 0.33231285 -0.063560925 -0.14990853 0.10502276 0.043069284 -0.0024410947 0.3294034
-0.16620566 0.0868749 -0.25266007 0.36179024 -0.3386013 -0.057594806 0.022019299 -0.12588705
-0.10330396 -0.03953465 -0.2947906 -0.018386066 0.019219916 0.4826554 -0.45514303 0.13088994
0.016056985 -0.16474545 -0.32866868 0.08402181 -0.23557252 0.10009201 -0.21783607 0.08572838
-0.24251243 -0.18365064 -0.026846956 0.06839688 -0.25185198 0.014607712 -0.1520211 -0.27295434
0.09399632 0.033980653 -0.4307849 0.04595806 -0.06919469 -0.009056653 -0.4285964 0.02586494
-0.3668277 -0.0759428 0.19935723 -0.079088055 -0.28675008 -0.16232584 0.03173118 0.37047634
-0.17099236 0.26149493 -0.20710284 -0.13024136 -0.4562021 0.1971627 0.11687553 0.32811943
0.15060878 -0.14002725 -0.15475845 -0.088633865 0.27682877 0.19445945 -0.118954614 0.08716877
-0.07124466 -0.012930224 -0.1989817 0.16741718 0.06570992 -0.056473326 0.11973781 -0.03596534
-0.07973717 -0.14939973 0.062915586 -0.10220409 -0.057351448 0.24385476 0.043778807 0.32877937
0.08265298 0.000539401 -0.27584338 0.0875629 -0.029520528 0.02791528 -0.18748051 -0.1878647
-0.078507625 0.22824432 -0.371007 0.07275188 0.21729815 -0.022576008 -0.28959683 -0.22142608
0.069977134 0.015100403 -0.21267273 -0.19493642 0.12000271 0.0636518 0.080821656 0.0806412
-0.19227308 0.16970897 0.020859562 -0.08244557 -0.037985675 -0.21261068 0.046775054 -0.018824792
-0.00790434 -0.27367443 -0.03702514 0.15544705 -0.1717856 -0.0362612 -0.3511474 -0.032278813
0.16846557 -0.117438115 0.37325975 0.24358337 0.2544702 -0.044391636 0.007800104 -0.023022113
-0.12240322 0.381905 0.17257367 -0.052386772 -0.124957345 0.27410954 -0.08139808 -0.058342494
-0.04539614 -0.10942105 -0.05269605 0.35440412 -0.07969084 0.058632154 -0.35219216 0.39630958
-0.4279836 -0.09054414 0.005519196 0.09589961 -0.1458237 -0.06254953 0.07381162 -0.10761923
-0.094588704 -0.0837435 -0.26069468 0.20901534 0.1030438 -0.18247145 -0.2835867 0.06135133
-0.056986276 0.042656 -0.084929414 -0.00744718 -0.3689694 -0.038985223 -0.0016975524 0.4271608
-0.18360844 -0.4191112 -0.0002371176 -0.18129833 -0.120444745 -0.29515362 -0.7709286 0.0376003
-0.11046619 0.23235649 -0.08778913 -0.53519064 0.18823592 -0.2522185 -0.28588122 -0.22893648
-0.96274626 0.06681821 -0.084112875 0.18974054 -0.5466115 0.12801959 0.050836585 0.012011541
-0.34801048 -0.25586253 0.13978185 0.18692726 -0.12550433 0.104753934 0.13244268 -0.027256548
0.058160406 0.19537376 0.01603022 -0.030144922 -0.16139996 -0.14502497 0.026284108 0.2162173
-0.016031578 0.18280914 0.18231481 -0.09936911 0.20685157 0.12687771 -0.68268013 0.23131739
0.011603261 0.30550382 0.2329346 -0.19029336 0.0017220447 0.13187425 0.15024869 0.41626036
-0.48166403 0.24515633 0.04613248 0.025370715 -0.45425522 0.046984836 0.21225944 -0.25958827
0.013369079 0.13629022 -0.51477396 0.34833646 -0.26308143 0.07183292 -0.09931228 -0.20033446
00000000: 526e af3d 6d04 e3bd 4316 48bc 1a30 223e
00000010: a14c 6e3d 444c 033e e244 ffbd b6cd 1b3e
00000020: c0ee 0cbe e924 aa3e 3b2c 82bd 9f81 19be
00000030: 2c16 d73d 6b69 303d c6fa 1fbb 90a7 a83e
00000040: d131 2abe 78eb b13d a95c 81be 923c b93e
00000050: 265d adbe 88e8 6bbd d161 b43c 89e8 00be
00000060: 0791 d3bd 16ef 21bd cbee 96be 609e 96bc
00000070: 1673 9d3c 9c1e f73e 8208 e9be 0308 063e
00000080: f089 833c 08b3 28be 4347 a8be a013 ac3d
00000090: ec39 71be 0afd cc3d 6b10 5fbe 5c92 af3d
000000a0: 2e55 78be ea0e 3cbe 26ee dbbc aa13 8c3d
000000b0: bef2 80be 2f55 6f3c 6bab 1bbe acc0 8bbe
000000c0: 2581 c03d 4c2f 0b3d d78f dcbe 853e 3c3d
000000d0: f2b5 8dbd 5b62 14bc fd70 dbbe b6e2 d33c
000000e0: d7d0 bbbe e687 9bbd 4d24 4c3e ebf8 a1bd
000000f0: e8d0 92be bf38 26be 8ef8 013d 13af bd3e
00000100: 9f18 2fbe aae2 853e c412 54be fe5d 05be
00000110: 5293 e9be 05e5 493e 705c ef3d 45ff a73e
00000120: 3039 1a3e 4e63 0fbe 0079 1ebe ac85 b5bd
00000130: 80bc 8d3e 6120 473e 7a9e f3bd 8a85 b23d
00000140: b8e8 91bd 4ad9 53bc dcc1 4bbe 696f 2b3e
00000150: ec92 863d 9350 67bd 1939 f53d 6450 13bd
00000160: 3e4d a3bd 3efc 18be e3d9 803d 6150 d1bd
00000170: 5ae9 6abd 10b5 793e 6851 333d c555 a83e
00000180: f745 a93d 9766 0d3a 583b 8dbe 2d54 b33d
00000190: 09d5 f1bc 96ae e43c e4fa 3fbe 9b5f 40be
000001a0: 9bc8 a0bd e1b8 693e a1f4 bdbe f0fe 943d
000001b0: 6883 5e3e 52f1 b8bc 0946 94be 85bd 62be
000001c0: 2c50 8f3d ae67 773c e1c6 59be 6a9d 47be
000001d0: fbc3 f53d e05b 823d d385 a53d 3727 a53d
000001e0: 3ce3 44be 30c8 2d3e ace1 aa3c 39d9 a8bd
000001f0: de96 1bbd 9db6 59be 3397 3f3d 7336 9abc
00000200: 3481 01bc 0e1f 8cbe aca7 17bd 832d 1f3e
00000210: 90e8 2fbe a086 14bd 98c9 b3be ca36 04bd
00000220: 3d82 2c3e 6583 f0bd e71b bf3e eb6d 793e
00000230: eb49 823e 01d4 35bd 0498 ff3b df98 bcbc
00000240: 8aae fabd 0d89 c33e 27b7 303e 8393 56bd
00000250: a3e9 ffbd 1658 8c3e 09b4 a6bd 8af8 6ebd
00000260: 4ef1 39bd 2518 e0bd d0d7 57bd 7574 b53e
00000270: f334 a3bd 4528 703d 8852 b4be 17e9 ca3e
00000280: ab20 dbbe 356f b9bd 5fda b43b 0467 c43d
00000290: cf52 15be f819 80bd 8c2a 973d 7967 dcbd
000002a0: b9b7 c1bd b681 abbd c679 85be 1e08 563e
000002b0: a108 d33d ccd9 3abe 4732 91be 884b 7b3d
000002c0: 716a 69bd 0fb8 2e3d 79ef adbd 7907 f4bb
000002d0: 8fe9 bcbe f8ae 1fbd 6880 deba d2b4 da3e
000002e0: da03 3cbe be95 d6be c5a2 78b9 45a6 39be
000002f0: bcab f6bd 601e 97be 945b 45bf c602 1a3d
00000300: 193c e2bd dcee 6d3e caca b3bd 4102 09bf
00000310: ebc0 403e c922 81be 065f 92be 536e 6abe
00000320: 8a76 76bf fcd7 883d 5f43 acbd 584b 423e
00000330: bbee 0bbf 9117 033e 063a 503d 0ecc 443c
00000340: 6e2e b2be 6a00 83be f922 0f3e dc69 3f3e
00000350: 3584 00be 3b89 d63d 0e9f 073e 2049 dfbc
00000360: 9b39 6e3d 0f10 483e cf51 833c 7cf2 f6bc
00000370: 0846 25be 6d81 14be c551 d73c 1168 5d3e
00000380: a854 83bc 5232 3b3e bcb0 3a3e 0882 cbbd
00000390: e6d0 533e 3bec 013e 20c4 2ebf 77de 6c3e
000003a0: 9b1b 3e3c ff6a 9c3e 6886 6e3e 43dc 42be
000003b0: 3bb6 e13a 0b0a 073e cbda 193e 1420 d53e
000003c0: ab9c f6be 430a 7b3e 69f5 3c3d 3fd6 cf3c
000003d0: 2494 e8be 2c73 403d 8a5a 593e c1e8 84be
000003e0: fb09 5b3c aa8f 0b3e 3ac8 03bf 2859 b23e
000003f0: 9cb2 86be 231d 933d 3d64 cbbd 7a24 4dbe

network_body._body_endoder.seq_layers.2.bias f4 [128]
-0.01037052 -0.22527488 -0.091926545 -0.020334996 -0.07019702 -0.0499315 0.085568145 -0.03471763
-0.04926252 -0.121937715 -0.13395071 -0.10627821 -0.094850376 -0.017249545 -0.04035565 -0.01962046
-0.14536892 -0.17910649 -0.09249606 -0.06877974 -0.02860726 -0.093184486 -0.11501267 0.011158201
-0.105210036 0.03885774 0.04349617 -0.041558564 -0.024406347 -0.04334673 -0.13905942 -0.094308324
-0.15527947 -0.066917725 -0.14049186 0.07396693 -0.0023759103 -0.088661745 -0.08765761 -0.12943612
-0.06290797 -0.10679168 -0.10504558 0.03522949 0.013766187 -0.113343254 -0.11919594 0.08328437
-0.10349711 -0.06939138 0.0019866587 -0.04589545 -0.09054269 -0.13560484 -0.10266471 -0.19044794
-0.11580094 -0.13234083 -0.13211736 -0.097111985 -0.052364476 -0.13063493 -0.08940046 -0.12071912
0.016279368 -0.051759098 -0.041217957 0.005866391 -0.09004095 -0.102923244 -0.04813321 0.08572736
-0.04627042 -0.17304952 -0.03063732 -0.107524805 0.031152217 -0.11351542 -0.066970915 0.15747656
-0.0144181745 -0.108755685 -0.05912788 -0.12126832 -0.16829585 -0.09009907 -0.12989224 -0.017736215
-0.058060713 -0.113582775 -0.19364831 -0.17699875 -0.033250976 -0.12198418 -0.18418667 -0.026416155
-0.10679504 -0.11944125 -0.18537992 -0.0427726 -0.19883725 -0.0915208 0.009604249 -0.07910244
-0.1778058 -0.07074072 -0.0263693 -0.026100155 -0.17537712 0.03456006 -0.044161312 -0.16754125
-0.054524872 -0.15215743 -0.10198046 -0.105996355 -0.028874716 -0.12297659 0.018835094 -0.08250858
-0.20133585 -0.11018073 -0.046817858 -0.21388295 -0.01662899 -0.018438848 -0.040145308 -0.17736591
00000000: 1de9 29bc 75ae 66be fc43 bcbd 9495 a6bc
00000010: 75c3 8fbd f984 4cbd 5a3e af3d 1334 0ebd
00000020: 7fc7 49bd 7bba f9bd 602a 09be 64a8 d9bd
00000030: ea40 c2bd eb4e 8dbc f74b 25bd 16bb a0bc
00000040: 97db 14be b167 37be 936e bdbd 64dc 8cbd
00000050: c659 eabc 82d7 bebd c38b ebbd e3d0 363c
00000060: 5c78 d7bd 4b29 1f3d 0a29 323d 5039 2abd
00000070: d2ef c7bc 578c 31bd 9865 0ebe b924 c1bd
00000080: 9501 1fbe 290c 89bd 19dd 0fbe f97b 973d
00000090: 29b5 1bbb 4a94 b5bd d585 b3bd e78a 04be
000000a0: e5d5 80bd 99b5 dabd 2322 d7bd cc4c 103d
000000b0: 938b 613c 8220 e8bd 001d f4bd ff90 aa3d
000000c0: 4bf6 d3bd 111d 8ebd 9a32 023b defc 3bbd
000000d0: 726e b9bd ffdb 0abe e041 d2bd c904 43be
000000e0: 0b29 edbd 5b84 07be c649 07be a6e2 c6bd
000000f0: 227c 56bd 2ac5 05be 9717 b7bd 963b f7bd
00000100: 4f5c 853c 5901 54bd 29d4 28bd db3a c03b
00000110: 6467 b8bd 6cc9 d2bd 5427 45bd d391 af3d
00000120: 0d86 3dbd e533 31be 1efb fabc f735 dcbd
00000130: ef32 ff3c c67a e8bd 0c28 89bd 8941 213e
00000140: 353a 6cbc 4dbb debd 1330 72bd 865b f8bd
00000150: bf55 2cbe dc85 b8bd 7902 05be 8a4b 91bc
00000160: 12d1 6dbd 169e e8bd be4b 46be 293f 35be
00000170: 2d32 08bd d7d2 f9bd 6e9b 3cbe b166 d8bc
00000180: 5cb7 dabd 9d9d f4bd 3cd4 3dbe 5232 2fbd
00000190: fe9b 4bbe 426f bbbd 245b 1d3c 7600 a2bd
000001a0: b912 36be 83e0 90bd 6e04 d8bc fecf d5bc
000001b0: 0f96 33be d98e 0d3d 7ee2 34bd ef8f 2bbe
000001c0: 7955 5fbd 28cf 1bbe 22db d0bd 9e14 d9bd
000001d0: ab8a ecbc 27db fbbd 0e4c 9a3c 42fa a8bd
000001e0: fc2a 4ebe 6fa6 e1bd 15c4 3fbd 2204 5bbe
000001f0: 8539 88bc 110d 97bc 686f 24bd 699f 35be

network_body._body_endoder.seq_layers.2.weight f4 [128, 128]
0.16908485 0.11529453 0.06695072 -0.2508492 0.018386774 -0.032268487 0.17589 -0.28097335
-0.016323507 0.07243175 -0.2460806 -0.0782711 -0.055305388 0.443014 -0.009024011 0.22684713
-0.2085784 0.1655078 0.10486817 0.27697805 0.08149061 -0.1203214 0.00051388727 -0.58472794
-0.041588705 0.15879866 -0.30408671 0.3174332 0.09185205 -0.10793839 -0.08944867 -0.12833068
0.026064223 0.16839065 0.105221115 -0.6523998 0.09791195 -0.021335576 -0.11304684 -0.2928733
0.022150291 -0.19185762 0.18543625 0.0761643 -0.007857995 -0.1446029 -0.09775154 -0.023523074
0.17007403 0.0263396 0.03873081 -0.011057551 -0.061637573 0.010975841 0.00029008987 -0.025263822
-0.07761221 0.2869994 0.1161917 -0.16929074 -0.24361414 -0.007892578 -0.2238491 0.30527234
-0.20015763 -0.04377593 -0.022478705 0.1016947 0.06966691 0.23133168 0.021086937 -0.043847132
-0.011156782 0.18373221 0.19767787 0.1268931 0.18747228 0.026957408 0.07296441 -0.021186147
-0.009861597 -0.032643672 -0.01267006 0.0037103563 -0.18731074 -0.13788752 0.20651709 -0.17306034
0.06018329 -0.5085178 -0.17139675 0.17797257 -0.003605697 0.008908707 -0.028089924 -0.32713836
-0.27222 -0.16756907 -0.00443381 -0.06579486 -0.23364332 0.011871009 0.0127616655 -0.014904444
-0.12676384 -0.14082314 -0.052330386 -0.11343669 -0.14625107 0.089223795 -0.52103865 0.3305631
-0.12742463 -0.07541882 -0.2095451 -0.34517545 0.27937123 0.14092223 0.07338802 -0.1314968
0.11485033 -0.09465008 -0.15110497 0.02370295 0.031974263 0.050000105 -0.10714645 0.040169343
-0.031874556 0.05236575 0.09366067 0.06061668 0.08479764 0.3307514 0.08820843 -0.0009318879
-0.17684922 0.24211456 -0.16118722 0.2009763 -0.47725865 -0.14528337 0.0080829095 0.39191148
-0.01869387 -0.031541415 0.011935325 0.078568034 -0.045408856 -0.09765189 0.32369706 -0.12214298
0.27288425 -0.0035380488 -0.0349223 0.013039752 -0.0570665 -0.16698891 -0.24927586 0.098742306
0.061535474 -0.18293676 0.14539173 -0.25912634 0.21381585 -0.08711011 -0.09259265 0.15343483
-0.12351268 -0.23398282 -0.048452865 -0.066154644 -0.010034512 -0.14633028 0.20824288 -0.21625824
-0.51685554 0.05292235 0.13285878 -0.054519247 -0.032031447 0.015931848 0.20341602 0.044633336
-0.4491273 -0.20573142 -0.25751168 -0.23581351 -0.16145232 0.027821742 -0.17855178 0.15090741
-0.18820128 0.11504611 -0.11008992 -0.16587953 0.030207308 -0.162603 -0.14826418 -0.08529457
0.11818817 0.2442105 -0.16919899 -0.07999358 -0.028807731 -0.28573996 0.09419187 -0.053386644
0.09417798 0.065882415 0.14836113 -0.2359383 0.05318118 -0.020918088 -0.12344557 -0.27406737
-0.044287235 -0.2191926 -0.07539975 -0.052369494 -0.04688725 -0.06635863 0.16663706 -0.16487022
0.21346869 -0.12623195 0.08238989 0.15118791 0.1777988 0.14567244 -0.022562046 -0.01896606
0.3622072 -0.059118096 -0.26907915 -0.13217959 -0.08335675 -0.28472158 0.18108408 0.19941287
0.3072346 -0.02718628 0.06236895 -0.40460736 0.08030268 0.27337414 -0.06861629 -0.034857538
0.40612832 -0.036438946 0.036151253 -0.24087319 -0.022647064 0.2768231 0.18032615 0.081051834
00000000: 9424 2d3e 8a1f ec3d 761d 893d 4e6f 80be
00000010: dc9f 963c f62b 04bd 821c 343e bddb 8fbe
00000020: e0b8 85bc 1957 943d 8efc 7bbe 994c a0bd
00000030: e787 62bd bbd2 e23e 72d9 13bc 9d4a 683e
00000040: 9395 55be e07a 293e 20c5 d63d 11d0 8d3e
00000050: 8de4 a63d 116b f6bd 64b6 063a bbb0 15bf
00000060: eb58 2abd 1e9c 223e 41b1 9bbe 9b86 a23e
00000070: ed1c bc3d cd0e ddbd dd30 b7bd 1e69 03be
00000080: a384 d53c 996e 2c3e 2b7e d73d ac03 27bf
00000090: 0f86 c83d f2c7 aebc 1a85 e7bd 7df3 95be
000000a0: 8774 b53c 5376 44be 00e3 3d3e 07fc 9b3d
000000b0: d2be 00bc c812 14be f631 c8bd 76b3 c0bc
000000c0: e327 2e3e 25c6 d73c 33a4 1e3d bb2a 35bc
000000d0: ae77 7cbd 04d4 333c 3417 9839 13f6 cebc
000000e0: 26f3 9ebd 96f1 923e eaf5 ed3d 8d5a 2dbe
000000f0: fc75 79be df4f 01bc b338 65be a84c 9c3e
00000100: 1ff6 4cbe 644e 33bd 4325 b8bc 5045 d03d
00000110: 86ad 8e3d 36e2 6c3e 83be ac3c 0d99 33bd
00000120: efca 36bc 4c24 3c3e 116c 4a3e 44f0 013e
00000130: bcf8 3f3e c8d5 dc3c 5d6e 953d 928e adbc
00000140: 8992 21bc 5fb5 05bd 1596 4fbc 7329 733b
00000150: 63ce 3fbe 6332 0dbe 3779 533e bb36 31be
00000160: c182 763d 392e 02bf a182 2fbe 713e 363e
00000170: 8f4d 6cbb d3f5 113c d71c e6bc ae7e a7be
00000180: 6b60 8bbe 3a97 2bbe 7e49 91bb 75bf 86bd
00000190: 3240 6fbe 9f7e 423c 4e16 513c c531 74bc
000001a0: 61ce 01be f133 10be 6358 56bd 7f51 e8bd
000001b0: d7c2 15be f7ba b63d ca62 05bf 913f a93e
000001c0: 9a7b 02be 2f75 9abd fe92 56be d6ba b0be
000001d0: bf09 8f3e eb4d 103e 754c 963d 19a7 06be
000001e0: a636 eb3d e7d7 c1bd 43bb 1abe b02c c23c
000001f0: 72f7 023d e9cc 4c3d 996f dbbd 9c88 243d
00000200: e58e 02bd 787d 563d 2ad1 bf3d 3249 783d
00000210: 63aa ad3d 3f58 a93e 9fa6 b43d f049 74ba
00000220: f617 35be e1ec 773e 430e 25be bbcc 4d3e
00000230: 3f5b f4be 2ac5 14be 2e6e 043c 9fa8 c83e
00000240: e323 99bc 9231 01bd 628c 433c 47e8 a03d
00000250: a3fe 39bd b7fd c7bd 9fbb a53e 1926 fabd
00000260: 7cb7 8b3e 9cde 67bb b00a 0fbd afa4 553c
00000270: 90be 69bd 24ff 2abe 2c42 7fbe 6839 ca3d
00000280: 9f0c 7c3d c653 3bbe 92e1 143e 35ac 84be
00000290: 8bf2 5a3e c966 b2bd 37a1 bdbd 051e 1d3e
000002a0: 37f4 fcbd 3199 6fbe 8376 46bd 167c 87bd
000002b0: cb67 24bc 9bd7 15be 9f3d 553e cd72 5dbe
000002c0: a550 04bf 1bc5 583d 220c 083e 934f 5fbd
000002d0: 6833 03bd 8283 823c 4a4c 503e 72d1 363d
000002e0: 03f4 e5be 42ab 52be 92d8 83be 1979 71be
000002f0: c253 25be 6cea e33c 47d6 36be 7987 1a3e
00000300: d6b7 40be 4b9d eb3d d376 e1bd 53dc 29be
00000310: 5175 f73c 6781 26be 91d2 17be ebae aebd
00000320: a40c f23d 5112 7a3e 8042 2dbe add3 a3bd
00000330: 31fe ebbc 824c 92be abe7 c03d f4ab 5abd
00000340: 63e0 c03d 5ced 863d fbeb 173e cf99 71be
00000350: 82d4 593d 695c abbc 08d1 fcbd 8f52 8cbe
00000360: 8866 35bd 0674 60be 2f6b 9abd 6581 56bd
00000370: d80c 40bd 09e7 87bd e8a2 2a3e bdd3 28be
00000380: 8997 5a3e f342 01be 08bc a83d 01d1 1a3e
00000390: e310 363e 282b 153e 0ad4 b8bc b65e 9bbc
000003a0: 3973 b93e d125 72bd bec4 89be 165a 07be
000003b0: f2b6 aabd 07c7 91be 1b6e 393e e332 4c3e
000003c0: da4d 9d3e c3b5 debc 9676 7f3d b228 cfbe
000003d0: bb75 a43d b2f7 8b3e b386 8cbd c7c6 0ebd
000003e0: 0df0 cf3e 0141 15bd 5613 143d 76a7 76be
000003f0: 5686 b9bc c2bb 8d3e 6ba7 383e 81fe a53d

network_body._body_endoder.seq_layers.4.bias f4 [128]
-0.07834882 -0.01453681 -0.13067064 -0.2772159 -0.124715365 -0.18880361 -0.0063851406 -0.07663243
-0.12782636 0.023002608 -0.058323212 -0.029646749 -0.15280549 -0.2811668 -0.10856494 -0.035394
-0.16545868 -0.107840315 0.0025825738 -0.1481607 -0.2774456 -0.1257395 -0.10240564 -0.05314198
-0.10611664 -0.07276013 -0.2317614 -0.14709441 -0.025049979 -0.12080547 -0.0068189884 -0.058343343
-0.004260988 -0.082546555 -0.22521101 -0.081386805 -0.077422954 -0.048073664 -0.18778859 -0.085461974
-0.20255114 -0.015212603 -0.14685301 -0.085026756 -0.120984875 0.100413136 0.04225999 -0.102287605
-0.112333015 -0.047896165 0.0680554 -0.096071 -0.056322753 -0.21666074 -0.06688112 -0.070430085
-0.050932907 -0.049139436 0.0023356958 -0.003656764 -0.07415282 -0.14951189 -0.050471634 -0.033372566
-0.02527318 -0.19179037 -0.14177525 -0.10871086 -0.10545306 -0.073764145 -0.06383427 -0.29209822
-0.024484394 -0.010595193 -0.013368889 -0.046973556 -0.07133816 -0.24415904 -0.045277625 -0.023752695
-0.023142984 -0.055442825 -0.0069758706 -0.07227645 -0.13377702 -0.03217958 -0.04442832 -0.030481609
-0.0219796 -0.098460436 -0.034086704 -0.022201927 -0.07762165 -0.051442668 -0.08972234 0.033679537
-0.06117063 -0.11994889 -0.06506053 -0.018834172 -0.10645051 -0.14671321 -0.05971395 -0.046316408
-0.1657231 -0.09737106 -0.036360744 -0.14628738 -0.01748625 -0.10857374 -0.074509755 -0.025228037
-0.03564833 -0.14343728 -0.16125888 -0.065515734 -0.19356333 -0.022406708 -0.08666823 -0.05910953
-0.045514558 -0.11362786 -0.033841204 -0.08259304 -0.059099242 -0.17748849 -0.19712543 -0.050644156
00000000: 5975 a0bd cd2b 6ebc 86ce 05be 3eef 8dbe
00000010: c56a ffbd bc55 41be 713a d1bb 77f1 9cbd
00000020: eae4 02be f76f bc3c 52e4 6ebd bddd f2bc
00000030: 0b79 1cbe 18f5 8fbe 4c57 debd 4df9 10bd
00000040: 006e 29be 62db dcbd 6640 293b 70b7 17be
00000050: 5a0d 8ebe dbc1 00be 0cba d1bd 68ab 59bd
00000060: ae53 d9bd 4303 95bd dc52 6dbe eb9f 16be
00000070: 9d35 cdbc dc68 f7bd d271 dfbb 6ef9 6ebd
00000080: c29f 8bbb 2b0e a9bd b79d 66be 20ae a6bd
00000090: ed8f 9ebd e4e8 44bd a74b 40be b006 afbd
000000a0: 9169 4fbe 483e 79bc a360 16be 8222 aebd
000000b0: ebc6 f7bd 67a5 cd3d d018 2d3d 2a7c d1bd
000000c0: da0e e6bd c52e 44bd a160 8b3d dfc0 c4bd
000000d0: b0b2 66bd 50dc 5dbe f8f8 88bd a63d 90bd
000000e0: 069f 50bd 6f46 49bd 7912 193b 52a6 6fbb
000000f0: 6fdd 97bd a519 19be 58bb 4ebd acb1 08bd
00000100: b309 cfbc b264 44be 882d 11be cda3 debd
00000110: c6f7 d7bd a811 97bd 8bbb 82bd e68d 95be
00000120: 7f93 c8bc 7697 2dbc 2f09 5bbc 5867 40bd
00000130: be19 92bd d404 7abe 0875 39bd 0395 c2bc
00000140: 5b96 bdbc 0418 63bd d895 e4bb ad05 94bd
00000150: d8fc 08be bcce 03bd 78fa 35bd 91b4 f9bc
00000160: 900e b4bc a0a5 c9bd 809e 0bbd d1e0 b5bc
00000170: 1af8 9ebd 8cb5 52bd 59c0 b7bd 8ef3 093d
00000180: 0e8e 7abd c3a7 f5bd 753e 85bd 1f4a 9abc
00000190: ba02 dabd fd3b 16be 9d96 74bd 46b6 3dbd
000001a0: 51b3 29be 7a6a c7bd 01ef 14bd 5ccc 15be
000001b0: 533f 8fbc e95b debd 9298 98bd 07ab cebc
000001c0: fc03 12bd 39e1 12be 0c21 25be 1d2d 86bd
000001d0: 7735 46be 468e b7bc 1d7f b1bd d61c 72bd
000001e0: 796d 3abd b9b5 e8bd 139d 0abd 8a26 a9bd
000001f0: 0c12 72bd 8bbf 35be 40db 49be 3f70 4fbd

network_body._body_endoder.seq_layers.4.weight f4 [128, 128]
-0.19266722 0.1238577 0.030775374 -0.0152672455 0.017865902 -0.3413232 0.33612522 -0.15629408
0.06847851 -0.17724614 -0.08019603 0.08387141 -0.1894401 0.0033680375 -0.361027 -0.1425971
-0.22776833 0.069722414 0.21718019 0.07836455 -0.21799065 0.066277534 0.06448053 0.05612966
0.028801668 -0.26136777 0.15898384 0.10774281 0.05901525 -0.21793053 0.04998217 -0.03849349
-0.21093431 0.0033139393 0.0084997695 -0.1826224 -0.0007109164 -0.07053154 0.18809666 0.014008281
-0.10208923 0.25204787 -0.052066535 -0.09917562 0.0703563 -0.1642021 0.031074354 -0.33946055
-0.30786386 -0.027893351 0.038302157 0.2163135 -0.08877272 0.0038136863 -0.07853559 -0.06139311
-0.16295858 -0.014884121 -0.2615141 0.034192204 0.2954415 0.0046715993 0.028876426 -0.12849206
0.20031574 -0.035439953 -0.11978363 -0.1890582 0.05678994 -0.027302226 -0.11314243 0.27392226
-0.095175065 0.055278208 0.046253063 -0.09597588 0.20318279 -0.1224907 0.042931832 -0.11757403
0.04087487 0.15491566 0.00764145 0.15346098 0.09943415 0.110683315 0.12710236 0.06954958
0.14384463 0.009559204 -0.10603589 0.05477918 0.014182079 -0.07552077 0.16376022 -0.13441971
-0.16133964 -0.19160944 0.18493001 -0.05806966 -0.11327515 0.18867876 -0.3867186 0.091812484
-0.09247465 0.18929735 0.050099023 0.01139664 0.06376742 0.016495608 -0.02142542 -0.14770778
0.17065528 -0.08300141 -0.07792419 -0.07811076 -0.2502279 -0.08968712 -0.06662956 -0.07710588
-0.0038926874 0.29333895 -0.13979259 -0.14338037 -0.0675362 -0.1335432 -0.04628476 -0.008814795
0.04139407 0.106768884 -0.047370117 -0.08285681 -0.0032077879 0.0667322 0.02256833 0.047758825
0.19739223 -0.08955302 -0.026425488 -0.15281306 0.038647972 -0.082093865 -0.004464645 0.033385485
0.00703726 0.04150366 -0.044129327 -0.06267305 0.038726524 0.012627963 0.06711435 -0.019690782
-0.032944847 -0.049842656 0.06196051 0.058513135 -0.07978071 -0.07220977 0.039247736 -0.005502295
-0.02414971 -0.01219837 0.0052182092 -0.01814581 0.039038487 -0.028437778 -0.04903993 -0.037608292
-0.005947855 0.13266961 0.04776561 -0.0070608244 -0.101118945 -0.017032295 0.10548104 -0.06518307
0.09731762 0.042112023 0.10069141 -0.054123893 0.06318326 -0.08370061 0.0701647 -0.12366001
-0.08366372 -0.11325378 -0.07814978 -0.09702454 -0.010106755 0.02107378 0.040919352 -0.001343763
-0.13966385 0.062477637 0.085461095 0.0026978236 0.008065647 -0.06785902 -0.028380657 -0.0021032342
0.033115625 0.06249047 0.042273145 0.013710607 -0.07577077 -0.04830339 0.06343832 0.047933944
0.013518067 0.032509346 -0.03609582 -0.03304997 0.04072666 0.078580864 -0.03473903 0.03794661
-0.019458937 -0.030327316 0.053701233 0.026115332 0.07297658 -0.104880124 0.1436222 0.029579563
0.0065682027 -0.039729252 -0.096218094 0.1099779 0.032989386 0.012082066 0.077670194 0.04783781
-0.06344676 0.0715539 -0.052220672 0.04397124 0.13824502 -0.18222149 -0.010226556 -0.17986082
0.16253166 -0.011422141 0.07233827 0.14489931 -0.043316685 0.07000205 -0.023735616 -0.12950167
-0.14660841 -0.13523474 -0.03848021 -0.09215681 -0.019969326 0.023705201 0.0062188716 -0.06762656
00000000: 8e4a 45be 1ba9 fd3d a31c fc3c 7823 7abc
00000010: 835b 923c eac1 aebe 9b18 ac3e 8e0b 20be
00000020: 763e 8c3d 0380 35be d13d a4bd c6c4 ab3d
00000030: 96fc 41be 4bba 5c3b 88d8 b8be f904 12be
00000040: 1a3c 69be a0ca 8e3d 7c64 5e3e 987d a03d
00000050: f138 5fbe 84bc 873d 5e0e 843d 37e8 653d
00000060: 7af1 eb3c ffd1 85be a9cc 223e 43a8 dc3d
00000070: fab9 713d 2e29 5fbe 1bba 4c3d 5aab 1dbd
00000080: 2aff 57be ad2e 593b 9e42 0b3c 5e01 3bbe
00000090: cb5c 3aba d772 90bd 699c 403e fd82 653c
000000a0: 2914 d1bd 6b0c 813e b843 55bd 961c cbbd
000000b0: f716 903d 9824 28be a58f fe3c c6cd adbe
000000c0: 55a0 9dbe 9980 e4bc b9e2 1c3d 4981 5d3e
000000d0: 79ce b5bd 0aef 793b 44d7 a0bd 5777 7bbd
000000e0: 9dde 26be 87dc 73bc 2de5 85be 200d 0c3d
000000f0: 1c44 973e 3714 993b 418e ec3c 6c93 03be
00000100: 921f 4d3e 7c29 11bd 1f51 f5bd 7998 41be
00000110: 919c 683d eba8 dfbc 38b7 e7bd 8a3f 8c3e
00000120: 25eb c2bd 676b 623d da73 3d3d 018f c4bd
00000130: 260f 503e 67dc fabd 4ad9 2f3d a7ca f0bd
00000140: 686c 273d 36a2 1e3e 2165 fa3b e024 1d3e
00000150: 22a4 cb3d efad e23d 1f27 023e 0370 8e3d
00000160: 024c 133e 359e 1c3c 5829 d9bd 2260 603d
00000170: f35b 683c a2aa 9abd c2b0 273e 52a5 09be
00000180: 3836 25be 4435 44be 4b5e 3d3e 74da 6dbd
00000190: cdfc e7bd 0135 413e fbff c5be 2f08 bc3d
000001a0: 5963 bdbd 2ad7 413e a234 4d3d f9b8 3a3c
000001b0: 7e98 823d cc21 873c 5d84 afbc b540 17be
000001c0: 42c0 2e3e a5fc a9bd b896 9fbd 89f8 9fbd
000001d0: df1d 80be e1ad b7bd 1475 88bd b0e9 9dbd
000001e0: 751c 7fbb 8630 963e ca25 0fbe 4ed2 12be
000001f0: 6b50 8abd 8cbf 08be 1795 3dbd ee6b 10bc
00000200: d48c 293d a5a9 da3d 2b07 42bd d5b0 a9bd
00000210: c039 52bb e4aa 883d 38e1 b83c c29e 433d
00000220: 3021 4a3e 9367 b7bd 447a d8bc 077b 1cbe
00000230: 564d 1e3d d420 a8bd 284c 92bb 38bf 083d
00000240: d198 e63b beff 293d f4c0 34bd ba5a 80bd
00000250: b49f 1e3d 84e5 4e3c 4073 893d 904e a1bc
00000260: 2df1 06bd d027 4cbd 4eca 7d3d 78ab 6f3d
00000270: 1264 a3bd b7e2 93bd 3cc2 203d 994c b4bb
00000280: 9dd5 c5bc acdb 47bc 83fd aa3b 86a6 94bc
00000290: d2e6 1f3d 58f6 e8bc 18de 48bd 270b 1abd
000002a0: 39e6 c2bb 8bda 073e dfa5 433d 7d5e e7bb
000002b0: 7317 cfbd 5087 8bbc 7206 d83d b47e 85bd
000002c0: 764e c73d a87d 2c3d 4c37 ce3d 04b1 5dbd
000002d0: 3a66 813d 3a6b abbd 83b2 8f3d 7641 fdbd
000002e0: e257 abbd 99f1 e7bd fe0c a0bd cdb4 c6bd
000002f0: ce96 25bc eba2 ac3c 0d9b 273d 3421 b0ba
00000300: 0a04 0fbe 8de8 7f3d 3a06 af3d f8cd 303b
00000310: c725 043c abf9 8abd 8d7e e8bc 6ad6 09bb
00000320: 40a4 073d 02f6 7f3d 9b26 2d3d 74a2 603c
00000330: b52d 9bbd c7d9 45bd f3eb 813d 6256 443d
00000340: e27a 5d3c 8528 053d 36d9 13bd 685f 07bd
00000350: 00d1 263d 01ef a03d 834a 0ebd e86d 1b3d
00000360: 5968 9fbc fe70 f8bc d3f5 5b3d d2ef d53c
00000370: bf74 953d 64cb d6bd b311 133e d750 f23c
00000380: 143a d73b 24bb 22bd fe0d c5bd 183c e13d
00000390: e11f 073d dcf3 453c 8d11 9f3d 94f1 433d
000003a0: 60f0 81bd da8a 923d 58e5 55bd 301b 343d
000003b0: 1a90 0d3e 4598 3abe 498d 27bc 6f2d 38be
000003c0: b36e 263e ef23 3bbc 1626 943d 7c60 143e
000003d0: d66c 31bd 3c5d 8f3d 3271 c2bc 169c 04be
000003e0: 8420 16be fa7a 0abe 6d9d 1dbd b6bc bcbd
000003f0: b696 a3bc 6931 c23c adc7 cb3b cb7f 8abd
