Maize-Runner/results/TestRightExit6/EscapeMaze.onnx (onnx, 172175 bytes, 9 tensors)

action_model._continuous_distribution.log_sigma f4 [1, 2]
0	0xbe0ec864	-0.1394363
1	0xbe088f9c	-0.13336033

action_model._continuous_distribution.mu.bias f4 [2]
0	0xba364223	-0.0006952604
1	0x3ba4ecd3	0.0050331145

action_model._continuous_distribution.mu.weight f4 [2, 128]
0	0x3c10144e	0.0087939035
1	0x3b0cb3dc	0.002146951
2	0x3c6eff09	0.014587172
3	0x3c454ff2	0.012042986
4	0xbd5c23cd	-0.05374508
5	0x3ae1de2c	0.001723235
6	0x3b97076e	0.00460904
7	0xbcda0b5c	-0.026616745
8	0x3d140180	0.036134243
9	0xbaeb667f	-0.0017959623
10	0x398097ee	0.0002452726
11	0xbb1059c9	-0.0022026172
12	0x3ce656d1	0.02811757
13	0xbb7163c2	-0.0036833142
14	0xbac08af7	-0.0014689852
15	0x3b4e4927	0.0031476708
16	0x3c0f45f8	0.008744709
17	0x391ae835	0.00014773088
18	0x3b1f8f4a	0.0024346882
19	0x3bb13206	0.0054075746
20	0xbb84a86c	-0.0040483978
21	0x3bf03a45	0.007331165
22	0xbc0db28b	-0.008648525
23	0x39c3d028	0.00037348387
24	0xb971a0c3	-0.0002304344
25	0x3b5dbf7f	0.0033836064
26	0x3ac15373	0.0014749601
27	0x3c1d4f73	0.009601462
28	0x3aecf61f	0.0018078721
29	0x3b6cb7b3	0.0036120235
30	0x3a820d97	0.0009922263
31	0x3c6df334	0.014523316
32	0x3c43325b	0.011913861
33	0x3a1726f9	0.0005766
34	0x3c89fee6	0.016845178
35	0x3c12e4ed	0.008965713
36	0x3c14a701	0.00907302
37	0xbd2de4b6	-0.042454444
38	0x3b686099	0.0035457967
39	0x3bc26b14	0.005933175
40	0xbba608e2	-0.005066977
41	0xbb1bae9b	-0.0023755196
42	0xba6bc150	-0.00089933444
43	0x3b5cd0ed	0.0033693865
44	0xbab865f4	-0.001406847
45	0x3bd08690	0.0063636974
46	0x3c0770c9	0.008266636
47	0x3c25a543	0.010110202
48	0x3c57b3fe	0.013165472
49	0xbb49bd74	-0.003078309
50	0xbbbdaef2	-0.0057886774
51	0x3c8fb512	0.017542396
52	0xba9c3312	-0.0011917076
53	0x3c39f8be	0.011350809
54	0x39f19524	0.0004607822
55	0x3c16c24e	0.009201599
56	0x3c9a8a8c	0.018864892
57	0x3d15a727	0.036536362
58	0x3c09a6c0	0.008401573
59	0x3d579542	0.052632578
60	0xbadace45	-0.0016693553
61	0xbb632c3d	-0.003466382
62	0xba13466e	-0.00056181
63	0xbb196cf1	-0.0023410881
64	0x3b501449	0.0031750372
65	0xbb934fa9	-0.00449558
66	0x3b89355c	0.004187269
67	0x3b06c0f3	0.0020561784
68	0x39d6021c	0.00040818832
69	0x3b53864d	0.0032276094
70	0x3b0cece5	0.0021503505
71	0xbbbdda83	-0.005793871
72	0xbccc6a9a	-0.024953175
73	0x3b2aba18	0.0026050862
74	0xbb863238	-0.004095342
75	0x3b064ca4	0.0020492459
76	0x3b88de06	0.004176858
77	0x3c289de8	0.010291554
78	0x3ca5d9ca	0.020245451
79	0x3bcbce8d	0.006219691
80	0x3b461f4b	0.0030231054
81	0x3ad961ff	0.0016584991
82	0xbca43de7	-0.020049049
83	0x3c16a7a5	0.009195243
84	0xbbb203b0	-0.0054325685
85	0xbb7ed383	-0.0038883395
86	0x3bf63c17	0.0075144875
87	0xba30603e	-0.00067282084
88	0xbce2ac97	-0.027670188
89	0x3c2d13cd	0.010563803
90	0x3aecd9bb	0.001807026
91	0x3b37a5ad	0.0028022334
92	0xbb899caf	-0.0041995863
93	0xbc544d83	-0.012957933
94	0x3bcad79f	0.006190255
95	0x3a3676a5	0.00069604284
96	0xbd20b679	-0.03923652
97	0x3b2b5230	0.0026141517
98	0x3b4f0e18	0.0031594094
99	0x3b37b1bb	0.002802952
100	0x3c809da6	0.015700173
101	0x3ae2f971	0.0017316771
102	0xba81a6b6	-0.0009891603
103	0xba48cce3	-0.0007659925
104	0x3af5fb30	0.0018766876
105	0xb95656a7	-0.00020440911
106	0xb636cb53	-2.7238464e-06
107	0x3c5c9167	0.013462401
108	0x3bbcaaff	0.005757689
109	0xbb29d9e7	-0.0025917233
110	0xbb1e5ebd	-0.0024165355
111	0x3ca7e7ec	0.020496331
112	0x3bf18d41	0.007371575
113	0x3b87bb23	0.0041421815
114	0xbc011407	-0.00787831
115	0xba0fe75f	-0.0005489494
116	0xbb5437cf	-0.0032381897
117	0xba8133bf	-0.000985734
118	0x3bb2bca7	0.005454618
119	0x3c355643	0.01106793
120	0x3ac005f7	0.0014650215
121	0x3b8740c4	0.0041275937
122	0xbbd94c8d	-0.00663144
123	0xb9eb7ea2	-0.00044917042
124	0xba7e1d2d	-0.00096936786
125	0x3b956f4c	0.0045603868
126	0x3bb31239	0.005464819
127	0xbb002d44	-0.001955823
128	0xbc9f594a	-0.019451756
129	0x3a4f1422	0.00078994234
130	0xbc4dadb5	-0.012553622
131	0xbbcaf10e	-0.0061932867
132	0x3ca6c7b9	0.020358907
133	0xb9f0851c	-0.0004587554
134	0x3be835c9	0.00708649
135	0x3c3cafd3	0.011516529
136	0x3d8f82ab	0.07007345
137	0x3b24c366	0.002514088
138	0xbab09305	-0.001347155
139	0xb9978880	-0.00028902665
140	0xbc38375b	-0.0112436665
141	0xbac7f625	-0.0015255852
142	0xbb1b3019	-0.0023679791
143	0xba7a6af6	-0.00095526816
144	0xbbb0d865	-0.00539689
145	0x3c48feca	0.012267778
146	0xbb934262	-0.0044939974
147	0x3c4aa8e4	0.012369368
148	0xbae177a5	-0.0017201795
149	0xbb8ac957	-0.0042354274
150	0xba3f1fe1	-0.0007290822
151	0xbbc67272	-0.0060561234
152	0xbbf70638	-0.007538583
153	0x3c19c100	0.009384394
154	0x3baf7b81	0.005355299
155	0xbc9a9a0c	-0.018872283
156	0xba7ce217	-0.0009646727
157	0x3b3e0ab4	0.0028998079
158	0xbc46e73b	-0.012140091
159	0xbc5e2de7	-0.013560749
160	0xbb984ddd	-0.004647954
161	0xbb3b4c44	-0.0028579393
162	0xbc6b24e4	-0.014352057
163	0xbcd93e8f	-0.026519088
164	0x3b429e55	0.0029696424
165	0x3bb47fc7	0.0055083963
166	0x3a5c92f6	0.0008414233
167	0x3c043cc4	0.008071128
168	0xbbcbad8d	-0.006215757
169	0x3a26c717	0.0006362064
170	0xbbe064aa	-0.0068479376
171	0x3b93431d	0.0044940845
172	0xba1657fb	-0.0005735156
173	0xba8d353b	-0.001077331
174	0x3b518cce	0.0031974795
175	0xbc561608	-0.013066776
176	0xbc2d7f52	-0.010589438
177	0xbb12434a	-0.002231794
178	0x3acfebc9	0.0015863116
179	0xbc859b61	-0.016309442
180	0x3c450de0	0.012027234
181	0xbc7d9da8	-0.015479483
182	0x3b98350f	0.004644997
183	0xbc9ffefb	-0.019530764
184	0xbcc04731	-0.023471447
185	0xbd11e15a	-0.035615303
186	0xbc8d0e1e	-0.017218646
187	0xbc8f4a1c	-0.017491393
188	0x3a013b8c	0.00049298326
189	0x3b992998	0.004674148
190	0x3bbe0ab4	0.0057996158
191	0xba7ed3fd	-0.000972092
192	0x3b8f2ee2	0.0043696025
193	0xbcf0e70c	-0.029407047
194	0xbbb149a6	-0.005410391
195	0xbc820cc5	-0.01587523
196	0x3b2407a4	0.0025028968
197	0xbb66df23	-0.0035228215
198	0x3a2ff469	0.000671214
199	0x3b8e34ef	0.0043398063
200	0x3ca387ee	0.019962277
201	0xbc297a14	-0.010344047
202	0xbac0ba5d	-0.0014703978
203	0x3bacb7a4	0.005270915
204	0xbc939c32	-0.018018816
205	0x3b060162	0.0020447602
206	0xbc85068f	-0.016238479
207	0xbcba5f3d	-0.022750491
208	0xbae9f8a3	-0.0017850589
209	0xbc1b8272	-0.00949155
210	0x3c171c47	0.00922305
211	0xb96d33c4	-0.00022621365
212	0x3b887252	0.0041640187
213	0xbb35b663	-0.002772712
214	0xbcd23892	-0.02566174
215	0x3b32cdf5	0.0027283404
216	0xbc8e7e56	-0.017394226
217	0xbcf24a71	-0.029576512
218	0x3cacbcaf	0.021086065
219	0x38b2288b	8.495253e-05
220	0xba892a6c	-0.0010464913
221	0xbbb0aa05	-0.0053913617
222	0xba819cad	-0.0009888612
223	0xbadbb067	-0.0016760946
224	0xbc37aa8f	-0.011210098
225	0xbc3754ba	-0.011189634
226	0xba0d8691	-0.0005398775
227	0xbc2107da	-0.009828532
228	0xba3030ea	-0.0006721156
229	0xbb810ade	-0.003938063
230	0x39865791	0.00025623714
231	0x3a9ff82e	0.0012204701
232	0xba96f526	-0.0011517152
233	0xbacc2e27	-0.0015577719
234	0x3b831908	0.0040007867
235	0xbcaaa888	-0.020832315
236	0xbc59e9c0	-0.013300359
237	0x3c1af293	0.009457248
238	0xba448e30	-0.0007497994
239	0xbc521ea3	-0.012824687
240	0xbca12996	-0.01967315
241	0x3bb4fbc6	0.005523178
242	0xbba147e7	-0.0049219015
243	0x3c5ce93f	0.013483345
244	0xbc22a897	-0.00992789
245	0xbbb42402	-0.0054974565
246	0x3b083b2a	0.0020787218
247	0xbb20ceb1	-0.002453726
248	0x39e0217e	0.00042749563
249	0xbb573245	-0.003283636
250	0x3b51e58a	0.0032027685
251	0x3af60540	0.0018769875
252	0x3b4c640a	0.0031187558
253	0xbbc35382	-0.0059608826
254	0x3b889c4c	0.0041690227
255	0xbb22b4b7	-0.0024826953

network_body._body_endoder.seq_layers.0.bias f4 [128]
0	0xbc6bd37e	-0.014393685
1	0xb967bc79	-0.00022100088
2	0xbb099762	-0.0020994772
3	0xbc762d96	-0.015025517
4	0xbc3ea6d9	-0.011636459
5	0x3d259235	0.040422637
6	0xbcb7d6da	-0.022441316
7	0x39f42a13	0.00046570654
8	0xbc11ea59	-0.0089059705
9	0xbb5f6d97	-0.003409242
10	0x3c7802e5	0.015137409
11	0x3c916087	0.017746223
12	0x3d0a65c8	0.033788472
13	0x3c85925b	0.01630514
14	0x3a082f77	0.0005195061
15	0x3b400a9d	0.00293032
16	0x3c4a8a82	0.012362124
17	0x3c50d4f9	0.012746089
18	0xbb061435	-0.0020458822
19	0xbc85d60c	-0.016337417
20	0xbcd3eb13	-0.025868928
21	0xbc2b367f	-0.010450005
22	0x3cdd7922	0.0270353
23	0xbb8918c5	-0.004183861
24	0xbcf92401	-0.030412676
25	0xbc08a3ee	-0.008339865
26	0xbd49a865	-0.04923286
27	0xbc8210f6	-0.015877228
28	0x3c1ad75f	0.0094507625
29	0x3cc28abc	0.023747794
30	0x3cd9ea1a	0.026600886
31	0xbc0cb8d9	-0.008588993
32	0xbc7ef7fe	-0.015562056
33	0xbb8f8b40	-0.0043806136
34	0x3d08b183	0.033372413
35	0x3cff3d48	0.03115715
36	0xbcee578e	-0.029094484
37	0xbcdae47b	-0.026720276
38	0xbc147874	-0.009061921
39	0xbc2ef3cd	-0.010678244
40	0xbc4dc026	-0.012558019
41	0xbc9c82b8	-0.0191053
42	0x3d676cfb	0.056500416
43	0x3bb40074	0.005493218
44	0x3c87b32f	0.016564934
45	0xbd1741c5	-0.036927957
46	0x3c85a6a5	0.016314814
47	0x3bbac7b8	0.005700078
48	0x3d11f2bc	0.03563188
49	0x3cdc0996	0.02686004
50	0x3bdc3ffd	0.006721495
51	0x3c93efcf	0.018058686
52	0x3c9d8ba2	0.019231621
53	0xbd4288ff	-0.04749393
54	0x3c42f03b	0.011898096
55	0xbd5b1765	-0.053489108
56	0x3cf59a03	0.029980665
57	0x3b0c4c99	0.002140796
58	0xbc980c04	-0.018560417
59	0xbbb3712e	-0.0054761386
60	0x3aebb675	0.0017983454
61	0xbb71af88	-0.0036878306
62	0xbacb451a	-0.0015508265
63	0x3c316a71	0.0108286
64	0xbd3c03eb	-0.045902174
65	0x3ad37d55	0.0016135374
66	0x3ace68b7	0.001574776
67	0xbc91d6c4	-0.017802604
68	0x3d1b6b63	0.03794421
69	0x3ccf90d3	0.025337612
70	0xbc146775	-0.009057869
71	0x3cb7c34b	0.02243199
72	0x3c5961a5	0.013267909
73	0x3bbd7297	0.0057814824
74	0x3d22681c	0.039650068
75	0xbd2ce4a2	-0.04221023
76	0x3ba95aff	0.0051683183
77	0xbd19a660	-0.037512183
78	0x3ca1bfbf	0.019744752
79	0xbb865492	-0.004099437
80	0xbcd27f5f	-0.0256955
81	0x39ef7717	0.0004567436
82	0xbe261b3f	-0.16221331
83	0x3c9b686a	0.018970687
84	0x3ccfb7ff	0.02535629
85	0xbac6fe43	-0.0015181977
86	0xbd1339ae	-0.03594368
87	0x3ce6e1d3	0.028183853
88	0xbd26f3f5	-0.04076
89	0x3d1afa33	0.037836265
90	0x3ce82e59	0.028342413
91	0xbd13dbe4	-0.036098376
92	0xbe0b2273	-0.1358736
93	0x3c9010d5	0.017586151
94	0x3cde7392	0.027154718
95	0x3a66741f	0.0008791107
96	0xbd25d8a3	-0.040489804
97	0xbc45edab	-0.01208059
98	0x3ba43c0e	0.005012042
99	0x3c18fcec	0.009337645
100	0xbc10b4eb	-0.008832197
101	0xbaeaba40	-0.001790829
102	0x3c24f07b	0.010067101
103	0xbbaf629c	-0.0053523313
104	0x3c968b50	0.018376976
105	0x3ccca721	0.024982037
106	0xbb60218e	-0.0034199688
107	0x3d03ac77	0.032146897
108	0x3c9ee04e	0.019394066
109	0x3ca2ac4e	0.019857552
110	0xbce2b015	-0.027671853
111	0x3c250dca	0.010074088
112	0x3c48cd6e	0.0122560095
113	0xbcfd6fca	-0.030937094
114	0x3d21133c	0.039324984
115	0xbc2b3d8a	-0.010451684
116	0x3c23402d	0.009964031
117	0x3d0a3da5	0.033750195
118	0xbc38126b	-0.01123486
119	0xbc36d52b	-0.011159222
120	0x3c92b45d	0.01790827
121	0x3cbd5b39	0.023114787
122	0xbcf5ae2e	-0.029990282
123	0xbba1a171	-0.0049325754
124	0xbb2690ad	-0.0025415823
125	0xbcb0b87d	-0.021572346
126	0xbc963d70	-0.018339843
127	0xbb6b1635	-0.003587139

network_body._body_endoder.seq_layers.0.weight f4 [128, 71]
0	0x3d553f03	0.052062046
1	0xbda28f63	-0.07937505
2	0xbb741d02	-0.0037248735
3	0xbe06757c	-0.13130754
4	0xbe12d163	-0.14337687
5	0x3e324fd5	0.17413266
6	0x3bc31673	0.005953604
7	0x3d0799ac	0.033105537
8	0xbcb5a3c7	-0.022172822
9	0xbc85a03d	-0.01631176
10	0x3f002a1f	0.5006427
11	0x3d9c8d24	0.07644108
12	0xbe034b3b	-0.12821667
13	0xbe6fd0a4	-0.23419434
14	0xbd00ed57	-0.031476345
15	0xbc5e76fa	-0.013578171
16	0xbe4bdccb	-0.19908445
17	0x3b2bd395	0.0026218642
18	0xbd0f5351	-0.034991566
19	0x3e382600	0.17983246
20	0xbd860323	-0.06543567
21	0x3e03e0da	0.12878743
22	0xbc160e00	-0.009158611
23	0xbd753383	-0.05986358
24	0xbe071b38	-0.13193977
25	0x3e0f571c	0.13998073
26	0xbda32a3e	-0.079670414
27	0x3c2224a1	0.009896428
28	0xbde093d4	-0.10965696
29	0x3e0b569d	0.13607259
30	0x3e3f682a	0.18692079
31	0xbdf2e306	-0.118597075
32	0x3d173a95	0.036921103
33	0x3d2da3ac	0.042392418
34	0xbe434325	-0.19068582
35	0x3e906b0a	0.28206664
36	0xbd255ec9	-0.040373597
37	0x3d18054b	0.037114423
38	0xbdee4a30	-0.11635244
39	0x3debf622	0.115215555
40	0x3e44a0a3	0.19201903
41	0xbb3d515e	-0.002888761
42	0xbd70b577	-0.05876681
43	0xbdc9fbc5	-0.09862474
44	0x3e5faa85	0.21842392
45	0x3ec1d730	0.37859488
46	0xbdbe6994	-0.09297481
47	0xbd451648	-0.048116952
48	0xbe1eeabd	-0.15519233
49	0x3e384863	0.17996363
50	0x3ddc5bd2	0.10759701
51	0x3e63829e	0.22217795
52	0xbe1dc6c1	-0.1540785
53	0x3ddcc1ab	0.10779127
54	0x3e0e44ef	0.13893484
55	0x3d93a1dc	0.072086066
56	0xbe01c257	-0.12671791
57	0x3cde1e50	0.027114064
58	0xbd19095f	-0.037362453
59	0x3e916435	0.28396764
60	0x3ea7f625	0.3280498
61	0xbe62d0c8	-0.22149956
62	0x3d8a1591	0.06742395
63	0xbc916340	-0.017747521
64	0x3de818a4	0.11332825
65	0xbd3af35f	-0.045642253
66	0xbd1724ee	-0.036900453
67	0x3da2538d	0.07926092
68	0xbcf74774	-0.030185439
69	0xbe787d5e	-0.24266574
70	0x3e40f9a2	0.18845227
71	0x3e9d5112	0.30725914
72	0xbd89b735	-0.06724397
73	0xbe378240	-0.1792078
74	0x3da02fe1	0.07821632
75	0x3d8c7c07	0.06859594
76	0xbd879aa9	-0.06621296
77	0xbe1528eb	-0.1456639
78	0xbd8a6338	-0.06757206
79	0x3da09eac	0.07842764
80	0xbda13ea9	-0.078732796
81	0x3bcb6870	0.0062075183
82	0x3dc1de70	0.09466255
83	0xbd4c7997	-0.049920645
84	0xbe1765fc	-0.14784998
85	0x3e00e0f9	0.1258582
86	0x3e37f4c6	0.17964467
87	0xbec419e0	-0.3830099
88	0x3e01a180	0.12659264
89	0xbc26285f	-0.010141461
90	0xbdad4049	-0.08459527
91	0x3d08abbd	0.033366907
92	0x3b90bef4	0.0044172946
93	0xbe384dac	-0.1799838
94	0x3ca14852	0.019687805
95	0x3dbff4d8	0.09372872
96	0x3ded7117	0.11593836
97	0xbe2d567e	-0.16927525
98	0xbe040199	-0.12891234
99	0x3a885146	0.0010400198
100	0x3b0f78bc	0.0021892032
101	0xbe3eab91	-0.18620135
102	0x3e46a547	0.19398986
103	0x3e17c762	0.14822152
104	0xbdd2e695	-0.10297886
105	0xbe07f31f	-0.13276337
106	0x3ebdbabb	0.37056527
107	0xbde2aa74	-0.110676676
108	0xbdae48f5	-0.08510009
109	0xbe162311	-0.14661814
110	0xbd9d3d92	-0.07677759
111	0x3dcc4588	0.099741995
112	0x3d8e5225	0.069492616
113	0x3e25be3f	0.16185854
114	0x3e82b7ba	0.25530797
115	0x3c96a3d4	0.018388666
116	0x3eab8cf0	0.33505964
117	0x3db3e87f	0.087845795
118	0xbd834cdc	-0.06411144
119	0x3be1b360	0.0068878382
120	0xbd8706f4	-0.06593123
121	0xbdb35944	-0.087572604
122	0xbc9e63dc	-0.019334726
123	0x3db14878	0.086564004
124	0x3e5f06f4	0.21779996
125	0x3e6fbe8e	0.23412535
126	0x3be23af3	0.006904
127	0xbbfe71ed	-0.007765046
128	0xbddfd19d	-0.109286524
129	0xbd182b40	-0.03715062
130	0x3dda47d4	0.106582314
131	0x3d7e3275	0.06205984
132	0xbc92fb4f	-0.017942099
133	0x3e32b001	0.17449953
134	0x3e1c4ff6	0.15264878
135	0x3d56950d	0.05238824
136	0xbcd97708	-0.026546016
137	0xbde11344	-0.10990003
138	0x3dd37159	0.10324354
139	0x3dbb09b8	0.09132713
140	0x3e0873b3	0.13325386
141	0x3db2eac1	0.08736182
142	0x3d6dbbae	0.058040313
143	0xbd142317	-0.036166277
144	0xbe1aa58a	-0.1510221
145	0x3e9039ea	0.28169185
146	0xbc3646fd	-0.011125323
147	0xbe30a008	-0.17248547
148	0xbe7b17f0	-0.2452085
149	0xbe0448f3	-0.12918453
150	0xbd4f207c	-0.05056809
151	0x3e0aa26b	0.1353852
152	0xbe18c225	-0.1491781
153	0x3e832afd	0.25618735
154	0xbdc416b7	-0.09574645
155	0xbe405005	-0.18780525
156	0x3ddd2bcd	0.1079937
157	0x3e9820c2	0.29712492
158	0xbe04a47b	-0.1295337
159	0xbc8b2b04	-0.016988285
160	0x3d9a093e	0.07521294
161	0x3d9fdad9	0.07805414
162	0xbe834f38	-0.25646377
163	0xbccdca1b	-0.025120785
164	0xbd691694	-0.056906298
165	0xbdd1a9cc	-0.10237464
166	0xbe94431b	-0.28957447
167	0x3e503188	0.20331395
168	0x3dcf61c5	0.1012607
169	0x3ebb8570	0.36625242
170	0xbe0a83b4	-0.13526803
171	0xbe1d94c1	-0.15388776
172	0xbcb0ba70	-0.021573275
173	0xbdbc6b13	-0.0920011
174	0xbdda7690	-0.10667145
175	0x3ea1768e	0.31535763
176	0xbcbb09de	-0.022831853
177	0x3e97f551	0.2967935
178	0xbea32197	-0.31861565
179	0xbe218240	-0.15772343
180	0x3db72e3f	0.089443676
181	0x3d6883f3	0.05676646
182	0x3ed34196	0.41260976
183	0xbdf2e75d	-0.11860535
184	0xbd4becf6	-0.04978653
185	0x3db6882c	0.089126915
186	0x3df0fe93	0.11767306
187	0x3ea15194	0.31507552
188	0xbd634c40	-0.05549264
189	0x3d200a18	0.039072126
190	0x3d191c68	0.037380606
191	0xbe4426a1	-0.19155361
192	0x3e1541e4	0.14575917
193	0x3d3926a1	0.045202855
194	0x3e659b81	0.22422601
195	0x3dcc92ac	0.09988913
196	0x3d888b9e	0.06667255
197	0x3d8dee6a	0.069302395
198	0xbe27b99b	-0.16379397
199	0xbd1fa9b8	-0.038980216
200	0xbd884e10	-0.06655514
201	0x3e6db072	0.2321184
202	0x3e7400c8	0.23828423
203	0xbda6f65d	-0.08152459
204	0xbe51be1f	-0.20482682
205	0x3dd959be	0.1061282
206	0x3da06a9b	0.078328334
207	0x3ce138c1	0.027492883
208	0xbce62fce	-0.028098967
209	0x3d251f1c	0.04031287
210	0x3db95174	0.09048739
211	0x3d5842dd	0.05279814
212	0x3e13fb7e	0.14451405
213	0xbe214579	-0.15749158
214	0xbe06521e	-0.13117263
215	0xbd597e35	-0.053098876
216	0xbe43a5d2	-0.19106224
217	0x3e228f6f	0.15875028
218	0xbdf05841	-0.11735583
219	0xbdf03cd1	-0.1173035
220	0x3c53c5cd	0.012925577
221	0x3e2f0030	0.17089915
222	0xbe2741e5	-0.1633373
223	0xbdbe80bf	-0.093019
224	0xbdf7b55c	-0.120951384
225	0xbccf6d09	-0.025320547
226	0xbd4bc1ca	-0.04974536
227	0xbde2bd82	-0.11071302
228	0xbe031c0b	-0.12803666
229	0x3a8e2c4d	0.0010846943
230	0xbdcef3da	-0.10105105
231	0x3ccaeab7	0.024770124
232	0x3e9b4bc3	0.3033124
233	0xbe6ef435	-0.23335345
234	0x3decbfe3	0.11560037
235	0x3e33cfe7	0.17559777
236	0xbcf8ff49	-0.030395167
237	0xbe67fb01	-0.22654344
238	0xbcf1ab3f	-0.029500602
239	0x3e4943a8	0.19654715
240	0xbd9fbfea	-0.078002766
241	0x3d77327f	0.06035089
242	0xbd9e6745	-0.07734541
243	0xbc302191	-0.01075019
244	0x3d13f3b9	0.036121104
245	0xbd4af862	-0.049553283
246	0xbd40abc8	-0.047038823
247	0xbda43c84	-0.08019355
248	0x3c91c2db	0.01779311
249	0x3d801eb9	0.0625586
250	0xbb556040	-0.003255859
251	0x3e8c5949	0.2741187
252	0xbd236faa	-0.039901413
253	0xbdb22f28	-0.087004006
254	0x3c4a3b10	0.012343183
255	0xbdaadbe2	-0.083427206

network_body._body_endoder.seq_layers.2.bias f4 [128]
0	0xbca16efe	-0.019706246
1	0x3c97756b	0.018488606
2	0xb92d7bf6	-0.00016544745
3	0xbc5c83db	-0.013459171
4	0x3b8844e4	0.004158603
5	0xbd5b89dc	-0.05359827
6	0x3c57cfa7	0.013172067
7	0xbc8da043	-0.017288333
8	0x3b39c55b	0.0028346393
9	0x3c358c27	0.011080778
10	0x3b2b9dec	0.0026186658
11	0xbc61cc10	-0.013781562
12	0x3cf5b0e4	0.029991575
13	0xbcfd2743	-0.03090251
14	0x3c3c1513	0.011479634
15	0xbcaf76c2	-0.021418933
16	0xbc9c3ef9	-0.019072996
17	0x3cacfc47	0.021116389
18	0xbc58f35e	-0.013241617
19	0xbca41a3a	-0.020032037
20	0xbc52be70	-0.012862787
21	0xbbc88867	-0.006119776
22	0xbc21fec9	-0.009887406
23	0x3c7aadef	0.015300258
24	0xbca99a6c	-0.020703517
25	0xbc5a8c21	-0.013339073
26	0xbc9f077d	-0.01941275
27	0x3b33258c	0.0027335612
28	0xbacb22c4	-0.0015498032
29	0xbccfff9b	-0.025390437
30	0x3bd07728	0.006361861
31	0xbcf332a7	-0.029687239
32	0xbc5b570d	-0.013387454
33	0xbca7420d	-0.020417238
34	0xbb9cf8f1	-0.0047904183
35	0x3c044051	0.008071975
36	0xbc459f7b	-0.012061949
37	0xb9ea4826	-0.00044685713
38	0xbcada2cc	-0.021195792
39	0xbc93a1e5	-0.018021533
40	0xbc1c84a4	-0.009553108
41	0xbc6c160b	-0.014409552
42	0xbab2bbba	-0.0013636269
43	0xbc9a679e	-0.018848237
44	0xbb998945	-0.0046855533
45	0xbc775217	-0.015095255
46	0x3ca774fa	0.020441521
47	0x3bc05d28	0.00587048
48	0xbc69bd36	-0.014266303
49	0xbbec6d4d	-0.007215178
50	0xbbaca552	-0.005268731
51	0xbc5c2e61	-0.013438792
52	0xbbe02d6a	-0.0068413513
53	0xbc813e0d	-0.015776658
54	0xba741d56	-0.0009312233
55	0xbcb20471	-0.021730633
56	0xb93ed26b	-0.00018198199
57	0xbd1eb8af	-0.038750347
58	0x3c3950df	0.011310785
59	0xbc598b2a	-0.013277808
60	0x3c0b97d6	0.008520087
61	0xb982fdd6	-0.00024984655
62	0xbcce34e6	-0.025171708
63	0x3b9ca5b4	0.0047804955
64	0x3a41cac6	0.00073925813
65	0xbc4728c8	-0.012155719
66	0xbc0b2580	-0.008492827
67	0xbca2ac1b	-0.019857457
68	0xbb881df0	-0.0041539595
69	0xbcd691c4	-0.026192553
70	0x3c3c81fe	0.011505602
71	0x3b8b75aa	0.00425597
72	0x3b70934e	0.0036708894
73	0xbb2cee90	-0.0026387312
74	0xbab35e49	-0.0013684715
75	0xbc2f9154	-0.010715801
76	0x3b902e0b	0.00440002
77	0xbc9ac66b	-0.018893441
78	0xbb7a4634	-0.0038188817
79	0xbba62329	-0.0050701094
80	0xbcda7143	-0.026665336
81	0x3bf6d258	0.007532399
82	0xbc6b2048	-0.014350958
83	0xbbf80147	-0.0075685116
84	0x3b1ecfd5	0.0024232764
85	0xbc922426	-0.017839503
86	0xbc127815	-0.008939763
87	0xbd1e82cd	-0.03869896
88	0x3c9277e2	0.01787943
89	0x3c8ac977	0.016941769
90	0xbcc6a7ec	-0.024249993
91	0xbbbdc347	-0.005791101
92	0x3cc7b03d	0.02437603
93	0xbd2195a5	-0.039449353
94	0xbb03a336	-0.0020086295
95	0x3c52da5d	0.012869445
96	0xbc648186	-0.013946896
97	0x3c530bb9	0.012881213
98	0x3b5e21ce	0.003389466
99	0xbca0f151	-0.019646319
100	0xbc770bb3	-0.015078473
101	0x3b836944	0.0040103514
102	0xbceaaf9a	-0.028648186
103	0xbcec17ff	-0.028820036
104	0xbc8e3c99	-0.01736288
105	0x3cdc40f1	0.026886435
106	0xbbdf9794	-0.0068234894
107	0xbc69a7ce	-0.014261199
108	0xbc70d4fe	-0.014699219
109	0xbd047cab	-0.032345455
110	0xbc74bcb6	-0.01493757
111	0x3c0007de	0.007814376
112	0xbc4a0614	-0.012330551
113	0xbcac4ad2	-0.02103177
114	0xbcb3f57c	-0.021967642
115	0xbb38ea6e	-0.0028215903
116	0xbb45c94c	-0.0030179797
117	0x3b640929	0.00347955
118	0xbbb78fd3	-0.005601862
119	0x3a7ce016	0.00096464285
120	0xbc771f75	-0.015083184
121	0xbcc5a59f	-0.024126826
122	0xbc3a65a4	-0.011376772
123	0xba4eeefe	-0.0007893889
124	0x3c08479e	0.008317856
125	0xbc6a9dc3	-0.01431984
126	0xbbcf5c1b	-0.0063281185
127	0x3c7baf88	0.015361674

network_body._body_endoder.seq_layers.2.weight f4 [128, 128]
0	0x3db4d3b5	0.088294424
1	0xbd294693	-0.04132707
2	0x3e504333	0.20338134
3	0x3d01a8b9	0.031655047
4	0xbd2d51f9	-0.042314503
5	0x3d5b4e0b	0.053541224
6	0x3e0a9f8d	0.13537426
7	0xbde8d8d5	-0.113694824
8	0x3d46de88	0.048552066
9	0x3dc6b606	0.09702687
10	0x3d7a3043	0.061081182
11	0x3ea74682	0.3267098
12	0x3bc12d5f	0.0058953012
13	0x3c08646b	0.008324723
14	0x3e189d3e	0.14903733
15	0xbdedb0f4	-0.11606017
16	0x3d0503bc	0.032474265
17	0xbdb642b6	-0.08899443
18	0xbe2f1bd1	-0.17100455
19	0xbc501a7d	-0.012701628
20	0xbcdba2be	-0.026811
21	0xbd0e69de	-0.03476893
22	0x3e17fbaf	0.14842103
23	0x3e0d050e	0.1377146
24	0x3dd8809a	0.10571404
25	0x3d882357	0.066473655
26	0xbd8db1fa	-0.06918712
27	0xbde97932	-0.11400069
28	0x3e40140e	0.1875765
29	0xbdb20aba	-0.08693452
30	0x3e17fcaa	0.14842477
31	0x3e61779e	0.22018287
32	0x3e06c4e2	0.13161042
33	0xbd096bc9	-0.033550058
34	0xbe056ca6	-0.13029727
35	0x3d38f816	0.04515847
36	0x3cdbb3b5	0.02681909
37	0xbe0883c2	-0.13331512
38	0x3b0bf08b	0.0021353092
39	0x3d070f80	0.032973766
40	0xbd7afc84	-0.061275974
41	0xbcc30a28	-0.023808554
42	0x3cb0e35d	0.02159279
43	0xbdf2bf01	-0.11852837
44	0xbcc30525	-0.023806164
45	0xbb0242dd	-0.001987628
46	0xbda4eac8	-0.080525935
47	0xbd9b1b4d	-0.075735666
48	0x3ca85aa1	0.020551028
49	0xbcbf2b07	-0.023335947
50	0x3e805bc3	0.2507001
51	0xbdc50038	-0.09619182
52	0x3e41daf3	0.18931179
53	0xbdb810a1	-0.08987547
54	0xbde312f2	-0.11087598
55	0xbde288cb	-0.110612474
56	0x3a763e5d	0.0009393448
57	0xbd821d98	-0.06353301
58	0xbd7c506a	-0.061600126
59	0x3e844286	0.25832003
60	0x3d416492	0.047215052
61	0x3d8c5963	0.06852987
62	0xbd84ab61	-0.064780004
63	0x3a8dd74e	0.0010821612
64	0xbe12bd7f	-0.143301
65	0xbd610771	-0.054938737
66	0x3d76b9d5	0.060235817
67	0xbd291045	-0.04127528
68	0xbd6be364	-0.057589903
69	0xbd5d30e9	-0.054001722
70	0x3d197bf1	0.037471715
71	0x3e385c60	0.18003988
72	0x3d16488f	0.03669029
73	0xbe439207	-0.19098674
74	0x3dc9b329	0.09848625
75	0x3e0cb8c4	0.13742357
76	0xbe192650	-0.14956021
77	0xbd873b32	-0.066030875
78	0x3de4f3d8	0.11179322
79	0x3d23b7b4	0.039970115
80	0xbd933436	-0.07187693
81	0xbe1ef153	-0.15521745
82	0x3be7715c	0.007063074
83	0x3c261864	0.010137651
84	0x3d9eaa3b	0.07747313
85	0xbde80321	-0.11328722
86	0xbe032376	-0.12806496
87	0x3da80a45	0.08205084
88	0x3da56dc8	0.0807758
89	0x3d31fa1c	0.043451414
90	0x3e3e042e	0.18556282
91	0x3de54587	0.11194902
92	0xbd93e587	-0.07221513
93	0x3d00951b	0.031392198
94	0xbdaa2823	-0.08308437
95	0xbdf3969d	-0.118939616
96	0x3e4e386b	0.20138709
97	0x3e0bd749	0.13656344
98	0xbdaa62b5	-0.08319608
99	0x3e7a8bb9	0.24467362
100	0x3d9d4d97	0.07680815
101	0xbc42b4ae	-0.011883898
102	0x3d0d9a9b	0.03457127
103	0xbda499fa	-0.08037181
104	0xbe1109b9	-0.14163865
105	0x3b726f5f	0.0036992652
106	0x3c037191	0.008022682
107	0x3b9edae0	0.0048478693
108	0x3d3dd1f2	0.046342798
109	0x3d3f4206	0.046693824
110	0x3dbe7f62	0.0930164
111	0xbda17f21	-0.07885576
112	0xbcdab911	-0.026699575
113	0xbbe56c29	-0.007001419
114	0x3e1056dd	0.14095636
115	0x3cf166a2	0.029467884
116	0xbd95148e	-0.07279311
117	0x3ddf8194	0.10913387
118	0x3dca0bf4	0.09865561
119	0x3d4c7bff	0.04992294
120	0xbdbe3aa3	-0.09288528
121	0x3e3565a7	0.17714559
122	0x3d4b2b03	0.049601566
123	0x3d0f3bcc	0.034969136
124	0x3d8bf093	0.06832995
125	0x3dafa182	0.08575727
126	0x3cb7064c	0.02234187
127	0xbe66ea71	-0.2255037
128	0x3e1f4fc9	0.1555778
129	0xbba70329	-0.0050968123
130	0xbd50e131	-0.05099601
131	0x3e02b47e	0.12764165
132	0x3e14da4f	0.14536403
133	0x3cd43cef	0.025907962
134	0x3d0c06f9	0.034186337
135	0x3e098785	0.13430603
136	0xbd0b7a63	-0.034052264
137	0xbd4776a2	-0.04869712
138	0xbe004833	-0.12527542
139	0x3dc25244	0.09488347
140	0x3cc32b95	0.023824492
141	0x3d353721	0.04424203
142	0x3ddb39c9	0.10704381
143	0x3d36626e	0.044527464
144	0x3cdef43f	0.027216075
145	0x3d97345e	0.07383035
146	0x3cd9475f	0.02652329
147	0xbe21c588	-0.15798008
148	0xbcb3e075	-0.021957615
149	0xbe117969	-0.1420647
150	0xbd6c586e	-0.05770152
151	0x3e08a579	0.13344373
152	0x3d4c7815	0.049919207
153	0xbe220647	-0.15822707
154	0xbd883d89	-0.06652362
155	0x3dc8e31d	0.098089434
156	0x3cfe649b	0.031053832
157	0xbb81eab6	-0.0039647473
158	0x3e0e2397	0.13880764
159	0x3e01746c	0.12642068
160	0xbe3833cb	-0.17988507
161	0xbbb92352	-0.0056499625
162	0xbca3a844	-0.019977696
163	0x3e2bd1ea	0.16779295
164	0x3da99ff5	0.082824625
165	0xbcd9532d	-0.02652892
166	0xbd538447	-0.05163982
167	0xbdb93f4b	-0.09045275
168	0xbd84b5ad	-0.064799644
169	0xbe535fe7	-0.20642053
170	0xbca47117	-0.020073457
171	0x3ddfaf66	0.109221265
172	0x3bf12af5	0.007359857
173	0xbc3f970e	-0.011693729
174	0x3cc9a03e	0.024612542
175	0xbca1b254	-0.019738354
176	0x3d25f5a5	0.040517468
177	0xbe02c451	-0.12770201
178	0x3de88378	0.11353201
179	0x3e3791fc	0.17926782
180	0x3dd0cde1	0.10195518
181	0x3dd7d1b3	0.10538044
182	0xbd7e51f1	-0.062089864
183	0xbdb9a393	-0.090644024
184	0xbe1e6e12	-0.15471676
185	0xbd4240a3	-0.047424924
186	0xbc82f32b	-0.015985092
187	0xb9aa12fa	-0.00032439065
188	0x3e1842d7	0.14869247
189	0xbd5d98f8	-0.05410096
190	0x3d9dc397	0.077033214
191	0xbdaabb58	-0.08336514
192	0xbd833e0a	-0.064083174
193	0x3ce86875	0.028370121
194	0x3ca25d58	0.0198199
195	0x3d80d364	0.062903196
196	0xbdd254c3	-0.10270073
197	0xbe254649	-0.16140093
198	0x3d11ac3c	0.035564646
199	0xbda48052	-0.08032288
200	0x3d4c9e75	0.049955804
201	0x3d392771	0.04520363
202	0xbdb7c4aa	-0.089730576
203	0x3dbd2ae7	0.092366986
204	0x3dbd1f74	0.09234515
205	0x3d951f6e	0.07281385
206	0x3cd7a489	0.026323574
207	0x3de5fd11	0.11229909
208	0xbdb929d0	-0.09041178
209	0x3e0689e0	0.13138533
210	0x3d9153ce	0.070960626
211	0x3d1a76dd	0.037711013
212	0x3d6c40d8	0.057679027
213	0xbc6e08fd	-0.01452851
214	0x3d92c33e	0.07166146
215	0xbda7ffcf	-0.082030885
216	0xbd8a16aa	-0.06742604
217	0xbda8bd88	-0.08239275
218	0xbd8e6c30	-0.06954229
219	0x3d75ccf4	0.06000991
220	0xbcc05965	-0.023480127
221	0x3ce0fa03	0.027462965
222	0xbd8b8063	-0.06811597
223	0x3da33066	0.07968216
224	0xbd20fc5f	-0.03930318
225	0xbe02fcfd	-0.1279182
226	0xbe09486a	-0.1340653
227	0x3e1eed5b	0.15520231
228	0xbe1eec16	-0.15519747
229	0xbc4b0859	-0.012392127
230	0xbcc57fe0	-0.024108827
231	0xbd271eed	-0.040800977
232	0xbe0558a0	-0.13022089
233	0xbd922606	-0.07136159
234	0xbe42b73a	-0.19015208
235	0x3d2b7439	0.041858885
236	0x3d887b6b	0.06664165
237	0x3c51c244	0.012802664
238	0x3c74022b	0.014893095
239	0xbe05e93c	-0.13077253
240	0xbd8e98e6	-0.06962757
241	0xbd4aaccc	-0.0494812
242	0xbba3ae45	-0.00499514
243	0xbd693bae	-0.05694168
244	0xbe1e5947	-0.15463744
245	0x3c301c31	0.010748909
246	0x3d5cc215	0.05389603
247	0xbd93850d	-0.07203112
248	0x3cf50746	0.029910695
249	0xbd78d94d	-0.06075411
250	0x3cbfee25	0.023428986
251	0x3dc57685	0.096417464
252	0xbca4c8b9	-0.020115243
253	0xbdbb50ed	-0.09146295
254	0x3d13d834	0.03609486
255	0xbdd6a1f1	-0.104801066

network_body._body_endoder.seq_layers.4.bias f4 [128]
0	0xbc44c1ea	-0.012009123
1	0x3aca9541	0.0015455858
2	0xbced6c2f	-0.02898225
3	0xbc08243f	-0.008309423
4	0x3c9fd931	0.019512745
5	0xbbecb1c0	-0.007223338
6	0xbc22bc71	-0.009932623
7	0x3c39c545	0.011338537
8	0xbcd3ba36	-0.025845628
9	0xbd592cf7	-0.053021397
10	0xbb988956	-0.0046550436
11	0xba3b11ce	-0.0007136137
12	0xbc648e89	-0.013949999
13	0xbbd7ac82	-0.006581844
14	0xbadaa011	-0.0016679784
15	0xbd014aa8	-0.03156534
16	0xbc07517a	-0.008259172
17	0x3cdae831	0.026722046
18	0xbb3ce577	-0.0028823295
19	0xbc0401ca	-0.008057067
20	0x3c9f3c0c	0.019437812
21	0xbcd046a2	-0.025424305
22	0xbbbfa566	-0.0058485745
23	0xbcb9aab7	-0.022664411
24	0xbcb32c53	-0.021871721
25	0xbbb13c4b	-0.005408799
26	0xbc4de8d8	-0.012567721
27	0xbcbe4956	-0.023228329
28	0x3ae691cd	0.001759106
29	0xbc9d7ea6	-0.01922543
30	0xbcca07dd	-0.024661953
31	0xbcc78b91	-0.024358543
32	0xbcb0e08d	-0.02159145
33	0xbc98ee13	-0.01866821
34	0xbd042315	-0.03226002
35	0xbbe58273	-0.007004076
36	0x3a7f4908	0.00097383605
37	0x3c0e2919	0.008676791
38	0xbc3ece2b	-0.011645834
39	0xbbeec243	-0.0072863414
40	0x3caaab63	0.020833677
41	0xbcc5ad7e	-0.02413058
42	0xbc2837de	-0.010267226
43	0x3b754d02	0.0037429933
44	0xbca270e1	-0.019829215
45	0xbc940e7b	-0.018073311
46	0xbb2414c3	-0.002503679
47	0xbc9eb184	-0.019371755
48	0xbc4927b3	-0.012277531
49	0xbb8f7ba3	-0.0043787523
50	0x3b7b0398	0.0038301703
51	0xbd2a90fe	-0.04164218
52	0x3be484ae	0.0069738245
53	0xbcea68fb	-0.028614512
54	0xbbbe994f	-0.0058166157
55	0xbd1e0bd9	-0.038585518
56	0xbd0929d6	-0.033487163
57	0xbc2e889e	-0.010652689
58	0xbd303c02	-0.043025978
59	0x3b59fe5f	0.003326319
60	0xbcdba67f	-0.02681279
61	0xbccee7f7	-0.025257094
62	0xbb98c3fc	-0.004662035
63	0xbbe67606	-0.0070331125
64	0x3c300222	0.010742696
65	0xbc3eed38	-0.011653237
66	0x3b2b88b5	0.0026174013
67	0xbc96d82b	-0.018413624
68	0xbbecb0be	-0.0072232177
69	0xbc1a182f	-0.00940518
70	0xbc905847	-0.017620219
71	0xbc53a3e7	-0.012917495
72	0x3c0ade87	0.008475906
73	0xbcb751a4	-0.022377796
74	0x3cac7ca2	0.021055523
75	0x3c3b37ae	0.011426849
76	0xbbce9c03	-0.006305219
77	0xbcb783fb	-0.0224018
78	0xbd102373	-0.035190057
79	0xbd145b53	-0.036219906
80	0xbc9079ea	-0.017636258
81	0xbca24ab0	-0.019811004
82	0xbabf9250	-0.0014615748
83	0xba01565b	-0.00049338274
84	0x3c6f873a	0.014619643
85	0xbc11a03a	-0.008888299
86	0xbbbbd554	-0.005732218
87	0xbb4d2aab	-0.003130595
88	0x399b365f	0.00029604413
89	0x3bf3a98b	0.0074359826
90	0x3ccf6b67	0.025319768
91	0xba043d39	-0.0005044523
92	0xbc65dea1	-0.01403013
93	0xbbe848d5	-0.0070887604
94	0xbc155781	-0.009115101
95	0xbc727d5a	-0.014800394
96	0xbc0825cf	-0.0083097955
97	0xbccc565d	-0.024943525
98	0xbc88ba7c	-0.016690485
99	0x3c2e1e50	0.010627344
100	0xbc13122a	-0.008976499
101	0xbca50a11	-0.020146402
102	0xbcc2f4a1	-0.023798289
103	0xbce41418	-0.027841613
104	0xbc51e8a9	-0.012811818
105	0xbcc215d4	-0.02369205
106	0xbbab9806	-0.0052366285
107	0xb8963926	-7.163202e-05
108	0xbc8074d5	-0.01568071
109	0xbc9a78c7	-0.01885642
110	0xbcd4a4ff	-0.025957583
111	0xbc78b382	-0.015179517
112	0xbc59eec5	-0.013301556
113	0xbd0a6e15	-0.03379639
114	0xbca37347	-0.01995243
115	0xbb74b483	-0.0037339039
116	0xbc96375a	-0.01833694
117	0xbc2e9070	-0.010654554
118	0xbc6a7d80	-0.014312148
119	0xbb54f960	-0.0032497272
120	0xbc9a8063	-0.018860048
121	0xbc715c8e	-0.014731539
122	0xbc0c9e28	-0.008582629
123	0x3c05d825	0.008169209
124	0xbbe206e6	-0.006897795
125	0xbcf60d1a	-0.030035544
126	0xbc384707	-0.011247403
127	0xbbf31de9	-0.007419337

network_body._body_endoder.seq_layers.4.weight f4 [128, 128]
0	0xbdbb5171	-0.09146393
1	0x3c897035	0.016777137
2	0x3d45622b	0.048189323
3	0x3d5df8e7	0.05419245
4	0x3d1b0426	0.037845753
5	0xbcee83fd	-0.029115671
6	0xbd68c67d	-0.05682992
7	0x3db24368	0.08704263
8	0x3dc0f07a	0.09420867
9	0xbcc069bf	-0.023487924
10	0x3de0c887	0.109757476
11	0x3e43c3b3	0.19117622
12	0x3cb1f8f5	0.021725157
13	0xbdf33aa0	-0.11876416
14	0xbd80e3f3	-0.06293478
15	0xbe0ce717	-0.13760029
16	0x3c9f37f5	0.019435862
17	0xbc90677a	-0.017627466
18	0x3d847a6b	0.06468662
19	0x3e2013c0	0.15632534
20	0xbe398c83	-0.18120007
21	0x3dc46e43	0.09591343
22	0xbe211fb1	-0.15734746
23	0x3b80c17b	0.0039293147
24	0x3e2f9afb	0.17148964
25	0x3dce729a	0.10080452
26	0xbd521e11	-0.051298205
27	0xbb4611f6	-0.0030223108
28	0xbda308e6	-0.079606816
29	0xbdd1a873	-0.10237207
30	0xbd0762e7	-0.033053305
31	0x3d82b55d	0.063822486
32	0xbd885e27	-0.06658583
33	0xbd417959	-0.047234867
34	0x3dbd1c66	0.09233932
35	0xbdb3d3c1	-0.08780623
36	0xbcdd79ac	-0.027035557
37	0x3dd08434	0.10181466
38	0x3e1d2a70	0.1534822
39	0xbdc9d819	-0.098556705
40	0x3d9baa2d	0.07600818
41	0x3d19d43c	0.037555918
42	0xbb021820	-0.0019850805
43	0xbde6ba29	-0.11265976
44	0x3c9605d2	0.018313322
45	0xbe40dc9c	-0.18834156
46	0xbcec3bb2	-0.028837059
47	0x3d44026e	0.04785388
48	0x3d2f79bf	0.042840715
49	0xbdba5371	-0.090979464
50	0x3e17ba1f	0.14817093
51	0x3d452757	0.04813322
52	0x3d8a5364	0.06754187
53	0x3da67b61	0.081290014
54	0xbdb8d874	-0.0902566
55	0xbdba00fb	-0.09082218
56	0x3e2e2dcd	0.17009659
57	0x3b7e4bc9	0.0038802496
58	0xbcf379b2	-0.029721115
59	0x3c3e56f9	0.011617416
60	0xbdf70ac6	-0.12062602
61	0x3dfe3ca2	0.124139085
62	0xbe0ae036	-0.13562092
63	0xbdc86f27	-0.097868256
64	0x3d016363	0.031588923
65	0x3e26561b	0.16243784
66	0x3da12f01	0.078702934
67	0x3dfcb325	0.123388566
68	0xbc9a86c4	-0.01886309
69	0xbdc988c3	-0.09840538
70	0x3d5a2b86	0.053264163
71	0xbc1c73b7	-0.009549073
72	0xbcbfe08d	-0.023422504
73	0x3da54936	0.080706045
74	0xbc5ebfb9	-0.013595515
75	0xbdd56c56	-0.10421054
76	0x3c264222	0.010147603
77	0x3de7f3ce	0.11325799
78	0x3e113beb	0.14183013
79	0xbd6aa474	-0.05728574
80	0x3e0b24fa	0.13588324
81	0x3d9739e3	0.07384088
82	0xbe198846	-0.1499339
83	0x3dc25f13	0.0949079
84	0xbd99594a	-0.07487734
85	0xbd84ad07	-0.06478315
86	0xbd171567	-0.036885645
87	0xbd44ada8	-0.048017174
88	0x3d21e4ed	0.03952496
89	0xbe0bb029	-0.13641419
90	0xbcec174e	-0.028819706
91	0x3d1e9d20	0.038724065
92	0x3cbe26f5	0.023211936
93	0xbc885a9f	-0.016644774
94	0x3bf95d55	0.007610003
95	0xbe072482	-0.1319752
96	0xbd1db3fe	-0.038501732
97	0x3e1b2548	0.1515094
98	0xbd8f0bad	-0.06984649
99	0xba8de54b	-0.0010825781
100	0x3b893ef9	0.004188415
101	0xbd4fd2a1	-0.05073798
102	0x3dc6e0a7	0.09710818
103	0x3d77eff3	0.060531568
104	0x3dfafe4d	0.12255535
105	0x3e4791a3	0.1948915
106	0xbc6ac8c8	-0.014330097
107	0xbdd93316	-0.10605447
108	0xbd27ce9d	-0.040968526
109	0x3dae8a62	0.08522488
110	0xbcfc6edc	-0.03081458
111	0x3b323927	0.002719471
112	0x3dda67d6	0.106643364
113	0xbce7684a	-0.028247971
114	0xbd58c149	-0.052918706
115	0xbd375250	-0.044756234
116	0xbc2bf127	-0.010494507
117	0x3d72e56e	0.059300832
118	0xbd32a5f3	-0.043615293
119	0x3c68361a	0.014173055
120	0xbce4b6db	-0.027919224
121	0x3db7f9bc	0.0898318
122	0x3e09d14e	0.1345875
123	0xba1c3ae9	-0.0005959706
124	0xbcc2f189	-0.023796814
125	0x3e84f632	0.25969082
126	0xbdeb4d40	-0.11489344
127	0x3df6c332	0.12048949
128	0xbe00da55	-0.12583287
129	0xbe0c32cc	-0.13691252
130	0x3d609236	0.054826938
131	0xbd86e55f	-0.06586718
132	0xbd0e0032	-0.034668155
133	0xbcea0d8a	-0.028570909
134	0x3d4d8e4b	0.05018453
135	0xbd3e992c	-0.046532795
136	0xbc63a8a9	-0.013895192
137	0xbe18f09c	-0.14935535
138	0xbc145e8c	-0.009055745
139	0x3ddbd3ca	0.10733755
140	0x3c10f22e	0.008846803
141	0xbc5709c3	-0.013124886
142	0xbd6661ff	-0.0562458
143	0xbd174e04	-0.036939636
144	0xbdf89d97	-0.12139433
145	0xbe046b45	-0.12931545
146	0xbd92c870	-0.07167137
147	0x3d8bfc34	0.06835213
148	0x3c82d949	0.01597275
149	0x3df714d2	0.12064518
150	0xbd92a53e	-0.07160424
151	0x3e134b31	0.14384152
152	0x3cac91ca	0.021065611
153	0xbddc68cd	-0.10762177
154	0xbe316cd6	-0.17326674
155	0xbd14824f	-0.036257084
156	0xbd9b44af	-0.0758146
157	0x3e20414e	0.15649912
158	0x3d60e68d	0.05490737
159	0xbbe9730e	-0.0071243113
160	0xbda8c2bb	-0.08240267
161	0x3d804c88	0.06264597
162	0xbddbb1d9	-0.10727281
163	0xbc6fdcbc	-0.0146400295
164	0xbd8bda25	-0.06828717
165	0xbd3fb6af	-0.04680508
166	0xbb012bdc	-0.001970998
167	0x3ca21c2a	0.01978882
168	0xbd33cc13	-0.043895792
169	0xbdcfed36	-0.10152666
170	0xbaa37087	-0.0012469449
171	0x3e83203f	0.2561054
172	0x3db6ef75	0.089323916
173	0xbcdf20ec	-0.027237378
174	0xbd736448	-0.059421808
175	0xbca88173	-0.020569539
176	0x3db5c6f9	0.08875842
177	0x3d9e49be	0.07728909
178	0xbe18dbcf	-0.149276
179	0xbdaa1f46	-0.08306746
180	0x3dd3a7a8	0.10334712
181	0xbd4a6b9a	-0.049419023
182	0xbda84a8e	-0.08217345
183	0x3d4c561d	0.04988681
184	0xbd7cb3e4	-0.061694995
185	0xbcc60b7c	-0.024175398
186	0xbdf444d1	-0.11927188
187	0x3d08fedb	0.033446174
188	0x3de0e3ff	0.10980987
189	0x3cc832d4	0.0244383
190	0xbdd106d5	-0.10206381
191	0x3d109e61	0.035307292
192	0x3dda9de6	0.10674648
193	0x3cc0612a	0.023483831
194	0xbdecb85e	-0.11558603
195	0xbd265946	-0.04061248
196	0xbcbd8d92	-0.023138795
197	0xbd40014d	-0.04687624
198	0x3dce43e1	0.100715406
199	0x3cfa6028	0.030563429
200	0x3ddcc7c5	0.107802905
201	0x3b7dd007	0.003872873
202	0x3df64606	0.12025075
203	0x3d20e35a	0.03927932
204	0x3d79699a	0.060891725
205	0xbe50b2f0	-0.20380759
206	0x3d2145cc	0.039373204
207	0xbdcc79aa	-0.09984143
208	0xbd12dcf3	-0.035855245
209	0xbdc1244e	-0.09430753
210	0x3c1ecbb3	0.00969212
211	0xbd834ae3	-0.06410768
212	0xb9b69859	-0.00034827253
213	0x3e00ec86	0.12590227
214	0x3b76794e	0.0037608924
215	0x3c5d066f	0.013490303
216	0x3d8e2fd1	0.06942714
217	0x3dcd7d9d	0.100337245
218	0xbc6aaa55	-0.014322837
219	0xbc9ebf16	-0.019378226
220	0x3d9d6af3	0.076864146
221	0x3cee1aee	0.029065575
222	0xbc1509c7	-0.009096569
223	0xbdb21c0e	-0.08696757
224	0x3ddcaeed	0.10775552
225	0x3d4e1a26	0.050317906
226	0xbe033815	-0.12814362
227	0xba9ee05a	-0.0012121305
228	0xbc6e4e95	-0.014545103
229	0xbd95830d	-0.073003866
230	0xbd4a7128	-0.04942432
231	0x3d2839d2	0.041070767
232	0x3e059346	0.13044462
233	0x3df7bb67	0.12096291
234	0x3c973ae5	0.0184607
235	0x3d8f1f57	0.069883995
236	0xbe1d660f	-0.15370964
237	0x3c9e0898	0.019291207
238	0x3dde8e06	0.108669326
239	0x3dca340c	0.098732084
240	0x3e0446fe	0.12917706
241	0x3d962bbe	0.07332562
242	0x3d6f2f59	0.058394764
243	0x3ceca761	0.028888406
244	0x3d9e24d1	0.07721866
245	0x3e063653	0.1310666
246	0x3d248d42	0.040173776
247	0xbd67b4b3	-0.056568813
248	0xbd962b10	-0.07332432
249	0x3d3b4a7e	0.04572534
250	0xbda50a4f	-0.08058607
251	0xbca3ca60	-0.01999396
252	0xbd479635	-0.048727233
253	0x3d329f8a	0.04360918
254	0xbe78fa90	-0.24314332
255	0x3e26c933	0.16287689
