Maize-Runner/results/EscapeRewards2/EscapeMaze/EscapeMaze-19999941.onnx (onnx, 200372 bytes, 9 tensors)

action_model._continuous_distribution.log_sigma f4 [1, 2]
000000 a0 84 88 bf 58 b3 89 bf
       -1.0665474 -1.0757856

action_model._continuous_distribution.mu.bias f4 [2]
000000 60 16 d7 3d c0 9b 73 bc
       0.105023146 -0.014868677

action_model._continuous_distribution.mu.weight f4 [2, 128]
000000 51 59 6c bb f9 20 18 ba 7b 65 db 3a 77 7f 78 3b
       -0.003606398 -0.0005803253 0.0016738618 0.0037917772
000010 2e 3c 64 38 29 1e 74 ba f0 00 09 3b 90 2a 1f b9
       5.4415483e-05 -0.00093123555 0.00209051 -0.00015179277
000020 4e 13 66 bc 1c fb 45 3a 00 42 33 3b 17 4c ec 3c
       -0.0140426885 0.0007552372 0.0027352571 0.028844876
000030 f6 8b 3e 3b 40 52 8f ba 62 ee 8f ba 67 df f9 3a
       0.0029075122 -0.0010934547 -0.0010981078 0.0019063771
000040 24 24 6c 39 ea e3 ec 3a fc 30 a8 ba b9 56 ff 3a
       0.00022520177 0.0018073295 -0.0012831981 0.0019480801
000050 01 97 24 3b dc 3a 84 3b 12 01 83 ba 83 06 01 bb
       0.002511442 0.004035337 -0.0009994826 -0.001968772
000060 2f ba ca 3a cd f3 ea 3a 49 cc 79 b9 ce 04 96 bd
       0.0015466864 0.0017925441 -0.00023822593 -0.07325135
000070 27 78 b9 3c 76 4a 86 bb e0 da 90 bc 9e 5e 8e 3b
       0.0226403 -0.004098232 -0.017682493 0.0043447753
000080 1a bc 15 3b de 64 8c 3d ad 03 36 3d ff f8 92 bd
       0.0022847713 0.068551764 0.0444371 -0.071763985
000090 b0 2b c1 b9 9f 26 6a 3b e7 dd bb b9 f6 3b 5e bb
       -0.00036844378 0.0035728586 -0.0003583275 -0.0033910251
0000a0 7b 36 be b7 7f 0d d7 bd 1b 30 a3 ba 92 0d 3d bd
       -2.2675134e-05 -0.10500621 -0.001245025 -0.04615552
0000b0 a3 27 47 bb c7 db d8 3c cd f2 9f 3d 79 3b 2c 3d
       -0.0030388616 0.026471986 0.078099824 0.042048905
0000c0 d7 15 1e ba bc 14 54 bb cb 11 f9 bc 31 5b 87 ba
       -0.0006030476 -0.0032360991 -0.030403992 -0.001032686
0000d0 6f e0 a8 3a e3 41 40 bb 33 4b 15 3a d0 47 6c 3a
       0.0012884269 -0.0029336147 0.00056951045 0.00090133864
0000e0 02 8b ed 3c de 8c 33 bb f5 d1 82 b9 5c 87 ba 39
       0.028996948 -0.0027397196 -0.00024951962 0.00035577535
0000f0 ab f9 69 3a ab b3 f4 3a 14 82 fd 3a 77 68 e5 3a
       0.0008925448 0.0018669268 0.0019341134 0.0017502446
000100 bf 16 0e 3b 62 d7 85 ba 28 5c a5 3a ed a1 00 3c
       0.0021681038 -0.0010211284 0.0012615966 0.007851106
000110 0f 95 c7 3d c9 84 e9 ba 45 07 12 39 42 c5 2e bb
       0.097452275 -0.0017816062 0.00013926353 -0.0026667868
000120 e9 ba 97 3d b0 51 c9 bc 56 da a6 b9 22 66 21 bb
       0.07408697 -0.024575084 -0.0003182466 -0.0024627526
000130 3d 2d 9c 3a c6 48 cb bb 6b 87 91 3d b6 9e 0f 3a
       0.0011915338 -0.0062037436 0.07105907 0.0005478667
000140 04 b5 32 3b 62 ac 64 39 de 75 a6 3a 76 6c 05 3a
       0.0027268538 0.00021807992 0.0012699922 0.00050897093
000150 39 07 52 3c 70 e9 10 3b ed ec 08 ba 16 62 0d bb
       0.012819105 0.0022111796 -0.0005223293 -0.0021573356
000160 b0 a3 12 3d c3 35 96 38 a1 62 9a 3d 56 47 c2 bb
       0.035800636 7.162571e-05 0.07538343 -0.005928914
000170 46 a1 70 b9 9a 3b c3 ba 65 aa 14 bb 49 e2 0c bb
       -0.00022948263 -0.0014895082 -0.002268457 -0.002149718
000180 5a 37 5b 3b 43 a6 82 ba 0e 6d 4b 3a fc 5c d3 ba
       0.003344974 -0.0009967763 0.0007760086 -0.0016125734
000190 4c fc 57 bd a6 87 44 3d 66 0b a1 3a d3 0d 83 bc
       -0.052730843 0.047980927 0.0012286722 -0.015997803
0001a0 17 aa 37 ba 2f e7 54 bc 28 4f 61 bb bb 7f bb 3d
       -0.00070062414 -0.012994572 -0.0034379456 0.09155222
0001b0 01 ec 65 bb 19 66 0a 3e 11 23 e8 ba 4e 16 b5 ba
       -0.0035083296 0.1351551 -0.0017710646 -0.0013815851
0001c0 c8 9e f8 bc 5f ed 0f ba 7d 1e 0b 3a e9 96 c5 3a
       -0.03034915 -0.0005490388 0.00053069723 0.0015074882
0001d0 1c 2b 39 3a 9a 35 7b 39 4a 92 2b 3c 75 f4 3e b9
       0.0007063614 0.00023957193 0.01047189 -0.0001821088
0001e0 83 69 04 3a cf ed 02 bb cf 3b a1 3a c4 b4 36 3c
       0.0005051123 -0.001997817 0.001230115 0.011151496
0001f0 a1 2b 01 ba 4e ff b2 b9 a9 0c 33 3b d9 1b 3d bb
       -0.00049274607 -0.00034141022 0.0027320778 -0.002885571
000200 8b 47 18 3a ad 63 9e bb 7a 86 18 bb 51 28 a4 ba
       0.00058090006 -0.0048336596 -0.0023273514 -0.0012524222
000210 25 49 c7 ba d7 24 69 bb 5c 74 08 bb d9 ff c7 b9
       -0.0015204294 -0.0035574937 -0.0020821309 -0.0003814686
000220 f1 5b d6 3d 94 22 6b bb 4a 42 cd 38 e9 a5 5a bd
       0.10466755 -0.0035878764 9.787509e-05 -0.05338088
000230 17 c2 38 3b b1 22 46 3a 9a 30 f0 b9 b6 15 71 3a
       0.0028191858 0.000755827 -0.00045812578 0.00091966556
000240 90 54 54 3b a7 00 39 3a 77 42 85 bb 66 af a5 3a
       0.0032399036 0.0007057287 -0.004066761 0.0012640774
000250 21 3e c7 bb 22 03 b2 ba 67 c5 1f ba b3 83 1a 3b
       -0.0060804044 -0.0013581256 -0.0006094784 0.0023577034
000260 86 34 de 38 58 db 29 bb a2 28 96 3b 03 61 4a 3d
       0.00010595568 -0.0025918093 0.0045824805 0.049408924
000270 06 03 e3 3c eb 95 fd ba 7b 43 8f bd ef 9b ea b9
       0.027711403 -0.0019347047 -0.06995293 -0.00044748138
000280 59 86 98 3a 43 5e 09 be 37 46 77 bc 8a 01 52 bd
       0.0011636718 -0.13414864 -0.015092424 -0.051271
000290 72 dc 5e 3b 78 70 75 3a fd 90 f0 ba cf 01 74 bb
       0.0034005907 0.00093627675 -0.0018353757 -0.0037232523
0002a0 b6 44 45 3a 03 36 4c bc 1e 84 d4 ba c6 ab 60 bc
       0.00075251923 -0.012464049 -0.001621369 -0.013712829
0002b0 f2 9c 07 bb 05 7b 0b 3c bc cf b7 3c 9d 5b 4c bd
       -0.0020692912 0.008513217 0.022437923 -0.049892057
0002c0 13 14 87 bb c9 33 94 39 3f 25 34 3d 5a 07 e1 ba
       -0.004122266 0.00028267343 0.043980833 -0.0017168329
0002d0 05 8f 9e ba f2 2c dc 3a 3f 61 15 3a 5b aa 87 3a
       -0.0012097067 0.0016798063 0.000569839 0.0010350453
0002e0 52 a7 aa 3d 6e 16 7d 3b 2f 14 09 bb 3d 37 64 bb
       0.08332695 0.0038618105 -0.0020916571 -0.0034822964
0002f0 5e 25 92 ba e0 ea 5c bb 2a f9 74 3a 92 13 a5 ba
       -0.0011150052 -0.0033709332 0.00093449897 -0.0012594333
000300 06 bb 80 bb 9f 89 70 bb 5b 31 79 ba 20 58 70 3b
       -0.003928545 -0.0036703122 -0.0009505951 0.003667362
000310 f9 3a e7 3b 91 74 4d bb 44 62 3e 3a f3 32 32 3d
       0.0070565906 -0.0031349997 0.00072625675 0.04350562
000320 15 3a db 3c 10 5a 19 3d 74 6a 0f ba 2a b4 0b 3a
       0.026761094 0.037439406 -0.000547088 0.0005329276
000330 9d f8 0b bb 38 ce 94 3d ac c8 77 3d 78 ad 10 bb
       -0.0021357902 0.072658956 0.06049411 -0.0022076052
000340 83 02 39 3b 55 7a c1 ba a5 49 bd 3a f8 d0 1c 3a
       0.0028230257 -0.0014761189 0.0014441503 0.00059820665
000350 9b 79 4f bd 00 3e 8d 3a 68 33 18 ba 05 83 0f bb
       -0.05065308 0.0010775924 -0.0005806 -0.0021898162
000360 4a 6e 97 3d d3 0a d2 ba f4 4a d1 3c be cd 87 ba
       0.07394083 -0.0016024954 0.025548436 -0.0010360999
000370 96 8b 0e bb 39 07 e9 39 75 61 f2 3a cb 3e e2 ba
       -0.002175068 0.00044446604 0.0018492179 -0.0017261145
000380 33 67 4d ba a0 e0 17 3b 03 db 7e ba 82 c6 18 3b
       -0.0007835507 0.0023174658 -0.00097219663 0.002331168
000390 8e 3b 39 bd 31 76 57 bd 9e 68 b9 ba 19 42 6e bd
       -0.04522281 -0.05260295 -0.0014145558 -0.058168504
0003a0 5b 91 84 3a 5b ea ad bc 4f bd 92 39 a0 76 59 3d
       0.001011412 -0.021229913 0.00027988336 0.053091645
0003b0 fc da 32 bb 4f 5b 66 3c 9d eb 99 3a 16 54 82 3a
       -0.002729117 0.014059856 0.0011743192 0.0009943272
0003c0 ee 9f 7c 3d 69 51 ed 3a be d8 76 3a 20 f5 30 3b
       0.06167596 0.0018105927 0.00094164524 0.0027001575
0003d0 9f 1c 06 bb 7c 89 d4 3a 9f 50 ae bc 09 d8 c8 ba
       -0.0020463837 0.001621529 -0.021278678 -0.0015323173
0003e0 17 69 52 3a f6 79 07 3a 34 1e 7a bb 30 cd ba bd
       0.0008026524 0.0005168015 -0.0038164975 -0.09121168
0003f0 01 ac 47 b8 1a 72 be 3a 25 ba e9 ba 8d eb af 37
       -4.760549e-05 0.0014529855 -0.0017831965 2.0971313e-05

network_body._body_endoder.seq_layers.0.bias f4 [128]
000000 13 f6 92 be 5a bd e2 bd dc 93 9d be 21 81 5b bd
       -0.28703365 -0.11071272 -0.3077687 -0.053589944
000010 85 f2 6a bc 87 8a c8 be 36 74 0f bd fa 0a a6 3c
       -0.014340048 -0.39168188 -0.035022937 0.020268906
000020 00 91 f1 3d 59 9e 36 3c 29 db f2 bb b6 ac 13 bc
       0.11795235 0.011146151 -0.00741138 -0.009013345
000030 bc 1e 22 bc fa a7 ae bd 47 0a 4d bc 94 62 f8 3d
       -0.009895023 -0.08528133 -0.012514657 0.12128177
000040 0d bb 47 3d 9a f1 04 bd b6 12 d6 bb 95 a8 6b 3b
       0.04876237 -0.03245697 -0.0065329922 0.0035958637
000050 00 1e aa 3c 46 41 b3 be 0c 90 a1 3d 58 20 a1 bd
       0.020766258 -0.35010737 0.07888803 -0.07867497
000060 1a f5 33 3d 2e dd 4e bc 9f f7 67 bc 9f 1f 0a bc
       0.04393492 -0.0126259755 -0.014158159 -0.008430391
000070 75 20 aa bc ea a6 b1 3d 81 84 ee bd c6 68 a2 3d
       -0.02076743 0.086744145 -0.11646367 0.0793014
000080 99 8b 2c bd 61 9a 80 bc 42 87 3c 3e fa 4d 06 3e
       -0.04212532 -0.015698614 0.18410972 0.13115683
000090 d0 09 8d 3d 13 b3 64 bd 8d 43 db 3d 69 0d 54 3d
       0.06886637 -0.05583484 0.10706244 0.0517706
0000a0 33 3d 88 be 07 c3 41 bd 66 3d 5e 3d 18 a8 e5 3c
       -0.2660919 -0.047305133 0.054257773 0.028034255
0000b0 ba ec 2f 3b 86 19 02 3d 92 66 82 bc 77 bd c9 3c
       0.002684398 0.031762622 -0.01591805 0.024626477
0000c0 19 46 67 bd 71 7e 2a bd 34 7c 1d bd c9 6c 06 bd
       -0.056463335 -0.04162449 -0.038448527 -0.03281859
0000d0 44 f9 71 bd 52 64 a7 bd 0d b3 40 bc e0 72 82 bd
       -0.05907561 -0.081734315 -0.011761439 -0.06369567
0000e0 d2 c5 e7 bc 70 4f 6e bb f1 a2 8b bd 08 b4 26 3c
       -0.02829257 -0.0036363266 -0.06818188 0.010174759
0000f0 0b 2a 19 be 97 a8 57 3d a2 5f a4 bd c7 0d c7 3b
       -0.14957444 0.052651014 -0.08026053 0.0060746404
000100 a6 cc ba bd 69 69 9b 3d bd 60 5f bd f2 dc 28 3d
       -0.09121065 0.07588465 -0.054535616 0.041226335
000110 df 06 17 bd 4c b1 2e be 6c 39 63 be 41 c9 31 bd
       -0.036871787 -0.17059821 -0.22189873 -0.04340482
000120 23 82 1c 3b ea f8 29 bd 77 52 76 bd 3f de a0 bd
       0.0023881278 -0.04149715 -0.06013724 -0.0785489
000130 4c 73 e6 3c 17 bb 82 bb 16 07 e5 bc 9c 3c fb bb
       0.02813115 -0.003989588 -0.02795748 -0.0076671373
000140 c0 78 56 bd 54 c7 87 bd 7d 35 ab 3d cf 3d 93 be
       -0.05236125 -0.06629816 0.083598115 -0.28758094
000150 3f 50 82 bc 13 9a 87 bc d2 ea 98 bd e7 86 b8 3d
       -0.015907405 -0.01655296 -0.074666634 0.090101056
000160 5a 5a 4c bc 50 6d 10 be 0b 78 f1 3c e8 3a 95 bd
       -0.012472713 -0.141042 0.029476186 -0.07286626
000170 b6 da dd bd 94 9c 9d be 50 80 b5 bd 22 f1 70 bd
       -0.108327314 -0.30783522 -0.08862364 -0.058823712
000180 61 6a 91 bd 15 3a 2f 3c 4a 8a b5 bd 66 e3 91 3d
       -0.07100368 0.010695 -0.08864267 0.07123451
000190 79 f5 01 bd b1 b6 9f be 31 e8 6f bd a5 43 a2 bd
       -0.03172824 -0.3119407 -0.058571044 -0.079230584
0001a0 ba 36 20 bc 38 a1 87 3c c5 6e eb bd e0 6e 88 3c
       -0.009778673 0.016556367 -0.11495737 0.016654432
0001b0 36 c1 a9 3b c7 70 8f 3d 5b 5e 0f bd 0d 5b 55 bd
       0.0051805032 0.070039324 -0.035002094 -0.052088786
0001c0 48 6d b5 3d 0e 6e f4 bd 7f e4 2e bd 37 53 d2 bc
       0.08858734 -0.11935054 -0.04269838 -0.025674446
0001d0 b9 a6 c1 bd de 13 8d 3b c2 b7 9d 3d 14 be a6 bd
       -0.09455628 0.004305347 0.07701065 -0.08141723
0001e0 de 61 6b bd e9 2a fd bb 16 1e 41 be 50 1f 20 bd
       -0.05746638 -0.0077260626 -0.18859133 -0.039092362
0001f0 44 f3 e0 bd d6 b3 13 3c ad 50 e8 bb 6f 6a 51 be
       -0.10983899 0.009015044 -0.0070896954 -0.20450757

network_body._body_endoder.seq_layers.0.weight f4 [128, 126]
000000 1a b1 3d 3d db c6 c7 be 3d 0e 05 3e 3c 0a 4c 3e
       0.046311475 -0.39018902 0.12993713 0.19925779
000010 27 00 30 be 0f 0a de bd d7 42 f5 be 06 e7 b1 3b
       -0.17187558 -0.10841762 -0.47902557 0.0054291515
000020 4f 8a 00 3f 03 b6 e0 bd 2a f4 5f 3e 9b 23 8b be
       0.5021104 -0.10972216 0.21870485 -0.27175602
000030 66 27 d1 3c b4 de 36 3d ce 08 ed bd aa 86 c8 3d
       0.025531482 0.04464598 -0.11573945 0.0979131
000040 c8 82 d8 be 8e cb 16 be 2f 99 d7 be c5 83 bc be
       -0.42287278 -0.14726087 -0.42109057 -0.36819282
000050 71 ed e7 3d 76 4e d4 be 73 dd 94 3e 68 f9 95 3d
       0.11324585 -0.4146611 0.29075202 0.07322961
000060 e7 bc 37 be 58 91 5b 3d 6f 20 ab be fe d3 bc be
       -0.17943154 0.053605407 -0.33423182 -0.36880487
000070 27 e6 b4 3e 6a a8 3b be 85 6e 33 bc 37 4d cd be
       0.35331842 -0.18325964 -0.010951643 -0.40097973
000080 72 eb 52 bc bb b5 70 3e 94 d4 5a be e3 81 73 bd
       -0.012873517 0.23506825 -0.21370155 -0.05945004
000090 19 fb de 3c 75 57 a1 be 90 7e 04 3e d1 a6 40 be
       0.027219342 -0.31512037 0.12938905 -0.18813635
0000a0 d4 ec f8 3d 2e c8 31 bf c3 64 9c 3d c3 ea 13 3d
       0.121545464 -0.69446075 0.07636406 0.036112558
0000b0 42 00 9c 3e 5f 68 b7 bd 0c 79 ee bd 16 b2 be bc
       0.30468947 -0.08955454 -0.116441816 -0.023278277
0000c0 51 ad bd 3d 80 21 88 be a1 fc 11 be 30 9f ac be
       0.09261573 -0.26588058 -0.14256527 -0.337152
0000d0 b9 71 91 bd 36 8f 63 3e 6a 38 a3 bd 7a 84 e0 bd
       -0.07101769 0.222226 -0.079697445 -0.10962768
0000e0 bb d0 4d be ba f4 a9 bd b8 fb 46 be bc 2d 83 be
       -0.20099156 -0.08298631 -0.1943196 -0.2562083
0000f0 24 e2 19 3d 01 96 77 be fd 81 ce 3c bf a1 42 be
       0.03756918 -0.24178316 0.025208468 -0.19007014
000100 18 b6 3d be 4b 3b 3b 3e 85 bb eb bc 70 d6 c5 bd
       -0.18526495 0.18284337 -0.02877594 -0.09660041
000110 e3 95 52 3d d6 75 09 bc 62 77 01 be d0 33 dd 3d
       0.051412474 -0.008389911 -0.12643197 0.10800898
000120 f1 5e f9 3d fe c4 b7 bd 39 11 26 3f db 65 3b 3e
       0.12176312 -0.0897312 0.6487003 0.18300574
000130 ae d3 8b be 29 79 29 ba 28 a5 f7 be 88 94 fc be
       -0.27309936 -0.00064648926 -0.48368192 -0.4933207
000140 9a 72 dc 3e a9 bd 8e 3e b9 24 84 3d a5 c5 4b 3e
       0.43056184 0.27879074 0.06452317 0.19899614
000150 51 d5 9b 3d de 71 35 be 74 0a bf 3e c3 1c 6b be
       0.07609046 -0.17719218 0.37312663 -0.2296019
000160 f9 10 e4 bd ca 43 8c 3e a6 da 50 bf 62 67 9b be
       -0.1113605 0.2739547 -0.8158363 -0.30352312
000170 1a 26 a0 3e d6 d5 0e be 49 82 49 be 24 48 af 3e
       0.3127907 -0.1394876 -0.19678606 0.34234726
000180 11 1b 91 3c ab 5f 95 3c df 07 b3 bd 34 d1 45 bd
       0.017713102 0.018234095 -0.08741736 -0.048295215
000190 c6 2c c5 be 83 9d 09 3f 5f dc 49 bd b0 a5 b5 bd
       -0.38510722 0.5375597 -0.049282428 -0.08869493
0001a0 0e 7f d4 3e 98 81 40 be 50 1c da be 42 7a 49 3e
       0.41503185 -0.18799436 -0.42599726 0.19675544
0001b0 f9 76 9a 3d 23 7b 5a bd 9a d8 f4 3e 0b 3f f7 bd
       0.075422235 -0.05334009 0.47821504 -0.12072571
0001c0 fd 6d 81 be e1 a4 d5 3d 7f de 51 bd 6d 39 13 be
       -0.25279227 0.10431839 -0.05123758 -0.14377375
0001d0 a4 f6 ac be 3c 00 04 be 29 5b 53 bd 80 aa be be
       -0.33781922 -0.12890714 -0.05160061 -0.37239456
0001e0 7e a2 52 be 8c b5 1f be 82 c1 35 be 2f 84 97 be
       -0.20569798 -0.15596598 -0.17749599 -0.29593036
0001f0 9e b7 91 bd 8d 4e 22 bf 6d 37 ff bd a0 d3 b5 3e
       -0.071151 -0.6340111 -0.124617435 0.3551302
000200 09 a3 f7 be 33 4a a0 be 2c a8 37 be a0 7d 95 bd
       -0.48366573 -0.3130661 -0.17935246 -0.07299352
000210 10 9e 22 be 4f e7 f2 3d 0c ad af 3e 3a a2 e0 bd
       -0.15880609 0.11860525 0.34311712 -0.10968442
000220 a7 9f b0 bd b5 65 db 3d 2a ed 44 be e2 dd 49 be
       -0.08624201 0.107127585 -0.19231096 -0.19713548
000230 07 c8 41 be 46 ba 63 be 36 8d 56 be 3f 80 6f be
       -0.1892396 -0.22239026 -0.20952305 -0.23388766
000240 1e 78 01 3f dd 78 e3 3b 39 03 d6 3d 2c ea 48 3e
       0.5057391 0.0069418983 0.104498334 0.1962058
000250 13 3c 45 be af 17 06 bf 96 be a0 be b3 c4 48 be
       -0.19261198 -0.5237989 -0.31395406 -0.19606285
000260 8d ed 39 3d c1 38 85 be d5 a3 70 3e 46 55 d4 bc
       0.04539256 -0.26019862 0.23499997 -0.025919568
000270 00 ad d4 3d 74 0b 9e be a0 f5 91 bd 63 05 d7 3a
       0.1038456 -0.30868113 -0.071269274 0.0016404804
000280 a7 be d8 bd 6d a7 41 bd e0 18 20 be ec b2 41 be
       -0.10583239 -0.04727881 -0.15634489 -0.1891591
000290 70 98 09 bd 38 8e 3e bd 8b cf ba bd b1 c4 ee bc
       -0.03359264 -0.04652235 -0.09121617 -0.029146524
0002a0 55 a1 6a bd 00 65 09 bf bd 70 2c bf fe c4 bd 3c
       -0.057282764 -0.5366974 -0.67359525 0.023165222
0002b0 6d 3e 93 3d 9e 40 7a be dd b2 5b bd bf ae af be
       0.07189641 -0.24438712 -0.053637374 -0.34313008
0002c0 39 82 06 be 2d 37 c0 bc f6 71 57 be 75 19 60 bd
       -0.13135614 -0.02346381 -0.21039566 -0.054711778
0002d0 7f 09 e6 be 1a 2b 8a 3d 69 40 90 be 63 75 15 3c
       -0.4492912 0.06746502 -0.2817414 0.009122225
0002e0 be 17 2e be 3f 5d 09 be 06 de ea 3d 58 8a 9a bd
       -0.17001244 -0.13414477 0.11468129 -0.07545918
0002f0 69 02 8e bd 4e f8 86 be c9 59 9e be 49 19 55 3e
       -0.069340535 -0.26361316 -0.30927876 0.20810427
000300 d3 a5 05 bf 27 27 ee be 99 ba 31 3f 24 dd 02 bd
       -0.5220615 -0.46514246 0.6942535 -0.031949177
000310 a0 a7 bc bd f1 13 e4 3e 3b 5d de be 3c 66 fe be
       -0.092116594 0.44546464 -0.43430504 -0.49687374
000320 62 28 04 3f aa c9 54 3e 5f ef 46 be 5b 86 e5 3e
       0.5162412 0.20780054 -0.1942725 0.44829068
000330 07 9d 46 3e 24 02 0c be 18 2c d3 3e 64 39 0d be
       0.19395839 -0.13672692 0.41244578 -0.13791424
000340 ac dc 60 3d fb 6a ad bc 8b 57 49 be f8 80 cf be
       0.05489795 -0.021169176 -0.19662301 -0.40528083
000350 b1 b2 f3 3d f3 25 0f bd 01 31 00 3e 73 26 04 3e
       0.11899317 -0.0349483 0.12518694 0.12905292
000360 a9 5d 00 3f cd cd b8 bd 12 55 ad bd 38 e6 85 be
       0.50142914 -0.090236284 -0.084634915 -0.26152205
000370 57 e2 9b 3b 0a a9 54 3d 23 88 a7 3b f8 76 a4 be
       0.0047572064 0.05191902 0.0051126643 -0.32122016
000380 94 96 1c 3d 34 12 a9 bd 1b 40 22 be 56 26 01 be
       0.03822954 -0.08255425 -0.15844767 -0.1261228
000390 53 f2 1a be 06 55 0f bf c2 60 c3 3e 00 b7 e3 be
       -0.15131502 -0.5598911 0.38159758 -0.44475555
0003a0 81 24 f1 be 4c a0 1d 3b cd 8e b2 be 6c 7e f4 be
       -0.47098163 0.0024051843 -0.34874573 -0.47752702
0003b0 bb 49 92 bd 82 65 fb bd e0 2a b5 be ce 88 8d be
       -0.07142969 -0.122752205 -0.35384274 -0.27643436
0003c0 15 6f 61 3c 16 3f 9f be 17 46 99 bd be 10 8c bb
       0.013759394 -0.31102818 -0.07484072 -0.0042744568
0003d0 c0 fe 9f bc 20 51 1d be 65 49 ca 3d 9e 4c f7 bd
       -0.019530654 -0.15362978 0.0987728 -0.120751604
0003e0 65 c6 39 bd 28 6b 2d 3d 13 aa d7 3d 49 63 a0 3e
       -0.04535522 0.04233852 0.10530486 0.3132575
0003f0 b8 ca c2 3c 75 2c 82 bd dd d1 bd be 48 e4 54 bc
       0.023778304 -0.06356136 -0.37074175 -0.01299388

network_body._body_endoder.seq_layers.2.bias f4 [128]
000000 e0 06 97 bd c3 66 24 be cd 6d 3b be a1 d5 f6 bd
       -0.07374358 -0.16054825 -0.18303604 -0.12052465
000010 f4 7b 88 be 08 ec 8d be 96 bb 69 bd 2b 65 1a be
       -0.2665707 -0.2771914 -0.05706366 -0.15077655
000020 22 e1 88 be 86 59 a5 be bc c4 64 be 74 aa 35 be
       -0.26734263 -0.32294863 -0.22340673 -0.17740804
000030 10 e8 6a be 88 4d e7 bd 93 1d be bc 03 e6 dc bd
       -0.22940087 -0.11294085 -0.023207461 -0.10786059
000040 15 cc 15 be 53 82 36 be 78 ff 56 be 8b 5e b9 be
       -0.14628632 -0.17823152 -0.20995891 -0.36204943
000050 d4 50 d3 bd 32 32 a3 bd 35 7b 67 be f4 24 cc bd
       -0.10318151 -0.07968558 -0.22605594 -0.09967986
000060 83 6e 1d be 8c e1 66 bd 42 92 33 be f8 fc 28 be
       -0.15374188 -0.056367442 -0.17536262 -0.1650275
000070 44 33 15 bd 36 4c 2d be 49 d8 7e be 33 29 90 bd
       -0.036425844 -0.16923603 -0.24887194 -0.07039108
000080 7e 77 88 be 77 14 bc be 20 9b 64 be d0 95 9b be
       -0.26653665 -0.36734363 -0.223248 -0.30387735
000090 89 26 6b be d3 ac 1c be 79 e5 c6 be 8d ad 42 39
       -0.22963919 -0.15300302 -0.3884695 0.00018565934
0000a0 97 14 5d be b7 34 ea bd 2d df 4b be 8b be 32 be
       -0.21589886 -0.11435836 -0.19909354 -0.17455499
0000b0 58 75 ab bd 5e 16 5f be e6 a5 5e be cb 7f 1f be
       -0.08371991 -0.21785876 -0.21742973 -0.15576093
0000c0 08 97 fe bd b9 17 56 be 5e 98 45 be 95 79 48 be
       -0.12431151 -0.20907487 -0.19296405 -0.1957763
0000d0 1f 16 81 be 89 db 44 bd 16 77 47 be e7 b4 a8 bd
       -0.2521219 -0.048060928 -0.19479021 -0.082376294
0000e0 f6 e5 1b be d8 eb b5 be d5 23 5c be 70 a7 8b be
       -0.15224442 -0.35531497 -0.21498044 -0.27276182
0000f0 66 f6 f2 bd ac 5f 38 be 84 e7 cc bd d3 3d 54 be
       -0.11863403 -0.18005246 -0.100050956 -0.20726709
000100 d4 8b ac bd 96 22 10 be 48 e3 8b be 65 ec 6e be
       -0.084251076 -0.14075693 -0.2732184 -0.23332365
000110 ae ff bf bd cf 59 26 be bc ed 6c be 66 36 1c be
       -0.09374939 -0.16245197 -0.23137563 -0.15255126
000120 8f 95 a4 be 02 34 bb bd 6d ca 0c be 7b a8 cf bd
       -0.32145354 -0.09140779 -0.13749094 -0.10139557
000130 3b 55 fc bd ba 20 ce bd 52 6f 0b be 0b 37 2e be
       -0.12320944 -0.10064836 -0.13616684 -0.17013185
000140 fe 47 38 be 93 c8 d5 bd 37 69 37 be 2f a3 42 be
       -0.17996213 -0.10438647 -0.1791123 -0.19007562
000150 54 84 68 be 88 90 8d bd 15 b6 be bd 46 fe 61 be
       -0.22706729 -0.06912333 -0.09312073 -0.22069654
000160 f1 75 e5 bd 0e 53 1e be 99 22 cc bc 66 eb c8 3d
       -0.11204136 -0.1546137 -0.024918841 0.09810524
000170 08 2a 70 bd b8 27 8c be 39 8a 63 be 7e 9f 8e be
       -0.058633834 -0.27374053 -0.22220697 -0.27856058
000180 d8 6b 4b be b6 bc 53 be 66 c3 21 be 74 ee 4c be
       -0.19865358 -0.20677456 -0.15797195 -0.20012838
000190 db 8f 2b be f2 51 3e be dc bc bf bd 9b b0 90 bd
       -0.16754095 -0.18585947 -0.09362194 -0.07064935
0001a0 dd c3 82 be f4 b3 46 be 98 01 cb be 77 95 57 be
       -0.25540057 -0.19404584 -0.39649653 -0.2105311
0001b0 09 10 3f bd e3 31 9d bd 6c f9 10 be 8f 6d 84 be
       -0.04664615 -0.07675531 -0.14157647 -0.25864837
0001c0 5f 6b 7a be 7e c9 46 be f0 b7 8c bd d5 f0 19 bd
       -0.24455021 -0.194128 -0.06871021 -0.03758319
0001d0 9d 54 21 be 0b 18 5e be e1 c7 58 be fc 9b 9a be
       -0.15754934 -0.21688859 -0.21169998 -0.30197132
0001e0 94 6d 85 bd 60 2e bb bd 99 f7 24 be d9 cc 15 be
       -0.06515041 -0.09139705 -0.16110076 -0.14628924
0001f0 c7 d9 02 be 86 49 6c be 71 f8 26 be 24 b7 7a be
       -0.12778388 -0.23074922 -0.1630571 -0.24483925

network_body._body_endoder.seq_layers.2.weight f4 [128, 128]
000000 81 ba 53 be a2 d1 b2 3d fb 98 67 bd 7c 87 77 3e
       -0.20676614 0.087313905 -0.056542378 0.24172777
000010 46 d1 ec bc fa 1b dd bd ee b6 91 3d 88 ec fa bd
       -0.028908383 -0.10796352 0.07114969 -0.12252146
000020 9a bb 71 3d 65 8c b9 be 3f 91 1c 3e ad f5 5d be
       0.0590168 -0.36239925 0.15289782 -0.21675749
000030 24 3a d4 be 82 7c 70 3d be 85 a2 be c9 95 82 bd
       -0.41450608 0.05871249 -0.31742662 -0.063762255
000040 26 f6 35 be 72 8c c2 3d 2e d7 73 be 5d b3 da 3b
       -0.1776968 0.09499444 -0.23812553 0.006674214
000050 a1 a2 b5 bd 0d 8d e7 bd 2a 42 9e 3d 6d 5b 8b bd
       -0.088689096 -0.113062 0.077274635 -0.068045475
000060 1c 9e 39 bf 2f c8 bb bd 31 54 77 3e e9 b1 19 be
       -0.7250688 -0.09169041 0.2415321 -0.15009274
000070 e7 5d 05 bb 30 4f 71 be 23 94 ee 3d dc 0e 55 3e
       -0.002035016 -0.23565364 0.116493486 0.2080645
000080 b3 91 9f 3e 9a 0f 43 be a3 0d df bd e2 3a b9 bc
       0.31165847 -0.1904892 -0.10891273 -0.022611085
000090 83 45 f6 bd ed 88 d6 be d2 e0 9f bc ea 39 f0 3b
       -0.12024977 -0.4190134 -0.019516382 0.0073311226
0000a0 3c 7c d2 3d e8 f7 74 3d 76 ab d0 be dc 96 91 bb
       0.10277602 0.059806734 -0.40755814 -0.0044430327
0000b0 60 34 c4 bd 47 1f b1 bd b2 0e 94 3e dd 82 fa 3d
       -0.09580302 -0.08648544 0.28917462 0.122319914
0000c0 70 83 07 be 78 46 d2 be 86 ad b2 bb e8 e5 9e bc
       -0.13233733 -0.41069388 -0.0054528145 -0.019396737
0000d0 50 f1 55 be 2f 23 37 bc 8b fe b5 3d 00 d9 30 be
       -0.20892835 -0.011177822 0.08886441 -0.17270279
0000e0 c7 cc e7 bd 61 cd 07 be 58 9b 31 be d4 73 1d be
       -0.11318355 -0.1326194 -0.17344415 -0.15376216
0000f0 a6 18 33 3d 38 a6 50 3d 06 aa 74 bd 51 ac dc bc
       0.04372468 0.05093977 -0.05973246 -0.026937636
000100 b0 40 83 be 19 27 71 bc 32 6e c3 3d 36 6c 61 3d
       -0.2563529 -0.014718794 0.095425025 0.05503484
000110 06 75 dd 3d 08 13 33 be 48 a5 95 3d d3 9a 96 be
       0.10813336 -0.17487729 0.073069155 -0.29414997
000120 4b 21 45 3e 85 53 79 bb d7 12 b9 bd 0c 5a dd be
       0.19250982 -0.0038044166 -0.090367965 -0.43232763
000130 5b bb b3 bd 5c e7 c4 be a7 cf a7 3e 70 27 8b be
       -0.087759696 -0.38457763 0.32775614 -0.27178526
000140 2d 7b c9 be b5 df ab 3d df 4e 86 3e 01 a8 42 3d
       -0.39351788 0.08392278 0.2623205 0.047523502
000150 a5 3c d1 bd a0 65 01 bc 0f 81 02 3e 02 e0 84 3e
       -0.10216645 -0.007897764 0.12744544 0.25952154
000160 f5 d4 23 3e 38 31 0b 3d 2a 70 37 be 74 23 e7 be
       0.15999205 0.033982486 -0.17913881 -0.45144236
000170 db c5 a5 be d4 c2 20 bd 1b 76 d5 bd e5 c4 e6 3c
       -0.32377514 -0.039248303 -0.104229175 0.028170059
000180 48 1f 84 3d 81 62 06 3e d9 21 49 3e 93 9a 44 bd
       0.06451279 0.13123514 0.19641818 -0.047998976
000190 d0 04 1f be 17 e0 e2 bd 6e 27 74 be 7c 6a a9 3d
       -0.1552918 -0.11077898 -0.23843166 0.082722634
0001a0 1d 91 29 be 60 4c ce be de 9a 2a be 53 f9 f5 bd
       -0.16559263 -0.40292645 -0.1666064 -0.120104454
0001b0 63 c8 78 bc c5 90 33 be b6 f8 1f bf 7b ce ef bd
       -0.015184495 -0.17535694 -0.6248888 -0.11709305
0001c0 14 65 a2 bc 12 bb 81 3d 20 5a 61 3e ba 27 0f 3e
       -0.019823588 0.06334509 0.22007036 0.13979998
0001d0 db a5 6c be 64 db b8 bd b1 9b fe bd 6d 2a b8 bd
       -0.23110144 -0.090262204 -0.124320395 -0.08992467
0001e0 2e 0d f8 bb 41 6b 1c bd 42 be 66 3d 50 d9 55 be
       -0.0075699305 -0.038188223 0.056333788 -0.2088368
0001f0 53 b5 93 be 84 c0 59 3e 5b 14 11 3e b4 6a 85 bd
       -0.28849277 0.21264845 0.14167921 -0.06514493
000200 3f 5c 1f bd c1 b2 3e 3e 5d b4 80 bd c1 14 a3 be
       -0.038906332 0.18622877 -0.062844016 -0.3185177
000210 40 93 ec 3d df a4 0b be 09 84 3a 3c 5c 12 28 3e
       0.11551523 -0.13637112 0.011384019 0.16413254
000220 d5 db dc 3b aa 6d 6c 3e 84 cf 83 3b 32 1d fa bd
       0.006740073 0.23088709 0.0040225405 -0.122126
000230 89 88 6d bd 3c ef a8 bc 0b 2f fc bb cf 66 e4 3e
       -0.05799154 -0.020621888 -0.0076960376 0.44609687
000240 77 fd da be 5c 26 c6 bc 75 fb 78 3e b0 48 04 3c
       -0.42771503 -0.024188213 0.24314673 0.008073971
000250 21 0f e2 3d 8e 02 34 be a1 70 c6 bd a6 1d 4e be
       0.11038042 -0.175791 -0.09689451 -0.20128497
000260 e1 e5 0b be 27 83 97 be 14 bd ce 3c df 49 5b 3d
       -0.1366191 -0.2959225 0.025236644 0.053537246
000270 c4 9b 49 3e 3a f2 5f be 9c 67 33 be b9 96 94 bd
       0.19688326 -0.21869746 -0.17519993 -0.072553106
000280 b3 81 84 be c6 fc d1 be a4 c2 16 3e 9a 97 2c 3e
       -0.25880203 -0.41013163 0.14722687 0.16854706
000290 50 e7 66 be 8d 2e ce bd 17 e7 04 3e 29 f5 56 bd
       -0.22549176 -0.100674726 0.12978779 -0.052479897
0002a0 c5 66 c5 bd 78 92 77 3e fb 0a ac 3d 09 de 25 3d
       -0.09638742 0.24176967 0.08400532 0.040494952
0002b0 02 d8 03 bf 5f fa aa be 63 60 6d 3e 97 d8 bd 3d
       -0.51501477 -0.33394143 0.231813 0.09269827
0002c0 b2 9a 9c 3d b0 26 f7 b8 7f 11 a6 3d e1 be 53 bd
       0.07646693 -0.00011785084 0.08108806 -0.05169571
0002d0 5d f9 80 be 70 fd 12 3d a9 5a ec 3d 5b 76 b8 bd
       -0.2519025 0.035886228 0.115407296 -0.090069495
0002e0 44 85 b3 3e 10 02 84 bd 4d 9c cc bc 3c 5d 16 be
       0.3506261 -0.06445706 -0.024976874 -0.14684004
0002f0 82 d8 fb 3d c6 7a 1f be eb 4b 99 be 2b be f7 3c
       0.12297155 -0.15574178 -0.29940733 0.030242046
000300 46 7b 18 be 83 5d d8 bd 90 9c 33 be b9 bb ac be
       -0.14890775 -0.10564711 -0.17540193 -0.3373697
000310 d9 14 7b bd 00 a2 34 be 89 ba c8 bd b9 f4 d6 be
       -0.06129918 -0.17639923 -0.09801204 -0.41983584
000320 05 e4 a1 bd 79 5c f8 bd 23 46 db bd b4 04 86 3e
       -0.079048194 -0.12127013 -0.10706737 0.26175463
000330 da 8d ce 3c 3b 5a 3c be 69 5f 02 bd 2b 34 71 bc
       0.025214124 -0.18393795 -0.03182927 -0.0147219105
000340 df 64 0a 3c 43 85 88 3c 9e 5a a9 bd f8 78 08 3e
       0.008446901 0.016665107 -0.08269237 0.13327396
000350 fd e8 4e be 89 28 ed bd 79 2f c7 be f1 e0 bd be
       -0.20206065 -0.11579997 -0.38903406 -0.3708568
000360 43 88 99 bd 88 63 47 bd b4 0b 04 3d b6 b8 dd 3e
       -0.07496693 -0.048678905 0.032237723 0.43304986
000370 61 f6 4b 3d d2 be dd 3d 68 d9 a1 bd ed aa aa be
       0.049795512 0.10827412 -0.07902795 -0.3333353
000380 c1 a1 e6 3d 2b 97 0b bd ec d9 9f bd ed 73 37 3e
       0.11261321 -0.034079712 -0.07805237 0.17915316
000390 38 c6 0a bc e4 15 4f be b7 e3 ea bd 19 2a a5 3c
       -0.008470111 -0.20223194 -0.114692144 0.020161675
0003a0 b2 a4 6b 3d 49 ff 99 bc 55 02 74 bd e8 19 90 bd
       0.057530113 -0.018798487 -0.059572536 -0.07036191
0003b0 85 cb 68 3d 7f 63 0b bd 33 53 8f be a3 ae ac bc
       0.056834716 -0.034030434 -0.27993163 -0.021079367
0003c0 8b 4d 4b be 76 48 f0 bc 7d 7c a4 be d2 e5 d1 bd
       -0.19853799 -0.029331427 -0.32126227 -0.10248913
0003d0 3f 17 92 be 06 47 e1 bd 41 ba 88 3e b0 ad 0a 3e
       -0.2853336 -0.10999875 0.267046 0.13542819
0003e0 9e 62 16 be 08 94 a2 3d c2 98 a5 3d 39 a7 75 3e
       -0.14686057 0.07938391 0.08085777 0.23989572
0003f0 27 ce d5 be b0 aa 9e bd c8 00 5c 3d 77 ea 51 bd
       -0.41758844 -0.077474 0.053711683 -0.051248994

network_body._body_endoder.seq_layers.4.bias f4 [128]
000000 51 06 69 bd 78 f8 f1 bc f0 fe 62 bc f4 39 27 bd
       -0.05689079 -0.029537424 -0.013854727 -0.040826753
000010 74 fd e2 bd c1 bb 6e bc ad 44 39 bd 02 14 64 bc
       -0.110834986 -0.014571131 -0.04523151 -0.013920786
000020 04 65 59 bd 43 c2 e4 bc 62 15 a8 bd 98 7e 97 be
       -0.05307485 -0.027924662 -0.082072034 -0.2958877
000030 99 1d 9c bc 76 34 47 bd 72 1e 3f bd 92 02 a0 bc
       -0.019057082 -0.048634015 -0.046659894 -0.019532476
000040 94 fa a2 ba fd 9a a6 3c 47 0c 9b bd 29 97 63 bd
       -0.0012434297 0.020337576 -0.07570701 -0.05556408
000050 1f 3e 67 bd 38 f5 26 bd 49 c4 df bc 99 de 4c bd
       -0.056455728 -0.040761203 -0.027315276 -0.050016973
000060 0f 41 58 bd f5 44 24 bd 2b f2 cc 3c 7f 75 34 be
       -0.05279642 -0.040104825 0.025017818 -0.17622946
000070 e8 ad 5a be af 56 8f bd 19 ef 4d be 88 b7 26 be
       -0.21355402 -0.069989555 -0.2011074 -0.16280949
000080 33 b8 40 b9 4b b6 03 bc 64 87 27 bd 2f 44 4f be
       -0.00018379166 -0.0080390675 -0.040900603 -0.20240854
000090 67 c9 3d bd 5d b8 23 bd 27 a2 05 bd 7b d3 1a bd
       -0.04633465 -0.039970744 -0.032625344 -0.03779934
0000a0 2a 0b 8d bd 03 88 bd be df 9d ed bc d6 30 cf be
       -0.06886895 -0.3701783 -0.029005943 -0.40466946
0000b0 d8 b0 9f bd 46 cf 4d be dd 85 1e 3d 62 72 67 be
       -0.07797402 -0.200986 0.03870188 -0.22602227
0000c0 14 83 bc bd b3 2a 91 bd e6 0c 42 be 73 b6 82 bd
       -0.09204689 -0.07088222 -0.18950233 -0.06382456
0000d0 99 29 d8 bc c4 52 98 bd e3 2e 6a bc 4d 70 3d bd
       -0.026387023 -0.07437661 -0.014293405 -0.046249676
0000e0 da 58 9f bd 07 eb aa bd fc 75 7e bd c8 4e 84 bd
       -0.07780619 -0.08345609 -0.062124237 -0.06460339
0000f0 6b 2f 93 bd 12 f8 36 bd 5b 40 dd bd ff 3f b2 3b
       -0.07186779 -0.044670172 -0.108032905 0.005439758
000100 ea d8 75 bd 29 69 20 bd be 13 8d bc cb b3 1b be
       -0.06002132 -0.03916279 -0.017221328 -0.15205304
000110 40 b8 cb bd 95 4f 90 bd d8 46 47 bd c5 ee 96 be
       -0.09947252 -0.07046429 -0.048651546 -0.29479042
000120 41 7d fe bd 97 27 bc be 76 38 60 bd 72 22 13 be
       -0.12426234 -0.36748955 -0.054741345 -0.14368609
000130 45 12 10 be dc 44 de be 24 f0 ca bd 06 5d 77 bd
       -0.1406947 -0.4341191 -0.099090844 -0.06039145
000140 b4 0f 0c bd 38 f3 b6 bd 12 9b b3 bd 94 49 2a bd
       -0.034194663 -0.08933109 -0.08769812 -0.041574076
000150 b0 77 76 bd 16 a9 06 bf d7 30 c7 bd d6 d0 9f bd
       -0.060172737 -0.52601755 -0.09726112 -0.07803504
000160 f3 12 84 bd 71 68 96 bc 48 b4 15 be ee 8a 34 bd
       -0.06448927 -0.018360348 -0.14619553 -0.044077806
000170 0a 79 2e bd e4 d6 e1 bd c6 63 74 3c 97 f0 e3 bc
       -0.0425959 -0.11027315 0.014916366 -0.027824683
000180 fd 9f 90 bd 1f f0 60 bd d2 d3 2c bd 58 ff 90 bd
       -0.07061765 -0.054916497 -0.042194195 -0.07079953
000190 cd 31 8c be cf 86 3e bd a4 e4 c3 3c ea ad 96 be
       -0.27381745 -0.046515282 0.023912735 -0.2942956
0001a0 ce 65 68 bd 68 7f 93 be b1 ea c2 bc 46 5c 16 be
       -0.056737714 -0.2880814 -0.02379355 -0.14683637
0001b0 42 96 96 bd 8d 38 cc 3d 00 03 18 bd 6e 6b 57 bd
       -0.07352878 0.09971724 -0.037112236 -0.052592687
0001c0 80 7d 96 be fc a8 b3 bc 4f 72 e5 bc 3d ce 87 bd
       -0.29392624 -0.021931164 -0.028008608 -0.06631134
0001d0 58 32 45 bd 09 42 97 bd 98 2d 36 be 49 64 d4 bd
       -0.048143715 -0.07385642 -0.1779083 -0.103706904
0001e0 86 0d 5f bd e7 9e cb bd 44 a4 cc bd 3e 2d ef bc
       -0.054456256 -0.099424176 -0.09992269 -0.029196378
0001f0 11 df 8d bd 93 1e c8 bc 8f ce 45 bd 7d a7 d5 bd
       -0.06927312 -0.024428641 -0.048292693 -0.104323365

network_body._body_endoder.seq_layers.4.weight f4 [128, 128]
000000 92 50 ff 3c 35 74 5b 3d 48 1b 69 3c 23 5b ed bd
       0.031166349 0.05357762 0.014227696 -0.115896486
000010 46 6d 38 bd 76 64 05 bd cd c3 2b 3c 63 dd 93 bc
       -0.045026086 -0.03256651 0.010483694 -0.018049901
000020 21 67 86 bb de 4b 37 3d 63 d1 a4 bd e3 32 6f 3d
       -0.0041016494 0.044750087 -0.0804775 0.05839814
000030 70 75 91 bc fc db 53 bc 86 4e 19 bd f6 b4 e0 3d
       -0.017756194 -0.012930866 -0.0374284 0.109720156
000040 2c 0c 82 3d a6 06 f3 39 36 f3 a0 bc 16 66 9f 3c
       0.06349978 0.00046353525 -0.019647222 0.019457858
000050 66 d7 bb 3c 0b fe 05 3c 6c 02 52 3d 29 ea 97 3c
       0.022929858 0.008178244 0.05127184 0.018544273
000060 71 ae 57 bd b7 a1 14 bd ee 4b 4a 3c ee 6e 81 3d
       -0.052656595 -0.036287036 0.012347205 0.06319986
000070 0e 16 c1 3c 07 0e 09 3c 2e 9b da 3d d0 86 1a bd
       0.023570087 0.008365161 0.106741294 -0.037726223
000080 a5 ce 13 bd 49 9f 8d 3d f9 27 fb bc 6c a5 91 3d
       -0.036085743 0.06915147 -0.030658709 0.0711163
000090 78 69 8f 3d 58 6b 05 bb 1a 55 5d 3d d8 e4 1a 3d
       0.070025384 -0.0020358171 0.054036237 0.0378159
0000a0 59 7a bc bd 46 b4 1d 3d ea a4 87 3d c3 d7 18 bc
       -0.092030235 0.038502 0.06623252 -0.009328785
0000b0 73 c7 d2 bd 31 49 50 3c f4 22 38 bc e6 de 58 bd
       -0.10291948 0.012712763 -0.011238802 -0.052946948
0000c0 9f b3 24 bd 8b cd e4 3c cf c1 56 bc 31 d7 a1 bd
       -0.040210363 0.027930042 -0.013107731 -0.07902373
0000d0 4f 9a 59 bd ae 8b 5b bc 33 bc 8d 3d d4 1e ef bb
       -0.053125676 -0.013400001 0.06920662 -0.007297376
0000e0 03 38 77 ba cc f4 f2 3c 59 22 8b 3c db dc 33 3d
       -0.00094306486 0.029657744 0.016984152 0.043911796
0000f0 54 5a 9c 3d cd 0b 38 bb b4 96 88 3d 06 22 07 bc
       0.07634416 -0.0028083206 0.06669369 -0.008247858
000100 e6 5f 4d 3c bf e9 a8 bd 80 83 1a bd c8 36 7f bd
       0.012535071 -0.082477085 -0.037723064 -0.062308103
000110 87 19 25 bc f8 d0 85 3c cf c0 91 bd 9b 7b 68 bd
       -0.010076887 0.016334996 -0.071168534 -0.056758504
000120 16 02 33 bd 12 cf 15 bd 2b b1 fd bc a4 df cd 3c
       -0.04370316 -0.03657443 -0.03096827 0.025131054
000130 c4 9a 86 3d 04 0a f2 3b 4d ba c8 3d 53 da aa bd
       0.06572488 0.007386448 0.09801159 -0.08342423
000140 15 e5 ab 3c 5d 36 13 3c b0 c1 7e bc d6 1a b6 bd
       0.020983258 0.008985129 -0.015549108 -0.08891837
000150 c9 47 23 bc eb ee cd bd 3a e1 ee bc a0 8d 44 bc
       -0.009965845 -0.100553356 -0.02916013 -0.011996657
000160 13 da 0e 3e 2e d7 83 3c fb ee 2b 3d 5b 27 a6 3c
       0.13950376 0.016093817 0.041975956 0.020282438
000170 be 46 f5 3b 33 27 e5 bd 7c c0 34 bd 14 4b 60 bd
       0.0074852398 -0.11189117 -0.04412888 -0.0547591
000180 c0 a4 dc bc 57 59 40 bd c0 47 b6 bb aa fe 81 3d
       -0.026934028 -0.0469602 -0.0055627525 0.063474014
000190 b4 b5 45 3c 66 0f 56 3d 02 b5 d0 3c c0 74 35 3d
       0.012067247 0.05226078 0.025476936 0.044300795
0001a0 21 ce ac bb d9 bd fb 3c 57 27 65 3d c3 af 66 3c
       -0.005273596 0.030730175 0.05594572 0.014079991
0001b0 11 de 1b bd 87 84 6b bd c8 75 49 3d d3 e5 88 3d
       -0.038053576 -0.057499435 0.04918459 0.066844605
0001c0 89 77 24 3b e0 03 9f bc 6e 8e 82 3c a8 c8 51 bc
       0.0025095663 -0.019411027 0.015937056 -0.012804188
0001d0 25 7d 23 bc 1c ea 88 3c 30 2f 72 bc 0d 21 86 bd
       -0.009978567 0.016713195 -0.014781758 -0.06549273
0001e0 f6 b2 1d be e8 d0 7f 3d 4b 08 48 3d b2 58 37 3d
       -0.154003 0.062455088 0.048836034 0.04476232
0001f0 ee d0 af 3d 2e 2f 81 bd 9f f8 87 3d 63 c0 e6 bd
       0.08584772 -0.06307827 0.066392176 -0.112671636
000200 41 80 51 3d c1 c7 d2 bc 87 33 9b 3d aa 2d 54 bd
       0.051147703 -0.025730016 0.075781874 -0.05180136
000210 4e 54 3b bc 2f bb ed bc 36 53 a1 bc 1a 7a 95 3d
       -0.011433674 -0.02901992 -0.019692998 0.0729868
000220 20 cb 92 3c a4 5f 96 3d 0f 4b 23 3d 7d 0b fd bd
       0.017919123 0.07342461 0.039866503 -0.12355707
000230 c9 73 6c bd 34 50 39 3d 09 1e b8 bd 3c 91 61 3c
       -0.05772761 0.045242503 -0.08990104 0.013767537
000240 83 3c 25 3d 65 91 33 bc 0e 0e 5e bc 27 60 d0 3d
       0.04034091 -0.010959958 -0.013553156 0.101745896
000250 c0 03 92 3d 0b a9 a1 3c 60 11 75 3d 89 39 dc 3c
       0.071296215 0.019733926 0.059831023 0.026882904
000260 88 6c e3 bd 20 61 ee bd 5e e8 32 3d 9f 87 4a bc
       -0.11104685 -0.11639619 0.043678634 -0.012361436
000270 cd b7 69 3c da 6c 71 bb 36 ca 55 3d 31 5d fb bb
       0.014265013 -0.0036838562 0.052194797 -0.0076710214
000280 15 ca b2 3c a9 7a 4a 3d cb 21 ee 3b 7d ac d0 bd
       0.021824876 0.049433384 0.007267212 -0.101891495
000290 39 98 46 bc 50 89 0c bc 81 ec 39 bd 96 b3 3f bc
       -0.012121254 -0.00857766 -0.045391563 -0.0117005315
0002a0 95 d2 84 3d b1 e1 23 bd 34 bd 2e 3c 78 d0 2e bd
       0.06485478 -0.040010158 0.010665227 -0.04267928
0002b0 8c b7 00 3d 4f 0e 69 3d 96 d0 84 3d 47 f6 52 3d
       0.031425044 0.05689841 0.06485097 0.0515044
0002c0 1a 92 27 bc 0b 65 c9 3b bf c3 12 3d 3b 61 92 bc
       -0.010227704 0.0061460785 0.03583121 -0.017868629
0002d0 d3 3d 1a 3d 4d 72 13 bd a9 e2 c8 3b 32 e8 49 bd
       0.037656616 -0.035997678 0.0061305356 -0.049293704
0002e0 27 cb 75 bc 82 04 20 bd cc 27 cd bc 35 2f 11 3d
       -0.015002049 -0.0390668 -0.02504339 0.03544541
0002f0 d2 d3 95 3d 9f 65 86 3b 4e 32 81 3d 34 0a 85 bd
       0.07315792 0.0041014696 0.06308423 -0.06496087
000300 76 7a ed 3c 1a 1f 82 bd eb 12 a1 3c 5f b5 29 bc
       0.028989058 -0.063535884 0.019662341 -0.010358184
000310 9b e4 0b bd ff 98 f8 bc c8 ba a9 bd a3 fd 9c bb
       -0.034153562 -0.030346392 -0.08287579 -0.004790978
000320 7e b2 12 3e 5b 2f 6c bb d9 56 19 bd dc 9b 10 3d
       0.14325902 -0.0036038968 -0.03743634 0.03530489
000330 c9 08 1c 3c 3c 89 2d 3c 82 63 93 bd d5 60 cb bd
       0.009523579 0.010591801 -0.07196714 -0.099305786
000340 2e b6 ce bd a7 31 f5 3c fc 89 93 3a 3c 92 c2 3d
       -0.10093342 0.029930903 0.0011256333 0.09500548
000350 6a 88 9c 3c d6 4d cb bc ca a1 89 3a 70 bc 81 3d
       0.019108016 -0.024817389 0.0010500487 0.0633477
000360 ba e1 86 3d e1 7a 88 bb 0d 9d 49 bd c6 7a 40 bb
       0.06586023 -0.004165039 -0.04922204 -0.0029370054
000370 04 05 16 bd 33 d6 8b bd cb 53 6c bd 9a a7 50 bd
       -0.036625877 -0.06827965 -0.0576971 -0.050941087
000380 57 0e ea 3c 05 db 87 bd c6 78 93 3c ab a6 f1 bc
       0.02857129 -0.066335715 0.018001925 -0.029498419
000390 a9 f9 0e bd 6e 9e a1 bd 43 e1 00 3e 7d 21 9c 3d
       -0.034906063 -0.07891546 0.1258593 0.07623575
0003a0 22 32 9f bc 45 b8 c0 bc b2 5c 81 bc ea 6a 99 bd
       -0.019433085 -0.023525367 -0.01579127 -0.07491095
0003b0 32 e2 42 bd 08 c8 1f bd ec b6 8b bd 9a 49 5c bc
       -0.047578998 -0.039009124 -0.06821999 -0.013445282
0003c0 6c a2 3e 3c f0 49 ea bc 66 85 42 3c 13 f5 d8 3c
       0.011635404 -0.02859971 0.011872625 0.026484048
0003d0 06 cb 6b bd f7 62 0a bc c1 08 1c 3c 4f 4e 2f bd
       -0.057566665 -0.008446447 0.0095235715 -0.04279929
0003e0 31 81 b6 3b 78 22 69 3d b0 fb 64 3d 2d e5 8c 3d
       0.0055696 0.056917638 0.05590409 0.06879649
0003f0 ad 58 96 3d 10 a3 5b bc 3c 2e 32 3d 01 b8 44 3d
       0.07341132 -0.013405576 0.043501124 0.048027042
