Maize-Runner/results/EscapeRewards2/EscapeMaze/EscapeMaze-23611730.onnx (onnx, 200372 bytes, 9 tensors)

action_model._continuous_distribution.log_sigma f4 [1, 2]
0	0xbf91f0db	-1.1401628
1	0xbf955e7c	-1.1669459

action_model._continuous_distribution.mu.bias f4 [2]
0	0x3dfb9433	0.12284126
1	0xbc06f300	-0.008236647

action_model._continuous_distribution.mu.weight f4 [2, 128]
0	0x3adfd76c	0.001707775
1	0x3af8beb0	0.0018977728
2	0xbb2353d9	-0.0024921803
3	0xbacc2e86	-0.001557783
4	0x3c1e0c66	0.009646511
5	0xbb4b04cc	-0.00309782
6	0x3b047acc	0.0020214794
7	0x3b8b72e3	0.004255639
8	0xbc9a99c9	-0.018872159
9	0x3bd3519e	0.0064489385
10	0x3b34bb83	0.0027577586
11	0x3a4cb0f3	0.000780835
12	0xbb370349	-0.0027925542
13	0xbb96fd1e	-0.0046078106
14	0x3b8dc503	0.004326464
15	0x3add07ba	0.0016863265
16	0x3b35bed4	0.002773215
17	0x36c57372	5.884497e-06
18	0xba91e8ec	-0.0011132038
19	0xb9d760dc	-0.00041080161
20	0xbb66dd83	-0.0035227246
21	0xbaac7c82	-0.0013159665
22	0xbb2d3107	-0.0026426928
23	0xbb882bb7	-0.004155602
24	0x3b4e6271	0.003149178
25	0xbaf6bfb9	-0.0018825448
26	0xb9b2dd09	-0.0003411549
27	0xbd6e8880	-0.058235645
28	0x3d05d90c	0.032677695
29	0xbb2acf47	-0.0026063488
30	0xba6d1127	-0.00090433884
31	0xbb409950	-0.0029388256
32	0xbb51d87b	-0.0032019902
33	0x3d9b28e4	0.07576159
34	0x3d8fd702	0.07023431
35	0xbd8c6549	-0.06855256
36	0x3b537985	0.0032268476
37	0xba20f340	-0.00061397627
38	0xbba92570	-0.0051619336
39	0x3b6ac6e8	0.0035824124
40	0xbb8a07df	-0.004212364
41	0xbdc73870	-0.097275615
42	0xbbd6961f	-0.0065486575
43	0xbd0af91c	-0.033928975
44	0x3be33e6e	0.0069349324
45	0xbb93ccc8	-0.004510496
46	0x3ce544e2	0.027986947
47	0x3ce5a92f	0.028034775
48	0x3a2be6fa	0.00065575505
49	0x3bd3ad62	0.006459878
50	0xbd2a698e	-0.04160457
51	0x3a14de3f	0.0005678869
52	0x3b30b562	0.0026963581
53	0x38858161	6.366033e-05
54	0xbc05e814	-0.0081730075
55	0xba8d8568	-0.0010797204
56	0x3cb1d43e	0.02170765
57	0x3b89c225	0.004204052
58	0x39fa8052	0.00047779322
59	0x399425ca	0.00028256915
60	0x3b2939bc	0.0025821766
61	0xbae531b2	-0.0017486124
62	0x3a1b600d	0.00059270934
63	0x3baf1702	0.005343319
64	0xba082ecb	-0.0005194961
65	0xbaf2ddab	-0.0018529197
66	0xbbc4db59	-0.0060075936
67	0xbcc5d4e5	-0.024149368
68	0x3df6e76f	0.12055861
69	0x3bddd868	0.0067701824
70	0x3add1a80	0.001686886
71	0xbd2726a5	-0.04080834
72	0x3d8cdf30	0.06878507
73	0xbd3786cd	-0.04480629
74	0x3b127781	0.0022349062
75	0x3b5a20ca	0.0033283704
76	0x3b724634	0.0036968114
77	0xbc3483d8	-0.011017762
78	0x3d87d273	0.06631937
79	0x3aae6f32	0.0013308285
80	0xb9b19950	-0.00033874298
81	0x3aec7814	0.0018041157
82	0xb9bfae81	-0.00036560374
83	0xbb3f574a	-0.0029196315
84	0x3bf449a1	0.0074550663
85	0xbc48cd58	-0.012255989
86	0xbbc22252	-0.0059245015
87	0xba88286c	-0.0010388023
88	0x3b45e818	0.0030198153
89	0xba862e4f	-0.001023719
90	0x3d80765a	0.06272574
91	0x3b083963	0.0020786158
92	0xbaf78154	-0.0018883147
93	0xbb7d4d29	-0.0038650727
94	0xbace3cd0	-0.0015734676
95	0xbaa4b73f	-0.0012566819
96	0x3aa84b3f	0.0012839808
97	0x3b977198	0.0046216957
98	0x3b0e239a	0.00216887
99	0xbb2614c3	-0.0025341965
100	0xbd2326fa	-0.039832093
101	0x3d62fb55	0.05541547
102	0x3bd88e98	0.0066087954
103	0xbd17f59e	-0.037099473
104	0x3ba35c1e	0.0049853465
105	0xbd1b2320	-0.037875295
106	0xbba2e7bb	-0.004971472
107	0x3da3f24c	0.08005199
108	0xbb21d523	-0.002469369
109	0x3dec245f	0.11530375
110	0xbb254519	-0.0025218187
111	0xbb4fbb19	-0.0031697212
112	0xbd408df1	-0.047010366
113	0x3b201ba9	0.002443055
114	0xbaed7c26	-0.0018118664
115	0x3ab0afa7	0.0013480083
116	0x3a90d618	0.0011050133
117	0x3b4831ba	0.0030547217
118	0xbd00f2fd	-0.03148173
119	0xbb06e48f	-0.002058301
120	0xbb0774b7	-0.0020668933
121	0x3b0fa745	0.0021919769
122	0x3ad326cf	0.0016109588
123	0x3c41609a	0.011802817
124	0xbba0dff7	-0.004909511
125	0x3986e93b	0.00025732242
126	0x3b1b6215	0.0023709584
127	0x3b53cd10	0.0032318272
128	0xbb75ad7a	-0.0037487433
129	0x3b41e775	0.0029587422
130	0x3b95c3ed	0.0045704753
131	0x3b836f75	0.0040110894
132	0x3ba7bb99	0.005118799
133	0xbb8d2e0e	-0.0043084687
134	0xbb33124d	-0.002732414
135	0x3c325761	0.010885091
136	0x3dcf877a	0.10133262
137	0xbb84787b	-0.0040426827
138	0xbb37b5b1	-0.002803188
139	0xbd6aa7ee	-0.057289056
140	0xba21eadd	-0.000617666
141	0x39893621	0.00026171005
142	0xba77907a	-0.0009443831
143	0x3c05b53f	0.008160888
144	0xbb894a62	-0.0041897753
145	0xba2410d4	-0.0006258611
146	0xbb0aa4d5	-0.0021155376
147	0xbac50b20	-0.0015033223
148	0xbb28b78a	-0.0025744163
149	0x39d1296d	0.0003989445
150	0xbad9aabc	-0.0016606669
151	0xbb028d50	-0.0019920655
152	0x3b800534	0.0039068703
153	0x3b1b779a	0.002372241
154	0xbbdd10c9	-0.0067463857
155	0x3d350106	0.04419043
156	0x3d4c28bf	0.049843546
157	0x3b31e587	0.0027144866
158	0xbd497e83	-0.049192917
159	0x3b2b9e58	0.002618691
160	0xbb587562	-0.003302895
161	0xbdd28be0	-0.10280585
162	0xbd2fe794	-0.04294546
163	0xbd009acd	-0.03139763
164	0xbc38746c	-0.011258226
165	0x3bbc0763	0.0057381853
166	0x3aed7e8b	0.0018119378
167	0xbb814299	-0.0039447066
168	0x3b8cefca	0.004301046
169	0xbd599ddf	-0.053129073
170	0xba34ef5a	-0.0006902121
171	0xbd127917	-0.03576001
172	0xbbf930ab	-0.0076046786
173	0xbc79e288	-0.015251763
174	0x3c97c860	0.018528163
175	0xbcf3cd96	-0.029761117
176	0x3b3752bb	0.0027972895
177	0x3af656af	0.0018794144
178	0x3d2e260b	0.04251675
179	0xbb6e88dc	-0.0036397493
180	0x3aa29dd8	0.001240666
181	0x3a9e8b0f	0.0012095886
182	0x38d3e8dd	0.00010104638
183	0xb9b90c3b	-0.00035295062
184	0x3c833703	0.016017443
185	0xbb3c5f19	-0.0028743206
186	0xb8a38333	-7.7968834e-05
187	0x3b24d2d6	0.0025150082
188	0x3b3dfd60	0.0028990135
189	0x36cc2805	6.0843327e-06
190	0xba50d785	-0.0007966685
191	0x3b0b47e4	0.0021252567
192	0x3bf03ed4	0.0073317084
193	0xb97b0f4c	-0.00023942924
194	0x3a5e4ea0	0.0008480344
195	0xbbb150e3	-0.005411254
196	0x3cd4b00e	0.025962856
197	0x3b4d41aa	0.0031319656
198	0xbb3dda1d	-0.0028969117
199	0xbc842403	-0.016130453
200	0x3ce02553	0.027361548
201	0x3da26277	0.07928937
202	0x39829b1f	0.00024911106
203	0xbb92b9ba	-0.0044777067
204	0x3b8019b4	0.003909314
205	0x3d3ff6a2	0.046866067
206	0x3b95f60e	0.004576451
207	0x3b3042ac	0.0026895208
208	0xbb1a423c	-0.0023538014
209	0x3a7f49b5	0.0009738461
210	0x3b8566f6	0.004071112
211	0xbace1cdc	-0.0015725153
212	0xbd32429d	-0.04352056
213	0xbba741d1	-0.0051042815
214	0xbbe40587	-0.0069586667
215	0xbbbf6b87	-0.0058416757
216	0x3dbe0b81	0.09279538
217	0x3a0a090a	0.0005265629
218	0x389c6854	7.458092e-05
219	0xbac97626	-0.0015370294
220	0xb97d8a91	-0.0002417958
221	0xbb3c38a6	-0.0028720289
222	0xbb183c7c	-0.002322941
223	0xba7ee6c0	-0.00097237155
224	0x3ba7898e	0.0051128333
225	0x3b58aa8a	0.0033060634
226	0xb9b7056f	-0.00034908528
227	0xba23b41f	-0.00062447967
228	0xbcf94366	-0.030427646
229	0xbd3db66f	-0.04631656
230	0x39def7db	0.00042527806
231	0xbc3fc0ae	-0.011703653
232	0x3c10e6d2	0.008844094
233	0xbd238ff6	-0.039932214
234	0x3a996df4	0.0011705742
235	0x3d5f6d14	0.054547384
236	0x3b04da3b	0.0020271677
237	0x3bbc8f63	0.0057543977
238	0xbaed6a13	-0.0018113278
239	0xbb6899e9	-0.0035492128
240	0x3ce2ce17	0.027686162
241	0xbb827de7	-0.003982294
242	0xbac9d21f	-0.0015397704
243	0x3b2f46ab	0.0026745002
244	0x398ed571	0.00027243377
245	0xbaefe016	-0.0018301036
246	0xbbfdb337	-0.0077423113
247	0xba801a50	-0.0009773467
248	0xb98dcb3c	-0.00027045037
249	0xbb3dcb56	-0.002896031
250	0x3909c025	0.00013136918
251	0xbdded445	-0.10880331
252	0xb9fe3ea9	-0.0004849334
253	0xbb2c0901	-0.0026250484
254	0x3a30a050	0.00067377556
255	0x3b15bfc9	0.0022849909

network_body._body_endoder.seq_layers.0.bias f4 [128]
0	0xbe89fa03	-0.26948556
1	0xbe3f5bcd	-0.18687363
2	0xbea198f1	-0.31561998
3	0xbdc00547	-0.093760066
4	0x3c13e8e9	0.009027698
5	0xbf0ae0b3	-0.54249114
6	0xbd07b2d8	-0.033129543
7	0x3d42e128	0.047578007
8	0x3dfb9df9	0.1228599
9	0x3cfb5c8d	0.03068378
10	0xbc82b5a3	-0.015955752
11	0xbcf3c2e3	-0.029756015
12	0xbcdd3b06	-0.027005684
13	0xbd9079b6	-0.070544645
14	0xbbf9dc0d	-0.007625109
15	0x3df5df8d	0.120055296
16	0x3d595705	0.053061504
17	0xbd1e03f4	-0.03857799
18	0xbcceca81	-0.025243046
19	0x3d047d02	0.03234578
20	0x3c846d7a	0.016165484
21	0xbee1cf88	-0.44103646
22	0x3da55a53	0.080738686
23	0xbdc893d7	-0.09793823
24	0x3d7ae76b	0.061255854
25	0xbcf514c1	-0.029917123
26	0xbc0b0821	-0.008485825
27	0xbd3c7de9	-0.046018515
28	0xbc3e81bd	-0.011627612
29	0x3df4d3a8	0.11954433
30	0xbe0163f0	-0.1263578
31	0x3da3d3bf	0.07999372
32	0xbd1ff891	-0.03905541
33	0xbc8af84b	-0.016964098
34	0x3e3c41ea	0.18384519
35	0x3e12380a	0.1427919
36	0x3d381b6d	0.04494803
37	0xbd49a9b6	-0.049234115
38	0x3d5111dc	0.051042423
39	0x3d878f03	0.06619074
40	0xbebbc7e5	-0.36675945
41	0xbd475e1c	-0.048673734
42	0x3d43e69e	0.047827356
43	0x3c36217c	0.011116382
44	0x3c8fae25	0.017539093
45	0x3d2e60c9	0.04257277
46	0xbcb36f14	-0.021903552
47	0x3c18b41e	0.009320287
48	0xbd96e069	-0.073670216
49	0xbd2eda1f	-0.042688485
50	0xbc640336	-0.013916781
51	0xbd3e46c9	-0.046454225
52	0xbd8c82e5	-0.06860904
53	0xbd512f79	-0.051070664
54	0xbc397c27	-0.011321104
55	0xbd31d4e3	-0.043415915
56	0xbce86d1e	-0.028372344
57	0xbb5af3da	-0.0033409507
58	0xbe06738c	-0.13130015
59	0xbace7d71	-0.0015753937
60	0xbde648b2	-0.11244334
61	0x3d7a3816	0.061088644
62	0xbda740af	-0.08166634
63	0x3d00e1d4	0.031465366
64	0xbdc5b1f4	-0.096530825
65	0x3d8290d3	0.06375279
66	0xbda57092	-0.08078112
67	0x3cd831e6	0.02639098
68	0xbd5a083f	-0.05323052
69	0xbe64f29b	-0.22358172
70	0xbe92b717	-0.2865531
71	0xbd686e4d	-0.056745816
72	0x3cbe37c0	0.023219943
73	0xbcca2396	-0.024675172
74	0xbd93a2ad	-0.07208762
75	0xbdb5d33c	-0.088781804
76	0x3ce044d6	0.027376574
77	0xbaae899a	-0.0013316155
78	0xbcac7629	-0.021052437
79	0xbc89fad9	-0.016843246
80	0xbd201855	-0.039085705
81	0xbda61eb5	-0.08111326
82	0x3d6aeb41	0.05735326
83	0xbead5c83	-0.33859643
84	0xbd064a50	-0.032785714
85	0x390aa6bf	0.00013222823
86	0xbd867285	-0.065648116
87	0x3d9ea6c2	0.0774665
88	0xbc7d3f10	-0.01545693
89	0xbdfee924	-0.12446812
90	0x3d5ad9f8	0.053430527
91	0xbda82f7d	-0.08212183
92	0xbd4ac51f	-0.049504396
93	0xbeb82571	-0.35966066
94	0xbd872f08	-0.066007674
95	0xbdb12beb	-0.08650955
96	0xbded5ebf	-0.11590337
97	0xbc9073ca	-0.017633338
98	0xbd986cbf	-0.07442617
99	0x3d8d5b64	0.06902197
100	0xbd61d62a	-0.055135883
101	0xbea44fb1	-0.3209205
102	0xbdb17488	-0.08664805
103	0xbde49953	-0.11162057
104	0xbd8dd25d	-0.06924889
105	0x3ccdc91a	0.025120307
106	0xbdbaa8cb	-0.09114226
107	0x3d11e979	0.035623048
108	0x3a5ce12e	0.00084258884
109	0x3d9b4fb5	0.07583562
110	0xbd43752d	-0.04771917
111	0xbd5812d5	-0.052752335
112	0x3db67e86	0.08910851
113	0xbda6f090	-0.081513524
114	0xbcae5521	-0.021280827
115	0xbd7fb04b	-0.062423985
116	0xbd9bec9b	-0.07613488
117	0x3cb67783	0.022273785
118	0x3d9650ef	0.073396556
119	0xbd976c26	-0.073936746
120	0xbd504816	-0.050849997
121	0xbb5db241	-0.0033828171
122	0xbe841dd7	-0.25804016
123	0xbd633a39	-0.055475447
124	0xbdf2558f	-0.11832725
125	0x3b461298	0.0030223485
126	0xbce92730	-0.028461069
127	0xbe8afeed	-0.27147618

network_body._body_endoder.seq_layers.0.weight f4 [128, 126]
0	0x3d3db11a	0.046311475
1	0xbea53991	-0.32270482
2	0x3d2abc2f	0.041683372
3	0x3e39610a	0.18103424
4	0xbe368c38	-0.17826927
5	0xbdde0a0f	-0.10841762
6	0xbef9cb14	-0.4878775
7	0x3dda5dd3	0.10662427
8	0x3edce9d7	0.43147156
9	0xbd9de1f5	-0.077091135
10	0x3e5ff42a	0.21870485
11	0xbe92d120	-0.28675175
12	0x3d92106c	0.071320385
13	0x3da23e54	0.079220444
14	0xbde22a4b	-0.11043223
15	0x3dc886aa	0.0979131
16	0xbec0d193	-0.37659892
17	0xbe083a79	-0.13303556
18	0xbeea4bb1	-0.45760873
19	0xbeb45595	-0.35221544
20	0x3de7ed71	0.11324585
21	0xbee9ceca	-0.4566558
22	0x3ec9efd9	0.39440802
23	0x3c980612	0.018557582
24	0xbe6dc6a7	-0.23220311
25	0x3d5b9158	0.053605407
26	0xbea06af8	-0.3133161
27	0xbebe5ba8	-0.37179303
28	0x3ec0894c	0.3760475
29	0xbe2fe021	-0.17175342
30	0xbc336e85	-0.010951643
31	0xbee78154	-0.45215857
32	0x3c3f1be1	0.011664362
33	0x3e907dda	0.28221017
34	0xbe5a1ec1	-0.21300794
35	0xbd7381e3	-0.05945004
36	0x3d94fc27	0.07274657
37	0xbebcfa38	-0.36909652
38	0x3df90296	0.12158696
39	0xbe518a30	-0.2046287
40	0x3df8ecd4	0.121545464
41	0xbf3d0b5e	-0.7384547
42	0x3dce2cd9	0.10067148
43	0x3de4b31c	0.11166975
44	0x3ea177a2	0.31536585
45	0xbdb7685f	-0.08955454
46	0xbddf2dbf	-0.10897397
47	0x3d6041f2	0.05475039
48	0x3d6d6de4	0.057966128
49	0xbe8cc4bc	-0.27493846
50	0xbe11fca1	-0.14256527
51	0xbebc02e9	-0.3672097
52	0x3d49fe2a	0.049314655
53	0x3e10490c	0.14090365
54	0xbdafe259	-0.08588094
55	0xbde0847a	-0.10962768
56	0xbe1ae545	-0.15126522
57	0xbe0167f7	-0.12637316
58	0xbe9029e3	-0.28156957
59	0xbe621053	-0.2207654
60	0x3d19e224	0.03756918
61	0xbe44aa8f	-0.19205688
62	0xbc94e91e	-0.018177565
63	0xbe8dfd0b	-0.2773212
64	0xbe196ac9	-0.14982142
65	0x3e6ab7c8	0.2292167
66	0xbdd79e79	-0.10528273
67	0xbe1306f8	-0.14358127
68	0x3e35bc46	0.17747602
69	0xbd8da9f7	-0.06917184
70	0xbe1dcce8	-0.15410197
71	0xbc4b274b	-0.012399505
72	0x3e20bfed	0.15698214
73	0xbda923d3	-0.08258786
74	0x3f1f4d21	0.62227064
75	0x3e3db78f	0.18527053
76	0xbe7cd601	-0.24691011
77	0xbdb76814	-0.08955398
78	0xbf1b0f68	-0.60570383
79	0xbefaa7bf	-0.48956105
80	0x3edef594	0.43546736
81	0x3ebc60c1	0.36792567
82	0x3d92b943	0.07164242
83	0x3e8adf06	0.27123278
84	0x3d0cc01b	0.034362894
85	0xbe17b53f	-0.14815234
86	0x3ec10bfe	0.37704462
87	0xbe665d14	-0.22496444
88	0xbdd28b7c	-0.10280511
89	0x3ee04bce	0.43807834
90	0xbf6dec59	-0.9293876
91	0xbe90ab22	-0.28255564
92	0x3ec14976	0.3775136
93	0xbe209560	-0.15681982
94	0xbe5e5462	-0.21711877
95	0x3eae837e	0.34084696
96	0x3ddc3f12	0.10754217
97	0x3d83177e	0.06400965
98	0xbdacf758	-0.084456146
99	0xbd89745d	-0.06711648
100	0xbeccd1d8	-0.40003848
101	0x3f13fc3a	0.5780674
102	0xbe1c1064	-0.15240628
103	0xbd99baa9	-0.07506306
104	0x3ef4911b	0.47766957
105	0xbe27d8b0	-0.16391253
106	0xbedf635c	-0.43630493
107	0x3e692007	0.22766124
108	0x3dbb626d	0.091496326
109	0xbd63e797	-0.055640783
110	0x3ef1b5a3	0.4720889
111	0xbe22cef9	-0.15899266
112	0xbe881a5f	-0.2658262
113	0x3e379e1b	0.17931406
114	0xbe2741a8	-0.1633364
115	0xbe0a6e45	-0.13518627
116	0xbeb5375c	-0.35393798
117	0xbe655b76	-0.22398171
118	0xbd747972	-0.05968613
119	0xbec6eb38	-0.38851333
120	0xbe99ff00	-0.30077362
121	0xbe27fcd7	-0.16405044
122	0xbe2d9d05	-0.1695443
123	0xbe8e9060	-0.27844524
124	0xbd26aa28	-0.040689617
125	0xbf0b28ed	-0.5435932
126	0xbdff376d	-0.124617435
127	0x3e981e0d	0.29710427
128	0xbee7ec50	-0.4529748
129	0xbec0ba1b	-0.37641987
130	0xbe597ce8	-0.21239054
131	0xbd957da0	-0.07299352
132	0xbe4f8fc6	-0.20269689
133	0xbc213073	-0.009838211
134	0x3eb45d38	0.3522737
135	0xbe2b2a8a	-0.16715446
136	0xbdb09fa7	-0.08624201
137	0xbcc59963	-0.024120992
138	0xbde6c25f	-0.11267542
139	0xbe1c13ec	-0.15241975
140	0xbe590447	-0.21193038
141	0xbe63ba46	-0.22239026
142	0xbe97b829	-0.2963269
143	0xbec4a514	-0.38407195
144	0x3ef05752	0.4694162
145	0xbdccc085	-0.09997658
146	0x3dd60339	0.104498334
147	0x3dc0a6c8	0.09406811
148	0xbe15e33d	-0.14637466
149	0xbf2e3acc	-0.68058467
150	0xbeb52544	-0.35379994
151	0xbe48c4b3	-0.19606285
152	0xbddefe9d	-0.108884074
153	0xbeb0d78c	-0.3453945
154	0x3e6c7dd0	0.23094869
155	0xbe15940a	-0.14607254
156	0x3dd4ad00	0.1038456
157	0xbeba78bd	-0.3642024
158	0xbe1e96ab	-0.15487163
159	0xbafd271c	-0.0019314024
160	0xbdeddd5c	-0.116144866
161	0xbd41a76d	-0.04727881
162	0xbe88eb86	-0.2674219
163	0xbe67dfe4	-0.22644001
164	0xbe0ea7c2	-0.13931182
165	0xbe0bcb01	-0.13651659
166	0xbdbacf8b	-0.09121617
167	0xbddeba43	-0.1087537
168	0xbd2fb09c	-0.042893037
169	0xbf0a80e5	-0.5410293
170	0xbf3ddbe9	-0.7416368
171	0x3cbdc4fe	0.023165222
172	0xbd913c77	-0.07091611
173	0xbe40ac3f	-0.18815707
174	0xbdfcea05	-0.12349323
175	0xbef5532d	-0.4791502
176	0xbe068239	-0.13135614
177	0xbdf78f80	-0.12087917
178	0xbe17fc47	-0.1484233
179	0xbdcf7241	-0.10129214
180	0xbf03d052	-0.51489747
181	0x3d8a2b1a	0.06746502
182	0xbebbd375	-0.36684766
183	0xbcbe662c	-0.023242079
184	0xbea36dbd	-0.3191966
185	0xbe9814ea	-0.29703456
186	0x3deade06	0.11468129
187	0xbe246c07	-0.16056834
188	0xbdd04ad1	-0.1017052
189	0xbed35991	-0.4127927
190	0xbef1c024	-0.47216904
191	0x3e4a9b33	0.19785766
192	0xbf18d8e1	-0.5970593
193	0xbefb51f1	-0.49085954
194	0x3f270dab	0.6525523
195	0xbd6e4af0	-0.058176935
196	0xbe30244f	-0.1720135
197	0x3ec3f77c	0.38274753
198	0xbeff3526	-0.49845237
199	0xbf009dc7	-0.5024075
200	0x3f0e5d9c	0.55611587
201	0x3eb0eef1	0.34557298
202	0xbe83449d	-0.25638285
203	0x3ef8ab85	0.4856836
204	0x3e3a8dd1	0.18218161
205	0xbe2b58da	-0.16733113
206	0x3f138f00	0.57640076
207	0xbe97f6c4	-0.29680455
208	0xbde34193	-0.11096492
209	0x3cf31c5b	0.029676607
210	0xbe6cf1cc	-0.23139113
211	0xbed7aab4	-0.42122424
212	0x3e7aa66f	0.24477552
213	0xbab7380b	-0.0013978494
214	0x3c5fde1f	0.013663798
215	0x3e1c3415	0.15254243
216	0x3ec8a364	0.39187157
217	0xbe42f638	-0.19039237
218	0xbcaff979	-0.021481263
219	0xbea41e13	-0.32054195
220	0xbdaf0e2d	-0.08547626
221	0x3a723cdb	0.00092406356
222	0x3dde1a4b	0.10844859
223	0xbeab06e6	-0.334037
224	0x3d6fc0b9	0.058533404
225	0xbdb52efc	-0.08846852
226	0xbe8454fd	-0.2584609
227	0xbdfbbcea	-0.12291892
228	0xbed7d9b0	-0.4215827
229	0xbf26552a	-0.649737
230	0x3ebaa576	0.36454362
231	0xbed11a01	-0.40840152
232	0xbf13ecfc	-0.57783484
233	0xbddede08	-0.10882193
234	0xbec9f166	-0.39441985
235	0xbf12a1dc	-0.5727823
236	0xbd9702fe	-0.073736176
237	0xbe082fc4	-0.13299471
238	0xbef53b0a	-0.47896606
239	0xbe9cdb0a	-0.30635864
240	0x3e28922e	0.16462013
241	0xbebe7598	-0.37199092
242	0xbe0ac2c8	-0.13550866
243	0xbb4ce084	-0.0031261751
244	0xbe1ccb2f	-0.15311883
245	0xbe5b7032	-0.21429518
246	0x3dcca2db	0.09992
247	0xbe823873	-0.25433692
248	0xbe1c7b61	-0.1528144
249	0xbd0aab99	-0.033855055
250	0xbce87cde	-0.028379854
251	0x3e79caed	0.24393816
252	0x3cc2cab8	0.023778304
253	0xbdaab6f0	-0.08335674
254	0xbf01113a	-0.5041691
255	0x3aa3e3cf	0.0012503805

network_body._body_endoder.seq_layers.2.bias f4 [128]
0	0xbd0faa9c	-0.035074815
1	0xbe530d0a	-0.20610443
2	0xbe1fb857	-0.15597664
3	0xbe0051b6	-0.1253117
4	0xbea508e7	-0.32233354
5	0xbe91c06b	-0.28467116
6	0xbd512253	-0.051058125
7	0xbe0094c9	-0.12556757
8	0xbed2b269	-0.4115174
9	0xbee03798	-0.43792415
10	0xbe865f7f	-0.26244733
11	0xbe7997f7	-0.24374376
12	0xbe8dd56e	-0.27701896
13	0xbe44a9ac	-0.1920535
14	0xbdb26578	-0.0871076
15	0xbe1d4e1d	-0.15361829
16	0xbe3b6424	-0.1829992
17	0xbe590c5b	-0.2119612
18	0xbea70599	-0.32621458
19	0xbed352ea	-0.41274196
20	0xbdcdcdd8	-0.10049027
21	0xbdbf9010	-0.093536496
22	0xbe864511	-0.26224568
23	0xbd9115c8	-0.070842326
24	0xbe2e154e	-0.17000315
25	0xbe0eb47d	-0.13936038
26	0xbe60ffd2	-0.21972588
27	0xbe1e422e	-0.15454933
28	0xbd15d52c	-0.03658025
29	0xbe2f0218	-0.17090642
30	0xbeb3d7d5	-0.35125604
31	0xbd814e80	-0.06313801
32	0xbed0a6be	-0.40752214
33	0xbeda790d	-0.4267048
34	0xbe3f6cc8	-0.1869384
35	0xbe51c5b6	-0.20485577
36	0xbe6dc587	-0.23219882
37	0xbe6a9f61	-0.2291236
38	0xbeb5e9f0	-0.35530043
39	0xbc4d922c	-0.012547057
40	0xbe6b0233	-0.22950058
41	0xbe1bfa2a	-0.15232149
42	0xbe7581fe	-0.2397537
43	0xbe850e16	-0.2598731
44	0xbdb7a5a1	-0.08967138
45	0xbea33d70	-0.3188281
46	0xbe872186	-0.26392764
47	0xbe817e65	-0.25291744
48	0xbde9bb25	-0.11412648
49	0xbe9d710f	-0.3075032
50	0xbdfc2f59	-0.12313718
51	0xbe66689a	-0.2250084
52	0xbe90294a	-0.281565
53	0xbd1b2bc3	-0.03788353
54	0xbe5d37c9	-0.21603312
55	0xbdbfc3eb	-0.0936354
56	0xbe02b0bc	-0.12762731
57	0xbee3b612	-0.44474846
58	0xbe31b689	-0.17354788
59	0xbe8e6974	-0.2781483
60	0xbdc61198	-0.096713245
61	0xbe7201df	-0.23633526
62	0xbdf0d665	-0.117596425
63	0xbe14c170	-0.14526916
64	0xbdbdcbf5	-0.09267417
65	0xbe1ba0bf	-0.15198039
66	0xbe88ef00	-0.26744843
67	0xbe7aa93a	-0.24478617
68	0xbe1d478d	-0.15359326
69	0xbe3508f5	-0.17679198
70	0xbe784d1f	-0.2424817
71	0xbe4f938b	-0.20271127
72	0xbebeedfa	-0.37290937
73	0xbd9f57e1	-0.077804334
74	0xbe57c06d	-0.21069498
75	0xbd9e5e0a	-0.0773278
76	0xbde85f0a	-0.11346252
77	0xbd893434	-0.0669941
78	0xbdc09e41	-0.094051845
79	0xbe2bee26	-0.16790065
80	0xbe3376dd	-0.17525811
81	0xbe1cd605	-0.15316017
82	0xbe42eb85	-0.19035156
83	0xbe02da9e	-0.12778708
84	0xbe8fd88c	-0.280949
85	0xbdc0ea66	-0.09419708
86	0xbdc781cc	-0.09741554
87	0xbe851758	-0.25994372
88	0xbdf47497	-0.119363
89	0xbe52ed0a	-0.20598236
90	0xbda01ad2	-0.078176156
91	0x3dd7ce47	0.10537391
92	0xbe0b9940	-0.13632679
93	0xbe9e525b	-0.30922207
94	0xbe82065e	-0.25395483
95	0xbea7ce11	-0.32774404
96	0xbe7f5ec9	-0.24938501
97	0xbe8c332b	-0.27382788
98	0xbe8502f7	-0.25978824
99	0xbe4aa159	-0.19788112
100	0xbe6dd51a	-0.23225823
101	0xbe6b2eec	-0.22967118
102	0xbe1e47fe	-0.1545715
103	0xbdee92b8	-0.11649078
104	0xbea20087	-0.31641027
105	0xbe8b0af3	-0.2715679
106	0xbeb8cd65	-0.36094204
107	0xbe331254	-0.1748746
108	0x3be10ec2	0.0068682143
109	0xbd03416b	-0.03204481
110	0xbe981ccc	-0.2970947
111	0xbe8e2b46	-0.2776739
112	0xbe6b78d1	-0.22995307
113	0xbe9cc2a3	-0.30617246
114	0xbdb59424	-0.08866146
115	0xbd5959c0	-0.053064108
116	0xbe720250	-0.23633695
117	0xbe87523b	-0.26429924
118	0xbe9816f0	-0.29705
119	0xbeb50fad	-0.35363522
120	0xbd0ca948	-0.034341127
121	0xbd364350	-0.044497788
122	0xbe3a38b3	-0.18185692
123	0xbe33527e	-0.17511937
124	0xbe60987a	-0.21933165
125	0xbe77259a	-0.24135438
126	0xbe14f670	-0.14547133
127	0xbe586563	-0.21132426

network_body._body_endoder.seq_layers.2.weight f4 [128, 128]
0	0xbe3c7678	-0.18404567
1	0x3db56e58	0.08858937
2	0xbcb4c05e	-0.022064384
3	0x3e9fd1c1	0.31214717
4	0xbd7c1159	-0.06153998
5	0xbe072b52	-0.13200119
6	0x3e31dbac	0.17368954
7	0xbe6f8ee7	-0.23394357
8	0xbcf20902	-0.02954531
9	0xbe95e38a	-0.2927516
10	0x3dcb11a8	0.09915477
11	0xbe90e4ec	-0.28299654
12	0xbf1c9739	-0.6116825
13	0x3d63896e	0.055550985
14	0xbe95e7d3	-0.2927843
15	0xbd1b2205	-0.03787424
16	0x3c99ab29	0.018758373
17	0x3d72f7ba	0.05931828
18	0xbe8883cb	-0.2666305
19	0xbd017afe	-0.031611435
20	0xbd526149	-0.05136231
21	0xbd9d5116	-0.076814815
22	0x3e1d96e0	0.15389585
23	0xbdc0bb34	-0.09410706
24	0xbf217ff5	-0.6308587
25	0xbe2dd404	-0.16975409
26	0x3ec84f95	0.39123216
27	0xbe51b416	-0.20478854
28	0xbd9e6066	-0.0773323
29	0xbe37ffc4	-0.1796866
30	0x3d05d3ab	0.032672565
31	0x3e694b5d	0.22782655
32	0x3ea58d73	0.3233448
33	0xbd9d4171	-0.076784976
34	0xbc886bcf	-0.01665297
35	0xbdb9f968	-0.090807736
36	0xbd840bf2	-0.06447591
37	0xbebf23a4	-0.3733188
38	0xbe0ad8ac	-0.13559216
39	0x3cdc93ef	0.026926009
40	0x3df6b045	0.120453395
41	0xbc9ecf59	-0.01938598
42	0xbeec11af	-0.46107242
43	0xbd0bcedb	-0.03413282
44	0xbdf2dd08	-0.118585646
45	0xbcffcbd8	-0.03122513
46	0x3ebffc85	0.37497345
47	0x3e6ce34f	0.23133586
48	0xbe22c150	-0.15894055
49	0xbee03762	-0.43792254
50	0xbdeb7215	-0.11496369
51	0xbd673b27	-0.056452896
52	0xbe156da3	-0.14592604
53	0xbab83449	-0.0014053668
54	0x3d7eee63	0.062239062
55	0xbe4955d3	-0.19661646
56	0xbe01b556	-0.1266683
57	0xbe24edcd	-0.16106339
58	0xbe48060f	-0.19533561
59	0xbe1b7bb7	-0.15183912
60	0x3bc20438	0.005920913
61	0x3d283d65	0.041074175
62	0xbdb723aa	-0.08942349
63	0xbd886f97	-0.06661909
64	0xbe43164c	-0.19051474
65	0xbdd467b5	-0.10371343
66	0x3d2749f0	0.040841997
67	0x3d86d7e2	0.06584145
68	0x3dcb3402	0.09922029
69	0xbe43ae53	-0.19109468
70	0x3db29db9	0.087214895
71	0xbea59af2	-0.32344776
72	0x3dd4909f	0.10379147
73	0x3e284437	0.16432272
74	0xbdd21fd5	-0.10259978
75	0xbef37c65	-0.47555843
76	0xbc103e1a	-0.008803869
77	0xbe8ff38d	-0.28115502
78	0x3e90aab0	0.28255224
79	0xbe9cf275	-0.3065373
80	0xbee984d0	-0.4560914
81	0x3e1e89ce	0.15482256
82	0x3e799bd2	0.24375847
83	0x3d2e2b19	0.04252157
84	0xbe51d3dd	-0.20490976
85	0xbcb80e1b	-0.022467664
86	0x3db8ec73	0.09029474
87	0x3e7607e2	0.24026445
88	0x3e179b4a	0.14805332
89	0x3cde4742	0.027133588
90	0xbe652371	-0.22376801
91	0xbf00584b	-0.50134724
92	0xbebaa22b	-0.3645185
93	0xbd9a47eb	-0.075332485
94	0xbe2170c5	-0.15765674
95	0xbd86d4a7	-0.06583529
96	0xbce36902	-0.027760033
97	0x3d8828a8	0.066483796
98	0x3e9b147a	0.3028906
99	0xbdc27748	-0.09495407
100	0xbe262a8c	-0.16227168
101	0xbe125a1b	-0.14292185
102	0xbe8c8909	-0.274483
103	0x3d30c838	0.043159693
104	0xbe473808	-0.19454968
105	0xbee94f2f	-0.45568225
106	0xbe6be306	-0.23035821
107	0xbdab89ca	-0.083758906
108	0xbd3fd6d4	-0.046835735
109	0xbe152f2e	-0.14568779
110	0xbf4017ea	-0.7503649
111	0xbe15ee9d	-0.14641805
112	0xbcff1a7b	-0.031140557
113	0xbd03fc10	-0.032222807
114	0x3e843da2	0.25828272
115	0x3e760c5a	0.24028149
116	0xbea7f184	-0.3280145
117	0xbd88318d	-0.06650076
118	0xbd118190	-0.03552395
119	0xbd961e23	-0.07329967
120	0x3d8378f6	0.06419556
121	0xbd831606	-0.06400685
122	0x3c7c5bef	0.015402778
123	0xbe63df1c	-0.22253078
124	0xbed1a38e	-0.40945095
125	0x3e9f60ac	0.31128442
126	0x3e13018e	0.14356062
127	0xbe0a754e	-0.1352131
128	0x3e03deef	0.12878011
129	0x3ded7eaf	0.115964286
130	0xbd020005	-0.0317383
131	0xbe960b10	-0.29305315
132	0x3d29cbcd	0.041454125
133	0xbdc84827	-0.09779387
134	0x3d09f401	0.033679966
135	0x3e12d90d	0.14340611
136	0x3da6068b	0.08106717
137	0x3e77d9bf	0.24204157
138	0x3d16de65	0.036833186
139	0xbe8ff3be	-0.28115648
140	0xbe27b499	-0.16377486
141	0x3da15e5a	0.07879324
142	0x3d03a2f9	0.032137845
143	0x3ec28ca4	0.37997925
144	0xbf026803	-0.5093996
145	0x3d77330f	0.060351428
146	0x3e72007b	0.23632996
147	0x3dae1b1b	0.08501264
148	0xbb9c3354	-0.004766861
149	0xbd8b2289	-0.067936964
150	0xbe167b30	-0.1469543
151	0xbe1f15a1	-0.15535595
152	0xbe2b454d	-0.16725655
153	0xbec3d519	-0.38248518
154	0x3c299d7d	0.01035249
155	0x3dafeb0b	0.08589753
156	0x3e8b4c5d	0.27206698
157	0xbe61df10	-0.22057748
158	0xbdf40050	-0.11914122
159	0xbda4a346	-0.080389544
160	0xbe4b0cd6	-0.19829115
161	0xbee1cd90	-0.44102144
162	0x3dfa78b1	0.12230051
163	0x3d7f153b	0.062276106
164	0xbe867c3d	-0.2626666
165	0xbdf26296	-0.1183521
166	0x3ddb75e4	0.10715845
167	0xbc415d4d	-0.01180203
168	0x3c359156	0.011082014
169	0x3e8bbda0	0.2729311
170	0x3e4a2d96	0.19743952
171	0x3da6a69b	0.08137246
172	0xbf07c97e	-0.5304183
173	0xbeb67935	-0.3563935
174	0x3e25305c	0.16131729
175	0xbd290fd9	-0.04127488
176	0x3d965eb8	0.07342285
177	0xbd888452	-0.06665863
178	0x3dac00ec	0.08398613
179	0xbe181204	-0.14850622
180	0xbe83cee6	-0.25743788
181	0x3d1ddcae	0.038540535
182	0x3da3e32b	0.08002313
183	0xbe4c2de6	-0.19939384
184	0x3eb9277c	0.36162937
185	0xbdb5594c	-0.08854923
186	0x3abf900b	0.0014615072
187	0xbdc05589	-0.093913145
188	0x3cdc9beb	0.026929816
189	0xbda31e08	-0.079647124
190	0xbe8b209a	-0.2717331
191	0x3dc36c26	0.09542112
192	0xbd8830c5	-0.06649927
193	0x3cb4a263	0.022050088
194	0xbe468f5f	-0.19390629
195	0xbe969cf9	-0.29416636
196	0x3d8417f9	0.06449885
197	0xbddd1be4	-0.10796335
198	0xbb265b95	-0.0025384177
199	0xbed9b4f3	-0.42520866
200	0xbc7a4bc8	-0.015276857
201	0xbe5f0455	-0.21778996
202	0xbe056057	-0.13025032
203	0x3e83f39d	0.257718
204	0xbd2069a5	-0.03916325
205	0xbe06ca69	-0.13163151
206	0x3c6374c4	0.01388282
207	0xbdb00e9a	-0.08596535
208	0x3d03ddba	0.032193877
209	0x3b32719e	0.0027228366
210	0x39dc7185	0.0004204625
211	0x3e7a1e17	0.24425541
212	0xbe372411	-0.17884852
213	0xbe6e1645	-0.23250683
214	0xbe96ba93	-0.2943922
215	0xbeac6775	-0.3367268
216	0xbddf6c72	-0.10909356
217	0x3d6344a7	0.055485394
218	0x3d87c1be	0.0662875
219	0x3ee80958	0.4531963
220	0x3dc3818f	0.09546196
221	0x3e152678	0.14565456
222	0xbc313998	-0.010816954
223	0xbe95b323	-0.29238233
224	0x3e183bf9	0.14866628
225	0x3d2727c5	0.04080941
226	0xbd9a0271	-0.07519997
227	0x3ddfc8bf	0.10926961
228	0xbdacdbfd	-0.08440397
229	0xbe500207	-0.20313273
230	0xbe645606	-0.2229844
231	0x3dc16e74	0.094448954
232	0x3dbb8514	0.09156242
233	0xbcb7054f	-0.022341399
234	0xbd738bb6	-0.05945941
235	0xbdd556a7	-0.10416918
236	0x3d82a462	0.0637901
237	0xbdbfdda8	-0.093684494
238	0xbe6c92b8	-0.23102844
239	0xbe079e9d	-0.132441
240	0xbdecf81c	-0.115707606
241	0x3d665552	0.05623371
242	0xbebdf215	-0.37098756
243	0xbe0e93f8	-0.13923633
244	0xbe788b7a	-0.24271956
245	0xbe23ef53	-0.16009264
246	0x3e9ca9d0	0.30598307
247	0x3e213a32	0.15744856
248	0xbe45a768	-0.19302142
249	0x3e052edd	0.13006158
250	0x3db5b422	0.08872248
251	0x3dec1006	0.11526494
252	0xbee20fbe	-0.44152635
253	0xbda244c2	-0.07923271
254	0xbd85845e	-0.06519388
255	0x3d8106d0	0.063001275

network_body._body_endoder.seq_layers.4.bias f4 [128]
0	0xbd88a902	-0.06672861
1	0xbd66ab69	-0.056315813
2	0xbcf89c95	-0.030348102
3	0xbd32f92f	-0.04369467
4	0xbe09bfce	-0.13452074
5	0xbcecd082	-0.028908018
6	0xbd7c67e9	-0.061622534
7	0xbcf9c05c	-0.030487232
8	0xbd92c86f	-0.07167136
9	0xbcdfbb34	-0.027310945
10	0xbdc56144	-0.096376926
11	0xbea29322	-0.31752878
12	0xbd023407	-0.0317879
13	0xbd9c2045	-0.076233424
14	0xbd97351f	-0.07383179
15	0xbcd8d88d	-0.026470447
16	0xbc8049eb	-0.015660247
17	0xbc544918	-0.01295688
18	0xbd8e5f38	-0.06951755
19	0xbd9d795c	-0.07689163
20	0xbd47ea99	-0.048807714
21	0xbd1142dd	-0.035464156
22	0xbd0897f3	-0.033348035
23	0xbd17c4ee	-0.03705304
24	0xbd8eff1e	-0.069822535
25	0xbd737198	-0.059434503
26	0x3c0f98bc	0.008764442
27	0xbe4cda39	-0.2000512
28	0xbe224abd	-0.15848823
29	0xbd92b929	-0.07164223
30	0xbe710842	-0.23538306
31	0xbe16a05b	-0.14709608
32	0xbca9bc3d	-0.020719642
33	0xbc741a33	-0.0148988245
34	0xbd427fc8	-0.047485143
35	0xbe55e6f2	-0.2088888
36	0xbd7fb230	-0.062425792
37	0xbd0af420	-0.033924222
38	0xbd3b4f4f	-0.04572993
39	0xbd2e3df6	-0.04253956
40	0xbd8974a1	-0.06711698
41	0xbecabdbd	-0.39597884
42	0xbd828df4	-0.06374732
43	0xbedbb6c8	-0.4291289
44	0xbdd35709	-0.10319335
45	0xbf115fcc	-0.567868
46	0x3add99a9	0.0016906756
47	0xbe6f90ef	-0.23395132
48	0xbddf2c81	-0.1089716
49	0xbd94509a	-0.07241936
50	0xbe92068c	-0.2852062
51	0xbd690ae4	-0.05689515
52	0xbd148742	-0.036261804
53	0xbdca6477	-0.098824434
54	0xbd36babc	-0.044611678
55	0xbd154516	-0.03644284
56	0xbdccbd35	-0.09997026
57	0xbda5cba2	-0.080954805
58	0xbd8528b8	-0.06501907
59	0xbd8c7770	-0.068587184
60	0xbd9340dc	-0.07190105
61	0xbd53f14c	-0.05174379
62	0xbddde9db	-0.1083562
63	0xbca3b756	-0.019984882
64	0xbd530e79	-0.051527474
65	0xbd5c293e	-0.05375027
66	0xbc53c85c	-0.012926187
67	0xbe9a5a85	-0.30147186
68	0xbda8bd3c	-0.082392186
69	0xbd9cae59	-0.07650442
70	0xbda2a00a	-0.07940681
71	0xbeafc518	-0.34330058
72	0xbdded131	-0.10879744
73	0xbec2e530	-0.3806548
74	0xbd836eb8	-0.06417602
75	0xbe1f33e8	-0.15547144
76	0xbe0d2012	-0.13781765
77	0xbef81a38	-0.48457503
78	0xbdce58b9	-0.10075516
79	0xbd5a8b16	-0.0533553
80	0xbd06fbca	-0.03295497
81	0xbd9dac9b	-0.076989375
82	0xbdaa9155	-0.08328501
83	0xbd6856ff	-0.05672359
84	0xbd97436b	-0.07385906
85	0xbf640049	-0.89062935
86	0xbdc8983b	-0.09794661
87	0xbdb606fc	-0.08888051
88	0xbd8035ed	-0.062602855
89	0xbcd8abf5	-0.026449183
90	0xbe41f112	-0.18939617
91	0xbd777d77	-0.060422387
92	0xbd503a67	-0.050836947
93	0xbdf27431	-0.11838568
94	0xba959dd0	-0.001141483
95	0xbd4bef96	-0.049789034
96	0xbd41ee87	-0.047346618
97	0xbd949a22	-0.07255961
98	0xbd7ed424	-0.06221403
99	0xbd9ad713	-0.075605534
100	0xbeaed382	-0.34145743
101	0xbd881067	-0.066437535
102	0xbcf68df0	-0.030096978
103	0xbeae89a0	-0.34089375
104	0xbd8b94cd	-0.06815491
105	0xbecc0170	-0.39844847
106	0xbd61b8ff	-0.055108067
107	0xbe221459	-0.15828075
108	0xbd8dabe9	-0.06917555
109	0x3d97543e	0.07389115
110	0xbd8571f8	-0.065158784
111	0xbd4bd3d7	-0.049762573
112	0xbeb296c0	-0.34880638
113	0xbd83d431	-0.06436957
114	0xbd14b94c	-0.036309525
115	0xbd8b7b6e	-0.06810652
116	0xbd59209b	-0.05300961
117	0xbdba7367	-0.091040425
118	0xbe87776c	-0.264583
119	0xbdc17468	-0.09446031
120	0xbd62f89f	-0.055412885
121	0xbdadbc2e	-0.08483158
122	0xbdbbb0d7	-0.09164589
123	0xbcf6c5a4	-0.03012354
124	0xbd905c62	-0.070488706
125	0xbd6fc4af	-0.05853718
126	0xbd608090	-0.054810107
127	0xbdedccad	-0.116113044

network_body._body_endoder.seq_layers.4.weight f4 [128, 128]
0	0x3d74da7a	0.059778668
1	0xbcdf1ac4	-0.027234443
2	0xba6154a5	-0.0008595682
3	0xbd3f6a19	-0.046732042
4	0xbc5303e4	-0.012879346
5	0x3d873e83	0.0660372
6	0x3b5beebc	0.0033559045
7	0x3cbbf096	0.022941869
8	0xbc958b87	-0.018255008
9	0x3d6cb924	0.05779375
10	0xbd4fa0c3	-0.050690424
11	0x3c0e96da	0.008702958
12	0xbd55fa47	-0.052240636
13	0xb9f81e09	-0.00047324624
14	0xbd0d4b74	-0.034495786
15	0x3d4f94cd	0.050679017
16	0x3d097c7e	0.03356599
17	0xbbd32816	-0.0064439876
18	0xbd932f3c	-0.071867436
19	0xbda15242	-0.078770176
20	0x3cf7f61c	0.030268721
21	0xbd3b3a4e	-0.0457099
22	0x3cee553e	0.029093381
23	0xbb18a7e8	-0.002329344
24	0xbb261fb5	-0.0025348489
25	0xbdb30d19	-0.087427326
26	0x3d157104	0.036484733
27	0x3d422ed9	0.04740796
28	0x3bd3a969	0.0064594042
29	0x3c0148d1	0.007890896
30	0x3e163734	0.14669496
31	0xbbd01b0c	-0.0063508805
32	0x3c73e717	0.014886639
33	0x3d517dfb	0.051145535
34	0xbc3286eb	-0.010896425
35	0x3d86aa9d	0.06575511
36	0x3e2366e5	0.1595722
37	0xbbe5bf78	-0.0070113502
38	0x3ccd65c2	0.025072936
39	0x3c4ce89a	0.012506628
40	0xbdbbf322	-0.09177233
41	0x3d73e4ec	0.05954449
42	0x3e19d8b6	0.15024075
43	0xbd48cf54	-0.04902585
44	0xbdaa8b79	-0.083273835
45	0x3db57f12	0.08862127
46	0xbcc314ac	-0.023813568
47	0xbd0f55ac	-0.034993812
48	0xbd39300d	-0.04521184
49	0xbc663d26	-0.014052665
50	0xbc20905f	-0.009800046
51	0xbd0c521f	-0.034258004
52	0xbcb081fd	-0.021546358
53	0xbd015a68	-0.03158036
54	0x3d25cb95	0.040477354
55	0xbd8f0424	-0.06983212
56	0xbbbb28a9	-0.005711634
57	0xbdad2697	-0.08454626
58	0x3ce793fb	0.028268805
59	0x3b1e05af	0.0024112274
60	0x3daa1220	0.08304238
61	0x3b4668a8	0.0030274782
62	0x3d79ef94	0.061019495
63	0x3da1d037	0.07901042
64	0x3c3ce798	0.011529826
65	0xbe0d938d	-0.13825817
66	0xbd31176a	-0.04323522
67	0xbb551488	-0.0032513458
68	0x3d228668	0.03967896
69	0x3c2a6737	0.010400585
70	0xbd65419f	-0.055970784
71	0xbd6372ff	-0.05552959
72	0x3da2e20a	0.0795327
73	0xbd290843	-0.041267645
74	0xbbe399f7	-0.0069458443
75	0x3d8266b2	0.06367244
76	0x3d358ace	0.044321828
77	0x3c15c834	0.00914197
78	0x3d3c8760	0.04602754
79	0xbd522f6b	-0.051314753
80	0x3a8e3825	0.0010850473
81	0x3d0e29ed	0.034707952
82	0x3b83164c	0.0040004607
83	0xbda68801	-0.081314094
84	0xbb72d3be	-0.0037052478
85	0xbd151474	-0.03639646
86	0xbd45c54f	-0.04828387
87	0x3cb6169a	0.022227574
88	0x3d20a03f	0.039215323
89	0xbc98f5fa	-0.018671978
90	0xbc09dabd	-0.008413968
91	0x3c0289eb	0.0079674525
92	0x3d8a9f2b	0.0676864
93	0xbd52c9a9	-0.05146185
94	0xbddeebf1	-0.10884846
95	0xbc74dc6e	-0.014945133
96	0xbcdb2cb5	-0.026754716
97	0xbdc8c435	-0.098030485
98	0xbd04bbce	-0.032405667
99	0x3ce6e67d	0.028186077
100	0xbd4a6075	-0.049408395
101	0x3d8ecdca	0.06972845
102	0xbb19c329	-0.0023462272
103	0x3cb960d8	0.022629187
104	0x3d6263a4	0.055270806
105	0xbb808f98	-0.0039233677
106	0x3d6d10bd	0.05787729
107	0xbbf798ba	-0.007556048
108	0xbc123bca	-0.008925388
109	0xbd1397be	-0.036033385
110	0x3bb02f82	0.005376757
111	0x3b8798b4	0.0041380767
112	0xbdd2fa52	-0.10301651
113	0xbcca2901	-0.024677755
114	0xbd1e70cc	-0.03868179
115	0xbce0d318	-0.027444407
116	0xbd6d2da3	-0.05790485
117	0x3d129916	0.035790525
118	0x3c751cf2	0.014960514
119	0xbb25921d	-0.0025264092
120	0xbd191a25	-0.03737845
121	0x3d43c513	0.047795366
122	0x3d16f34f	0.03685313
123	0xbced0108	-0.028931156
124	0x3d65b583	0.056081306
125	0x3b8727eb	0.0041246316
126	0x3da61e09	0.081111975
127	0xba3687f2	-0.00069630065
128	0xbbabe397	-0.0052456367
129	0xbd40d6f2	-0.047079988
130	0x3dc11eb0	0.09429681
131	0xbd1007f7	-0.035163846
132	0xbcbc6583	-0.022997623
133	0x3caa4e3a	0.020789254
134	0xbbf40746	-0.007447156
135	0x3c4e93fc	0.012608524
136	0x3c937fec	0.018005334
137	0x3d0679fe	0.032831185
138	0x3d599482	0.053120144
139	0xbe0074b1	-0.12544514
140	0xbda5eb79	-0.081015535
141	0xbd545e6b	-0.051847856
142	0xbda40ff8	-0.08010858
143	0xbd38ea6b	-0.045145433
144	0x3bf50a98	0.0074780695
145	0xbd4c93a3	-0.049945485
146	0xbc51671f	-0.012780934
147	0x3d1c75e8	0.03819838
148	0xbdc0fcab	-0.094231926
149	0xbcae914c	-0.021309517
150	0x3ce369e8	0.027760461
151	0xbc07d0a7	-0.008289493
152	0xbd5edffc	-0.054412827
153	0xbd892302	-0.0669613
154	0x3d353ef2	0.044249482
155	0xbc2fd926	-0.010732925
156	0x3cb9aff1	0.022666903
157	0xbc09ba6d	-0.008406264
158	0x3c2bcfdb	0.010486568
159	0xbcf75094	-0.03018979
160	0x3b4c51cf	0.0031176691
161	0x3ceda562	0.029009525
162	0x3ced33e6	0.028955411
163	0xbe048763	-0.12942271
164	0xbd609689	-0.05483106
165	0x3ca22a9b	0.019795706
166	0xbbbf6a1d	-0.005841507
167	0xbc2b1b1c	-0.010443475
168	0x3da1099b	0.0786316
169	0xbd3d7ec0	-0.046263456
170	0x3c01a52e	0.007912917
171	0xbd26934f	-0.04066783
172	0x3cd85b08	0.026410595
173	0xbd507120	-0.050889134
174	0x3d6c5083	0.05769397
175	0x3d5cf803	0.05394746
176	0x3cebb649	0.028773444
177	0x3db953d9	0.09049196
178	0x3ccf656f	0.025316922
179	0xbc9f9413	-0.019479787
180	0x3d1795ce	0.0370081
181	0xbc5c2dad	-0.013438624
182	0x3cdb819b	0.0267952
183	0xbc7e1ed6	-0.015510282
184	0xbcd242be	-0.02566659
185	0xbdb4266e	-0.087963924
186	0xbd27b064	-0.040939704
187	0x3d526915	0.051369745
188	0x3debd939	0.11516041
189	0xbc76f46d	-0.015072924
190	0x3d3e302c	0.04643266
191	0x3d8efa6e	0.069813594
192	0xbcd31ece	-0.025771525
193	0xbc416504	-0.011803869
194	0xb927c2b1	-0.0001599889
195	0x3aae6814	0.0013306164
196	0xbce8aea8	-0.028403595
197	0xbbf8c183	-0.007591428
198	0xbddfd715	-0.109296955
199	0xbb5ddf37	-0.003385497
200	0x3e2ae9e5	0.16690786
201	0xbd2e7284	-0.04258968
202	0xbdb964ed	-0.09052453
203	0x3d4cee5b	0.050032
204	0x3cd8298f	0.026387004
205	0xbc4cf477	-0.012509457
206	0xb8a641ee	-7.927777e-05
207	0xbe135eec	-0.14391679
208	0xbd5d9c56	-0.05410417
209	0x3d4246cd	0.047430802
210	0xbb4f3366	-0.003161633
211	0x3c9dd44d	0.019266272
212	0x3c0b7f5c	0.008514252
213	0x3ca56f49	0.020194666
214	0xbbbf6441	-0.0058408086
215	0x3d6bfa79	0.057611916
216	0x3d915d32	0.07097854
217	0x3cc0f1ae	0.023552742
218	0xbd7def75	-0.061995942
219	0x3d08abf9	0.03336713
220	0xbd5eb7ea	-0.054374613
221	0xbe035f1a	-0.12829247
222	0xbced2e18	-0.028952643
223	0x3b1af4d9	0.0023644476
224	0x3d87de3a	0.06634183
225	0x3c271a28	0.010199107
226	0xbd3e8384	-0.04651214
227	0xbca0c5e3	-0.01962561
228	0x3c893fb6	0.016754013
229	0xbd73b3aa	-0.059497513
230	0x3d834580	0.064097404
231	0xbb430754	-0.0029759007
232	0x3d2bfa0d	0.041986514
233	0x3cd3875f	0.025821386
234	0x3bde9cb1	0.0067935814
235	0xbd223dea	-0.039609827
236	0xbc74faef	-0.014952405
237	0xbd4dc45f	-0.050236102
238	0xbcf5c4d4	-0.030001082
239	0x3b13bba1	0.0022542255
240	0xbd881074	-0.06643763
241	0x3c6cc041	0.014450134
242	0xbca25d7f	-0.019819973
243	0xbc9a4fae	-0.018836822
244	0xbd9d251e	-0.07673095
245	0xbcecfb30	-0.02892837
246	0x3d1d632f	0.038424667
247	0x3c9f94db	0.01948016
248	0x3b696fc1	0.003561959
249	0x3c62e6b7	0.013848952
250	0x3db0816f	0.086184375
251	0x3d40197e	0.04689931
252	0x3da6dbbb	0.08147379
253	0x3d0f1dce	0.034940533
254	0x3d0eaa13	0.034830164
255	0x3d7e37e5	0.062065024
