Maize-Runner/results/EscapeRewards2/EscapeMaze/EscapeMaze-20999942.onnx (onnx, 200372 bytes, 9 tensors)

action_model._continuous_distribution.log_sigma f4 [1, 2]
000000 e2 ce 8a bf 77 15 8e bf
       -1.0844386 -1.11003

action_model._continuous_distribution.mu.bias f4 [2]
000000 6c 97 d6 3d c2 3d 1e bc
       0.104781 -0.009658279

action_model._continuous_distribution.mu.weight f4 [2, 128]
000000 b4 c4 59 3a b9 0d cd bb fa d1 92 3b 77 a4 af 39
       0.0008307204 -0.0062577394 0.0044805976 0.00033501137
000010 7c 11 00 bb ef 3c 8b ba bd 85 9b bb 15 4b d2 ba
       -0.0019541671 -0.0010623018 -0.0047461675 -0.0016044105
000020 58 1b f4 ba 1a 3a 7b bb c7 cd fd ba 12 77 41 3c
       -0.0018623872 -0.0038334192 -0.0019363695 0.011808174
000030 61 4b 99 ba 47 36 f6 3b 65 a0 6a 3b bf 72 be 3a
       -0.0011695438 0.0075137946 0.003580117 0.0014530047
000040 7c e0 27 ba d2 82 51 3b 95 9d 9e b9 32 60 92 39
       -0.0006403995 0.0031968844 -0.00030253516 0.0002791896
000050 ab 79 b5 ba 82 51 af bb 0a 43 76 b9 db 50 ce ba
       -0.0013845464 -0.0053502927 -0.00023485362 -0.001574065
000060 09 9a bd ba de 9a 98 bb 7b 9b b5 b9 f2 06 93 bd
       -0.0014465462 -0.0046571335 -0.00034638852 -0.07179059
000070 35 60 35 3c 46 1f bc 3b a9 f5 bf bc cc 99 33 ba
       0.011070301 0.005741033 -0.02343257 -0.00068512256
000080 26 20 a6 ba db 43 85 3d a0 24 4d 3d 98 7f 92 bd
       -0.0012674376 0.06507083 0.050083756 -0.07153243
000090 72 20 26 bb b8 ae 91 bb 86 54 28 bb f0 4c 72 39
       -0.0025348929 -0.004445877 -0.0025685146 0.0002310758
0000a0 04 c1 31 3b d6 2f da bd 0a 66 14 3a 4a 57 34 bd
       0.0027123103 -0.10653655 0.0005660957 -0.044028558
0000b0 9a 58 31 3b cd 1f ae bc 15 3c 6a 3d f5 c8 f8 3c
       0.0027060867 -0.021255398 0.057186205 0.030369261
0000c0 b5 1c 93 ba 18 3b b8 39 9b 8c 42 bd 27 4b 93 b9
       -0.0011223765 0.00035139243 -0.047497373 -0.00028094018
0000d0 9b 0e 4f bb b1 15 93 bb eb 8a 2f 3b d2 4c c4 ba
       -0.00315944 -0.00448867 0.0026785682 -0.0014976508
0000e0 38 bb da 3c 94 ad 92 bb 35 14 8a ba 90 c6 24 ba
       0.026700601 -0.0044762585 -0.0010534587 -0.00062856916
0000f0 76 99 03 bb 4c d8 b3 ba d5 cd b3 3b 8c c1 a3 bb
       -0.0020080484 -0.0013721078 0.0054871836 -0.004997438
000100 55 1a b9 b8 f0 28 d4 ba dc 3d c8 3a a6 3b 10 bc
       -8.826392e-05 -0.0016186517 0.0015277225 -0.008803284
000110 6a b8 d5 3d a7 6a 15 3b 77 41 9c 3a 57 e9 fd bc
       0.10435565 0.0022799165 0.0011921366 -0.030995054
000120 e6 c2 88 3d 63 3a 38 bd 1f 41 f5 ba 79 f0 59 bb
       0.06677799 -0.044977557 -0.0018711424 -0.0033254905
000130 70 b1 84 bb 0f af 59 3c 59 26 28 3d ba b5 10 ba
       -0.0040494725 0.013286366 0.041052196 -0.00055202434
000140 d2 63 cd bb 47 67 e0 ba ae b4 12 3a 79 5d 23 3b
       -0.006268003 -0.0017120623 0.00055963814 0.002492754
000150 e8 42 ad 3c b4 70 8b bb 43 93 26 3b db 7b 98 ba
       0.021150067 -0.0042553786 0.0025417365 -0.0011633591
000160 2f 2a e1 3c 47 05 82 39 67 bd 9e 3d 78 bb 4b 3b
       0.027485935 0.00024799464 0.077509694 0.0031087082
000170 03 09 eb 39 2f 8f 0b bb 94 38 20 b9 27 98 4d 3b
       0.00044829407 -0.002129506 -0.00015279866 0.0031371207
000180 48 0f f3 b9 44 3e c6 ba 74 7c 73 3a 6d 0e 06 3b
       -0.00046359957 -0.0015124758 0.00092882593 0.0020455376
000190 fa d7 ea bc f4 92 8b 3d 69 73 87 3b f3 0b af bc
       -0.028667439 0.068151385 0.004133631 -0.021368003
0001a0 c1 15 e4 39 a5 19 31 bd 68 6c 4e bb 19 5c ca 3d
       0.00043503757 -0.043237347 -0.003149772 0.098808475
0001b0 08 b7 21 3b 00 e5 03 3e 54 05 b2 bb c0 e1 8a 3a
       0.0024675746 0.12880325 -0.005432764 0.0010595843
0001c0 77 bb c8 bc 1d eb 16 bb e1 b5 80 b7 9b 0a 57 bb
       -0.024503453 -0.0023028322 -1.5343483e-05 -0.0032812718
0001d0 34 42 23 3a bc d1 67 bb 6c 38 86 bc 8c 60 6a bb
       0.00062278216 -0.0035372814 -0.016384326 -0.0035763113
0001e0 7e ef 76 3a df 1d a8 ba 55 1c d6 3a 60 4d 3b 3b
       0.00094198424 -0.0012826285 0.0016335348 0.0028580055
0001f0 10 8f cc ba 02 2e 7f 3b 64 a0 94 ba f4 ab 30 3a
       -0.0015606601 0.0038937335 -0.0011339304 0.000673949
000200 76 a2 1c ba b5 5a df 39 3e db 11 bb 23 e3 e1 ba
       -0.00059751363 0.00042601457 -0.0022255923 -0.001723383
000210 2b ac 2b 3b e3 7e 56 bb fa 5d 14 bb 73 57 00 bb
       0.002619515 -0.003272944 -0.0022639022 -0.0019583374
000220 54 d7 e7 3d de 8d fa b9 08 0c 79 3b 89 2a 26 bd
       0.113203675 -0.00047789415 0.0038001556 -0.04056791
000230 8d f2 68 3a ef 85 a5 3b 97 ac 6a 3b 84 3e 09 bb
       0.00088862405 0.0050513665 0.0035808438 -0.0020941803
000240 f1 e0 6a bb e3 19 97 3a 71 f7 d9 3b 90 7a 02 3a
       -0.0035839642 0.0011528101 0.006651812 0.00049773697
000250 bc 14 b2 3a dc dd 87 bb 18 44 36 ba 19 18 ac ba
       0.0013586502 -0.0041463207 -0.0006952896 -0.001312974
000260 87 5e 5d 3b e3 68 a8 bb 53 84 3c 39 1f 53 17 3d
       0.0033778267 -0.0051394566 0.00017978372 0.036944505
000270 dc 85 1d 3d 66 e3 b5 ba 0d 0b 93 bd 23 90 89 38
       0.038457736 -0.0013876974 -0.07179842 6.5595166e-05
000280 22 ac 41 bb 42 f5 06 be 13 5e 11 bd 82 34 33 bd
       -0.0029552062 -0.13179496 -0.035490107 -0.043751247
000290 ff b9 1b 3b fc ce 57 bb 8d 31 6d ba 88 37 ff 3a
       0.0023761985 -0.0032929769 -0.0009048216 0.0019471506
0002a0 99 f5 6f 3b 11 ee fe bb 6f 3e c5 3a 3e 1e c2 bb
       0.0036614893 -0.0077798446 0.0015048514 -0.0059240153
0002b0 7c c0 63 ba c6 d2 9e bb c3 c7 cc 3c 89 e5 17 bd
       -0.0008688045 -0.0048469035 0.024997598 -0.037084136
0002c0 06 ad 85 39 7f da cd 39 68 26 28 3d 9f e3 84 b9
       0.0002549665 0.0003926344 0.041052252 -0.00025346593
0002d0 9c 47 d5 bb be 69 a2 3a 95 7e 9c b8 12 5d bf 3a
       -0.0065087806 0.0012391133 -7.4622374e-05 0.0014599881
0002e0 d9 98 8c 3d 59 fd 23 b9 e9 9a eb 3a b9 a2 23 bb
       0.06865091 -0.0001563927 0.0017975244 -0.0024968816
0002f0 3b 02 e3 3a d3 a6 63 bb 61 31 14 3b c6 b0 97 3b
       0.001731939 -0.0034736886 0.002261244 0.0046292273
000300 9c 47 0d b9 a1 93 02 bb 29 67 61 bb 21 78 8d 3b
       -0.00013473484 -0.001992442 -0.0034393764 0.004317299
000310 50 18 ce 3a cf 49 95 3a 63 d5 9b 3a de d2 fb 3c
       0.0015723798 0.0011389795 0.0011889156 0.030740198
000320 cd a0 b8 3c 1b 91 01 3d 64 24 ae bb fa 7a fa ba
       0.022537613 0.031632524 -0.0053143967 -0.0019110136
000330 6c ad b7 3a 50 b8 92 3d 65 fc 65 3d 92 e5 2e 3a
       0.0014013476 0.07164061 0.056148905 0.0006671782
000340 95 ef ab ba b6 b9 6e b7 da cc 97 3a 1d 0b b6 ba
       -0.0013117666 -1.4229145e-05 0.0011581436 -0.001388881
000350 a1 97 9c bd ec 19 f3 3c cf 73 80 bb 6c 50 d5 ba
       -0.076461084 0.029675446 -0.0039200555 -0.0016274578
000360 21 bf 9e 3d e9 58 08 bb 24 c1 ee 3c 64 fa 8e ba
       0.07751299 -0.0020804948 0.029144831 -0.0010908362
000370 a0 be 04 3b b0 b9 fa b7 44 27 a2 3a be ab 18 bb
       0.0020255223 -2.988879e-05 0.0012371321 -0.0023295726
000380 73 8d 2f 3b 66 c1 79 bb d7 e8 d3 3b a4 68 a3 3b
       0.002678719 -0.003810966 0.0064669657 0.0049868394
000390 a1 07 2a bd cd a9 4b bd 8c 9e 6f 3b 80 72 40 bd
       -0.04151118 -0.04972248 0.0036563007 -0.046984196
0003a0 e8 c0 8f ba 15 54 ab bc ac 39 09 b8 56 97 05 3d
       -0.0010967525 -0.020914117 -3.2717056e-05 0.03261503
0003b0 50 0a 41 3b b2 99 92 3c e8 50 d7 ba e4 c6 ac b9
       0.002945561 0.017895553 -0.001642731 -0.00032954582
0003c0 98 93 44 3d c3 95 cc b9 ec cf d5 3a fc e7 3c ba
       0.04799232 -0.00039021493 0.0016312576 -0.0007206199
0003d0 e4 26 ed 3a 26 1a c3 ba 5f 96 d0 bc c5 eb 8a bb
       0.0018093255 -0.0014885112 -0.025462328 -0.0042395317
0003e0 a8 45 af ba e9 9f 12 38 4d 20 fb 3b dd 97 cf bd
       -0.00133722 3.495804e-05 0.0076637627 -0.101363875
0003f0 e5 0d 60 3b 37 d5 23 3b e3 0d 44 3b 62 af 9b 3a
       0.003418797 0.0024998912 0.0029915504 0.001187783

network_body._body_endoder.seq_layers.0.bias f4 [128]
000000 b3 77 8b be 06 4d 25 be 82 58 99 be f1 4a 9f bd
       -0.2723976 -0.16142663 -0.2995034 -0.07777966
000010 db 26 41 3c 79 d2 e3 be 5b 7d 27 bd 07 c0 0c 3d
       0.011789049 -0.44496515 -0.040891033 0.03436282
000020 12 88 e1 3d 71 44 fe 3c b3 b7 6f bb 4b a6 7f bc
       0.110122815 0.031038495 -0.0036578 -0.015603612
000030 18 d8 14 bc 8f e2 59 bd b1 1d 89 bc c9 ab f7 3d
       -0.009084724 -0.05319458 -0.01673779 0.12093312
000040 af a4 4b 3d 25 a3 fc bc 10 8d b6 bc c2 46 09 3d
       0.0497176 -0.030839512 -0.02228406 0.033514746
000050 5c 65 b4 3c 90 20 cf be 9c 2d 8f 3d 67 30 a1 bd
       0.022020988 -0.4045453 0.06991121 -0.0787056
000060 76 d1 35 3d 62 35 7b bc a8 e7 bf bc 14 7e b0 b9
       0.04438921 -0.015332552 -0.023425892 -0.00033663271
000070 a4 10 d5 bc c4 ce e8 3d f5 5c 03 be e4 e3 a9 3d
       -0.026008911 0.113675624 -0.12828429 0.0829542
000080 67 39 10 bd 31 59 9b ba 0f 77 37 3e b5 e5 03 3e
       -0.035210993 -0.0011852143 0.17916511 0.12880595
000090 90 bc 49 3d b8 d0 78 bd 00 15 c6 3d 7c 77 86 3d
       0.049252093 -0.060745925 0.09671974 0.065657586
0000a0 f3 15 99 be e4 a7 42 bd 48 2a 82 3d e2 cf b9 3c
       -0.29899558 -0.047523394 0.06355721 0.022682134
0000b0 5e 12 ec 3b 4e cd 00 3d d2 69 71 bc c3 a7 c8 3c
       0.007204338 0.031445794 -0.014734702 0.024494058
0000c0 ba 56 7f bd bd fe 0a bd 40 d4 24 bd 8f 67 3e bd
       -0.06233857 -0.033934344 -0.04024148 -0.04648548
0000d0 e4 2d 98 bd ff b9 9c bd e2 bc 50 bc fe b4 81 bd
       -0.07430628 -0.076526634 -0.012740346 -0.0633335
0000e0 58 40 eb bc b6 d1 e2 bb 13 6b bc bd 0b 3a fc 3b
       -0.028717205 -0.006921972 -0.0920011 0.007697349
0000f0 87 dc 1b be 3a 08 56 3d 02 03 bd bd 7e e7 11 3d
       -0.15220843 0.05225394 -0.09229089 0.03562116
000100 87 e4 ba bd 77 6b 65 3d 12 97 a1 bd 3e 7e 35 3d
       -0.091256194 0.05601069 -0.078901425 0.044309847
000110 4c 40 fc bc 1b 11 3b be 53 48 64 be 34 6a 3e bd
       -0.030792378 -0.18268244 -0.22293214 -0.046488002
000120 60 3f 2d 3c 26 d6 c9 bc 77 89 75 bd ff 49 9e bd
       0.010574192 -0.024638247 -0.05994555 -0.077289574
000130 0d 51 9d 3c 5e 18 a7 bb d1 1e da bc 6b 70 02 bc
       0.019203687 -0.0050993403 -0.026626023 -0.007961373
000140 02 57 4a bd a5 e6 a4 bd 03 84 be 3d 0b 0c a4 be
       -0.049399383 -0.080518045 0.09302523 -0.32040438
000150 a5 f6 f4 bc 00 64 23 bc 9a ce 98 bd 75 73 a2 3d
       -0.029902766 -0.009972572 -0.07461281 0.07932178
000160 be 82 a2 bc fd 3e 0b be 8b 34 87 3d 9e 49 9e bd
       -0.019837733 -0.13598247 0.06601819 -0.07728885
000170 03 f3 96 bd 2a aa ac be 71 e0 82 bd 06 97 a0 bd
       -0.073705696 -0.33723575 -0.06390465 -0.078413054
000180 60 47 c6 bd 00 5f 2d ba e5 5c bf bd d6 c2 a9 3d
       -0.096815825 -0.00066135824 -0.0934389 0.08289115
000190 86 1f f7 bc a1 b5 ad be 79 c2 b4 bd 0a e8 94 bd
       -0.030166399 -0.33927634 -0.08826155 -0.072708204
0001a0 ee 87 ca bc 09 b2 8c 3c 22 1c 06 be 13 68 05 3d
       -0.02472302 0.017174738 -0.1309667 0.032569956
0001b0 46 c7 49 3b b9 f2 92 3d 7f 06 0d bd 4c d3 2e bd
       0.0030788942 0.07175202 -0.034430023 -0.042681977
0001c0 8b 35 b3 3d 87 12 7c bd 56 24 48 bd fc 6e 03 bd
       0.08750447 -0.061541107 -0.048862778 -0.032088265
0001d0 02 3e cf bd 2d 66 1f 3c e2 d9 89 3d e3 9d a5 bd
       -0.10119249 0.00972895 0.06731011 -0.08086755
0001e0 33 eb 2e bd 49 38 5f 3c b0 f0 51 be 6a d6 26 bd
       -0.042704772 0.013624259 -0.20501971 -0.040731825
0001f0 11 da fb bd 2e 24 be ba b6 a7 ae bb 69 e9 54 be
       -0.12297452 -0.0014506632 -0.0053300513 -0.20792164

network_body._body_endoder.seq_layers.0.weight f4 [128, 126]
000000 1a b1 3d 3d 4f 3e b4 be 00 cb d8 3d 03 f1 40 3e
       0.046311475 -0.35203788 0.10585594 0.18841939
000010 47 00 36 be 0f 0a de bd cf 49 ee be b4 19 d9 3c
       -0.17773543 -0.10841762 -0.46540686 0.026501514
000020 32 c5 f6 3e 86 2a d3 bd 2a f4 5f 3e 7d 98 7d be
       0.48197323 -0.10310845 0.21870485 -0.24765201
000030 9e 06 15 3c 6e 9f 90 3d e8 4d ea bd aa 86 c8 3d
       0.009095816 0.07061659 -0.11440641 0.0979131
000040 14 36 bf be a4 2c 43 be 04 1c e6 be 54 90 b9 be
       -0.37345946 -0.19059998 -0.4494325 -0.36242926
000050 71 ed e7 3d 81 08 e5 be 73 df bb 3e f7 ff 76 bc
       0.11324585 -0.4473305 0.36693916 -0.015075675
000060 ce f2 4d be 58 91 5b 3d f6 dd a0 be 07 9d b3 be
       -0.20112154 0.053605407 -0.31419343 -0.3508074
000070 e0 d9 b3 3e 51 b7 48 be 85 6e 33 bc ee a3 d5 be
       0.35127163 -0.1960118 -0.010951643 -0.4172663
000080 56 13 96 bb e7 39 7d 3e ab 0b 57 be e3 81 73 bd
       -0.0045799417 0.24729119 -0.21000545 -0.05945004
000090 70 40 29 3d b8 eb b0 be 9c 72 56 3e 9d 96 2f be
       0.041321218 -0.3455484 0.20942158 -0.17147298
0000a0 d4 ec f8 3d a3 5f 2e bf 25 2e 89 3d a5 41 83 3d
       0.121545464 -0.6811468 0.066982545 0.06409005
0000b0 9f e5 96 3e 5f 68 b7 bd b7 de ce bd 23 d4 7f 3c
       0.29472062 -0.08955454 -0.10101073 0.015614542
0000c0 e1 d1 4c 3d f4 89 80 be a1 fc 11 be f7 61 bf be
       0.050004844 -0.2510525 -0.14256527 -0.3737943
0000d0 5e 0f 1b bc 00 a6 63 3e ee fc 8d bd 7a 84 e0 bd
       -0.009464113 0.22231293 -0.06933008 -0.10962768
0000e0 55 2d 42 be 4f 0f b7 bd e2 42 4a be bc 3a 70 be
       -0.18962605 -0.08938467 -0.19752076 -0.23459905
0000f0 24 e2 19 3d 9f f2 6b be 66 17 9a 3c e9 e8 45 be
       0.03756918 -0.23041771 0.018809985 -0.1932713
000100 34 95 27 be 78 8e 54 3e a9 4d 2c 3c 18 b8 d0 bd
       -0.1636551 0.20757473 0.0105165625 -0.10191363
000110 d1 5e 0a 3e 51 9d 54 3c 8b 0a f0 bd 8e d0 e9 3d
       0.13512732 0.01297696 -0.11720761 0.11416732
000120 f8 63 db 3d 4d 3c a2 bd da 5d 17 3f 2c 89 15 3e
       0.10712427 -0.07921658 0.5912758 0.14603108
000130 f4 78 80 be 99 e7 e6 bc 48 2c 09 bf 44 fe fc be
       -0.2509228 -0.028186606 -0.5358319 -0.4941274
000140 89 ea e1 3e 1a b5 8c 3e ce fc 4d 3d 20 b4 97 3e
       0.4412425 0.2748192 0.05028992 0.29629612
000150 f1 f0 68 3d d5 13 27 be fc c1 ab 3e 29 59 59 be
       0.056870405 -0.16316159 0.33546436 -0.21225418
000160 7c 3f be bd 65 a7 b1 3e b0 a3 5c bf c6 04 98 be
       -0.092894524 0.34698024 -0.8618727 -0.29691142
000170 4c fd a4 3e dc dc af bd 9a 1b 3a be 68 c9 ca 3e
       0.322245 -0.085870475 -0.18174592 0.39606786
000180 c7 b9 28 3c 5a 48 47 3c d5 a4 1c be 94 16 0d bd
       0.010298199 0.012163246 -0.15297253 -0.03444536
000190 5c 7f ba be 33 0a 0f 3f fd b1 58 bd 95 e3 c9 bd
       -0.36425292 0.5587494 -0.052904118 -0.09857861
0001a0 97 0c d5 3e 10 2b 51 be b2 e0 d5 be 02 52 74 3e
       0.41611168 -0.20426583 -0.4177299 0.23859408
0001b0 50 cc e9 3d f4 3c 63 bd 11 6e ec 3e b7 54 2d be
       0.11415923 -0.05547805 0.46177724 -0.16926847
0001c0 8a 4b 85 be 11 69 23 3e ac c7 8c bd 1a 9b 00 be
       -0.26034194 0.15958048 -0.06874022 -0.12559167
0001d0 f9 e7 a3 be 89 94 d6 bd ba 76 05 bd d5 9b b5 be
       -0.3201292 -0.104775496 -0.03258393 -0.35470453
0001e0 68 ec 39 be 44 3c 0c be 50 12 2f be 2a 03 90 be
       -0.18156588 -0.13694865 -0.1709683 -0.28127414
0001f0 98 e4 86 bd 0a 0f 16 bf 6d 37 ff bd b4 2e a4 3e
       -0.065865695 -0.586167 -0.124617435 0.32066882
000200 7b 72 08 bf 67 02 98 be 99 1f 49 be a0 7d 95 bd
       -0.53299683 -0.29689333 -0.1964096 -0.07299352
000210 a2 2a 40 be 07 38 78 3d 81 12 ab 3e 93 c9 11 be
       -0.18766263 0.060600307 0.33412555 -0.1423705
000220 a7 9f b0 bd b7 ab 04 3d 1c 02 18 be 9a 46 64 be
       -0.08624201 0.032390323 -0.14844555 -0.22292557
000230 f0 fc 5a be 46 ba 63 be 48 79 88 be 22 a7 67 be
       -0.2138555 -0.22239026 -0.2665503 -0.2262235
000240 1f 75 f3 3e e4 85 74 bd 39 03 d6 3d c6 09 0a 3e
       0.47550294 -0.059698 0.104498334 0.13480291
000250 f8 5a 3d be 71 ae 0b bf 78 6c ad be b3 c4 48 be
       -0.18491733 -0.5456305 -0.33871818 -0.19606285
000260 95 8e 21 bc 55 24 93 be d8 be 53 3e a7 10 9a bd
       -0.009860654 -0.28738657 0.2067827 -0.075227074
000270 00 ad d4 3d b0 b7 a5 be 23 99 13 be 21 04 a6 bd
       0.1038456 -0.32366705 -0.14413886 -0.08106256
000280 b0 1d 10 be 6d a7 41 bd a9 19 6b be cc 0e 64 be
       -0.14073825 -0.04727881 -0.22959007 -0.2227127
000290 55 da e7 bc 37 f3 9f bd 8b cf ba bd 83 f8 83 bd
       -0.028302351 -0.078100614 -0.09121617 -0.06443884
0002a0 62 9c 8e bd c1 f1 17 bf 08 3f 3a bf fe c4 bd 3c
       -0.069634214 -0.5935326 -0.7275243 0.023165222
0002b0 4b 8e 06 3d 79 06 85 be 18 63 9b bd c0 66 c9 be
       0.032850545 -0.259815 -0.0758726 -0.39336205
0002c0 39 82 06 be 24 ee 84 bd 77 39 7b be 45 9d e2 bd
       -0.13135614 -0.06490734 -0.2453364 -0.11065153
0002d0 37 42 f8 be 1a 2b 8a 3d aa ca a0 be d5 cb f4 3b
       -0.48488018 0.06746502 -0.3140462 0.0074705877
0002e0 a5 a0 74 be 49 10 48 be 06 de ea 3d c2 b3 dc bd
       -0.23889406 -0.19537462 0.11468129 -0.107764736
0002f0 62 64 91 bd 7b 3c aa be 2c b3 bd be ee 14 54 3e
       -0.070992246 -0.33249268 -0.3705076 0.20711109
000300 26 6a fa be 64 ff f8 be 44 59 32 3f ae 72 ca bd
       -0.4890911 -0.48632348 0.6966746 -0.09885155
000310 86 f4 0f be 29 93 e7 3e 50 fe fa be 85 6f 06 bf
       -0.14058122 0.45229462 -0.4902215 -0.52513915
000320 0b cd 0e 3f 19 16 68 3e 62 a7 64 be c7 14 e7 3e
       0.5578162 0.2266468 -0.22329476 0.4513304
000330 99 93 4d 3e 09 3c 10 be 1b bd ee 3e 06 49 71 be
       0.20075835 -0.14085402 0.4662865 -0.23563012
000340 46 7e 8b bc 6e ab 15 bd ce cd 28 be ab 66 d3 be
       -0.017027985 -0.03654044 -0.16484758 -0.41289267
000350 ad 29 0d 3e ca 4f f7 bc cc cf b9 3d 48 1b da 3d
       0.1378543 -0.030189414 0.09072837 0.10649735
000360 fb 9d e4 3e c0 88 0f be 1a 2c a4 bd 38 c3 6b be
       0.4465178 -0.1401701 -0.08016224 -0.23023689
000370 ba 9b c0 bc ea f2 37 3d 43 3a cc bc cc 71 bf be
       -0.023511756 0.044909395 -0.024930125 -0.37391508
000380 f4 01 c0 3d 54 50 31 bd be d9 3b be 17 90 1b be
       0.093753725 -0.043289497 -0.18344781 -0.15191685
000390 dc 21 97 be 51 c5 21 bf 9d 98 cc 3e d4 85 df be
       -0.2951802 -0.63191706 0.39960185 -0.4365679
0003a0 55 1d 02 bf 37 65 4c 3d 23 b6 be be 97 0b 06 bf
       -0.5082601 0.049901213 -0.37248334 -0.52361435
0003b0 dd be 3f bd 39 9b 8d bd ca 6e c2 be 12 85 91 be
       -0.04681288 -0.06914372 -0.3797515 -0.28421837
0003c0 71 e1 e5 3c c7 0c b3 be 03 ae 0d be 25 92 1a 3d
       0.0280616 -0.34970686 -0.13835911 0.03773703
0003d0 5c f5 8c bd 19 5c 5e be a0 29 10 3e 05 21 2e be
       -0.06882736 -0.2171482 0.14078379 -0.17004783
0003e0 f4 b6 b5 bd 67 33 0d bc e7 c4 91 3d 4a 11 83 3e
       -0.08872786 -0.008618212 0.07117634 0.25599128
0003f0 b8 ca c2 3c e3 f9 5b bd c1 98 c6 be 9b 42 c9 3b
       0.023778304 -0.053705107 -0.38788417 0.006141973

network_body._body_endoder.seq_layers.2.bias f4 [128]
000000 63 8c a7 bd b5 bb 33 be 2f db 2b be 27 e0 14 be
       -0.081810735 -0.17552073 -0.1678283 -0.14538632
000010 66 eb 9f be d4 bb 89 be 4f 64 7e bd fc a2 02 be
       -0.31234282 -0.26901114 -0.06210738 -0.12757486
000020 19 0b 9c be 73 1d a2 be 2f 52 6b be 31 7e 51 be
       -0.30477217 -0.31663093 -0.2298057 -0.20458294
000030 f8 43 7c be 97 fa fe bd 2d e2 12 bd 34 f2 fb bd
       -0.24635303 -0.1245014 -0.03586023 -0.12302056
000040 c9 2e 3e be 69 97 44 be 3f d5 76 be 28 4c a9 be
       -0.18572535 -0.19198383 -0.24104784 -0.33065915
000050 e1 9d c0 bd 87 c9 92 bd b9 76 7d be 77 5c d3 bd
       -0.09405113 -0.071673445 -0.2475232 -0.10320371
000060 a0 ce 11 be 24 ec b5 bd 09 a7 2f be 4a 23 2f be
       -0.14238977 -0.08882931 -0.17153563 -0.17103305
000070 88 73 2b bd dc a9 3a be 62 01 9c be e0 18 40 bd
       -0.041858226 -0.18228859 -0.30469805 -0.046898723
000080 34 89 a9 be 7b 5c af be 09 0d 57 be ee 7b 8d be
       -0.3311249 -0.34250244 -0.21001066 -0.27633613
000090 7c 61 7d be 39 8c 14 be af 15 d4 be e0 e3 a5 bb
       -0.24744219 -0.14506616 -0.41422793 -0.005062565
0000a0 e4 6d 5c be d2 82 18 be e2 02 57 be 4e 31 54 be
       -0.21526295 -0.14893654 -0.20997193 -0.20721933
0000b0 6a d7 c1 bd 85 c5 65 be 4c 29 7a be 9e fc 3d be
       -0.09464915 -0.22438629 -0.24429816 -0.18553397
0000c0 5d cd 00 be 15 0d 65 be 49 c2 2e be 1c 2f 55 be
       -0.1257834 -0.22368272 -0.17066301 -0.20818752
0000d0 29 ec 8f be f7 c2 63 bd e8 15 5d be ff 16 a7 bd
       -0.28109863 -0.055605855 -0.21590388 -0.08158683
0000e0 99 3e 1c be 84 a3 ce be 74 d2 2e be 4a ee 88 be
       -0.15258254 -0.40359128 -0.17072469 -0.267443
0000f0 cc 5f b7 bd c2 39 40 be bc 88 ce bd b8 78 44 be
       -0.08953819 -0.18772033 -0.10084674 -0.19186676
000100 98 6a b8 bd a6 9e 20 be 0f 17 86 be 12 e9 7a be
       -0.09004706 -0.1568552 -0.26189467 -0.24502972
000110 07 bd e8 bd b0 b0 24 be a9 a3 6f be 8f c7 4c be
       -0.11364179 -0.16083026 -0.23402275 -0.19998
000120 73 7f 9c be f1 15 d1 bd 61 db 09 be 11 3b a7 bd
       -0.30565986 -0.10209263 -0.13462593 -0.08165563
000130 b2 5a 07 be 35 09 b5 bd c2 64 1e be 94 16 2c be
       -0.13218191 -0.08839647 -0.15468124 -0.16805488
000140 e6 51 41 be 60 21 1e be 7a bb 45 be 8c f7 37 be
       -0.18878898 -0.15442419 -0.19309798 -0.17965525
000150 f3 c3 7b be 11 c2 b3 bd 8c f6 94 bd 83 fa 7f be
       -0.24586467 -0.087772496 -0.072735876 -0.24997906
000160 58 60 05 be 8d b3 28 be 11 3f 8b bd 42 2b e0 3d
       -0.13025033 -0.16474743 -0.06799138 0.10945751
000170 9d 78 a0 bd 8d de 88 be 78 6f 59 be 2e 87 9d be
       -0.07835505 -0.26732293 -0.21233928 -0.30767196
000180 2e a8 4f be 4c db 50 be ff 3f 30 be 18 f0 45 be
       -0.20278999 -0.20396155 -0.17211913 -0.1932987
000190 bb 46 39 be 36 81 61 be 76 a7 f2 bd 2c 22 b0 bd
       -0.18093388 -0.22021946 -0.11848347 -0.08600268
0001a0 a3 49 89 be 74 66 4f be 35 a7 d1 be 9c 82 09 be
       -0.26813993 -0.20253927 -0.4094788 -0.1342873
0001b0 e2 ff 3c bd c2 92 89 bd 82 a7 11 be 7e df 87 be
       -0.046142466 -0.06717445 -0.14224055 -0.26537699
0001c0 a5 3d 7e be d0 82 5a be 07 cf 96 bd d2 49 42 bd
       -0.24828203 -0.21338964 -0.07363706 -0.04743368
0001d0 ea 52 40 be 40 8a 65 be 6b b8 31 be 1f 16 9e be
       -0.18781629 -0.2241602 -0.17355506 -0.30876252
0001e0 8b 09 d6 bc 83 35 89 bd ff e6 2a be 59 94 32 be
       -0.026127597 -0.0669966 -0.1668968 -0.17439403
0001f0 1e c8 00 be e0 cb 6a be ba 63 33 be ea ac 84 be
       -0.12576339 -0.22929335 -0.17518511 -0.25913173

network_body._body_endoder.seq_layers.2.weight f4 [128, 128]
000000 f8 90 3d be eb 13 d9 3d f0 d1 09 bd 96 6f 95 3e
       -0.18512332 0.10599502 -0.033647478 0.29186696
000010 09 49 52 bd dd af f7 bd fd ce af 3d 0f 05 16 be
       -0.051339183 -0.1209409 0.08584402 -0.14650367
000020 ea af 45 bd dd 06 af be b7 b2 d2 3d de e9 50 be
       -0.048263468 -0.34184924 0.102879934 -0.20401713
000030 fe 8d 0b bf 82 ea 85 3d 92 a6 96 be fa b7 c2 bd
       -0.5451354 0.065388694 -0.29423958 -0.09507747
000040 ce d6 c3 bd 2e 5f e7 3d d4 b6 71 be 6c 79 48 3c
       -0.09562455 0.11297451 -0.236049 0.0122359805
000050 f2 ea e7 bd ee 42 e4 bd 75 17 ec 3d fd 5f 88 bd
       -0.11324109 -0.11145578 0.115279116 -0.06658933
000060 10 1b 34 bf 67 3e 33 be 3c 89 95 3e 89 af 0e be
       -0.70353794 -0.17504273 0.29206264 -0.13934149
000070 0b c7 2f bd fa be 7e be d8 9d e2 3d 79 01 3e 3e
       -0.04291443 -0.2487754 0.110652626 0.1855525
000080 67 e9 96 3e d4 39 21 be cd 44 bb bd 57 59 80 bd
       0.29474947 -0.15744716 -0.09143982 -0.0626704
000090 8b a2 d6 bd 5f f6 db be 20 37 9f bd dc d5 f4 bb
       -0.10480221 -0.42961404 -0.07774186 -0.007471783
0000a0 f4 a5 ee 3d 60 7d 36 3d 97 89 d9 be d6 c6 e3 bc
       0.11652747 0.04455316 -0.42487785 -0.027804773
0000b0 60 ed e3 bc f1 25 eb bd 61 9b 8a 3e 64 34 fe 3d
       -0.02782315 -0.11481846 0.2707167 0.124123365
0000c0 7a ed 02 be e8 42 db be da ef 20 bd 4d 07 07 bd
       -0.12785903 -0.42824483 -0.03929124 -0.032965947
0000d0 eb f5 6e be fb 15 27 3d 33 1d 9f 3d f7 cb 1a be
       -0.23335998 0.040792447 0.07769241 -0.15116869
0000e0 29 0f 09 be 5b 19 3e be 01 55 1c be 0d 6b ff bd
       -0.1338469 -0.1856436 -0.15266801 -0.1247159
0000f0 13 a4 6e 3d f6 dc a8 3d 7b 77 8a bd 50 5d 2d bd
       0.058261942 0.0824527 -0.0676107 -0.042325318
000100 6b 9d 58 be 8b 9d 4e 3c f3 bb d1 3d 26 2c be 3d
       -0.211538 0.012610803 0.102409266 0.092857644
000110 05 58 ff 3d b5 d3 32 be 63 dc e5 3d 84 78 96 be
       0.1246796 -0.17463572 0.11223676 -0.2938882
000120 2e bc 26 3e bf 46 6e 3d d8 06 d3 bd c7 77 ca be
       0.16282722 0.058172937 -0.1030404 -0.39544508
000130 9b 96 8b bd 43 76 97 be aa 80 b5 3e 51 51 b2 be
       -0.06815835 -0.29582414 0.35449725 -0.34827664
000140 58 39 bc be 6e ea ff 3d f9 5a 72 3e f4 d0 0e 3d
       -0.367625 0.12495886 0.23667516 0.034867242
000150 de db 02 be d5 42 f0 bc 3e e0 0f 3e af 5e 94 3e
       -0.12779185 -0.029328743 0.14050385 0.28978488
000160 92 90 08 3e 78 46 7b 3d ca 60 44 be 43 e2 f3 be
       0.13336399 0.0613465 -0.19177547 -0.47633561
000170 ef b8 ae be 2a 32 6c bd 6c e3 d6 bd 09 5e 5c 3d
       -0.34125468 -0.057665028 -0.10492596 0.053800616
000180 3e 91 a3 3d da 43 1f 3d ce a5 65 3e f4 1b 05 3b
       0.07986687 0.038883068 0.2242653 0.002031085
000190 ed 42 09 be 4c c5 eb bd 36 4c 7c be 21 a9 b6 3d
       -0.13404436 -0.11512241 -0.24638447 0.089189775
0001a0 ef 98 34 be 73 0b ca be f9 4a 15 be 61 23 bd bd
       -0.17636465 -0.3946186 -0.14579381 -0.092352636
0001b0 f3 b0 ff 3c 65 c9 32 be 4a 3f 29 bf 28 95 26 be
       0.031212306 -0.17459638 -0.66112196 -0.16267836
0001c0 09 25 3c 3c d6 fa 59 3d 24 83 56 3e d1 dd 4d 3e
       0.011483439 0.05321773 0.20948464 0.20104147
0001d0 78 5e 6e be c2 c1 f9 bd 48 50 29 be 18 33 35 bd
       -0.23278224 -0.121951595 -0.16534531 -0.04423818
0001e0 c8 4e 61 3d e0 ed e4 bc 14 f1 91 3d 11 d2 66 be
       0.055006772 -0.027945459 0.0712606 -0.22541071
0001f0 3a ec a0 be 6e 5e 87 3e d4 1e f6 3d 55 b2 a6 bd
       -0.31430227 0.26439232 0.12017599 -0.08139483
000200 eb 54 f6 bc c7 0a 1b 3e df 31 65 bd 60 bd 94 be
       -0.030069789 0.1514083 -0.055955764 -0.29050732
000210 10 89 0d 3e b6 72 cd bd ed 70 9c 3d 02 6d 58 3e
       0.13821816 -0.10031645 0.076387264 0.21135333
000220 6f 00 eb 3b ab a2 75 3e 53 cc b0 bc 0b 9f 3c be
       0.0071716825 0.23987834 -0.021581804 -0.18420045
000230 3a a7 84 bd e2 10 80 bc 18 ac 1f 3b 46 7a be 3e
       -0.064772084 -0.01563305 0.002436405 0.37202662
000240 08 f5 ed be 81 13 99 3b b1 a3 87 3e 06 ac 15 3d
       -0.46476007 0.0046715145 0.26492074 0.036541007
000250 bb 41 ab 3d 95 c5 f3 bd 91 b6 c6 bd dd 04 3c be
       0.083621465 -0.1190292 -0.097027905 -0.1836123
000260 5a 65 29 be 2c d8 86 be 79 06 4a 3d 06 4a ac 3d
       -0.16542569 -0.263368 0.04932258 0.08412556
000270 a3 14 21 3e 2e 68 75 be 93 74 04 be b4 3a 94 bd
       0.15730529 -0.23965523 -0.12935095 -0.07237759
000280 91 ca 6d be 8e 26 e7 be f8 1b 0b 3e 1e 6f a5 3d
       -0.23221804 -0.45146602 0.13584888 0.080778345
000290 f2 11 8a be ef a7 94 bd 94 ce e2 3d 99 b6 de bc
       -0.26966816 -0.07258593 0.11074558 -0.027186679
0002a0 02 ac 49 bd 55 ca 88 3e 9e e5 22 3e 53 55 3d 3d
       -0.049236305 0.26716867 0.15907905 0.04622395
0002b0 d9 e7 f8 be de 79 cd be 55 ca 69 3e 03 aa 4c 3d
       -0.48614386 -0.4013204 0.2283109 0.049966823
0002c0 70 04 73 3d b9 86 55 bd b5 57 0b 3e db 2b 65 bd
       0.059330404 -0.052130435 0.13607676 -0.055950027
0002d0 a8 04 5a be 10 82 0a 3d ea d3 30 3e 13 d7 b5 bd
       -0.21290839 0.033815444 0.17268339 -0.08878913
0002e0 fa 4d b2 3e 91 ce 15 bd d9 82 9c bc 4f b8 dd bd
       0.34825116 -0.03657395 -0.019105362 -0.1082617
0002f0 f8 2f e6 3d d3 df e1 bd 6c 12 87 be 11 e1 40 3d
       0.11239618 -0.11029019 -0.26381242 0.04708964
000300 32 1c f0 bd a8 25 82 bd 3d c3 22 be ba a5 a7 be
       -0.11724128 -0.063548386 -0.1589479 -0.32743627
000310 cc 6f fa bc b9 06 06 be 21 f3 9f bd 1d 46 e8 be
       -0.030570887 -0.13088502 -0.07810045 -0.45365992
000320 05 4a af bd 77 11 42 be dd bb cb bd 2f 4f 6b 3e
       -0.0855904 -0.18951975 -0.099479415 0.22979425
000330 70 32 9d 3c 40 df 27 be 8d 8e e5 3c 9d 94 2a bd
       0.01918909 -0.16393757 0.028022075 -0.041645635
000340 ed 71 d6 3a f7 8e 84 3c 50 25 6f bd 34 64 39 3e
       0.0016360857 0.016181452 -0.058385193 0.1810463
000350 a9 15 1b be 20 15 14 be 6a 83 b6 be 1a bc af be
       -0.15144981 -0.14461184 -0.35647136 -0.34323198
000360 03 e0 6c bd 49 6c 2a bb 70 c4 58 3d 2e 54 e9 3e
       -0.05783082 -0.0026004484 0.052921712 0.45572037
000370 b2 7b e7 3d 64 98 ff 3d a7 24 f3 bc 9f cb 93 be
       0.1130289 0.12480238 -0.029680563 -0.28866288
000380 13 15 06 3e f2 98 73 3b 1d 2e 85 bd d9 68 2a 3e
       0.13093977 0.003717002 -0.06502936 0.16641559
000390 b5 fd fd bc 42 86 5f be 4d ed 05 be 23 78 89 3d
       -0.031004766 -0.21828559 -0.13078804 0.067123674
0003a0 b3 7c ff 3d 9c 45 03 3d 7a 0d 2d bd d2 34 94 bd
       0.12474956 0.032048807 -0.04224918 -0.07236637
0003b0 11 fa a1 3c cc 98 c9 bb 19 42 94 be 54 a0 7a bd
       0.019772561 -0.006152248 -0.28956679 -0.061188057
0003c0 31 c5 17 be eb 93 59 3b 48 42 a2 be 4e 39 d2 bd
       -0.14821316 0.0033199738 -0.31691194 -0.10264836
0003d0 26 fd 5a be 5e 9e 3c be 64 af 7a 3e 7e d8 1c 3e
       -0.21385631 -0.18419787 0.24480969 0.1531696
0003e0 40 bf 7d be 25 60 bb 3d 9a be 8d 3d af 94 49 3e
       -0.24779987 0.091491975 0.0692112 0.19685625
0003f0 ca 7f d1 be 75 47 5e bd ba 9a cf bb fa 0d 7b bb
       -0.40917808 -0.054267365 -0.0063355835 -0.0038307891

network_body._body_endoder.seq_layers.4.bias f4 [128]
000000 a4 1a 87 bd 19 7d 14 bd b3 bb fc bc fa 53 5f bd
       -0.06596878 -0.036252115 -0.03085122 -0.054523446
000010 15 03 e6 bd 14 80 54 bc 62 91 4d bd 93 65 c7 bc
       -0.112310566 -0.012969989 -0.050187476 -0.024340427
000020 16 23 72 bd fc 50 d1 bc e3 70 c2 bd 1c 9a 93 be
       -0.05911549 -0.025551312 -0.09494188 -0.28828514
000030 aa d6 ad bc 2a 62 29 bd 5f a8 46 bd 61 b8 ed bc
       -0.021220524 -0.041353382 -0.048500415 -0.029018583
000040 70 d6 f3 ba 1d 73 e4 3a 35 b9 9d bd 68 9e 87 bd
       -0.0018603336 0.0017429326 -0.07701341 -0.066220105
000050 8b 7a 76 bd 64 7f 54 bd 8d 77 0e bd a4 e8 4b bd
       -0.06017546 -0.0518793 -0.03478198 -0.04978241
000060 cb 55 4e bd 8b 6c 7d bd 59 57 19 3d 7f 53 42 be
       -0.050374787 -0.061871093 0.037436817 -0.18977164
000070 ba 65 5e be 9e 1c a5 bd 91 a2 5f be 14 9f 2e be
       -0.21718493 -0.08062099 -0.21839358 -0.17052871
000080 a1 b3 25 bc 53 e8 c3 bc 17 c3 91 bc 77 a4 4c be
       -0.010113628 -0.023914492 -0.017793221 -0.19984613
000090 2d 1d 3b bd 81 4b 19 bd 9e 8e 13 bd c3 bc 45 bd
       -0.04568212 -0.03742552 -0.036024682 -0.04827572
0000a0 6b a0 93 bd 9f c0 c3 be 62 c5 ff bc 74 2c c9 be
       -0.07208332 -0.38232896 -0.03122205 -0.39291728
0000b0 1c 87 a4 bd d0 4e 7d be 24 66 51 3d b2 e0 74 be
       -0.080335826 -0.24737096 0.0511228 -0.2391384
0000c0 aa e8 bd bd 5a be 94 bd 09 c8 51 be cf 28 70 bd
       -0.09272893 -0.07262869 -0.20486464 -0.058632668
0000d0 c1 48 14 bd 83 5e 9f bd 56 b7 8a bc e0 1e 39 bd
       -0.036202196 -0.077816986 -0.016933125 -0.04519546
0000e0 9d 12 a9 bd 91 50 9f bd 62 c7 8a bd ca de 90 bd
       -0.08255503 -0.07779039 -0.067763105 -0.07073744
0000f0 72 cc 74 bd 26 18 1b bd 7a 5d d8 bd 46 86 bd 3a
       -0.059765287 -0.037864827 -0.10564704 0.0014459572
000100 27 db 89 bd c9 58 1c bd d7 9f d1 bc ec 5e 32 be
       -0.06731253 -0.03817061 -0.025588913 -0.17419022
000110 56 f3 ca bd 24 19 7e bd d5 de 33 bd ee b7 a4 be
       -0.09909694 -0.062035695 -0.04391368 -0.32171577
000120 47 40 07 be 25 ff b5 be cd f7 81 bd b6 d9 12 be
       -0.13208114 -0.35546222 -0.063460924 -0.14340863
000130 8e 33 08 be ef c4 e3 be 55 72 cf bd 02 cf 4a bd
       -0.13300917 -0.44486186 -0.10129229 -0.049513824
000140 7b a3 0d bd 00 0e 9d bd 2f 04 c0 bd 8a 2f 78 bd
       -0.034579735 -0.07668686 -0.09375798 -0.06059221
000150 51 a9 62 bd e3 bf 15 bf f7 22 dd bd 7c 23 aa bd
       -0.055337254 -0.5849592 -0.10797685 -0.08307549
000160 e6 70 7a bd 73 8f cc bc b7 b0 17 be 42 c4 2e bd
       -0.061142825 -0.024970746 -0.14813505 -0.042667635
000170 57 fa 4b bd 0b a2 d8 bd 18 5c d5 ba b4 e2 b1 bc
       -0.04979929 -0.10577782 -0.0016278056 -0.021714546
000180 4f 51 5f bd 3d 57 2b bd b4 73 12 bd fd e7 81 bd
       -0.0545209 -0.041831244 -0.035754874 -0.063430764
000190 44 6f 93 be c0 90 ff bc cd ab eb 3b c7 5d a5 be
       -0.28795826 -0.031196952 0.007192111 -0.3229811
0001a0 39 a1 6e bd 58 1c 9f be 0a 2a cc bc 9a b9 f9 bd
       -0.058259223 -0.31076312 -0.02492239 -0.12193604
0001b0 f6 ec 95 bd b3 23 b8 3d 2b 86 4c bd 87 92 4e bd
       -0.07320587 0.08991184 -0.04993264 -0.050432708
0001c0 bc 53 ab be 25 a3 18 bd f1 01 ef bc dd 03 7a bd
       -0.33462322 -0.03726496 -0.02917573 -0.06103884
0001d0 41 85 7c bd 68 e6 9f bd db e8 36 be 65 c5 c8 bd
       -0.06165052 -0.078076184 -0.17862265 -0.09803275
0001e0 26 a3 5f bd 83 8a be bd 33 33 d4 bd fe 20 df bc
       -0.05459895 -0.09303763 -0.10361328 -0.027237412
0001f0 16 76 8b bd 29 ca 19 bd 88 60 74 bd cc 71 d7 bd
       -0.068096325 -0.03754631 -0.059662372 -0.10519752

network_body._body_endoder.seq_layers.4.weight f4 [128, 128]
000000 d2 90 0c 3d 7d 34 88 3b 86 2f 1d bb 89 f5 e2 bd
       0.0343178 0.0041566477 -0.0023984625 -0.11081988
000010 e7 2b a9 bc 8a e8 2e bc 3e 78 92 3a 04 b1 17 bd
       -0.020650817 -0.010675559 0.0011174751 -0.03703405
000020 02 9f 51 bc ac 48 5c 3c 56 b6 b6 bc 61 89 b4 3d
       -0.012794258 0.013445061 -0.022303741 0.088152654
000030 ff 6f 37 bd 86 9a 97 bc cd 8f dd bc 0a 53 5e 3d
       -0.044784542 -0.0185063 -0.027046109 0.05427841
000040 ce 56 d4 3c 49 8a 48 bc 85 9c 50 bd 45 34 91 3c
       0.025920298 -0.012240001 -0.05093052 0.01772512
000050 84 11 10 3c a2 eb 4f 3c 44 06 20 3d 9e a3 fe 3c
       0.008793239 0.012690457 0.039068475 0.031083878
000060 65 14 e6 bc f5 e6 fd bc ec 4e 9b 3c 96 ea 84 3d
       -0.028085897 -0.030993918 0.018958531 0.06490056
000070 3b 25 a9 bb 11 68 8d 3c 4c 34 07 3e 32 ec af bc
       -0.005161909 0.017261537 0.13203543 -0.021474931
000080 4c 51 b2 bb c6 74 2c 3d 94 4f 82 bc 67 e1 39 3d
       -0.0054418202 0.04210355 -0.015907086 0.045380976
000090 a9 32 17 3e aa 86 77 3c 70 a0 09 3d 98 13 e3 3c
       0.14765419 0.01510779 0.03360027 0.027719304
0000a0 82 40 a3 bd 16 36 97 3a f0 5c 8e 3d 9d 02 51 bd
       -0.07971288 0.0011536505 0.0695132 -0.051027883
0000b0 dd e5 bc bd f7 7d 59 3d 90 09 ed bc b0 d3 44 bd
       -0.092235304 0.053098645 -0.028935224 -0.048053443
0000c0 3b 7d 41 bd fb 27 9c bc 8f 42 07 bc c9 a2 8d bd
       -0.04723857 -0.019062033 -0.008255615 -0.069158144
0000d0 02 13 90 bd a2 f3 b3 bc ac ba 05 3d 5f 1e 39 3c
       -0.070348755 -0.02196676 0.032648727 0.011298745
0000e0 84 58 46 bb c0 fd d7 ba e0 2b 51 3d 8b 49 a4 3c
       -0.0030265162 -0.0016478822 0.051067233 0.0200546
0000f0 26 e0 3a 3d 11 87 ef 3c 0d 4f 1f 3d d7 13 40 3d
       0.04562392 0.02923921 0.038893748 0.04689392
000100 c9 db 26 bc e0 0e d2 bd 18 8a f4 3b 52 c7 9e bc
       -0.010184237 -0.102567434 0.007462751 -0.019382153
000110 27 64 f5 bc d7 a6 1f 3a 45 ae ae bd 95 56 6e bd
       -0.029954983 0.000609023 -0.08529333 -0.05818804
000120 27 5a f4 3b f3 91 0f bd 5b 95 14 ba fe e0 88 39
       0.007457036 -0.035051297 -0.00056680077 0.00026107574
000130 68 a9 5e 3d 31 98 82 3c 2f 51 bc 3d 9d 9f 93 bd
       0.054360777 0.015941711 0.09195172 -0.07208178
000140 c3 fe 7f 3c 8e 4c 1f 3d 43 a5 8c bc 67 aa 95 bd
       0.015624705 0.038891368 -0.017168647 -0.07307892
000150 7e 88 6f bc ac 83 cc bd 26 33 72 bd b0 90 76 bc
       -0.014619945 -0.09986052 -0.05913081 -0.015049145
000160 e5 af bc 3d b1 f2 84 bb 6e 96 97 3c 92 07 3b 3c
       0.09213237 -0.0040572514 0.018504348 0.011415379
000170 02 66 30 3a 74 dc e8 bd 36 a2 44 bd 30 4c 72 bd
       0.00067290675 -0.11370173 -0.04800626 -0.05915469
000180 3c 9e 09 bb 73 a4 31 bd 93 44 e6 bc 6c 2e 87 3d
       -0.0020998856 -0.04336972 -0.02810887 0.06600651
000190 a1 0d c8 bb 93 3b 6d 3d 73 f0 53 3d 9d 76 f3 3c
       -0.0061051403 0.057918143 0.051742982 0.029719645
0001a0 ba 48 0c 3c b4 43 33 3d 38 d4 60 3d f9 a6 44 3c
       0.008562261 0.04376574 0.054889888 0.0120027
0001b0 4d c0 cb bc 05 eb 2f bd 98 a8 10 3d 0c ab cc 3c
       -0.02487197 -0.04294874 0.035317034 0.024983905
0001c0 9e f8 4e bd 74 d1 9a 3a e6 fe 7b bc b5 70 4a bd
       -0.05053007 0.001181169 -0.015380597 -0.049423892
0001d0 be 23 e7 bc 66 71 89 bb cc 8f 9d bc 76 7e 06 bd
       -0.028215285 -0.0041944264 -0.019233607 -0.032835446
0001e0 88 d9 1d be 75 be 64 3d 03 70 80 3d 99 df b5 3c
       -0.15415013 0.055845696 0.062713645 0.022201346
0001f0 92 d5 ad 3c 5c 80 7e bc 6c 59 08 3d 5c 84 7d bd
       0.021220002 -0.015533533 0.033288404 -0.061893806
000200 59 74 82 3d 53 44 da bc 02 3c aa 3d f2 4d 15 bd
       0.06369848 -0.026643908 0.08312227 -0.036451288
000210 37 e4 db bc 23 bb 43 bc 1c 4b 35 3b f2 3a 37 3d
       -0.02684222 -0.011946472 0.0027663177 0.04473395
000220 0c 66 08 3d 00 2c 8f 3d 64 6e 5d 3d 2e 23 c1 bd
       0.033300444 0.06990814 0.054060355 -0.09430538
000230 43 ea 97 bd a9 c5 08 3c 19 35 cd bd a4 86 a6 3c
       -0.07417729 0.008347907 -0.10019893 0.020327874
000240 97 29 4e 3a c3 5c 1a bc e7 5d ba bc d3 c5 00 3e
       0.0007864474 -0.00942153 -0.022749854 0.12575464
000250 60 74 92 3d e1 7e 21 3d 4b 60 2b 3d 5a 94 4f 3d
       0.07151103 0.03942764 0.04183988 0.05067859
000260 eb 7c a4 bd 96 9a ff bd 34 3c c8 3b 75 ff 19 ba
       -0.08031639 -0.12480657 0.0061106924 -0.0005874553
000270 9f 2d d0 3c 95 d7 4c 3c 3b 17 37 3d 44 c5 75 bc
       0.025412379 0.012502571 0.04469989 -0.015000645
000280 d9 a7 8c 3c 90 5b 02 3d 01 11 e0 3c 2a 01 80 bd
       0.01716988 0.031825602 0.027351858 -0.06250222
000290 d3 e6 f2 bc 80 71 3a bc 55 f3 d3 3c 4b df b0 bb
       -0.029651081 -0.0113796 0.025872866 -0.0053977123
0002a0 78 e6 86 3d 88 34 9a bd f5 e8 1d 3c 00 fc 7b bd
       0.06586927 -0.07529551 0.009638061 -0.061519623
0002b0 84 5c 11 3c 83 4b 82 3d 0a 69 a2 3d 7f de eb 3c
       0.008872155 0.06362059 0.07930191 0.028792618
0002c0 d4 26 54 3c f5 35 00 3d 83 ce c4 bc d9 be 67 bb
       0.0129487105 0.031301457 -0.024024254 -0.0035361557
0002d0 a4 67 0b 3d 9a 79 25 bd 26 fc 84 bb 64 94 6f bd
       0.034034386 -0.04039917 -0.0040583787 -0.058491126
0002e0 4b 50 fc bb 24 82 0e bd e2 43 30 bc 95 52 2a 3d
       -0.0077000014 -0.03479208 -0.010758372 0.041582663
0002f0 48 fb 9b 3d 36 25 87 bc ea b0 6c 3d 46 80 32 bd
       0.076162875 -0.016497236 0.057785906 -0.043579362
000300 55 64 4b 3b 73 9d f6 bb f2 b4 d4 bc f0 67 29 3c
       0.0031035144 -0.0075260936 -0.025965188 0.010339722
000310 8c 09 d5 3c 95 0b 0e bd 66 77 12 be 5b 1b 01 bd
       0.026005529 -0.034679014 -0.1430336 -0.03152023
000320 24 18 e9 3d 47 25 49 bd 0e f3 3f bd b0 61 f8 3b
       0.113815576 -0.049107816 -0.046862654 0.0075800046
000330 58 93 30 38 a8 3c 86 3c 1d 3e 92 bd 02 d2 ad bd
       4.2098894e-05 0.016386345 -0.071407534 -0.084873214
000340 d1 99 b9 bd 8f 9e c1 3c 9a ef 84 3b 9e c7 ba 3d
       -0.09062541 0.023635177 0.004056883 0.09120105
000350 5c 63 6e bc 32 7e 8a bd 5e 77 83 bc 30 54 e8 3d
       -0.014550056 -0.06762351 -0.01604813 0.113441825
000360 8a de b1 3d 3a e5 0d 3d 81 73 d1 bc 33 42 11 3c
       0.08685024 0.034642436 -0.025567772 0.008865881
000370 bd 82 39 bd a9 f7 a9 bd b5 09 9a bc 35 01 3e bd
       -0.045290697 -0.082991906 -0.018803457 -0.04638787
000380 56 96 af 3c e4 d8 87 bd d3 87 5f 3c 6f 18 1d bd
       0.02143399 -0.066331655 0.013643223 -0.03835338
000390 e2 ec 3b bc d1 68 74 bd d9 28 02 3e 1f 18 79 3d
       -0.0114700515 -0.059670273 0.12710895 0.06081402
0003a0 23 9a ee bc 48 c0 69 bc 31 8e 85 3c 5d 15 a0 bd
       -0.029126232 -0.014267035 0.016303154 -0.07816575
0003b0 ce c9 82 bd 0f b0 81 bd 61 7b 89 bd a4 a6 29 3c
       -0.063861474 -0.06332409 -0.06712986 0.010354672
0003c0 67 1a 28 3d 21 69 cb bc 27 8e fa bc 36 b7 28 3c
       0.041040804 -0.024830403 -0.030585362 0.010297587
0003d0 cd b3 3b bd c6 db 0c 3a 26 4d 11 3b 6a 11 83 bd
       -0.04582577 0.0005373325 0.0022171228 -0.06399806
0003e0 59 ed 4d 3b 40 4d bb 3c b1 a7 87 3d 77 25 43 3d
       0.0031421988 0.022863984 0.066237815 0.04764315
0003f0 5b da 88 3d f9 ee ce 3b 15 3d 56 3c c6 9b 7f 3d
       0.06682273 0.006315109 0.0130760865 0.062404417
