Maize-Runner/results/EscapeRewards2/EscapeMaze/EscapeMaze-22999980.onnx (onnx, 200372 bytes, 9 tensors)

action_model._continuous_distribution.log_sigma f4 [1, 2]
0	0xbf9420ce	-1.1572511
1	0xbf98b19f	-1.1929206

action_model._continuous_distribution.mu.bias f4 [2]
0	0x3dfc39b0	0.123156905
1	0x3b06486f	0.002048995

action_model._continuous_distribution.mu.weight f4 [2, 128]
0	0x3b89bf05	0.0042036795
1	0xbba3b417	-0.0049958336
2	0xb8cdd1eb	-9.814262e-05
3	0x3ac2cb08	0.0014861533
4	0xbb8f9f49	-0.004383002
5	0x3b05096a	0.00202998
6	0xbac15059	-0.0014748677
7	0x3bc03416	0.005865584
8	0xbc9085b6	-0.017641883
9	0xba1478b5	-0.00056637387
10	0xbb94d03d	-0.0045414255
11	0xba93c0bc	-0.0011272649
12	0xbaf71a6d	-0.001885248
13	0x3b5221e0	0.0032063648
14	0xbb0e2883	-0.0021691627
15	0xbae0c1f6	-0.0017147649
16	0xba0e7844	-0.0005434791
17	0xbb36f586	-0.002791734
18	0x3ae15386	0.001719103
19	0xba0c9e4f	-0.0005364166
20	0xba932cf7	-0.001122861
21	0xba383460	-0.00070268475
22	0x3ae9a2b0	0.0017824974
23	0x3a256efe	0.00063107896
24	0xbc5ffb10	-0.013670698
25	0xbaf71a08	-0.0018852362
26	0x39c8f6b2	0.00038330775
27	0xbd559c3e	-0.052150957
28	0x3d0fe928	0.035134465
29	0x3b8d0452	0.0043034935
30	0xbc1e1fac	-0.009651106
31	0x371aee96	9.234665e-06
32	0x3b5981a1	0.0033188837
33	0x3d8757fe	0.0660858
34	0x3d89683c	0.06709334
35	0xbda2ad52	-0.079432145
36	0x3b257eca	0.0025252574
37	0xb96f01de	-0.00022793512
38	0xb9be910b	-0.0003634769
39	0x3b0caa94	0.0021463977
40	0xb83589d2	-4.3282118e-05
41	0xbdd06032	-0.10174598
42	0x3bbfa1d6	0.00584815
43	0xbc4af5e8	-0.01238773
44	0x3b673012	0.0035276455
45	0xbb96f67e	-0.004607021
46	0x3cfa9014	0.03058628
47	0x3d1dd39c	0.038531885
48	0x3aae9664	0.0013319966
49	0xba78b1b5	-0.00094869296
50	0xbd4c3de6	-0.04986372
51	0xbb24f928	-0.0025172923
52	0x3b295223	0.002583631
53	0xbb68849a	-0.0035479427
54	0x3b57406c	0.0032844795
55	0x3a53c13b	0.0008077805
56	0x3ca7caf3	0.020482516
57	0x3bbd1b84	0.0057711024
58	0x3ac474ae	0.0014988387
59	0x3b4d4d06	0.0031326427
60	0xb9eb87d0	-0.0004492388
61	0x3aa1a465	0.0012332319
62	0xb994ff0a	-0.0002841878
63	0xbc315875	-0.010824312
64	0xba99c26c	-0.0011730916
65	0x3bb6f246	0.0055830805
66	0xb99bbcd1	-0.00029704583
67	0xbc9a2b32	-0.018819425
68	0x3dd82a83	0.105549835
69	0x3b5ab7ca	0.0033373707
70	0xb897464e	-7.213336e-05
71	0xbd0feeba	-0.035139777
72	0x3d6124f3	0.05496688
73	0xbd911c87	-0.07085519
74	0xbb36705c	-0.0027837968
75	0xbb3433d6	-0.0027496717
76	0x3b2d6087	0.002645524
77	0xbba8cb05	-0.005151155
78	0x3d556adb	0.05210386
79	0xbbacb8b8	-0.0052710436
80	0xb7d96e5e	-2.591981e-05
81	0x3b6dce82	0.0036286418
82	0xbbbacdf8	-0.005700823
83	0x3b7ae562	0.0038283695
84	0x3c3b7f89	0.011443981
85	0x3c09c2da	0.008408273
86	0x3c190f3f	0.009342014
87	0xbad86920	-0.0016510822
88	0xbb7d054f	-0.00386079
89	0x3a5815ae	0.00082429766
90	0x3da07685	0.07835106
91	0x3baad2fb	0.005213139
92	0xba5554b7	-0.00081379287
93	0xbb14c077	-0.0022697726
94	0xb92c2dfd	-0.0001642033
95	0x3b5b5d2b	0.003347228
96	0x39004a4d	0.0001223471
97	0xbbf2ce20	-0.007409826
98	0xbc013b0c	-0.007887613
99	0xbb5a8399	-0.0033342598
100	0xbd25896a	-0.04041425
101	0x3d312a7c	0.043253407
102	0xba9a75f3	-0.0011784419
103	0xbd27deaa	-0.040983833
104	0x3b7be10c	0.00384337
105	0xbd23494f	-0.039864834
106	0xbc2df46a	-0.010617355
107	0x3dc2b209	0.09506614
108	0xbab659fb	-0.0013912314
109	0x3de894cf	0.11356508
110	0x3b371ee7	0.0027942003
111	0x3be35857	0.006938021
112	0xbd1dcae0	-0.038523555
113	0x3bb2e691	0.0054596146
114	0x3ae8aa66	0.0017750978
115	0xbb4217ee	-0.0029616314
116	0xbb8ad0b1	-0.0042363037
117	0x3a839c8d	0.0010041163
118	0xbcbf2426	-0.023332667
119	0xba28a60d	-0.0006433435
120	0xbb0b0c6f	-0.0021217128
121	0xbb50a529	-0.0031836724
122	0x3ab821b0	0.0014048126
123	0xba1806fd	-0.0005799381
124	0x3b784285	0.0037881446
125	0x39a76b9d	0.000319329
126	0xbb3f64cc	-0.0029204367
127	0x39daab33	0.00041707754
128	0x3b150edd	0.0022744455
129	0x3c4bb310	0.012432829
130	0x3b2ef70f	0.0026697551
131	0x3a004b69	0.00048940495
132	0x3ca7a66e	0.020465102
133	0xbb5b7b6a	-0.0033490309
134	0xbabbcffb	-0.0014328951
135	0x3b218344	0.002464489
136	0x3dcd51ff	0.10025405
137	0x3c2490da	0.010044301
138	0x3bdfc81b	0.0068292744
139	0xbd102abc	-0.035197005
140	0xb9d7cb8a	-0.00041159644
141	0xbaf82b5e	-0.0018933823
142	0x3acb48dd	0.0015509386
143	0x3bb3a7c8	0.0054826476
144	0x3afebed8	0.0019435538
145	0x3976f01b	0.00023549834
146	0x36ba3ba7	5.5501764e-06
147	0x3b0d82ae	0.0021592784
148	0xba84c5f2	-0.0010129793
149	0xbac230bd	-0.001481555
150	0xbaacf497	-0.0013195452
151	0xbb01264b	-0.0019706662
152	0x3c9300ba	0.017944682
153	0xbb89f611	-0.0042102416
154	0xb9922f57	-0.0002788256
155	0x3d3622bc	0.04446672
156	0x3d1ce4d4	0.038304165
157	0xbb9afe81	-0.0047300463
158	0xbd867224	-0.06564739
159	0xbc1a8783	-0.009431723
160	0xbb38e743	-0.0028214015
161	0xbde1309e	-0.10995601
162	0xbd68fec7	-0.0568836
163	0xbceda850	-0.029010922
164	0xba9b1638	-0.0011832183
165	0x3a634261	0.0008669254
166	0xbb5c7eff	-0.0033645032
167	0xbab75deb	-0.0013989782
168	0xbaa2312c	-0.0012374274
169	0xbd74cdb2	-0.05976648
170	0xbb03a1ed	-0.002008553
171	0xbd6de181	-0.058076385
172	0x3ba84f6f	0.0051364223
173	0xbb429ec4	-0.0029696682
174	0xbcb3555f	-0.021891294
175	0xbd24c57e	-0.040227406
176	0xbaf8948a	-0.0018965167
177	0x3b178cb7	0.0023124644
178	0x3d0a045b	0.03369556
179	0x3bf78407	0.0075535807
180	0xba2557c9	-0.00063073315
181	0x3a9cd500	0.0011965334
182	0xba90238c	-0.0010996922
183	0x39ea9969	0.00044746257
184	0x3cc0b9f0	0.023526162
185	0xbb4a02ba	-0.003082438
186	0x3ba19760	0.0049313754
187	0x3a04b9a1	0.0005063061
188	0x3bcbb1c1	0.0062162583
189	0x3a24137b	0.00062590063
190	0x3ba29d6c	0.004962614
191	0x3ca16481	0.019701244
192	0x399dc9a9	0.00030095622
193	0x3a55aff8	0.00081515266
194	0xba6135a0	-0.00085910596
195	0xbbea8484	-0.0071569104
196	0x3cd8aea9	0.026450472
197	0x3ae248a8	0.0017264085
198	0x3c2c77fb	0.010526652
199	0x3c23b457	0.009991727
200	0x3cf4b2ac	0.029870354
201	0x3d88ff9d	0.06689379
202	0x3b700430	0.003662359
203	0x3c3b3556	0.0114262905
204	0xb93cccfb	-0.00018005438
205	0x3d850263	0.06494596
206	0x3d51a858	0.051185936
207	0x3c0e6041	0.008689941
208	0x3b497331	0.0030738825
209	0x3bd29dba	0.006427494
210	0x3bda58d0	0.0066634193
211	0xb992dd77	-0.00028012294
212	0xbd6dc6cc	-0.058050916
213	0xba8b697b	-0.0010636294
214	0xbba02e2b	-0.004888316
215	0x3b9af115	0.0047284462
216	0x3db054f9	0.08609957
217	0x3aab7e35	0.0013083877
218	0x3ca08b81	0.01959777
219	0x3ab206e4	0.0013582376
220	0x3b1b5872	0.002370384
221	0x3b1c7c95	0.0023877968
222	0xbb72c284	-0.003704221
223	0xba967909	-0.0011480163
224	0xb9ea9057	-0.000447395
225	0x3c4a888c	0.012361657
226	0x3c7039ca	0.0146622155
227	0x3bb5d5e8	0.0055491813
228	0xbd27de1d	-0.040983308
229	0xbd323cd4	-0.04351504
230	0x3b72ae1c	0.0037030047
231	0xbcfdfe58	-0.03100507
232	0xbaee199a	-0.0018165589
233	0xbd36defb	-0.044646244
234	0x3c8db46e	0.01729795
235	0x3d1c9db3	0.03823633
236	0x3ae84190	0.0017719734
237	0xbb0fa5e8	-0.0021918956
238	0xbb996c8e	-0.00468213
239	0xbb85473b	-0.004067329
240	0x3cc62650	0.02418819
241	0x3a446c62	0.0007492957
242	0xbabf8326	-0.0014611229
243	0x3bcdac5a	0.0062766494
244	0xbb582a6c	-0.003298427
245	0x3bd3345c	0.0064454507
246	0x3c5ad666	0.013356781
247	0xb94db869	-0.00019619022
248	0x3b27c794	0.0025601136
249	0x3bba4f2a	0.0056857066
250	0x38cc40ae	9.7395256e-05
251	0xbddf4fc3	-0.10903885
252	0xbb5ffcd6	-0.0034177802
253	0xb942d793	-0.0001858159
254	0x3b4b88da	0.0031056912
255	0xbba1d820	-0.004939094

network_body._body_endoder.seq_layers.0.bias f4 [128]
0	0xbe8a3728	-0.26995206
1	0xbe31aa49	-0.17350115
2	0xbea2b623	-0.31779584
3	0xbda2f89d	-0.079575755
4	0x3c990f6a	0.018684108
5	0xbf082383	-0.53179187
6	0xbcc66a86	-0.024220716
7	0x3d0be4b4	0.034153655
8	0x3dfca3d9	0.12335939
9	0x3d28a2a2	0.041170724
10	0xbcea87b2	-0.028629158
11	0xbc911007	-0.017707838
12	0xbce1a9a0	-0.027546704
13	0xbda9e971	-0.082964785
14	0xbc523859	-0.012830817
15	0x3e02549c	0.12727588
16	0x3d622a2c	0.055216
17	0xbd5c39a8	-0.053765923
18	0xbd2340b2	-0.03985662
19	0x3cee01e5	0.029053638
20	0x3c676a95	0.014124532
21	0xbee3b10a	-0.44471008
22	0x3da847d5	0.08216826
23	0xbdc50ec4	-0.09621957
24	0x3d6583d9	0.056033943
25	0xbce41535	-0.027842144
26	0xbca5e5f1	-0.020251246
27	0xbd0b8c96	-0.03406962
28	0xbc2a4ac5	-0.010393803
29	0x3deeca56	0.11659686
30	0xbdfbaf72	-0.12289323
31	0x3d8dab65	0.069174565
32	0xbd2432f6	-0.040087663
33	0x3949d631	0.00019248646
34	0x3e3bef96	0.18353114
35	0x3e08093b	0.13284771
36	0x3d2c0089	0.041992698
37	0xbd41dc23	-0.04732908
38	0x3d5738b5	0.052544314
39	0x3d9a6353	0.07538476
40	0xbeb28263	-0.34865102
41	0xbd3514f4	-0.044209436
42	0x3d5a722d	0.053331543
43	0x3caedb1a	0.02134471
44	0x3c9f97c1	0.019481542
45	0x3d580a09	0.052743945
46	0xbd11c02b	-0.035583656
47	0x3c0e4287	0.008682854
48	0xbd91cd82	-0.07119276
49	0xbd2daa57	-0.042398777
50	0xbbb4ae55	-0.005513946
51	0xbd309003	-0.04310609
52	0xbd5cbe89	-0.053892646
53	0xbd5f47ac	-0.05451171
54	0xbc7b9dcc	-0.015357446
55	0xbd5bd080	-0.053665638
56	0xbce5a4b1	-0.028032633
57	0xbc56abd1	-0.013102488
58	0xbdf6ada8	-0.12044841
59	0x3b8fea8e	0.004391975
60	0xbe14149a	-0.14460984
61	0x3d8287f8	0.0637359
62	0xbdb3add5	-0.0877339
63	0x3d0a2ab7	0.033732142
64	0xbdb45c10	-0.08806622
65	0x3d7859af	0.060632404
66	0xbd84bd0f	-0.064813726
67	0x3c6c7b31	0.014433668
68	0xbd154905	-0.03644659
69	0xbe4c85fe	-0.19972989
70	0xbe8651f7	-0.2623441
71	0xbd50ad87	-0.05094674
72	0x3a45e9dd	0.0007549802
73	0xbc8bd07d	-0.017067188
74	0xbd8c2509	-0.068430014
75	0xbda9b458	-0.08286351
76	0x3cef666d	0.029223645
77	0xbb13e4e2	-0.0022566845
78	0xbcf31430	-0.029672712
79	0xbc8ecbb2	-0.017431114
80	0xbd2b88b3	-0.041878413
81	0xbdc1a35c	-0.094549865
82	0x3d7f774c	0.06236963
83	0xbeb9cdf0	-0.3628993
84	0xbd021b16	-0.031764112
85	0xba033bbf	-0.0005006156
86	0xbd8999ef	-0.06718814
87	0x3d8c96d9	0.068647094
88	0xbc739dc9	-0.014869162
89	0xbe2064e5	-0.15663488
90	0x3d939220	0.072056055
91	0xbdb2e3b4	-0.08734837
92	0xbcf74ba9	-0.030187445
93	0xbeb440dc	-0.35205734
94	0xbd8d4054	-0.06897035
95	0xbdb043c3	-0.086066745
96	0xbde0f95a	-0.1098506
97	0xbcf03be9	-0.029325442
98	0xbd87c96a	-0.066302136
99	0x3dacb002	0.08432008
100	0xbd0cea30	-0.034403026
101	0xbeb0f226	-0.34559745
102	0xbda3f3e5	-0.080055036
103	0xbdd5ea36	-0.10445063
104	0xbd5c89f8	-0.053842515
105	0x3cb5d170	0.022194594
106	0xbe0b5b83	-0.13609128
107	0x3d2ae54a	0.041722573
108	0x3b4be978	0.00311145
109	0x3d90501d	0.070465304
110	0xbd3e3d5b	-0.046445232
111	0xbd411dae	-0.047147445
112	0x3dc2ca6c	0.09511265
113	0xbd7f18c6	-0.062279485
114	0xbca6dd15	-0.020369092
115	0xbd0bbf4a	-0.034117974
116	0xbdd59735	-0.10429231
117	0x3c9149c8	0.017735377
118	0x3d92ff1b	0.07177564
119	0xbd9e5638	-0.07731289
120	0xbd4f3d69	-0.050595675
121	0x3c8280a2	0.015930478
122	0xbe8178e1	-0.25287536
123	0xbd2a27c8	-0.041541845
124	0xbe00ed55	-0.12590535
125	0x3a91a978	0.0011113128
126	0xbc34a4ba	-0.011025602
127	0xbe849645	-0.25895897

network_body._body_endoder.seq_layers.0.weight f4 [128, 126]
0	0x3d3db11a	0.046311475
1	0xbeab6d87	-0.33482
2	0x3dc2be75	0.09508983
3	0x3e1f4492	0.15553501
4	0xbe312569	-0.17299427
5	0xbdde0a0f	-0.10841762
6	0xbefaae7a	-0.4896124
7	0x3d912714	0.07087532
8	0x3ef312fc	0.4747542
9	0xbd8718de	-0.0659654
10	0x3e5ff42a	0.21870485
11	0xbe8cb33d	-0.27480498
12	0x3d83f70e	0.06443606
13	0x3d9fcc56	0.07802646
14	0xbdf2f55f	-0.11863207
15	0x3dc886aa	0.0979131
16	0xbeb2b319	-0.34902266
17	0xbe326bf8	-0.17424
18	0xbeea478a	-0.45757705
19	0xbead96fc	-0.33904254
20	0x3de7ed71	0.11324585
21	0xbee04079	-0.4379919
22	0x3ec72489	0.38895062
23	0xbcced5b9	-0.025248395
24	0xbe74b5a3	-0.23897414
25	0x3d5b9158	0.053605407
26	0xbea82898	-0.3284347
27	0xbebc9d7a	-0.36838895
28	0x3ec68666	0.38774413
29	0xbe1c4f70	-0.15264678
30	0xbc336e85	-0.010951643
31	0xbed4a377	-0.41530964
32	0xbccdfe8a	-0.025145788
33	0x3e895fad	0.26830807
34	0xbe555d6e	-0.20836422
35	0xbd7381e3	-0.05945004
36	0x3d691363	0.056903254
37	0xbeb5b705	-0.35491195
38	0x3e4caa4d	0.1998684
39	0xbe368e8b	-0.17827813
40	0x3df8ecd4	0.121545464
41	0xbf38c05f	-0.72168535
42	0x3d94691b	0.0724661
43	0x3de9966d	0.114056446
44	0x3e9d6fca	0.3074935
45	0xbdb7685f	-0.08955454
46	0xbdaf04b2	-0.085458174
47	0x3ce45149	0.027870791
48	0x3d7e501d	0.06208812
49	0xbe85d51d	-0.26139155
50	0xbe11fca1	-0.14256527
51	0xbeada73c	-0.33916652
52	0x3d075be2	0.03304661
53	0x3df4a8fe	0.11946295
54	0xbdd647fb	-0.10462948
55	0xbde0847a	-0.10962768
56	0xbe1f9f0d	-0.15588017
57	0xbe0cda62	-0.13755181
58	0xbe7a57b6	-0.24447522
59	0xbe5a8bd2	-0.213424
60	0x3d19e224	0.03756918
61	0xbe496457	-0.19667183
62	0xbcf07dee	-0.029356923
63	0xbe75fde8	-0.24022639
64	0xbe11e647	-0.14248
65	0x3e62b4be	0.2213926
66	0xbd6577c7	-0.05602243
67	0xbdedecc0	-0.11617422
68	0x3e187823	0.14889579
69	0xbda6a47f	-0.08136844
70	0xbe106e46	-0.14104566
71	0x3c84a701	0.016192915
72	0x3dd879dc	0.10570118
73	0xbd9f063c	-0.07764861
74	0x3f1d935a	0.61552966
75	0x3e46288a	0.19351402
76	0xbe762c28	-0.24040282
77	0xbdb10c8b	-0.086449705
78	0xbf0d0432	-0.55084527
79	0xbefee1f7	-0.49781772
80	0x3ef338dc	0.47504318
81	0x3eb24355	0.34816995
82	0x3d87e2d2	0.066350594
83	0x3e8befa8	0.2733128
84	0xbd2558d3	-0.040367913
85	0xbe30d604	-0.1726914
86	0x3ec4b55c	0.38419616
87	0xbe6cc24d	-0.23120995
88	0xbdb26613	-0.08710875
89	0x3ee0d4ac	0.43912256
90	0xbf642b3f	-0.8912849
91	0xbe96766c	-0.29387224
92	0x3eacd0b9	0.33752993
93	0xbe06b4e8	-0.13154948
94	0xbe4a276a	-0.19741598
95	0x3ec58d89	0.38584545
96	0x3d6e9719	0.058249567
97	0x3d281b2e	0.041041546
98	0xbe1aefc9	-0.15130533
99	0xbbccb50a	-0.0062471675
100	0xbebd47ed	-0.36968938
101	0x3f1a5602	0.6028749
102	0xbe324efb	-0.17412941
103	0xbdc423ee	-0.095771655
104	0x3edad320	0.427392
105	0xbe563c31	-0.20921399
106	0xbee335b4	-0.4437691
107	0x3e899301	0.26869968
108	0x3ddb3cba	0.10704942
109	0xbd861890	-0.06547654
110	0x3ef1b2d1	0.4720674
111	0xbe21ce55	-0.15801366
112	0xbe89ea07	-0.2693636
113	0x3e2d1e74	0.16906148
114	0xbdcf54f1	-0.10123623
115	0xbe00b400	-0.12568665
116	0xbea1b988	-0.31586862
117	0xbe3b63d6	-0.18299803
118	0xbd2edef4	-0.042693093
119	0xbeb36d64	-0.35044396
120	0xbe8502e7	-0.25978777
121	0xbe169669	-0.14705814
122	0xbe2ab842	-0.16671851
123	0xbe8ec806	-0.2788698
124	0xbd45ea05	-0.04831888
125	0xbf1d41df	-0.61428636
126	0xbdff376d	-0.124617435
127	0x3e9c0e30	0.30479574
128	0xbeebe814	-0.460755
129	0xbebea0ae	-0.37231964
130	0xbe5a1379	-0.2129649
131	0xbd957da0	-0.07299352
132	0xbe5fdbbb	-0.21861164
133	0x3c8460ae	0.016159382
134	0x3ecb134e	0.39663166
135	0xbe1f026d	-0.15528269
136	0xbdb09fa7	-0.08624201
137	0x3bbd5eb5	0.005779112
138	0xbe147e68	-0.14501345
139	0xbe35d1a8	-0.17755759
140	0xbe6222d7	-0.22083603
141	0xbe63ba46	-0.22239026
142	0xbe8d5575	-0.2760426
143	0xbeccaadb	-0.39974102
144	0x3f016c35	0.50555736
145	0xbdb31bbf	-0.087455265
146	0x3dd60339	0.104498334
147	0x3df1d034	0.1180729
148	0xbe000264	-0.12500912
149	0xbf3264b3	-0.69684905
150	0xbeb72793	-0.3577238
151	0xbe48c4b3	-0.19606285
152	0xbdd77500	-0.10520363
153	0xbea1ad20	-0.31577396
154	0x3e7aeb34	0.24503785
155	0xbde323fe	-0.11090849
156	0x3dd4ad00	0.1038456
157	0xbeaf7b98	-0.34273982
158	0xbe2dae7d	-0.16961093
159	0xbd22b743	-0.039725553
160	0xbdf2fabc	-0.1186423
161	0xbd41a76d	-0.04727881
162	0xbe8aa22e	-0.27076858
163	0xbe9111b6	-0.28333825
164	0xbcbdf73f	-0.023189185
165	0xbdd1dd1c	-0.102472514
166	0xbdbacf8b	-0.09121617
167	0xbdac1a13	-0.08403411
168	0xbda41e4e	-0.08013593
169	0xbf0aa48b	-0.5415732
170	0xbf35d658	-0.7103019
171	0x3cbdc4fe	0.023165222
172	0xbd9ae033	-0.07562294
173	0xbe317b61	-0.17332222
174	0xbd79406f	-0.060852464
175	0xbee8d6e4	-0.4547645
176	0xbe068239	-0.13135614
177	0xbdcdc699	-0.10047645
178	0xbe5dedbe	-0.21672723
179	0xbdc99b3b	-0.09844061
180	0xbef59c0b	-0.47970614
181	0x3d8a2b1a	0.06746502
182	0xbeb482c3	-0.35256013
183	0xbcdc3409	-0.026880281
184	0xbea08542	-0.31351668
185	0xbe8d184f	-0.27557608
186	0x3deade06	0.11468129
187	0xbe15cab3	-0.14628105
188	0xbdd7be37	-0.105343275
189	0xbed07116	-0.40711278
190	0xbee6c38d	-0.45071068
191	0x3e4c33a9	0.19941582
192	0xbf0967e5	-0.53674155
193	0xbefa4023	-0.48877057
194	0x3f2ba389	0.6704641
195	0xbd2837cd	-0.04106884
196	0xbe0e7902	-0.13913348
197	0x3ec466d7	0.3835971
198	0xbef9ca21	-0.48787025
199	0xbf05b996	-0.52236307
200	0x3f1612ed	0.5862263
201	0x3e9aa8a3	0.30206785
202	0xbe824f15	-0.2545096
203	0x3ef90a63	0.48640737
204	0x3e67bc93	0.22630529
205	0xbe2a4024	-0.1662603
206	0x3f0df0da	0.55445635
207	0xbeb512fb	-0.35366043
208	0xbdd1435f	-0.10217928
209	0x3d30ebf8	0.043193787
210	0xbe6e2ad8	-0.23258531
211	0xbed6def1	-0.41966966
212	0x3e48761a	0.19576302
213	0x3d2297fa	0.039695717
214	0x3d4cd9c5	0.05001237
215	0x3e3c1c25	0.18370111
216	0x3ed0f286	0.4081003
217	0xbe34888f	-0.17630218
218	0xbc8a99df	-0.016919075
219	0xbea48468	-0.32132268
220	0xbda452e4	-0.08023623
221	0x3d0867a0	0.03330195
222	0x3dd7fb71	0.105460055
223	0xbeb54614	-0.35405028
224	0x3dca4714	0.09876838
225	0xbcfb0336	-0.03064118
226	0xbe601996	-0.2188476
227	0xbe3528b6	-0.17691311
228	0xbeb4df9d	-0.35326853
229	0xbf2149fe	-0.6300353
230	0x3ec5df63	0.38646993
231	0xbec337ed	-0.38128605
232	0xbf0c8439	-0.54889256
233	0xbda96923	-0.08272006
234	0xbec87702	-0.39153296
235	0xbf0c857f	-0.548912
236	0xbd2b9b32	-0.041896053
237	0xbe1fe4aa	-0.15614572
238	0xbee497ec	-0.44647157
239	0xbe9f8624	-0.3115703
240	0x3e4afec4	0.19823748
241	0xbeaee86e	-0.34161705
242	0xbdcb4f81	-0.099272735
243	0xbb129507	-0.002236666
244	0xbe0f169b	-0.13973467
245	0xbe365526	-0.17805919
246	0x3dce7535	0.10080949
247	0xbe76bc3f	-0.24095248
248	0xbe096bd2	-0.13420036
249	0xbca90094	-0.020630158
250	0xbc9157b6	-0.01774202
251	0x3e83873e	0.2568912
252	0x3cc2cab8	0.023778304
253	0xbdd92dbd	-0.10604427
254	0xbecd262b	-0.40068182
255	0xbc6314a7	-0.013859904

network_body._body_endoder.seq_layers.2.bias f4 [128]
0	0xbd487119	-0.048935983
1	0xbe4f3e12	-0.20238522
2	0xbe39408e	-0.18091032
3	0xbe06ba26	-0.13156947
4	0xbea26924	-0.3172084
5	0xbe8996a4	-0.26872742
6	0xbd2cda6c	-0.04220049
7	0xbdcb2388	-0.099188864
8	0xbed12702	-0.40850073
9	0xbee36a40	-0.44417
10	0xbe75c806	-0.24002084
11	0xbe643da9	-0.22289146
12	0xbe810532	-0.25199276
13	0xbe40564d	-0.18782921
14	0xbd82c677	-0.063855104
15	0xbe05d8c2	-0.13070968
16	0xbe4f778a	-0.20260444
17	0xbe205364	-0.15656811
18	0xbe982eeb	-0.29723296
19	0xbeb852b5	-0.360006
20	0xbdee7f7a	-0.11645408
21	0xbdbb1d99	-0.09136505
22	0xbe844c8b	-0.25839648
23	0xbd891cb6	-0.06694929
24	0xbe14308d	-0.14471646
25	0xbdf7f6b7	-0.12107604
26	0xbe3d52d5	-0.18488629
27	0xbe1d0f75	-0.15337928
28	0xbd237e9a	-0.03991566
29	0xbe262676	-0.16225609
30	0xbe96a6ab	-0.29424033
31	0xbd4d784c	-0.050163552
32	0xbec9be5c	-0.39403045
33	0xbec34e43	-0.38145646
34	0xbe40b7a6	-0.18820056
35	0xbe58c136	-0.21167454
36	0xbe60fcee	-0.21971485
37	0xbe69baca	-0.2282516
38	0xbeb4e96e	-0.35334343
39	0xbc614f39	-0.013751798
40	0xbe68f980	-0.22751427
41	0xbe183fa9	-0.14868034
42	0xbe751cec	-0.23936814
43	0xbe800112	-0.25000817
44	0xbdaada0d	-0.08342371
45	0xbe8d069c	-0.27544105
46	0xbe868c44	-0.2627889
47	0xbe83c10d	-0.25733224
48	0xbdea5c93	-0.114434384
49	0xbe8693e7	-0.26284716
50	0xbe167967	-0.14694749
51	0xbe78a10d	-0.24280186
52	0xbe8ad4ca	-0.2711547
53	0xbd266b83	-0.040629875
54	0xbe7c0368	-0.24610674
55	0xbdc37fff	-0.09545898
56	0xbe0bd2b1	-0.13654591
57	0xbedf9230	-0.4366622
58	0xbe4179dc	-0.18894142
59	0xbe8db239	-0.27675036
60	0xbdf757d2	-0.12077297
61	0xbe6853bf	-0.22688197
62	0xbde6fec3	-0.11279061
63	0xbe374b87	-0.17899905
64	0xbdadd977	-0.08488744
65	0xbe1551f4	-0.14582044
66	0xbe8806bb	-0.26567635
67	0xbe70dd3a	-0.23521891
68	0xbe1b0b44	-0.15141016
69	0xbe2d888d	-0.16946621
70	0xbe8124b3	-0.25223312
71	0xbe4b91a6	-0.19879779
72	0xbeb97b54	-0.36226904
73	0xbdc37e86	-0.09545617
74	0xbe3f0d2e	-0.18657371
75	0xbd41d118	-0.047318548
76	0xbdf24dd5	-0.118312515
77	0xbd944863	-0.07240369
78	0xbdfe9e1a	-0.12432499
79	0xbe269be8	-0.16270411
80	0xbe3ccbb9	-0.18437089
81	0xbe131f53	-0.14367418
82	0xbe443185	-0.19159515
83	0xbe23e37b	-0.16004746
84	0xbe9d1f85	-0.3068811
85	0xbda6d627	-0.08146315
86	0xbdc0fde5	-0.094234265
87	0xbe90d036	-0.28283852
88	0xbde17abc	-0.11009738
89	0xbe4f651e	-0.20253417
90	0xbd7ce73d	-0.061743964
91	0x3de44033	0.111450575
92	0xbe0d0e5a	-0.13775006
93	0xbeab2fdd	-0.33434954
94	0xbe7bea21	-0.24601032
95	0xbea0c779	-0.31402186
96	0xbe73ab8b	-0.23795907
97	0xbe893a33	-0.26802215
98	0xbe87ebcc	-0.26547086
99	0xbe3b8b8e	-0.18314955
100	0xbe5f095a	-0.21780911
101	0xbe6f7611	-0.23384883
102	0xbe071bad	-0.13194151
103	0xbdb9f9f7	-0.0908088
104	0xbea14260	-0.31495953
105	0xbe6d33eb	-0.23164336
106	0xbed1c884	-0.40973294
107	0xbe26eaa3	-0.16300444
108	0xbb44fc7a	-0.0030057714
109	0xbd3f90d0	-0.046768963
110	0xbe83935d	-0.25698367
111	0xbe828a0d	-0.2549595
112	0xbe76b617	-0.240929
113	0xbe9dc269	-0.30812386
114	0xbd839fd8	-0.06426972
115	0xbd734c41	-0.059398893
116	0xbe73d094	-0.23810035
117	0xbe84b10d	-0.2591633
118	0xbe82adc2	-0.25523192
119	0xbeaff1a8	-0.34364057
120	0xbcad8173	-0.02117989
121	0xbd4545e0	-0.04816234
122	0xbe3d7273	-0.1850069
123	0xbe557af6	-0.20847687
124	0xbe385bca	-0.18003765
125	0xbe8218dc	-0.2540959
126	0xbe105571	-0.14095093
127	0xbe67b4af	-0.22627519

network_body._body_endoder.seq_layers.2.weight f4 [128, 128]
0	0xbe5f4b35	-0.21806033
1	0x3dab4a1c	0.083637446
2	0xbc7625de	-0.015023677
3	0x3e9e5f65	0.30932155
4	0xbd55ed40	-0.052228212
5	0xbe163432	-0.14668348
6	0x3df34ec1	0.118802555
7	0xbe538d48	-0.20659363
8	0xbd1af084	-0.03782703
9	0xbe9d6f0d	-0.30748788
10	0x3de38aa0	0.11110425
11	0xbe7edb4d	-0.24888344
12	0xbf0f6483	-0.56012744
13	0x3cd14071	0.025543423
14	0xbe98be36	-0.2983262
15	0xbda76910	-0.08174336
16	0xbcb7272b	-0.022357544
17	0x3da4c30c	0.08045015
18	0xbe834a13	-0.25642452
19	0xbd31e80b	-0.043434184
20	0xbd896412	-0.0670854
21	0xbda3b930	-0.07994306
22	0x3e0d0ac9	0.13773645
23	0xbdaa62d3	-0.083196305
24	0xbf233996	-0.63759744
25	0xbe297d06	-0.16551599
26	0x3ec07736	0.3759095
27	0xbe5abe36	-0.21361622
28	0xbd4a3fd8	-0.049377292
29	0xbe7d6b4d	-0.24747963
30	0x3d7d5859	0.061851833
31	0x3e700f76	0.23443398
32	0x3ea02bec	0.3128351
33	0xbddc7861	-0.10765148
34	0xbd182952	-0.03714878
35	0xbd8b315d	-0.06796525
36	0xbd35d33b	-0.0443909
37	0xbeca842c	-0.39553964
38	0xbe037817	-0.1283878
39	0x3c1c0902	0.009523632
40	0x3e061f62	0.13097909
41	0xbc2487b0	-0.010042116
42	0xbee26deb	-0.44224486
43	0xbcd6a028	-0.026199415
44	0xbd88e9e2	-0.066852346
45	0xbd83df5c	-0.06439087
46	0x3eb8fd31	0.3613067
47	0x3e242a22	0.16031697
48	0xbdd0f78e	-0.10203467
49	0xbee900ad	-0.45508328
50	0xbda8fbb2	-0.08251132
51	0xbd09068b	-0.033453505
52	0xbe293d12	-0.16527203
53	0xbc4945a1	-0.012284667
54	0x3d8aba2c	0.06773791
55	0xbe2559fa	-0.16147605
56	0xbde7d648	-0.11320168
57	0xbe262aef	-0.16227315
58	0xbe4a9e52	-0.19786957
59	0xbe0e6748	-0.13906586
60	0xbc4dbe61	-0.012557597
61	0x3d551baf	0.052028354
62	0xbdeb47f5	-0.11488334
63	0xbdad6414	-0.08466354
64	0xbe495410	-0.19660974
65	0xbd03d9ac	-0.03219001
66	0x3d80fc37	0.06298106
67	0x3dcd2a9d	0.100178935
68	0x3dd1dbeb	0.10247024
69	0xbe4790f0	-0.19488883
70	0x3dbaff6a	0.091307476
71	0xbe894796	-0.26812428
72	0x3e1dc701	0.15407945
73	0x3dac166a	0.08402713
74	0xbde79f9c	-0.1130974
75	0xbedc5250	-0.4303155
76	0xbcec5912	-0.028851066
77	0xbe78fc01	-0.24314882
78	0x3ea68ba7	0.3252842
79	0xbea85afc	-0.32881916
80	0xbecd3bb5	-0.40084615
81	0x3e2bf5b2	0.16792944
82	0x3e7d3a58	0.24729288
83	0x3d0a74b2	0.033802696
84	0xbe066833	-0.13125686
85	0xbd5bbf62	-0.053649314
86	0x3e12028d	0.14258786
87	0x3e897e50	0.2685418
88	0x3dfce5c4	0.12348512
89	0x3cd424e7	0.025896503
90	0xbe679560	-0.22615576
91	0xbef5f4cb	-0.48038325
92	0xbebcdeea	-0.3688882
93	0xbd8ad690	-0.06779206
94	0xbe24115f	-0.16022252
95	0xbc988e92	-0.01862267
96	0xbbda1ab7	-0.0066560167
97	0x3db1ef10	0.08688176
98	0x3e658ac5	0.22416218
99	0xbd9b2780	-0.075758934
100	0xbe181280	-0.14850807
101	0xbdeefcc6	-0.116693065
102	0xbe87c7a3	-0.26519498
103	0x3d22ef56	0.03977903
104	0xbe577f2f	-0.2104461
105	0xbee536e5	-0.44768444
106	0xbe80afa3	-0.25134
107	0xbdcf066c	-0.10108647
108	0xbc3c93ad	-0.011509818
109	0xbe1442b9	-0.14478578
110	0xbf3f5716	-0.7474226
111	0xbe08b94a	-0.13351932
112	0xbc4e3930	-0.012586877
113	0xbcd5df02	-0.026107315
114	0x3e699326	0.22810039
115	0x3e7c1336	0.24616703
116	0xbe9eeccf	-0.31040046
117	0xbe1698d9	-0.14706744
118	0xbddb7f3f	-0.1071763
119	0xbd5fa150	-0.0545972
120	0x3c8da58f	0.017290859
121	0xbd767e47	-0.06017902
122	0x3d2cbfed	0.042175222
123	0xbe5224b8	-0.2052182
124	0xbec8ac5d	-0.39194003
125	0x3eb7cabf	0.3589687
126	0x3e0515c0	0.12996578
127	0xbdc700bc	-0.09716937
128	0x3de7f3ce	0.11325799
129	0x3e196968	0.14981616
130	0xbad2fb35	-0.0016096594
131	0xbe997133	-0.29969177
132	0x3d62cd1a	0.05537138
133	0xbd9f7002	-0.07785036
134	0x3d7c0f6d	0.06153815
135	0x3e0a250e	0.13490698
136	0x3d87e119	0.06634731
137	0x3e8117f8	0.252136
138	0xbc8cfc7d	-0.01721024
139	0xbe8077ed	-0.25091496
140	0xbe108658	-0.14113748
141	0x3d922d69	0.071375675
142	0x3d41f49b	0.047352415
143	0x3ec50c2f	0.38485858
144	0xbefad9e7	-0.4899437
145	0x3d5a42af	0.05328625
146	0x3e7628d6	0.24039015
147	0x3db50c34	0.08840218
148	0x3ba75531	0.005106591
149	0xbd816e80	-0.06319904
150	0xbe1cc9c2	-0.1531134
151	0xbe231eca	-0.15929714
152	0xbe1841ca	-0.14868847
153	0xbebc29d2	-0.36750656
154	0x3d7fc966	0.062447928
155	0x3dc45cee	0.095880374
156	0x3e867e54	0.26268256
157	0xbe83e5a8	-0.2576115
158	0xbdb08780	-0.086195946
159	0xbdde3f88	-0.108519614
160	0xbe65c6fa	-0.22439185
161	0xbeddb171	-0.4329944
162	0x3df05c19	0.11736316
163	0x3d591692	0.05300004
164	0xbe8e3056	-0.27771252
165	0xbde1a0cd	-0.110169984
166	0x3dd4fa07	0.103992514
167	0xbb02308f	-0.001986537
168	0x3cf9435e	0.030427631
169	0x3e976d8f	0.29575774
170	0x3e4b7881	0.19870187
171	0x3da26f60	0.07931399
172	0xbeeb8147	-0.45997068
173	0xbec7763f	-0.38957402
174	0x3e352ac8	0.17692101
175	0xbcf0b986	-0.02938534
176	0x3dc62689	0.09675319
177	0xbd564607	-0.052312877
178	0x3d95e074	0.07318202
179	0xbe20d1ca	-0.15705028
180	0xbe7c5541	-0.24641897
181	0x3d608933	0.054818343
182	0x3e0d4a1f	0.13797806
183	0xbe4fe631	-0.20302655
184	0x3eba182b	0.36346564
185	0xbda981a5	-0.08276681
186	0x3c83e12a	0.016098578
187	0xbdcb21f7	-0.09918588
188	0x3d9c273f	0.07624673
189	0xbd897b41	-0.06712962
190	0xbe89e4b9	-0.26932314
191	0x3dc483ef	0.09595477
192	0xbd84c994	-0.064837605
193	0x3c277ca9	0.010222592
194	0xbe511ce0	-0.20421171
195	0xbea31087	-0.31848547
196	0x3d6135c3	0.05498291
197	0xbdd4c723	-0.10389545
198	0xbbeb3777	-0.007178243
199	0xbedcca23	-0.43122968
200	0xba429b3c	-0.00074236444
201	0xbe2d681c	-0.16934246
202	0xbe08c245	-0.13355358
203	0x3e8773e5	0.26455608
204	0xbd7c3ff1	-0.061584417
205	0xbe0dc772	-0.13845614
206	0xbc179b20	-0.009253293
207	0xbdbf6eaf	-0.09347283
208	0xb996afc9	-0.000287412
209	0xbcf1bce6	-0.02950902
210	0xbc51f87a	-0.012815589
211	0x3e6ff974	0.23435003
212	0xbe24baa0	-0.16086817
213	0xbe623298	-0.22089612
214	0xbea6fa98	-0.32613063
215	0xbea9ef19	-0.3319023
216	0xbde71cbc	-0.112847775
217	0x3da38a54	0.07985368
218	0x3d72b4e9	0.05925456
219	0x3ef398d6	0.47577542
220	0x3dc0224a	0.0938154
221	0x3e34e14c	0.17664069
222	0x3bce3fba	0.006294218
223	0xbe9d91b1	-0.30775216
224	0x3e1d4f10	0.15362191
225	0x3d323c1f	0.043514367
226	0xbd89fb0e	-0.06737338
227	0x3e10855c	0.14113373
228	0xbdcee446	-0.101021335
229	0xbe2f3949	-0.17111696
230	0xbe3cc616	-0.18434939
231	0x3dd5e049	0.104431696
232	0x3de8e004	0.113708526
233	0xbbec8277	-0.007217701
234	0xbd75fa28	-0.06005302
235	0xbdc33bd4	-0.09532896
236	0x3d826621	0.06367136
237	0xbd9936e7	-0.07481175
238	0xbe6523fe	-0.22377011
239	0xbde94bb6	-0.11391394
240	0xbdcb7701	-0.099348076
241	0x3cac4c1e	0.02103239
242	0xbeb23542	-0.34806257
243	0xbe01c78c	-0.12673777
244	0xbe44bec0	-0.1921339
245	0xbdf6b754	-0.12046686
246	0x3ea0dbef	0.31417796
247	0x3e266885	0.16250809
248	0xbe760dbe	-0.2402868
249	0x3dfb2677	0.12263196
250	0x3dd89ecd	0.10577164
251	0x3deaa05b	0.11456367
252	0xbed1ff2a	-0.41014987
253	0xbd9f6bca	-0.07784231
254	0xbd9c1efd	-0.07623098
255	0x3d700f8f	0.058608588

network_body._body_endoder.seq_layers.4.bias f4 [128]
0	0xbd90af58	-0.07064694
1	0xbd590f24	-0.052992955
2	0xbcb279dd	-0.021786625
3	0xbd46bdfb	-0.048521023
4	0xbe061a9b	-0.13096087
5	0xbc63a872	-0.013895141
6	0xbd837f95	-0.06420819
7	0xbcb1143c	-0.021616094
8	0xbd876509	-0.06611068
9	0xbcb0b457	-0.021570368
10	0xbdbaf189	-0.091281004
11	0xbea76063	-0.32690725
12	0xbccbe1cf	-0.024887947
13	0xbd98a685	-0.07453636
14	0xbd7dce1e	-0.061964147
15	0xbcb1cffd	-0.021705622
16	0xbc9730b6	-0.018455844
17	0xbc0e43fb	-0.0086832
18	0xbd8187e4	-0.06324747
19	0xbd8e3714	-0.06944099
20	0xbd3db4c0	-0.046314955
21	0xbcd2dc0d	-0.025739694
22	0xbd07eadc	-0.033182964
23	0xbd17946c	-0.03700678
24	0xbd841a22	-0.06450297
25	0xbd76def8	-0.060271233
26	0x3c98d859	0.01865785
27	0xbe58599a	-0.2112793
28	0xbe3c7af5	-0.1840628
29	0xbd9971b5	-0.07492391
30	0xbe5a37dc	-0.21310371
31	0xbe17bedc	-0.14818901
32	0xbc1344c9	-0.008988568
33	0xbccb346a	-0.024805266
34	0xbd2decdf	-0.042462226
35	0xbe53e4b6	-0.20692715
36	0xbd7e40d5	-0.062073547
37	0xbd2f0302	-0.042727478
38	0xbd3993dd	-0.04530703
39	0xbd4699ee	-0.048486643
40	0xbd9866a5	-0.07441453
41	0xbeca86fb	-0.39556107
42	0xbd655e34	-0.055998042
43	0xbed21672	-0.4103275
44	0xbdd5fe2c	-0.1044887
45	0xbef4295c	-0.47687805
46	0x3d2a35fe	0.041555397
47	0xbe7c31f9	-0.24628438
48	0xbddfab26	-0.10921316
49	0xbd9c6c17	-0.07637804
50	0xbe94b51e	-0.2904443
51	0xbd849cf9	-0.06475253
52	0xbcd32740	-0.025775552
53	0xbdcc2131	-0.09967268
54	0xbd09bc5e	-0.033626907
55	0xbd0f05a9	-0.034917507
56	0xbd8eca36	-0.069721624
57	0xbda5ea78	-0.08101362
58	0xbd762469	-0.060093317
59	0xbd8a94e1	-0.06766678
60	0xbd932c4d	-0.07186184
61	0xbd3d3864	-0.046196356
62	0xbdd8ea83	-0.105916046
63	0xbc880cd7	-0.016607685
64	0xbd51f828	-0.05126205
65	0xbd3452fc	-0.044024453
66	0xbc198c9a	-0.009371901
67	0xbe919b59	-0.28438833
68	0xbd98a311	-0.074529774
69	0xbd9fd854	-0.07804933
70	0xbda2163b	-0.079143964
71	0xbea6483d	-0.32476988
72	0xbde210f6	-0.11038391
73	0xbec6b305	-0.38808456
74	0xbd789abc	-0.06069444
75	0xbe164887	-0.14676104
76	0xbe1006e2	-0.14065126
77	0xbef933eb	-0.48672423
78	0xbdcb78c4	-0.099351436
79	0xbd5c32af	-0.053759273
80	0xbcd0a86a	-0.025470931
81	0xbda36f5a	-0.07980223
82	0xbda25523	-0.07926395
83	0xbd2a0a0e	-0.041513495
84	0xbd8ca68f	-0.06867706
85	0xbf4a8174	-0.7910378
86	0xbdc7e8f6	-0.09761231
87	0xbd9a08d4	-0.07521215
88	0xbd831b2f	-0.06401669
89	0xbc9e9989	-0.01936032
90	0xbe26721b	-0.16254465
91	0xbd3cd4b4	-0.046101287
92	0xbd48ebf6	-0.049053155
93	0xbe034f61	-0.1282325
94	0x3b9095ab	0.004412373
95	0xbd309f9e	-0.043120973
96	0xbd3e4ef7	-0.046462025
97	0xbd8d81fa	-0.06909557
98	0xbd5f1433	-0.054462623
99	0xbd94cac0	-0.07265234
100	0xbeac25de	-0.3362264
101	0xbd55c411	-0.052188937
102	0xbc992272	-0.018693183
103	0xbea363bf	-0.31912038
104	0xbd8232b1	-0.06357325
105	0xbeb3038f	-0.34963652
106	0xbd291f9e	-0.041289918
107	0xbe0ae4c6	-0.13563833
108	0xbd7df0b9	-0.06199715
109	0x3db3dcdd	0.08782361
110	0xbd8bec69	-0.06832201
111	0xbd645b94	-0.0557514
112	0xbeb51bc4	-0.35372746
113	0xbd8ceb9c	-0.068808764
114	0xbd2fb8a6	-0.042900704
115	0xbd928761	-0.07154728
116	0xbd62e011	-0.055389468
117	0xbdad4542	-0.084604755
118	0xbe88c6ca	-0.26714164
119	0xbdc41be6	-0.09575634
120	0xbd66c7cc	-0.056342885
121	0xbdc30e10	-0.095241666
122	0xbdabd2d6	-0.08389823
123	0xbd0915e2	-0.033468135
124	0xbd83eb8a	-0.0644141
125	0xbd530ef8	-0.051527947
126	0xbd61706b	-0.05503885
127	0xbde3effc	-0.11129758

network_body._body_endoder.seq_layers.4.weight f4 [128, 128]
0	0x3d810e5c	0.06301567
1	0xbd3dbe85	-0.04632427
2	0xbcdd6c73	-0.027029252
3	0xbd5053dd	-0.05086123
4	0xbcb52cac	-0.022116028
5	0x3d0b0dc0	0.03394866
6	0x3baaab71	0.0052084257
7	0x3bcfd542	0.006342561
8	0xbcaef556	-0.02135722
9	0xbbd0c6c3	-0.0063713505
10	0xbd8809c5	-0.066424884
11	0x3d24b7ca	0.040214337
12	0xbd7c99af	-0.06167
13	0xbc51ab6a	-0.012797216
14	0xbcbfa3a0	-0.023393452
15	0x3d8aac12	0.06771101
16	0x3cf67cd8	0.030088827
17	0x3ccb9c3a	0.024854768
18	0xbd85fc5d	-0.06542275
19	0xbd9ff9ee	-0.07811342
20	0x3bc55b24	0.0060228277
21	0xbd0d0ad1	-0.034434143
22	0x3ce908b1	0.028446527
23	0x3d37f588	0.04491189
24	0xbc635783	-0.013875845
25	0xbd45ea52	-0.04831917
26	0x3cadddcc	0.021223925
27	0x3d8533d9	0.0650403
28	0x3c8477af	0.01617035
29	0x3c3657d2	0.011129336
30	0x3e128779	0.14309491
31	0xbb422257	-0.002962252
32	0xba3088bb	-0.00067342416
33	0x3d511aeb	0.05105106
34	0xbbf554a4	-0.0074868966
35	0x3db7e078	0.08978361
36	0x3e2bfa4f	0.16794704
37	0x3999cf6b	0.00029336973
38	0xbbc683c1	-0.0060581868
39	0x3c301935	0.010748197
40	0xbdbcd3d0	-0.092200875
41	0x3d16333f	0.036669966
42	0x3e18f0e1	0.14935638
43	0xbd46e6a2	-0.048559792
44	0xbdcc92bb	-0.09988924
45	0x3d4f9aeb	0.05068485
46	0xbd27327d	-0.040819634
47	0xbd657a60	-0.05602491
48	0xbd2396bd	-0.039938677
49	0xbbbba5f7	-0.0057265717
50	0xbc9c4ccb	-0.019079586
51	0xbd52ab7e	-0.05143308
52	0xbcf00294	-0.029298104
53	0xbd21c08b	-0.039490264
54	0x3d46c8d4	0.04853137
55	0xbcd15703	-0.025554186
56	0xbc88bc7f	-0.016691444
57	0xbd518857	-0.051155414
58	0x3d879ac8	0.06621319
59	0x3cd581d3	0.026062882
60	0x3dc179d8	0.09447068
61	0x3cb5297e	0.022114512
62	0x3dd111f0	0.102084994
63	0x3de405ae	0.11133896
64	0x3c6c8b14	0.014437456
65	0xbdfc9b48	-0.12334305
66	0xbc59823f	-0.013275682
67	0xbc567f10	-0.0130918175
68	0x3d3987de	0.04529559
69	0xbd1ef3b1	-0.03880662
70	0xbdaa59ca	-0.08317907
71	0xbcd69e6f	-0.026198594
72	0x3d9933b6	0.07480566
73	0xbd44b084	-0.0480199
74	0xbce97889	-0.028499858
75	0x3d03473e	0.032050364
76	0x3d02633d	0.031832922
77	0x3c39c794	0.011339087
78	0x3d9f1a6c	0.077687114
79	0xbdab0e04	-0.08352283
80	0x3b0ce1e8	0.0021496955
81	0x3ceac7e9	0.028659778
82	0x3cc2e6da	0.02379172
83	0xbe02c63d	-0.12770934
84	0x3c7f9d64	0.01560149
85	0xbcf07329	-0.029351788
86	0xbd5233ad	-0.051318813
87	0x3a93ff9d	0.0011291389
88	0x3d788e8c	0.06068282
89	0xbb1ee183	-0.0024243302
90	0x3bcd8b01	0.006272674
91	0x3c028fd3	0.007968861
92	0x3d514cb0	0.051098526
93	0xbd97fc79	-0.07421202
94	0xbd956cab	-0.072961174
95	0xbd322d7f	-0.04350042
96	0xbc3a972a	-0.011388579
97	0xbd161208	-0.03663829
98	0xbd1a26e4	-0.037634745
99	0x3c979752	0.018504772
100	0xbd816e5a	-0.06319876
101	0x3d9dce6f	0.0770539
102	0x3c7a828a	0.015289912
103	0x3d36d25d	0.04463421
104	0x3d10d976	0.035363637
105	0x3ced2794	0.028949536
106	0x3d286158	0.04110846
107	0x3d227c1e	0.03966915
108	0xbbe8e5ee	-0.007107488
109	0xbd0bac39	-0.03409979
110	0x3c1821b6	0.009285381
111	0xbc41992c	-0.011816304
112	0xbe16affe	-0.14715573
113	0xbbacee6f	-0.005277447
114	0xbd107380	-0.0352664
115	0xbcd2fbff	-0.025754927
116	0xbc9c969d	-0.019114787
117	0x3ba976ce	0.0051716333
118	0xbbbb0e2a	-0.0057084756
119	0xbd0bab6e	-0.034099035
120	0xbcf6906b	-0.03009816
121	0x3d33893d	0.043832052
122	0x3d33bd65	0.043881793
123	0xbcf52275	-0.029923657
124	0x3cd34c3e	0.025793191
125	0x3c9442a2	0.01809818
126	0x3d8cb840	0.068710804
127	0xbbb2724c	-0.005445754
128	0x3d229b94	0.039699152
129	0xbc9d3a05	-0.019192705
130	0x3dc740a1	0.09729124
131	0xbd51ca34	-0.051218227
132	0xbcd38dba	-0.025824416
133	0x3d489775	0.048972566
134	0xb8954090	-7.116899e-05
135	0x3d4a983b	0.049461585
136	0x3cbb3679	0.022853123
137	0x3d2788a1	0.040901784
138	0x3d28cb03	0.041209232
139	0xbde4edb3	-0.1117815
140	0xbdb07d9a	-0.086177066
141	0xbd191587	-0.037374046
142	0xbdb5990e	-0.088670835
143	0xbbc6158d	-0.0060450495
144	0x3c06ae69	0.008220294
145	0xbd1596f2	-0.036520906
146	0xbd22d5e2	-0.039754756
147	0x3d82aaec	0.06380257
148	0xbcebd00b	-0.028785726
149	0xbc01a63b	-0.007913168
150	0x3bcbf36b	0.006224086
151	0xbc4707e3	-0.012147876
152	0xbd8a70df	-0.0675981
153	0xbde47025	-0.11154202
154	0x3d1a0d4d	0.03761034
155	0xba3a2083	-0.00071001815
156	0x3a326744	0.0006805549
157	0xbca35eb1	-0.019942613
158	0x3d26b55d	0.040700305
159	0xbce42e28	-0.02785404
160	0x3cddd0d2	0.027077112
161	0x3d317f2d	0.043334175
162	0x3d22be83	0.039732467
163	0xbdf33961	-0.118761785
164	0xbc9d1351	-0.01917425
165	0x3cf94d1e	0.03043228
166	0xbd00a61b	-0.03140841
167	0xbc9f3976	-0.01943658
168	0x3db354b5	0.08756391
169	0xbd7b60b2	-0.061371513
170	0x3cdcc9dc	0.026951723
171	0xbd83fdd8	-0.06444901
172	0x3d06a5d7	0.032873
173	0xbd6b2a81	-0.05741358
174	0x3da220c6	0.07916407
175	0x3d827586	0.06370072
176	0x3d00a22a	0.03140465
177	0x3dd7aedb	0.10531398
178	0x3c46602b	0.012107889
179	0xbd07c17d	-0.03314351
180	0x3c9991ba	0.018746246
181	0xbce1a46e	-0.027544226
182	0x3d22d985	0.039758224
183	0xbd56895f	-0.0523771
184	0xbc919acc	-0.017774008
185	0xbdb11615	-0.0864679
186	0xbd386b63	-0.045024287
187	0x3c9a35c9	0.018824475
188	0x3dc15520	0.094400644
189	0xbcf315e2	-0.02967352
190	0x3ccd10cf	0.025032429
191	0xbbc0b9ca	-0.005881523
192	0x3b8bdcaa	0.0042682486
193	0xbc7051c7	-0.014667935
194	0xbd1961ac	-0.037446663
195	0xbc900a6f	-0.0175831
196	0x3ae62ad8	0.0017560376
197	0xbb7b41b4	-0.0038338723
198	0xbdf2c6e3	-0.11854341
199	0xbc2230ac	-0.0098993
200	0x3e0ce114	0.13757735
201	0xbd62e716	-0.055396162
202	0xbd88197e	-0.06645487
203	0x3d3d305f	0.04618871
204	0x3a617388	0.00086002843
205	0x3baafee6	0.0052183745
206	0x3a663fd5	0.00087833154
207	0xbe0e9b16	-0.13926348
208	0xbd5f28fb	-0.05448244
209	0x3d594495	0.05304392
210	0xbc7e4cd3	-0.015521246
211	0x3d4c553f	0.049885985
212	0x3c1d2893	0.009592193
213	0xbc82e204	-0.015976913
214	0xbacedab1	-0.0015781728
215	0x3d8a1aa2	0.06743361
216	0x3d8262d1	0.06366504
217	0x3c43a9a2	0.011942299
218	0xbd777b93	-0.060420584
219	0x3c82078a	0.015872736
220	0xbd8c3c5d	-0.06847451
221	0xbdd0fe7d	-0.1020479
222	0xbc9aba97	-0.018887801
223	0xbc9ff440	-0.019525647
224	0x3d4b9f29	0.049712334
225	0x3cadac2b	0.02120026
226	0xbd4a72a7	-0.049425747
227	0xbca4e88a	-0.020130415
228	0xbc0b00b4	-0.008484054
229	0xbd143b46	-0.03618934
230	0x3dcfcf3e	0.1014695
231	0x3c984fb9	0.018592702
232	0x3b410602	0.0029453044
233	0x3baef007	0.005338672
234	0x3b1e19be	0.002412423
235	0xbd7cfed6	-0.061766468
236	0xbc98ca45	-0.018651137
237	0xbd254673	-0.04035039
238	0xbd11336c	-0.03544943
239	0x3be001af	0.006836138
240	0xbd913cbc	-0.07091662
241	0xbd08f0fd	-0.03343295
242	0xbd4a73c4	-0.04942681
243	0xbc9159a0	-0.017742932
244	0xbcdd11a6	-0.026985954
245	0x3c866c11	0.016408952
246	0x3cee7cc1	0.029112222
247	0x3bd8e95c	0.0066196155
248	0xbc9b1980	-0.018933058
249	0x3c027430	0.007962272
250	0x3db60680	0.088879585
251	0x3d07ebd3	0.033183884
252	0x3dc73235	0.09726373
253	0x3d126c8e	0.035748057
254	0x3c813b8f	0.01577547
255	0x3d0881d2	0.03332693
