Maize-Runner/results/EscapeRewards2/EscapeMaze/EscapeMaze-21999974.onnx (onnx, 200372 bytes, 9 tensors)

action_model._continuous_distribution.log_sigma f4 [1, 2]
00000000: bb29 91bf 7ffa 92bf
-1.134086 -1.1482695

action_model._continuous_distribution.mu.bias f4 [2]
00000000: f1fe e23d d058 32bc
0.110837825 -0.010885432

action_model._continuous_distribution.mu.weight f4 [2, 128]
00000000: 628f 0137 7b59 4a3b f2c9 8f3a e7b2 acba
00000010: 26b7 c1b9 bce1 8d39 0bb0 ce3a 0aa1 043b
00000020: 9733 7b3b b251 c2b8 f234 d0b9 516d 883c
00000030: 97ed 11bb 7c1e d4ba a6ef 7636 ce81 41ba
00000040: 3a94 ddb9 83df 2fbb 9307 31b9 0576 513b
00000050: cac7 0f3b a62d a13a ce07 f9ba 20d1 473b
00000060: ceba 35bb cf41 f23a 104b 9c3a b6c2 86bd
00000070: 2733 433c 49b3 0d3b d639 41bc 9cf2 353b
00000080: 1363 5ebb 9ed6 8c3d b985 8d3d 0335 9bbd
00000090: 515b 18b9 de16 5a3a 19a3 82ba efd5 a63a
000000a0: 2326 2c3b d39c fdbd 1d82 42bb 766f 2abd
000000b0: 6bfa 34bb 9173 6ebc 5716 603d 47c4 9a3c
000000c0: 72b1 bc3a 94a9 1d3b 01a5 45bd a508 4a38
000000d0: cb58 7bba ee61 b03b ece2 4ebb abf5 9a3a
000000e0: ff1c e73c dbe2 71bb 6e97 68ba 45e5 9f39
000000f0: 21b4 7cbb 4a3d 113b 7ac6 913a 2e30 0cbb
00000100: 0952 c23b 3dbb da39 5e5f 843b a187 38bc
00000110: 0745 d33d fb6b 713b 5d02 ccbb 57f0 fdbc
00000120: 53e2 953d ea48 2fbd 6ff7 543b 78db edb9
00000130: 4497 5c3a 4fe0 12bb 2f77 5c3d 8cb1 da3a
00000140: 9a6c a2ba 7dca cdb9 47e5 9ab9 9465 2e3b
00000150: bc3f 093d a7d8 83bc 92b4 d53a 3985 36bb
00000160: e45d c13c 8146 193a 0cf2 953d e6c1 acba
00000170: e9b7 c83a 6473 4e3b 8fd7 913a 1374 463b
00000180: 0660 efba 003b 2fbb ae92 9a3a d8fe d339
00000190: 3c2e 11bd 1515 033d 0f1c 7bba 057f b0bb
000001a0: 17ed 563a 704b 24bd 452f 89bb e78c c83d
000001b0: 8529 683b f434 ef3d 5d1a d539 cfe4 573b
000001c0: a78e 5dbc 1586 0239 f586 f939 00c4 e238
000001d0: 5b69 ee3a 0ff3 323a c721 bdbc 64c3 0f3b
000001e0: 82fd 073b bf0d 2a3b ff0e 933a 6a5f b1b8
000001f0: a672 3d3b 0786 a03a 3830 e139 c891 3cbb
00000200: ca6d aeba e1e0 1339 a020 65b8 ee4e 323b
00000210: a30b 12bb af13 da3a b3ea 1c3b ee01 41b9
00000220: f351 d83d dd3f 443a 3c35 b5ba f7d6 a2bc
00000230: c808 203b 38f2 513a 36ea 2939 1481 b0b9
00000240: 8e4b 9dba 00c6 d4b6 1617 ab39 fd27 b7bb
00000250: 901e 1cba f010 21ba c940 283a f52b 953a
00000260: 0e5b 6738 72e1 8cba 621b 8f3b f51e 4a3d
00000270: 045a 2e3d 8552 e8ba 6087 9bbd 90e2 f7ba
00000280: e716 81b9 347e f0bd f12b 21bd 0e73 33bd
00000290: d251 893b 0f19 22ba c929 f93a 8d91 3dba
000002a0: 29af 5abb 0e77 20bd dfb1 3e3a d9bb adbc
000002b0: f7c6 f238 d099 4a3c 6cc4 a1bb fa51 7ebd
000002c0: 1a8f b73a 3ce5 36ba 5390 403d cc60 4aba
000002d0: 0992 17ba 3b5b 5dba 36ea d83a 02a2 84b9
000002e0: 459a 483d 51f4 05bb 472b 73ba 40ed a9b9
000002f0: af39 3c3a 4966 cd3a 78db 61bb 7523 6d3a
00000300: 65d8 09bb 52ca 9c3a 92ce 143b 4b8d c4bb
00000310: 7947 783c e0b6 9dba bda2 3cbb 94ac c73b
00000320: f492 563b 314e 173d 8a91 a93a 69e5 cf3b
00000330: 8f3c 7e3b 26a7 963d 7be2 083d 816e 7e3a
00000340: a400 023b c0cb db3a c0f7 deb9 058f 93ba
00000350: d7da 87bd 7015 383c cacf 5cba 9725 80bb
00000360: 3031 9a3d d03d 283b daaf c63c c88e b03a
00000370: ad5e 5b39 524a c83a 6624 12ba 7eb6 6f3a
00000380: 671d 28bb a695 803a 7857 9c3a 7cc7 c93a
00000390: 5b38 06bd 0011 eabc 878f 2eba 1642 56bd
000003a0: 787e 1d3b ec64 13bd 1561 9c3a 4d02 333d
000003b0: 94c3 303b dc1d cf3c 0a52 5239 8883 b1ba
000003c0: 190c 113d 248e b83a 0a99 343a 5231 023a
000003d0: 45f8 dfba f5b9 303a a103 f53b 0369 523b
000003e0: 6da7 bb3a 4db5 623b ce9f d93a 95c3 d8bd
000003f0: 4921 1bb9 eaa9 b6ba 6c87 3c3a 0587 65bb
7.722383e-06 0.0030876088 0.0010970219 -0.0013175876 -0.00036948285 0.000270618 0.0015769018 0.0020237588
0.003833031 -9.265858e-05 -0.000397123 0.016653689 -0.0022266859 -0.0016183401 3.679635e-06 -0.0007381708
-0.00042262842 -0.0026836104 -0.00016882857 0.0031961214 0.0021939152 0.001229693 -0.0018999518 0.0030489638
-0.0027729752 0.0018482747 0.0011924226 -0.06580107 0.011914051 0.0021621755 -0.011793574 0.0027763015
-0.0033933565 0.068768725 0.06910271 -0.075784706 -0.00014529868 0.00083194475 -0.000996682 0.0012728552
0.0026267848 -0.123834275 -0.0029679604 -0.041610204 -0.002761508 -0.01455392 0.054708805 0.01889242
0.0014396145 0.0024057375 -0.048253063 4.8168604e-05 -0.00095881213 0.005382768 -0.0031568361 0.0011822482
0.028212069 -0.0036908898 -0.00088726624 0.00030497662 -0.0038559514 0.0022161775 0.0011121773 -0.0021391022
0.0059301895 0.00041719704 0.004039689 -0.011262805 0.103159 0.0036838043 -0.0062258677 -0.030998392
0.073185585 -0.042794146 0.0032496115 -0.0004536768 0.00084148743 -0.002241153 0.0538246 0.0016684993
-0.0012391985 -0.00039251512 -0.00029543994 0.0026610838 0.033508047 -0.016094519 0.0016304424 -0.0027850403
0.02360434 0.0005846993 0.073215574 -0.0013180345 0.0015313599 0.0031501884 0.0011126864 0.0030281588
-0.001826287 -0.0026738048 0.0011792982 0.0004043493 -0.035444483 0.032002527 -0.0009579071 -0.0053862357
0.0008198781 -0.040111005 -0.004186543 0.097925 0.0035425138 0.11680022 0.00040646168 0.0032942777
-0.0135227805 0.00012447716 0.00047593532 0.000108130276 0.0018189357 0.00068263797 -0.023087395 0.002193653
0.0020750468 0.0025948135 0.0011219679 -8.45779e-05 0.0028907447 0.0012246975 0.0004295127 -0.0028773416
-0.0013307866 0.00014102786 -5.462824e-05 0.002720769 -0.0022284768 0.0016637946 0.0023943603 -0.00018406633
0.105625056 0.0007486323 -0.0013825069 -0.019877894 0.0024419297 0.00080088107 0.00016204346 -0.00033665507
-0.0012000666 -6.3411426e-06 0.00032632862 -0.005589484 -0.0005955482 -0.00061441865 0.0006418345 0.0011380898
5.5159493e-05 -0.001074834 0.004367278 0.04934593 0.042566314 -0.0017724788 -0.0759418 -0.0018912125
-0.0002462186 -0.11742821 -0.039348546 -0.043810897 0.004190662 -0.00061835436 0.0019009645 -0.00072314666
-0.0033368564 -0.03917604 0.00072744297 -0.021207737 0.00011576519 0.012365773 -0.0049367454 -0.062089898
0.001400444 -0.00069769076 0.04701264 -0.00077201123 -0.0005781954 -0.00084440754 0.0016549292 -0.00025297707
0.048975248 -0.0020439813 -0.0009276163 -0.00032410957 0.00071802264 0.0015670742 -0.003446309 0.0009046116
-0.0021033522 0.0011962152 0.0022706133 -0.0059982887 0.015153759 -0.001203265 -0.0028783523 0.006093571
0.00327414 0.036939804 0.0012937051 0.0063444865 0.003879342 0.073561 0.033419114 0.00097057974
0.0019836808 0.0016769096 -0.00042527728 -0.0011257833 -0.06633537 0.01123558 -0.0008423297 -0.003910731
0.07528913 0.0025671609 0.024253774 0.0013470287 0.00020920737 0.0015280938 -0.0005574882 0.000914432
-0.002565229 0.0009810224 0.0011927923 0.0015394534 -0.03276859 -0.02857256 -0.00066589605 -0.05230912
0.002403168 -0.03598492 0.0011930788 0.043703366 0.0026972042 0.025282793 0.00020057723 -0.0013543228
0.035411928 0.0014080447 0.00068892597 0.0004966456 -0.001708754 0.0006741577 0.0074772392 0.003210605
0.0014316865 0.0034592927 0.0016603412 -0.10584179 -0.00014794352 -0.0013936136 0.00071918103 -0.0035023105

network_body._body_endoder.seq_layers.0.bias f4 [128]
00000000: 2092 86be 9f04 51be f76d 98be 5cc5 bbbd
00000010: e23d 8c3c e333 04bf 6834 0abd 7f4a 233d
00000020: c2dc f93d 05e6 443d cd93 54bc 0d3b 47bc
00000030: 5562 62bc 6cb7 95bd f250 a9bb e47f ee3d
00000040: cf26 823d ce8c 46bd 51a3 28bd 1434 ed3c
00000050: b219 bb3c f8e4 ddbe 0e92 9e3d 79e0 9fbd
00000060: c5ee 5d3d 6afd 8fbc 09d2 ddbc 4e16 e5bc
00000070: 1f01 36bc 12f4 ee3d 551c 06be 64bf 9d3d
00000080: dc75 26bd 7446 4e3b 1a90 423e 34e4 043e
00000090: a72f 193d 264f 38bd faef 913d bec6 8a3d
000000a0: 0074 abbe e4ef 36bd a78f 6a3d 00e8 bb3c
000000b0: 5004 3abb e439 193d aac9 ccbc 5fed 783c
000000c0: 5831 79bd 4a25 35bd 9031 63bc 12f9 17bd
000000d0: 9c76 8fbd 0a6f 11bd 48ed 96bc 7d72 76bd
000000e0: ed8c f6bc dcb6 653a ed10 bdbd e131 4a3c
000000f0: 6f2c 2fbe c56c 1c3d 0b11 b2bd 9482 1e3d
00000100: cc8e b5bd 5074 883d 42bb 93bd 333e 2d3d
00000110: 3047 25bd d3b1 45be 2729 75be 872e 6dbd
00000120: 2ef5 3eb8 29a1 96bc f389 89bd c919 a4bd
00000130: 3e54 093d 86dc b4bb 61f6 f3bc 7102 ffbb
00000140: 5f6a 2fbd 03f9 b1bd 931f ae3d b575 aebe
00000150: 61ac 02bd 4204 99bc d309 aabd 3f67 8e3d
00000160: 3255 3cbc a745 34be 3d34 7a3d 887d 9dbd
00000170: e29e 46bd 5289 b7be 0fe1 92bd 319c acbd
00000180: 05c6 cbbd 0a5b 0fbc b90e bbbd d648 a03d
00000190: 8fe9 3abd 9383 a7be ebff 99bd a07d d2bd
000001a0: 92c1 3fbd 28a2 913b d2b4 efbd 3c1d 183d
000001b0: 972e 35b8 d172 8b3d cc91 0abd 7c45 32bd
000001c0: ac6c a83d e08f 93bd 40f6 3dbd 7ba7 f2bc
000001d0: 95cd 04be b9e1 333c 07a5 853d 3b07 94bd
000001e0: af61 42bd 5ea6 5a3c dab9 61be e13c 08bd
000001f0: ccd1 e5bd 2500 5cbb 953d 3abc ec01 85be
-0.2628336 -0.20411919 -0.29771397 -0.09168503 0.017119352 -0.5164167 -0.033741385 0.039865967
0.12200309 0.048070926 -0.012974692 -0.012160075 -0.0138173895 -0.073103756 -0.00516712 0.11645487
0.063550584 -0.048474126 -0.041171376 0.028955497 0.0228394 -0.43338752 0.077427015 -0.07806487
0.054182786 -0.017576892 -0.027077692 -0.027964737 -0.011108666 0.116676465 -0.13096745 0.077025205
-0.040639743 0.0031475099 0.19000283 0.12977678 0.03739896 -0.044997357 0.0712585 0.06776188
-0.33486938 -0.04466237 0.057265904 0.022937775 -0.0028383918 0.037408724 -0.024998505 0.015193312
-0.060838073 -0.044225015 -0.013866797 -0.037102766 -0.07005045 -0.035506286 -0.018423691 -0.06016778
-0.030096496 0.0008762905 -0.09231744 0.012340994 -0.17106794 0.03818967 -0.08694657 0.038698748
-0.08865127 0.0666281 -0.07213451 0.042295646 -0.040351093 -0.19306116 -0.2394148 -0.0579057
-4.552787e-05 -0.018387394 -0.06715765 -0.08012731 0.033527605 -0.0055194525 -0.029780569 -0.0077822735
-0.042826053 -0.08690073 0.08502116 -0.34074178 -0.031902675 -0.018678788 -0.08302655 0.069532864
-0.0114949215 -0.17604695 0.061084975 -0.07689959 -0.048491366 -0.35846955 -0.07171833 -0.08428229
-0.099498786 -0.008749733 -0.091336675 0.07826392 -0.045632895 -0.3271757 -0.075195156 -0.10277867
-0.046815462 0.0044443794 -0.117044106 0.037137255 -4.3197153e-05 0.06809009 -0.03383045 -0.043523297
0.082238525 -0.07205176 -0.04637742 -0.029620877 -0.12969048 0.010979109 0.06525617 -0.072279416
-0.04745644 0.013345329 -0.22043553 -0.033261184 -0.11221656 -0.0033569422 -0.011367221 -0.2597803

network_body._body_endoder.seq_layers.0.weight f4 [128, 126]
00000000: 1ab1 3d3d 1309 abbe a7f1 e23d deef 1d3e
00000010: 1adc 3dbe 0f0a debd 41b5 f5be a594 543c
00000020: 22d4 073f c798 91bd 2af4 5f3e e040 7ebe
00000030: 9903 2a3d e29b 843d 16c0 eabd aa86 c83d
00000040: 32d3 bdbe 2bb1 28be da0c 03bf bfeb b8be
00000050: 71ed e73d 28c9 e2be 5e3f ce3e 0806 24bd
00000060: 2d1d 60be 5891 5b3d 2dd3 a1be 7e36 bdbe
00000070: bc21 be3e f67d 35be 856e 33bc 4c1a d0be
00000080: a9ac ddbc 9db5 833e 061b 58be e381 73bd
00000090: d77e 3f3d e182 a0be 6603 353e 0332 42be
000000a0: d4ec f83d 49e2 39bf fa61 973d a130 cd3d
000000b0: a891 9a3e 5f68 b7bd c4eb b8bd c8e5 9b3c
000000c0: fbad d13d 4c1d 85be a1fc 11be fdda c1be
000000d0: df55 ec3c ac90 373e 4e15 b3bd 7a84 e0bd
000000e0: 9c49 33be 1bd7 dabd 622b 60be be24 6ebe
000000f0: 24e2 193d e60e 5dbe 568f af3a 69d1 5bbe
00000100: 387f 25be a3bd 693e 6007 2ebd 5e53 eabd
00000110: b224 2a3e ad9e a1bb 4f11 fcbd 5cbc 9b3d
00000120: 9567 013e 0d0f a5bd d0f0 1d3f 6027 2c3e
00000130: 8174 7ebe 10c1 b2bd 1182 10bf 817a fabe
00000140: a4be f53e 2f87 a23e be41 843d 97bf 5f3e
00000150: c36e 6bba ecf2 23be 9f36 b23e 860c 61be
00000160: 9f28 a8bd e36b cf3e 083e 6cbf a03d 97be
00000170: 2817 aa3e 6a3b 12be 125f 42be 4aaa d33e
00000180: 55a0 4e3d 68d0 cd3c bc6b 13be d90f 073c
00000190: 57ad bdbe 0c98 1a3f 9544 c0bd 1c9c bcbd
000001a0: 986c e13e fc47 81be 5308 eabe ebdc 903e
000001b0: d4d9 2c3e eabe 34bd d673 e03e 0260 3ebe
000001c0: 6f64 88be c388 383e fdeb ccbd 8e70 05be
000001d0: befb 9cbe 7314 16be c505 12bd 9aaf aebe
000001e0: 58b6 64be 0960 0fbe 77d0 29be 651b 8bbe
000001f0: 7686 52bd 8929 12bf 6d37 ffbd 880b 8b3e
00000200: ed05 e2be 8a27 c5be 1e84 71be a07d 95bd
00000210: d95d 68be df4e 883c f425 b83e 1305 36be
00000220: a79f b0bd faae d0bc 7992 07be cf2d 64be
00000230: cebf 7dbe 46ba 63be 1e58 9bbe 7fa5 9fbe
00000240: 17ad 033f a83f cfbd 3903 d63d 9533 a53d
00000250: 02fa 43be b1d9 0ebf bc82 c5be b3c4 48be
00000260: 20cd 7dbd 2c77 8cbe 5938 4c3e 8888 f9bd
00000270: 00ad d43d 3693 afbe d126 5cbe e497 ebbd
00000280: f47e 40be 6da7 41bd 3666 82be 814f 7bbe
00000290: be91 1fbd 6f44 e8bd 8bcf babd 3d51 dcbd
000002a0: d8b5 c4bd 9d71 06bf 2a08 44bf fec4 bd3c
000002b0: 36ec 53bd 10c0 65be 8369 25bd 6a94 dbbe
000002c0: 3982 06be ea03 eabd 6fad 54be d311 c2bd
000002d0: 38bc 06bf 1a2b 8a3d 30ff b1be a0f8 e3bc
000002e0: 3852 78be ac19 86be 06de ea3d 5cc3 10be
000002f0: 31af d9bd fe14 acbe e6c4 dfbe 9414 5a3e
00000300: c01c f4be 56e1 01bf c863 303f 0e31 f6bd
00000310: 696e 3ebe 828d d43e 2f41 0fbf b5c1 0cbf
00000320: db72 053f ea01 7f3e 669a 86be 98f2 e43e
00000330: 287a 643e 2a76 2ebe 779e da3e 39e8 85be
00000340: ec86 a5bd 615a 263d 4364 49be 1d6d e7be
00000350: 7dd7 133e 132d 3bbd 85cd 0c3d ac20 0d3e
00000360: 9496 eb3e bdac 52be 94aa b6bd ff50 8abe
00000370: 8d23 91bd 3dc5 183d e158 793c 4467 d5be
00000380: 8cb1 643d 4c6d af3b 8d6d 5dbe 6a3f 06be
00000390: 1872 96be 30ee 2cbf 68c7 bd3e 9d91 cdbe
000003a0: 81f2 05bf 43e2 173d b815 c9be fc0c 10bf
000003b0: 0127 9bbd bdd1 96bd c170 d6be 2aef a3be
000003c0: ae4c e43d c479 c8be da86 39be 4eaa 893b
000003d0: a86b 0dbe 441a 85be 67a4 db3d da11 75be
000003e0: e7d2 07be dc07 53bd 8e9f 86bb 7b09 7b3e
000003f0: b8ca c23c 3cb2 80bd 7c34 cdbe 0030 ef3c
0.046311475 -0.3340536 0.11081248 0.15423533 -0.18540993 -0.10841762 -0.47989848 0.012974893
0.53058064 -0.07109218 0.21870485 -0.24829435 0.041507337 0.06475045 -0.11462419 0.0979131
-0.37075192 -0.16473834 -0.51191485 -0.3611736 0.11324585 -0.44294095 0.4028272 -0.040044814
-0.2188613 0.053605407 -0.31606427 -0.36955637 0.37135112 -0.17723832 -0.010951643 -0.40645063
-0.02705987 0.25724497 -0.21104059 -0.05945004 0.046751823 -0.31349853 0.17677078 -0.1896439
0.121545464 -0.7261091 0.073917344 0.10019041 0.30189252 -0.08955454 -0.09029344 0.019030467
0.10238262 -0.25998914 -0.14256527 -0.37862387 0.02884954 0.17926282 -0.08744298 -0.10962768
-0.17508548 -0.10685559 -0.21891549 -0.23256204 0.03756918 -0.21587715 0.0013394158 -0.21466602
-0.16161811 0.22826247 -0.042487502 -0.11441682 0.1661556 -0.0049322457 -0.12307989 0.07604286
0.1263717 -0.08059511 0.61695576 0.16811895 -0.2484913 -0.0872823 -0.56448466 -0.48921588
0.4799701 0.31743762 0.06457852 0.2185043 -0.00089810434 -0.16010636 0.34807298 -0.21977434
-0.08210873 0.40512 -0.9228215 -0.29539204 0.33220792 -0.14280477 -0.18981579 0.41340858
0.050445873 0.02512379 -0.14396566 0.0082435245 -0.3704631 0.60388255 -0.09388081 -0.09209463
0.44028163 -0.25250232 -0.45709476 0.28293547 0.1687997 -0.044127382 0.43838376 -0.18591312
-0.26639125 0.1802092 -0.10005949 -0.13031217 -0.30660814 -0.14656238 -0.035650034 -0.34118348
-0.22335184 -0.14001478 -0.1658343 -0.27169338 -0.051397763 -0.5709463 -0.124617435 0.27157235
-0.44145146 -0.38506728 -0.23585555 -0.07299352 -0.2269205 0.016639171 0.35966456 -0.17775373
-0.08624201 -0.02547406 -0.13239469 -0.222831 -0.24780199 -0.22239026 -0.30340666 -0.3118095
0.5143599 -0.10119563 0.104498334 0.08066479 -0.19138339 -0.5580092 -0.38576305 -0.19606285
-0.0619632 -0.2743467 0.1994337 -0.121842444 0.1038456 -0.34292 -0.21499182 -0.1150358
-0.18798429 -0.04727881 -0.25468606 -0.24542047 -0.03895735 -0.11341178 -0.09121617 -0.107576825
-0.096049964 -0.5251711 -0.7657496 0.023165222 -0.05173894 -0.22436547 -0.040383827 -0.42886668
-0.13135614 -0.11426528 -0.20769285 -0.09476056 -0.5263095 0.06746502 -0.34765005 -0.027828515
-0.24250114 -0.2619146 0.11468129 -0.14137024 -0.10629118 -0.33609766 -0.4370491 0.21296912
-0.47678185 -0.5073446 0.68902254 -0.12021075 -0.18596806 0.41514212 -0.5595884 -0.54983073
0.5212838 0.24903074 -0.26289672 0.44716334 0.22312224 -0.17037264 0.42699024 -0.26153734
-0.08082375 0.040613536 -0.19667153 -0.45200434 0.14437671 -0.045697283 0.034375686 0.13781995
0.4601332 -0.20573707 -0.08919254 -0.2701492 -0.07086859 0.037297476 0.015218944 -0.41680348
0.055833384 0.0053536054 -0.21623822 -0.13110128 -0.29383922 -0.67550945 0.37066197 -0.40150157
-0.52323157 0.037081014 -0.39274383 -0.5626981 -0.07575799 -0.07364223 -0.418829 -0.32018405
0.11147438 -0.391554 -0.18117848 0.00420121 -0.13810599 -0.25996602 0.10724717 -0.23932591
-0.13264047 -0.051521167 -0.004108376 0.24515335 0.023778304 -0.062839955 -0.40079105 0.029197693

network_body._body_endoder.seq_layers.2.bias f4 [128]
00000000: 6f44 cfbd 5ebc 40be 244e 3abe 5164 22be
00000010: bb76 99be 15f1 88be ccf3 79bd 8f06 0dbe
00000020: 9db1 a7be 34ed bfbe ef53 77be 9b39 4fbe
00000030: 36eb 80be 4d52 1bbe a626 2fbd 4485 0bbe
00000040: f6ec 48be 7066 65be cf51 8dbe 3d72 afbe
00000050: d6ec a5bd 8566 9abd 9e17 96be 6c94 b1bd
00000060: 4744 f8bd 9ba3 d6bd 725d 2ebe 2818 23be
00000070: 410d 2abd 604c 24be 6210 a2be 1b41 12bd
00000080: f94b aabe 32c6 c1be 2aec 61be ece4 7abe
00000090: e453 85be 3f12 47be 0c50 c1be 0e41 57bc
000000a0: 9bc5 6ebe 167c 29be ab0c 5fbe 707b 52be
000000b0: 2bdc 9fbd b6dd 7bbe d350 7abe c470 51be
000000c0: 2fc7 0cbe b108 74be 579a 25be 22cd 64be
000000d0: 551e 95be dd0b fbbc 7aa5 69be cabd b2bd
000000e0: e971 08be 90dd d4be 6e5e 21be f23a 81be
000000f0: 9932 d1bd 2f2e 58be e1ad dabd 4c96 73be
00000100: 0536 b6bd ea4d d2bd 3ea8 84be 5ee6 5fbe
00000110: f812 16be cf7d 4fbe c941 66be 8e4f 5abe
00000120: a9d6 abbe eecf c6bd 2456 1ebe b587 a1bd
00000130: f910 05be 906c 9fbd 868b 3cbe 6313 29be
00000140: 3aae 3ebe b1ee 22be fc72 4bbe bd3b 28be
00000150: 2a2f 85be 28fe c3bd 8627 a1bd b27e 93be
00000160: 30c6 f0bd 3b94 46be 24f6 a2bd b465 df3d
00000170: b4d7 c3bd 41da 8ebe 8f59 61be 6fc1 98be
00000180: d5ca 61be d2f2 65be 8a80 42be 6063 38be
00000190: 3f6d 50be 3673 67be f4d0 f9bd a26f b4bd
000001a0: 05c0 90be 7741 78be 0c96 d5be 8f40 00be
000001b0: 254a 74bc 607c 8ebd 70f0 42be 4289 89be
000001c0: 2dc1 76be 3dbb 80be f6ae 9dbd 28ac 49bd
000001d0: d014 48be b979 7ebe 6970 78be adcd a6be
000001e0: 20dc 08bd 1aea 6fbd c378 41be 77ad 59be
000001f0: 17b7 09be bbc8 80be ef63 47be bee9 6abe
-0.101204745 -0.18821856 -0.18193871 -0.1585858 -0.29973397 -0.2674643 -0.06102352 -0.13772033
-0.32752696 -0.3748566 -0.24153112 -0.20236818 -0.25179452 -0.15168114 -0.042761467 -0.13625056
-0.19621643 -0.22402358 -0.27601478 -0.34266844 -0.081018135 -0.07539085 -0.29314893 -0.08670887
-0.12122398 -0.10480424 -0.17027834 -0.15927184 -0.041516546 -0.1604476 -0.31653124 -0.03570662
-0.33261088 -0.37846524 -0.22062746 -0.2450139 -0.26040566 -0.19440554 -0.37756383 -0.013138069
-0.23317568 -0.16551241 -0.21782176 -0.205549 -0.078056656 -0.24596295 -0.24444894 -0.20453173
-0.13747858 -0.2383144 -0.16172157 -0.22343877 -0.29124704 -0.030645305 -0.2281703 -0.08727606
-0.13324703 -0.4157529 -0.15758678 -0.25240284 -0.10214729 -0.21111368 -0.10677696 -0.23787802
-0.08897022 -0.10268767 -0.2590961 -0.21865222 -0.14655674 -0.20262836 -0.22486033 -0.2131941
-0.3356221 -0.09707628 -0.15462548 -0.07887212 -0.12994756 -0.077843785 -0.18412599 -0.16511302
-0.1862115 -0.15911366 -0.19868082 -0.16429038 -0.26012546 -0.09569961 -0.078688666 -0.28807598
-0.11756551 -0.19392483 -0.07957104 0.1090807 -0.095626265 -0.2790089 -0.2200682 -0.29835078
-0.2205003 -0.2245591 -0.18994346 -0.18006659 -0.20354174 -0.22602543 -0.12198058 -0.08810355
-0.282715 -0.24243723 -0.4171604 -0.12524627 -0.014910256 -0.069573164 -0.19037032 -0.26862532
-0.24097128 -0.2514285 -0.07699387 -0.049236447 -0.1953919 -0.24851121 -0.24261631 -0.32578793
-0.033413053 -0.058572866 -0.18893723 -0.21257578 -0.1344875 -0.25153145 -0.19471715 -0.22940728

network_body._body_endoder.seq_layers.2.weight f4 [128, 128]
00000000: 56a2 46be aa48 dc3d c3ec 86bc 4693 9e3e
00000010: ac94 27bd cbc3 efbd e3fe c23d 1114 44be
00000020: 93ca 88bd 02f9 8dbe a8ab 043e ab98 29be
00000030: e2ff 07bf 09bf 273d 8165 9bbe 2cde cebd
00000040: b560 4fbd 84a5 003e 45e8 4abe 9c48 913c
00000050: a180 d6bd d43a bfbd 7065 cb3d 538c 11bd
00000060: 3fd5 2cbf 7f9e 2fbe b910 963e d7ea 19be
00000070: 47f6 46bc 506e 5bbe 45bb c03d 2f58 573e
00000080: 97a6 aa3e 2267 aabd 0d9f d2bd 8521 b8bc
00000090: 9ebc 3bbd b13e e8be 1632 82bd 8a45 38bd
000000a0: 6098 f93d 8360 6b3d edf7 eebe 2d52 82bb
000000b0: 37a3 f9bc 475b cdbd 2bac b63e 94c9 133e
000000c0: 9573 eabd 405f e5be 0888 a0bd 218e f2bb
000000d0: 69cf 47be 8b80 733d 46c1 9b3d f1fd 2abe
000000e0: ae12 20be c5a6 4abe b309 0fbe e9a6 47be
000000f0: 83da 543d 881e cf3d e5da b7bd 57b9 0dbd
00000100: f5ac 72be ff0e 1e3c 32b2 de3d af79 cb3d
00000110: ec22 163e 7ada 15be 5607 0f3e 4aeb 80be
00000120: 82e3 3d3e 6b3f 843d 358a efbd 287f c0be
00000130: 8041 f8bc 5a04 8abe 7f08 b83e 9d74 bfbe
00000140: 54c8 b8be 89d5 013e 5988 693e 0b68 5b3d
00000150: 7adf 00be 5878 31bd a23b 163e f147 a63e
00000160: 91f3 e33d 5c71 853d 1de0 3bbe 12ff f1be
00000170: 9924 adbe 8a44 8dbd 5b86 cdbd 47e3 b43c
00000180: c903 913d 8a37 ac3d 2437 853e 2378 2abd
00000190: e962 0fbe 7c98 e5bd a0c8 74be 7510 b83d
000001a0: 24b8 28be e696 ccbe 94e6 3ebe 27d9 fcbd
000001b0: 38f7 29bb afaf 2dbe acf2 23bf 231b f0bd
000001c0: 53dd ec3c 81fa c63c 1b07 933e 5c47 5d3e
000001d0: 9890 78be e7cd 12be 4d77 54be 9979 afbd
000001e0: bab2 6c3d 4524 38bc b260 e13d 6ae7 2cbe
000001f0: 20fc a6be cd7e 923e 8625 053e 7976 b1bd
00000200: 24ed 0f3c 0695 103e b394 68bd 808e 93be
00000210: b522 8c3d e275 d8bd a62f 233d 405a 3d3e
00000220: ebe5 9c3c c37a 873e a136 25bd a0d5 2cbe
00000230: cb44 ecbd a1d4 493d a9b3 b83c aed4 c03e
00000240: 750c 00bf b1b9 543c b033 8b3e 5107 a63d
00000250: 935c 213d f016 0ebe 946f e2bd 59d5 2dbe
00000260: 54a8 1fbe 5741 a5be 2133 9f3d 954b da3d
00000270: aec9 793e 1312 50be 99e5 f8bd 7b1c debd
00000280: 0824 92be a3a7 f1be beee 053e de78 9d3d
00000290: 9901 96be 600e e6bd 482b ee3d 4e17 e0bc
000002a0: d6a7 96bc 4931 8e3e 193c 383e 3076 8e3d
000002b0: 314f f8be 8795 d4be f41f 473e fda1 61bc
000002c0: f1d4 823d d9d8 22bc 40f7 d73d 8417 a8bd
000002d0: c2ec 88be 533e 023d 9d47 2d3e ccfa 0ebe
000002e0: cc81 a73e 10f3 30bd 90ed 0cbc eb9f d8bd
000002f0: 1cbe c33d a5b2 b3bd d01b 88be 8304 af3d
00000300: 3836 c7bd 4d3d 9239 80c5 21be b3dc b0be
00000310: e521 843c 6e54 c0bd 15b6 94bd 8a27 dcbe
00000320: c03d 41bd 7146 53be 3d24 f6bd ee4d 8e3e
00000330: 32bc 4c3b 1bf9 08be cabe b73a 3659 90bd
00000340: 9879 173c b059 42bc 295a c1bc 00d1 4a3e
00000350: 0ffa fabd e012 28be afab aebe 12d7 abbe
00000360: 8a3c a3bd 715b cb3c d400 8e3d f587 f73e
00000370: 07f8 e53d b51e 1a3e 8c96 2cbc 0e05 97be
00000380: b38b 0e3e 9c9f 9c3b 5015 82bd 9b3f 3f3e
00000390: 5532 59bd 03db 69be 8e8d 0bbe 877d 903d
000003a0: be5e c33d 94c6 723c c26b 5ebd 7b41 8fbd
000003b0: 6739 413d 4198 eabc 7029 86be 0d04 84bd
000003c0: 5455 eabd 9f6f 123d 5154 b4be e1a6 97bd
000003d0: e6e1 5fbe ec15 1ebe 68c7 763e 6b46 153e
000003e0: 9ceb 85be 5f72 f43d 10db c43d e4ec 303e
000003f0: 56d9 cdbe 4ba0 69bd b8c1 32bd ae04 36bc
-0.19397864 0.10756047 -0.016470319 0.30971736 -0.04091327 -0.117072664 0.09521272 -0.1914828
-0.06679263 -0.2772904 0.12956107 -0.16562144 -0.5312482 0.04095367 -0.3035088 -0.1010097
-0.050629336 0.12563139 -0.19815166 0.017734818 -0.10473753 -0.093373924 0.09931457 -0.035534214
-0.6751289 -0.17150305 0.29309633 -0.1503099 -0.012143678 -0.214288 0.09410719 0.21029733
0.33330223 -0.08320452 -0.10284243 -0.02247692 -0.045834176 -0.4536033 -0.063572094 -0.044988193
0.12187266 0.057465088 -0.46673527 -0.0039770813 -0.030473335 -0.100271754 0.3567823 0.14432365
-0.11447827 -0.44799232 -0.07838446 -0.007402197 -0.19512714 0.05944876 0.07605223 -0.16698433
-0.15632126 -0.1979018 -0.13968544 -0.19497265 0.0519662 0.10113245 -0.08977298 -0.034600582
-0.2369879 0.00964713 0.10873832 0.09935319 0.14661759 -0.14634123 0.13967642 -0.2517951
0.18543819 0.064574085 -0.11696283 -0.37597013 -0.03030467 -0.26956445 0.35943982 -0.37393656
-0.36090338 0.12679113 0.22805919 0.05356602 -0.1258525 -0.04332766 0.14671186 0.32476762
0.11130441 0.06515762 -0.18347211 -0.47264916 -0.33816984 -0.068978384 -0.10035392 0.02208103
0.070808 0.08409031 0.2601863 -0.041618478 -0.14002575 -0.11210725 -0.23904657 0.08987514
-0.16476494 -0.39958876 -0.18642646 -0.12346106 -0.0025934707 -0.16961549 -0.6404216 -0.11723926
0.02891413 0.024289371 0.2871636 0.21609253 -0.24273908 -0.14336358 -0.20748635 -0.08568115
0.057787634 -0.011239116 0.11004771 -0.16885152 -0.3261423 0.28612366 0.13002595 -0.08665175
0.008784566 0.14119348 -0.056782436 -0.28819656 0.06842557 -0.10569359 0.039840363 0.18491459
0.019152602 0.26460847 -0.0403353 -0.16878366 -0.11536559 0.049275044 0.022546606 0.37662262
-0.5001901 0.012983725 0.27187872 0.08106864 0.039394926 -0.13875937 -0.11056438 -0.16975917
-0.15591556 -0.32276413 0.07773424 0.106589474 0.24393341 -0.20319395 -0.12153167 -0.10845276
-0.28543115 -0.4719821 0.13079354 0.07689069 -0.29298094 -0.112332106 0.11629349 -0.027354863
-0.018390577 0.27771977 0.17991675 0.06956136 -0.48497918 -0.4152033 0.19445783 -0.013771531
0.063882716 -0.009939396 0.10545206 -0.0820761 -0.26743132 0.03179772 0.1692185 -0.13962859
0.32716215 -0.043200552 -0.008601561 -0.10577377 0.09557745 -0.08774308 -0.2658372 0.085457824
-0.09727138 0.00027892963 -0.15797997 -0.3454338 0.016129443 -0.09391104 -0.07261292 -0.42998916
-0.04717803 -0.2063234 -0.12018631 0.2779383 0.0031240103 -0.13376276 0.0014018652 -0.07048266
0.009245299 -0.0118622035 -0.023602562 0.1980629 -0.12254726 -0.1641345 -0.3411536 -0.33562523
-0.07970531 0.024823876 0.06933752 0.48345914 0.11228948 0.15050776 -0.01053394 -0.29496044
0.13920479 0.004779769 -0.06351721 0.18676607 -0.053026516 -0.22837453 -0.13628218 0.070551924
0.09539555 0.0148178525 -0.054301985 -0.06994911 0.047173884 -0.028637053 -0.2620349 -0.06446085
-0.11442056 0.03575098 -0.35220578 -0.074048765 -0.21863517 -0.1543805 0.24099505 0.14577644
-0.26156318 0.11935877 0.09612095 0.17277867 -0.40204877 -0.057037633 -0.043641776 -0.011109514

network_body._body_endoder.seq_layers.4.bias f4 [128]
00000000: acf7 99bd 67ec 11bd fca2 05bd 8e45 18bd
00000010: 3675 f8bd f7f7 68bc 64f1 38bd 8096 d6bc
00000020: 4527 80bd 0882 c0bc 8a23 bbbd 9146 9ebe
00000030: 580c 93bc 89d8 5dbd 39ef 87bd 8646 e1bc
00000040: 6851 5cbc a36f 8a3b fa33 82bd 0f14 a0bd
00000050: 74c1 44bd d6bb 2bbd 6a9d 0bbd 24cb 22bd
00000060: 60b0 51bd 3c7c 73bd 3d3a 163d df52 4cbe
00000070: a073 4abe 758a a4bd 152e 53be 81ab 20be
00000080: 52d9 5b3b 46ae cbbc ba8b 04bd d60d 48be
00000090: 65fe 38bd 14c8 33bd 1b9d f9bc 1bca 39bd
000000a0: 10fc a8bd 4982 cbbe 54d6 11bd 4918 ccbe
000000b0: 74ec dbbd b1d7 b2be 568b 583d 0fac 81be
000000c0: 672b cebd 1272 9bbd 5eeb 78be 7d47 84bd
000000d0: 8cc6 09bd a801 b8bd 6c92 e7bb dae3 12bd
000000e0: b51e a8bd 3d7e 97bd d8e6 81bd 65b4 97bd
000000f0: a628 8abd 4550 20bd 04e7 e5bd 6023 6f3a
00000100: 35b9 86bd 0d7d 4bbd 9c9e debc 3a6c 68be
00000110: 2eb6 bbbd 4d11 8abd eb47 5bbd 2d67 9ebe
00000120: 1f61 06be 56f7 b3be 6529 71bd 3e58 17be
00000130: fa99 11be 0392 e0be 9c6c dcbd 9ac0 37bd
00000140: cd05 c4bc 8dc6 aabd 016a bdbd 9149 5ebd
00000150: 39f2 82bd 28d2 25bf 32a7 cabd 8e60 a6bd
00000160: 84ba 93bd ca48 09bd 0f44 35be 88cd 80bd
00000170: 6630 43bd ef5d d9bd 5357 b4bb 715d 2ebd
00000180: e67e 5cbd 9470 82bd efa7 3abd a70b 9fbd
00000190: e072 a5be d37c 3ebd fc4c 4ebb 9aa8 a2be
000001a0: 669e 51bd 7340 a3be 3f31 02bd fb39 00be
000001b0: a08a 91bd ee9a a33d f71d 34bd d904 62bd
000001c0: 49a3 b6be dcf6 1cbd ac1b 1abd 197b 8bbd
000001d0: 346c 74bd 16b5 cebd b57e 49be 8dc2 cfbd
000001e0: ee26 77bd 9ef6 cbbd ad29 c8bd d0d3 bebc
000001f0: a195 7ebd 1650 38bd 6886 67bd 7e1c ddbd
-0.07517943 -0.03562584 -0.032626137 -0.037175708 -0.12131731 -0.014219276 -0.045152083 -0.02619481
-0.0625749 -0.023499504 -0.09137638 -0.30913213 -0.017950222 -0.054161582 -0.06637425 -0.027499449
-0.013447143 0.004224734 -0.0635757 -0.07816326 -0.048036054 -0.04192718 -0.03408567 -0.03974451
-0.051193595 -0.05944465 0.036676634 -0.19953488 -0.1977067 -0.08034221 -0.20623048 -0.15690424
0.003354628 -0.024863373 -0.032359816 -0.19536528 -0.045164485 -0.04389198 -0.030470422 -0.04535876
-0.08251202 -0.39747837 -0.03560479 -0.39862278 -0.10738459 -0.34930184 0.052867256 -0.25326583
-0.10066872 -0.075901166 -0.24308535 -0.06458948 -0.033636615 -0.08984691 -0.0070670154 -0.035861827
-0.08208982 -0.07397125 -0.06342858 -0.074074544 -0.06746034 -0.03913905 -0.11225703 0.0009122398
-0.06578294 -0.049679805 -0.02717524 -0.22697535 -0.091656074 -0.06741581 -0.053535383 -0.30938092
-0.13122986 -0.3514964 -0.058877368 -0.14779755 -0.14218894 -0.43861398 -0.10762903 -0.044861414
-0.023928547 -0.08338652 -0.09248734 -0.054269377 -0.063938566 -0.647738 -0.09895171 -0.08123885
-0.072133094 -0.033516683 -0.17701744 -0.06289202 -0.04765358 -0.106136195 -0.005503574 -0.04256958
-0.053831957 -0.06369129 -0.04557031 -0.077658944 -0.32314205 -0.04650576 -0.0031478992 -0.31769258
-0.05117645 -0.31885108 -0.031785246 -0.12522118 -0.07106519 0.07988535 -0.04397389 -0.055180404
-0.35671452 -0.03832136 -0.037624046 -0.068105884 -0.059673503 -0.10093133 -0.19677241 -0.101445295
-0.06033986 -0.09959148 -0.09773574 -0.02329436 -0.062154416 -0.04499825 -0.056524664 -0.1079645

network_body._body_endoder.seq_layers.4.weight f4 [128, 128]
00000000: d562 e33b a9af 77bc 2ae4 903c d344 b2bd
00000010: 42dd e0bc 3a95 4dbb c7bf b93b 89d5 0cbd
00000020: 416f 08bb 9b7f a33c ff14 43bd 7af6 8d3d
00000030: b520 d3bc 9fd4 cabc 9822 41bd 92b2 933d
00000040: db1f 663d 666f e83c 2d05 99bd ea8f f8bc
00000050: 21fa b9bc 0b42 3dbc ab6e 483d 7a33 1f3d
00000060: 8b3c 1cbc 384d 40bd f440 ad3c dda0 4e3d
00000070: ddba 31bb d731 f93c 1039 0d3e eccb 0ebd
00000080: 1121 143d d89d 073d 28af 1dbd 9c25 3a3d
00000090: d5b0 113e 62d8 9eba 45c6 663c 6cd5 023d
000000a0: 9e90 dbbd a964 f3bb 4e92 e33d 420e 2ebd
000000b0: add0 dcbd 056b 643d 2376 25bd 0afe 5bbd
000000c0: 3166 34bd 16be 07bd eb1d 183c 647b 93bd
000000d0: 16f7 5abd 21eb f1bc c594 323d 15d3 673c
000000e0: cc5a 8fbc b16f 8ebc f029 6c3d 25af ce3c
000000f0: d1b1 913d 1cea 513d e476 953d ed80 423d
00000100: f124 e0ba 6369 d5bd 9571 f03b e639 b2bb
00000110: 9c9c a73c 1e7c 3abd 851d ccbd 597c 72bd
00000120: 8561 483d 97e0 04bd e04c eabc 1511 773c
00000130: 7bcf 733d ea97 613c 8e2b 8c3d c4fe e9bd
00000140: f22b 01ba dad4 d93c f6cf 463c 0506 b9bd
00000150: c9e3 f33b 58a4 65bd cc10 8cbd 5732 09ba
00000160: 5e74 353d 9a60 08bc e0d2 9e3c d1a7 053c
00000170: 5fe7 9e3c 7b99 d0bd fc80 25bd 4001 81bd
00000180: d99a 93bc f043 a8bc a5af a6bc a7ef 493d
00000190: 89bb 05bd 5d82 893d 43bd 163d ee6b fc3c
000001a0: b7b0 423c dd4a 4a3d f19f 7c3d e642 de3b
000001b0: e488 c9bc 5dce 65bd 7ea0 073d 3346 ae3b
000001c0: d104 e9bd bd1f d6b9 d796 6bbd 58a5 2fbd
000001d0: d058 24bc f019 5dbb a568 60bc 612f 59bd
000001e0: 29d0 04be b35e 463d 4768 3e3d 0f3a f03c
000001f0: 2c98 633c c405 31bd 1e12 103c af32 3cbd
00000200: f679 6e3d c5f1 13bd 1e29 d33d 836b 73bd
00000210: 74ce d0bc 83df 85bc 8e58 6e3c 39a0 4f3d
00000220: 4da7 193d dd41 833d ce8d ce3c 45f1 bdbd
00000230: 002e 7fbd 16df 40bc ff7a aebd 23db 183d
00000240: ed1b a43c ce46 1dbc e2a7 0cbd 33c2 a23d
00000250: 92f9 3e3c b5f5 9e3c bc55 7a3d 2c77 123d
00000260: e65a adbd cd26 ccbd aa93 683c 6a73 95bc
00000270: a211 dd3c 8474 1ebc 7bf9 1f3d 6ee7 e8bc
00000280: ae52 bc3c c97f bc3c 37ed 97bb f4f4 49bd
00000290: 7d54 29bd 05a8 a0bb 401f a83c 0389 2c3b
000002a0: a0b4 393d f404 9bbd d7f1 773c 5a0a 81bd
000002b0: 74c1 23bc 9121 be3c b6c2 c53d 9a30 0a3c
000002c0: c32d ba3c 8474 6b3d 0ebf 8c3c 8281 14bd
000002d0: ecd7 4c3d 586d 24bd 1478 013d 2e52 49bd
000002e0: befc fcbc 0687 68bd 47e0 d0bc ace9 db3c
000002f0: 31d0 aa3d 9540 c43b 3f08 f43c 735b 63bd
00000300: 6deb 333c b0eb 15bc bb50 f8bc 28a9 553c
00000310: 6971 5fba 5ae2 3fbd a06a 14be b0f9 69bd
00000320: 9db4 123e 441c 1ebd a1bc 53bd f006 ca39
00000330: 4dcf 1e3c 2201 a93b 7116 87bd bd65 c3bd
00000340: fac8 aabd d5e0 fe3c 72fe 9fba 7742 cb3d
00000350: 178b 8e3b 7e39 b7bc d5df f8bb 87c2 bb3d
00000360: d166 6c3d c0c1 e93c 9b9c 6ebd 6ffa 2c3c
00000370: 1fe6 4dbd 194d 91bd 9b0c 1bbd 8a75 07bd
00000380: 86c1 363d cd71 b63c 14e8 13bc 4450 c5bc
00000390: ee32 5cbc 8576 3dbd ab50 d03d 63b3 5b3d
000003a0: 2b22 08bc 7a48 d0bc 8580 84bc 6db1 77bd
000003b0: 8f8d 61bd 721e aebd 84eb 83bd a0c1 a83a
000003c0: 2d61 6dbb 478d 7abd c369 61bd fa20 873b
000003d0: ee40 30bd a870 90bc 1c4a cc3b d34f 3bbd
000003e0: 297e 153c be7f 9d3c b774 7a3d 52e4 973d
000003f0: dbb0 193e 6433 6a3c 2c1c 8cbb a0c1 4a3d
0.006939272 -0.015117564 0.017686922 -0.087045334 -0.027449254 -0.0031369464 0.0056686136 -0.03438333
-0.0020818266 0.019958308 -0.047627445 0.06931777 -0.025772432 -0.024759589 -0.04715213 0.07211794
0.056182723 0.028373431 -0.0747169 -0.030342061 -0.022702279 -0.01155139 0.048933666 0.03886745
-0.009535919 -0.04694864 0.021149136 0.05044638 -0.0027119436 0.030419273 0.13791299 -0.034862444
0.036164347 0.033109516 -0.03849712 0.045446023 0.14227612 -0.001211893 0.014085357 0.031941816
-0.10720943 -0.007427771 0.1111189 -0.042494066 -0.10781989 0.055766124 -0.040395867 -0.053709067
-0.04404277 -0.033140264 0.009284477 -0.07201269 -0.053458296 -0.029531064 0.04359891 0.014149447
-0.01749935 -0.017387243 0.057657182 0.02523 0.07113994 0.051248655 0.07298067 0.047486234
-0.0017100853 -0.104204915 0.007337759 -0.005439031 0.02046042 -0.045528524 -0.09966568 -0.05920062
0.048921127 -0.032440748 -0.02860111 0.015079756 0.05952404 0.013769129 0.06844245 -0.11425546
-0.0004927508 0.026590753 0.012134543 -0.09034351 0.0074429256 -0.056064934 -0.06839141 -0.00052336365
0.04430043 -0.008323813 0.019387662 0.008157686 0.019397436 -0.10185524 -0.040406212 -0.062990665
-0.018018173 -0.020540208 -0.020347426 0.049300816 -0.03264955 0.06714318 0.036801588 0.030813184
0.011882952 0.0493878 0.06167597 0.0067828773 -0.024601407 -0.056105006 0.03311204 0.005318427
-0.11377872 -0.00040840908 -0.0575169 -0.042882293 -0.01003094 -0.0033737384 -0.013696824 -0.0530237
-0.12970032 0.048430156 0.046486165 0.02932456 0.013891261 -0.04321839 0.008793382 -0.045946773
0.05822178 -0.03611924 0.10310577 -0.059428703 -0.02548907 -0.01634193 0.01454748 0.05068991
0.037513066 0.06409047 0.025214102 -0.09274534 -0.06229973 -0.011771938 -0.085195534 0.03731836
0.020032847 -0.009599401 -0.034339793 0.07947197 0.011656182 0.019404272 0.06111692 0.035758182
-0.08464603 -0.09968338 0.014195362 -0.01824351 0.026985947 -0.009671334 0.039056282 -0.028430667
0.022988643 0.023010151 -0.0046364325 -0.04930587 -0.04134034 -0.004902842 0.020522714 0.0026326783
0.045338273 -0.07569304 0.015133343 -0.063008025 -0.009994853 0.023209365 0.09656279 0.008434439
0.022726899 0.057484165 0.017180946 -0.03625632 0.050010607 -0.04014334 0.031608656 -0.04915064
-0.030882236 -0.056769393 -0.025497569 0.026844822 0.083404906 0.005989144 0.029789088 -0.055507135
0.010981423 -0.009150431 -0.030311933 0.013040818 -0.00085236743 -0.046846725 -0.14493799 -0.057122886
0.14326711 -0.038601175 -0.051693562 0.0003853361 0.009692979 0.0051576057 -0.06596077 -0.095408894
-0.083391145 0.031113068 -0.0012206568 0.099247865 0.004350077 -0.022366282 -0.007595042 0.091679625
0.05771524 0.02853477 -0.05825482 0.010557755 -0.05026829 -0.07094783 -0.03785382 -0.03307108
0.044618152 0.022271061 -0.0090275 -0.024086125 -0.013439877 -0.046255607 0.10171636 0.053637873
-0.0083089275 -0.025425185 -0.016174564 -0.06047194 -0.05506664 -0.08501901 -0.064414054 0.0012875088
-0.0036221251 -0.06116989 -0.055032503 0.004123804 -0.04303067 -0.017631844 0.0062344205 -0.045730423
0.009124317 0.019225951 0.061146464 0.074165955 0.15008871 0.014294479 -0.0042758193 0.04950106
