Maize-Runner/results/TestWalls3/EscapeMaze/EscapeMaze-37999986.pt (torch, 599135 bytes, 36 tensors)

network_body._body_endoder.seq_layers.0.weight f4 [128, 58]
000000 0c 65 20 bd b7 91 52 bc 34 06 1e be 97 48 76 bf
       -0.039158866 -0.012852124 -0.15432054 -0.96204513
000010 ee be d3 bd 2f e2 a4 3d b8 db 37 3d a8 ca bc be
       -0.10339151 0.080509536 0.044887275 -0.36873364
000020 c6 46 1a bf 4b 00 77 bd 68 43 ed 3d b9 1c 60 be
       -0.6026424 -0.060303014 0.11585122 -0.21885957
000030 5e 3f 1d 3e fe 06 86 3e b1 12 f5 3d f9 f5 a7 3d
       0.15356204 0.2617721 0.11966456 0.082012124
000040 42 1c 58 bf 37 a4 c0 3d 79 2d a4 bd 3a a6 4d be
       -0.8441812 0.094063215 -0.08016486 -0.20082942
000050 07 90 93 bd ae 44 47 3e f9 b9 0e 3e 9d e7 4d be
       -0.072052054 0.19459793 0.1393813 -0.20107885
000060 42 0f bb 3d 9d d4 0d be 2b 0b f4 3d c8 b2 02 bf
       0.091337696 -0.13850637 0.119161926 -0.5105405
000070 f9 94 86 be bd 97 8a 3e bb 65 42 bd fd be d0 3b
       -0.26285532 0.27068892 -0.0474603 0.006370424
000080 91 d5 0a bf 43 ce 7d 3e b9 aa 91 bd 7c 85 04 bf
       -0.54232126 0.24785714 -0.07112641 -0.5176618
000090 c6 45 36 3e d7 3c 4d 3c 93 63 83 3d 00 1e 9e 3e
       0.17800054 0.012526712 0.06415477 0.30882263
0000a0 1a f0 27 bf ff 68 7d bd bc 89 9d 3d 2a 70 6a be
       -0.6560074 -0.06186771 0.07692286 -0.2289435
0000b0 96 63 e6 be 8b 5b c2 3e 62 a5 96 be 98 a0 08 3e
       -0.44997853 0.37960467 -0.29423052 0.13342512
0000c0 8d 1b 9c be 9c 93 1f 3e 9d 3b be 3d 65 6d 1f bd
       -0.3048977 0.15583652 0.09288714 -0.038922686
0000d0 2d 57 04 3e d1 3a 27 3e 20 ff 4d 3c 96 c7 8d bd
       0.1292388 0.1633103 0.012573034 -0.069228336
0000e0 cd d2 9f bd 41 8d 27 3e 18 45 a0 bd f4 f6 38 3d
       -0.07803879 0.16362478 -0.078256786 0.045157388
0000f0 fd 5f f3 3c 00 c7 21 be 84 a4 91 3e 57 66 e8 bd
       0.029708857 -0.15798569 0.28445828 -0.11347645
000100 00 fa ce 3d 51 72 0a 3e 43 2e d9 3d 39 21 18 be
       0.101062775 0.13520171 0.10604527 -0.14856423
000110 fd 24 7a 3e 9d ed da 3d 5d 4b 9c be fa b5 a3 be
       0.24428172 0.106898524 -0.30526248 -0.31974775
000120 e8 6b 10 3f 0d 3d 30 3e 2f ee b3 3e ef 11 8f 3e
       0.5641465 0.17210789 0.35142657 0.2794337
000130 ae a3 07 be bf 20 88 bd a4 25 e7 bd 79 6b 8a 3d
       -0.13246033 -0.06646871 -0.11286476 0.0675878
000140 b1 89 21 bd 8a 0a 82 3e 4c 50 e3 3e fe 9f e6 bd
       -0.039437953 0.25398666 0.443972 -0.11260985
000150 3b 7c 22 3d bc 51 be 3e 88 7d e0 3e 46 7f f4 bd
       0.039669257 0.37171733 0.43845773 -0.11938338
000160 72 af 1b 3e 57 fe 44 be 5c cd 9f 3e 2b 28 0a be
       0.15203646 -0.19237648 0.31211364 -0.13491885
000170 ab e1 a2 be 1b fe 76 bd 0c 2a 29 3e 95 6a 1c be
       -0.31812796 -0.060300928 0.16519946 -0.15275033
000180 20 39 8d 3e cc 91 2c be be f5 73 3e 45 4e bb bc
       0.27582645 -0.16852492 0.23824212 -0.02286447
000190 bc e8 ca 3c 36 ed 2a be ed 78 5a 3e 7d 00 7a be
       0.02476918 -0.16692051 0.21335192 -0.24414249
0001a0 96 cb fb 3c 10 98 8a be 13 8c 8c 3e 33 82 f4 3d
       0.030736726 -0.2706914 0.27450618 0.11938896
0001b0 de db 84 3b af ff 83 bd bd a2 d9 3c b1 5d 73 3e
       0.0040545305 -0.06445252 0.026566857 0.23766209
0001c0 c9 6e a3 be e3 5b d8 3d 86 f6 2f 3d 71 08 3b bd
       -0.3192046 0.10564401 0.042959712 -0.045662347
0001d0 6f 52 44 bf 75 50 73 3d ed dd 1d 3e ae ed 63 3d
       -0.76688284 0.0594029 0.15416689 0.05564659
0001e0 cd 4f 91 be 0d 52 15 be 49 37 2e 3e 62 60 80 3e
       -0.28381196 -0.14582081 0.17013277 0.25073534
0001f0 a6 c5 22 bf a5 a1 eb 3d 07 e8 2f be c3 fd 13 be
       -0.6358284 0.115054406 -0.17178355 -0.14452271
000200 db 16 08 bf d6 b5 63 be ff a2 87 3e 37 f4 c9 3e
       -0.53159875 -0.22237334 0.26491544 0.39444134
000210 7a 74 13 bf 72 d1 a2 bd ec a4 35 3d dd 13 51 bf
       -0.57599604 -0.07950105 0.044346735 -0.81670934
000220 54 25 d2 3e d2 28 80 bd 20 83 46 3e b6 fa a8 3e
       0.41044104 -0.06257786 0.19385958 0.33003777
000230 9a 9f 06 bf d5 05 46 3e 83 da bf be 4a 0a 6b bf
       -0.5258728 0.19338162 -0.374714 -0.91812575
000240 90 25 8f 3c f9 b1 c3 be 56 3e c6 3e d4 a7 99 3d
       0.017473966 -0.3822172 0.38719434 0.07502714
000250 f8 3f ef be 53 f3 8c 3d 5f 45 31 bf 04 e2 79 bf
       -0.46728492 0.06882348 -0.69246477 -0.976105
000260 c4 04 17 3e fa 10 0f 3d 97 63 2c be 97 f7 05 be
       0.14747912 0.0349283 -0.16834866 -0.1308273
000270 03 35 30 3d 99 a4 9d 3e 0e 40 f0 be da 9e 6e bf
       0.043019306 0.3078964 -0.4692387 -0.9321114
000280 84 88 f0 3e 01 4b 13 bd e9 4e ae be f0 53 62 be
       0.46979153 -0.0359602 -0.3404458 -0.22102332
000290 5f ec 9f 3e 21 97 50 be b8 13 d1 be c5 fb 53 bf
       0.31235024 -0.20370151 -0.40835357 -0.82806045
0002a0 be 76 74 3e 6c 67 86 3d d4 c4 ff 3d 9b 2a e1 3d
       0.23873422 0.06562695 0.12488714 0.109944545
0002b0 69 a3 24 be ac a6 2d bd ea d0 d1 be da 29 97 be
       -0.16077961 -0.04239528 -0.409797 -0.29524118
0002c0 d1 69 83 3d 1e 4f 81 3e b8 2f 28 bf 08 53 86 3d
       0.06416667 0.25255674 -0.65697813 0.06558806
0002d0 3d be ab bc 5f c6 25 3e c6 70 e8 3e 90 9f 0e 3d
       -0.020964736 0.16188954 0.4539854 0.03482014
0002e0 97 49 78 be 6b fe 6d 3e e2 36 2a be 51 6d 8a bc
       -0.24246822 0.23241584 -0.16622499 -0.01689783
0002f0 64 72 87 bd db 6b de bc ab 55 fe be 6f 16 07 be
       -0.06613615 -0.027151039 -0.49674734 -0.13192151
000300 81 f6 51 3e 7c f6 9d 3e ab 2a 9a 3e 11 ce c2 bb
       0.2050419 0.30852115 0.30110678 -0.005944975
000310 72 1f 46 be b4 9a a0 be 2e 89 76 bf 35 9d 02 3e
       -0.19347933 -0.3136803 -0.9630307 0.12755282
000320 61 b5 8b 3c 38 3f 56 3e b9 1f 99 bb cc ad bd 3d
       0.017054262 0.20922554 -0.004672971 0.09261665
000330 e5 f8 51 be e3 f6 1a bf 72 66 70 bf 32 96 77 3e
       -0.20505102 -0.6053297 -0.9390632 0.24178389
000340 af 8e ba bd a9 40 93 3d a0 34 31 bf 85 14 8b 3d
       -0.09109246 0.07190067 -0.69220924 0.06791023
000350 70 98 97 3e 66 dc 60 be 0b 57 48 bd 16 87 95 be
       0.29608488 -0.21959075 -0.048911136 -0.29204625
000360 91 a9 af 3e 19 ce 19 3d 4c 8b 93 bd 31 16 df 3c
       0.34309056 0.037550066 -0.07204303 0.027232261
000370 ca e9 10 3d b6 b8 ea be 11 5f 20 3f d5 e9 71 be
       0.03537921 -0.45844048 0.6264506 -0.23624356
000380 ce e2 f2 bc 20 7d 41 be 23 ed 3d be 8f 25 39 3e
       -0.029649165 -0.18895388 -0.18547492 0.18080734
000390 c1 39 36 3e 5f 43 41 bd a0 64 8c 3e c3 8c 65 3e
       0.17795469 -0.04718339 0.2742052 0.22416978
0003a0 25 cd ae bd c5 27 d8 3d df f5 8e 3e 4f f8 c9 bd
       -0.08535222 0.105544604 0.2792196 -0.09861814
0003b0 49 71 1f bf 74 e2 ad 3e 2f e9 4a 3e 62 f4 36 3e
       -0.62282234 0.33961833 0.19815515 0.17866662
0003c0 ea 0a 1f 3e 66 eb 26 bd c2 9a a9 3e b8 f2 9d be
       0.15531507 -0.040751837 0.33125883 -0.30849242
0003d0 b0 73 25 be cc 6e 46 3e cf 1f 69 3d b6 be 98 be
       -0.16157413 0.19378203 0.0569151 -0.29833
0003e0 51 1d ab 3e d7 d8 12 3e e7 1b 12 3e d4 bd b2 bd
       0.33420804 0.1434053 0.14268456 -0.08727613
0003f0 b7 87 ab be b9 d6 ac 3d 8f 9f 3d 3d bd 0c 63 be
       -0.3350198 0.084393926 0.046294745 -0.22172828

network_body._body_endoder.seq_layers.0.bias f4 [128]
000000 45 48 95 3c 75 ee 83 bb 9f d3 86 3b 37 e7 23 bd
       0.018222937 -0.004026229 0.0041145827 -0.040015426
000010 ed d9 17 3c e2 28 9e bc 30 b3 86 bd 7c a2 38 3d
       0.009268266 -0.019306604 -0.06577146 0.045076832
000020 56 9d 03 3d 0f 91 ce 3b 0e 5a 2f 3d 7e 9c 7d be
       0.03213247 0.0063039134 0.042810492 -0.24766728
000030 61 4f 19 bd da cd 1c bd 12 56 9d 3d 0f a0 08 bd
       -0.037429217 -0.038282253 0.07682432 -0.03335577
000040 b4 1d da 3b b0 bb ef bb b5 10 19 bd 15 d5 07 bd
       0.006656373 -0.0073160753 -0.03736945 -0.033162195
000050 cb a4 aa be 88 4c 39 bd e2 37 97 3c ba ef 26 3c
       -0.33328852 -0.045239 0.018459264 0.010188991
000060 66 b3 24 3c c6 23 26 bd af 1d 44 3c fb c4 b0 3c
       0.010052538 -0.04056146 0.011969968 0.021578303
000070 e4 58 0a be 9a 8a 04 3a 09 94 81 3c 36 ea d6 bb
       -0.13510472 0.00050560536 0.015817659 -0.006558682
000080 d5 58 a4 be 05 db d8 3c b0 cf b3 be bb 12 71 bc
       -0.32099023 0.026471624 -0.3511939 -0.014713938
000090 e1 39 21 3d 16 00 3b be 50 e4 83 3d fc f0 ef bb
       0.03936184 -0.18261752 0.064400315 -0.0073224287
0000a0 f8 6a 07 3d be 3c 23 3d fb 62 33 bc d7 fe 14 3d
       0.033060998 0.03985285 -0.010948892 0.036375847
0000b0 6c ef 18 bd 06 0d 84 be 94 63 7e 3b a3 c3 48 be
       -0.037337705 -0.25791186 0.0038816677 -0.1960588
0000c0 8b ba b3 3c 3b 19 10 3c 96 dc 2b bc 28 05 ae be
       0.021939537 0.008795078 -0.0104896035 -0.3398831
0000d0 5f 48 97 be 89 f5 68 be 4f bb 0e 3c 4b 5f 6b bd
       -0.29547402 -0.22749914 0.00871165 -0.057463925
0000e0 d6 3b cb bd fc 96 3b 3d eb 3d 4c 3c d5 bd 11 bd
       -0.09923522 0.045798287 0.012465934 -0.03558143
0000f0 ac 1a 12 3a f1 a8 0b bd ec c5 34 bd 7c e9 a8 3d
       0.00055734324 -0.034096662 -0.044134066 0.082476586
000100 d0 8f 41 3d fd 3c a0 bb 84 45 94 bc de ee 79 bd
       0.04725629 -0.004890083 -0.018099554 -0.061018817
000110 cb 14 0e bd bf a6 0e 3c 77 b9 0d be 02 13 81 be
       -0.0346878 0.008706748 -0.1384028 -0.25209814
000120 2b d8 7c 3d 33 12 93 bc 7b 1b 55 bd 3a 85 ac be
       0.06172959 -0.017953014 -0.05202816 -0.33695394
000130 d1 8f 84 bc 2c 7a f4 bc 5e fb b2 bc bc 0d 8f 3d
       -0.016181858 -0.029843412 -0.021848377 0.069850415
000140 25 39 01 3c b9 25 3d 3d fa e7 1a bd 96 b1 52 3b
       0.0078871595 0.046178553 -0.037818886 0.0032149306
000150 36 c4 90 3d 62 85 29 bc e4 75 e2 bc 5f 2c 87 be
       0.07068674 -0.010346742 -0.027644105 -0.2640104
000160 cf f3 e8 3a e3 ef ac 3c fb 2b c5 3a 9d e4 2e 3d
       0.0017772856 0.02111048 0.0015043014 0.04269849
000170 ea fc ff 3b 3e e1 85 be 90 34 0b 3d 5a 99 b2 3d
       0.007812132 -0.2614841 0.033985674 0.08720656
000180 8c cd 8d be 32 d7 95 3c de e6 0b be e0 e5 df 3c
       -0.27695882 0.01829109 -0.13662288 0.027331293
000190 4e 78 4a bc 98 ea 15 3d 67 10 d3 bc 32 6c ad be
       -0.012357784 0.03660068 -0.025764657 -0.3387161
0001a0 84 96 bb 3c 2e 14 50 3c 61 f5 34 bd 68 f4 bd bc
       0.02289892 0.012700124 -0.044179324 -0.023187831
0001b0 c3 d7 28 3c 9a f6 98 bd da e7 d5 bc ca d9 3f be
       0.010305348 -0.074689105 -0.026111532 -0.18735424
0001c0 f8 4e 29 bd 57 39 43 bb e8 41 07 bd fc 9d 07 3d
       -0.041335076 -0.0029788816 -0.033021837 0.03310965
0001d0 b0 29 c4 be 49 f8 24 3d d4 3a 5e 3c f4 e3 19 3d
       -0.38313055 0.040275846 0.01356383 0.03757091
0001e0 3c b6 b1 be a2 52 95 bc 2d 46 d9 bc 00 f0 8c bb
       -0.34709346 -0.018227879 -0.02652272 -0.004301071
0001f0 81 0a ac bd 80 7a 4d bb d9 7a af bc 5e a4 92 3d
       -0.08400441 -0.0031353533 -0.021420883 0.07160257

network_body._body_endoder.seq_layers.2.weight f4 [128, 128]
000000 59 0d a3 b9 91 00 c0 3d 98 dc 13 bf ef 41 b9 bd
       -0.00031099727 0.09375108 -0.57758474 -0.09045779
000010 a2 41 7f be 8b 88 57 be a1 de d4 be 73 fc 1e 3d
       -0.2492738 -0.21048181 -0.41576102 0.038814973
000020 d2 81 27 3e 4f 18 e5 3d 20 5c 22 bd 4a 64 f8 bd
       0.16358116 0.11186277 -0.03963864 -0.121285036
000030 73 6e fd bd 29 2f 5c bd d4 ef 1a be 40 86 0f 3e
       -0.12374582 -0.053755913 -0.1513055 0.14016056
000040 73 13 a7 bd ef 60 d3 bc 17 f6 ed 3a ea 29 af be
       -0.081580065 -0.025803057 0.0018155006 -0.34211665
000050 df de 09 be 7f a1 78 be 4d d6 e4 bd 00 08 72 be
       -0.13463925 -0.24280356 -0.11173687 -0.23635864
000060 18 bf 0c 3c b9 f9 70 bb 6d 27 ee be 20 0b 21 be
       0.008590482 -0.003676994 -0.46514454 -0.157269
000070 20 e2 98 bb fa 59 7b 3e a5 1d 05 3e e8 e0 67 3e
       -0.004665628 0.24546042 0.1299959 0.22644389
000080 7e bf db bd 5e fd 49 bd f5 ef 38 bd 30 a5 c6 be
       -0.107298836 -0.049313895 -0.045150716 -0.38797903
000090 f5 bb 4b be ce 0e d7 be 2f ca 85 3d a4 fb a2 bb
       -0.19895919 -0.42003483 0.06532704 -0.0049738456
0000a0 42 bf c6 be a3 35 0b bf 73 21 ac 3c e9 98 a4 bc
       -0.38817793 -0.5437872 0.021012044 -0.020092444
0000b0 40 75 29 3e 54 7f 5c bd eb 83 e0 be 43 71 5c bd
       0.16548634 -0.053832367 -0.43850645 -0.053818952
0000c0 f1 7e 3a 3c e1 73 a8 be b2 17 9a bd 2b 1c 17 bd
       0.011382804 -0.3290091 -0.07524051 -0.036892097
0000d0 6c ec 5b be 2e a0 dd bd 1b 90 1a be b1 3f 70 3c
       -0.21476907 -0.108215675 -0.15094034 0.014663623
0000e0 ef fe 91 be 1e d8 48 be dc d1 3c be ce 7f a0 be
       -0.2851481 -0.19613692 -0.1843943 -0.31347507
0000f0 f1 7f bc 3c 44 67 f1 bd 13 f4 31 be 68 86 b0 3e
       0.023010226 -0.117872745 -0.17378263 0.34477544
000100 cc c0 33 3d 25 0e 23 be 20 bb f1 bc bd 80 07 3e
       0.043885037 -0.15923364 -0.029508173 0.13232704
000110 eb 5a e4 bd 4c 23 7c 3d 6f d7 11 be c9 19 d0 bd
       -0.11150154 0.0615571 -0.14242338 -0.10161168
000120 6d 2b e8 bd 4a b0 79 39 de 3c d8 3c ba 36 94 be
       -0.11336408 0.00023812163 0.026396211 -0.28948003
000130 ab e5 c8 bd 13 21 94 bd d8 c8 7d be 52 c9 20 3e
       -0.09809431 -0.07232871 -0.24783647 0.15701798
000140 22 60 ab bd 89 5f 69 3d 82 92 6e be 7f 09 e6 bd
       -0.08367945 0.056975875 -0.23298076 -0.1123228
000150 a0 6f c3 3c d3 07 89 be 48 cf 97 3d 8d ad 88 3d
       0.023856938 -0.26763782 0.07412583 0.06673727
000160 6e 67 36 be 63 b6 a6 3d ff 5f 03 be 03 a7 a4 be
       -0.17812893 0.08140256 -0.12829588 -0.3215867
000170 b5 e8 38 3e e2 b6 c0 3d 24 34 3b 3d 14 76 b0 be
       0.1805752 0.09409882 0.045704022 -0.34465086
000180 ff 75 34 bb e1 8a a5 be a9 6a 1e be 96 51 be 3a
       -0.0027536151 -0.3233252 -0.15470375 0.0014520164
000190 30 5e ba 3d 81 26 4f 3e a9 ea bb 3d f4 6a f1 3d
       0.09099996 0.20229532 0.09175617 0.11787978
0001a0 ad 2c 8c be ae e2 0d bf 73 a6 39 3d 98 99 f0 bd
       -0.27377835 -0.5542401 0.045324754 -0.11748046
0001b0 16 10 c6 3c 29 90 52 bb c0 45 f4 3d 85 62 fd 3c
       0.024177592 -0.0032129383 0.11927366 0.030930767
0001c0 dd 61 1d 3b fd 96 9f bd de a6 11 bd e3 41 4a 3e
       0.002401463 -0.077924706 -0.035559528 0.19751696
0001d0 91 93 95 3d 64 de f6 bd c5 57 5a be cb 45 49 3e
       0.07303537 -0.120541364 -0.21322544 0.1965553
0001e0 38 05 ae be 20 b8 0e bd 9e b0 5b be 02 da 07 bf
       -0.33988357 -0.034843564 -0.21454093 -0.5306703
0001f0 8b f6 02 be af 11 06 bd b3 b8 44 3d 35 0c 14 bc
       -0.12789361 -0.03273171 0.048027705 -0.0090361135
000200 6b 84 94 bc d2 b4 ea 3d 41 67 3f 3d 2f 96 2d 3d
       -0.018129548 0.1146027 0.04672933 0.042379554
000210 51 72 eb 3b 3a ef ad 3d f0 88 30 3d 61 9d 6d bd
       0.0071852584 0.084928945 0.043099344 -0.058011416
000220 ed 60 88 3d 75 11 82 bd d7 04 cc bb e6 6d dc bd
       0.06659112 -0.06350986 -0.006226163 -0.10763149
000230 a7 aa 8c bd 94 2a 5c 3c 8c b1 44 3d b0 42 bb bd
       -0.06868487 0.013437886 0.048020884 -0.09143579
000240 32 62 08 3d d8 46 06 bc ab 26 12 3d 27 06 29 3d
       0.03329677 -0.008195601 0.035681408 0.041265633
000250 8e 8c e1 bd 98 14 6b 3d c9 fc 6b 3d 22 1b 4a 3d
       -0.11013137 0.057392687 0.05761412 0.049342282
000260 32 9d 51 bd 48 4e 6e 3d 11 96 75 3d 22 9f 64 3d
       -0.051175304 0.058180124 0.059957568 0.055815823
000270 ff 85 c8 3d 1f d4 13 bd 0f 57 a6 bc 8f ee 11 be
       0.09791183 -0.036090966 -0.020305185 -0.14251159
000280 f4 a0 d4 3c da c9 54 ba 70 96 bd 3d d6 21 2a bd
       0.025955655 -0.00081172364 0.09257209 -0.041536175
000290 2d 6c 3c 3d ac cd 01 3d c4 65 b1 3c ea 67 ab bd
       0.046001602 0.031690285 0.021654971 -0.083694294
0002a0 9b d9 24 bc 4f f2 a8 bd 66 84 55 3b 4c 21 ee 3d
       -0.010061647 -0.08249342 0.0032580136 0.116274446
0002b0 7d 58 5a 3d 63 98 f9 bc 8e b3 c9 bd e7 b2 ac 3d
       0.053307045 -0.030468171 -0.098487005 0.084325604
0002c0 7d 5a 12 be 6e a5 01 3d a6 e9 11 3b 9a 05 b2 bd
       -0.14292331 0.031651907 0.002226451 -0.08692475
0002d0 83 6d de bd a2 9c a7 b9 5a 04 18 be 53 87 10 bc
       -0.108607315 -0.00031969423 -0.1484541 -0.008821326
0002e0 5e 0a 05 3c 9a b7 94 3d 70 2c 97 bd ff 2f 80 3d
       0.0081201475 0.07261582 -0.07381523 0.062591545
0002f0 05 48 6e 3d 9f 9f 37 3d 05 55 02 be 0c 2d ba bd
       0.058174152 0.04482996 -0.12727745 -0.09090623
000300 81 48 26 bc ff e2 3d bc 6d d9 f1 bc 85 bd 17 be
       -0.010149122 -0.011589765 -0.029522622 -0.1481839
000310 56 aa 95 3d 83 5f 99 3d 6d 0b 77 bd 84 fb b3 bc
       0.073078796 0.074889205 -0.06031363 -0.021970518
000320 ff 86 a7 bd f3 fa 49 be f5 25 7f bd b9 d0 e7 bd
       -0.08180045 -0.19724636 -0.062292058 -0.113191076
000330 c0 35 16 bd 71 b7 9c bd e3 d1 65 bd dc 35 06 3d
       -0.036672354 -0.07652176 -0.056108367 0.032766208
000340 63 ee b3 bc 33 ae 83 bd 42 43 27 3d 82 c7 df bc
       -0.021964258 -0.0642971 0.040835626 -0.027316812
000350 7c de 93 bd b8 1c 57 bd 1a 2d 93 3d 95 23 76 be
       -0.0722017 -0.052517623 0.07186337 -0.24037011
000360 fb 1d c0 3a 69 fd 9b bb 56 82 87 3d 5e 65 7b 3d
       0.0014657372 -0.0047604335 0.066166565 0.06137597
000370 c0 a0 c3 3c b5 bb 6a be 5d 7c 31 3d eb ba e5 3c
       0.023880363 -0.22923167 0.043331493 0.028043231
000380 c4 01 78 be 3f fe 40 be 4d bb a7 3d 8e 6c 45 bd
       -0.24219424 -0.18846987 0.08190022 -0.04819923
000390 35 de 93 bd 57 6b 0b 3e d5 77 49 bd da 01 16 be
       -0.07220117 0.13615166 -0.049186546 -0.14649144
0003a0 f5 76 82 3a c9 76 4b bd 29 d6 b2 3d f3 1a d4 3c
       0.0009953665 -0.04967383 0.08732254 0.025891757
0003b0 3a 48 23 3c 3f 2e 86 3c 07 63 75 b9 9c df 23 bd
       0.009965951 0.016379474 -0.00023401911 -0.040008172
0003c0 cf 8d 09 3a 43 72 07 3d b3 e9 83 3d d1 1b 23 bc
       0.00052472664 0.033067953 0.06441059 -0.009955362
0003d0 c9 3b 34 3d 1b bb 39 bd 6a 86 2b 3d aa ff e6 bc
       0.044002328 -0.045344453 0.041876234 -0.028198082
0003e0 9a 4e 7b bd 5d fb 34 bb 3e d1 f7 3c 2e 59 ed bc
       -0.061354257 -0.0027615645 0.030251142 -0.028973188
0003f0 93 59 ea 3d 44 6b b9 bc 9d e8 4d bc 4b bb b4 bd
       0.11442866 -0.022634156 -0.012567666 -0.08824786

network_body._body_endoder.seq_layers.2.bias f4 [128]
000000 d7 e2 a6 3d 4b 17 3b 3c 82 0e 01 be a4 ce 3c bd
       0.08148735 0.011419128 -0.1260319 -0.046095505
000010 77 9f b2 bd ad 67 0f be b1 88 2b 3d f2 23 f3 bb
       -0.08721822 -0.14004393 0.041878406 -0.0074200565
000020 90 3b 3d bd 7d 65 a3 3c 0f bb 28 bb 9b d7 1b 3c
       -0.04619938 0.019945854 -0.0025746261 0.009511854
000030 a4 29 f7 bd 44 1c 9c 3c ff 7e c8 be bd 6d 85 bd
       -0.12068489 0.019056447 -0.3915939 -0.065150715
000040 2a 32 c0 bb e8 27 31 bb 3c 5f a8 bd 96 36 de bc
       -0.005865355 -0.0027031843 -0.082212895 -0.027125638
000050 ea f2 b4 bd 77 2b ea be cf 24 25 be 3e ca 4a bd
       -0.08835395 -0.45736286 -0.16127323 -0.04950928
000060 3e bc af bb d6 52 fa bc fb 22 6d 3c 0d 13 89 bd
       -0.0053630164 -0.030557077 0.014473672 -0.06693087
000070 19 fa 4a bc bc ff 83 bd 0a a0 c9 bd 5f 3f a4 3d
       -0.0123887295 -0.06445262 -0.09844978 0.080198996
000080 d4 41 1a bd e4 bd d3 bc fb d9 0e bd e8 4a ca be
       -0.037660435 -0.025847383 -0.03487585 -0.39510274
000090 e1 23 bb 3b cf cb 2a bd 0c 1b af bb 7a 5b b0 bd
       0.005711064 -0.041698273 -0.0053438004 -0.08611198
0000a0 e4 47 2e be 40 27 6d be ae c8 d5 bd c4 f5 27 be
       -0.17019612 -0.23159504 -0.10438667 -0.16402346
0000b0 60 c5 96 3c 1e ce 68 bd 3d 21 0a be 72 8f 23 bd
       0.018404663 -0.056837194 -0.13489242 -0.039931722
0000c0 37 bc 23 bd d6 76 a8 bc da 3e 6c bd 1d e0 a5 bd
       -0.039974418 -0.020564478 -0.057677127 -0.08099387
0000d0 21 d8 12 3d 4c 1f 69 3c 42 06 cb bc a7 08 7f bc
       0.035850648 0.014228653 -0.024783257 -0.015566028
0000e0 8c 4b 51 bd 3b be 0c bd 5d 45 e8 bc 30 37 07 be
       -0.051097438 -0.034361105 -0.028353387 -0.13204646
0000f0 7a 5e 34 be 18 45 0e 3d 0f 2f 95 be f0 81 0e 3d
       -0.17614165 0.03473386 -0.29137465 0.034791887
000100 c8 10 04 be 65 8b b5 bc ba de 02 3d 80 47 99 bd
       -0.12897027 -0.022161195 0.03195069 -0.07484341
000110 d1 2b 02 bd e2 5c 6e 3d 33 89 08 3d 2c 09 4e bc
       -0.031780068 0.05819405 0.03333397 -0.012575429
000120 e0 06 05 be 88 66 0b bd 32 8c 54 be 90 85 52 bc
       -0.12990904 -0.03403333 -0.20756605 -0.012849227
000130 d7 f9 e5 bb 52 d5 80 bd e7 8d 8f bc 6e 33 64 bd
       -0.0070183086 -0.062906876 -0.017523719 -0.05571311
000140 89 4a 0e bd 68 c5 14 bd c0 4d ed bd 65 68 03 3c
       -0.03473905 -0.036321074 -0.11587095 0.008020495
000150 a4 82 4d bd 61 b1 7b 3d f4 75 c6 bd f6 b5 db bd
       -0.050173417 0.06144846 -0.096904665 -0.10728066
000160 a8 9e 74 3c 91 79 fb 3c b5 23 08 be 07 09 42 bd
       0.014930405 0.030697616 -0.13294871 -0.04737189
000170 45 8e 54 3b 7d a2 cc bd 28 b0 2f bd bb 05 90 bd
       0.0032433432 -0.0999193 -0.042892605 -0.07032343
000180 a2 60 ae bd ba 41 48 bc ee 74 3f 3b 25 ff 60 be
       -0.08514525 -0.012222702 0.0029213983 -0.2197233
000190 10 73 a0 3c 67 de 99 bc 74 b9 95 bd 3e 06 dc bd
       0.019586116 -0.018782808 -0.07310763 -0.10743378
0001a0 b5 da 06 bd 1f ff da 3a 97 31 c7 bc 32 aa 0e bd
       -0.03292342 0.0016708112 -0.024315638 -0.03483028
0001b0 f0 b4 2e be 8f e5 cb bc 2d 6d 87 bd a6 eb 0a bd
       -0.1706121 -0.024889736 -0.066126205 -0.033916138
0001c0 84 fd 97 bd 53 da 9f be 24 ed 55 bc d3 2e 3b bd
       -0.07421401 -0.31221256 -0.013057027 -0.045698952
0001d0 cc 14 c2 bc 25 50 23 bb 6b ff 4e be 94 22 2c bd
       -0.023691557 -0.0024919596 -0.20214622 -0.042025164
0001e0 30 c8 98 bd 08 fc 92 bd 45 dc be 3c 63 ad ba bb
       -0.07460058 -0.071769774 0.023298392 -0.005696939
0001f0 44 86 20 bd 9d f3 09 3d 88 01 b1 bd 48 b3 99 bc
       -0.039190546 0.033679593 -0.0864287 -0.018762246

action_model._continuous_distribution.log_sigma f4 [1, 2]
000000 41 27 bd bf b7 4b 65 bf
       -1.4777604 -0.89568657

action_model._continuous_distribution.mu.weight f4 [2, 128]
000000 c2 20 3f be ac 83 96 3b 91 5b 53 bd 1d 66 3e bc
       -0.1866484 0.004593333 -0.051600996 -0.011621025
000010 b3 c6 15 3b 1b a1 c0 3d b5 d6 96 bc 24 7f 5a bb
       0.002285403 0.094057284 -0.018412927 -0.0033339942
000020 6a e6 8a bb c0 31 a9 3b 7d 56 07 b9 79 c4 5f bb
       -0.0042388933 0.0051634014 -0.00012906823 -0.0034144206
000030 ed d8 b1 bd df 32 48 b8 a8 5f 95 3c 35 8b 2d 3c
       -0.086839534 -4.7731093e-05 0.018234089 0.010592272
000040 69 83 35 3b fc 78 2f 3c fb ee 8e ba 98 8e 15 3c
       0.0027696735 0.010709997 -0.0010904962 0.009128235
000050 a7 ee 1a bd 56 19 66 3c 9e 75 1b 3d 05 c0 c9 bd
       -0.037825253 0.0140441265 0.037953965 -0.09851078
000060 a0 e1 a0 bb 02 81 94 bd cc 2d e4 ba 7d bf 21 bd
       -0.004909709 -0.07251169 -0.0017408668 -0.039489258
000070 e8 59 4b bd 26 09 35 3d 0b 92 12 3d 99 54 0f be
       -0.04964629 0.044198178 0.03578381 -0.13997115
000080 cb ef dc 3a d8 40 49 ba 45 52 a3 3b 39 d0 01 3e
       0.0016856132 -0.0007677204 0.0049841725 0.12677087
000090 21 f4 7f 3b c0 56 3b bb db 59 9e 3b db 20 2d 3d
       0.0039055424 -0.0028585643 0.004832489 0.04226766
0000a0 73 bd b3 3d 00 a6 dd 3d 70 d8 78 3c 5f 94 2f 3e
       0.08776369 0.108226776 0.0151883215 0.17146443
0000b0 d0 a9 2a b8 c3 9d 98 3b f1 db 8f 3d ea a1 76 bb
       -4.068931e-05 0.0046574785 0.07024372 -0.003763313
0000c0 18 56 35 3b 33 d8 c3 bb 2c df 34 bb 58 f4 01 bc
       0.0027669724 -0.0059767007 -0.002759884 -0.007931791
0000d0 11 a9 da bb 43 90 91 bb 12 32 b2 bc d2 ae 14 bb
       -0.0066729863 -0.004442246 -0.021752391 -0.002268721
0000e0 de bc 8a ba 1d 6f 63 bc 26 02 21 ba cf 85 2a 3e
       -0.0010584851 -0.013881472 -0.0006141983 0.16652606
0000f0 54 04 c1 3d 76 a0 62 3b 00 52 c2 3d 49 fc a1 ba
       0.09424654 0.0034580505 0.094882965 -0.0012358512
000100 52 9f 2f 3d 72 e3 d9 3a 09 f8 b1 bd fa de c5 b9
       0.04287655 0.001662357 -0.08689887 -0.000377409
000110 0a 07 86 bb 31 8a a4 3b e5 8e 22 3c b9 80 88 bc
       -0.0040901946 0.0050213565 0.009921764 -0.016662942
000120 a8 74 5b 3e 40 c7 d1 3b 82 61 9e 3d 21 6e 8c bd
       0.2143122 0.0064019263 0.07733442 -0.06856943
000130 30 c5 eb b9 12 d7 9a ba 74 1b b3 bc d2 69 c2 3a
       -0.0004496961 -0.0011813364 -0.021863677 0.0014832562
000140 6f 91 f6 ba cf a1 52 3b ce 3c 3f bc 01 18 b4 bb
       -0.0018811653 0.0032139902 -0.011672212 -0.0054960256
000150 36 c3 03 3d 29 6c a7 bd 52 02 31 3c 36 da fc 3c
       0.03216859 -0.08174927 0.010803776 0.03086577
000160 07 af b0 bb 99 0d 9c 3a 73 29 ee 3b 5f 25 0f bb
       -0.0053919586 0.0011905908 0.0072681247 -0.0021842343
000170 d9 f2 6d bb b5 ea be 3d 97 b0 52 bc b6 af 98 3a
       -0.0036308079 0.093221106 -0.012859485 0.0011649046
000180 2e 3b 1b 3d ba de 55 bb 91 70 9d 3b 1d 07 37 3c
       0.037898235 -0.0032633976 0.0048046787 0.0111711295
000190 99 5f 81 bb 9b d0 5f bb d6 ef 9c 3c 13 ff 4e 3a
       -0.0039481637 -0.0034151438 0.019157331 0.00078962854
0001a0 29 4c 24 3a 06 2e d0 3a 2d 9c 58 3c 00 54 dd 3b
       0.0006267452 0.0015882857 0.013220829 0.0067543983
0001b0 4a c3 78 bd 1c 41 47 bd 96 32 35 bd e0 58 d8 3b
       -0.060733117 -0.048646078 -0.044237696 0.0066023916
0001c0 6c 6b 1f 3b b5 60 06 3e 99 08 ce 3c 06 ab b8 3b
       0.0024325503 0.13122828 0.025150584 0.005635622
0001d0 81 9d a9 ba 36 66 9a ba 24 ec e3 3d 95 fc 39 bc
       -0.0012940617 -0.0011779729 0.111290246 -0.011351724
0001e0 03 37 29 3c 19 7a ba bb 46 f1 c1 3b 78 b6 6c bd
       0.010328057 -0.0056908247 0.0059186546 -0.057791203
0001f0 13 0f 33 3a f0 68 50 bb 0b 2d 6a 3d 80 cf 68 bc
       0.00068305543 -0.003180083 0.057171863 -0.014209628
000200 6c 5d 2d 3c 43 aa c8 3c 78 66 5f bc d8 e9 d6 3b
       0.010581356 0.02449525 -0.01363527 0.006558638
000210 d7 97 65 3d fa 0a 0f be 9d 03 24 bd 20 fd 0e 3b
       0.05605301 -0.13969031 -0.04004251 0.0021818355
000220 89 65 89 bc a3 74 ee 3c c1 26 10 bc ee d4 a8 3b
       -0.016772049 0.029108351 -0.008798302 0.0051523363
000230 ba b4 31 ba e2 1c bb 3a 97 dd 99 3d 85 0c ae bc
       -0.00067789445 0.0014275576 0.07512968 -0.021246204
000240 f7 f0 62 bb 09 33 88 3c 07 35 25 bc 98 c3 1d 3c
       -0.003462849 0.016625898 -0.0100834435 0.009629153
000250 18 61 ec bd fa 09 fa bb b5 04 a5 bd 21 82 64 3c
       -0.11541957 -0.007630584 -0.080575384 0.013947041
000260 93 ac a9 bb 10 18 86 3d 77 75 5b ba e9 75 20 bc
       -0.005178043 0.06547558 -0.00083716906 -0.009793737
000270 8a 4b 8f 3e 59 dd 44 3e f9 98 53 3e 64 9b 68 bc
       0.2798732 0.19225062 0.20663823 -0.014197204
000280 7f e4 b6 bc 0b 44 90 bc 34 4e 0c 3d 3d 3d 99 3c
       -0.022325752 -0.01761057 0.034254268 0.018705959
000290 3c 5d f8 3b 4a 64 f3 bb 17 65 c6 3a 59 66 0e be
       0.007579474 -0.007427727 0.0015136328 -0.1390623
0002a0 9b d5 80 be 24 6c f2 bd cc 58 29 3e 6a ee 38 bd
       -0.25162968 -0.118370324 0.1653778 -0.045149244
0002b0 75 e0 03 3c b3 45 be bc 38 06 1a 3d cf 31 97 bc
       0.00804912 -0.023226595 0.037603587 -0.018456368
0002c0 8b 74 30 bc f8 c2 79 bb 94 55 95 3b b6 6b c2 ba
       -0.0107699735 -0.0038110595 0.004557321 -0.0014833126
0002d0 33 8c 41 bc 4e ef 52 3c 11 0f f0 bb 0d aa b4 bb
       -0.011813211 0.0128744375 -0.007326015 -0.0055134357
0002e0 3e 1c 3e 3c f8 85 d5 3c cd 79 4e 3b 0c ae c1 3c
       0.011603413 0.026064858 0.0031505704 0.023642562
0002f0 2d 02 b2 3d fe ed 01 3c c1 75 02 bd f5 2e 4a ba
       0.08691821 0.007930277 -0.03185058 -0.00077126856
000300 9f 9d 72 3e 6e 8f d6 3c e2 52 20 bd 15 97 55 ba
       0.2369294 0.02619144 -0.039141543 -0.0008147818
000310 67 cc e9 bb 38 fb 72 3b 1e f1 f3 b9 e4 02 e9 bc
       -0.0071349624 0.0037076008 -0.00046528218 -0.028443761
000320 ca 7e 2f bd 11 8a 93 be 33 3f a2 3c f1 40 ff bc
       -0.042845525 -0.28816274 0.019805526 -0.031158896
000330 ae 12 11 ba ee 3b 64 3c 55 94 42 bd bf 1b 46 3c
       -0.00055340945 0.013930304 -0.04750474 0.012091576
000340 f0 82 0d 3b 03 57 ea bb 57 bb be 3d 6d 0a 74 3c
       0.0021592937 -0.007151486 0.09313076 0.014895064
000350 ca 89 ef 3d 98 0b 9f bd fc 1e 2c be df 56 6d bc
       0.11696203 -0.07765883 -0.16808695 -0.014486044
000360 4f c9 a3 bc 93 aa 9b 3b be 42 d8 bd 38 b6 67 3c
       -0.019993452 0.0047505586 -0.10559605 0.014142565
000370 dc 47 65 ba 5a 79 45 3e 14 45 1f 3e c8 b7 cc bd
       -0.00087463646 0.19284573 0.15553695 -0.09995991
000380 62 04 4c 3e b7 b2 ff bc d8 2a 4c 3b 46 3b f0 3d
       0.19923547 -0.031213148 0.0031153467 0.117300555
000390 de cd 05 bc 61 27 67 3b 0d 27 b2 3d df 4c 8c 3d
       -0.008166758 0.0035271274 0.086988546 0.068505995
0003a0 81 91 85 39 54 1f 9a 3c f4 69 35 3c 94 df 89 bc
       0.00025476146 0.018813767 0.0110726245 -0.016830243
0003b0 6e 1e b1 bd a7 f9 94 3d ce aa 49 3e 90 60 38 3c
       -0.08648382 0.0727418 0.19694063 0.011253491
0003c0 34 cf 01 3b e9 3b f7 bc 9a 0b ee 3c a2 3f 63 3c
       0.001980734 -0.030179935 0.029058266 0.013870152
0003d0 85 16 5a bb 8f 8f 3f 3b e6 c4 a3 bd a3 86 91 3c
       -0.0033277583 0.0029229855 -0.0799654 0.017764395
0003e0 45 6f 54 3c d4 b8 a6 bb 15 ba 8e 3a c2 d0 92 ba
       0.012965982 -0.005087951 0.0010889197 -0.0011201131
0003f0 44 16 97 bb c6 ec 3f bb 43 46 4f 3e 80 77 2e bd
       -0.0046108086 -0.0029285415 0.20241646 -0.042594433

action_model._continuous_distribution.mu.bias f4 [2]
000000 7a ac 1a be f0 55 b0 bc
       -0.15104857 -0.021525353

exp_avg f4 [128, 58]
000000 7d 22 30 b9 90 d7 cb ba 97 db f2 39 4f 00 b2 b9
       -0.00016797516 -0.0015551914 0.00046321444 -0.00033951036
000010 5e be 13 3a 4c 21 d0 ba e2 16 77 b9 de c5 67 b8
       0.0005635972 -0.0015879064 -0.0002356428 -5.525897e-05
000020 da a2 f7 b8 3f fe c9 ba cc 4d d1 39 49 8f 08 ba
       -0.00011808211 -0.0015410854 0.0003992155 -0.00052093394
000030 21 09 15 ba b0 bf cf ba 8c 3e 6a 3a e5 1f ae 39
       -0.0005685259 -0.0015849974 0.0008935712 0.0003321163
000040 7e cc 92 b5 66 03 4b 3a fe 40 05 bb 64 6c f1 ba
       -1.0937363e-06 0.0007744342 -0.0020332928 -0.0018419144
000050 54 94 98 38 09 7f 02 ba 75 dd 5a ba 83 20 e1 b9
       7.275553e-05 -0.0004978036 -0.00083490397 -0.00042939567
000060 b8 ba e8 38 77 52 a8 ba d7 e2 b5 b8 37 e4 c5 ba
       0.00011097401 -0.0012841959 -8.673005e-05 -0.001509792
000070 8f f2 4b 37 1b 53 9f ba 33 38 6d b8 82 bb 84 ba
       1.2156218e-05 -0.0012155505 -5.6557543e-05 -0.0010126682
000080 ae 5b 57 37 00 0b 8e ba 7f 45 46 b9 ba a9 99 ba
       1.28363445e-05 -0.0010837018 -0.00018908641 -0.0011723556
000090 fb 2f a7 b7 ce ae bd ba 9e 34 59 39 80 bd 66 ba
       -1.9930294e-05 -0.0014471652 0.00020714334 -0.00088020414
0000a0 0c d0 14 36 9c 7c 71 39 f5 9e c3 ba c4 6e e4 ba
       2.2174818e-06 0.00023029972 -0.0014924692 -0.001742803
0000b0 81 38 42 39 50 d1 43 ba c2 06 37 ba f7 04 87 ba
       0.00018522331 -0.00074698497 -0.0006981903 -0.0010301162
0000c0 d2 d7 81 39 49 e5 ae ba 26 ad 35 b9 75 c0 19 b9
       0.00024765596 -0.0013343479 -0.00017326008 -0.00014662913
0000d0 6d 07 a8 bb f7 24 25 ba db 07 37 bc 00 00 00 00
       -0.0051278383 -0.00062997587 -0.0111713065 0.0
0000e0 00 00 00 00 00 00 00 00 20 2b 83 35 b3 fe 8d b9
       0.0 0.0 9.772812e-07 -0.0002708338
0000f0 31 13 e2 b7 bc d1 08 b9 05 72 a2 b8 be 65 9d b9
       -2.6950236e-05 -0.00013048103 -7.746e-05 -0.00030021177
000100 12 96 a9 38 af 35 cc b8 ea 72 df 37 9a e7 23 b9
       8.086501e-05 -9.7374774e-05 2.6637183e-05 -0.0001563117
000110 38 40 2f b9 50 8f 37 b9 26 80 e6 b7 c1 6f 9e b9
       -0.00016713224 -0.00017505628 -2.747781e-05 -0.00030219372
000120 42 d8 09 38 a7 1a 97 b8 d5 d9 dc b3 70 9c 50 b9
       3.286475e-05 -7.2052055e-05 -1.0284172e-07 -0.00019894703
000130 d4 02 cd b8 ab 69 3a b9 b4 81 a2 b6 9b b7 77 b9
       -9.7756885e-05 -0.00017777707 -4.8430757e-06 -0.00023624154
000140 34 b7 69 b8 43 82 e6 b8 1e 9d 03 b8 cb 11 4d b9
       -5.572215e-05 -0.00010991518 -3.137916e-05 -0.00019556952
000150 c4 80 92 b8 63 34 61 b9 a5 41 54 b7 4d 44 8e b9
       -6.985807e-05 -0.00021477188 -1.2651469e-05 -0.0002713524
000160 24 cc 56 b7 57 fb f5 b8 bd f3 c4 b6 37 04 98 b9
       -1.2802924e-05 -0.00011729326 -5.86963e-06 -0.0002899484
000170 0f b5 84 b5 df 2c 5f b9 ff 85 cb b5 33 e9 98 b9
       -9.887461e-07 -0.00021283653 -1.5163677e-06 -0.00029165446
000180 84 01 74 b6 f9 5f ee b8 67 b9 f1 35 08 28 1a b9
       -3.6359716e-06 -0.00011366601 1.8009858e-06 -0.00014701497
000190 e0 f4 1e b9 8c e0 97 b9 6b 75 88 34 4b 31 64 b9
       -0.00015159277 -0.00028968265 2.5417407e-07 -0.00021762137
0001a0 cc 98 a6 b8 3e 6e 13 b9 74 13 41 38 ca 5f b5 b9
       -7.9439575e-05 -0.00014060081 4.6032903e-05 -0.0003459438
0001b0 98 50 50 36 67 5b 38 b9 af cb 9b ba b8 9c 1b b9
       3.1041327e-06 -0.00017581657 -0.0011886264 -0.00014840334
0001c0 85 29 19 ba 00 00 00 00 00 00 00 00 00 00 00 00
       -0.00058426737 0.0 0.0 0.0
0001d0 4f 25 84 b9 6a 3d 71 3c f5 ce 2c 3b f7 87 6a 3c
       -0.000252048 0.014724115 0.0026368473 0.014314643
0001e0 cf 7c 72 b6 85 a0 ad 3a 89 55 81 3c 37 fd 88 3c
       -3.6133458e-06 0.0013246691 0.015787857 0.016722305
0001f0 54 6e 99 39 e2 32 bc 3b 18 6b 35 3c cc 18 70 3c
       0.00029264635 0.0057433704 0.011072896 0.01465435
000200 41 35 8f b8 de 44 7c 3a 0b d5 84 3c 72 1c 8b 3c
       -6.828691e-05 0.0009623299 0.016214868 0.016981337
000210 c2 63 09 b8 84 54 92 3c 6b fa 3c ba 7a 38 df 3b
       -3.2756252e-05 0.017862566 -0.0007208946 0.0068121525
000220 57 f7 86 38 9f 31 86 3c f1 ec 2d 3a d3 0c 4f 3c
       6.4356886e-05 0.016381083 0.0006634733 0.012637335
000230 ef 5d 7d 38 04 46 8b 3c fb 95 46 38 29 44 01 3c
       6.0407383e-05 0.01700116 4.734656e-05 0.007889786
000240 bd ae 15 38 f0 05 83 3c 60 73 8d 3a 58 79 1b 3c
       3.5687106e-05 0.015994042 0.0010791831 0.00948938
000250 44 e2 ed 37 7c 3f 89 3c 52 42 ab 39 7b 0e b7 3a
       2.8357965e-05 0.016753905 0.00032665074 0.0013966108
000260 79 bb bf 37 87 e8 84 3c 0f f1 61 3a c7 0e 2a 3c
       2.2856273e-05 0.016224159 0.00086189894 0.0103795
000270 4e 11 00 b8 44 67 8c 3c b9 09 c3 34 fb 0d 76 3a
       -3.0533694e-05 0.017139085 3.6328655e-07 0.00093862385
000280 8b 31 13 3a 79 4d 83 3c 10 1f 08 3a 01 2b 26 3c
       0.00056149875 0.016028153 0.0005192617 0.010142089
000290 4e 11 6b 3c d4 5d 02 3b 77 73 4a 3a 07 b5 71 3c
       0.0143473875 0.0019892352 0.0007722894 0.014752633
0002a0 64 b6 50 3d 0a 28 0c 3c cc 39 05 3e 00 00 00 00
       0.05095519 0.008554468 0.13010329 0.0
0002b0 00 00 00 00 00 00 00 00 ff cf 4e 38 a1 26 29 3b
       0.0 0.0 4.930794e-05 0.0025810378
0002c0 ad f0 1d 39 1e 59 b5 3a f0 e2 02 38 8b e8 09 3b
       0.00015062345 0.0013835763 3.1205767e-05 0.0021043147
0002d0 52 33 29 3a 27 f8 b6 3a 86 fb d2 39 15 83 88 3a
       0.00064544857 0.0013959453 0.0004024172 0.0010415042
0002e0 e3 3f af 3a ec 9b ee 3a f5 f3 92 38 a9 6e fa 3a
       0.001337048 0.0018204427 7.007263e-05 0.0019106466
0002f0 e0 c7 51 3a c8 f8 ca 3a 73 6e f1 35 e4 e2 c2 3a
       0.0008002501 0.001548552 1.7988044e-06 0.0014868644
000300 98 62 a9 3a 01 f9 fe 3a 2d 4e 6e b9 83 2d de 3a
       0.001292306 0.0019452871 -0.00022726571 0.0016950819
000310 1b 1e ac 3a 1c ec db 3a 5c a5 ba 37 ea 49 fc 3a
       0.0013131531 0.001677874 2.224993e-05 0.0019248102
000320 b0 9a 5a 3a f7 50 0e 3b 90 4c 97 38 6a 2d 11 3b
       0.000833909 0.002171574 7.214502e-05 0.0022152313
000330 75 64 01 3a c1 dd c6 3a ec 4c da 35 a1 8f 2c 3b
       0.0004935929 0.0015172289 1.6264653e-06 0.0026330727
000340 fc 5f 19 39 70 b6 8a 3a 32 c1 d3 b6 ce b0 1f 3b
       0.00014626974 0.0010582935 -6.310781e-06 0.0024366858
000350 ed cf b7 39 91 6d 88 3a 34 4f 4f b5 c5 13 1d 3b
       0.00035059397 0.001040863 -7.7228765e-07 0.0023968082
000360 e2 d0 c9 39 f0 14 9b 3a 4d 12 12 b9 36 7c 3d 3b
       0.00038493337 0.0011831801 -0.00013930463 0.0028913147
000370 e4 ec f2 37 f5 f5 11 3a d3 b7 2e b9 37 8f 2f 3b
       2.8958959e-05 0.00055679615 -0.00016662413 0.0026788244
000380 87 e9 8c 39 e5 04 6a 3a 39 8d ab 3b f0 40 b6 3a
       0.00026876872 0.0008927121 0.005235341 0.0013904851
000390 ce 59 8c 3c 00 00 00 00 00 00 00 00 00 00 00 00
       0.017132666 0.0 0.0 0.0
0003a0 7c 20 7f b8 56 e8 2b b8 f2 58 1e b8 b8 6c 74 b8
       -6.082699e-05 -4.0985957e-05 -3.7752972e-05 -5.8275386e-05
0003b0 98 3a 6e b8 ed a7 03 39 b6 71 5a b9 7d 22 5e b9
       -5.679819e-05 0.00012555691 -0.0002083246 -0.00021184418
0003c0 77 48 e1 36 c5 ad df b7 f9 d9 fa b8 8d 01 8b b8
       6.7139586e-06 -2.666459e-05 -0.000119615295 -6.628325e-05
0003d0 95 d9 83 37 68 7b 48 b8 8e 69 e1 b8 66 bb 34 b9
       1.5717736e-05 -4.7798647e-05 -0.00010748497 -0.00017235949
0003e0 8d 48 d7 b5 53 b2 25 b9 9f 43 a8 37 1c d9 10 b8
       -1.6039863e-06 -0.00015802057 2.005865e-05 -3.4534474e-05
0003f0 a8 6f 82 35 34 84 6e b9 c8 4d b6 38 8f e4 18 b7
       9.718251e-07 -0.00022746698 8.692924e-05 -9.113121e-06

exp_avg_sq f4 [128, 58]
000000 fb 96 c6 36 ea f9 57 38 dd 72 36 36 86 0d 4c 37
       5.9184363e-06 5.1492745e-05 2.7186973e-06 1.2162496e-05
000010 ec cb cf 35 d9 0a 4c 38 2c 29 25 37 81 5b bc 37
       1.5482051e-06 4.8647493e-05 9.8443525e-06 2.2453956e-05
000020 7d f0 36 35 72 09 5a 38 cd c5 f3 36 01 48 95 37
       6.815024e-07 5.1984047e-05 7.2649914e-06 1.7795714e-05
000030 65 97 5d 36 4d fe 4c 38 67 33 dc 36 8b 7f b2 37
       3.301969e-06 4.8874226e-05 6.562495e-06 2.1278645e-05
000040 f3 a3 fe 32 cb 80 4c 38 f2 2d 2e 37 c2 7b c1 37
       2.9644047e-08 4.8757338e-05 1.0381906e-05 2.3065022e-05
000050 3f eb 7a 34 4c d6 22 38 85 56 a4 37 c5 de fb 37
       2.3368646e-07 3.882339e-05 1.9590612e-05 3.0025267e-05
000060 89 6c fb 33 eb ec 3c 38 c5 01 61 37 32 4d b3 37
       1.1707841e-07 4.504334e-05 1.3411457e-05 2.137441e-05
000070 c7 6f f6 34 87 b0 56 38 a4 20 e8 36 50 4f bb 37
       4.59024e-07 5.118598e-05 6.9179387e-06 2.232907e-05
000080 e6 4f 50 33 72 a6 6c 38 68 29 64 36 8b 72 3e 37
       4.850144e-08 5.64218e-05 3.399875e-06 1.1351552e-05
000090 ab 21 2e 33 40 a7 5a 38 49 99 d8 36 a6 4a 96 37
       4.0543153e-08 5.2131014e-05 6.4551464e-06 1.7916154e-05
0000a0 42 d7 59 33 48 11 52 38 90 a2 11 37 8b f0 91 37
       5.0720026e-08 5.0083996e-05 8.680523e-06 1.7397359e-05
0000b0 06 b1 ef 34 f8 92 47 38 c4 73 47 37 ff d9 ac 37
       4.464602e-07 4.7582173e-05 1.1888278e-05 2.060551e-05
0000c0 a6 70 29 35 c0 53 50 38 0f b0 23 37 4b 9a a6 37
       6.312133e-07 4.9669063e-05 9.756549e-06 1.986059e-05
0000d0 f9 6d 55 3a 73 0f 76 37 de cb cb 3a 00 00 00 00
       0.00081416924 1.466634e-05 0.0015548428 0.0
0000e0 00 00 00 00 00 00 00 00 ad b7 3e 31 9e fa 9d 35
       0.0 0.0 2.7753047e-09 1.1770351e-06
0000f0 78 96 d5 33 ac 35 c8 34 9c 0a bf 32 ba 9b 88 35
       9.9459555e-08 3.7291954e-07 2.2240151e-08 1.0178112e-06
000100 44 0e 97 34 31 01 1b 35 f8 80 b4 33 08 7d 7e 35
       2.813632e-07 5.7743733e-07 8.4053625e-08 9.480432e-07
000110 87 2a a2 34 e1 ec 28 35 d1 ef 25 32 11 5a 2e 35
       3.0205794e-07 6.292958e-07 9.658792e-09 6.4951115e-07
000120 25 e8 25 35 2a 2f 59 35 fd 68 b5 31 ca e4 90 35
       6.1805105e-07 8.090743e-07 5.279729e-09 1.0795422e-06
000130 93 10 7a 34 a6 59 16 35 e9 fc 54 30 89 e2 84 35
       2.3289094e-07 5.600981e-07 7.748456e-10 9.900697e-07
000140 be fc aa 34 f4 86 20 35 2f b8 31 33 3d df 75 35
       3.1848862e-07 5.980103e-07 4.1378538e-08 9.1594467e-07
000150 ba e9 ae 34 42 2e 22 35 3f d1 0a 32 c5 f5 6d 35
       3.2580084e-07 6.0417017e-07 8.080234e-09 8.864702e-07
000160 96 bd d8 34 40 23 2d 35 67 82 bd 31 62 a1 9b 35
       4.0371077e-07 6.449882e-07 5.515449e-09 1.1595369e-06
000170 2d 54 0f 34 1a d6 f5 34 a0 02 37 31 7c bf 94 35
       1.3348536e-07 4.5790586e-07 2.6631497e-09 1.1082589e-06
000180 27 5d 56 34 48 19 d8 34 f8 6a 5d 33 ec b6 9a 35
       1.9964192e-07 4.025153e-07 5.155286e-08 1.1527131e-06
000190 a3 9a b5 33 8d 70 c5 34 74 a8 1c 32 b8 ee a0 35
       8.4565976e-08 3.6776e-07 9.118697e-09 1.1990405e-06
0001a0 a1 89 05 34 72 b7 93 34 5c ad a9 32 8e 9e a0 35
       1.243666e-07 2.7514358e-07 1.9753024e-08 1.1967074e-06
0001b0 27 c7 ad 33 f6 a1 99 34 50 af a1 37 55 d9 ad 34
       8.092166e-08 2.8616313e-07 1.9274332e-05 3.238189e-07
0001c0 e4 2f a0 37 00 00 00 00 00 00 00 00 00 00 00 00
       1.9095787e-05 0.0 0.0 0.0
0001d0 3f e8 e5 36 32 5c 3a 3a 1e bd 7f 38 cf 0e ba 39
       6.851769e-06 0.0007109075 6.0972867e-05 0.00035487718
0001e0 b6 f6 15 33 bd 5a aa 39 80 00 ed 39 72 93 0a 3a
       3.4916148e-08 0.00032492532 0.00045204535 0.0005286253
0001f0 6b e7 86 37 4f 6a f8 39 ef 6b 8e 39 95 3d f3 39
       1.6081807e-05 0.00047381452 0.00027164767 0.00046394454
000200 89 14 19 34 f9 64 af 39 94 48 ec 39 c4 d6 12 3a
       1.4256706e-07 0.00033453832 0.00045067503 0.00056014606
000210 75 60 b9 33 a5 f3 22 3a 54 69 15 39 65 25 93 39
       8.632279e-08 0.00062161154 0.00014248985 0.00028065886
000220 20 d4 4b 35 a0 26 1c 3a 8f e6 3c 39 5a 48 ef 39
       7.5932076e-07 0.00059566833 0.00018014967 0.00045639538
000230 f2 67 4b 34 15 fd 48 3a 67 db 2b 37 5e c5 17 39
       1.8943663e-07 0.00076671067 1.0243478e-05 0.00014474007
000240 74 43 9a 36 4a 71 11 3a aa 5c 5f 39 40 e4 c2 39
       4.59741e-06 0.00055481924 0.00021301457 0.00037172623
000250 98 7d 49 36 3b 53 4a 3a b5 fa 96 37 48 e7 8e 38
       3.002444e-06 0.0007718091 1.7998138e-05 6.814167e-05
000260 0c 5d 56 35 7c 45 37 3a 7a d7 a0 38 78 20 7d 39
       7.9856613e-07 0.000699125 7.66953e-05 0.00024140056
000270 32 77 fc 36 83 68 49 3a 81 82 b9 36 23 c1 49 38
       7.5240614e-06 0.0007683115 5.5286223e-06 4.8102007e-05
000280 2a f6 b5 37 6a 40 3b 3a b7 d3 16 38 01 7e 59 39
       2.169151e-05 0.00071430823 3.595996e-05 0.00020741673
000290 93 95 9d 39 9d ce ed 39 d7 ba d6 37 50 4d bc 39
       0.00030056815 0.00045358101 2.5597792e-05 0.00035915757
0002a0 08 71 f5 3b a4 5e 4c 39 6f 75 0e 3d 00 00 00 00
       0.007490281 0.00019490212 0.034779962 0.0
0002b0 00 00 00 00 00 00 00 00 22 af f1 34 73 4a 1c 38
       0.0 0.0 4.5017174e-07 3.7262635e-05
0002c0 67 e1 5a 37 b4 7f c3 37 02 8f d9 31 d0 85 00 38
       1.3046293e-05 2.3305278e-05 6.3317893e-09 3.06422e-05
0002d0 6d c3 ac 37 5e c2 00 38 f6 9b 14 36 bd ec 04 38
       2.0595e-05 3.0698597e-05 2.21445e-06 3.1691732e-05
0002e0 e3 71 8b 37 e1 7c f4 37 94 63 31 35 c2 65 21 38
       1.6623124e-05 2.9145218e-05 6.6082544e-07 3.848016e-05
0002f0 a4 24 40 37 3c 1f d0 37 91 c6 a0 34 bf bb ef 37
       1.1452623e-05 2.4810077e-05 2.9946798e-07 2.8578446e-05
000300 06 8b b4 37 a1 5d ec 37 a5 6f 93 33 b8 d0 0a 38
       2.152241e-05 2.8176992e-05 6.865529e-08 3.309615e-05
000310 e8 48 8d 37 0c 27 d2 37 6a a8 c2 31 35 51 29 38
       1.684246e-05 2.5052133e-05 5.6652896e-09 4.036837e-05
000320 47 49 1f 37 a5 77 8e 37 15 f1 1c 35 b9 71 36 38
       9.4942e-06 1.6983433e-05 5.846535e-07 4.3498094e-05
000330 cd 1a c3 36 6e d2 89 37 10 41 57 33 55 54 3d 38
       5.814573e-06 1.6429662e-05 5.0117762e-08 4.513965e-05
000340 e8 00 93 36 04 82 38 37 86 1f 33 33 40 17 43 38
       4.381047e-06 1.0997526e-05 4.1705356e-08 4.6513276e-05
000350 7c 42 57 36 18 3b 69 37 29 84 85 34 a3 36 29 38
       3.2076196e-06 1.3901641e-05 2.486934e-07 4.0343624e-05
000360 3e 93 20 37 1d 47 7e 37 69 09 8d 34 cc 97 49 38
       9.571026e-06 1.5156137e-05 2.6270143e-07 4.8063506e-05
000370 9e 23 df 35 38 20 19 37 7f d6 90 36 76 1d 2e 38
       1.6625161e-06 9.127012e-06 4.316505e-06 4.151227e-05
000380 34 72 94 36 de 08 52 37 33 29 78 39 4b e4 4f 37
       4.4240387e-06 1.251904e-05 0.00023666471 1.2391315e-05
000390 3c fa d0 3a 00 00 00 00 00 00 00 00 00 00 00 00
       0.0015943716 0.0 0.0 0.0
0003a0 ea 57 5d 34 b8 af d4 36 08 e6 d5 34 33 fd b0 35
       2.0614212e-07 6.3385487e-06 3.9841711e-07 1.3186713e-06
0003b0 93 82 6e 32 9c 24 cd 36 0d d4 30 35 8a 08 e0 35
       1.3883112e-08 6.113738e-06 6.5873684e-07 1.6691786e-06
0003c0 43 6c ce 33 39 73 ce 36 92 36 21 35 57 c4 f0 35
       9.612315e-08 6.152692e-06 6.0056584e-07 1.7938536e-06
0003d0 8c 7f 0d 32 9d d8 d8 36 a0 be 8c 34 17 0a f9 35
       8.236281e-09 6.4625187e-06 2.621573e-07 1.8554882e-06
0003e0 08 b2 94 32 f2 16 b9 36 24 fb aa 35 75 b0 92 36
       1.7310427e-08 5.516101e-06 1.2739079e-06 4.3716814e-06
0003f0 93 46 44 31 e2 5a 13 36 c0 ac 9b 36 0e 3b aa 36
       2.856187e-09 2.1957608e-06 4.6394707e-06 5.0732697e-06

exp_avg f4 [128]
000000 fb 24 a5 ba bc 9c 9b b9 fe 27 8c 3c ec 40 36 3b
       -0.0012599522 -0.0002968068 0.017108914 0.0027809693
000010 73 58 12 b9 90 d0 c7 3a f7 11 0f 3b a5 cb 87 ba
       -0.00013956595 0.0015244652 0.0021830776 -0.0010360373
000020 92 7c 1c bc 8c 57 55 bb 81 0a 46 3a b6 63 ea b6
       -0.009551184 -0.0032553403 0.0007554666 -6.9853513e-06
000030 29 39 50 3a 96 ae 57 ba 47 b5 11 39 4c 50 73 3a
       0.0007943088 -0.00082276145 0.00013895809 0.00092816795
000040 28 7b 25 39 b2 fd a6 ba fa 33 6b ba 12 6b e1 39
       0.00015781505 -0.0012740402 -0.00089722837 0.00042995118
000050 0b 1f a1 b6 c7 e2 a6 b8 e5 79 ab ba 5a 28 bf 37
       -4.801788e-06 -7.9577374e-05 -0.0013082592 2.2787764e-05
000060 e4 bb 51 b9 a4 d2 8c 3a 1b 9a b2 3b 26 e6 25 39
       -0.00020001788 0.0010743928 0.0054504997 0.00015821363
000070 48 4e a9 b8 17 b1 33 bb a8 50 0a 3b ef 48 9a bb
       -8.073129e-05 -0.0027418786 0.0021105204 -0.0047084014
000080 7e bb 2c 36 8d 46 39 ba a5 61 23 b4 2e e4 36 3b
       2.5739132e-06 -0.0007067703 -1.5216081e-07 0.0027907002
000090 0f 2a b0 ba c5 83 96 b9 08 2f af ba fc 83 26 bb
       -0.0013440269 -0.00028708405 -0.0013365457 -0.0025408259
0000a0 c0 e4 a5 3b af 48 40 3a 37 d8 b9 ba 9c 8c 80 39
       0.0050626695 0.00073350494 -0.0014178817 0.00024518825
0000b0 9f b4 be ba bc 4e 25 b7 28 a7 1e 3b ac 45 5a b7
       -0.0014549679 -9.853098e-06 0.002420852 -1.3010034e-05
0000c0 b6 01 02 bb 16 ac 97 39 49 a9 b7 b9 01 04 87 33
       -0.0019837446 0.00028929178 -0.00035030607 6.287156e-08
0000d0 73 b5 ce b6 db 0a 53 b8 32 2b fe 38 d6 d1 34 ba
       -6.160402e-06 -5.031643e-05 0.000121197096 -0.0006897723
0000e0 d3 8b 25 39 67 c4 77 3b 0a 55 1a ba f3 00 db 38
       0.00015787715 0.0037806274 -0.00058873056 0.000104429106
0000f0 b4 2b b8 b9 05 3a 83 ba 11 32 b2 3a 04 cc 69 bb
       -0.00035127776 -0.0010011798 0.0013595243 -0.0035674581
000100 11 45 67 b9 66 01 a2 ba 41 95 1c 3c 0b 84 c9 b5
       -0.00022055606 -0.0012360036 0.009557069 -1.5014097e-06
000110 0a a0 68 ba 88 c7 85 ba 8d e9 81 b8 17 47 67 b7
       -0.00088739453 -0.001020656 -6.1947016e-05 -1.3785225e-05
000120 53 b5 50 b9 ed d9 d8 b9 81 3c 22 39 96 b4 27 b7
       -0.00019903974 -0.00041361098 0.00015472063 -9.996022e-06
000130 78 26 67 3a 9d e8 cd 3a 8f 0f 4d 39 41 b0 06 ba
       0.0008817683 0.0015709583 0.0001955612 -0.0005137958
000140 50 1e 1d b9 f4 35 7b ba 54 ab 5e 3a f8 c0 73 3a
       -0.00014983979 -0.000958293 0.0008494158 0.0009298469
000150 3c 80 8e ba 29 2c bc 3a 3a 95 7d 3a 8a 41 df b5
       -0.0010871957 0.0014356422 0.00096734206 -1.6633869e-06
000160 6e 55 32 ba 08 82 37 3a 8f cf b8 ba 21 70 0a 3a
       -0.0006802891 0.0007000272 -0.0014099943 0.0005280991
000170 d8 e8 c7 bb f6 16 4c 37 35 c7 f4 ba b0 1a 2f b8
       -0.006100755 1.21646935e-05 -0.0018675091 -4.1748106e-05
000180 6f 5c 08 b8 ed 28 af 39 c9 7c 93 ba c2 ea 00 3a
       -3.2511012e-05 0.00033409093 -0.0011252399 0.0004917794
000190 fd 29 bd 3a d5 05 25 bb 11 bb 3a 3a 5b 73 bc 34
       0.0014432069 -0.0025180478 0.0007123212 3.510166e-07
0001a0 d5 c6 39 39 1f 68 24 ba 55 50 c9 3a e8 72 1a 3b
       0.00017717046 -0.0006271619 0.0015359024 0.0023567025
0001b0 3a f3 c6 3b 58 ef 80 b7 f2 5c 71 ba c1 e6 18 38
       0.0060714753 -1.5370242e-05 -0.00092072703 3.645453e-05
0001c0 cd bd 94 bb 2b a5 68 3a 89 99 c1 38 1d 27 b1 ba
       -0.0045392276 0.00088747096 9.231555e-05 -0.0013515685
0001d0 41 18 9f b6 c1 f2 a8 3a 10 a8 a5 3b 65 05 e7 bb
       -4.741393e-06 0.0012889729 0.005055435 -0.0070502036
0001e0 c5 08 14 b6 f1 42 2b bb 34 99 f2 ba f8 56 cf 3a
       -2.2058823e-06 -0.002613243 -0.0018508793 0.0015818765
0001f0 7b 26 58 39 af 4a 16 bb d5 8c 47 b7 cf cc da 38
       0.000206137 -0.0022932698 -1.1894114e-05 0.000104331986
