Maize-Runner/results/TestWalls3/EscapeMaze/EscapeMaze-40000040.onnx (onnx, 99124 bytes, 7 tensors)

action_model._continuous_distribution.log_sigma f4 [1, 2]
-1.4910482 -0.8970582
00000000: abda bebf 9ba5 65bf

action_model._continuous_distribution.mu.bias f4 [2]
-0.150965 -0.022144467
00000000: 9296 1abe 5068 b5bc

action_model._continuous_distribution.mu.weight f4 [2, 128]
-0.18713434 0.002816619 -0.051869486 -0.011327093 0.0029091267 0.09647891 -0.017140329 -0.0038118856
-0.0047678915 -0.00042797922 0.0011437046 -0.005304139 -0.0874517 -0.00028831602 0.016407931 0.009984254
0.0047564576 0.0084191635 -0.006035932 0.007831585 -0.03785443 0.014221729 0.038218472 -0.101838484
-0.003776964 -0.07159147 -0.0069368323 -0.04108497 -0.051928744 0.044261385 0.039237898 -0.14147013
0.00086911756 0.003867373 0.005880471 0.12620302 0.002820006 -0.003208231 0.0043248106 0.045013238
0.090137355 0.108861774 0.014595084 0.17455013 -0.0039049708 0.0071648946 0.07018094 -0.0031459779
0.003387225 -0.0063852887 -0.006151379 -0.004826424 -0.007094776 -0.004914308 -0.022046665 -0.00068483414
-0.0019918967 -0.01581167 0.0037548137 0.16673405 0.09568695 0.0038260166 0.09781896 -0.003382752
0.044836357 0.0013124462 -0.09082485 -0.0048603457 -0.0022803973 0.009638972 0.007918534 -0.01652368
0.21530652 0.009463963 0.077851795 -0.069165304 0.0022802686 -0.0044076634 -0.023789754 -0.0022422194
-0.001304714 0.004359146 -0.012064017 -0.0070212125 0.03212951 -0.08203901 0.011023521 0.03285209
-0.0043499894 0.0013499463 0.005695923 -0.005039867 -0.006658321 0.09298476 -0.016042192 0.00018003475
0.037298534 -0.0032288963 -0.00014670174 0.011042544 -0.0016912691 -0.0042913654 0.017724626 -0.0002611867
-0.0017529421 -8.9008885e-05 0.013527952 0.0072158608 -0.05632055 -0.046479892 -0.044622395 0.0035778766
-0.0013642574 0.12996995 0.022039374 0.008485906 0.00083671394 -0.00115357 0.113982216 -0.0065174666
0.011081513 -0.0021275068 0.0059068995 -0.05874037 0.0013678266 -0.0021471274 0.05893198 -0.014867883
0.010069106 0.029376483 -0.013838424 0.009592791 0.059396133 -0.13960007 -0.040324017 0.00617744
-0.0133731 0.029567836 -0.014068032 0.0051072068 0.0020700677 0.0041948706 0.07228572 -0.020883428
-0.0062753432 0.018159619 -0.010375614 0.01042271 -0.11630092 -0.0058553023 -0.0804005 0.012898801
-0.007771881 0.065705314 0.0003756838 -0.0083296485 0.2782267 0.19435811 0.20604573 -0.012759475
-0.019006878 -0.016790474 0.033939525 0.019280275 0.008511257 -0.005601331 0.006579502 -0.14156038
-0.250848 -0.116744876 0.16656579 -0.04497549 0.0027168964 -0.021482544 0.03748548 -0.0154978195
-0.008998475 -0.0011118604 0.0018057207 0.00039615165 -0.0138065405 0.012173969 -0.005501044 -0.0074128583
0.012638219 0.023906797 0.0072183595 0.024527911 0.08590347 0.007517418 -0.034307826 -0.0038522384
0.23805745 0.025092449 -0.036404263 0.0032646593 -0.0071819914 0.00088818907 0.0025047704 -0.028602052
-0.04373795 -0.2879959 0.020149445 -0.032202847 0.0033398974 0.014987247 -0.04791736 0.017806273
0.007956802 -0.009091195 0.094458215 0.017515961 0.116914235 -0.078636855 -0.16940448 -0.014340949
-0.01916236 0.004691122 -0.10694797 0.017358081 0.00089823315 0.19344325 0.1538618 -0.1016079
0.19967699 -0.033967335 0.0018165119 0.11722031 -0.0041330485 0.0060381573 0.0891766 0.06644103
0.0045866957 0.020560248 0.0115212845 -0.017045787 -0.086448 0.07708055 0.19745652 0.011326217
0.009135982 -0.027765894 0.02966058 0.01436249 -0.002950139 -9.917602e-05 -0.07665857 0.016341945
0.015207429 -0.0014745707 -0.00052053464 0.00070152554 -0.0059051444 -0.0030427645 0.20374006 -0.04438451
00000000: 25a0 3fbe 0697 383b 1975 54bd 4595 39bc
00000010: 0ca7 3e3b bc96 c53d e069 8cbc d4d0 79bb
00000020: f93b 9cbb 6662 e0b9 5ce8 953a 58ce adbb
00000030: e019 b3bd 1f29 97b9 ed69 863c ff94 233c
00000040: 0fdc 9b3b 88f0 093c 11c9 c5bb 0c50 003c
00000050: 3f0d 1bbd 4102 693c f98a 1c3d b290 d0bd
00000060: f186 77bb 8c9e 92bd 5e4e e3bb b748 28bd
00000070: 3cb3 54bd 6d4b 353d ebb7 203d 8cdd 10be
00000080: 7ed5 633a c173 7d3b f7b0 c03b 5d3b 013e
00000090: dacf 383b 2f41 52bb 24b7 8d3b cd5f 383d
000000a0: ef99 b83d ecf2 de3d 3820 6f3c 45bd 323e
000000b0: 8aea 7fbb 7ec7 ea3b 06bb 8f3d c02c 4ebb
000000c0: 35fc 5d3b af3b d1bb 8291 c9bb fb26 9ebb
000000d0: 4b7b e8bb 3408 a1bb 359b b4bc 7186 33ba
000000e0: 7b8a 02bb 7a87 81bc 5213 763b 55bc 2a3e
000000f0: 85f7 c33d e8bd 7a3b 4f55 c83d 29b1 5dbb
00000100: 54a6 373d 6306 ac3a 6102 babd 8943 9fbb
00000110: b872 15bb c7ec 1d3c bdbc 013c ab5c 87bc
00000120: 5079 5c3e bd0e 1b3c c370 9f3d 8aa6 8dbd
00000130: 8f70 153b 296e 90bb bbe2 c2bc 33f2 12bb
00000140: f002 abba 2bd7 8e3b 28a8 45bc 3312 e6bb
00000150: 3c9a 033d 1204 a8bd 009c 343c ea8f 063d
00000160: 5b8a 8ebb aef0 b03a dea4 ba3b 7825 a5bb
00000170: 0b2e dabb cb6e be3d ea6a 83bc b6c7 3c39
00000180: 59c6 183d e49b 53bb f3d3 19b9 c9eb 343c
00000190: 93ad ddba 959e 8cbb 3c33 913c e3ef 88b9
000001a0: fac2 e5ba 48aa bab8 58a4 5d3c 0773 ec3b
000001b0: 61b0 66bd b361 3ebd f9c5 36bd cf7a 6a3b
000001c0: e2d0 b2ba d816 053e eb8b b43c 7808 0b3c
000001d0: ec56 5b3a 6333 97ba 826f e93d 7990 d5bb
000001e0: 3c8f 353c a46d 0bbb aa8e c13b be99 70bd
000001f0: a548 b33a d2b6 0cbb a962 713d 6c98 73bc
00000200: e4f8 243c f3a6 f03c 8fba 62bc 152b 1d3c
00000210: 5c49 733d 52f3 0ebe cc2a 25bd 1f6c ca3b
00000220: d91a 5bbc 3f38 f23c 9a7d 66bc 5b5a a73b
00000230: f9a9 073b 2075 893b 890a 943d b913 abbc
00000240: 65a1 cdbb 7bc3 943c 7bfe 29bc 04c4 2a3c
00000250: 2d2f eebd d6dd bfbb 04a9 a4bd 7e55 533c
00000260: 43ab febb 8290 863d 6df7 c439 1479 08bc
00000270: bb73 8e3e d005 473e a7fd 523e 1e0d 51bc
00000280: 50b4 9bbc 2d8c 89bc 2c04 0b3d abf1 9d3c
00000290: cd72 0b3c 5f8b b7bb dd98 d73b 34f5 10be
000002a0: 266f 80be f017 efbd 3990 2a3e 3838 38bd
000002b0: f50d 323b 29fc afbc 608a 193d 91ea 7dbc
000002c0: 576e 13bc d8bb 91ba efad ec3a 93b2 cf39
000002d0: d434 62bc 5475 473c 1a42 b4bb 90e7 f2bb
000002e0: 8810 4f3c 30d8 c33c fd87 ec3b c2ee c83c
000002f0: 29ee af3d ac54 f63b 5d86 0cbd d675 7cbb
00000300: 55c5 733e ae8e cd3c a31c 15bd e5f3 553b
00000310: e956 ebbb 5cd5 683a 1327 243b da4e eabc
00000320: 9126 33bd 3374 93be 7310 a53c 22e7 03bd
00000330: 2ee2 5a3b 128d 753c fe44 44bd 76de 913c
00000340: 3f5d 023c 3cf3 14bc 4f73 c13d a27d 8f3c
00000350: bb70 ef3d 5c0c a1bd 5e78 2dbe 4df6 6abc
00000360: 62fa 9cbc fcb7 993b 8a07 dbbd 8932 8e3c
00000370: 6877 6b3a fd15 463e f38d 1d3e cd17 d0bd
00000380: 2078 4c3e 5521 0bbd 0618 ee3a 3411 f03d
00000390: 866e 87bb bcdb c53b 39a2 b63d 3c12 883d
000003a0: fe4b 963b f76d a83c c5c3 3c3c 9ba3 8bbc
000003b0: a60b b1bd 68dc 9d3d 0b32 4a3e 9991 393c
000003c0: 16af 153c 4d75 e3bc bffa f23c a650 6b3c
000003d0: 1f57 41bb b8fc cfb8 2bff 9cbd 8bdf 853c
000003e0: 9528 793c 6246 c1ba 7d74 08ba 95e6 373a
000003f0: f17f c1bb 1e69 47bb 3ca1 503e 88cc 35bd

network_body._body_endoder.seq_layers.0.bias f4 [128]
0.019928591 -0.0030485247 0.0043501817 -0.041296817 0.006151844 -0.017704042 -0.06478849 0.04730731
0.0324705 0.007907217 0.042494345 -0.2469541 -0.038495712 -0.039004996 0.0791044 -0.033774637
0.0075004413 -0.0045902594 -0.03415466 -0.03219375 -0.33116212 -0.047470905 0.020102099 0.008082652
0.010203858 -0.03904975 0.011472308 0.022317596 -0.1298389 8.906905e-05 0.016930096 -0.006186718
-0.32112077 0.02625258 -0.35171854 -0.015468171 0.040482637 -0.18330204 0.063112795 -0.008071985
0.032962624 0.04101681 -0.009377572 0.03740814 -0.035210192 -0.25830236 0.004342073 -0.19710337
0.022490857 0.008534604 -0.0076466105 -0.34186026 -0.2962086 -0.22654164 0.006497405 -0.057516057
-0.10058265 0.043991365 0.011075301 -0.036156405 0.0055812495 -0.03358535 -0.04407348 0.08440001
0.048113775 -0.006825142 -0.017919866 -0.06101891 -0.034518674 0.010040227 -0.13715152 -0.24908243
0.064332016 -0.015710106 -0.049628656 -0.33520103 -0.016519854 -0.029647833 -0.022708014 0.066015214
0.008436645 0.048196338 -0.038938552 0.0024644 0.07227066 -0.010490691 -0.026776731 -0.2666802
0.0018071461 0.0224892 -0.0014765444 0.044359166 0.007274046 -0.26177517 0.03442891 0.09076761
-0.280296 0.016368825 -0.13476755 0.028620888 -0.009725815 0.0378743 -0.022231087 -0.33988342
0.021599876 0.014234614 -0.044056267 -0.020920277 0.010721073 -0.074036136 -0.025331168 -0.18688661
-0.04096664 -0.0025182678 -0.032352634 0.03161202 -0.3867531 0.04030136 0.0134736495 0.038627744
-0.3474762 -0.017999496 -0.026069317 -0.0044452697 -0.08543742 0.00040762025 -0.019605612 0.074150786
00000000: 4941 a33c c2c9 47bb f88b 8e3b da26 29bd
00000010: 6895 c93b 1108 91bc d4af 84bd 4fc5 413d
00000020: c9ff 043d 468d 013c 8d0e 2e3d 89e1 7cbe
00000030: aead 1dbd b4c3 1fbd 7d01 a23d 4657 0abd
00000040: 43c6 f53b e369 96bb c2e5 0bbd 98dd 03bd
00000050: 158e a9be da70 42bd 28ad a43c 1a6d 043c
00000060: 152e 273c a1f2 1fbd 59f6 3b3c 64d3 b63c
00000070: 7df4 04be 95ca ba38 fcb0 8a3c f4b9 cabb
00000080: f169 a4be a70f d73c 7414 b4be 366e 7dbc
00000090: 1fd1 253d 88b3 3bbe 4841 813d 5c40 04bc
000000a0: d103 073d 3e01 283d 63a4 19bc 4739 193d
000000b0: 9038 10bd 3540 84be f347 8e3b 77d5 49be
000000c0: bf3e b83c b9d4 0b3c 6b90 fabb 4f08 afbe
000000d0: a7a8 97be 88fa 67be 2fe8 d43b f595 6bbd
000000e0: 47fe cdbd 4a30 343d 2e75 353c bd18 14bd
000000f0: eae2 b63b cb90 09bd 6586 34bd ead9 ac3d
00000100: f312 453d 71a5 dfbb afcc 92bc f7ee 79bd
00000110: 7463 0dbd c47f 243c 7371 0cbe 770f 7fbe
00000120: 81c0 833d 7bb2 80bc 6b47 4bbd 789f abbe
00000130: a554 87bc 03e0 f2bc 2806 babc fc32 873d
00000140: db39 0a3c 8669 453d 087e 1fbd c581 213b
00000150: a402 943d 26e1 2bbc e05a dbbc 4f8a 88be
00000160: c3dd ec3a 453b b83c 9c88 c1ba f5b1 353d
00000170: 1f5b ee3b 6507 86be 5405 0d3d 5ee4 b93d
00000180: f582 8fbe ea17 863c 8100 0abe 5a76 ea3c
00000190: 0659 1fbc 1522 1b3d f81d b6bc 3305 aebe
000001a0: 39f2 b03c 4c38 693c 5874 34bd 0061 abbc
000001b0: 70a7 2f3c 42a0 97bd 4f83 cfbc 345f 3fbe
000001c0: a3cc 27bd 8609 25bb 3284 04bd 9b7b 013d
000001d0: 8104 c6be 0a13 253d 95c0 5c3c 2038 1e3d
000001e0: 67e8 b1be ae73 93bc 528f d5bc a0a9 91bb
000001f0: d0f9 aebd ddb5 d539 f39b a0bc 5edc 973d

network_body._body_endoder.seq_layers.0.weight f4 [128, 58]
-0.039459165 -0.0118462015 -0.14992477 -0.95840216 -0.103427716 0.082699016 0.04299806 -0.36765355
-0.6006338 -0.05836593 0.11573784 -0.21644728 0.15338747 0.262553 0.12076229 0.083857104
-0.8454546 0.096000515 -0.081050515 -0.1980214 -0.07212806 0.1963235 0.13924062 -0.19847755
0.0868204 -0.13714023 0.12217284 -0.50818115 -0.2634087 0.2708474 -0.042195864 0.008683407
-0.5411615 0.2501817 -0.072731614 -0.5165294 0.18223989 0.01514245 0.06219129 0.30885714
-0.6571663 -0.060734753 0.07798021 -0.22854102 -0.45419896 0.38014808 -0.29006448 0.13455519
-0.305139 0.15694995 0.09430062 -0.038378023 0.13277714 0.16501947 0.013897804 -0.069228336
-0.07803879 0.16362478 -0.07934464 0.04481174 0.0347792 -0.1531489 0.28467426 -0.11420583
0.10397802 0.13751605 0.10925002 -0.14878167 0.24475086 0.10767035 -0.30113128 -0.3181936
0.5640295 0.17314613 0.34780216 0.28209427 -0.13538203 -0.067526184 -0.113325395 0.068060555
-0.038296424 0.25464562 0.44973618 -0.111076 0.037382036 0.36921686 0.4344085 -0.11925476
0.15539767 -0.19147204 0.31814265 -0.13291232 -0.32342935 -0.06354244 0.16295601 -0.15243775
0.27721182 -0.16755028 0.23933244 -0.024611477 0.031497993 -0.16489512 0.2156943 -0.24291545
0.02919479 -0.26821887 0.2752723 0.119160555 0.009029352 -0.060783815 0.02690667 0.2386319
-0.3182207 0.10564401 0.042959712 -0.045662347 -0.7638607 0.057870995 0.15784726 0.056650832
-0.28432095 -0.14593102 0.1708416 0.25146106 -0.6351114 0.11536405 -0.17110226 -0.14143921
-0.53147984 -0.2205795 0.26270908 0.39335158 -0.5745444 -0.079155825 0.04289134 -0.8162466
0.4114576 -0.05993543 0.19035473 0.33003992 -0.5280377 0.1941287 -0.37487647 -0.9187476
0.019770166 -0.3844949 0.39124477 0.07651563 -0.46743122 0.069151424 -0.6951579 -0.9771912
0.14976172 0.033555813 -0.16627443 -0.12783705 0.04516666 0.30879557 -0.4757531 -0.9359375
0.46881327 -0.03636194 -0.3374789 -0.21990997 0.3136688 -0.20372356 -0.40704203 -0.82908344
0.23846853 0.06586163 0.12541674 0.109944545 -0.16077961 -0.04239528 -0.4073595 -0.30010292
0.06751049 0.2527645 -0.65722877 0.066301785 -0.022926701 0.16021083 0.453651 0.032612033
-0.24200322 0.23252013 -0.16869758 -0.015937699 -0.07060432 -0.026127981 -0.50076556 -0.12947038
0.19978216 0.30527323 0.29834867 -0.008113758 -0.19171055 -0.31366625 -0.9625474 0.12746206
0.015152672 0.20723456 -0.008352169 0.09074695 -0.20218834 -0.6070751 -0.9393073 0.23984209
-0.088623434 0.070962876 -0.6920877 0.066685185 0.29493192 -0.22178449 -0.04872698 -0.29236963
0.3417516 0.03408363 -0.074269585 0.025525415 0.03731595 -0.45934948 0.62412786 -0.23583941
-0.03274618 -0.193388 -0.18550892 0.17952135 0.17733836 -0.04718339 0.2742052 0.22416978
-0.088626705 0.10497578 0.2743436 -0.10314004 -0.62320966 0.3382682 0.19282305 0.17340063
0.15290663 -0.042552684 0.3276333 -0.3135097 -0.16304858 0.18995108 0.061249465 -0.29978043
0.3374626 0.13983734 0.14308357 -0.08915096 -0.33340064 0.080455534 0.04648383 -0.22356534
00000000: ef9f 21bd 9216 42bc e185 19be d859 75bf
00000010: e9d1 d3bd 1a5e a93d bc1e 303d 163d bcbe
00000020: 23c3 19bf 1d11 6fbd f607 ed3d 5ba4 5dbe
00000030: 9b11 1d3e 596d 863e 3852 f73d 46bd ab3d
00000040: b66f 58bf eb9b c43d d0fd a5bd 1fc6 4abe
00000050: e0b7 93bd 0709 493e 1895 0e3e b33d 4bbe
00000060: e5ce b13d 7d6e 0cbe c135 fa3d 2918 02bf
00000070: 81dd 86be 83ac 8a3e 92d5 2cbd d944 0e3c
00000080: 8f89 0abf d117 803e 50f4 94bd 453b 04bf
00000090: 189d 3a3e 0a18 783c 4bbc 7e3d 8622 9e3e
000000a0: 0d3c 28bf 01c5 78bd 17b4 9f3d a806 6abe
000000b0: c48c e8be c5a2 c23e 5583 94be d6c8 093e
000000c0: 2e3b 9cbe 7db7 203e af20 c13d 4632 1dbd
000000d0: bbf6 073e ddfa 283e 9db3 633c 96c7 8dbd
000000e0: cdd2 9fbd 418d 273e 717f a2bd 848c 373d
000000f0: a274 0e3d 11d3 1cbe d3c0 913e bfe4 e9bd
00000100: 6ef2 d43d 02d1 0c3e 79be df3d 395a 18be
00000110: f89f 7a3e 4682 dc3d e12d 9abe 46ea a2be
00000120: 3d64 103f 384d 313e 2013 b23e a96e 903e
00000130: 96a1 0abe 2b4b 8abd 2517 e8bd 5563 8b3d
00000140: b6dc 1cbd e960 823e d243 e63e d07b e3bd
00000150: e81d 193d fe09 bd3e ca6a de3e d73b f4bd
00000160: 9120 1f3e 3f11 44be 98e3 a23e 2b1a 08be
00000170: 8898 a5be 8a22 82bd f1dd 263e a418 1cbe
00000180: b5ee 8d3e 4d92 2bbe 9013 753e 029e c9bc
00000190: 0a04 013d 44da 28be f7de 5c3e d4be 78be
000001a0: ea29 ef3c fc53 89be 7ef0 8c3e 730a f43d
000001b0: d9ef 133c 73f8 78bd 606b dc3c ec5b 743e
000001c0: d3ed a2be e35b d83d 86f6 2f3d 7108 3bbd
000001d0: 608c 43bf 230a 6d3d b6a2 213e b40a 683d
000001e0: 8492 91be f16e 15be 1af1 2e3e 81bf 803e
000001f0: a996 22bf fd43 ec3d 6e35 2fbe 71d5 10be
00000200: 100f 08bf 98df 61be ce81 863e 6165 c93e
00000210: 5815 13bf 731c a2bd d4ae 2f3d 8af5 50bf
00000220: 92aa d23e da7e 75bd 5aec 423e fefa a83e
00000230: 7b2d 07bf adc9 463e cfef bfbe 0b33 6bbf
00000240: 0bf5 a13c 84dc c4be 3c51 c83e 3ab4 9c3d
00000250: 2553 efbe 439f 8d3d def5 31bf 3429 7abf
00000260: 235b 193e d271 093d d843 2abe b7e7 02be
00000270: ad00 393d 741a 9e3e e995 f3be 9a99 6fbf
00000280: 4b08 f03e 42f0 14bd 09ca acbe 1430 61be
00000290: 3299 a03e e99c 50be d067 d0be d03e 54bf
000002a0: 1831 743e 76e2 863d 3f6d 003e 9b2a e13d
000002b0: 69a3 24be aca6 2dbd 6d91 d0be 17a7 99be
000002c0: f142 8a3d 596a 813e 2540 28bf 3bc9 873d
000002d0: c7d0 bbbc 4f0e 243e f244 e83e 3294 053d
000002e0: b1cf 77be c219 6e3e 0fbf 2cbe c78f 82bc
000002f0: ff98 90bd 590a d6bc 2c32 00bf e293 04be
00000300: b293 4c3e c64c 9c3e 28c1 983e 91ef 04bc
00000310: c54f 44be dd98 a0be 8269 76bf 6a85 023e
00000320: ea42 783c 4c35 543e 89d7 08bc 89d9 b93d
00000330: 760a 4fbe 4669 1bbf 7176 70bf 2a99 753e
00000340: 3480 b5bd fc54 913d a92c 31bf 3e92 883d
00000350: 5101 973e 791b 63be f195 47bd 79b1 95be
00000360: 11fa ae3e 479b 0b3d a71a 98bd ad1a d13c
00000370: 9cd8 183d db2f ebbe d8c6 1f3f e37f 71be
00000380: dc20 06bd 8107 46be 0df6 3dbe 72d4 373e
00000390: 3098 353e 5f43 41bd a064 8c3e c38c 653e
000003a0: eb81 b5bd 8bfd d63d c476 8c3e 163b d3bd
000003b0: ab8a 1fbf 7d31 ad3e 6873 453e ef8f 313e
000003c0: 8e93 1c3e b94b 2ebd 8dbf a73e 5884 a0be
000003d0: 35f6 26be 8982 423e b8e0 7a3d d27c 99be
000003e0: e6c7 ac3e 8531 0f3e 8084 123e c794 b6bd
000003f0: 7db3 aabe dfc5 a43d d465 3e3d 50ee 64be

network_body._body_endoder.seq_layers.2.bias f4 [128]
0.08253962 0.0112585 -0.12520802 -0.046259176 -0.0859176 -0.13685417 0.041389417 -0.0077554807
-0.04591877 0.019203471 -0.001025284 0.009249154 -0.11873903 0.018707335 -0.39258003 -0.066185124
-0.005153933 -0.0032386906 -0.081257254 -0.027522286 -0.08909678 -0.45809388 -0.1625579 -0.047569208
-0.0046383166 -0.030866055 0.014967404 -0.066112034 -0.012516416 -0.064151675 -0.1013132 0.08061247
-0.037570834 -0.025278106 -0.03553616 -0.3949523 0.0049555586 -0.041118782 -0.0056096623 -0.08488045
-0.16690998 -0.23355085 -0.10521707 -0.16240911 0.01772097 -0.056274753 -0.13307755 -0.03972776
-0.039468408 -0.020537602 -0.057783563 -0.0813838 0.036739968 0.013331398 -0.024303693 -0.014773074
-0.051690146 -0.035048656 -0.028569128 -0.13209918 -0.17523317 0.035007402 -0.28947482 0.03546542
-0.1292161 -0.023720685 0.032675687 -0.07510305 -0.03130356 0.05847165 0.033043172 -0.01212204
-0.13011193 -0.035848066 -0.2066808 -0.012105481 -0.00796514 -0.06320445 -0.016205428 -0.055929404
-0.03498464 -0.035376232 -0.11768201 0.007661778 -0.05033972 0.06083583 -0.09513598 -0.106352195
0.015461335 0.03023559 -0.1309217 -0.047535703 0.0038302834 -0.09850105 -0.04493749 -0.069855966
-0.08520798 -0.011150162 0.0020251982 -0.22208318 0.019544972 -0.01912732 -0.07483189 -0.10782679
-0.03336986 0.0011622644 -0.024539718 -0.03521644 -0.17108937 -0.02460776 -0.06736925 -0.034683693
-0.074639566 -0.31484413 -0.014503069 -0.04591137 -0.023336438 -0.0022597576 -0.20220314 -0.044137333
-0.07424063 -0.071729094 0.023286946 -0.006101995 -0.038438484 0.034086302 -0.08515592 -0.017817369
00000000: 880a a93d 9275 383c 8836 00be 437a 3dbd
00000010: 91f5 afbd 8023 0cbe f387 293d b021 febb
00000020: 5215 3cbd 9950 9d3c d262 86ba c389 173c
00000030: 732d f3bd 2040 993c 4000 c9be 118c 87bd
00000040: 53e2 a8bb 3640 54bb 346a a6bd 6b76 e1bc
00000050: 5f78 b6bd 488b eabe 9475 26be eed7 42bd
00000060: 05fd 97bb cfda fcbc d839 753c bf65 87bd
00000070: a711 4dbc f461 83bd 4c7d cfbd 2718 a53d
00000080: e0e3 19bd 0814 cfbc 5d8e 11bd 3037 cabe
00000090: 3d62 a23b 2b6c 28bd 42d1 b7bb cdd5 adbd
000000a0: 73ea 2abe f427 6fbe 0c7c d7bd 934e 26be
000000b0: 912b 913c 5b80 66bd 7b45 08be 93b9 22bd
000000c0: a0a9 21bd 793e a8bc 75ae 6cbd 8dac a6bd
000000d0: a67c 163d f06b 5a3c 8a18 c7bc c30a 72bc
000000e0: 0cb9 53bd 2e8f 0fbd ce09 eabc 0245 07be
000000f0: 5370 33be ec63 0f3d 0b36 94be 3044 113d
00000100: 3a51 04be e251 c2bc f1d6 053d a1cf 99bd
00000110: 2938 00bd f87f 6f3d 4758 073d 859b 46bc
00000120: 103c 05be 6cd5 12bd 22a4 53be 1156 46bc
00000130: 3880 02bc 5671 81bd 3fc1 84bc 3b16 65bd
00000140: 0e4c 0fbd abe6 10bd 4403 f1bd a70f fb3b
00000150: 0631 4ebd fe2e 793d a7d6 c2bd 2ecf d9bd
00000160: 8a51 7d3c a1b0 f73c 5710 06be ccb4 42bd
00000170: 7e05 7b3b ebba c9bd 6010 38bd a510 8fbd
00000180: 8581 aebd 2baf 36bc 30b9 043b c669 63be
00000190: c71c a03c e6b0 9cbc 7641 99bd 4bd4 dcbd
000001a0: d6ae 08bd 1f57 983a 8507 c9bc 1d3f 10bd
000001b0: 0d32 2fbe 3796 c9bc e4f8 89bd 7d10 0ebd
000001c0: a1dc 98bd 4033 a1be 489e 6dbc 900d 3cbd
000001d0: 0f2c bfbc 7118 14bb 570e 4fbe 59c9 34bd
000001e0: 790b 98bd b4e6 92bd 44c4 be3c 3ef3 c7bb
000001f0: ac71 1dbd 149e 0b3d 3a66 aebd bbf5 91bc

network_body._body_endoder.seq_layers.2.weight f4 [128, 128]
0.00016659481 0.092385545 -0.580408 -0.089669056 -0.25008112 -0.20862111 -0.41685382 0.038824
0.16470785 0.11016522 -0.039368134 -0.12380114 -0.12221778 -0.053097922 -0.15292254 0.14080432
-0.079722345 -0.025323298 0.0021404459 -0.3447963 -0.13514185 -0.24129161 -0.11371482 -0.2350395
0.010115099 -0.0032609275 -0.4652863 -0.15739901 -0.0064646997 0.24314448 0.12864286 0.2238825
-0.11054374 -0.048991956 -0.048582707 -0.38850492 -0.19783759 -0.42199722 0.06503861 -0.004215376
-0.38796413 -0.5466327 0.02237908 -0.020787183 0.16690756 -0.056483608 -0.43883982 -0.057030935
0.012386812 -0.32968226 -0.07888139 -0.039240457 -0.21619645 -0.11052613 -0.14932075 0.0153522035
-0.28366044 -0.1945819 -0.18376124 -0.31544724 0.021663519 -0.11659974 -0.17643182 0.34548903
0.044624627 -0.15783274 -0.028923586 0.1321184 -0.11168162 0.059910897 -0.14406525 -0.10428326
-0.113635495 -0.0029120147 0.02434797 -0.2928517 -0.098426096 -0.07208292 -0.24750085 0.15543176
-0.086505905 0.055788327 -0.23091035 -0.11131856 0.02409848 -0.26606223 0.07569781 0.06569025
-0.1769179 0.0818752 -0.12690501 -0.32104573 0.18081701 0.09417474 0.0470591 -0.3489143
-0.005209104 -0.3218485 -0.15338182 0.0023132607 0.090620264 0.19978057 0.08915751 0.1165162
-0.27265376 -0.55508053 0.04585828 -0.114746824 0.026467945 -0.0043777297 0.117330976 0.02870869
0.004275966 -0.07853106 -0.03695946 0.19424358 0.07121041 -0.12347708 -0.21365343 0.19949393
-0.34280747 -0.033138495 -0.21461408 -0.5299958 -0.12860106 -0.03237475 0.046073176 -0.013782121
-0.021340372 0.11527836 0.044740696 0.040921416 0.0071769827 0.08865995 0.04786273 -0.057334267
0.064178996 -0.0673052 -0.0055392627 -0.10766328 -0.07053638 0.014388777 0.04635835 -0.09204655
0.035685096 -0.008706024 0.038531788 0.043446653 -0.112172306 0.062302366 0.05782667 0.047306146
-0.053070422 0.056419294 0.061482683 0.05473914 0.09638744 -0.03913458 -0.018811721 -0.14557433
0.026111778 0.0020679354 0.09287658 -0.041283526 0.041139927 0.032450624 0.019808562 -0.08414704
-0.011401173 -0.085864775 0.0034970003 0.11530597 0.05361188 -0.030201253 -0.09677376 0.08411968
-0.14475082 0.03643338 0.0013508702 -0.08586735 -0.10830613 2.4893496e-05 -0.14721136 -0.010550397
0.010171512 0.071343146 -0.07666907 0.061619803 0.05674432 0.04590055 -0.12715639 -0.08983165
-0.010436334 -0.011850997 -0.030750714 -0.1493961 0.07198479 0.07491929 -0.06079171 -0.022153597
-0.08119454 -0.19819789 -0.06262422 -0.112719096 -0.035079345 -0.07644624 -0.05573324 0.03164204
-0.02028538 -0.06590132 0.042349335 -0.027473835 -0.072242916 -0.05332112 0.07014727 -0.24038486
-0.0009469054 -0.0071682553 0.06446027 0.06303002 0.024113514 -0.23148231 0.042843573 0.029097104
-0.24011642 -0.18717964 0.082088925 -0.04764307 -0.07412352 0.13758278 -0.04875828 -0.14641486
0.0013447277 -0.049100306 0.085050724 0.025461208 0.010665035 0.016076185 1.4865616e-06 -0.040294737
-0.0007635993 0.032391295 0.06666426 -0.012099912 0.045910034 -0.04649718 0.042097986 -0.029391857
-0.06078868 -0.0026417742 0.027600834 -0.027610281 0.11427085 -0.024524556 -0.010988551 -0.08891858
00000000: f4af 2e39 a234 bd3d 9e95 14bf 69a4 b7bd
00000010: a20a 80be c6a0 55be dd6d d5be ea05 1f3d
00000020: 2da9 283e 4e9e e13d 7b40 21bd 748b fdbd
00000030: 514d fabd 357d 59bd ba97 1cbe 022f 103e
00000040: 7845 a3bd ce72 cfbc b946 0c3b 2489 b0be
00000050: a062 0abe 2615 77be 51e3 e8bd 32ae 70be
00000060: cdb9 253c 49b5 55bb 023a eebe 352d 21be
00000070: d5d5 d3bb defa 783e f4ba 033e 7441 653e
00000080: c264 e2bd caab 48bd a9fe 46bd 1eea c6be
00000090: f095 4abe 0510 d8be f632 853d 2321 8abb
000000a0: 3ca3 c6be 1ff0 0bbf 5554 b73c e249 aabc
000000b0: d1e9 2a3e 5b5b 67bd 9daf e0be 4599 69bd
000000c0: 0ef2 4a3c 1dcc a8be 918c a1bd 9aba 20bd
000000d0: 9a62 5dbe 865b e2bd 8ae7 18be cf87 7b3c
000000e0: f13b 91be 7a40 47be e82b 3cbe 4d82 a1be
000000f0: b177 b13c d8cb eebd 8baa 34be f0e3 b03e
00000100: 50c8 363d e89e 21be 28f1 ecbc 0c4a 073e
00000110: 55b9 e4bd 2165 753d d785 13be 7692 d5bd
00000120: bab9 e8bd 80d7 3ebb 6575 c73c a8f0 95be
00000130: 9f93 c9bd 36a0 93bd dd70 7dbe 8129 1f3e
00000140: 022a b1bd 4d82 643d c373 6cbe fcfa e3bd
00000150: 2d6a c53c 4f39 88be 7407 9b3d 9c88 863d
00000160: f729 35be 2fae a73d 63f3 01be 1b60 a4be
00000170: 1828 393e b0de c03d 0bc1 403d e5a4 b2be
00000180: 22b1 aabb 54c9 a4be 2010 1dbe 139a 173b
00000190: 1e97 b93d 4793 4c3e 3698 b63d 0ca0 ee3d
000001a0: 4699 8bbe c219 0ebf e4d5 3b3d 6200 ebbd
000001b0: 4ed3 d83c 0f73 8fbb 394b f03d 7d2e eb3c
000001c0: 671d 8c3b e4d4 a0bd cd62 17bd cae7 463e
000001d0: c3d6 913d 8de1 fcbd f7c7 5abe 2348 4c3e
000001e0: 7684 afbe 3bbc 07bd cbc3 5bbe cead 07bf
000001f0: ffaf 03be 639b 04bd 3ab7 3c3d 68ce 61bc
00000200: 01d2 aebc 1017 ec3d 0542 373d 379d 273d
00000210: e52c eb3b 5993 b53d b60b 443d 56d7 6abd
00000220: 4770 833d 4fd7 89bd b482 b5bb 917e dcbd
00000230: 6175 90bd e8be 6b3c 41e2 3d3d e782 bcbd
00000240: 892a 123d b6a3 0ebc 82d3 1d3d 1ef5 313d
00000250: 98ba e5bd c430 7f3d a9db 6c3d 17c4 413d
00000260: 5f60 59bd eb17 673d 44d5 7b3d 2636 603d
00000270: c766 c53d 954b 20bd 0a1b 9abc 7011 15be
00000280: 5ee8 d53c 3386 073b 1436 be3d ea18 29bd
00000290: 5782 283d f2ea 043d 9145 a23c 4955 acbd
000002a0: fccb 3abc dfd9 afbd ee2d 653b 8925 ec3d
000002b0: 2198 5b3d 9e68 f7bc 5231 c6bd f046 ac3d
000002c0: 8f39 14be 2b3b 153d af0f b13a 39db afbd
000002d0: 9bcf ddbd 60d2 d037 93be 16be 93db 2cbc
000002e0: 6aa6 263c 5b1c 923d ac04 9dbd 0c65 7c3d
000002f0: bb6c 683d 3702 3c3d 4935 02be a8f9 b7bd
00000300: 28fd 2abc af2a 42bc ece8 fbbc 4bfb 18be
00000310: c36c 933d 496f 993d ba00 79bd 767b b5bc
00000320: 5349 a6bd 63f4 4abe 2141 80bd 45d9 e6bd
00000330: 5caf 0fbd d98f 9cbd 8a48 64bd 159b 013d
00000340: 862d a6bc 45f7 86bd 7f76 2d3d cf10 e1bc
00000350: 18f4 93bd 3f67 5abd 5fa9 8f3d 7327 76be
00000360: bf39 78ba afe3 eabb bf03 843d e215 813d
00000370: b489 c53c b309 6dbe be7c 2f3d 0d5d ee3c
00000380: 14e1 75be 05ac 3fbe 3d1e a83d 6125 43bd
00000390: 12ce 97bd 80e2 0c3e c3b6 47bd c7ed 15be
000003a0: 9341 b03a 671d 49bd 132f ae3d 0694 d03c
000003b0: 66bc 2e3c 34b2 833c de85 c735 180c 25bd
000003c0: 482c 48ba bcac 043d 4687 883d b63e 46bc
000003d0: 290c 3c3d d473 3ebd f06e 2c3d 31c7 f0bc
000003e0: 8dfd 78bd 9e21 2dbb 251b e23c f52e e2bc
000003f0: d606 ea3d b9e7 c8bc 5309 34bc f21a b6bd
