Maize-Runner/results/IncrementLearning/EscapeMaze/EscapeMaze-350625.onnx (onnx, 200372 bytes, 9 tensors)

action_model._continuous_distribution.log_sigma f4 [1, 2]
0	0xbd06eb50	-0.032939255
1	0xbcd40c37	-0.02588473

action_model._continuous_distribution.mu.bias f4 [2]
0	0xbcea8377	-0.02862714
1	0x3bea944e	0.0071587926

action_model._continuous_distribution.mu.weight f4 [2, 128]
0	0xbbce7b9c	-0.0063013565
1	0x3d3a6d64	0.04551448
2	0x3b61d3f0	0.00344586
3	0x3d1a8169	0.03772107
4	0x3cadffb8	0.0212401
5	0x3d2f6619	0.042821977
6	0x3cf42d08	0.029806629
7	0x3d2a0525	0.041508812
8	0xbbabf749	-0.0052479845
9	0x3b28ca13	0.0025755211
10	0xbc08756f	-0.00832878
11	0xbca9c0f6	-0.020721894
12	0x3c9bcd80	0.019018888
13	0xbc4aa41c	-0.012368228
14	0x3d0a8ae0	0.033823848
15	0x3a2bbd7b	0.0006551367
16	0xbc1d6d0b	-0.009608517
17	0xbb733bd8	-0.0037114527
18	0xbc9ec778	-0.019382223
19	0x3c0e81d2	0.008697944
20	0x3d24fb22	0.04027856
21	0x3c68fbad	0.01422016
22	0xbbb3e6a6	-0.005490142
23	0xbb473f04	-0.003040255
24	0x3b863639	0.0040958193
25	0xbcc0930e	-0.023507621
26	0xbca7fb73	-0.020505643
27	0xbc820d8e	-0.015875604
28	0xba1ac011	-0.0005903254
29	0xb9cf2677	-0.00039510775
30	0xbbb4b8ec	-0.0055152085
31	0x3cbf23d6	0.023332518
32	0xbd295f0b	-0.041350406
33	0x3ad5793f	0.0016286745
34	0x3b843e13	0.00403572
35	0xb7cc1755	-2.432956e-05
36	0xbd6a76fc	-0.05724238
37	0x3d141d77	0.036160912
38	0x3d217404	0.03941728
39	0xbcee6a44	-0.029103406
40	0xbc9065f5	-0.017626742
41	0x3b4fc55d	0.003170333
42	0x3b016992	0.0019746763
43	0xbb51ad89	-0.0031994304
44	0x3c0d65f1	0.008630262
45	0x3af0a8bf	0.0018360837
46	0x39e6b637	0.0004400478
47	0x3c82c837	0.01596461
48	0x3c52de26	0.012870347
49	0xbb94b6d1	-0.004538395
50	0xbcef33c4	-0.029199488
51	0x3c7761d6	0.0150990095
52	0xbcba3f44	-0.022735246
53	0x3d01641d	0.031589616
54	0x3c0c68b9	0.00856989
55	0xbb29a30b	-0.0025884535
56	0x3cfd185b	0.030895403
57	0x3becf0a0	0.007230833
58	0xbca7e058	-0.020492718
59	0x3abfd84a	0.0014636603
60	0xb99ee906	-0.00030309724
61	0x3d0d00b5	0.034424502
62	0xbaf4c2a3	-0.0018673729
63	0xbbea20a8	-0.007145006
64	0xbb62c8ba	-0.0034604506
65	0x3d01e131	0.0317089
66	0x3c0b6461	0.008507819
67	0x3b9aae31	0.0047204723
68	0x3c5c0d80	0.013430953
69	0x3cd012fe	0.025399681
70	0xb964d691	-0.00021823707
71	0x3c5da1e7	0.01352737
72	0x3a46709f	0.00075698824
73	0x3a71a472	0.00092179247
74	0x3b34656d	0.0027526275
75	0x3b50d9cc	0.0031868098
76	0xbc7a5996	-0.015280148
77	0x3c2d447b	0.010575409
78	0xbd0fb5f5	-0.035085637
79	0xbb29eeab	-0.002592961
80	0xbba49c9c	-0.005023552
81	0x3b9fc8c0	0.004876226
82	0xbb2fa200	-0.002679944
83	0xbc041b9c	-0.008063223
84	0xbb0ea4d2	-0.002176572
85	0x3d3f39ff	0.04668617
86	0xbb5d45e6	-0.0033763587
87	0xbacc1f1f	-0.001557324
88	0xbbd1fc60	-0.0064082593
89	0x3ce119af	0.027478067
90	0x3b9d555b	0.004801435
91	0xb94e3448	-0.00019665167
92	0x3c2c24f3	0.010506856
93	0x3b32f73c	0.0027308008
94	0x3d033076	0.032028638
95	0xba769744	-0.00094066956
96	0x3c77de33	0.01512866
97	0xbc269bfd	-0.010169026
98	0xb937be3d	-0.0001752311
99	0x3c55c5b1	0.013047622
100	0xbbacc488	-0.005272452
101	0x3c8c257a	0.017107714
102	0xbc9f4ea3	-0.019446677
103	0xbb5fe9e3	-0.0034166507
104	0xbd1decdb	-0.03855596
105	0x3c8e0c55	0.017339865
106	0xb88ed231	-6.810239e-05
107	0x3a04c550	0.0005064802
108	0x3cf45a97	0.029828353
109	0x3ac3b818	0.0014932184
110	0xbc1ca957	-0.009561858
111	0xbd061971	-0.032739107
112	0x3cc34aa4	0.023839302
113	0x3c0ea81e	0.008707074
114	0xbb13ba65	-0.002254152
115	0xbc972af3	-0.018453097
116	0xbb7b37a7	-0.0038332732
117	0xba32a8c5	-0.000681531
118	0x3ace6855	0.0015747646
119	0xbb877e44	-0.004134925
120	0x3c85ebf2	0.016347859
121	0x3abcabf7	0.0014394511
122	0x3cae991f	0.021313248
123	0x3c239cab	0.009986083
124	0xbc98bdda	-0.018645216
125	0x3a8ef32d	0.0010906212
126	0xbc91fdb3	-0.017821169
127	0x3cd612c0	0.026131988
128	0x3c758172	0.014984475
129	0xbc55d91d	-0.013052252
130	0x3c00cd1d	0.007861403
131	0xbd16bab7	-0.03679916
132	0x3bed8bc5	0.007249328
133	0xbc8e1c31	-0.017347427
134	0x3b729bf3	0.0037019223
135	0xbcaf1dba	-0.02137648
136	0xbc98d783	-0.018657451
137	0xbcabf23b	-0.020989528
138	0x3a184af1	0.0005809507
139	0xbbce2592	-0.0062911
140	0xbbf9d414	-0.0076241586
141	0x3bbb0861	0.005707786
142	0x3d0771ef	0.03306764
143	0x3b6c928d	0.0036098093
144	0xbd083298	-0.033251375
145	0xbbb2a9ec	-0.005452385
146	0xbced99cf	-0.029004006
147	0x3b1e3d61	0.0024145471
148	0x3d1ad304	0.037798896
149	0xbd188901	-0.037240032
150	0x3cb18cca	0.021673579
151	0xbc294c55	-0.01033314
152	0x3d1e4142	0.038636453
153	0x3cbb10d8	0.02283518
154	0x3c605380	0.013691783
155	0x3d08d14f	0.033402737
156	0xbaa9a4fa	-0.0012942844
157	0xb9ad242d	-0.00033024084
158	0x3bfd8009	0.0077362102
159	0x3d114d14	0.035473898
160	0xbc885ab4	-0.016644813
161	0x3b9132bf	0.0044310982
162	0xbd2c08fa	-0.04200075
163	0x3bc06c8c	0.005872315
164	0x3c123c57	0.008925519
165	0xbbcaccf9	-0.0061889854
166	0xbcefb3dd	-0.02926057
167	0xbcb15bc0	-0.021650195
168	0xbb85060c	-0.0040595587
169	0xba2a4b30	-0.0006496189
170	0x3b170e4d	0.0023049295
171	0xb9677f9a	-0.00022077412
172	0xbc5591f0	-0.0130352825
173	0x3cc90794	0.024539746
174	0xbae7d945	-0.0017688653
175	0xbc3e77fc	-0.011625286
176	0x3c0da1cd	0.008644533
177	0x3b9b2d63	0.004735635
178	0x3d08b035	0.03337117
179	0xbc954b54	-0.018224396
180	0xbc79399a	-0.015211487
181	0x3c3d7d09	0.011565455
182	0xbcc925a6	-0.024554085
183	0xb9a7136c	-0.00031867193
184	0x3c0435aa	0.008069435
185	0xbca5cef7	-0.02024029
186	0x3c827792	0.015926156
187	0xba89c671	-0.0010511411
188	0xbae8b0e5	-0.0017752914
189	0x3a6b7efc	0.0008983461
190	0x3d552710	0.052039206
191	0xbd05e47e	-0.03268861
192	0xbb24cd27	-0.0025146694
193	0xbc2a80b6	-0.010406664
194	0x3c4bcbfe	0.012438772
195	0x3d799d7b	0.0609412
196	0x3d5b7d6b	0.053586405
197	0x3b94c4c9	0.00454006
198	0xbb16bb71	-0.0022999907
199	0xbcb43be4	-0.022001214
200	0x3b6f8c62	0.003655218
201	0xba8110c2	-0.0009846913
202	0x3b4ddc51	0.0031411836
203	0x3b6a79ad	0.003577809
204	0xb600bdbd	-1.9183929e-06
205	0xbc2c358b	-0.0105108125
206	0x3ca96c8a	0.020681638
207	0xbc4571dc	-0.012051072
208	0x3aa91383	0.0012899492
209	0x3c87e616	0.016589206
210	0xbc38897c	-0.011263248
211	0xbb15042f	-0.002273809
212	0x3bc2da10	0.005946405
213	0x3c825621	0.01591021
214	0x38f977f3	0.000118955875
215	0xbd594730	-0.053046405
216	0xbc796e60	-0.015224069
217	0xbd044f7a	-0.032302357
218	0xbca651cc	-0.020302676
219	0x3a731030	0.00092721265
220	0xbc397aaa	-0.011320749
221	0xba9d5f07	-0.001200647
222	0x3cbc6a90	0.023000032
223	0xbc9510a0	-0.018196404
224	0x3c75d5f4	0.015004624
225	0xbc58e37d	-0.013237831
226	0xbbe0db07	-0.0068620476
227	0xbc8dd959	-0.017315554
228	0x3cdca819	0.026935624
229	0x3d27edb3	0.040998172
230	0x3a7297e0	0.00092541985
231	0x3d812248	0.06305367
232	0xbcaa520a	-0.020791072
233	0x3cde9eb3	0.027175283
234	0xbb0ff45a	-0.0021965713
235	0xbbade655	-0.0053069987
236	0xbcaec519	-0.021334218
237	0xbb0d6b5d	-0.0021578886
238	0xbc9642d2	-0.01834241
239	0x3c3abdc8	0.011397786
240	0x3ca71fff	0.020401
241	0x3afaad21	0.0019125083
242	0xb975e8dd	-0.00023451769
243	0x3d966b08	0.07344633
244	0xbb3fb414	-0.0029251622
245	0xb92823e3	-0.00016035097
246	0xbca78d7b	-0.020453205
247	0x3c633554	0.013867695
248	0x3c19f533	0.009396839
249	0xbb567f5f	-0.0032729728
250	0x3cddd026	0.027076792
251	0xbbd1be03	-0.006400825
252	0x3c7488b4	0.014925171
253	0xbba55060	-0.005044982
254	0x3bb0d75e	0.0053967675
255	0x3a60f612	0.0008581589

network_body._body_endoder.seq_layers.0.bias f4 [128]
0	0x3c8a5713	0.016887223
1	0xbb8f9541	-0.004381806
2	0x3cff722a	0.031182367
3	0x3c3f6a47	0.011683053
4	0x3caa0f26	0.020759176
5	0xbaa0cfb1	-0.0012268928
6	0xbc98d8aa	-0.018658001
7	0x3ce61dea	0.028090436
8	0xbc041ef6	-0.008064022
9	0xbc5544fc	-0.013016935
10	0xbc7f5188	-0.015583403
11	0xbc9e905a	-0.019355942
12	0xbc8f357f	-0.017481564
13	0x3c4ea242	0.012611927
14	0x3c359b1f	0.011084347
15	0xbc59d74f	-0.0132959625
16	0x3c50937a	0.012730474
17	0xbca66300	-0.020310879
18	0xbd20c6a2	-0.03925193
19	0x3cdb2ebc	0.026755683
20	0xbb21b2e9	-0.002467329
21	0x3cc17dca	0.023619551
22	0xbccd68f5	-0.025074461
23	0x3ca385a7	0.019961191
24	0x3c975736	0.018474203
25	0xbc48fd14	-0.01226737
26	0xbc95c616	-0.018282931
27	0xbc74fc63	-0.014952752
28	0xbbcd290a	-0.0062609958
29	0xbc9e9966	-0.019360255
30	0x3cc8b47c	0.024500124
31	0x3cb00f01	0.02149153
32	0xbc2b3f95	-0.010452171
33	0xbc20bfcd	-0.009811354
34	0x3ca0d144	0.019631036
35	0x3904a485	0.0001264979
36	0x3cd70838	0.026249036
37	0x3c07c93c	0.008287724
38	0xbc35db9b	-0.011099721
39	0x3bcce1a8	0.0062524863
40	0x3beeb492	0.0072847093
41	0xbc372abb	-0.011179621
42	0xbb5dcfe6	-0.003384584
43	0xbc595773	-0.013265478
44	0xbc5b2795	-0.013376136
45	0xbc9b3fa0	-0.018951237
46	0xbc40f367	-0.011776782
47	0xbc885213	-0.016640699
48	0x3c6b46b6	0.0143601205
49	0xba165660	-0.0005734917
50	0x3d32ef2d	0.043685127
51	0xbd431183	-0.047624122
52	0x3b85ab09	0.004079227
53	0x3c067718	0.008207105
54	0xbc7d82fc	-0.015473124
55	0x3b183728	0.0023226235
56	0xbc0da7f5	-0.008646001
57	0xbbfa5240	-0.0076391995
58	0xbcb51fcd	-0.02210989
59	0xbc5c3484	-0.013440255
60	0xbc8dae2b	-0.017294964
61	0x3c65f7ee	0.014036162
62	0x3cc32a3f	0.023823855
63	0x3b46acbb	0.0030315358
64	0xbc899d30	-0.016798586
65	0xbc35bc0d	-0.011092198
66	0x3b7451e8	0.0037280265
67	0x3bb189bd	0.005418031
68	0x3bbad1c5	0.005701276
69	0xbc6cfac1	-0.014464081
70	0x3c63fd27	0.013915337
71	0x3b5a7afa	0.003333746
72	0xbb7f29f6	-0.0038934923
73	0xbb4d8fbe	-0.0031366195
74	0xbc2d0bd7	-0.010561905
75	0xba97bff9	-0.0011577598
76	0xbd02782a	-0.03185288
77	0xbbae6012	-0.005321511
78	0x3ca9248d	0.020647312
79	0x3cb9cb05	0.022679815
80	0x3c4a1b9f	0.012335687
81	0xbc71b7ca	-0.014753291
82	0xbcaaaed4	-0.020835318
83	0xbbd6a968	-0.0065509565
84	0xbc1f68fb	-0.009729619
85	0xbcffa92b	-0.031208595
86	0xbc9c0978	-0.019047484
87	0x3b2fc92d	0.002682279
88	0xbd0d409b	-0.03448544
89	0xbd0b00c2	-0.03393627
90	0xbca6d16c	-0.020363532
91	0xbc1d2cb2	-0.009593176
92	0xb9ed7a2b	-0.00045295185
93	0xbceae5ac	-0.02867397
94	0xbc801276	-0.015633803
95	0xbcf55aa4	-0.029950447
96	0x3ca3d2cb	0.019997975
97	0xbc65fe19	-0.014037632
98	0x3c4fe84a	0.012689659
99	0x3cf118cb	0.029430768
100	0x3c6aba45	0.014326637
101	0xbb641771	-0.0034804011
102	0x3ba89cfb	0.0051456667
103	0xbc911707	-0.017711176
104	0x3ccf6b3f	0.025319694
105	0x3bf1a323	0.0073741837
106	0x3bc8c331	0.0061267843
107	0x3b92e90b	0.0044833473
108	0x3a85eb80	0.0010217279
109	0x3c23260d	0.0099578025
110	0xbb858317	-0.004074465
111	0x3adce390	0.0016852487
112	0x3b616237	0.0034390816
113	0xba37f345	-0.0007017146
114	0x3b00d1a2	0.00196562
115	0x3bef1fbf	0.0072974856
116	0xbcf9c336	-0.030488592
117	0xbac3b6e7	-0.0014931828
118	0xbbd9017a	-0.0066224905
119	0xbc42ecd4	-0.011897285
120	0x3c798abe	0.015230833
121	0xbc22eb76	-0.009943834
122	0x3bb6f8c4	0.0055838544
123	0x3c8838e9	0.0166287
124	0xbc14af49	-0.009074994
125	0x3c95fbdd	0.018308574
126	0x3cb53a54	0.02212254
127	0xbc40e912	-0.011774318

network_body._body_endoder.seq_layers.0.weight f4 [128, 126]
0	0x3d4c3404	0.049854293
1	0xbe034c13	-0.12821989
2	0x3d223bf0	0.039607942
3	0xbd882b4b	-0.066488825
4	0x3d28e15b	0.04123054
5	0xbd5ad7a9	-0.053428326
6	0x3dc22400	0.09479523
7	0x3c8d5e3d	0.01725685
8	0x3cbdd7a4	0.023174115
9	0xbd23014c	-0.03979616
10	0x3dc384a0	0.095467806
11	0x3db82216	0.089908764
12	0xbc2088c4	-0.0097982325
13	0x3dd04103	0.1016865
14	0x3d6d134b	0.057879727
15	0xbd07406c	-0.03302042
16	0xbd1d2ac6	-0.03837087
17	0xbe232a2f	-0.1593406
18	0x3cfb8c9d	0.030706698
19	0x3d1efdc7	0.03881624
20	0x3d45951b	0.0482379
21	0xbd9b775d	-0.07591126
22	0x3d6e47d4	0.05817397
23	0xbe282c74	-0.16423208
24	0xbd963c65	-0.07335738
25	0x3c7d426f	0.0154577335
26	0x3e322363	0.17396311
27	0x3d873ec3	0.06603768
28	0x3e445062	0.19171289
29	0x3e3b6087	0.18298541
30	0xbd05bbb4	-0.03264971
31	0xbdc2a52e	-0.09504162
32	0x3da473da	0.080299094
33	0x3da1e940	0.07905817
34	0x3d6c23d6	0.057651363
35	0xbd8695e7	-0.0657156
36	0x3d4e2096	0.050324045
37	0xbdac56d9	-0.084150024
38	0x3dad77f6	0.08470146
39	0xbdcd0fcb	-0.10012778
40	0x3daa423b	0.08313414
41	0xbdbb46bf	-0.09144353
42	0xbdd46a08	-0.10371786
43	0xbcd00ee8	-0.025397733
44	0x3d8ac178	0.067751825
45	0xbd733c9d	-0.059383977
46	0x3e310411	0.17286707
47	0xbbff7be4	-0.0077967513
48	0xbe7c4510	-0.2463572
49	0xbdc6c81b	-0.09706136
50	0xbcb7c04a	-0.022430558
51	0x3bb1da6e	0.00542765
52	0xbbc74cf7	-0.006082173
53	0xbe409fde	-0.18810984
54	0x3bd8a080	0.00661093
55	0x3d2b0a37	0.04175779
56	0x3db51943	0.08842709
57	0xbe1fd0ce	-0.15606996
58	0xbd611d95	-0.054959852
59	0xbe037575	-0.12837775
60	0xbd622eff	-0.0552206
61	0xbd1a1e35	-0.037626464
62	0xbcdee97d	-0.027210945
63	0xbe880f2c	-0.26574075
64	0xbdb8db37	-0.09026187
65	0xbe0219b6	-0.1270512
66	0x3dd2237b	0.102606736
67	0x3e3d4c51	0.18486144
68	0xbd594f56	-0.053054176
69	0xbd9fdc06	-0.07805638
70	0x3d611e78	0.054960698
71	0x3d881d0d	0.06646166
72	0x3e12ba8c	0.14328974
73	0xbd209c1e	-0.039211385
74	0xbe731c2b	-0.23741214
75	0xbd77b5aa	-0.060475983
76	0xbce856a2	-0.028361622
77	0x3d8f4fb9	0.06997628
78	0x3e1aaa4f	0.1510403
79	0x3dcaddc4	0.0990558
80	0xbe4b364b	-0.1984493
81	0xbe259154	-0.1616872
82	0x3e1979d1	0.14987876
83	0x3d42e86a	0.04758493
84	0x3e476f60	0.1947608
85	0x3d12d00b	0.035842936
86	0xbe8837fe	-0.2660522
87	0xbb1dc732	-0.0024075028
88	0xbddf07c8	-0.10890156
89	0x3dbaf838	0.09129375
90	0xbab32317	-0.0013667074
91	0x3cd999f7	0.026562674
92	0xbe3d8603	-0.18508153
93	0xbe51ed31	-0.20500638
94	0x3cdb10b2	0.02674136
95	0x3d42f2b0	0.047594726
96	0x3d701f1c	0.05862342
97	0xbdc3df20	-0.09564042
98	0x3d6f1a44	0.05837466
99	0xbe20b4ef	-0.1569402
100	0xbd07a52a	-0.033116497
101	0x3dcfe4b5	0.10151044
102	0x3ce5ce66	0.02805252
103	0xbd706576	-0.05869051
104	0xbd85e4ba	-0.06537767
105	0x3e42dd86	0.19029817
106	0xbdfca719	-0.12336559
107	0x3e003ea1	0.12523891
108	0x3c939125	0.018013546
109	0xbd2e4a35	-0.042551238
110	0x3c07902c	0.008274119
111	0xbdd2bf30	-0.10290372
112	0xbd7060cc	-0.058686063
113	0x3e431553	0.19051103
114	0x3cbbf0e4	0.022942014
115	0x3cda4ad5	0.02664701
116	0x3cf8191a	0.030285407
117	0xbe9b80e7	-0.30371782
118	0xbcc8d2fb	-0.024514666
119	0x3e1a827a	0.15088835
120	0xbe04016f	-0.12891172
121	0xbc594698	-0.01326146
122	0xbe028b93	-0.12748556
123	0xbae12d3d	-0.001717962
124	0xbd3f1b2b	-0.04665677
125	0x3d500cb5	0.05079337
126	0xbd944c5e	-0.072411284
127	0x3d8d6720	0.06904435
128	0x3e857fee	0.26074165
129	0xbd901629	-0.07035477
130	0xbd53d1ff	-0.05171394
131	0x3c4441c8	0.011978574
132	0x3d0b054e	0.033940606
133	0xbc65ad63	-0.014018389
134	0xbd468003	-0.048461925
135	0xbdd84d3a	-0.10561605
136	0xbd822c69	-0.06356127
137	0xbd29ade6	-0.041425608
138	0xbe25ee16	-0.16204104
139	0xbe30e67b	-0.17275421
140	0x3e1a64f4	0.15077573
141	0x3d286c6c	0.041119024
142	0xbd7d217c	-0.06179951
143	0x3d615cf3	0.055020284
144	0xbcdf1182	-0.027230028
145	0xbd952f19	-0.07284374
146	0xbdb85e7e	-0.09002398
147	0xbe178f00	-0.14800644
148	0xbdb22fbd	-0.087005116
149	0xbd642c0d	-0.055706073
150	0x3dcbaf8b	0.099455915
151	0x3d8de97b	0.069292985
152	0x3d93ab6d	0.07210431
153	0x3e1981c5	0.1499091
154	0xbd97adf9	-0.074062295
155	0x3e502bbb	0.20329182
156	0xbdb90f66	-0.0903614
157	0x3d81ea9a	0.06343575
158	0x3d6cbd20	0.05779755
159	0xb99d754a	-0.0003003276
160	0x3c91ba01	0.017788889
161	0x3c456dfe	0.01205015
162	0xbde4cc24	-0.11171749
163	0xbdea0fdc	-0.11428806
164	0x3d51e1db	0.051240783
165	0x3d1a44ca	0.03766326
166	0x3e41993e	0.18906114
167	0x3d1f3553	0.038869213
168	0x3d6a0f2c	0.057143375
169	0x3cd58a1f	0.026066838
170	0xbd58c24b	-0.052919667
171	0xbd7da903	-0.06192876
172	0x3d349e9a	0.044096567
173	0xbd6cf460	-0.05785024
174	0x3d272436	0.040806018
175	0xbd2ae059	-0.04171786
176	0x3d958158	0.07300061
177	0xbd35aedb	-0.04435621
178	0x3bfcf55b	0.0077196783
179	0xbe38dcda	-0.18052998
180	0xbd53ba05	-0.051691074
181	0xbc36c82b	-0.011156122
182	0x3d71da91	0.05904633
183	0xbdf892d9	-0.12137384
184	0x3c827eb9	0.015929567
185	0xbe04a28a	-0.12952629
186	0x3c928306	0.017884742
187	0x3d17d115	0.03706463
188	0xbd8eebcc	-0.069785684
189	0xbd9119cf	-0.07085001
190	0xbda12519	-0.07868404
191	0x3d9447ce	0.07240258
192	0xbd41b79c	-0.047294244
193	0xbc4c5114	-0.012470502
194	0x3e0012b8	0.1250714
195	0xbe008fb5	-0.1255482
196	0x3d1358ab	0.035973232
197	0x3e132df0	0.14372993
198	0x3d92a1bf	0.07159757
199	0x3cc93ef8	0.024566159
200	0x3dbba4ef	0.09162318
201	0x3d241487	0.04005864
202	0x3df9134f	0.12161886
203	0x3d941336	0.07230227
204	0xbdfb3751	-0.1226641
205	0x3cef6dda	0.029227186
206	0x3e5f5ab7	0.21811949
207	0x3c364d37	0.011126808
208	0xbda290c3	-0.07937767
209	0x3e15a4ee	0.14613697
210	0xbe295547	-0.16536437
211	0x3d75b1d3	0.05998404
212	0x3dd75630	0.10514486
213	0xbdcde0b4	-0.10052624
214	0xbdc51736	-0.09623568
215	0x3d3bb721	0.045828942
216	0x3d5c8341	0.05383611
217	0x3cbfe449	0.023424285
218	0xbd0238da	-0.0317925
219	0xbe0f1e6c	-0.13976449
220	0x3d99a717	0.07502573
221	0x3e0085f9	0.12551107
222	0x3de64ef6	0.11245529
223	0x3d9cce04	0.07656482
224	0x3cb9eccc	0.022695921
225	0xbd357903	-0.04430486
226	0xbd2ac86e	-0.04169505
227	0x3d8fd6a4	0.07023361
228	0xbe276c1c	-0.16349834
229	0x3db5d3bb	0.08878275
230	0x3da19600	0.07889938
231	0xbd139737	-0.03603288
232	0x3d99a541	0.07502223
233	0x3e02609c	0.12732166
234	0x3e51780c	0.2045595
235	0xbe4402c5	-0.19141681
236	0x3ca9b0ac	0.020714127
237	0x3c8a0de8	0.016852334
238	0x3e1bac2c	0.15202397
239	0x3de0e050	0.10980284
240	0x3d0218fa	0.0317621
241	0x3dfb5b65	0.122732915
242	0xbd8b3ce5	-0.06798724
243	0xbe0e7243	-0.13910775
244	0xbd287f20	-0.04113686
245	0x3b3e5546	0.0029042526
246	0x3de09d8c	0.1096755
247	0x3da7acb2	0.08187236
248	0xbd044353	-0.032290768
249	0xbe2b10a9	-0.16705574
250	0x3d7c0fc4	0.061538473
251	0x3d7aff2f	0.06127852
252	0x3d332e54	0.043745354
253	0x3e19e859	0.1503004
254	0xbe0e2d25	-0.13884409
255	0x3d37ab13	0.044840883

network_body._body_endoder.seq_layers.2.bias f4 [128]
0	0xb9c2fe05	-0.00037191823
1	0xbcc3606f	-0.023849694
2	0xbce140c5	-0.027496705
3	0xbc6adcc8	-0.014334865
4	0x3c18dd4c	0.009330105
5	0x3cc7fbb4	0.024412014
6	0x3c6b6c91	0.014369146
7	0xbc37fb3f	-0.011229335
8	0xbc9aa265	-0.018876264
9	0xbce2476b	-0.027621945
10	0xbaa20791	-0.0012361874
11	0x3a8c1142	0.0010686296
12	0xbcbce450	-0.023058087
13	0xbc513852	-0.012769775
14	0x3c71310f	0.014721169
15	0x3c1335b1	0.008984969
16	0x3bd6bb9f	0.006553128
17	0x3d02bea8	0.031920105
18	0xbc8c3c72	-0.017118666
19	0xbc6e77e3	-0.01455495
20	0xbc4a031d	-0.012329844
21	0xbca1369d	-0.019679362
22	0x3c30cda1	0.010791213
23	0xbce30567	-0.027712537
24	0xbb0311ee	-0.00199997
25	0x3d11b5b3	0.035573673
26	0xbb45b387	-0.003016682
27	0xbcd40e6c	-0.025885783
28	0xbbb6cc56	-0.005578558
29	0xbb37107e	-0.0027933414
30	0x39e9548f	0.00044504224
31	0xbc647c86	-0.013945704
32	0x3c43afde	0.0119437855
33	0xbc91b5bd	-0.017786855
34	0xbc72337b	-0.014782782
35	0x3c4b54f4	0.012410391
36	0xbcb84bf1	-0.02249715
37	0xbc3afd9c	-0.011413004
38	0xbc935468	-0.017984584
39	0xbcb83f47	-0.02249111
40	0xbc188856	-0.009309849
41	0xbca07bb8	-0.019590244
42	0xbc97c732	-0.0185276
43	0xbc1747f4	-0.009233464
44	0x3c68e65b	0.014215077
45	0x3ba95bc5	0.0051684105
46	0x3c29edc5	0.01037163
47	0x3c7846a8	0.0151535645
48	0x3c0e3a3d	0.008680877
49	0xbb951e51	-0.004550733
50	0xbbee5aed	-0.007274023
51	0xbc340cc8	-0.010989375
52	0x3c874a64	0.016514964
53	0x3c744ee3	0.014911386
54	0xbc473276	-0.012158027
55	0xbc855347	-0.016275061
56	0xbcd26875	-0.025684575
57	0xbc649d0b	-0.013953458
58	0x3c848093	0.01617459
59	0x3c17883f	0.009248792
60	0xbc585324	-0.013203416
61	0xbb36caf5	-0.0027891968
62	0xbc2c2b41	-0.010508359
63	0xbc090d8a	-0.008365044
64	0xbca0d4bd	-0.019632692
65	0xbc921202	-0.017830852
66	0xba857812	-0.0010182878
67	0xbbf587d8	-0.0074930005
68	0xbc6d3985	-0.014479046
69	0x3bb019ff	0.0053741927
70	0xbceb4e7d	-0.02872395
71	0x3b50e122	0.003187247
72	0xbc851b93	-0.0162485
73	0xbb8cb37d	-0.0042938576
74	0xbc620aeb	-0.013796548
75	0xbc20f0f0	-0.009823069
76	0x3b86f8ed	0.0041190297
77	0x3b923b29	0.004462619
78	0xbc5dd1ee	-0.013538821
79	0xbbfcc238	-0.0077135824
80	0x3b85ccf1	0.004083269
81	0xbc1d8073	-0.009613144
82	0x3ca8b7ed	0.020595515
83	0x3c50669b	0.012719776
84	0xbbaf18bb	-0.0053435243
85	0x3c8744b6	0.016512256
86	0xbc2ef1bc	-0.010677751
87	0xbc80ca83	-0.015721565
88	0xbc863532	-0.016382787
89	0xbcda0702	-0.02661467
90	0xbc94fa03	-0.018185621
91	0xbbc1c3cb	-0.005913233
92	0xbd02edb0	-0.031964958
93	0xbbfa8623	-0.007645385
94	0x3bc59986	0.0060302643
95	0xbbb4ca21	-0.0055172597
96	0x3c1ae858	0.009454809
97	0x3cb87302	0.022515777
98	0xbb66da43	-0.003522531
99	0xbc8b66a3	-0.017016714
100	0x3c2b5808	0.010458
101	0x3cf6f720	0.030147135
102	0x3c56a3b3	0.013100552
103	0xbbf683c2	-0.007523031
104	0xbca54989	-0.020176666
105	0x3c9e6dd9	0.019339489
106	0x3ca70fd8	0.020393297
107	0xbbede20a	-0.007259612
108	0xb9a8fe15	-0.00032232763
109	0xbb7933f3	-0.003802535
110	0xbcbe8cd2	-0.023260508
111	0x3bb33af9	0.0054696766
112	0x3c54372d	0.012952608
113	0xbcefc445	-0.029268393
114	0x3c915ff8	0.017745957
115	0x3c03ff54	0.00805648
116	0xbada9b96	-0.0016678448
117	0xbbdf481f	-0.0068140174
118	0xbcbb4a28	-0.022862509
119	0x3c64e7db	0.013971294
120	0xbcd79759	-0.026317285
121	0xbb80508d	-0.0039158524
122	0xbc9032f5	-0.017602423
123	0xbba8dbff	-0.0051531787
124	0xbce5000c	-0.027954124
125	0xbc2f4c0c	-0.010699283
126	0xbc5ae841	-0.013361038
127	0x3b0504c4	0.002029703

network_body._body_endoder.seq_layers.2.weight f4 [128, 128]
0	0x3bd50c16	0.006501685
1	0xbdcb7251	-0.099339135
2	0xbe2b2287	-0.1671239
3	0x3da7763c	0.08176848
4	0xbd1b76e8	-0.037955195
5	0x3e09182b	0.13388126
6	0xbd133d7e	-0.035947315
7	0xbd0c06a9	-0.03418604
8	0x3d6f45ae	0.05841606
9	0x3c1649de	0.009172885
10	0x3d8c7e70	0.068600535
11	0xbe1e8ebe	-0.1548414
12	0xbd93895f	-0.07203936
13	0xbca67d7b	-0.020323506
14	0x3d1a7d10	0.037716925
15	0xbbfc0382	-0.007690848
16	0x3cd2165f	0.025645433
17	0x3d05bd08	0.032650977
18	0xbccc9658	-0.024974033
19	0x3cd70c0f	0.026250867
20	0x3cc2d1d0	0.023781687
21	0x3d293632	0.04131145
22	0xbcbf8778	-0.023380026
23	0x3ce9cd0b	0.028540155
24	0x3cdc02af	0.026856748
25	0xbd14c9e9	-0.03632537
26	0x3dca4e2a	0.0987819
27	0x3e2e8785	0.17043884
28	0x3d80fcd1	0.06298221
29	0x3d26639b	0.040622335
30	0xbe5697bc	-0.2095632
31	0x3c57dbb7	0.013174943
32	0xbdd8b337	-0.105810575
33	0xbd02f281	-0.03196955
34	0x3dada544	0.084787875
35	0x3e07f3d6	0.1327661
36	0x3da39039	0.07986493
37	0x3d08fe96	0.033445917
38	0xbb21b9b3	-0.0024677336
39	0x3bed4677	0.007241066
40	0xbde47876	-0.111557886
41	0x3cbf82a3	0.023377722
42	0xbc56c22f	-0.01310782
43	0xbda563d8	-0.08075684
44	0x3d8bfe94	0.06835666
45	0xbe06433e	-0.13111588
46	0xbdca4876	-0.09877102
47	0x3d1dcb29	0.038523827
48	0xbd284aa5	-0.04108681
49	0xbdda84eb	-0.10669883
50	0x3d1ca9f5	0.03824802
51	0x3d8b861d	0.068126895
52	0x3d938719	0.07203502
53	0x3d96ff11	0.07372869
54	0xbe23be6b	-0.15990607
55	0xbc9f7af8	-0.019467816
56	0xbd0d9def	-0.034574445
57	0xbd657e9e	-0.056028955
58	0xbe1c21f5	-0.15247329
59	0xbe04bcda	-0.12962666
60	0x3c81b060	0.015831172
61	0xbdd4300b	-0.10360726
62	0xbb8b7db0	-0.0042569265
63	0xbce313a3	-0.027719324
64	0x3cd93535	0.026514629
65	0x3d229ee3	0.039702307
66	0x3db238eb	0.087022625
67	0xbdd0950c	-0.101846784
68	0xbe29b2c8	-0.16572106
69	0xbde2d04f	-0.11074888
70	0x3e2c6b96	0.16837916
71	0xbbc1a0b1	-0.0059090485
72	0x3d0e2799	0.034705732
73	0x3d62a602	0.0553341
74	0x3c3e9298	0.01163163
75	0xbd9177d3	-0.07102933
76	0x3dc17405	0.09445957
77	0x3cdba118	0.026810214
78	0xbdfa90db	-0.1223466
79	0xbbab68e8	-0.0052310117
80	0x3d79b0ef	0.060959753
81	0xbc433360	-0.011914104
82	0x3df7d0ea	0.12100394
83	0xbc1b557e	-0.009480832
84	0xbd432e6b	-0.04765169
85	0x3dc5e003	0.096618675
86	0x3d26f0a7	0.040756848
87	0xbc92a9c4	-0.017903216
88	0xbd592338	-0.053012103
89	0xbcd8eef9	-0.026481139
90	0xbdd4e904	-0.10396007
91	0xbdc8e7c6	-0.09809832
92	0x3d5f3262	0.05449141
93	0x3e1cd3ea	0.15315214
94	0x3d9d371b	0.07676526
95	0x3dcaa0be	0.098939404
96	0x3de90ea9	0.11379749
97	0x3d0609dc	0.032724246
98	0xbdcfc8b7	-0.10145705
99	0xbe4faebe	-0.20281503
100	0x3b4c1805	0.0031142246
101	0xbdab6063	-0.08367994
102	0xbd0545b9	-0.032537196
103	0xbc229bf6	-0.009924879
104	0xbdf6238c	-0.12018499
105	0xbe0fea87	-0.14054309
106	0xbd41d34a	-0.04732064
107	0xbc62b5b7	-0.0138372695
108	0x3d9677f1	0.07347096
109	0x3d3f89b3	0.04676218
110	0x3d500077	0.050781693
111	0x3cd05816	0.025432628
112	0x3e01a53c	0.12660688
113	0xbe07a46f	-0.1324632
114	0x3d1b869e	0.037970178
115	0xbd038884	-0.032112613
116	0x3e677835	0.22604449
117	0xbe293e2d	-0.16527624
118	0xbd011164	-0.031510726
119	0xbc8575a3	-0.016291445
120	0x3cdaecc3	0.026724225
121	0xbe428517	-0.18996082
122	0x3c6aa309	0.014321097
123	0xbd96ca39	-0.0736279
124	0xbd15bf99	-0.036559675
125	0x3dd06b75	0.10176746
126	0x3d4900d2	0.049073048
127	0xbd819f88	-0.06329256
128	0xbc328abd	-0.010897336
129	0xbd5ffac1	-0.054682497
130	0x3badfc39	0.0053096083
131	0xbe0e3ed3	-0.13891153
132	0xbd596d65	-0.053082842
133	0x3d166961	0.03672159
134	0xbdf6e0f2	-0.12054624
135	0xbd33ac51	-0.043865506
136	0xbd7a79b0	-0.061151206
137	0xbd83aa76	-0.06428997
138	0x3e13047f	0.14357184
139	0xbe135884	-0.14389235
140	0xbd210eb2	-0.039320655
141	0x3de68cb1	0.112573035
142	0xbe3ff0b0	-0.18744159
143	0x3e490788	0.19631779
144	0x3d3dec9c	0.046368226
145	0x3d417fa5	0.047240872
146	0xbc0a8597	-0.008454702
147	0xbdf04187	-0.11731248
148	0xbe5db1a8	-0.21649802
149	0xbdc4f679	-0.096173234
150	0x3c182e5b	0.009288396
151	0x3d55ce04	0.052198425
152	0x3c90d1ac	0.017678104
153	0x3c237dc9	0.00997872
154	0x3e4a47bb	0.19753926
155	0xbd61ab1f	-0.055094834
156	0xbca916b0	-0.020640701
157	0x3e0118d2	0.12607124
158	0xbd4470dd	-0.047959197
159	0xbd366c6b	-0.04453699
160	0x3c01e48c	0.007928025
161	0xbd98ea78	-0.07466596
162	0x3d945781	0.072432525
163	0x3b010333	0.0019685745
164	0x3dafaf30	0.08578336
165	0xbd1a1a4f	-0.037622746
166	0xbce3b10b	-0.027794382
167	0x3d5a9fb3	0.053374957
168	0x3d43f721	0.047843102
169	0x3e0ae32c	0.13563222
170	0xbe216006	-0.15759286
171	0xbd9dcaee	-0.077047214
172	0x3cc6f50a	0.024286766
173	0xbe2bd5a0	-0.1678071
174	0x3cd377ab	0.025813898
175	0x3d884f87	0.06655794
176	0xbb964d74	-0.00458687
177	0x3ccfa5a5	0.02534754
178	0xbd830de9	-0.063991375
179	0xbd528f5c	-0.05140625
180	0x3dba2444	0.09088948
181	0xbe084f42	-0.13311484
182	0x3cda785d	0.026668722
183	0xbdb2c0f2	-0.08728208
184	0x3e1125cf	0.14174579
185	0xbdf12442	-0.11774494
186	0xbd339e49	-0.043852124
187	0xbda15fab	-0.07879575
188	0xbd05cb5b	-0.032664638
189	0xbcaa1042	-0.020759705
190	0x3c55d921	0.013052256
191	0x3d84d48f	0.06485855
192	0x3d02f9c5	0.03197648
193	0x3e3837bf	0.17990015
194	0xbd94eb31	-0.07271422
195	0x3dbd65cd	0.092479326
196	0x3e61bff5	0.22045882
197	0xbd5365da	-0.051610805
198	0xbe4b05c3	-0.19826417
199	0xbdf61e60	-0.12017512
200	0x3dd464f7	0.1037082
201	0x3d29f71a	0.04149542
202	0xbd59c905	-0.053170223
203	0xbbcc11b7	-0.0062276977
204	0x3d2f0e53	0.04273827
205	0x3d2642a2	0.04059089
206	0xbc6959c7	-0.014242596
207	0xbe126c9d	-0.14299245
208	0xbc022bd7	-0.007945023
209	0x3deda243	0.116032146
210	0xbd005172	-0.031327672
211	0xbe0ccb6c	-0.13749474
212	0xbc1e93f2	-0.009678828
213	0x3c1149a8	0.008867659
214	0xbceb76d2	-0.028743181
215	0x3d4b5d30	0.049649417
216	0xbde1a6e6	-0.110181615
217	0x3d437a09	0.047723804
218	0x3d8d344d	0.06894741
219	0x3d12644c	0.03574018
220	0xbe26a49a	-0.16273728
221	0x3d1e517a	0.03865192
222	0xbdfcb667	-0.12339478
223	0x3e18622a	0.14881197
224	0xbdf16297	-0.11786383
225	0xbcd67239	-0.026177512
226	0xbd5ade36	-0.053434573
227	0x3d5cb51b	0.053883653
228	0x3ddcc416	0.10779588
229	0x3d1314d5	0.03590854
230	0xbc5fbe51	-0.013656215
231	0x3d240c69	0.040050898
232	0x3c47a344	0.012184922
233	0x3e235b88	0.15952885
234	0xbd0df00c	-0.034652755
235	0x3ce70bce	0.028203871
236	0xbe2f8287	-0.17139636
237	0xbd93aa95	-0.0721027
238	0xbe0c7242	-0.13715461
239	0xbe03e9d6	-0.1288217
240	0x3e0b7b3c	0.13621229
241	0xbda039d9	-0.078235336
242	0x3e43502d	0.19073553
243	0xbb247c6c	-0.0025098575
244	0x3d918458	0.07105321
245	0xbc7c808b	-0.015411506
246	0x3d5595d4	0.05214484
247	0xbe04a551	-0.12953688
248	0x3dda0f74	0.10647479
249	0xbd04461f	-0.032293435
250	0x3df26e52	0.11837448
251	0x3cbb705e	0.02288073
252	0x3e29b42b	0.16572635
253	0x3d0792a2	0.033098824
254	0x3dcc5b07	0.099782996
255	0x3dcb5f27	0.09930258

network_body._body_endoder.seq_layers.4.bias f4 [128]
0	0x3c1fd9b8	0.009756498
1	0xbd0cca37	-0.034372535
2	0xbbd2cdfe	-0.0064332476
3	0xbcbaadc1	-0.02278793
4	0xbca0f17e	-0.019646402
5	0xbce12fae	-0.027488556
6	0xbccf86d0	-0.025332838
7	0xbce841b5	-0.028351644
8	0xbb81a11b	-0.003955973
9	0xbc87bf58	-0.016570732
10	0xbc0c3829	-0.0085583115
11	0x3c176fc3	0.009242955
12	0xbcba47b5	-0.02273927
13	0x3c416f72	0.011806356
14	0xbb764ae8	-0.0037581269
15	0xbc3f34b8	-0.011670284
16	0xbbf28a0c	-0.0074017104
17	0xbc933229	-0.017968254
18	0x3c11cc18	0.008898757
19	0xbbd5cf9c	-0.006524993
20	0xbbb4778f	-0.0055074166
21	0xbc8813e7	-0.016611053
22	0xbc0a9439	-0.008458191
23	0xbcc8fba5	-0.024534056
24	0x3b84b67e	0.004050075
25	0x3c711ee7	0.01471684
26	0x3c9c49d1	0.019078167
27	0x3bde0a3d	0.006776123
28	0xbc9329e4	-0.017964311
29	0xbc74aa70	-0.014933214
30	0xbc28fe84	-0.0103145875
31	0xbc1130e5	-0.008861755
32	0x3c8597bf	0.01630771
33	0xbbc3678f	-0.005963273
34	0xbbfb8c8b	-0.007676666
35	0xbb557c88	-0.0032575447
36	0x3caae637	0.020861728
37	0xbccd8b8f	-0.02509096
38	0xbccfedda	-0.025381971
39	0x3b8e030c	0.0043338593
40	0x3bb521ce	0.0055277115
41	0x3c8355d0	0.01603213
42	0xbc8da6ec	-0.017291509
43	0xbc43f22c	-0.011959594
44	0xbcd06344	-0.025437959
45	0x3b399492	0.0028317315
46	0xbada2f76	-0.0016646225
47	0xbca39942	-0.01997054
48	0xbb9fb510	-0.0048738793
49	0xbb0881d0	-0.0020829327
50	0x3c8203b1	0.0158709
51	0xbcfe945d	-0.031076605
52	0x3a576895	0.0008217183
53	0xbcbed4f6	-0.023294907
54	0xbc255a35	-0.010092308
55	0x3baa49fe	0.005196809
56	0xbcc5e488	-0.024156824
57	0xbc51261a	-0.012765432
58	0x3c32727a	0.010891551
59	0xbcd5d672	-0.026103232
60	0x3b8bfb09	0.004271869
61	0xbcc8ae43	-0.024497157
62	0x3c4f9081	0.01266873
63	0x3c1277ff	0.008939742
64	0xbc2298e8	-0.009924151
65	0xbcc268e4	-0.023731656
66	0x362850f8	2.508108e-06
67	0x3c24305e	0.010021297
68	0x3c065bf5	0.008200635
69	0xbcaebfe0	-0.021331728
70	0xbc11d143	-0.00889999
71	0xbc647efe	-0.013946293
72	0x3aa5422b	0.001260822
73	0xbb0ab289	-0.0021163544
74	0xbc6dd1b3	-0.014515328
75	0x3ad173e6	0.0015979975
76	0x3c135260	0.008991808
77	0xbcd84537	-0.026400192
78	0x3cb96bd9	0.022634434
79	0xbb506a25	-0.0031801548
80	0x3b1929ba	0.0023370818
81	0xba423778	-0.0007408778
82	0xbbfe30fb	-0.007757304
83	0x3c912daf	0.017721979
84	0x3a064c0d	0.0005123027
85	0xbcb2db00	-0.021832943
86	0x3bf98ded	0.007615796
87	0xbbd3c0c1	-0.006462187
88	0x3c29551d	0.010335234
89	0xbc9cb34b	-0.019128462
90	0xbbd3d492	-0.0064645493
91	0x3c04d2cc	0.0081068985
92	0xbcc40519	-0.023928212
93	0xbc69efee	-0.014278395
94	0xbad5cb53	-0.0016311206
95	0xbc4d374d	-0.012525392
96	0xbc04d6f4	-0.008107889
97	0xb8a9740d	-8.080164e-05
98	0xbb0d8ac7	-0.002159761
99	0xbc9e7d67	-0.019346906
100	0x3b66fa9f	0.0035244597
101	0x3bab7a82	0.00523311
102	0x3c374919	0.011186861
103	0xbb69aaac	-0.0035654707
104	0x3c340fec	0.010990124
105	0xbb027594	-0.0019906508
106	0xbc259ffa	-0.010108942
107	0xbcef1eab	-0.029189428
108	0xbce3881f	-0.027774869
109	0xbc2e483f	-0.010637342
110	0xbca8ef27	-0.02062185
111	0x3c5ac45f	0.013352483
112	0xbc773145	-0.01508743
113	0xbc869cae	-0.016432133
114	0x3bb483e4	0.0055088867
115	0x3c8b9e89	0.017043369
116	0x3c0e2c31	0.008677528
117	0xbbe99a39	-0.0071289805
118	0xbcab380c	-0.020900749
119	0xba332d77	-0.0006835083
120	0xbc937950	-0.018002182
121	0x3aaa01c5	0.0012970498
122	0xbc15aa92	-0.009134905
123	0xbcbfd591	-0.023417266
124	0x3c5de5ca	0.0135435555
125	0xba80e2e5	-0.0009833245
126	0x3b80e394	0.0039333794
127	0xbcb95662	-0.022624198

network_body._body_endoder.seq_layers.4.weight f4 [128, 128]
0	0x3b923ab5	0.004462565
1	0xbd90fd81	-0.07079602
2	0xbc42ace7	-0.011882043
3	0xbdb28173	-0.08716097
4	0x3c1b6452	0.009484367
5	0x3d5b8f98	0.05360374
6	0xbd0c8e26	-0.03431525
7	0x3e382f05	0.17986687
8	0x3ca67317	0.020318551
9	0x3d17d9e7	0.037073042
10	0x3d8f2ab1	0.069905646
11	0xbde2d613	-0.11075988
12	0xbe26bc3e	-0.16282746
13	0x3cad7a83	0.021176582
14	0xbd02fd83	-0.03198005
15	0xbcb60a2d	-0.022221649
16	0xbcd014db	-0.02540057
17	0xbca20347	-0.019776953
18	0x3d98218c	0.074282736
19	0x3dd72fca	0.10507162
20	0xbcf47821	-0.029842438
21	0xbdc4175b	-0.09574767
22	0xbc253c94	-0.010085244
23	0x3c227ef8	0.009917967
24	0x3d4d9cb7	0.050198283
25	0x3d3465ad	0.044042278
26	0xbd5a125f	-0.053240176
27	0xbe26d3d7	-0.16291748
28	0xbda497ee	-0.08036791
29	0xbd0b2754	-0.033973053
30	0x3dc1494e	0.0943781
31	0x3ba822dd	0.005131109
32	0x3d606832	0.05478687
33	0xbe07cf23	-0.1326261
34	0xbe0f2fcb	-0.13983075
35	0x3ddef905	0.108873405
36	0x3c9d822c	0.01922711
37	0x3c8366ae	0.016040172
38	0xbb535f1a	-0.003225273
39	0x3ca54995	0.020176688
40	0xbe332b9f	-0.17497109
41	0x3bde889f	0.006791189
42	0x3d94f8c5	0.072740115
43	0x3dcae594	0.0990707
44	0x3e4c5807	0.19955455
45	0x3ce779ba	0.028256286
46	0x3ca068c8	0.019581214
47	0x3d3c3b8e	0.045955233
48	0xbdadb164	-0.084811
49	0xbdf7ee09	-0.121059485
50	0x3d6b6418	0.057468504
51	0xbc8de227	-0.017319752
52	0xbd0b3d00	-0.03399372
53	0x3d9b03ef	0.0756911
54	0xbe51ac72	-0.20475939
55	0xbda77789	-0.081770964
56	0x3db36716	0.087598965
57	0x3da791ec	0.08182129
58	0x3d7cbc89	0.06170324
59	0x3d9eb9c1	0.077502735
60	0x3de23414	0.11045089
61	0xbd36594a	-0.044518746
62	0xbe0974d6	-0.13423476
63	0xbaa6b745	-0.0012719413
64	0xbd03d286	-0.032183193
65	0x3c80d3ce	0.015725996
66	0xbd31ac99	-0.043377493
67	0x3d33de43	0.043913137
68	0xbd1d633c	-0.038424715
69	0x3e45a84a	0.19302478
70	0xbbfe1946	-0.0077544777
71	0xbd0bfde9	-0.034177694
72	0xbe0f143a	-0.1397256
73	0xbcb96323	-0.02263028
74	0xbe1595dd	-0.1460795
75	0xbd294f6c	-0.04133551
76	0x3d234d2b	0.039868515
77	0xbc9d5bd8	-0.019208834
78	0xbdc24615	-0.09486023
79	0xbcb6671b	-0.022265961
80	0x3c9f5f43	0.019454604
81	0x3dc5491e	0.096330866
82	0xbd283c3b	-0.041073065
83	0x3d006f45	0.031356115
84	0x3c660f5c	0.014041748
85	0x3d89d96f	0.06730925
86	0x3c9c1cae	0.019056644
87	0x3c7f9fb5	0.015602042
88	0x3857d2f5	5.1456464e-05
89	0xbd7219cf	-0.059106644
90	0x3c878e06	0.016547214
91	0x3d98fa6f	0.074696414
92	0xbcd38ce1	-0.025824012
93	0x3d3716d6	0.044699512
94	0xbbcaece0	-0.0061927885
95	0xbd830f89	-0.063994475
96	0x3da95360	0.08267856
97	0x3dc0b2ff	0.09409141
98	0xbe37bc09	-0.17942823
99	0x3ddc192a	0.10746987
100	0x3e1d7e57	0.15380226
101	0xbc0416a1	-0.008062036
102	0x3b10ffc7	0.0022125111
103	0xbde9286b	-0.11384662
104	0xbc8ad6fd	-0.016948218
105	0xbb84ce1b	-0.00405289
106	0x3d994dd5	0.074855484
107	0x3c607d41	0.013701738
108	0x3df32c50	0.11873686
109	0x3c539902	0.012914898
110	0x3d5fbcd4	0.05462344
111	0xbca31e74	-0.019911982
112	0xbd980c5a	-0.07424231
113	0x3d4a452a	0.049382366
114	0xbcbfa4c2	-0.023393992
115	0xbd0f716f	-0.035020288
116	0xbcf43bca	-0.029813666
117	0x3de2d962	0.11076619
118	0xbc06226c	-0.008186918
119	0xbda844f0	-0.08216274
120	0xbe59abee	-0.21256992
121	0x3d8139b8	0.06309837
122	0x3e07779c	0.13229221
123	0x3de0dada	0.109792426
124	0xbcb906c1	-0.022586228
125	0xbdb61c59	-0.08892126
126	0xbc303824	-0.0107555725
127	0x3e3a17b4	0.18173105
128	0x3ce2f97c	0.027706854
129	0xbdf0956a	-0.117472485
130	0xbd6a24f3	-0.057164144
131	0xbda0b23a	-0.07846494
132	0xbdd4f98b	-0.10399159
133	0x3d09dc26	0.033657216
134	0x3d025bdc	0.031825885
135	0x3e095c35	0.1341408
136	0xbd50ab55	-0.050944645
137	0xbd459b6c	-0.048243925
138	0xbdfcee63	-0.12350156
139	0x3e115dcd	0.14195938
140	0x3dd271db	0.102756225
141	0xbd47bdb3	-0.048764896
142	0xbdf9f728	-0.122053444
143	0xbcae2fd8	-0.021263048
144	0x3bd4c247	0.006492886
145	0x3db1554a	0.08658846
146	0xbde0c47c	-0.109749764
147	0x3d921874	0.0713357
148	0x3d4c12ba	0.049822547
149	0x3e04c4b4	0.12965661
150	0xbe4d564b	-0.2005245
151	0x3d5b4f0e	0.05354219
152	0x3dbb639c	0.09149858
153	0x3d98d126	0.07461767
154	0xbbd9112d	-0.006624362
155	0xbb59c704	-0.0033230195
156	0x3dccdb0b	0.10002717
157	0xbd8f7f48	-0.07006699
158	0x3e08c63e	0.13356873
159	0xbcdb1669	-0.026744084
160	0x3a9fd28c	0.0012193485
161	0x3d80cbef	0.06288897
162	0x3df4bcc3	0.11950066
163	0xbdaa681d	-0.08320639
164	0xbcb59c01	-0.022169115
165	0xbce07cee	-0.027403321
166	0x3d92d1ff	0.0716896
167	0xbe183152	-0.14862564
168	0x3c8f8845	0.017521033
169	0xbdc3ef26	-0.09567098
170	0xbdd25da1	-0.102717645
171	0x3e1ebab2	0.15500906
172	0x3dc2f61b	0.09519597
173	0x3d5af461	0.053455714
174	0xbd5bb135	-0.053635795
175	0xbd5fbcb4	-0.05462332
176	0xbc786bb6	-0.015162399
177	0x3d7f5b8e	0.062343173
178	0xbd705d78	-0.05868289
179	0xbdd61528	-0.10453254
180	0xbd8c9428	-0.06864196
181	0xbd448f85	-0.047988433
182	0x3e319c82	0.17344859
183	0x3c346f27	0.011012829
184	0x3e144ea6	0.14483127
185	0xbd8a80cf	-0.067628495
186	0x3dd77d5b	0.105219565
187	0xbd1ff3af	-0.039050754
188	0xbd34b421	-0.044117097
189	0xbe172539	-0.14760293
190	0xbdcb82c6	-0.099370524
191	0xbda32236	-0.079655096
192	0xbd2f3217	-0.04277238
193	0xbe0c5046	-0.13702497
194	0x3be71bb7	0.0070528644
195	0xbd7a1047	-0.06105068
196	0xbc758ad9	-0.014986717
197	0x3e2d0d0c	0.16899508
198	0x3cb4d465	0.022073934
199	0x3e1baf62	0.15203622
200	0x3e5461ae	0.20740387
201	0xbcb8030d	-0.022462392
202	0x3d38964d	0.045065213
203	0x3d36af4c	0.04460077
204	0x3d6e3063	0.058151614
205	0x3e4286bd	0.18996711
206	0x3cbc3aa6	0.022977185
207	0xbdb5e266	-0.08881073
208	0xbd7e21a0	-0.062043786
209	0xbd4df551	-0.05028278
210	0xbd18073d	-0.037116278
211	0x3d815fdc	0.06317112
212	0x3d243e50	0.04009849
213	0xbc569788	-0.013097651
214	0x3d016f67	0.031600382
215	0xbd0304f3	-0.03198714
216	0xbd6d627e	-0.057955258
217	0xbde2ccad	-0.11074195
218	0xbaf33114	-0.0018554055
219	0x3e20111e	0.1563153
220	0xbcf6a5d0	-0.030108362
221	0xbd0b8717	-0.03406438
222	0xbd71b06d	-0.059006143
223	0x3cad8093	0.021179473
224	0x3dd69f16	0.10479562
225	0xbd15c4ba	-0.036564566
226	0x3dc8a851	0.09797729
227	0x3c87e409	0.016588228
228	0xbdadd81b	-0.084884845
229	0xbd179c58	-0.037014335
230	0x3dba99ad	0.091113426
231	0xbd70f293	-0.058825087
232	0xba9ac52a	-0.0011808027
233	0x3dfa2e17	0.12215822
234	0xbe24b2df	-0.16083859
235	0x3d9f8741	0.077894695
236	0xbd4f2aae	-0.050577812
237	0xbcbc4dc9	-0.02298631
238	0x3dad089d	0.084489085
239	0x3e1263fb	0.14295952
240	0x3d6ff1ed	0.058580328
241	0x3d9cf28d	0.076634504
242	0xbd31b20e	-0.043382697
243	0x3d7aa866	0.061195754
244	0xbd5e427d	-0.054262627
245	0x3d4613c7	0.048358705
246	0x3c80144a	0.015634675
247	0xbe21149d	-0.1573052
248	0x3cb93933	0.022610283
249	0x3de0c808	0.10975653
250	0x3be9af86	0.0071315197
251	0x3d4ed976	0.050500356
252	0x3dda79a4	0.10667732
253	0xbcb4c2b1	-0.022065492
254	0x3b276fe6	0.0025548874
255	0xbdc80906	-0.09767346
