Maize-Runner/results/MazeRunnerRight/EscapeMaze/EscapeMaze-20999941.onnx (onnx, 171663 bytes, 9 tensors)

action_model._continuous_distribution.log_sigma f4 [1, 2]
000000 d7 fd a1 bf b7 fb 8f bf
       -1.2655591 -1.1248692

action_model._continuous_distribution.mu.bias f4 [2]
000000 7b 0f 54 3d 31 27 56 bc
       0.051772576 -0.013070867

action_model._continuous_distribution.mu.weight f4 [2, 128]
000000 00 5c 29 bc c6 12 c6 ba 13 32 05 3e 24 7e 3d 3b
       -0.010336876 -0.0015111796 0.13007383 0.0028914297
000010 90 1c f3 bb 69 dd 1b 3d 4f f6 8d 3c a5 c5 31 bc
       -0.0074191764 0.03805295 0.017329363 -0.010850345
000020 11 5a b7 bc b9 4d ee 39 c2 7e cc 3b 27 41 00 3a
       -0.022381814 0.00045452805 0.0062406966 0.0004892521
000030 65 f3 26 39 19 2d 4a 3d 03 90 ae 3b 22 2a 63 bb
       0.00015921665 0.049359415 0.005327226 -0.0034662564
000040 78 0a 6d 3d 9c 15 9c 3c 54 0d 10 ba d6 7c 76 3a
       0.057871312 0.019053273 -0.000549515 0.0009402757
000050 ea 2a 8d be 5d a0 7e bd 30 e0 f8 3a 27 69 38 bb
       -0.27571803 -0.062164653 0.0018987712 -0.0028138848
000060 c9 fc c9 3a 8b 6c 94 bc 2e 98 df 3b 96 16 aa 3c
       0.0015410419 -0.018118164 0.006823561 0.020762723
000070 f4 23 4d 3a ef dc 07 3b 49 bb 2f 3b 5b 76 56 bb
       0.0007825487 0.0020731052 0.0026814512 -0.0032724354
000080 5d 49 d0 ba ef a9 84 bb 56 d1 69 3e f5 24 b9 3a
       -0.0015891005 -0.004048578 0.22833762 0.0014125394
000090 64 5e d1 bb f6 b3 05 3b a7 1e 8b 3a 3a b2 d6 ba
       -0.006389426 0.0020401455 0.0010613994 -0.001638002
0000a0 cb f1 ae 3b 7d 25 7d 3d 16 b1 ee 3c 96 51 81 3a
       0.0053388826 0.06180333 0.029137176 0.0009866233
0000b0 ce 2a bc bd d9 b0 81 bd 17 f0 8b bb 6d a8 9b bd
       -0.09187852 -0.06332559 -0.0042705643 -0.07600484
0000c0 33 21 02 3d 05 9a 33 ba 55 7a 7d ba 7a 9e 06 3d
       0.031769942 -0.0006851259 -0.0009669413 0.03286598
0000d0 0f e6 2d 3b c4 a3 fd b6 a4 a4 07 bb 7b d7 5c 3b
       0.002653483 -7.5590524e-06 -0.0020697499 0.0033697772
0000e0 9c 12 a0 3c 79 5e d0 ba e1 f2 ef bc 7d fb a0 3b
       0.019540124 -0.0015897296 -0.029290618 0.0049127922
0000f0 42 93 8f ba 0a 2f ac 39 8a 89 05 bb 89 45 82 bd
       -0.001095392 0.00032841443 -0.002037617 -0.06360919
000100 09 69 11 bb c2 01 0a bb f2 2b 10 3d f8 43 09 3e
       -0.002218785 -0.0021058177 0.03519816 0.13404834
000110 a3 93 7d 3b e0 f0 a0 3a 88 82 ba 3c b2 60 a3 ba
       0.0038692735 0.0012278818 0.02276732 -0.001246473
000120 5b 59 f9 3a 72 f6 1c 3b bb 67 8d ba 0a c3 e3 39
       0.0019023822 0.0023950604 -0.001078836 0.0004344213
000130 2b 91 88 bd d4 e2 4a 3d 5c 21 98 bb 6c 93 a5 ba
       -0.066683136 0.049532726 -0.0046426486 -0.0012632436
000140 37 46 95 ba 0e d2 5c 3c 17 dc 4b 3a 38 da 42 3b
       -0.0011388724 0.013477815 0.00077766314 0.002973212
000150 11 cc 07 ba 50 95 4e 3b ca fa b1 bb 3b a5 22 3d
       -0.00051802496 0.0031522103 -0.0054315077 0.039708357
000160 ad ea a6 ba 02 8d 75 3a 0a dd 14 ba 02 c1 0b 3b
       -0.0012734734 0.000936702 -0.00056786893 0.0021324758
000170 9a 9a 50 3d 84 f6 8a 3b a8 54 da 38 9d 00 29 bb
       0.05092869 0.0042408127 0.000104108185 -0.002578772
000180 ac 1c 11 ba 33 07 15 bb a3 7b 49 bd 59 11 c8 ba
       -0.00055355835 -0.0022739887 -0.049190175 -0.0015263959
000190 82 1a 88 ba b1 3c 2f bb 74 a6 b8 bb 2a 36 13 3b
       -0.0010383877 -0.0026739056 -0.005635077 0.0022462704
0001a0 24 4c d0 38 a9 f6 01 bd 47 17 a3 bb 1d 9b 9d 3d
       9.932395e-05 -0.031729374 -0.00497714 0.07695601
0001b0 d2 1b 46 3d f7 36 f7 3c e8 de 1f 3b 1d aa 7d 3a
       0.048366375 0.030177576 0.0024394337 0.0009676533
0001c0 31 28 1d b9 4f 7f 3f 3b fb 39 35 bb a6 92 6b 3b
       -0.00014987659 0.002922017 -0.0027652967 0.0035945564
0001d0 d1 e1 0a 3c fd 46 a6 3b bb f1 70 3b f5 52 73 3a
       0.00847669 0.0050743804 0.0036765176 0.0009282076
0001e0 54 0a 8d bb 88 2e a9 bb 94 ed 0b 3d 66 ea 8b ba
       -0.0043042097 -0.0051630177 0.03416212 -0.0010674715
0001f0 b9 e7 f3 3b 34 f1 88 3b dc eb 96 3c f8 5b 7e bd
       0.007443395 0.0041791443 0.018423013 -0.062099427
000200 0f e0 12 bd 34 df 49 ba cd 17 fd 3c 46 a9 e7 ba
       -0.03585821 -0.00077008014 0.030895138 -0.0017674349
000210 2e 60 8b ba 83 d0 82 3d e1 ef 7a 3b 22 81 97 3d
       -0.0010633522 0.06387427 0.0038289952 0.07397677
000220 85 d1 8f 3c 53 37 d6 3a 33 38 9e 3b 1c e0 6a ba
       0.017555961 0.0016343392 0.004828477 -0.00089597865
000230 4c e0 8b 3a 28 c8 53 bd 1a 76 28 3b a4 98 4c bb
       0.0010671704 -0.051704556 0.002570516 -0.003121891
000240 d0 4d db 3a f8 ba 1b 3c 49 84 eb ba a3 26 9e b9
       0.0016731564 0.009505026 -0.0017968501 -0.00030164895
000250 1e d8 12 3d 8c d3 a7 bc 68 b0 16 3b 41 0e e7 3a
       0.035850637 -0.020486616 0.002299333 0.0017628149
000260 ed 7c 9b 3a d3 44 f5 3a 11 71 09 3c 18 de 14 bd
       0.0011862792 0.0018712528 0.008388774 -0.036344618
000270 9f 6b 85 bb cb 1f 81 3b 4a ac c9 ba d9 13 65 39
       -0.0040716673 0.0039405576 -0.0015386429 0.00021846536
000280 b1 bb 09 bc dd ac c7 39 bc af de bc c5 00 a3 3c
       -0.0084065655 0.0003808503 -0.027183406 0.019897828
000290 da 9a c6 bd dd 35 71 3a 83 e8 39 bb 3a 49 e9 3a
       -0.09697504 0.00092014467 -0.0028367348 0.0017798312
0002a0 31 b9 83 bd 25 21 93 bd 9f 4e a8 3d 71 a2 5b 3b
       -0.06431807 -0.07184056 0.08218121 0.003351357
0002b0 03 10 94 bc da 3d e4 3b 5d bb c3 3a 6d cd 35 bd
       -0.018074041 0.006965381 0.0014933158 -0.044385362
0002c0 b7 8e 0c bd e9 48 0e 3b 8b 0f d4 ba 35 f4 93 bd
       -0.03431579 0.0021710938 -0.0016178949 -0.07224313
0002d0 3b 79 58 ba 14 23 c3 ba 04 7a 59 35 62 ea a3 ba
       -0.0008257811 -0.0014887773 8.1016356e-07 -0.0012505765
0002e0 a9 9f 3c 3c c8 f2 c8 3a cc 55 05 3c d9 cd 30 3b
       0.011512675 0.0015331144 0.008138131 0.0026978164
0002f0 1f cb 0e 3a 23 69 28 ba ca d1 ea ba 50 3a 96 3d
       0.00054471375 -0.0006424358 -0.0017915305 0.07335341
000300 44 27 57 ba 36 3d f7 ba b4 b4 b0 bb 1a 95 eb 3c
       -0.000820745 -0.0018862847 -0.0053926352 0.02875762
000310 65 db 57 3b e5 ea ea 39 9f 1a 33 bd f7 7b bb ba
       0.0032937166 0.00044806968 -0.04372656 -0.0014303912
000320 34 7d aa bc 28 29 88 b9 07 64 f0 ba cc 6d 05 3b
       -0.020811655 -0.00025970605 -0.0018340357 0.0020359633
000330 12 17 51 bd ab 3b 37 3d bb fd 1f bb 62 44 5e ba
       -0.051047392 0.04473464 -0.002441271 -0.0008478818
000340 02 4f 02 ba b8 84 33 3a 12 d9 09 bb 64 60 45 3b
       -0.00049708795 0.0006848085 -0.0021033925 0.0030117268
000350 50 75 6a 3a 3e 1f 86 3a c3 4d 5f 3b b9 65 8c 3d
       0.00089438725 0.00102327 0.003407345 0.068553396
000360 e1 3e 6a bb 8d d9 39 b9 d5 05 13 ba a0 7c 68 3c
       -0.0035743045 -0.00017724019 -0.0005608474 0.014189869
000370 ed 4c f9 bc e3 c4 bf 3d 68 9b d0 ba c9 c2 4a bb
       -0.030432189 0.09363725 -0.0015915455 -0.0030938855
000380 7a 8d 3f 3b 67 fb 67 b9 2d ec 87 bd c3 79 bc b9
       0.0029228614 -0.00022123531 -0.06636844 -0.00035948874
000390 d3 90 f5 39 8d 37 46 ba b0 25 74 3b ae d4 04 3b
       0.00046837944 -0.00075613783 0.0037253909 0.0020268369
0003a0 95 fa 1c bc f1 27 9d bb 9b 0a 93 3b 45 06 cb 3d
       -0.009581228 -0.004796021 0.0044873483 0.09913305
0003b0 b6 c0 73 bd 0a d7 2c 3e d2 85 1e 39 e0 e5 98 3b
       -0.059509955 0.16878906 0.00015117906 0.004666075
0003c0 3e af 58 3a 9f e1 7c 3a 37 cf e7 3b 25 a9 26 3b
       0.0008265859 0.0009646657 0.0070742625 0.0025430408
0003d0 d2 76 47 bb 0d 49 da bc 38 d9 88 bb 65 81 99 3a
       -0.0030435813 -0.026646161 -0.004176285 0.0011711536
0003e0 19 9c 1a ba e5 fd 8c 3a 95 b0 13 3c bc 13 89 3b
       -0.0005897894 0.0010756819 0.009014268 0.0041832607
0003f0 c2 e5 87 bb ab 22 b4 bd 2b 5d 49 3d 67 66 46 bd
       -0.0041472623 -0.08795675 0.049161118 -0.048437502

network_body._body_endoder.seq_layers.0.bias f4 [128]
000000 ee 43 22 bd 86 f2 37 bb c2 13 e6 3d 74 5d 4e be
       -0.039615564 -0.002806814 0.11234237 -0.20152837
000010 ca 4e 20 bd 68 f6 6a bc ef 1c 24 bd 24 4f 89 bb
       -0.03913764 -0.014340974 -0.040066656 -0.0041903425
000020 7b e1 a3 b9 0d 08 27 bc b4 3a f1 bc 28 af fb 3c
       -0.0003125778 -0.010194791 -0.029446937 0.03072317
000030 5c 8b 4a 3d 00 f4 40 3a 59 31 54 3b 51 5a ef 3c
       0.04944931 0.00073605776 0.0032378046 0.02921787
000040 ea 58 fe 3c 7d 31 d6 bd 60 20 4d 3d ee 55 0c 3d
       0.031048257 -0.10458658 0.050079703 0.034261636
000050 15 c5 b9 bd a0 eb ef bc 04 fc 8a bd 3c ac 25 bd
       -0.090707935 -0.02928716 -0.067863494 -0.04044746
000060 11 09 c6 bc 24 59 9c bd 19 0e 83 bb e5 16 92 bc
       -0.024174245 -0.0763419 -0.0039994833 -0.017833183
000070 64 ab 4f 3d 5d 92 34 be f9 25 7a 3d 42 53 90 bd
       0.05070056 -0.17633958 0.06107137 -0.0704713
000080 12 54 e7 3d 99 47 98 3d 30 a3 b0 bb f9 f0 73 3d
       0.11295332 0.07435531 -0.005390547 0.05955598
000090 d4 cd af 3d 7a 21 3e bd 6a 30 b2 3d 37 c8 a4 39
       0.085841805 -0.046418644 0.087006405 0.0003142969
0000a0 d8 1a c3 bd e8 cc 27 bd 49 05 12 3d 06 5e a0 be
       -0.095266044 -0.0409669 0.03564957 -0.31321734
0000b0 b2 77 82 bd 81 4d ef bc 90 b3 eb bd 6e 9e a4 bd
       -0.06370486 -0.029211761 -0.11508858 -0.080380306
0000c0 55 83 99 bd c1 68 0f 3d 96 15 13 bd a9 80 8f 3d
       -0.07495753 0.03501201 -0.035909258 0.07006962
0000d0 bb 2b 0e 3d 52 85 6d be 39 07 ae bc e8 b7 4d 3b
       0.034709673 -0.23195389 -0.021243678 0.0031390134
0000e0 d9 5e 0b bd dd bf ec bd 54 d0 d7 bc 29 b9 5b bd
       -0.034026 -0.115600325 -0.026344456 -0.05364338
0000f0 ba b3 55 bd 4d 22 38 bb ca 99 07 3e 90 5d 8e bd
       -0.052173354 -0.0028096617 0.1324226 -0.069514394
000100 bd ca aa 3d 19 76 39 3e 76 4c 49 bd 10 9d c7 be
       0.083394505 0.18111457 -0.049145184 -0.38987017
000110 fd 8a 0b be 89 8a f1 bd b9 2d 6c 3d fb 1d e6 3c
       -0.13627239 -0.117940016 0.057660792 0.028090468
000120 df df 9b bb c7 81 c2 bd 8d 10 fe bc 08 b7 c8 bc
       -0.004756912 -0.09497409 -0.031013751 -0.024501339
000130 e4 46 85 bc 3d 37 36 bd 8b 44 28 bd 9b c5 b6 bd
       -0.016269155 -0.044486273 -0.041080993 -0.08924409
000140 1c 94 b4 bb 82 7f 2c bc 35 b7 45 bd 2c 2a 79 3d
       -0.00551082 -0.010528447 -0.048270423 0.060831234
000150 10 c3 04 be 15 e8 b5 3c b4 e1 67 bd ae 7e b2 be
       -0.12965035 0.022205392 -0.05661173 -0.34862274
000160 89 b7 d8 3b 94 e1 28 3b 7c 6d ea 3c 08 45 84 bd
       0.006613676 0.002576922 0.02861666 -0.06458479
000170 39 6d 87 bb 2b 98 11 bc fa e2 7b bc e9 a9 f8 bd
       -0.0041328934 -0.008886377 -0.01537394 -0.12141783
000180 41 7a 83 bc 08 b0 96 bd 10 57 b2 bd 24 ba 92 3d
       -0.016049506 -0.07357794 -0.08708012 0.0716441
000190 b4 63 ae be c0 9c 6c 3d 4c 87 09 3d 17 20 f3 bd
       -0.34060442 0.057766676 0.033576295 -0.11871355
0001a0 c9 49 57 3c dc 57 db ba 18 28 61 be 35 d1 81 be
       0.01314015 -0.0016734558 -0.21987951 -0.25354925
0001b0 85 60 cd bd c8 65 0a 3d 49 73 95 bd b4 69 81 3d
       -0.10028175 0.033788472 -0.072973795 0.063189894
0001c0 22 f6 6d bc 2b 1b 80 3d c9 47 bd bc 32 99 23 bd
       -0.014524015 0.06255182 -0.023105519 -0.03994102
0001d0 a3 26 c9 bb 3c 0e ea bc ab a4 ef bd 34 fc 74 bd
       -0.006138639 -0.02857124 -0.1170133 -0.059810832
0001e0 25 22 96 3d 8b 9c 1a be c6 7c 04 be 1e 1f e7 bd
       0.07330731 -0.15098779 -0.12938222 -0.11285232
0001f0 59 0d 8d bd e5 0e d7 3c b9 43 5b bd b0 91 b7 3b
       -0.068873115 0.02625222 -0.053531382 0.005602084

network_body._body_endoder.seq_layers.0.weight f4 [128, 70]
000000 2a c6 d7 3e 9f 4a d4 3d 06 98 16 3e 79 67 96 be
       0.42143375 0.10365795 0.1470643 -0.29375818
000010 f7 2d aa 3d d6 40 2a 3f 01 f6 48 3c 0b 00 5f 3e
       0.08309548 0.6650518 0.012265683 0.2177736
000020 a2 91 fa bd 8b f9 05 3e db 65 96 3e a9 6a ac be
       -0.122348085 0.13083474 0.29374585 -0.33675125
000030 ed 1d 8f 3e ff dd f9 bd 20 3e 54 3e 63 81 e7 3e
       0.2795252 -0.122005455 0.20726824 0.45215902
000040 18 88 a0 3e 24 5b a9 3d d9 14 20 bf 62 8a 6c 3e
       0.3135383 0.08269337 -0.6253181 0.23099664
000050 3f aa c2 3e 6a 87 40 be 2a 7e 9b bd 38 44 1b be
       0.38020512 -0.18801656 -0.07592423 -0.15162742
000060 7f 42 b5 3e 3d 6b ba be 93 f4 12 bc 1d 09 5f 3e
       0.35402295 -0.3640994 -0.008969444 0.2178082
000070 42 48 3e bd 8c 60 b2 3e e0 04 84 3d 39 f4 2e be
       -0.04645563 0.34839284 0.06446242 -0.17085351
000080 61 8a 90 3d e8 b5 d1 3d 2b 46 53 3e 1c 51 c0 3e
       0.07057644 0.10239774 0.20632236 0.37561882
000090 63 ea a8 3d 64 69 39 3e d9 f9 98 3d 62 ef 79 bd
       0.08247831 0.1810661 0.0746953 -0.06101931
0000a0 c2 2e 9d be 87 0a 50 3b eb c0 0a bb ef 04 11 3d
       -0.30699736 0.0031744556 -0.0021172117 0.035405096
0000b0 c0 1c 34 3e a0 59 87 3e c2 07 17 3e 95 b6 7f 3c
       0.17589092 0.26435566 0.14749053 0.015607496
0000c0 7c 58 da 3d 2a d1 c9 3d 9b fa 39 3c e6 a2 35 3d
       0.10661408 0.09854348 0.011351253 0.044344805
0000d0 61 da 4d bd ce 91 c3 be 3f 2b 4c bd 01 d2 a6 3e
       -0.05025709 -0.38197178 -0.04984593 0.32582095
0000e0 43 bb 13 be 69 54 d1 3d 05 09 a4 3d 8b 63 a2 3d
       -0.14426903 0.10221178 0.08009533 0.079291426
0000f0 02 66 16 be 1b 0e 00 bf 92 11 8c 3d f2 1a 20 3e
       -0.1468735 -0.50021523 0.06839289 0.15635279
000100 80 f8 57 3e 0f 1b f7 bd 7a 00 1c bd 72 e0 de 3c
       0.21090889 -0.12065708 -0.038086392 0.027206633
000110 a9 bc ca bc e1 58 3b 3e fa 70 8a 3e ca f8 bd 3d
       -0.024748163 0.18295623 0.2703932 0.092759684
000120 ea e5 94 3d 7c c8 16 be 0a af 17 be 47 65 c4 3e
       0.07270415 -0.14724916 -0.14812866 0.38358518
000130 89 31 d0 bd 05 d3 09 3d c4 90 1b 3e 22 c1 13 3e
       -0.10165698 0.03364851 0.15191942 0.14429143
000140 e4 24 84 bc 1e d4 3e 3e a4 aa ee bd e6 9f 9e 3d
       -0.016130872 0.18635604 -0.11653641 0.07745342
000150 26 7c c9 3e 69 2b c6 3d f0 62 40 be 85 20 51 3c
       0.3935253 0.096762486 -0.18787742 0.012764101
000160 34 04 19 be 5b 4c 17 be 03 cc c3 3e 08 3f 7f 3d
       -0.1494301 -0.14775221 0.38241586 0.06231597
000170 a3 1b d2 bd 9e 93 4c bd 3c d0 85 3e 55 2c 3f 3d
       -0.102591775 -0.049945466 0.26135433 0.046673138
000180 84 13 8e bd d3 b8 33 3d 61 1e c9 bd 7d ed 27 be
       -0.06937316 0.043877434 -0.098202474 -0.16399188
000190 cb e1 dc 3e 18 28 b4 be b6 f5 b6 3d 37 d2 92 3e
       0.43141016 -0.3518684 0.089335844 0.28676006
0001a0 52 85 08 3f 9d 60 04 3c 26 f7 8a 3d 46 e8 60 be
       0.5332843 0.008079675 0.06785421 -0.21963605
0001b0 c5 60 81 bd 0f 68 ec be 8e a1 bf 3e 84 17 9b 3d
       -0.063172854 -0.4617314 0.37427944 0.075728446
0001c0 93 11 be 3d 07 5f 1b be ec 56 4f 3e 56 f8 1c bc
       0.09280696 -0.15172969 0.20248002 -0.009580692
0001d0 8f fe 78 3e 2e 62 fe 3c 02 ca 83 be 81 12 44 be
       0.24315856 0.031052675 -0.25740057 -0.19147684
0001e0 e9 39 d6 3b 3e 4f 8d be 1e d7 e9 bd 1c 9e 21 3e
       0.006537665 -0.2759952 -0.114179835 0.1578297
0001f0 05 dd 58 3c 7c 15 eb bd 7f 02 19 be 9e 64 9c 3d
       0.013236289 -0.11478707 -0.14942358 0.07636379
000200 2a 90 9b 3e 35 a9 cf 3d 80 4e 3d be 97 9e 84 be
       0.30383426 0.101396956 -0.18486977 -0.25902244
000210 af a5 d9 bd 44 1f c8 3e ea fe 20 3d 90 e5 c8 be
       -0.10627305 0.39086354 0.039305605 -0.39237642
000220 37 17 58 bd d8 99 5c 3e 33 85 16 3e c1 a3 f7 bd
       -0.052756514 0.21543062 0.14699249 -0.120917805
000230 35 10 ed bc 49 75 02 3e 97 30 15 3c 60 16 34 3d
       -0.028938392 0.12740053 0.009105823 0.04396665
000240 f2 20 8a be c2 3c 74 be fb 0c 15 3e bd 1f 8e bd
       -0.2697826 -0.23851302 0.14555733 -0.06939647
000250 62 68 89 3e 29 50 fb bd 8f 87 8c be 15 70 bc 3e
       0.2683745 -0.12271149 -0.27447173 0.36804262
000260 ba 19 79 bd 39 fc ac be 50 72 ce be 7a 24 08 be
       -0.06081555 -0.3378618 -0.4032159 -0.13295165
000270 db c3 38 be 6a 9c 3c be f2 89 ec 3e ae 74 7e 3e
       -0.18043463 -0.18419042 0.46198994 0.24849197
000280 43 4c 2b be 50 f9 ae 3e 96 5a b0 be cf 06 d7 be
       -0.1672831 0.34174585 -0.34444112 -0.41997382
000290 cf 68 7d be 70 ec 9d bc d8 cb 11 bf fe 0f 50 3d
       -0.24747013 -0.019277781 -0.56951666 0.0507965
0002a0 fd ba e0 3e 7b 7d ed 3e 82 02 e0 bd c2 d5 cc 3e
       0.4389266 0.46384797 -0.10937978 0.40006834
0002b0 73 59 31 be 9e 97 c8 be 24 4d a8 be 64 3c 0e be
       -0.17319278 -0.39178175 -0.32871354 -0.13890225
0002c0 5a 9e 2e 3e 7a 14 3e 3d 1a 96 9e bd b8 ca 9f 3e
       0.17052594 0.046406247 -0.07743473 0.3120935
0002d0 d4 3f 34 be 7c c2 72 3e 20 4b c3 bd 83 fc 00 be
       -0.17602473 0.23707002 -0.09535813 -0.12596326
0002e0 a6 b4 25 be 76 8e e0 3e c8 f1 bd bd 08 43 a5 3d
       -0.16182193 0.4385869 -0.09274632 0.08069426
0002f0 0c 32 a5 3e 09 50 75 3e fa 36 85 3c 9e 82 40 3d
       0.32264745 0.23956312 0.016261566 0.046999566
000300 d7 ec 40 3e f1 c2 70 3e ba f5 72 3e e9 d1 88 be
       0.18840347 0.23511864 0.2372655 -0.2672265
000310 53 2e f2 bc 81 c9 e4 bd 2d 2e c0 3e 12 59 a9 3d
       -0.029563105 -0.11171246 0.3753523 0.08268942
000320 45 30 ae bd 56 6b e9 bd 08 0f d1 3d 53 95 6a 3e
       -0.085053004 -0.11397426 0.10207945 0.22908525
000330 97 64 55 3e 48 0f c1 be 1c b1 da 3d 49 f3 0a 3e
       0.20839153 -0.3770697 0.10678312 0.13569368
000340 ca 78 e1 bd 23 cc b6 be 39 57 eb 3e ad 56 87 be
       -0.11009367 -0.3570262 0.45964983 -0.26433316
000350 23 b1 81 be 4f 87 86 bd 39 70 be 3c 2e 40 1d 3e
       -0.25330457 -0.06568777 0.023246871 0.15356514
000360 3c be d6 be f5 9c 57 bd 32 b9 56 3e e5 35 0f bd
       -0.41942012 -0.05263992 0.20969084 -0.034963507
000370 d3 45 e0 3e 27 da 9a be 76 dc 0d bc 11 6c 9a bd
       0.43803272 -0.30244562 -0.008658519 -0.07540143
000380 fe 62 1a 3d 89 48 86 3e 2a b8 a2 bd d3 d7 8c 3e
       0.037692063 0.26227215 -0.07945283 0.2750841
000390 4f 70 87 be 16 46 12 3e f6 a0 db 3e 23 a1 a9 be
       -0.26452872 0.14284548 0.4289624 -0.3313075
0003a0 58 ca d0 3d f5 2f 5f 3d 68 52 1d 3e 36 cc 85 3e
       0.10194844 0.054489095 0.15363467 0.26132363
0003b0 0f f4 88 be 71 ce 15 bd 75 bb a0 be 43 eb 6d 3e
       -0.26748702 -0.03657383 -0.31393018 0.23234276
0003c0 6a 53 25 bf 89 59 ff bd a3 74 25 3e 8c 74 e5 bd
       -0.64580405 -0.12468249 0.16157775 -0.1120387
0003d0 e7 e1 44 3d d3 ba 2a 3d 0d be 39 bd 69 22 e6 3b
       0.048067 0.041682076 -0.045347262 0.007023145
0003e0 a9 01 7b be 42 67 4d 3d 7d 91 2a bf fe fe c7 be
       -0.24512352 0.050147302 -0.6662825 -0.3906173
0003f0 67 86 2b 3e 79 61 4d 3e 55 45 51 be c2 17 3b be
       0.16750489 0.20056714 -0.20436604 -0.18270782

network_body._body_endoder.seq_layers.2.bias f4 [128]
000000 4a 42 bd be ef 04 a1 be ab 9c 9a bd 47 35 8f be
       -0.36964637 -0.31449077 -0.07549413 -0.27970335
000010 18 ad 13 be e0 cb 03 bc 67 39 f2 bd 12 58 e0 be
       -0.14421499 -0.008044213 -0.11827355 -0.43817192
000020 5e 19 72 be a1 b0 ba bd cc a8 f3 bd c1 06 1c be
       -0.2364249 -0.091157205 -0.1189743 -0.15236951
000030 9f ba 83 be 66 12 1c be 5d 63 97 be 51 6b 94 be
       -0.25728318 -0.15241393 -0.29567996 -0.28988126
000040 e2 3f 05 be 6d e8 1d be 12 87 57 be f8 85 be bd
       -0.1301265 -0.15420695 -0.21047619 -0.09302896
000050 7f 7b c2 be 21 9b 7d be 90 8c 79 3b ca 5c 2e be
       -0.37984845 -0.24766208 0.0038078167 -0.17027584
000060 07 72 81 be 75 fa 71 be 30 a1 57 be 30 a5 58 be
       -0.25282308 -0.23630698 -0.21057582 -0.21156764
000070 73 51 8f be 13 ef c4 be 61 a1 26 be 7a 66 46 be
       -0.27991828 -0.3846365 -0.16272499 -0.19375029
000080 b2 bc c1 bd b5 69 97 be 8a 07 b9 bd fb e4 4c be
       -0.09459819 -0.29572836 -0.09034641 -0.20009224
000090 21 f3 f0 bd 2c 9d 51 be 91 e9 07 be e6 8e 27 be
       -0.11765123 -0.20470113 -0.13272692 -0.16363105
0000a0 d8 46 12 bd c9 82 30 be 1d e5 93 bd 86 66 da be
       -0.035712093 -0.1723739 -0.07221434 -0.42656344
0000b0 60 11 59 be 79 1a 85 be 0f 4f f1 bd 27 4f 07 be
       -0.21198034 -0.2599676 -0.11782657 -0.13213788
0000c0 ee 17 d9 bc e4 6b 0a bf 7e 98 04 bf bf ea c9 3d
       -0.026500668 -0.5407088 -0.51795185 0.098592274
0000d0 fa bb 58 be b9 48 ad bd 1c 86 80 be 6c cf 0a be
       -0.21165457 -0.08461136 -0.25102317 -0.13555688
0000e0 ec 2b 6b bd a7 93 2e be ab ad 5d be b0 10 54 be
       -0.057414934 -0.17048512 -0.2164828 -0.20709491
0000f0 a6 60 9d bc 6e a1 9f bd 80 b1 f2 bd 65 ee df bd
       -0.019211125 -0.07794462 -0.11850262 -0.10934142
000100 38 91 43 be 95 e8 72 be 5d 26 a0 be ac dd 23 be
       -0.19098365 -0.23721536 -0.3127927 -0.1600253
000110 c7 86 10 be 2d 4d 15 be e2 13 97 be eb b1 8b be
       -0.14113913 -0.14580221 -0.29507357 -0.27284178
000120 b6 03 62 be d3 3a 4c be 7d a1 03 be 0a ac 3b be
       -0.22071728 -0.19944315 -0.12854572 -0.18327346
000130 e3 ed f0 bd 01 7a b3 bd f8 f4 66 be 1d c6 89 bd
       -0.11764123 -0.08763505 -0.22554386 -0.0672724
000140 d0 1a 8c be e3 b6 a0 bd 06 14 67 be db 19 83 be
       -0.27364206 -0.07847383 -0.22566232 -0.25605664
000150 ca cd d2 be e6 5e 15 be b3 6e 80 be a7 37 19 be
       -0.4117263 -0.14586982 -0.25084457 -0.14962636
000160 18 31 0b 3d 96 3a db 3c d2 a3 8f be b9 f1 45 be
       0.033982366 0.026761334 -0.28054672 -0.19330491
000170 16 99 f9 bd 08 ce ed bd c9 c1 5e be 97 d9 60 bd
       -0.12187402 -0.11611563 -0.2175361 -0.05489501
000180 84 96 c1 be df 88 d3 bd c4 ce 7f be a8 12 2f be
       -0.37810147 -0.103288405 -0.24981219 -0.1709696
000190 07 3a 83 be 6f a6 4d be 6b 4c 6d be e4 b9 8b be
       -0.2563021 -0.2008302 -0.23173682 -0.2729026
0001a0 40 21 ad be 5f b4 dc bd 0b 40 9e bd 9a 82 ea bc
       -0.3381443 -0.107765906 -0.07727059 -0.028626729
0001b0 1c f4 5d be c7 68 04 be a1 65 6d be 04 fe a2 bd
       -0.21675152 -0.12930594 -0.231833 -0.07958606
0001c0 e3 d4 38 be f4 af 28 be 88 b1 35 be 3c 1c 75 be
       -0.1804996 -0.16473371 -0.17743504 -0.23936552
0001d0 73 4a 2c be a3 50 7a bc 87 40 c0 bd 0e ff 14 be
       -0.16825275 -0.015278014 -0.093873076 -0.1455042
0001e0 3a 20 c7 be f5 ad cb bc 26 42 25 be cc e6 7a bd
       -0.38891774 -0.024863223 -0.16138515 -0.06125526
0001f0 ac a0 2d be 67 c3 47 be bc 71 6e be 11 f0 80 be
       -0.16955823 -0.19508134 -0.23285574 -0.25183156

network_body._body_endoder.seq_layers.2.weight f4 [128, 128]
000000 bb 9a 0c bd 7a 53 af 3e 6c 6e d4 3e 67 5a a1 3e
       -0.03432725 0.34243375 0.41490495 0.31514284
000010 63 57 6b bd d5 f2 bf bd 0b 02 1c 3e 6f cd ab 3e
       -0.057456385 -0.093724884 0.15235154 0.3355517
000020 79 14 ab bd 40 ec 72 3d 67 3d 21 3e fb cc fe be
       -0.08353514 0.059307337 0.1574608 -0.49765763
000030 81 c2 f7 3d 91 bc 9d be 54 c2 96 be 95 40 a0 3d
       0.120976456 -0.30807927 -0.29445136 0.07824818
000040 8e d6 b0 be e7 b2 92 3d 7a ef 7d 3e fa 92 95 3e
       -0.34538692 0.07163029 0.24798384 0.29213697
000050 64 df df 3e 17 97 8c be 55 a6 82 3d 0f 53 08 be
       0.4372512 -0.27459022 0.063793816 -0.13312934
000060 14 77 87 be 78 20 36 bd 9c 11 61 3e 84 03 9c 3e
       -0.26458037 -0.04446456 0.21979374 0.30471432
000070 a2 28 9b be 8e 8c 5d be 16 c5 86 be 1a 2a f4 bd
       -0.30304438 -0.21635649 -0.2632224 -0.11922093
000080 0e ff 98 be b8 9e e9 be 1b b8 01 be d8 2f c1 3e
       -0.2988209 -0.45628905 -0.12667887 0.37731814
000090 ab f6 17 3e 65 e1 9d 3a 2e 1d b4 be 80 ff 03 be
       0.1484019 0.0012045322 -0.35178512 -0.12890434
0000a0 04 90 9d 3d 78 ab d7 3e 88 0e 39 3e 05 dc d5 3d
       0.076934844 0.42123008 0.1807195 0.10442356
0000b0 2e 8c a5 3e e5 89 37 3b bf 39 7c 3e 00 df 06 3f
       0.3233351 0.0028005776 0.24631403 0.5268402
0000c0 31 2b fa bc e2 e8 66 3c e6 6b 28 be f8 55 5e be
       -0.030538173 0.0140936095 -0.1644741 -0.21712482
0000d0 1b c8 b9 be 59 03 f9 3d d5 53 0d 3f 33 a3 bc be
       -0.3628548 0.12158842 0.5520604 -0.3684326
0000e0 82 f5 90 3e 78 45 a6 3b 63 91 36 3f 0c 52 e5 3e
       0.28312308 0.0050741993 0.7131559 0.4478916
0000f0 b3 af 7a 3e bc c2 3f bd c1 8f a1 bd d4 85 e5 bd
       0.24481086 -0.046816573 -0.07888747 -0.11207166
000100 fd bf 00 be be 85 4e bf 17 7f 15 3d d3 34 17 bd
       -0.12573238 -0.80672824 0.036498155 -0.03691561
000110 ab 10 ba bd eb 95 17 be 40 fa ac bd 2c 7c d2 3e
       -0.090852104 -0.14803283 -0.08446169 0.4111036
000120 e4 f7 96 3d 21 b5 92 3e 0a db 8e 3e 7b 9f 98 3e
       0.073715 0.28653815 0.2790149 0.29809174
000130 41 93 b0 3e 5c 78 03 3f 4b a4 c6 3d 73 19 be bc
       0.34487346 0.5135553 0.09699305 -0.023205495
000140 46 96 cd 3e 56 ab 24 be 5c 7a d3 3e 61 6d 85 bd
       0.40153712 -0.16080984 0.4130429 -0.06515003
000150 db 51 f8 ba 18 3b 30 be d4 e3 58 bd b2 fc a2 3d
       -0.0018945293 -0.17210042 -0.05295165 0.07958354
000160 6a 7d 37 be 84 d5 06 bf 18 43 ad bd 10 6f d9 bc
       -0.17918935 -0.5266955 -0.08460063 -0.026542217
000170 e5 19 7a 3d e2 5f d8 3e 91 2f dd 3d c3 b3 42 3e
       0.06105985 0.42260653 0.10800088 0.19013886
000180 69 6f 24 3e 43 30 41 be 60 e5 7f be 6c 7f 70 3e
       0.16058125 -0.18866067 -0.24989843 0.23486108
000190 80 da 03 3f bb 55 ef bd ac d0 79 be 31 98 67 bb
       0.5150528 -0.11686274 -0.24396008 -0.0035338516
0001a0 6a 71 32 be df 64 23 bf 5f 05 10 3f d3 fc 86 3e
       -0.17426077 -0.6382579 0.56258196 0.26364765
0001b0 23 a5 be bd 6b 8d 6d 3e 1f 3e 45 3d a6 93 97 be
       -0.09308841 0.23198478 0.048154946 -0.29604834
0001c0 88 b0 d7 be f4 11 b5 3e 93 4f d9 3e df 93 07 3e
       -0.4212687 0.3536526 0.42443523 0.13240002
0001d0 af 65 bd 3c b8 5b d9 3e 7e fd 1d 3e 9c 50 53 be
       0.023119776 0.42452788 0.15428731 -0.20636219
0001e0 d9 0c 9b be 94 9a 92 3d 01 a1 1e be 20 20 63 3e
       -0.3028324 0.0715839 -0.15491106 0.22180223
0001f0 82 34 d6 3e d0 f4 1f 3f d6 83 73 be b9 f4 b4 be
       0.41836935 0.6248293 -0.2378076 -0.3534296
000200 18 dc 13 3d cc 49 e0 3e 7f 77 97 3e 3d 07 84 3e
       0.03609857 0.43806303 0.29583356 0.25786772
000210 26 c2 81 3e 24 69 a5 bc f6 f0 84 3e 29 d5 82 3e
       0.25343436 -0.020191737 0.2596509 0.25553253
000220 af 27 30 be e1 61 81 3d 6a 4c 30 3e cf 53 3c bd
       -0.17202638 0.06317497 0.1721665 -0.045978364
000230 b8 e1 4a bc 70 ee 44 be e2 c7 f1 bd ef 47 6a be
       -0.012382917 -0.19231582 -0.11805703 -0.22879003
000240 8f 83 3c be 74 f4 52 bd 3c 19 0f 3e 38 cc 7e 3e
       -0.1840956 -0.05150266 0.1397447 0.24882591
000250 1c b2 1e 3f 06 c9 79 be 28 6c 2f 3e 89 00 57 3e
       0.61990523 -0.2439309 0.17131102 0.20996298
000260 f5 ec b6 bd 89 29 49 bc 18 1f 6a bd 9b 8c 15 3f
       -0.08931915 -0.012277969 -0.05715856 0.5841767
000270 ff ef 68 3d 95 bc cb bd fa 4b 31 3d 42 4e a1 bd
       0.056869503 -0.099480785 0.043285348 -0.078762546
000280 e0 d5 57 bd d5 37 c2 bc b3 68 83 3d a1 6a 09 3f
       -0.0526942 -0.023708263 0.06416454 0.5367833
000290 4e 8a c1 3e f5 c8 04 3e cc 08 e2 3d d5 b7 23 bd
       0.3780083 0.12967284 0.11036834 -0.039970238
0002a0 68 a4 39 3b d5 1c 9b 3e 50 87 c2 3e da e5 87 bc
       0.0028326754 0.30295435 0.3799386 -0.016589094
0002b0 18 ce 6d 3d d2 9f 06 3e 42 e0 c8 3d 34 6d 01 3f
       0.058057874 0.13146904 0.09808399 0.50557256
0002c0 2e c1 84 bd ea 44 ef bd b4 27 c2 bd d4 e9 82 be
       -0.064821586 -0.11683066 -0.09480229 -0.25569022
0002d0 bb 7d b0 bd b1 3e 57 3e 8d 79 d9 3e 11 15 40 be
       -0.08617731 0.21020009 0.42475548 -0.18758036
0002e0 f3 1b 8d 3d 1d 34 a8 3e f7 0b c4 3e c9 2c a6 3e
       0.068900965 0.3285226 0.38290378 0.32456043
0002f0 49 57 e3 3c 3f 42 4b be f3 a8 1b 3e a5 f6 ac 3e
       0.027751582 -0.1984949 0.15201168 0.33781925
000300 65 7e e0 3e 87 1e 97 be fe a1 2b be 18 cc f1 3d
       0.4384643 -0.29515478 -0.16761014 0.11806506
000310 a3 43 63 3e a6 92 b1 3e a7 07 a8 3e c7 00 dc 3d
       0.2219377 0.34682196 0.32818338 0.10742336
000320 40 0b cd bd ac 19 e7 3e 72 05 0e 3f fd 0b 5a bd
       -0.100119114 0.45136774 0.5547706 -0.05323409
000330 14 f0 b9 3e a8 b8 0b 3f ff d1 16 3e f7 29 85 bd
       0.36315978 0.5457864 0.14728545 -0.06502145
000340 e6 51 13 3f d6 af d3 3d 50 64 ee 3e cd 32 25 3d
       0.5754684 0.103362724 0.46560907 0.04033165
000350 15 e6 41 3e 7a 7b a4 be 2e ec 93 3e 28 4c 99 3d
       0.18935426 -0.32125455 0.28891128 0.07485229
000360 2c 24 c5 bd bf 8e 44 3d 08 18 b8 bc bd 67 54 3e
       -0.0962604 0.047987696 -0.022472396 0.20742698
000370 1f f4 5f 3d 71 1e 1c 3f 94 02 7f 3e 05 53 52 3e
       0.05467617 0.6098395 0.24903327 0.20539482
000380 09 82 92 3e c7 36 03 be cd ea 44 3d ed 00 0a 3e
       0.28614834 -0.12813865 0.048075486 0.13476916
000390 35 9c 07 3e 79 a5 80 bc b8 fd 20 3e c1 94 54 3e
       0.13243182 -0.015703904 0.15721786 0.2075987
0003a0 77 fd a7 bd 3b d8 6e be 35 e8 dc 3e ab f8 ac 3e
       -0.082026415 -0.23324673 0.4314591 0.3378347
0003b0 40 40 30 bd c2 d9 d8 3d e2 9d f4 3d 8f 3c d5 3d
       -0.043030024 0.10588409 0.11944176 0.10411941
0003c0 8a d1 2a be fd 2f 89 3e d1 53 d2 3e 46 19 3d 3e
       -0.16681495 0.26794425 0.41079572 0.18466672
0003d0 dc 1b 26 3e 89 84 d4 3e 52 90 3e 3e 70 a2 77 3d
       0.16221565 0.41507366 0.18609741 0.060457647
0003e0 d7 80 02 be 29 f8 ac 3c 98 bc a2 3d eb ea b7 3d
       -0.12744461 0.021114426 0.07946128 0.08980354
0003f0 bf 3a 9a 3e e8 16 eb 3e 2c 52 a0 3d d1 0a 0c be
       0.30122945 0.45915914 0.07828173 -0.13676001

network_body._body_endoder.seq_layers.4.bias f4 [128]
000000 ad c7 50 bd 01 11 d6 bd 13 82 60 3d e1 7d c7 3b
       -0.050971676 -0.10452462 0.05481155 0.006088004
000010 6b 0b 65 be b8 62 31 be e0 0a a2 bd 55 3e 52 be
       -0.22367637 -0.17322814 -0.079122305 -0.2053159
000020 c0 0e cf be e0 57 8f bd d7 c1 fc bd 5e ff 2e bc
       -0.4044094 -0.06999183 -0.123416595 -0.0106810015
000030 3c c6 b2 bc ef b4 ca bd 31 32 71 bd 71 a5 6e bd
       -0.021823041 -0.098977916 -0.058885757 -0.058263246
000040 c2 19 01 bd 56 37 be bd 46 d9 88 bd 95 3d 87 bd
       -0.031518705 -0.09287898 -0.066820666 -0.06603543
000050 f9 bb 03 bf 1b 24 c7 be 04 ad 90 bd 08 85 64 bd
       -0.514587 -0.38894734 -0.0706425 -0.05579093
000060 06 94 a4 bd 53 f2 83 be 49 47 1f bd 9f 15 3a bc
       -0.08036046 -0.25770816 -0.038886342 -0.011357694
000070 ec 24 93 bd 28 7e aa bd 5c 57 51 bd 82 b2 bc bb
       -0.07184777 -0.08324844 -0.051108703 -0.0057585845
000080 20 37 09 be c4 a5 8c bd 2d ab 85 3e af c7 3e be
       -0.13399935 -0.06867555 0.2610716 -0.18630861
000090 1f 08 f5 bd d4 95 62 bc 6b 0f 49 bd 73 3c c6 bc
       -0.119644396 -0.013829667 -0.04908697 -0.024198746
0000a0 14 e3 43 be 88 56 c8 bd a2 9c d6 bd 76 95 2e bd
       -0.19129592 -0.097821295 -0.10479094 -0.042623006
0000b0 3b d8 b0 be cc d5 b8 be e4 9c 81 bc d1 87 81 be
       -0.3453997 -0.36100614 -0.015821882 -0.25298932
0000c0 db 60 e7 bd dd 55 c1 bd a3 7a 0e bd e0 55 82 be
       -0.112977706 -0.09440205 -0.034784924 -0.25456142
0000d0 be 2a 37 bd 8e 63 e2 bd fb 39 4b bd 96 9d 32 bd
       -0.044718497 -0.11054145 -0.04961584 -0.043607317
0000e0 7e 8e f5 bd 66 16 7f bd 7d bf 7a bc 83 46 31 bd
       -0.11990069 -0.06227722 -0.015304443 -0.043280136
0000f0 19 67 bf bd a4 b0 65 bd 89 2e b8 bd 8f 5d ed be
       -0.09345836 -0.05607666 -0.08993251 -0.46360442
000100 42 0f 84 bd 74 ca 79 bd e9 91 bd bd 73 60 ae bc
       -0.06448223 -0.06098409 -0.09256346 -0.021286225
000110 62 7b 97 bd d3 ff 6e bd 8f ae ee be df a3 33 bd
       -0.0739658 -0.05834944 -0.46617553 -0.04385745
000120 94 c2 be bd ca 3f 98 bd 34 61 98 bc 39 0f 69 bd
       -0.093144566 -0.07434042 -0.018601038 -0.056899283
000130 aa e9 01 bf dd ef 14 bd 59 ce 5e bd a6 8d 28 bd
       -0.5074717 -0.036361564 -0.054396007 -0.04115071
000140 cc 66 9b bd 17 4f de bd 22 22 d1 bc 1d 47 76 bd
       -0.07587966 -0.10854929 -0.025528971 -0.060126413
000150 cc 1f 37 bd 2f 08 64 39 f3 ce 21 bd 65 c4 b6 bd
       -0.04470806 0.00021746823 -0.039504003 -0.08924178
000160 cc ad 33 bd f1 3e b4 bd d5 65 6b bc e6 db 85 bd
       -0.043866917 -0.088010676 -0.01436754 -0.06536083
000170 57 de 28 bd 99 51 7c be 02 72 82 bd a7 60 8c bd
       -0.041227665 -0.24640502 -0.063694015 -0.068543725
000180 6c 68 ba bd e5 0c 5f bd f5 42 30 be 49 f0 60 bd
       -0.09101948 -0.054455657 -0.17213042 -0.054916654
000190 71 63 52 bd 77 74 2d bc 37 cd a9 bc 6e 49 80 bc
       -0.051364366 -0.010586849 -0.020727737 -0.015660014
0001a0 1d 03 cd bd 89 8f ab be 8b 7c 41 bd 65 37 82 3d
       -0.100103594 -0.33507946 -0.047237914 0.06358222
0001b0 81 87 02 be 56 89 88 bd 43 fc 05 be b3 3a 98 bc
       -0.12747003 -0.0666682 -0.13084511 -0.018582677
0001c0 a1 3a b7 bc 3d 0d 79 bd 93 f7 c4 bd bb 98 86 bd
       -0.022366824 -0.06080364 -0.096175335 -0.065721
0001d0 0e 61 fd bd 1d 0f 92 be 69 99 42 be 0e b8 77 bd
       -0.12372027 -0.28527156 -0.19003834 -0.060478263
0001e0 97 91 88 bd 67 72 31 bd f8 50 a0 bd f4 9c 8a bd
       -0.06668394 -0.043321993 -0.078279436 -0.06768218
0001f0 2b a7 1a be 02 41 39 be 59 99 15 be f1 07 16 bf
       -0.15102832 -0.18091205 -0.14609279 -0.5860587

network_body._body_endoder.seq_layers.4.weight f4 [128, 128]
000000 f3 bd 59 3e de 00 ae 3c 66 2c d8 bd b6 22 15 bd
       0.21263866 0.021240648 -0.10555343 -0.036410056
000010 6a 93 ef 3d 35 e2 18 3d 6c 96 ed 3d 1f 20 ac 3c
       0.11698039 0.037325103 0.11600956 0.02101141
000020 81 a2 41 bd 12 f4 d6 3c cf b6 12 bd 9b a4 f7 3c
       -0.047274116 0.026239429 -0.03581887 0.030229857
000030 89 2c 30 3e dc ba f8 bd f1 a9 04 3d bc 51 03 be
       0.17204489 -0.121450156 0.03238863 -0.12824148
000040 07 4c 32 3e ea c1 32 3d 4e cd 77 3e ec ac cd bd
       0.17411815 0.043641962 0.24199411 -0.10042748
000050 90 09 80 3d bd 7a fc 3d 47 67 ec 3d 57 55 29 bd
       0.06251824 0.12328098 0.11543136 -0.041341152
000060 89 fe 35 3e 77 90 a6 bc d5 36 4a 3e 14 95 f9 bd
       0.17772879 -0.020332558 0.1974748 -0.121866375
000070 f6 98 97 bd 74 a1 35 3c 07 9f 13 3d 0d f4 07 3c
       -0.07402222 0.011085857 0.036040332 0.008297932
000080 22 64 15 3e 02 b0 2f 3e 75 d2 6c 3e 14 ea 2b bd
       0.14588979 0.17156985 0.23127158 -0.04197128
000090 b9 6c 14 3e 49 c5 60 3e 0a 9a 0b 3e 7f 88 92 3c
       0.144946 0.21950258 0.1363298 0.017887352
0000a0 2d 80 16 3e 9b f0 15 bd 3b 48 ab 3d 3c d0 db 3d
       0.14697333 -0.036606412 0.08363386 0.10733077
0000b0 b7 9e 70 3d ae 24 f0 3c fd 8f e8 bd a1 e9 ad 3b
       0.058745112 0.029314365 -0.113555886 0.0053073918
0000c0 d2 8d 92 3d f8 e1 80 3d 3e c8 f6 3d 5f 74 57 bd
       0.07155956 0.062931 0.12049912 -0.052601214
0000d0 e1 85 89 3d 43 58 25 be 58 79 c8 3c 14 3c 55 bd
       0.067149885 -0.1614695 0.024471924 -0.052059248
0000e0 19 37 72 3d 1e 69 38 3d cc 10 2c 3d d2 3e 47 3b
       0.059134576 0.045022123 0.042008206 0.0030402434
0000f0 c4 18 d2 bc 8b 88 87 bd ed d0 bd bc 4b 6b a2 bd
       -0.025646575 -0.066178404 -0.023170913 -0.07930621
000100 3d 13 0c 3d 6b 33 3f 3d 67 1e 05 be 21 21 62 bc
       0.034198035 0.046679895 -0.12999879 -0.013801844
000110 1b 94 a6 bb 6b b6 0e 3d ce fc a2 bd fe 2e 50 bd
       -0.0050835735 0.034841936 -0.07958375 -0.050826065
000120 f2 c1 12 3d 91 30 fd bd 85 e1 3d 3d 4e e2 b4 3c
       0.035829492 -0.12362779 0.04635765 0.022080567
000130 12 c5 00 3b c7 ea d1 3d c5 f7 b1 3d d0 a7 f8 3d
       0.0019648713 0.10249858 0.086898364 0.12141383
000140 0b b8 a4 3d 88 33 e7 3c 0b 2c a4 bd 61 67 6e bd
       0.08042916 0.028222814 -0.08016213 -0.05820406
000150 74 2b 9f bd 01 5c a0 3d fc c1 b7 3c 51 f6 98 bd
       -0.0777196 0.07830048 0.022431366 -0.07468856
000160 75 a2 76 3e 2f 3e 46 3d 6b 1c 63 3d c3 0d 94 bd
       0.2408541 0.048399147 0.055447023 -0.07229187
000170 5e 87 9f 3d 1f dc a9 bd ef 81 38 be b3 b9 f3 bc
       0.07789491 -0.08293938 -0.18018316 -0.029751634
000180 58 a6 31 be a0 9d 16 3e aa dd 8c 3c e7 89 84 bd
       -0.17348611 0.14708567 0.017195541 -0.06471615
000190 c7 7e 0b 3d 4c 67 ac bd 2e 7a df bd f9 6a 31 3e
       0.03405645 -0.0841814 -0.10911976 0.17325963
0001a0 29 d3 2c 3e b2 7c 43 3d 57 de 03 3e 38 84 59 bd
       0.16877426 0.04772634 0.12877785 -0.05310461
0001b0 7d d9 29 bc 95 f0 81 3d 5a 5d 96 bd ee 80 f2 3b
       -0.010366795 0.063447155 -0.07342024 0.0074006235
0001c0 34 c5 fe bd b4 9c 2a 3e f5 8a 9c 3d a7 85 53 3c
       -0.12439957 0.1666134 0.076436915 0.012910283
0001d0 ad 9f 79 bc c1 34 b3 3c cb e4 6d bd 1f 1e ab bb
       -0.015235824 0.021875741 -0.058079522 -0.0052220966
0001e0 6f 7d ba bc 33 94 29 bd 05 7e 3c be f6 f0 f7 bc
       -0.02276489 -0.0414011 -0.18407448 -0.030266266
0001f0 fb 7f 67 bd c7 0e a4 3d 7c 27 36 3d 21 a4 a6 3d
       -0.056518536 0.08010631 0.04447125 0.08136774
000200 d9 e0 09 be 6e 9f 77 bc c7 7e 8c 3c c8 19 1a be
       -0.13464679 -0.015113695 0.017150296 -0.15048897
000210 3a cb 0a 3c 8b a5 27 3d 88 55 f3 3c 45 8b c6 bd
       0.008471305 0.04092936 0.02970387 -0.09694532
000220 d0 d3 bf bd fc 9f 62 3d dd 8a 7e bd 27 b1 00 3e
       -0.09366572 0.055328354 -0.06214415 0.12567578
000230 d5 ce 82 3d 38 6a 1d be 7b 8a 03 bd 3b b4 8d bb
       0.06387106 -0.1537255 -0.032114487 -0.0043244637
000240 4f 47 bd 3d 0b 65 99 3c ae 42 58 bc a0 9e 70 bb
       0.09242117 0.018724939 -0.013199491 -0.0036715642
000250 09 b3 ae bc c7 49 c3 3d 9f 29 a4 bc 19 a0 24 be
       -0.021325605 0.09535556 -0.020039378 -0.16076697
000260 12 a3 76 3d 0a aa 88 3d 7a 62 c9 bd a7 ef 5f 3c
       0.06021411 0.066730574 -0.09833236 0.013667977
000270 26 e0 24 bd 88 4d 1c bd 12 c2 ee bc 8c 2f 04 3d
       -0.040252827 -0.038159877 -0.029145274 0.032271907
000280 3a 3a f7 3c d1 c7 f9 bd 63 41 84 3d 2b b2 81 bc
       0.030179132 -0.12196315 0.06457784 -0.015832027
000290 b0 a3 45 bd 91 a1 19 bd d5 65 86 3d a6 9f f2 3b
       -0.048251808 -0.037507597 0.06562392 0.0074042855
0002a0 44 ae 2c 3d 77 1f df bc c3 7d 1f be 64 38 1c be
       0.04215838 -0.027236683 -0.15575318 -0.15255886
0002b0 46 dc bf 3d 44 88 52 bd a7 a8 42 ba f6 15 4f bd
       0.09368186 -0.051399484 -0.0007425644 -0.050558053
0002c0 32 7d f5 bd a7 82 99 3d 03 0e a9 3d a8 0c 59 3c
       -0.1198677 0.07495623 0.08254626 0.013247646
0002d0 de a3 0b 3e dd 87 e0 3b b1 12 8c 3c 40 67 b2 bd
       0.13636729 0.0068521337 0.017098757 -0.087110996
0002e0 84 13 f9 bc c5 42 b3 bc 80 2e 58 bd 54 68 5a bd
       -0.030404814 -0.021882424 -0.05277872 -0.05332215
0002f0 e7 a6 70 bc 11 32 83 3d ee a8 99 bc 9e 6d 1e bb
       -0.01468823 0.06406034 -0.01875731 -0.0024174224
000300 61 03 36 3d fd 3d 13 3d 1a 1c 86 3c 2f 8f 9f bd
       0.044436816 0.03594779 0.016370822 -0.07790982
000310 48 28 59 3d 7a 75 b9 3c 97 02 31 be 67 df 2c be
       0.05301693 0.022639025 -0.17286144 -0.16882096
000320 ea 94 79 bd 35 51 68 bd 7e fc 95 3d 2c 2c 8d 3d
       -0.06093303 -0.05671807 0.0732355 0.06893191
000330 17 3a bd 3d 09 a7 9d bb 8a 30 35 3d 8b 97 b6 3d
       0.092395954 -0.004811172 0.044235744 0.08915623
000340 95 0d 2c 3d 2f f6 b1 bd 1e 24 1f be 12 bd d3 bc
       0.04200514 -0.08689534 -0.15541121 -0.025846992
000350 55 94 a2 3d ff 3d 72 bd 0f ac b9 3c 62 ba 04 be
       0.07938448 -0.059141155 0.022665052 -0.12961724
000360 93 0c 9a 3b c8 1f bf bc 7f dc 9e 3d 97 8b 36 bd
       0.004701206 -0.023330584 0.077569 -0.044566717
000370 84 15 c2 3d ad 85 20 bd a3 9f cd bc 3d 6e 83 bd
       0.0947676 -0.039189983 -0.025100535 -0.06417511
000380 57 6e b1 3d fa 81 1c bd 87 97 5a bc 64 d6 95 3c
       0.08663624 -0.038209893 -0.013341791 0.018290706
000390 a4 3a 28 3e 0a a5 d4 3d 85 3d 52 3c 96 ff 3f bb
       0.1642862 0.10383041 0.01283205 -0.0029296628
0003a0 b9 84 ea 3c 50 86 24 3d c9 15 a2 3d 89 a9 41 bd
       0.02862774 0.040167153 0.079143114 -0.047280822
0003b0 5f 99 8f bc 2b 2b 87 bd 5c 6f 13 bc 3f d1 57 3d
       -0.017529188 -0.066000305 -0.008998718 0.052689787
0003c0 8c c0 9b 3b 29 65 00 bc f3 17 8c bb a7 f1 29 bd
       0.004753178 -0.007836618 -0.004275316 -0.041490223
0003d0 fc e9 cb 3c e9 a4 87 bd d2 c0 c3 b9 6d 12 3b 3d
       0.024891846 -0.06623251 -0.0003733696 0.04567187
0003e0 ce 6f 1a be ed 2f a7 3c f9 cf 47 3d 71 ea c4 bd
       -0.15081713 0.020408595 0.048782323 -0.09615029
0003f0 d3 17 2d 3d 2d cc c0 bd 9c 44 bb bd 30 c8 97 bd
       0.04225905 -0.094139434 -0.091439456 -0.074112296
